lightning_logs/version_0/checkpoints/epoch=53-step=1026.ckpt (torch, 146497 bytes, 63 tensors)

rnn.weight_ih_l0 f4 [32, 13]
00000000: 7526 113e 2c0b 1c3e d089 15bd 292b 283e
00000010: b32d 23bd f303 bd3c 1310 c8bd 31cb c33d
00000020: f1e5 163e 6c07 0dbe edc4 fb3d 7e8a b73c
00000030: a7e1 0e3e a39b 713d 7c70 e93d de9a 973a
00000040: 3a87 243e 86c2 373d 607e a4bd bd51 173d
00000050: 9510 a6bd 6704 aabc cdab 92bd ea78 d43d
00000060: 18d3 02be 19f8 17bd 99b4 223b 435e 74bd
00000070: 1a5d 7c3d 9708 08be a7b7 463e 3375 15be
00000080: 5e5b 063e a4a6 163d 56b3 4dbd 3e21 ef3d
00000090: deec 153d 8721 493e 5bf7 a73d 0b52 a3bd
000000a0: 2b7d f73c 9a20 7fbd a1b5 7a3d 861a 183e
000000b0: 1194 d53d 86af 62bd 4deb cb3d acc1 ef3c
000000c0: 15fe b33d bebc ddbd 7242 49be ab5d ccbd
000000d0: 6f59 38be a561 d33d b997 263c 54ac 0f3d
000000e0: 0a99 bb3c 922c a8bc 2906 063e bd69 03be
000000f0: 747d 153c e1d3 fcbd b9d6 623d 4352 b4bd
00000100: af69 813b 920f 39bd 2f83 133e 96c2 d5bd
00000110: 1c4d cabd 74df b6bd 3073 533e 05ca ca3d
00000120: fae0 253e 9cc4 1dbe 0d22 3cbe 3d8e d7bd
00000130: f13f 0cbe 2455 5b3d d0f1 813d 100d 183e
00000140: 56f7 b7bd 7fe6 f8bd dd89 bc3d 2b75 97bd
00000150: 3c4f e43d 5d99 2abd 4717 cf3d 152f 0cbe
00000160: 88f1 b6bd e9bd 563d b273 113d 1bc6 bfbd
00000170: 213e 773d 33eb 9f3d 4fd9 26be 5683 f6bd
00000180: 9110 273e 74cd 69bd adfe 76bd 3292 2cbe
00000190: ab19 cbbd 5172 3c3d e02e 5fbd 26b9 3abe
000001a0: b85d e9bc f924 13be 2ec5 30be 1dc2 00be
000001b0: 4218 34be ea50 02be 3275 283e c2c6 883c
000001c0: 045d 1c3d 626d 39be 98b9 b8bd bc2e 9dbd
000001d0: e02b bdbc 39c1 46be ef11 e0bd a298 0bbe
000001e0: b86d d9bc 1010 b1bd cb0a 4dbc cf5d dfbd
000001f0: d710 00be ecee d9bd cd89 83bd d2cf f7bd
00000200: 4176 0c3e d9a9 a7bd fc24 403e 50e9 ad3d
00000210: 23fa f7bd d338 193e 5e6f e0bc ac0e 8fbd
00000220: 9526 1abe d0b2 27be 79a5 7e3d c37c d9bc
00000230: 0680 823d d342 eabd ca3d 363e caf3 02be
00000240: f2c4 00bd 5250 093d 639b b63d 5891 143e
00000250: 96ec 313e 9696 14be 957f 923c e296 d0bd
00000260: 326b 40bd 5589 a4bd da04 3d3e dacd 03be
00000270: 623e e63d 7730 9f3d 1993 923d e7c5 afbd
00000280: 595c 283e d87b c63c a351 813c 5779 2dbe
00000290: 4bee 763d 807d 23bd f29f a8bd 46ef 243e
000002a0: 62c5 7e3d b0cd 82bd 7163 63bd 40f6 d43c
000002b0: d9b9 043e 246c 9cbc bbce b8bd b59e 48bd
000002c0: 1897 1cbe dfb7 293d 973a ee3d 28d8 24be
000002d0: b0af 093d 5f27 043e faf5 323b e75a bdbd
000002e0: 752e 803d 2718 873d 04e1 253d 8e2c 44bd
000002f0: 9262 96bd d444 a53c 2abf f3bc 45d1 53bd
00000300: fcba f23d 8029 163e 3a2e 44bd d850 87bd
00000310: be67 9dbc cf7b 09bd ae7d b83c 52c4 0b3d
00000320: 60f9 26be 22a9 8abd ec75 113e a3a7 7f3d
00000330: 3739 80bc b6ce aebd 53b4 e4bd e965 48be
00000340: 083f 87bd f200 463d 8aeb ce3d dcc0 933d
00000350: 9a0a 29be 3b1b ecbd 83aa 26bd 4caa 463e
00000360: a52e 493d ce34 bcbc f52a 813d 738e 50bd
00000370: e256 f6bd 6592 093e 3a71 9ebd 85e3 08bd
00000380: 80f4 33be 6334 eb3d 2390 f73d 3e9e 313d
00000390: 0bab 03be b992 38be 6e84 18be a6d7 063e
000003a0: ae06 b53d 80c6 213e 7e5a 6b3d 3ea8 8f3c
000003b0: 7b55 ebbc 09e2 24be 476b 31be 5bfa 26be
000003c0: 80a7 9c3d 1416 c4bd 6592 35bd fea8 e2bd
000003d0: afc0 9dbc d5a0 15be f234 2bbe 16d4 233d
000003e0: b7f5 8bbd a09d bf3d 4077 97bd 65ba 15be
000003f0: 15f0 36bd 75c5 c0bd d468 97bd 10e9 40be
0.14174826 0.15238637 -0.03650838 0.16422714 -0.039838504 0.023073172 -0.09768691 0.0956024
0.14736153 -0.13772362 0.1229342 0.022404905 0.13953267 0.058986317 0.11398408 0.001156654
0.1606721 0.044863246 -0.080319166 0.036943186 -0.081086315 -0.020754052 -0.07161675 0.10374625
-0.12775838 -0.03710184 0.0024826883 -0.059660207 0.061612226 -0.13284527 0.19405995 -0.14595489
0.13120791 0.036780015 -0.050219856 0.11676262 0.036602847 0.19641696 0.08201476 -0.07974633
0.030211052 -0.06228695 0.06120837 0.14853868 0.10428632 -0.055343173 0.099569894 0.029267155
0.08788697 -0.10827015 -0.19654253 -0.09978803 -0.18002866 0.103213586 0.010168009 0.035076454
0.022900123 -0.020529065 0.13088287 -0.12833305 0.009124149 -0.123451 0.055380557 -0.08804753
0.003949366 -0.045180865 0.14405511 -0.10437505 -0.09877989 -0.08929339 0.2064941 0.099018134
0.16199103 -0.15407032 -0.18372364 -0.10525177 -0.13696267 0.053547993 0.0634495 0.14848733
-0.089827225 -0.12153339 0.09205983 -0.07395395 0.11147925 -0.041650165 0.10111862 -0.13689835
-0.08932787 0.052427206 0.035510726 -0.093639575 0.060361985 0.078085326 -0.16293834 -0.12036769
0.16314913 -0.0570807 -0.06030147 -0.16852644 -0.09917005 0.046007458 -0.054488063 -0.18234691
-0.028487071 -0.14369573 -0.17262718 -0.12574048 -0.17587379 -0.12726179 0.16450956 0.016696338
0.038174644 -0.18108132 -0.09019774 -0.076749295 -0.02309221 -0.19409646 -0.109409206 -0.13632444
-0.026541576 -0.08645642 -0.01251478 -0.109065644 -0.12506424 -0.10641274 -0.06422768 -0.121001855
0.13716985 -0.08186693 0.18764108 0.084917665 -0.12108257 0.14963083 -0.027396854 -0.0698522
-0.1505378 -0.16376805 0.062169526 -0.026548749 0.06372075 -0.11438527 0.17797008 -0.1278831
-0.03143782 0.033523865 0.089163564 0.14508569 0.17375407 -0.14510569 0.017883101 -0.101850286
-0.04697723 -0.080340065 0.18458882 -0.12871495 0.11242367 0.07772916 0.07156963 -0.08582669
0.16441478 0.024228975 0.015785998 -0.16940819 0.060285848 -0.039914608 -0.08233632 0.161069
0.062199958 -0.06386888 -0.055514757 0.025996327 0.1296152 -0.019094534 -0.09023806 -0.04897948
-0.15292013 0.04143512 0.11632269 -0.16098082 0.033614814 0.12905644 0.0027307258 -0.09245854
0.06258861 0.065964036 0.040497795 -0.047894053 -0.073430195 0.020174421 -0.02975424 -0.051713247
0.11852071 0.14664268 -0.047895648 -0.066072166 -0.019214507 -0.03356534 0.022520866 0.034122773
-0.16306067 -0.06770541 0.1420514 0.06241573 -0.015652282 -0.08535521 -0.111672066 -0.19570126
-0.06603819 0.048340745 0.10103519 0.072145194 -0.1650795 -0.11528631 -0.040689956 0.194009
0.04911675 -0.022974398 0.063070215 -0.0509171 -0.1202829 0.13434751 -0.0773644 -0.033420105
-0.17573738 0.11484601 0.12088039 0.043363802 -0.12858216 -0.1802472 -0.14894268 0.13168201
0.08839165 0.15798378 0.057459347 0.017536279 -0.028727284 -0.1610185 -0.1732608 -0.1630644
0.076491356 -0.095745236 -0.044329066 -0.11067389 -0.019256918 -0.14612134 -0.16719416 0.039997183
-0.06833976 0.093562365 -0.07395792 -0.14621885 -0.044662554 -0.09412662 -0.07393041 -0.18838906

rnn.weight_hh_l0 f4 [32, 32]
00000000: 125c d5bd db6b 613d 6aef 08be bba7 dfbd
00000010: bf18 1dbd 2cf6 debc b3c8 03be 908d d53d
00000020: b902 203e 446e 6e3d 9d13 54bd 6107 2dbe
00000030: 2e2a debc b24f 9e3d 87d9 933d faf3 c23b
00000040: 2973 d2bd 7544 d03d 3015 02be 86a2 da3d
00000050: 8c3b acbd 0f8d de3c be73 23bd d55d 8b3c
00000060: ec7b babd 58b1 193e e720 d33b 0d9b 3a3e
00000070: 38d4 3c3e a453 5fbd 89eb 0ebe 0c66 d33d
00000080: 3e70 013e 1ad7 14be e02b 48bc dc3e 27be
00000090: 9bc3 1ebe 05e3 253d 66b7 643d 4136 983c
000000a0: 085b 27bd 1f63 363e f41c 103d 9977 ccbd
000000b0: f06a 5b3c e70a 643d c0dc 653d dac4 fabd
000000c0: 8318 523d 7322 c6bd 7f55 18be 6816 91bd
000000d0: f6b7 2e3e 59fe 233e 2763 173e 88ac dc3d
000000e0: 7505 ec3d c9c0 9bbc 5f67 d9bd f8f2 d53d
000000f0: f11b cabd 4edf bdbd 2649 2fbd 4e86 c4ba
00000100: 0c67 ba3d a0d0 92bd dfea aabd 4c2c ca3c
00000110: 2d81 dcbd f74a 06be e29a bd3d b354 06bd
00000120: 23ae 2e3e 5e61 333e d844 a43d 46dc 5e3d
00000130: af1f 3f3d 0c25 273c 11bf acbc 0d1c e93a
00000140: a1be 7c3d 8782 2a3e 9244 5ebd 5aca 91bd
00000150: a9c3 07bd b0ee a8bd 8f6b a63b dd3d 0b3e
00000160: c16c 093e f0c9 a23d cfae 1abe 269f abbd
00000170: c6e2 88bd a65d 86bc 8658 233d f0f4 40be
00000180: cc7c 8e3d f125 05be 24ee 01be 02f3 1abe
00000190: 0f5a 2a3e 2ccc 1abe 51b2 093e e15f c339
000001a0: 0dec 91bc d6d5 c13d 4cec 0ebd f81a d13d
000001b0: f7db 033e c126 25be bd07 8e3d d099 053d
000001c0: f4ec 053d 293c fc3c 3308 4d3d 8879 dbbd
000001d0: ba02 a5bc eba6 263e a940 043e 6738 ccbc
000001e0: ee68 19be eae4 a03b ab50 e9bd 9887 063e
000001f0: b0d7 bcbd 88f4 a5bc 5e73 6dbd fe9d db3c
00000200: f96f 243e beb5 943c a520 d33d f0fd 073e
00000210: 2972 f63d 856e 6abd 215d 1fbd 4e67 d13d
00000220: 54a8 e5bc 22fa ce3d 3792 36bd 62d7 fdbd
00000230: 0b44 5b3d 7e80 103d e761 883d 01dc 4e3e
00000240: b4e8 113e c2d6 263e eb35 f83c b1ac 30be
00000250: 1968 27be 6172 cbbd bdee 0cbe 530f c0bd
00000260: 303e 2dbe 30bf 0ebe fe6a cabd c6b1 2cbe
00000270: 6c2f d2bd 4613 843d bb12 133e cc4e 18bd
00000280: b1f3 a8bc 2e5b eb3d 7a2c a1bd 68b5 d1bd
00000290: 01c5 0f3e 9a25 3bbe 7708 693b 3ea0 2c3e
000002a0: c134 f53a e3e5 853c 7bf0 a7bd 8502 f8bb
000002b0: cdde 9bbc e8c6 11bb c9b0 d73d 629a f63d
000002c0: db8a cbbd 2e2f b03c bf29 f4bd 602f 25be
000002d0: 743f cd3c d199 31be 14d3 d63d 095a 70bb
000002e0: 2639 5bbd 26f6 633d 0f99 36be 3d62 d3bd
000002f0: 9449 17bd 12c5 44be 4d27 f1bd a4ce cf3c
00000300: 87b5 1c3e 9f0b 353e 9c07 d33d d115 e3bd
00000310: 94b6 c7bd e56a 213e bab0 7a3d 8820 63ba
00000320: ca13 f13b f90c 1fbe fd7a 97bd 03de 2b3e
00000330: 7c74 04bd ec8e c2bc 7a76 04be 8bf6 ebbd
00000340: 97df 49bb 07d1 d7bd 71c1 c8bc 90d5 aa3d
00000350: 1e32 28be d65e 193d 5a13 adbd fa12 d3bd
00000360: be0a ab3d b2f1 073e 8b09 33bd 4532 c0bd
00000370: e67b 16be 1d40 d0bd 84a3 26be ab9c 56bd
00000380: a893 213d e9bd 29be 0574 273e f4f2 d33d
00000390: 2a09 2cbe 3222 b0bd 66f1 403d f612 55bd
000003a0: 531f c6bc f814 b2bd d738 083e cf71 c6bd
000003b0: ffe4 fa3d 8661 73bb a874 173d 5d8b 093e
000003c0: e44e eabb 5f5e d1bd 5658 06bd 6901 113e
000003d0: 756b 02be 7f84 de3c e211 2ebe 28e1 c53d
000003e0: 92cd b43d b9e3 2c3b aa7d 823d ef87 a4bc
000003f0: 7415 b83d 9ff7 1ebe 435c 2ebd b49d cd3d
-0.10417952 0.0550345 -0.13372579 -0.10920664 -0.038353678 -0.027216993 -0.1286953 0.104273915
0.15626039 0.058210626 -0.051776517 -0.16897346 -0.027119722 0.077300444 0.072192244 0.0059494944
-0.10275871 0.10169307 -0.12703395 0.1067553 -0.08409795 0.027166871 -0.039905302 0.017012516
-0.091056675 0.15009058 0.0064431312 0.1822321 0.1844033 -0.054523125 -0.13957037 0.10322198
0.12640473 -0.1453518 -0.012217492 -0.16332573 -0.15504305 0.040499706 0.055838965 0.018580558
-0.0408583 0.17811249 0.03518386 -0.09983749 0.013392195 0.05567446 0.056118727 -0.12244578
0.051292907 -0.096745394 -0.14876364 -0.07084352 0.17062363 0.16014995 0.14783917 0.10775095
0.11524478 -0.019012826 -0.106154196 0.10446733 -0.09868611 -0.092711076 -0.04279437 -0.0014993639
0.09101686 -0.07168698 -0.08345579 0.024679326 -0.10766826 -0.13114534 0.09258057 -0.03279562
0.17058615 0.17517611 0.080209434 0.054409288 0.046661075 0.010201704 -0.021087201 0.0017784849
0.061705235 0.16651355 -0.054264612 -0.071186736 -0.03314558 -0.08248651 0.00507874 0.13597818
0.13420393 0.07948673 -0.15105747 -0.083799645 -0.066838786 -0.016402077 0.039879344 -0.18843436
0.06957397 -0.13002755 -0.126885 -0.15131763 0.16635917 -0.15116948 0.13446929 0.00037264734
-0.017812753 0.09464614 -0.03489332 0.10210222 0.12876879 -0.16128065 0.0693507 0.03261739
0.03269668 0.030790405 0.050056648 -0.107165396 -0.020142902 0.16274612 0.12915291 -0.024929238
-0.14981434 0.004910101 -0.11392339 0.13137662 -0.092208266 -0.020258203 -0.05797135 0.026808735
0.16058339 0.018153068 0.10308961 0.13280463 0.12033493 -0.057234306 -0.038907174 0.10224782
-0.028034367 0.10106303 -0.044573035 -0.12394597 0.053531688 0.03527879 0.066592984 0.20201112
0.14248925 0.16292861 0.030299148 -0.17253377 -0.16348304 -0.099339254 -0.13762946 -0.09377923
-0.16918254 -0.1394012 -0.098836884 -0.1686469 -0.10262951 0.064489886 0.14362614 -0.03718452
-0.020624014 0.114920005 -0.07869811 -0.102396786 0.14039995 -0.18276063 0.0035558024 0.16858003
0.0018707738 0.01634497 -0.08200165 -0.0075686597 -0.019027138 -0.0022243802 0.10531766 0.12041165
-0.09938594 0.021506872 -0.11922025 -0.16131353 0.02505467 -0.17343833 0.10489479 -0.003667476
-0.053521298 0.055654667 -0.17831825 -0.10321472 -0.036935404 -0.19215801 -0.11775074 0.025367089
0.15303622 0.17680214 0.10304186 -0.110881455 -0.09751621 0.15763433 0.061203696 -0.00086642103
0.0073570954 -0.15532292 -0.07396505 0.1678391 -0.03233765 -0.023749791 -0.1293582 -0.11521634
-0.0030803436 -0.10537916 -0.024506303 0.08341515 -0.16425368 0.03744396 -0.08450957 -0.10306354
0.08351658 0.13275793 -0.043710273 -0.09384588 -0.14695701 -0.10168479 -0.16273314 -0.052395504
0.039447457 -0.16576351 0.16352852 0.10349074 -0.16800371 -0.08600272 0.047105215 -0.052020036
-0.024184858 -0.08695406 0.13302933 -0.09689676 0.12250709 -0.0037136986 0.036976486 0.13432069
-0.007150518 -0.10223078 -0.032799087 0.14160694 -0.12736304 0.027162788 -0.16999009 0.09662086
0.08828272 0.002638085 0.06371625 -0.02008435 0.08988467 -0.15524147 -0.042568456 0.10039845

rnn.bias_ih_l0 f4 [32]
00000000: 9f73 bdbd c0c3 ecbb cdcd 35bd 0dbf 14be
00000010: da02 2abe 3b38 ddbd d0e1 a33d ca0c a13d
00000020: 1367 0cbe ff60 80bd 9494 15bc 4f25 01be
00000030: c8d5 e73d 185a 393e dff5 f53c 2f06 ffbd
00000040: cc47 943c 3782 8e3d a995 183e addd 97bd
00000050: 6948 1cbe 9f81 983d 700b 84ba 25dc 7dbd
00000060: 40b7 92bd d78e 9abd 82d7 233e bff8 c2bc
00000070: 655d 123e f4dc 143e 7392 2c3c b4d9 da3c
-0.092505686 -0.0072254837 -0.04438572 -0.14526005 -0.1660265 -0.10801741 0.08002055 0.078637674
-0.13711195 -0.062685005 -0.009129662 -0.12611888 0.113200724 0.18100774 0.030024467 -0.12452351
0.018100642 0.0695843 0.14900841 -0.07415328 -0.15261997 0.07446598 -0.001007421 -0.061977524
-0.071638584 -0.07546776 0.16000178 -0.023800252 0.1429344 0.14537412 0.010532963 0.026715137

rnn.bias_hh_l0 f4 [32]
00000000: 9583 7bbb 8900 f83d bfca 2abe f0c5 943d
00000010: f19e d6bc 1247 b63d 68d1 80ba 2d9c 8abd
00000020: 2bfb 1fbb 8814 cb3d 6e07 0abe 831f aebd
00000030: bd02 d5bc 560d 31bd afae 8b3d fece 003e
00000040: 9440 2cbd 73b5 303e 90c6 84bd be65 a2bd
00000050: 5f4b 96bd 78fd ffbd 0a2f 0bbe 78c6 25be
00000060: c7f0 1dbe 7a36 7d3d b067 ff3d 99cf 303e
00000070: 1301 2a3e 7431 b9bc 5fd9 b73c ca05 efbd
-0.003837799 0.12109477 -0.16678904 0.07264316 -0.026198836 0.08900274 -0.0009828033 -0.067680694
-0.0024411182 0.099160254 -0.13479397 -0.08502104 -0.026002282 -0.04322561 0.068204276 0.12578961
-0.042053774 0.17256717 -0.06483185 -0.07929562 -0.07338595 -0.12499517 -0.13592163 -0.16188991
-0.1542388 0.06181953 0.12470949 0.17266692 0.16601972 -0.022606589 0.022442518 -0.11671026

rnn.weight_ih_l1 f4 [32, 32]
00000000: f7b3 383d 2d19 32be 2bc0 813d d6ac 0a3d
00000010: 5e3e 1a3d c7e8 b33d 8be6 9cbd 1c21 293e
00000020: 93c6 ce3d e7c2 093e 6128 45bc 001c e03d
00000030: b006 f43d 3ce9 c03d caf8 ee3d 85ba fcbb
00000040: b6d5 d43d 42dc 233d 6835 053e c8c2 293e
00000050: 5110 ac3c 3579 59bd 0ea7 433b 68ac 383d
00000060: e6cf 5f3c e18f c5bc 73bc 1f3e 95d7 ef3d
00000070: b6c5 b5bd 1353 28bc 044e 25bd 5562 a6bd
00000080: 10c4 f83b 2fc2 4dbd c4f3 ecbd 881f 81bd
00000090: d2dd 9abd eec7 473e bbe7 933d 7282 3d3e
000000a0: 02f0 4c3d 1ff9 5f3d c714 e33c e48a ec3c
000000b0: 7cc6 16be e2cf d1bd d3c1 4dbd 3935 923c
000000c0: 4c23 8c3d 0e2a 8f3d 128f 2b3e ac42 1f3d
000000d0: caac b3bd 0a60 0ebe ae99 c5bd f1db f7bd
000000e0: 9094 513d 5cd8 ef3d 2449 3b3e 2719 75bd
000000f0: 7356 9f3c b32a 74bd a209 cfbc 8b9f a03d
00000100: f798 a63c 237f 7c3c 1e13 483d 4afb 623d
00000110: dacc 15bd 4501 05be bbd5 a03c 55e8 29bc
00000120: 5534 b6bd fbad 703d 7a89 fb3c 0b6c 0ebd
00000130: 03d8 bdbd 9e31 14bd 0916 05be 2853 bd3c
00000140: 7b8e 933c 413e ef3d a9c5 18bc 6883 de3b
00000150: c069 973d efce fb3d d2ff dfbd f089 cc3d
00000160: 39cc 7c3d 681d 0bbe 3a63 3d3d 9b1e fcbd
00000170: 96f8 a2bd 0eca cebd 5ca8 cabd d3c0 183e
00000180: 9110 10be cfbd be3d e7ad 0abe 3f53 d1bc
00000190: 2004 c33c b14e d83d 8e91 9abd 7c68 4c3d
000001a0: 0ffe c23c 9757 b83d cca6 093d d5ba 7e3d
000001b0: 8998 f8bd 92cf 0abe 62b6 2a3e c804 11be
000001c0: e82d a9bc e64b 9cbc 0143 1e3e f457 30bd
000001d0: ffcb e6bd 6579 64bd 5a99 823d efb7 873d
000001e0: 8195 253e ca5d 4fbd 5d7b 823d 6034 36be
000001f0: 79af 303d f3dc 953d 4c03 093e 11f7 dcbd
00000200: 967a 35bd 7b59 0d3d 7a62 e8bd bb09 0fbe
00000210: 03a5 32be 0fef 2a3b 6070 d03d abb6 413d
00000220: 0bb3 6a3c c4aa 883d 09f2 c9bd ccfd 773c
00000230: c11e 1cbd ad5b 9bbd 56dd 123e 3a42 05be
00000240: f4a7 d93c 203d 20be fb87 06bc af61 a4bd
00000250: 00c8 813d 6897 bebd abf5 c33d d960 0cbe
00000260: f192 d23d 564a 03be 375f b43d 2ed4 85bd
00000270: 1243 a2bc 2608 8fbc bf3b 013e 72b6 8e3c
00000280: f1f6 2dbe 3771 993c 283c 17be e5e6 033e
00000290: b9b5 973c 17b8 cebc df30 a7bd f008 893d
000002a0: 1d59 dabd b92a c13d 831a 833d f193 de3d
000002b0: 5a11 353d deca 1abe f5ef fe3d 43dd 3bbd
000002c0: 8b3e 54bd 45df 89bc d4a4 193e ddfd 0e3e
000002d0: a3e0 e83b 25a2 b13d c7b4 0bbe e4a9 3dbc
000002e0: bc71 24be a7e6 983d cfac cdbd b80c 80bd
000002f0: e51f 1f3e 905a 2c3e 89bf 08be 07ca 9ebd
00000300: 3f07 c83b c571 933d 2a28 5ebd 09d3 6cbd
00000310: 35e3 00be 815c c33d 2bfa 363e 8f99 a0bd
00000320: 9e8b a63d 2403 c93d fb94 da3d 2887 95bc
00000330: de1f a73b cef2 063e 227d d93d f5a4 3c3e
00000340: 5161 5ebd d67e 923d 3da5 133e 45c4 e9bd
00000350: 8918 6c3c 70b9 29bd 53d9 123e 070d b5bd
00000360: 9e1d fb3b fc2a f73d 89fb 0abe bd1d 19be
00000370: 0f0e 74bd 316b e13d 00d6 b93d 3d08 c0bd
00000380: 2c4e f33c b038 cbbd fe34 c5bd b223 1f3e
00000390: cee5 9f3d 808b 10bd 1964 c13c bc47 c73c
000003a0: ae1b 4e3d f3ff 74bd b2d3 03be 8f2f f83d
000003b0: 9b7f 553c 8fb0 8d3d 858d 97bd 6048 d03d
000003c0: 1fe8 fd3d cc70 bb3d 677a 6f3d f4eb 333e
000003d0: f886 19bb 4485 f53c 2b6e 393e 0d04 213e
000003e0: 70fc 86bd 9e8c 2e3e 597e 903d 9e82 f4bc
000003f0: d1c2 273e ae10 cdbd e8f0 cf3d 19d3 493e
0.045093503 -0.17392416 0.06335481 0.033856235 0.037657134 0.08784633 -0.0766116 0.16516536
0.10096469 0.13453256 -0.012033553 0.109428406 0.11915338 0.09419486 0.116685465 -0.0077126645
0.103923246 0.040004976 0.13008654 0.1657821 0.021003874 -0.053094108 0.002985421 0.045086294
0.013660407 -0.024116458 0.15599231 0.11711041 -0.08875601 -0.010273713 -0.040357605 -0.08124224
0.007591732 -0.050234016 -0.11569932 -0.06304842 -0.0756184 0.19509861 0.072219335 0.18506792
0.050033577 0.05468094 0.027719868 0.028874822 -0.14724153 -0.102447286 -0.050233673 0.017847644
0.0684267 0.06990443 0.16753796 0.038881943 -0.08773191 -0.13903823 -0.09648453 -0.12102497
0.05116707 0.11711189 0.1828962 -0.05983844 0.019450402 -0.059611034 -0.025273148 0.078429304
0.020336611 0.015411171 0.048846357 0.05541543 -0.036572315 -0.12988766 0.019633165 -0.010370334
-0.088967 0.05875967 0.030705202 -0.034771007 -0.092697166 -0.03618013 -0.12996687 0.023110941
0.018012276 0.11681796 -0.00932447 0.006790567 0.07393217 0.12295329 -0.10937466 0.09987247
0.0617182 -0.13585436 0.046237208 -0.12310525 -0.0795757 -0.100971326 -0.09895393 0.14917307
-0.1406882 0.09313547 -0.13542901 -0.02555239 0.023805678 0.10561884 -0.075472936 0.04990433
0.023802785 0.090010814 0.033606336 0.062189896 -0.12138469 -0.13555744 0.16671136 -0.1416198
-0.020651773 -0.01907916 0.15455247 -0.04305263 -0.11269378 -0.055779833 0.06376906 0.066268794
0.16170312 -0.050626554 0.06371186 -0.17793417 0.043136094 0.07317533 0.13380164 -0.10789312
-0.04430636 0.034509163 -0.11346908 -0.13968556 -0.1744576 0.0026082431 0.10177684 0.047293346
0.014324914 0.06673196 -0.09860618 0.0151361935 -0.038115267 -0.07585845 0.14342245 -0.13013545
0.026569344 -0.15648317 -0.008211131 -0.08026444 0.06336975 -0.09306222 0.09568342 -0.1370882
0.10281933 -0.12821326 0.08807223 -0.06534611 -0.019807372 -0.01745994 0.12620448 0.017420981
-0.16988732 0.018730743 -0.14769042 0.12881048 0.01851927 -0.025234265 -0.08163618 0.06691158
-0.10661528 0.09431977 0.06401541 0.10868061 0.044206 -0.1511645 0.12448112 -0.04586531
-0.051817458 -0.016830096 0.15004283 0.13964029 0.007106857 0.08673505 -0.1364318 -0.01157615
-0.16059011 0.074658684 -0.10042726 -0.06252426 0.1553951 0.16831422 -0.13354315 -0.077533774
0.0061043794 0.07199434 -0.054237522 -0.057818446 -0.12586673 0.09539128 0.17868869 -0.07841789
0.081320986 0.09815052 0.10672947 -0.018252924 0.0051002344 0.1317856 0.1061957 0.18422301
-0.054292027 0.07153098 0.14418502 -0.114143886 0.0144101465 -0.041436613 0.14340715 -0.088403754
0.0076634428 0.120687455 -0.13572516 -0.1495275 -0.05958372 0.11006773 0.090740204 -0.09376571
0.029700361 -0.09922922 -0.09629248 0.1554096 0.07807504 -0.035289288 0.0236073 0.024326198
0.050319366 -0.059814405 -0.12873724 0.12118446 0.013030912 0.069184415 -0.074000396 0.101700544
0.12397789 0.09152374 0.05846634 0.17570478 -0.0023426395 0.029970773 0.18108432 0.15724202
-0.065911174 0.17045829 0.07055349 -0.02984744 0.1638291 -0.10012947 0.10153371 0.19709434

rnn.weight_hh_l1 f4 [32, 32]
00000000: 1be2 253e 8403 383e bbba c93b 808b f7bd
00000010: 4108 c7bc 903a 87bd 807f 173e 81ca f03b
00000020: f9e9 623d 920a a63d 26b9 703d cbd5 c7bd
00000030: 079d 053e 575b fc3d 057c d3bd cd39 183e
00000040: 3ca9 843d 2a51 09bc 567f 10be 73c6 33bd
00000050: 6217 3abe ea35 ce3d d4c8 f63d 20e1 67bd
00000060: b550 143e 159f 9fbd 99dd cc3c b70c 0ebe
00000070: 663d aabc 9931 aa3d 0e96 a63d 39be f43b
00000080: a8dc d2bd 66c3 0b3e a950 ec3d 0934 0a3d
00000090: 1211 a0bd 71a4 ac3c d40e 113b d48e 203e
000000a0: fcf7 c93c 94ac b83b 72d6 e33c a269 be3d
000000b0: 3ed3 cdbc 4fcb 313e f6d6 ae3d 3d7d febd
000000c0: 0c3f b53b 4db3 11be 759c 16be ddb7 103d
000000d0: 67f4 2b3d 56da 80bc 1f4f 2c3e cd18 adbd
000000e0: f3d0 93bd 6c49 2cbd 5337 833b 1520 51bc
000000f0: 8e7d 0a3e 5043 90bd 7f72 b0bd f479 9b3c
00000100: 3da2 083e 4dc7 ea3c 0f58 b83d 8109 213d
00000110: b13f 283e d777 d13d f748 ee3d 86fa 03bd
00000120: 292d 16be 0fcb 8dbd 2593 7a3d 971e de3d
00000130: 0b30 3fbd 2988 043e 9489 823c 022d 00bc
00000140: 63d7 ffbb efec 29bd 99b4 263e da96 8d3c
00000150: b63b f63d d056 22be bb55 bbbd 25b9 d73c
00000160: 4bd2 203e cd3a ad3d deea 233d a818 26be
00000170: 1598 5d3b e372 00be fc1c 0cbe c9f1 a53c
00000180: 593a debd d9c7 153e 3ca7 c0bd 4f38 763d
00000190: 4ec3 e23d ccb2 19be e087 aa3d bf75 e7bc
000001a0: 7e42 b43d 76b5 383e d283 9dbd fe10 bdbd
000001b0: 9ea5 273e d2a1 e73a 5028 bdbc c5fd 013e
000001c0: beca bebd 92d7 92bc e348 f63d 6707 a23d
000001d0: 82b3 d4bd c9fd 443d a158 06be 68e8 b7bd
000001e0: 0a9e 023e 954f 30bd 3849 aebd e202 b73c
000001f0: 348b 533d f854 efbd 15af e6bd 5c41 33be
00000200: adb3 523d 72b5 e3bd 24d7 333a 7d83 73bd
00000210: 3210 04be 67a0 49bd f080 fbbd 6399 c7bd
00000220: eb1b b53c e28d 19be b2bb 1dbe 0a5a 083e
00000230: bfaa cf3c 2266 c0bd bbaf 9aba b220 073e
00000240: bff3 04be 9050 a8bd fdad 0ebe 3fac 00bd
00000250: f8eb 8e3b 695d 0dbe e94e e53d e990 07be
00000260: c57f 1e3e b85d e8bd 59b1 08bd f5f6 f13c
00000270: 29b4 a4bd cd35 2c3e 15fa e4bd 966f c7bb
00000280: 245c 10be 75ff 853d 79ff 183e a90b 313e
00000290: b51c ca3c 2a66 b5bd dab6 2e3e 68bc 3e3c
000002a0: b539 df3d 0cd9 bfbd 075a 9abd 6125 12be
000002b0: 39fd 083e 370c 313d f8f7 f6bd 8fe3 bf3c
000002c0: 8120 9bbd 1ab5 e83b 6f25 6b3d e3b7 b4bd
000002d0: 1028 e83c 25b5 f2bd 6abf 293d 0526 26be
000002e0: 1020 d93c e031 263e 5975 1f3e 0dad 8c3d
000002f0: 2ef6 eb3d 126f 3c3e 468d 493d 4f7c 5f3d
00000300: 457d 293c 4191 293e d463 1e3e 6964 9bbd
00000310: 09e8 82bb 6944 bcbd 63d7 7d3d 7bd7 2fbe
00000320: 0e1d 663d 7457 6abd 8066 963d cf0c 803d
00000330: e892 efbd 1890 e43d ecd4 953d eaf4 10be
00000340: eb41 383e 9c27 1f3e 1c9d de3d 8f0c 94bc
00000350: 8a27 733d b72e cabd 7405 70bd 7433 a93d
00000360: 305a 9e3d 8181 6a3d 812e 29be 7135 153e
00000370: 1f8c c4bd 895c 213e e74d 143e eca0 843d
00000380: 8074 2c3e c87b dc3d da8c db3d ac84 37bd
00000390: f818 343e 21a4 063d ab84 dd3d 398a 23bd
000003a0: 95be 003e f55f 243e 705f 00be 1108 103e
000003b0: b626 03be ab8b c9bd 690a 22be 232b 963d
000003c0: 1748 0fbe a987 6ebd 5161 b6bd ebc1 673d
000003d0: a05d 36be 4483 88bd 472e 1b3c 590e 593d
000003e0: 40ce a4bd 17e9 4e3d ef96 e8bd d58b 1fbe
000003f0: 095d 94bc db40 bdbd 912b f53d 7abc f8bd
0.16199534 0.17970091 0.006156293 -0.120871544 -0.024295928 -0.06602967 0.14794731 0.007348359
0.055398915 0.08107485 0.05877032 -0.09757575 0.13048182 0.12322109 -0.10326389 0.14865799
0.064775914 -0.008381167 -0.14111075 -0.043890428 -0.18172982 0.10068877 0.12050024 -0.05661118
0.14483912 -0.07794014 0.02500801 -0.13872038 -0.02078123 0.08310241 0.081340894 0.0074689654
-0.10295993 0.13648757 0.11538822 0.03374103 -0.07815756 0.021074506 0.0022134082 0.15679485
0.024654381 0.0056358073 0.027812216 0.092974916 -0.025125142 0.17362712 0.08537094 -0.12426231
0.0055311974 -0.14228554 -0.14708121 0.035331596 0.041981127 -0.01572911 0.16827057 -0.08451996
-0.07217588 -0.042062208 0.004004398 -0.012763997 0.13524458 -0.07044089 -0.086155884 0.01897905
0.13343139 0.028659487 0.09001171 0.039315704 0.16430546 0.10227936 0.11635011 -0.03222134
-0.14665665 -0.06923496 0.061175484 0.10845678 -0.046676677 0.12942566 0.015934743 -0.007823231
-0.0078076585 -0.041485723 0.1627983 0.017283846 0.12023108 -0.15853429 -0.09147211 0.026333401
0.1570522 0.08458481 0.04001891 -0.16220343 0.0033812572 -0.12543826 -0.13682932 0.020256894
-0.10850973 0.14627017 -0.094068974 0.060112294 0.11072408 -0.15009612 0.08326697 -0.028254388
0.08801745 0.18037972 -0.07691158 -0.09231757 0.16371772 0.0017672128 -0.023090512 0.12694462
-0.09316014 -0.017925058 0.12025621 0.07911568 -0.10385801 0.04809359 -0.13119747 -0.08979875
0.127556 -0.043044645 -0.08510059 0.022340242 0.051646426 -0.116861284 -0.11263863 -0.17505401
0.051440883 -0.11118592 0.00068603666 -0.05945157 -0.12896803 -0.049225237 -0.12280452 -0.09746053
0.022108039 -0.1499553 -0.15403631 0.13315597 0.025349973 -0.0939448 -0.0011801639 0.13196066
-0.12983607 -0.08218491 -0.13933559 -0.031414267 0.0043616258 -0.13805164 0.111966915 -0.13238873
0.15478428 -0.113460004 -0.033372257 0.029536704 -0.08042175 0.16817398 -0.11180512 -0.0060863
-0.14097649 0.06542865 0.14941205 0.17289604 0.024671892 -0.08857377 0.1706194 0.011641599
0.108996786 -0.0936757 -0.075367026 -0.14272071 0.13377847 0.04322454 -0.12059015 0.023423938
-0.07574559 0.007101667 0.057408746 -0.08824136 0.028339416 -0.11850957 0.041442312 -0.16225441
0.026504546 0.16229963 0.15572108 0.06868944 0.115215644 0.18401745 0.049206994 0.05456191
0.010344808 0.16559316 0.15467769 -0.07587511 -0.003994946 -0.09192736 0.061972987 -0.17172043
0.056180052 -0.057212308 0.07343769 0.06252443 -0.11697942 0.11160296 0.07316002 -0.14155927
0.17993896 0.15542454 0.1086981 -0.018072395 0.05936388 -0.098721914 -0.05859895 0.08261767
0.07732046 0.05725241 -0.16521646 0.14571168 -0.095970385 0.15757956 0.14482842 0.06476006
0.16841316 0.10765797 0.10720225 -0.04480426 0.1758765 0.03287137 0.1081632 -0.03992674
0.12572701 0.1605223 -0.12536407 0.14065577 -0.12807736 -0.09841093 -0.15824284 0.073324464
-0.13992344 -0.058234844 -0.089052804 0.05658142 -0.17809153 -0.06665662 0.009471483 0.0529922
-0.080471516 0.05051526 -0.11356913 -0.15580685 -0.018110769 -0.09240886 0.119712 -0.12145324

rnn.bias_ih_l1 f4 [32]
00000000: aa6b e2bd f6eb 11be ab9e 28be cd4b 893c
00000010: 166d debd 7197 5b3c f74d 9ebd 9103 01be
00000020: 5302 fc3d 09f6 b53d 2f57 e73d e34e 263e
00000030: 6f06 fbbd 0917 ccbd d64f 0fbe c7a3 fd3d
00000040: 5955 cf3d c8c7 163e 80f4 00be b7cb c9bd
00000050: 9bc3 373e f57a 07be b8d3 e2bd 64be 663d
00000060: 88c3 22be aa8d 65bd 560d 8b3d b6f6 1c3e
00000070: 9144 6fbc 230c 13be 4df7 d83d 6d05 373e
-0.110556915 -0.14250168 -0.16466777 0.016759777 -0.1086065 0.013402806 -0.07729714 -0.12599017
0.12305131 0.08884818 0.11295926 0.1624103 -0.122570865 -0.09965331 -0.13995299 0.12384754
0.10123701 0.14724648 -0.1259327 -0.09853309 0.17945711 -0.13230498 -0.110755384 0.056333914
-0.15894902 -0.056043305 0.06789653 0.15328488 -0.01460375 -0.14360099 0.10594044 0.17873164

rnn.bias_hh_l1 f4 [32]
00000000: 4dcd fabd 21c7 7f39 991a 00be 91f3 c3bd
00000010: 6485 6f3d 7775 b73d 8aeb a23d 1903 31be
00000020: fcc1 1fbd 1a60 833d aadd e1bc a731 7dbd
00000030: ab16 b0bd fff3 253e 4bee 17be a752 09be
00000040: aaeb 003e 5dd3 d3bd b42f d63d 7235 cfbd
00000050: 8a90 89bc 1b66 9ebd 16b5 1c3e 4613 e93d
00000060: cf89 853b c208 efba 6769 97bd 4c2f b0bd
00000070: b089 7bbd 97d6 903d 7265 d4bc 26db fa3d
-0.12246189 0.00024392876 -0.12510146 -0.09567941 0.05847682 0.089579515 0.07955082 -0.17286338
-0.039003357 0.06414814 -0.027571518 -0.06181493 -0.085980736 0.16206358 -0.14836995 -0.13410436
0.12589899 -0.10343049 0.104583174 -0.10117616 -0.016792554 -0.07734319 0.15303454 0.11380629
0.004075266 -0.0018236863 -0.07393151 -0.08602771 -0.061410606 0.0707218 -0.02592728 0.122488305

rnn.weight_ih_l2 f4 [32, 32]
00000000: dd2b 0d3d ae87 bf3c cae7 eabd bd19 b43d
00000010: 26c0 19be bbb8 503d de3d 663d 2903 283d
00000020: a714 db3d 4608 2a3d 7aa7 63bd 100b 0abe
00000030: 0d45 32be f2b1 e03d 5740 dd3d d40f 02be
00000040: 9f3d 1b3d 68d1 8abd 0c9c 0f3e 0467 55bd
00000050: c044 0d3e 78b4 063e 3f68 f23d 55f3 1f3e
00000060: a6a3 723d f049 873d 8a4d 29be d0af 0bbd
00000070: 402c 9f3b 4b98 e13d 4a28 99bd a6e9 8f3d
00000080: b5bf 023e 89bb cb3d c99b a43d 6323 27bd
00000090: 5ea1 8a3d 0618 1abd 4b59 333e 9bd1 1f3c
000000a0: 4e64 423b f67e 35be 72be 253e 8338 1ebb
000000b0: 2543 d03d c290 b4bd 2a63 0abe e1da 8abc
000000c0: d0fd f3bd da93 773d b188 ecbc e6a6 b0bd
000000d0: ba5d c33d 3a85 f93d e8ec 24be 79ea 1abe
000000e0: 854a a13d c686 d0bd 5371 983c 6430 8fbd
000000f0: e742 3b3d f700 a6bd 8244 c5b9 8342 6bbd
00000100: 4b98 89bd 8cbf a8bd 0e1a 323d 1015 ff3d
00000110: 2af2 9c3a 900c 38bc 5ef1 0c3e b515 183e
00000120: 545f 0dbd dbfa 11be 6f7e 093d c999 1e3d
00000130: 2c1e 06be eda4 25be 40d9 c53c ea8d 2d3e
00000140: ce7a 28be 646a b7bd 714c 8abd c38c 15be
00000150: 3faa debd 333a 1b3e e4a1 173e a8ae dfbd
00000160: 76e0 383c 78d4 07be 4776 833d af4b e9bd
00000170: e0fd 94bd 914c 9cbd fed2 ab3c f1c0 de3d
00000180: c3ad a1bd 274a 8e3c ebdf 183e 8af8 113c
00000190: 0e42 0b3d 3b62 fabb 4a13 a8bc 37f1 c53d
000001a0: fec5 a73d 8844 9bbd fa15 303e e944 a53d
000001b0: a8fe 2dbc c7a3 0b3e 28e0 cd3a 313f de3d
000001c0: 594c 2bbe 1900 123e fbe4 3f3e e6c6 e6bd
000001d0: 0746 0fbe 1ed0 5dbd 6865 cebd b040 7e3d
000001e0: 6bf2 c83d 6abb ecbc 56de 093e 1c20 d33c
000001f0: d243 81bd af31 24be e299 773d b192 2ebe
00000200: dc25 37bb 8025 6f3c 6e4d dfbd e1b9 1d3d
00000210: c47f 9a3c a71a 043e 1d9a fc3d 2261 1abe
00000220: ce03 ebbd ac16 72bd 2fce 02be c42f 873d
00000230: ffdd e3bd f898 10be 5fce 3c3d e067 dc3d
00000240: fcf1 3bbd 3974 30be 8a82 b33c 697d a63d
00000250: 310b 123e 1ea6 b83b 6b7c db3d 10a3 36be
00000260: c2e0 213e d456 f3bd f3ed dfbd 8ecd e93d
00000270: 3d17 4abd a101 c33d 8888 ebbd e40d 103e
00000280: fbd8 2d3e 3fc7 883d 5740 103e 635b 0dbe
00000290: ea51 53bd 8f0d 923d 4efd db3d 930b b3bd
000002a0: a976 fa3d 51ee 87bd 9ad8 ccbd da03 493d
000002b0: 4baf 17be 16e8 15be 2304 8b3d bc37 623d
000002c0: c324 933d a5fa 88bc 4739 07be f2aa 1abe
000002d0: 8530 1b3e 1452 23be 841c 143d 6acb 013e
000002e0: e782 f83d caca dabd 1e98 7ebd 8f63 1abe
000002f0: d3ee d13d 6a11 20be 01cb 2cbe f11f f5bd
00000300: 4b2f 163e 795c 0d3e 1d6c d23d 5ae4 fd3d
00000310: 3697 bcbd 8182 a6bd 479c b9bd aece 6e3d
00000320: 6e17 ad3d 76d6 9e3c f86f 05be cd6a d23c
00000330: f87c dcbd f8fe 89bc 2311 d3bc 7ce6 a53c
00000340: e6d5 0bbe 52f6 2d3e 688a c1bd 4254 343d
00000350: 9ac0 f13d 7865 893d aa50 ed3d ebe5 cd3d
00000360: 9970 e53d c754 0d3d ff5f d43d 81f9 bbbd
00000370: dcef c3bd b24b c93d 3832 483d 7cb4 423b
00000380: 677e 07be be6c 8d3d d6f4 f23d a1be 9ebc
00000390: 5f8c 2d3d 6e45 a03d cb3a 33be 8439 8fbc
000003a0: e809 90bd 40c1 cdbd 48d6 d03d e1cc 2a3e
000003b0: cdff 0a3d 5bde df3d a41e ffbd 417c d83c
000003c0: 8862 c5bc 58f8 dabd 2434 d83c afd6 7d3d
000003d0: 4695 10bc 65d3 b53d 729f cd3d d684 343e
000003e0: 72f2 6c3c 9040 c13c 8ed8 8dbc 6801 d03c
000003f0: ee6d b7bd ef20 09bc 5edb 1cbe 8777 06be
0.03446566 0.023380127 -0.114699915 0.08793972 -0.15014705 0.050957423 0.056211345 0.04101864
0.106972985 0.041511796 -0.05557964 -0.13480783 -0.17409153 0.109714404 0.108032875 -0.1270135
0.037900563 -0.06778222 0.14024371 -0.052100196 0.13795757 0.13154781 0.118362896 0.15620168
0.0592381 0.06605899 -0.16533485 -0.034103215 0.00485757 0.11015376 -0.07478388 0.07026987
0.12768443 0.09947879 0.08037526 -0.04080523 0.067690596 -0.037620567 0.17514531 0.009754564
0.0029661837 -0.17724213 0.1618593 -0.002414257 0.10169057 -0.08816673 -0.1351439 -0.016950073
-0.11913645 0.060443737 -0.028873773 -0.08625583 0.09539361 0.12183614 -0.16105998 -0.15128507
0.078755416 -0.10181956 0.018608725 -0.06991652 0.0457181 -0.08105653 -0.0003762581 -0.057436477
-0.06718501 -0.0823966 0.04348188 0.12455189 0.0011974026 -0.011233464 0.1376395 0.1485203
-0.03451474 -0.1425585 0.033567842 0.03872088 -0.13097447 -0.16176195 0.024151444 0.16948667
-0.16453096 -0.08955839 -0.06752861 -0.14604478 -0.108723156 0.1515892 0.1480785 -0.10921985
0.011283984 -0.13264644 0.06419044 -0.113913886 -0.07274985 -0.076317914 0.020974632 0.108766444
-0.078944705 0.017369343 0.14929168 0.008909354 0.03399854 -0.0076411045 -0.02051701 0.09665149
0.08192061 -0.07581431 0.17195883 0.08069784 -0.010619797 0.13636695 0.0015707063 0.108518966
-0.16728343 0.1425785 0.18739693 -0.112684056 -0.13991557 -0.054153554 -0.100779355 0.06207341
0.098118626 -0.02889796 0.1346372 0.025772147 -0.06311764 -0.16034578 0.06044949 -0.17048146
-0.002794615 0.014596343 -0.109034404 0.038507346 0.018859752 0.12900792 0.12334082 -0.15076116
-0.11475335 -0.059103653 -0.12773965 0.066009074 -0.11126327 -0.14120853 0.04609525 0.10762
-0.04588507 -0.17231835 0.021912832 0.08129389 0.14262082 0.005635037 0.1071709 -0.17835641
0.15808395 -0.118817955 -0.10934057 0.114161596 -0.049338568 0.09521795 -0.11500651 0.14067799
0.16977303 0.06678628 0.14087044 -0.13804393 -0.05159179 0.07131492 0.107416734 -0.08742442
0.12229664 -0.06637252 -0.10002251 0.04907594 -0.14812963 -0.14639315 0.067878984 0.055228934
0.07184746 -0.01672108 -0.13205443 -0.15104273 0.15155227 -0.15949279 0.036160007 0.12675253
0.12134343 -0.1068321 -0.06215679 -0.15077041 0.1025063 -0.15631643 -0.16874315 -0.11968983
0.14666478 0.13804807 0.10274527 0.1239707 -0.09208529 -0.081303604 -0.09063011 0.058302574
0.084517345 0.019389372 -0.13030994 0.025685692 -0.107660234 -0.016845211 -0.025765007 0.020251505
-0.13655815 0.16988495 -0.09450227 0.044025667 0.11804314 0.06708807 0.11587651 0.10053619
0.11203117 0.034504678 0.10369872 -0.091784485 -0.09567234 0.09828891 0.048876017 0.0029709628
-0.13231812 0.069055066 0.11863105 -0.019378008 0.042370196 0.07825743 -0.17502896 -0.01748348
-0.070331395 -0.10046625 0.10197121 0.16679718 0.033935357 0.10931083 -0.12457016 0.026426436
-0.024094835 -0.10691899 0.02639205 0.061972316 -0.008824652 0.08878211 0.100401774 0.17628798
0.0144621 0.023590356 -0.017315175 0.025391296 -0.08956514 -0.008369668 -0.15318057 -0.13131534

rnn.weight_hh_l2 f4 [32, 32]
00000000: 0d66 97bd c956 be3d 39c8 b53d cce7 0cbe
00000010: 50e4 7b3d fb87 8d3d 55a4 b5bd 9fa5 203e
00000020: aa58 073e b07d 103e be90 dfbc e8e6 afbd
00000030: fcfe dbbd 0ecc 8a3d 989b f1bc bdb4 163e
00000040: 4902 093e 008a 803c 27b7 f0bd 6309 9b3d
00000050: 96e7 303e 5485 5abd 6d15 a2bd 7a6b 39bd
00000060: a379 8b3c 7725 05be 5386 b13d 0fd3 b23d
00000070: 6b2c 62bd be4f 58bd bd31 b1bd 7b09 043e
00000080: ae1e e43d 493f 4c3d 4a86 63ba 3a3c 703d
00000090: 1f2a 263e 896c 813d 86a4 a8bd 4aa8 893d
000000a0: fd66 6dbd 4dcd 53bc 2f93 d4bd afc2 77bc
000000b0: 09d2 e23c c049 e1bd dab5 bd3d c16d 153e
000000c0: f7c2 33be fc8a 7c3d 6c18 0abe 2fa6 20bd
000000d0: 71a5 b23d 33a2 0ebc ea81 143d da56 56bd
000000e0: abc8 423e 939b a0bd 02f1 e83c 2e76 eab8
000000f0: ee5a fd3d afc0 0a3b 61aa 033e ef9f 733d
00000100: 1797 ea3d f722 d5bb 6e61 313d 52e8 263e
00000110: 597b 55bd 7f20 a1bd bc65 1c3e aa23 4c3d
00000120: 7ce1 2fbe ac29 613d 8b3e 45be 68e2 bbbd
00000130: c102 8f3d 072e d53d 9025 13bd 30da 1f3e
00000140: 9a43 3b3e b4d1 0f3e 984f 19be 7147 abbd
00000150: d0f1 a93c 1f3c 013e d98c 9cbc 08d1 ea3c
00000160: f050 a83d b6f1 c1bd a2f7 e9bd 9f24 3b3e
00000170: 0049 d9bb 1ad3 0d3e 7618 37be 24cb 82bd
00000180: 670d f03d 0574 0cbc 8baf 4e3d 0f0d 15be
00000190: e834 3f3e ca17 b8bd 1326 19bc bad2 f2bd
000001a0: e7a4 b7bd b516 14be ef99 2bbe 05ad 8ebc
000001b0: 869e c8bd 7d86 053e 7b62 913c 4eb0 203e
000001c0: e8bb dabc 9f85 073d 2cec 3e3e f31b 02be
000001d0: 1bd6 a6bd 1187 1e3e 789f 8fbc 17a5 38bd
000001e0: ed11 9cbb 7f6e c1bd 208a 833c f823 5abd
000001f0: ddc4 903d 94f3 8abc dc75 8bbd 37b6 b6bd
00000200: e522 3f3d bf3c d53d b3c0 1ebe 4a6d 0fbe
00000210: aa49 43be a26d b53d 2d98 fd3d 6367 29be
00000220: 063f 383d 23aa 3c3d 6f4e a7bd 54da b03c
00000230: 02f6 173e c049 2b3e b2c9 8e3d e2fc 42bd
00000240: d9e0 b6bd 27aa 8bbd 0a7c 0cbc 039a 32bc
00000250: 647e e83d d69f 25be cbd4 b23b 17ed 53bd
00000260: 7d43 c83c 354d 363e 9961 613c 3010 34bd
00000270: 7d71 71bd 00a7 3cbe 04ab 2cbe 3926 9a3d
00000280: e8ce 01be 3433 a73d af0d 2abd b4ff 843d
00000290: ebff e23d b979 b63c 6b05 503d f813 163e
000002a0: 8b95 4abd 541b f23d 2df1 fbbd d5cc 183e
000002b0: 01a2 24bd 0968 55ba f4c2 af3d 68f0 0ebc
000002c0: 515d 283e 8e26 98bd 7b39 f0bd b023 2c3e
000002d0: b9e2 d9bd 23bd 063e 8e35 163e 2e90 ed3d
000002e0: c9ed 5fbd 63bf 31bc 1932 25be 22dd d9bd
000002f0: 3486 2fbd 108b 0bbe cbe2 cb3d 3f72 b83d
00000300: b268 52bd 1a34 b6bc 0737 2f3e 9b2e b6bc
00000310: d45f 113e 413a 313e 7829 a1bd 2651 33be
00000320: a5ea 2f3e b434 b9bd f49e 343e a462 05be
00000330: 69b4 303d 7fc3 3c3d 6f4e 6dbd fb55 043e
00000340: 764e 17be a5f2 88bd b9db 1cbd a0db 0c3e
00000350: 090b 8a3d 3142 ef3d 1075 8b3d 4ab1 2c3e
00000360: 68e5 dabc 19b4 36bd 5a8d aabc e183 593d
00000370: e674 1fbd ba97 593d 627f 513d 3978 403d
00000380: e20d 203e 3fae b03c dd35 d13d 7055 3ebd
00000390: 6c05 16be eedd d03d c89d b83d 22b3 023e
000003a0: 9ffe 953d 461b efbb 0046 16be 9b1c 31be
000003b0: dfbb 1d3d 0720 1d3e 53c0 5dbc f887 66bd
000003c0: 4fb3 893d 2707 8abd 614d ad3d 64f3 28be
000003d0: 7c2d 16be 51f3 02be 5a14 e3bc e148 4c3d
000003e0: 0c09 b33d fb1f e3bd ad08 43bd 228e 703d
000003f0: be1b 3bbd 2f7b 5f3c b731 fe3d cd0a 02bd
-0.073925115 0.09293897 0.0887608 -0.13760298 0.061497033 0.06910702 -0.088692345 0.1568818
0.13217416 0.14110446 -0.027290698 -0.08588964 -0.10741994 0.067772016 -0.029493138 0.14717384
0.13379778 0.015690804 -0.117536835 0.0757015 0.17275843 -0.053349808 -0.07914243 -0.045268513
0.017025774 -0.13002573 0.086681984 0.087316625 -0.05521814 -0.052810423 -0.08652065 0.12894242
0.11138664 0.04986504 -0.00086793734 0.058651187 0.16227005 0.063195296 -0.08234505 0.06721552
-0.057959545 -0.0129273655 -0.103796355 -0.0151221 0.027688043 -0.11000395 0.09263201 0.14592649
-0.17554842 0.061655983 -0.13485879 -0.039220985 0.08722962 -0.0087056635 0.03625671 -0.05232892
0.19021861 -0.078421734 0.028435234 -0.00011180002 0.12370859 0.0021171977 0.12857963 0.059478696
0.11454599 -0.0065044123 0.043305807 0.1629956 -0.052119587 -0.07867526 0.15273184 0.0498387
-0.17175859 0.054971382 -0.1926214 -0.09174043 0.06982947 0.1040917 -0.035924494 0.15610576
0.18287507 0.14044839 -0.14971769 -0.08363236 0.020745188 0.1262059 -0.01911013 0.028664127
0.082185626 -0.09469931 -0.11424185 0.18275689 -0.0066310167 0.1385006 -0.17880425 -0.06386402
0.11721306 -0.008572583 0.05046038 -0.14555763 0.18672526 -0.089889124 -0.0093474565 -0.11856599
-0.089669995 -0.14461787 -0.1675794 -0.017416487 -0.09795861 0.13039584 0.017747154 0.15692255
-0.026700929 0.033086415 0.1864478 -0.12705974 -0.08146306 0.15481211 -0.017532095 -0.045079317
-0.004762879 -0.094449036 0.016057074 -0.05325696 0.07068799 -0.01696185 -0.06809589 -0.089214735
0.046664137 0.10411977 -0.15503196 -0.14006534 -0.1907107 0.088588014 0.12382541 -0.16543345
0.04498198 0.046060693 -0.08169257 0.021588482 0.14839938 0.16727352 0.06972064 -0.04760445
-0.08929605 -0.06819563 -0.008574495 -0.010900977 0.11352232 -0.16174254 0.005457496 -0.05173978
0.024446243 0.1780289 0.013756179 -0.04396075 -0.05894612 -0.1842308 -0.16862112 0.07526822
-0.12676585 0.08164063 -0.041516956 0.06494084 0.11083969 0.022274839 0.050786417 0.14656055
-0.04945902 0.11821619 -0.1230186 0.14921887 -0.04019356 -0.00081408076 0.08582106 -0.0087243095
0.16441847 -0.07429229 -0.117297135 0.16810489 -0.10638947 0.13158087 0.14668867 0.11599766
-0.05467013 -0.010848853 -0.16132392 -0.10637881 -0.042852595 -0.13627267 0.09955367 0.09006166
-0.051369376 -0.02224164 0.17110835 -0.02223902 0.14196712 0.17307378 -0.07869238 -0.17511424
0.17179354 -0.090432554 0.17638761 -0.1302591 0.043140803 0.046084877 -0.05793613 0.12923424
-0.14776024 -0.06686906 -0.03829548 0.13755655 0.06740386 0.11682547 0.06809437 0.16864505
-0.026720718 -0.04460535 -0.020819355 0.053104285 -0.038929842 0.053123213 0.051146872 0.046989653
0.15630296 0.021567462 0.10215352 -0.0464682 -0.14650506 0.1019858 0.090144694 0.12763646
0.07323956 -0.0072969524 -0.1467514 -0.17296068 0.038509246 0.15344249 -0.013534623 -0.056282014
0.067236535 -0.067396455 0.084620245 -0.16499096 -0.14665788 -0.1278813 -0.027719665 0.04987419
0.0874196 -0.11090084 -0.047615696 0.0587293 -0.045680754 0.013640209 0.12411826 -0.03174858

rnn.bias_ih_l2 f4 [32]
00000000: 0101 8fbd 7d02 b83d 2e57 173e 8f74 3cbd
00000010: 0520 063e 4154 42bc 4042 f3bc 78bf 03bd
00000020: 30d3 a1bd 2909 673d efaa 8bbb 6a7a b2bd
00000030: b127 d03d 5fca a5bd 6e96 eebd 99a8 9a3d
00000040: 5008 19bc ad6a bbbd 8d44 06be f7c7 5bbd
00000050: 7382 04be 1e98 c03d b2e9 08bc 925f ae3d
00000060: 81c2 b23d b485 923c 748f cebc 2a43 bfbd
00000070: cb6f 7b3d ef02 15be 4e78 aabd a7b6 133e
-0.06982613 0.089848496 0.1477935 -0.046009596 0.13098152 -0.011860908 -0.029694676 -0.03216502
-0.07901609 0.05640522 -0.00426232 -0.08714755 0.101638205 -0.0809524 -0.11649786 0.07551689
-0.009340361 -0.09151206 -0.13112088 -0.0536575 -0.12940387 0.09404014 -0.008356499 0.08514322
0.08728505 0.01788602 -0.025214888 -0.093389824 0.06138591 -0.145519 -0.083237275 0.14425145

rnn.bias_hh_l2 f4 [32]
00000000: e505 3ebd a50d 123e ecf1 bb3d a37e 1fbd
00000010: b5e7 08be 63f2 123e 1989 a83c 2e8e 1f3e
00000020: 6a8c 22be 1d12 363d 5659 1fbe b525 b8bc
00000030: 02ba 29be 5bc9 26be b704 473c cbf3 403e
00000040: b0be 763c b747 2dbc 563d 363e 6cc3 7d3c
00000050: cef7 bdbd 0ae6 e13d 2a28 0f3e c4e9 163e
00000060: 7b9f 0f3e 1401 2c3e fc2b 82bd a80e be3c
00000070: ffca 2fbd 5e3b 7bbc 0717 123e 14ac 0bbe
-0.04639234 0.14263017 0.09177002 -0.03893913 -0.13369639 0.14350276 0.020573186 0.15581581
-0.15873876 0.044450868 -0.15561423 -0.022478918 -0.16574863 -0.16287749 0.01214712 0.18843
0.015060112 -0.01057618 0.17796835 0.015488487 -0.092757806 0.110302046 0.13980165 0.14737612
0.1402568 0.16797286 -0.063560456 0.023200348 -0.0429182 -0.015333978 0.14266597 -0.13639861

rnn.weight_ih_l3 f4 [32, 32]
00000000: dcfb bd3d f313 d6bd c816 89bc 0644 90bc
00000010: f319 8cbd d8ae e83b 9ce0 cebd 3cc5 1d3e
00000020: 12b1 9bbd 1cf6 f43d 3311 4dbd 089b 06be
00000030: 6a0d e93d 3757 37bd 3604 47bd 4e0a 023d
00000040: 6d41 5d3c 06a7 243d 98a0 e2bc 1308 5abd
00000050: e023 983d bebd c03d da70 283e 6f55 733c
00000060: 6a2c 8abd 0fdc 1cbd 201e eabc b963 21bd
00000070: 9d01 78bd ccc7 e7bc 4a23 df3c cf8c 853d
00000080: 8938 083e ead5 33be 3bce 043e 238a e0bc
00000090: c1da 23be 8e59 e03d 28c0 c6bd 92d0 97bd
000000a0: d199 063d 2289 293d 9068 dd3d ea11 afbd
000000b0: 64db 833d 985f bf3d 70b8 0f3e d886 dcbc
000000c0: 4663 393d 4c1c c83c 0e5e 3f3e 7bac d3bd
000000d0: c695 26be 9094 0cbe 694d 6e3d dd75 0cbe
000000e0: e2bb 7ebd c8f1 b5bd 496a 213d 76c3 c4bd
000000f0: bb26 e83d 41f8 15be 7c4a 06be ab89 343c
00000100: 7f3d 48be d9e7 743d ec5e 8fbd ab21 b1bd
00000110: 0419 093e bce1 78bd 01db b43c a8e2 61bd
00000120: ceb2 a03d 04e0 333e 160a 2d3e d7a2 ccbd
00000130: f37b 47be 9354 fdbd 7ea0 883d 0560 9d3d
00000140: 2988 ec3d 27dc 9f3d c17e 2e3e 663b dbbd
00000150: fe43 2dbe 1ff1 5ebd 4288 1a3e 7760 03be
00000160: 94b0 f53d 3311 1b3d 8ee6 f13d 646b 413e
00000170: ae3d 303e 9d9c 3e3e bee3 4dbd 5b5f bdbd
00000180: 9094 813d 49a7 1e3e a2d3 4d3a 9239 31bd
00000190: 0e88 a6bc addb 8abd d849 943d 9632 2ebe
000001a0: 2eca 083e b894 c53b c55b e9bd ca2f 3bbd
000001b0: dcac 07be 9ba9 1ebe 4456 463d adf0 8ebc
000001c0: b727 1bbd 8587 39bd 2cc7 4dbc 6033 b83d
000001d0: c950 1ebe a918 353b 3bde a43c 204e 18be
000001e0: e7ec 0b3e 2f09 b4bd 6610 1c3e d814 233e
000001f0: 4f85 873b 5e81 1e3e d945 24be 2c0b 2abd
00000200: c660 22be 6b58 d6bd 79e5 3b3d aeda 063e
00000210: c2b2 c4bd f431 9dbd 387e d3bd e168 94bc
00000220: 34b5 21be 2be4 06be 2e8c 3dbd 6b81 3c3e
00000230: 6298 313c aef2 93bd a491 103e c837 173e
00000240: c1f6 163e 3c95 90bb dad9 b3bb 3cfa fa3d
00000250: effc ac3d fa3d 0b3e 15a0 143e f779 67bd
00000260: 5e07 053e 465f 023d 4ba7 3b3e fbfc 453e
00000270: bf40 153e 6032 0e3e 22c5 f73d 4640 cbbd
00000280: 32ea 8fbd 7a8b 28bd b43c c6bd ab0a 083e
00000290: 23c6 ab3c 65be 53bd 36a6 9abd 1fc8 1fbe
000002a0: 6a07 79bb c0e2 283e 5bf6 e23d db9c 253e
000002b0: 6891 c63d 7acc 9c3d b392 bf3c ba66 dcbd
000002c0: 975b 223e 693f 0ebe 19ec c0bd 6660 9c3d
000002d0: 9b9e c23d 7f9c bcbd d12b 0a3e d4a0 30be
000002e0: 684c 913c 1237 913d 36c7 223d 5c73 9cbd
000002f0: 9159 fcbd 74f9 243e 43bd 723c 7fd9 cbbd
00000300: 4914 1d3e 2a6c 04bd 9e0c 23bd 40c8 2a3d
00000310: f6c2 1a3e 1ff2 a1bd 6cbc a7bb e696 a4bd
00000320: 2e93 bcbd 6601 85bc 6997 31bc 00df e13d
00000330: ac8f 13be 79b3 cd3d d366 203e 439e a1bb
00000340: fc7f 7c3c bef5 103d 7545 21be 0c8f 0b3e
00000350: 2db2 20bd 4117 373c 8ded ce3d ab62 8f3d
00000360: 3bd4 d0bd 6428 05be 8393 26be fd2d 05be
00000370: ec29 25bd 5608 efbd 3787 f7bc f3b2 e6bd
00000380: 1f19 d93d abd9 f53d 769d 233e 1562 eebd
00000390: cfb8 06be 45ce 8d3d fdfe 15bd a0b2 0a3e
000003a0: b037 19be 5b78 203e 3d8f e7bd 89d8 24be
000003b0: c0f3 0039 31a9 a8bd 636c 08be fef5 ac3d
000003c0: d21f f43d f5b7 de3d f213 eb3b 3397 dfbc
000003d0: b36c b8bd 16f4 233e 6819 e9bd d8d4 17be
000003e0: 35b3 303e 450b 1cbc 2afa e73d b951 a1bd
000003f0: 4a23 133e 88e9 13be f4ef 003e da6a 193e
0.09276554 -0.10453024 -0.016734496 -0.017610561 -0.06840887 0.007100921 -0.101014346 0.1540727
-0.07602133 0.11961004 -0.05006523 -0.13145077 0.11379512 -0.04476091 -0.048588 0.03174811
0.013504368 0.04019835 -0.027664468 -0.053230356 0.074287176 0.094111905 0.164493 0.014851912
-0.067467526 -0.0382958 -0.028578818 -0.039401744 -0.060548414 -0.028293513 0.027238507 0.06520998
0.13302816 -0.1756207 0.12969296 -0.027409619 -0.16001417 0.10954581 -0.0970462 -0.074128285
0.032861535 0.041390546 0.10810959 -0.08548339 0.0643833 0.09344405 0.14035201 -0.026919767
0.04526069 0.024427556 0.18688223 -0.103356324 -0.16268072 -0.13728547 0.058179293 -0.13716836
-0.062190898 -0.08884007 0.039408002 -0.09607594 0.11335512 -0.14645483 -0.13114351 0.011019151
-0.19554709 0.05979142 -0.07000527 -0.08649 0.13388449 -0.060762152 0.022077085 -0.055147797
0.07846604 0.17565924 0.16898379 -0.09991997 -0.19480877 -0.12369647 0.066712365 0.0768433
0.11549408 0.078056626 0.1704054 -0.10704689 -0.16920468 -0.05442917 0.1509104 -0.12829767
0.1199657 0.0378582 0.11811553 0.18888623 0.17211029 0.1861443 -0.05026602 -0.09246703
0.06327164 0.15493502 0.0007851665 -0.043267794 -0.020328548 -0.06780181 0.07240647 -0.17011485
0.13358375 0.0060296915 -0.11394457 -0.045699872 -0.13249534 -0.15494387 0.048422113 -0.017448748
-0.037879672 -0.045295257 -0.012559693 0.08994174 -0.15460505 0.0027633107 0.020125499 -0.14873552
0.1366459 -0.08790814 0.1524063 0.1592592 0.0041357647 0.15479037 -0.1604227 -0.04151456
-0.15857229 -0.10466083 0.04587314 0.13169357 -0.09604408 -0.076755434 -0.10326809 -0.018116416
-0.1579178 -0.13172977 -0.046276264 0.18408744 0.010839554 -0.07224022 0.14118057 0.14767373
0.14742567 -0.0044123214 -0.0054886164 0.1225476 0.08446681 0.13597861 0.14514191 -0.0565128
0.12991092 0.03182914 0.18325536 0.19334786 0.1457548 0.13886404 0.12098147 -0.099243686
-0.07027091 -0.04114864 -0.09679547 0.1328532 0.020968502 -0.051695246 -0.075512335 -0.15603684
-0.0037998804 0.16492748 0.11082145 0.16173117 0.09695703 0.07656188 0.023385381 -0.10761781
0.15855251 -0.13891377 -0.09420032 0.07635574 0.09502908 -0.09209537 0.13493277 -0.17248851
0.017736629 0.07090582 0.039740764 -0.076391906 -0.12321771 0.16110784 0.014815631 -0.099535935
0.1533977 -0.032329716 -0.039806955 0.04169488 0.15113434 -0.07907509 -0.005118897 -0.08036594
-0.0920776 -0.016236018 -0.010839322 0.11028862 -0.14410275 0.10043997 0.15664224 -0.0049321963
0.015411373 0.035390608 -0.15749152 0.13628787 -0.03923242 0.011174978 0.10103903 0.07001241
-0.1019673 -0.13003689 -0.16267209 -0.13005824 -0.040323183 -0.11671512 -0.030215843 -0.112646006
0.106004946 0.120044075 0.15978035 -0.116398014 -0.13156436 0.069241084 -0.03662013 0.13544703
-0.1496265 0.15670912 -0.113066174 -0.16098227 0.00012297835 -0.08235396 -0.13322596 0.08445357
0.11920132 0.10874931 0.0071740085 -0.027293777 -0.09005108 0.1601108 -0.11381799 -0.14827287
0.17255862 -0.009524171 0.11327012 -0.078769155 0.1436893 -0.14444554 0.12591535 0.14982167
