lightning_logs/version_3/checkpoints/epoch=99-step=1900.ckpt (torch, 146497 bytes, 63 tensors)

rnn.weight_ih_l0 f4 [32, 13]
0.14706482 0.15729076 -0.031610467 0.1671678 -0.03801888 0.01847493 -0.09594471 0.09517269
0.14651857 -0.13791665 0.119853385 0.02230056 0.14710298 0.067307144 0.11659169 0.0032422263
0.16447027 0.045214586 -0.08371005 0.03567282 -0.080209725 -0.020096982 -0.07099889 0.097803116
-0.1217764 -0.01814953 0.010806619 -0.056028634 0.06708066 -0.12517105 0.19896112 -0.1525349
0.12650311 0.036599576 -0.050831236 0.11645723 0.03640787 0.20505695 0.102101356 -0.09501382
0.02420279 -0.06668889 0.053834595 0.14435622 0.098814264 -0.05473234 0.0915027 0.02084542
0.08066787 -0.09972428 -0.21560447 -0.12653789 -0.18882619 0.09675656 0.0035203893 0.029368736
0.021117566 -0.01811331 0.13341714 -0.1273059 0.010630214 -0.12245833 0.050940372 -0.09846083
-0.011956744 -0.051209867 0.14054185 -0.10949449 -0.10617492 -0.09480411 0.21375397 0.10248705
0.16085953 -0.15496293 -0.18487573 -0.10500074 -0.14175273 0.040148184 0.058770817 0.14735894
-0.09145204 -0.12782781 0.08635339 -0.08269103 0.10812453 -0.046229657 0.09627023 -0.14102282
-0.09124185 0.045779973 0.024638059 -0.1022833 0.05263061 0.07010139 -0.16956867 -0.12512642
0.16742072 -0.060117077 -0.058986504 -0.16695863 -0.09802559 0.044917773 -0.057527423 -0.1941179
-0.040236495 -0.14112495 -0.17326525 -0.13945794 -0.178797 -0.13121268 0.15912174 0.010087011
0.03140985 -0.1864838 -0.07266144 -0.08748556 -0.066687144 -0.201196 -0.112243325 -0.13900724
-0.029648168 -0.08682805 -0.0074546044 -0.107676014 -0.12681675 -0.1077832 -0.065939315 -0.11362048
0.1342487 -0.09725643 0.1944803 0.08712375 -0.116870984 0.15633336 -0.02362902 -0.0763077
-0.15344247 -0.16394812 0.061416 -0.026824767 0.060082603 -0.10857537 0.19812611 -0.13570702
-0.04674349 0.012582751 0.068768054 0.12945655 0.17400123 -0.16025999 0.0039960556 -0.11390625
-0.06244506 -0.0695947 0.1915184 -0.1363595 0.12332382 0.088002555 0.082362235 -0.076025374
0.17199348 0.022938667 0.020959953 -0.16812657 0.061193895 -0.038412906 -0.08186985 0.16741112
0.077323966 -0.055111792 -0.045734778 0.037572075 0.13830607 -0.014909432 -0.095238246 -0.045383148
-0.15307939 0.04044657 0.116613545 -0.16285397 0.03715275 0.14307903 0.00030325723 -0.09669625
0.05740385 0.06331043 0.036716454 -0.04481761 -0.08399022 0.027178207 -0.022305679 -0.04517456
0.11624403 0.15629333 -0.049753394 -0.07189069 -0.019934637 -0.03562013 0.018734496 0.034312565
-0.157536 -0.06750446 0.1442569 0.065047 -0.013359399 -0.08190358 -0.112727754 -0.2131192
-0.07000443 0.04058046 0.09400879 0.06942538 -0.1665362 -0.11469224 -0.048048813 0.1945081
0.05011961 -0.022938972 0.06488342 -0.05060715 -0.12117383 0.1459084 -0.068251014 -0.024565436
-0.16853748 0.118023925 0.1190255 0.04055161 -0.12717958 -0.17945552 -0.14747933 0.13131674
0.1012178 0.1752737 0.048225187 0.019253358 -0.032814056 -0.17169447 -0.17811984 -0.15939222
0.07640697 -0.094877146 -0.043130726 -0.10939182 -0.017561978 -0.15010937 -0.20435415 0.037367944
-0.06715915 0.09323419 -0.079411305 -0.15186988 -0.049161647 -0.0971648 -0.079725996 -0.1946609
00000000: 2998 163e d410 213e fa79 01bd 092e 2b3e
00000010: afb9 1bbd bd58 973c a97e c4bd e6e9 c23d
00000020: f708 163e 063a 0dbe b175 f53d aaaf b63c
00000030: 2aa2 163e 54d8 893d a0c7 ee3d 887b 543b
00000040: e56a 283e ee32 393d 2d70 abbd aa1d 123d
00000050: ff44 a4bd 6da2 a4bc de67 91bd 004d c83d
00000060: e865 f9bd 53ae 94bc 3f0e 313c 487e 65bd
00000070: 9661 893d d72c 00be 77bc 4b3e 1c32 1cbe
00000080: 088a 013e 70e9 153d 6a34 50bd 2181 ee3d
00000090: 6b20 153d 73fa 513e 841a d13d 9b96 c2bd
000000a0: ee44 c63c 2f94 88bd aa81 5c3d 1ed2 133e
000000b0: 225f ca3d 052f 60bd c465 bb3d 04c4 aa3c
000000c0: 3235 a53d 3e3c ccbd 6bc7 5cbe 2693 01be
000000d0: a75b 41be 4e28 c63d 55b6 663b b496 f03c
000000e0: bffe ac3c 5d62 94bc 819e 083e 7a5c 02be
000000f0: 592a 2e3c 6fcb fabd daa6 503d d5a5 c9bd
00000100: 38e6 43bc 70c1 51bd 34ea 0f3e a63e e0bd
00000110: 3d72 d9bd a828 c2bd 52e2 5a3e bbe4 d13d
00000120: 5cb8 243e 9aae 1ebe 1050 3dbe a10a d7bd
00000130: a127 11be 6c72 243d abb9 703d 43e5 163e
00000140: 354b bbbd 4be5 02be 0cda b03d ea59 a9bd
00000150: 6570 dd3d 4f5b 3dbd 5429 c53d 4968 10be
00000160: 02dd babd c883 3b3d c1d5 c93c e879 d1bd
00000170: 3293 573d 5191 8f3d 69a3 2dbe 2421 00be
00000180: 5670 2b3e 533d 76bd d59b 71bd 34f7 2abe
00000190: a4c1 c8bd b3fb 373d e0a1 6bbd d8c6 46be
000001a0: 06cf 24bd 0f83 10be 726c 31be 10ce 0ebe
000001b0: 9016 37be 9e5c 06be cff0 223e fe43 253c
000001c0: 9da7 003d 9cf5 3ebe 85cf 94bd a12b b3bd
000001d0: 4593 88bd 5306 4ebe d4df e5bd ea57 0ebe
000001e0: b7e0 f2bc e8d2 b1bd c145 f4bb 3e85 dcbd
000001f0: 40dc 01be 70bd dcbd 310b 87bd dbb1 e8bd
00000200: 7e78 093e 612e c7bd d825 473e f06d b23d
00000210: 0e5a efbd da15 203e a691 c1bc 3647 9cbd
00000220: 0620 1dbe 04e2 27be 588f 7b3d 9dbf dbbc
00000230: 2d19 763d c35c debd 92e1 4a3e c8f6 0abe
00000240: 1a76 3fbd e227 4e3c 44d6 8c3d 4290 043e
00000250: 612d 323e 321b 24be 58f1 823b ae47 e9bd
00000260: 64c6 7fbd ab87 8ebd 661d 443e d3a1 0bbe
00000270: 3391 fc3d af3a b43d 88ad a83d 31b3 9bbd
00000280: 0f1f 303e dfe9 bb3c 35b4 ab3c 5f29 2cbe
00000290: 73a6 7a3d da56 1dbd 61ab a7bd d26d 2b3e
000002a0: 075c 9e3d e7bc 61bd 6454 3bbd 2de5 193d
000002b0: 1ba0 0d3e b146 74bc 450c c3bd aee3 39bd
000002c0: d8c0 1cbe 4dab 253d 15d3 ee3d 31c3 26be
000002d0: 7b2d 183d 4f83 123e 7ffe 9e39 af08 c6bd
000002e0: 4d20 6b3d e6a8 813d fe63 163d ac92 37bd
000002f0: 1103 acbd d5a4 de3c 66ba b6bc f608 39bd
00000300: 5a11 ee3d 5c0b 203e 37ca 4bbd 6d3b 93bd
00000310: f74d a3bc 6ae6 11bd 1679 993c 558b 0c3d
00000320: 1e51 21be c73f 8abd 15b8 133e 5d37 853d
00000330: 61e1 5abc 10bd a7bd cfdd e6bd eb3b 5abe
00000340: 7c5e 8fbd b237 263d ae87 c03d e52e 8e3d
00000350: 7788 2abe c4e3 eabd d5ce 44bd 222d 473e
00000360: 384a 4d3d 83ea bbbc 99e1 843d 7149 4fbd
00000370: fc29 f8bd 0369 153e 30c7 8bbd 743d c9bc
00000380: 1795 2cbe 87b6 f13d a4c3 f33d 7219 263d
00000390: 5d3b 02be 30c3 37be d204 17be e577 063e
000003a0: 474b cf3d f37a 333e c687 453d 38b9 9d3c
000003b0: 0868 06bd add0 2fbe 0c65 36be b737 23be
000003c0: 427b 9c3d f34e c2bd d8a9 30bd d208 e0bd
000003d0: 23de 8fbc 45b6 19be 3742 51be 210f 193d
000003e0: bd8a 89bd 91f1 be3d 65a2 a2bd c783 1bbe
000003f0: b95d 49bd 57fe c6bd 6247 a3bd 3055 47be

rnn.weight_hh_l0 f4 [32, 32]
-0.10448019 0.053118292 -0.13472639 -0.1080377 -0.040975127 -0.026846716 -0.13060205 0.10588932
0.15972495 0.05967312 -0.0507582 -0.17124271 -0.027881788 0.08070902 0.07187786 0.009241964
-0.10362178 0.10067191 -0.12640607 0.10086612 -0.08517699 0.029384691 -0.0439168 0.017430836
-0.09233932 0.14891772 0.0060444023 0.18560964 0.18445309 -0.05118906 -0.1398944 0.09949062
0.123232275 -0.15107512 -0.012283174 -0.16192429 -0.15806594 0.044748556 0.05870517 0.0154045625
-0.037784196 0.18558359 0.03414161 -0.09932093 0.021910487 0.062880374 0.054600004 -0.11828699
0.049220197 -0.09861782 -0.14950845 -0.059075307 0.16482127 0.16121921 0.16086891 0.1099595
0.11226641 -0.015685176 -0.10347509 0.10866533 -0.09813042 -0.08755818 -0.04077478 -0.009634602
0.09105393 -0.07211897 -0.08327287 0.023638539 -0.10484714 -0.1335664 0.08980275 -0.034932885
0.17118067 0.17559958 0.08259811 0.05435569 0.047797505 0.013665745 -0.021173079 0.003011808
0.06301016 0.16727363 -0.053770266 -0.07135887 -0.035962492 -0.083886385 0.007054008 0.13901585
0.13381587 0.07967888 -0.14889698 -0.08411501 -0.068851195 -0.01839364 0.042400222 -0.1913825
0.08134612 -0.12394688 -0.15125896 -0.15633178 0.16776073 -0.13893664 0.12686008 0.01655424
-0.014442703 0.08934835 -0.052731015 0.08745125 0.12767863 -0.15868118 0.07487974 0.03860407
0.025345191 0.044585 0.06584187 -0.14058433 -0.017353976 0.15804827 0.12069927 -0.044878207
-0.14072911 0.009499198 -0.10426691 0.12913649 -0.07624826 -0.024879558 -0.08469094 0.021672452
0.15672545 0.014452523 0.102468304 0.13576703 0.118546866 -0.052483354 -0.033875436 0.10153601
-0.021572316 0.102690026 -0.04464216 -0.123617135 0.050586868 0.03782316 0.058561742 0.20755662
0.13917395 0.15988532 0.032987963 -0.17327376 -0.16770822 -0.097254656 -0.14077 -0.095516495
-0.17262578 -0.1351996 -0.09939994 -0.16645272 -0.10242603 0.06968096 0.14344287 -0.042701256
-0.018985415 0.11731977 -0.078648314 -0.103727944 0.13908668 -0.18361431 0.0046581645 0.17047033
-0.001727774 0.0153254345 -0.08414396 -0.0077703977 -0.017775485 -0.0073734154 0.108667254 0.11602248
-0.0990042 0.022925591 -0.12133109 -0.16067429 0.027551072 -0.17364492 0.101578444 -0.006302865
-0.052140642 0.053945106 -0.1798149 -0.10486505 -0.034882527 -0.19296214 -0.11993411 0.02916639
0.1543495 0.1768841 0.09741016 -0.11199002 -0.099546164 0.16458935 0.05922043 0.0071405554
0.011244883 -0.15112387 -0.08164947 0.16297373 -0.029654514 -0.020404533 -0.12690862 -0.11043497
-0.0071134665 -0.10315924 -0.018103769 0.07919376 -0.16708282 0.036252763 -0.08006715 -0.10779993
0.08376202 0.13792926 -0.038642127 -0.09327265 -0.13965587 -0.1009333 -0.16938876 -0.054627575
0.038818404 -0.16491827 0.1642548 0.10410842 -0.1699589 -0.08883556 0.050072007 -0.05360207
-0.026416877 -0.08738249 0.13279095 -0.0951821 0.12442641 -0.0060508577 0.036225203 0.13191168
-0.0075999144 -0.102518745 -0.033182763 0.14605254 -0.12789766 0.02812726 -0.17070186 0.095473856
0.08734966 0.002663084 0.06325918 -0.020655908 0.08848062 -0.15506616 -0.04139646 0.10075028
00000000: b6f9 d5bd 9192 593d b7f5 09be df42 ddbd
00000010: 89d5 27bd a5ed dbbc 8bbc 05be 80dc d83d
00000020: f08e 233e cd6b 743d d5e7 4fbd 405a 2fbe
00000030: 5968 e4bc c54a a53d b334 933d 9b6b 173c
00000040: a837 d4bd 132d ce3d 9870 01be e592 ce3d
00000050: 4671 aebd 2ab8 f03c 1ae2 33bd 1dcb 8e3c
00000060: 661c bdbd e37d 183e 1f10 c63b 7410 3e3e
00000070: 45e1 3c3e 9fab 51bd 7a40 0fbe bdc1 cb3d
00000080: 3461 fc3d 70b3 1abe 5e3f 49bc 7bcf 25be
00000090: 0adc 21be 434a 373d d574 703d 6b63 7c3c
000000a0: 9ac3 1abd a009 3e3e 13d8 0b3d c668 cbbd
000000b0: 9f7d b33c 6dc7 803d 41a4 5f3d 7340 f2bd
000000c0: 1e9b 493d 24f8 c9bd be18 19be f3f8 71bd
000000d0: e8c6 283e a616 253e d2ba 243e 7232 e13d
000000e0: eeeb e53d 337e 80bc bfea d3bd ee8b de3d
000000f0: 9af8 c8bd b451 b3bd 7503 27bd 73da 1dbc
00000100: 7c7a ba3d 1cb3 93bd f78a aabd 9ca5 c13c
00000110: 19ba d6bd a1c5 08be 81ea b73d c915 0fbd
00000120: fc49 2f3e 60d0 333e 3329 a93d 12a4 5e3d
00000130: 51c7 433d 4ae6 5f3c 2a73 adbc c161 453b
00000140: 790b 813d c749 2b3e 363e 5cbd 9924 92bd
00000150: 684d 13bd a0cc abbd 4f25 e73b 2c5a 0e3e
00000160: 0707 093e ae2e a33d 7378 18be 7e44 acbd
00000170: db01 8dbd 42ae 96bc dbab 2d3d c6f9 43be
00000180: cb98 a63d ddd7 fdbd a1e3 1abe 7015 20be
00000190: 78c9 2b3e 6845 0ebe 9ce7 013e c29c 873c
000001a0: 16a1 6cbc 45fc b63d 7afc 57bd a419 b33d
000001b0: 30be 023e 527d 22be 8d5a 993d 4d1f 1e3d
000001c0: b8a0 cf3c c39e 363d 1ad8 863d 57f5 0fbe
000001d0: ed29 8ebc 68d7 213e 2e31 f73d 36d2 37bd
000001e0: 4b1b 10be 86a2 1b3c e489 d5bd 5b3c 043e
000001f0: 0c28 9cbd 37d0 cbbc 7272 adbd 6d8a b13c
00000200: a37c 203e 46ca 6c3c e7da d13d 8306 0b3e
00000210: b3c8 f23d c9f8 56bd f8c0 0abd 1df2 cf3d
00000220: 6db8 b0bc 264f d23d b3da 36bd fb2a fdbd
00000230: 2d34 4f3d 75ec 1a3d 70de 6f3d b989 543e
00000240: 9e83 0e3e fab8 233e 631e 073d ad6e 31be
00000250: b4bb 2bbe 732d c7bd 0326 10be 279e c3bd
00000260: d0c4 30be c471 0abe 3292 cbbd 9572 2abe
00000270: bdc4 d1bd e4b4 8e3d b0e2 123e 83e7 2ebd
00000280: 4d87 9bbc 5945 f03d 5e12 a1bd 516f d4bd
00000290: bd6c 0e3e 6405 3cbe 84a3 983b c68f 2e3e
000002a0: 7a76 e2ba 8817 7b3c ab53 acbd d29e febb
000002b0: e59d 91bc b19c f1bb f08c de3d 329d ed3d
000002c0: b7c2 cabd 73ce bb3c 6f7c f8bd cd87 24be
000002d0: c9b2 e13c f9cf 31be 5c08 d03d 4488 cebb
000002e0: 6d91 55bd 8bf5 5c3d 6621 38be 7dc3 d6bd
000002f0: fbe0 0ebd de97 45be 04a0 f5bd 5aee ee3c
00000300: cc0d 1e3e 1b21 353e fa7e c73d 065b e5bd
00000310: dcde cbbd 1c8a 283e 1f91 723d 52fb e93b
00000320: 753c 383c 37c0 1abe d637 a7bd 96e2 263e
00000330: 06ee f2bc 6827 a7bc 55f4 01be bb2b e2bd
00000340: 1518 e9bb 2745 d3bd 5b4e 94bc 5730 a23d
00000350: c217 2bbe c77d 143d 3ffa a3bd 36c6 dcbd
00000360: 6c8b ab3d 543d 0d3e 3547 1ebd bb05 bfbd
00000370: f301 0fbe 1eb6 cebd 3f74 2dbe 2ac1 5fbd
00000380: 0c00 1f3d 56e0 28be 6932 283e cc36 d53d
00000390: b509 2ebe 6bef b5bd 4e18 4d3d d88d 5bbd
000003a0: 3568 d8bc 97f5 b2bd 5afa 073e d5ee c2bd
000003b0: 46d3 fe3d 4646 c6bb e160 143d db13 073e
000003c0: b408 f9bb 59f5 d1bd a6ea 07bd cc8e 153e
000003d0: 9bf7 02be 246b e63c 78cc 2ebe cc87 c33d
000003e0: 61e4 b23d 2387 2e3b 078e 813d 9436 a9bc
000003f0: 5435 b53d aac9 1ebe 568f 29bd 2a56 ce3d

rnn.bias_ih_l0 f4 [32]
-0.09205823 -0.00806633 -0.04418688 -0.13725086 -0.16709116 -0.10686499 0.08461967 0.07731236
-0.13049836 -0.060969457 -0.008908933 -0.11217783 0.11192211 0.18119203 0.023024501 -0.12675439
0.017590443 0.06824521 0.14816073 -0.068377554 -0.15750556 0.07560652 -0.0001098864 -0.060088605
-0.070319355 -0.07637493 0.16088782 -0.022963243 0.14158483 0.14516185 0.012117508 0.025041763
00000000: 0689 bcbd a428 04bc 4dfd 34bd 7d8b 0cbe
00000010: f219 2bbe 08dc dabd 144d ad3d f155 9e3d
00000020: 5da1 05be 1cbb 79bd c6f6 11bc 7dbd e5bd
00000030: 6b37 e53d 678a 393e e19d bc3c e7cb 01be
00000040: d519 903c 25c4 8b3d 72b7 173e 8809 8cbd
00000050: 2349 21be 97d7 9a3d d072 e6b8 781f 76bd
00000060: 9803 90bd 766a 9cbd c7bf 243e 691d bcbc
00000070: 9dfb 103e 4fa5 143e 8388 463c 6224 cd3c

rnn.bias_hh_l0 f4 [32]
-0.0033904212 0.12025389 -0.16658993 0.08065265 -0.027263353 0.09015516 0.0036163891 -0.06900601
0.0041724863 0.10087573 -0.13457333 -0.07107997 -0.027280927 -0.043041535 0.06120431 0.12355858
-0.042563934 0.17122793 -0.0656795 -0.07351989 -0.07827143 -0.12385458 -0.13502422 -0.1600011
-0.15291955 0.06091235 0.12559567 0.17350395 0.16467015 -0.022818817 0.024027022 -0.11838349
00000000: d431 5ebb ac47 f63d 8d96 2abe 372d a53d
00000010: 6557 dfbc 45a3 b83d f100 6d3b 0653 8dbd
00000020: 5ab9 883b ef97 ce3d 97cd 09be 6092 91bd
00000030: 407c dfbc 524c 30bd 5fb1 7a3d 480c fd3d
00000040: 8557 2ebd 6056 2f3e f982 86bd 9991 96bd
00000050: c64c a0bd 78a7 fdbd ca43 0abe 54d7 23be
00000060: f196 1cbe 3a7f 793d 279c 003e 05ab 313e
00000070: 4b9f 283e 87ee babc 51d4 c43c 0b73 f2bd

rnn.weight_ih_l1 f4 [32, 32]
0.04246948 -0.16854608 0.057918496 0.03324912 0.044499505 0.0904197 -0.079332665 0.17232594
0.09853378 0.1338463 -0.018199436 0.110706255 0.10628092 0.08864532 0.119696036 -0.003926984
0.11023417 0.042042114 0.13645883 0.15791647 0.016500426 -0.058265932 0.012058861 0.036940437
0.01655481 -0.021840546 0.15729336 0.108963534 -0.08553099 -0.02531786 -0.044156745 -0.06783369
0.005647332 -0.05074539 -0.11835463 -0.06168615 -0.07849705 0.1959798 0.07640243 0.18792368
0.050741386 0.05735402 0.023648065 0.029117232 -0.1456398 -0.10349634 -0.050695874 0.019886779
0.06683137 0.069226705 0.17154919 0.04165404 -0.09052342 -0.13781856 -0.09069147 -0.12651838
0.050254013 0.12043257 0.18484284 -0.05987881 0.020718677 -0.059227806 -0.026486872 0.07874718
0.025862895 0.017331395 0.052874297 0.050446894 -0.039467286 -0.1356657 0.015346325 -0.0106491055
-0.09086228 0.058544848 0.036306866 -0.038131177 -0.08288835 -0.03295009 -0.1265616 0.016773771
0.017980363 0.1221939 -0.012245207 0.013174427 0.0765883 0.12123945 -0.11929632 0.10489892
0.061512858 -0.13687274 0.05403764 -0.123424135 -0.07831181 -0.09889716 -0.09725525 0.14563599
-0.13841647 0.09345255 -0.13471872 -0.02767322 0.023436988 0.10517797 -0.075893976 0.044135362
0.021975122 0.08882201 0.034332383 0.0609489 -0.118557476 -0.13459985 0.16699852 -0.14369668
-0.022382556 -0.016250834 0.15203044 -0.039628938 -0.10983266 -0.057190217 0.058444887 0.068946354
0.1628933 -0.051076446 0.065147445 -0.17765497 0.042810567 0.07403603 0.1331953 -0.112067856
-0.045705527 0.032339744 -0.11406579 -0.14009298 -0.17416964 0.00048494744 0.102198325 0.04037573
0.016277974 0.06933438 -0.09464853 0.013241565 -0.03407989 -0.0708045 0.14144966 -0.1289008
0.024417205 -0.1561051 -0.008658427 -0.07757344 0.06139052 -0.0931968 0.091666885 -0.13352536
0.09974869 -0.12601593 0.093163624 -0.06436355 -0.023727346 -0.016543493 0.13067825 0.005886043
-0.1714272 0.017903225 -0.15026976 0.130637 0.014168565 -0.023459027 -0.07681094 0.06812586
-0.105181254 0.0958278 0.060272958 0.10831934 0.045203567 -0.15162212 0.12264363 -0.044813093
-0.054867897 -0.0183507 0.15259512 0.14189643 0.005241064 0.08903137 -0.13470197 -0.015415095
-0.16171724 0.07680759 -0.099721216 -0.061424084 0.15679175 0.1714335 -0.13512269 -0.07845135
0.004634818 0.07177476 -0.056473088 -0.05663008 -0.12764576 0.09561254 0.18124844 -0.075716585
0.08134377 0.09973373 0.10310554 -0.01774717 0.0052111256 0.12968652 0.10627236 0.18537661
-0.054880615 0.07081768 0.14676648 -0.112882406 0.012946222 -0.0403104 0.14754005 -0.0930287
0.0073459046 0.12218465 -0.13499194 -0.14961323 -0.05879435 0.10991564 0.089438856 -0.09214496
0.02878822 -0.09790859 -0.102589324 0.1556181 0.07712671 -0.029176744 0.026168862 0.03174345
0.054256126 -0.0583346 -0.1343452 0.11746825 0.007766788 0.069212556 -0.07598865 0.11105993
0.12086735 0.09324355 0.06665667 0.16626814 -0.004592173 0.029177248 0.18096228 0.14504284
-0.0642356 0.17546782 0.0734753 -0.030957276 0.16766933 -0.10202244 0.09619806 0.19665897
00000000: 7af4 2d3d 5897 2cbe f23b 6d3d 3b30 083d
00000010: 1d45 363d f72d b93d 2a79 a2bd 3676 303e
00000020: 14cc c93d 010f 093e fc16 95bc f6b9 e23d
00000030: d0a9 d93d ad8b b53d 3223 f53d eead 80bb
00000040: 74c2 e13d 5a34 2c3d ddbb 0b3e dbb4 213e
00000050: e72b 873c 42a8 6ebd 8792 453c db4e 173d
00000060: f49d 873c f2ea b2bc 8311 213e 4628 df3d
00000070: df2a afbd 6767 cfbc b4dd 34bd 64ec 8abd
00000080: 410d b93b 66da 4fbd ea63 f2bd 9eaa 7cbd
00000090: 10c3 a0bd eeae 483e e178 9c3d 116f 403e
000000a0: 33d6 4f3d 0dec 6a3d 96b9 c13c 4387 ee3c
000000b0: 9a22 15be e4f5 d3bd 7aa6 4fbd 99e9 a23c
000000c0: e3de 883d bbc6 8d3d 97aa 2f3e 6d9d 2a3d
000000d0: 5864 b9bd 4f20 0dbe 73bc b9bd 098e 01be
000000e0: 27d7 4d3d 5aa5 f63d 7147 3d3e 7c43 75bd
000000f0: 37ba a93c db98 72bd fffa d8bc 3446 a13d
00000100: 6cde d33c 92fa 8d3c b892 583d 67a1 4e3d
00000110: 73a8 21bd f3eb 0abe 276f 7b3c 9679 2ebc
00000120: 0116 babd b9cc 6f3d 82b6 143d 702f 1cbd
00000130: 5ec1 a9bd acf6 06bd 5d99 01be 2669 893c
00000140: 8e4b 933c cc40 fa3d 1fa0 48bc 8dd9 573c
00000150: 54da 9c3d 644c f83d a151 f4bd 3fd5 d63d
00000160: e8f4 7b3d 5e28 0cbe 9356 5d3d cbc5 fcbd
00000170: f161 a0bd 988a cabd c32d c7bd 9a21 153e
00000180: 0cbd 0dbe 0d64 bf3d b4f3 09be f3b2 e2bc
00000190: edfe bf3c 8c67 d73d 4d6e 9bbd 48c7 343d
000001a0: 2c05 b43c 50e8 b53d 1da0 0c3d 8ea5 793d
000001b0: 43ce f2bd 8bd4 09be a901 2b3e 3925 13be
000001c0: 9f5b b7bc 7820 85bc dead 1b3e f451 22bd
000001d0: f2ef e0bd 4a40 6abd e863 6f3d bf33 8d3d
000001e0: 80cd 263e 8935 51bd 066c 853d 2feb 35be
000001f0: 225a 2f3d 34a0 973d 5964 083e d583 e5bd
00000200: b835 3bbd ae76 043d 539b e9bd 8974 0fbe
00000210: 8759 32be 8b40 fe39 5b4d d13d 0561 253d
00000220: 6359 853c 2fff 8d3d 17d7 c1bd 26f3 583c
00000230: 5b97 0bbd f301 91bd 2ed8 103e 92fe 03be
00000240: 9706 c83c 04da 1fbe 13dc 0dbc d3de 9ebd
00000250: a074 7b3d f7dd bebd d9bb bb3d dfba 08be
00000260: 0b49 cc3d 520a 01be 92cc be3d 09d1 83bd
00000270: da5f c2bc 3886 87bc 85d0 053e b5df c03b
00000280: 9d8a 2fbe c9a9 923c 51e0 19be b5c5 053e
00000290: 4523 683c 252d c0bc 0e4f 9dbd 9285 8b3d
000002a0: 4569 d7bd 5e41 c43d c7e0 763d 88d6 dd3d
000002b0: 6027 393d d442 1bbe 952c fb3d ef8d 37bd
000002c0: 29bd 60bd 3554 96bc e541 1c3e 4c4d 113e
000002d0: 3bbd ab3b 1456 b63d 50ef 09be 988f 7cbc
000002e0: 3499 25be 4c4d 9d3d a33a ccbd d297 7bbd
000002f0: 048e 203e 438c 2f3e 9a5d 0abe 1aab a0bd
00000300: acdf 973b a5fe 923d 5350 67bd f1f4 67bd
00000310: 92b5 02be 82d0 c33d 3199 393e 4c11 9bbd
00000320: 9097 a63d 3341 cc3d ff28 d33d 8362 91bc
00000330: 17c2 aa3b 8bcc 043e 53a5 d93d 5ed3 3d3e
00000340: 7fca 60bd dc08 913d f449 163e e42e e7bd
00000350: 641c 543c 851c 25bd bd14 173e d585 bebd
00000360: eab5 f03b f23b fa3d 543b 0abe 3634 19be
00000370: 58d2 70bd 731b e13d b82b b73d 7fb6 bcbd
00000380: 46d5 eb3c 4d84 c8bd 5a1a d2bd 5a5a 1f3e
00000390: 9cf4 9d3d 1104 efbc 1560 d63c 6b05 023d
000003a0: ac3b 5e3d 43f0 6ebd ca91 09be 3293 f03d
000003b0: 8a80 fe3b 50bf 8d3d f09f 9bbd 6373 e33d
000003c0: 4d89 f73d 79f6 be3d 4b83 883d 3242 2a3e
000003d0: f079 96bb 2005 ef3c 2d4e 393e 1c86 143e
000003e0: f48d 83bd d6ad 333e 387a 963d 1d9a fdbc
000003f0: 82b1 2b3e 24f1 d0bd 7d03 c53d f860 493e

rnn.weight_hh_l1 f4 [32, 32]
0.1550748 0.17922658 0.0045823483 -0.122468956 -0.022167115 -0.061541304 0.15178537 0.0011139849
0.05916771 0.080287725 0.061607152 -0.099773325 0.13235927 0.11854542 -0.10575489 0.14802329
0.06855913 -0.0014935173 -0.1462488 -0.043197468 -0.18002662 0.102094665 0.11940526 -0.050631993
0.14698227 -0.08088184 0.027801564 -0.1339284 -0.030204965 0.08287077 0.08306954 0.013893454
-0.10624722 0.13354687 0.11489915 0.034915697 -0.07667659 0.021399938 -0.00010844622 0.15554139
0.021706026 0.006889033 0.02864793 0.09243685 -0.02595291 0.16892444 0.08579319 -0.12494369
0.0027844075 -0.14319639 -0.1478507 0.036191456 0.04296262 -0.020213945 0.16768235 -0.087586336
-0.070062 -0.04210828 0.001953684 -0.011007475 0.13270077 -0.07588425 -0.084801644 0.017581314
0.13338442 0.028853731 0.08819007 0.03557428 0.16720933 0.10038331 0.11467168 -0.033672
-0.14267884 -0.07114024 0.06649504 0.11450753 -0.049776573 0.12385028 0.01105535 -0.00829846
-0.0051697334 -0.04165876 0.15880798 0.009226026 0.12622522 -0.16353399 -0.08981638 0.022580212
0.15867393 0.08405556 0.03648453 -0.16274649 0.0042059408 -0.12743616 -0.12887591 0.02243164
-0.11028809 0.14560539 -0.09544996 0.061526794 0.111258164 -0.14983803 0.08343712 -0.030059755
0.085529216 0.18041076 -0.07556197 -0.08943032 0.16120942 0.0022039392 -0.025618603 0.12869619
-0.091364495 -0.0213995 0.120792694 0.07789216 -0.10018826 0.04536765 -0.12882599 -0.09308226
0.12923357 -0.046132643 -0.08650864 0.022555685 0.057541016 -0.11784391 -0.10999954 -0.17572987
0.052402943 -0.11011624 -0.0042714747 -0.059920497 -0.1309721 -0.048139792 -0.11742576 -0.09857296
0.024095513 -0.14986183 -0.15408225 0.13639161 0.025175592 -0.0958943 -0.0016562506 0.13163297
-0.12973566 -0.079529576 -0.14045674 -0.034078397 0.0082544265 -0.1391546 0.11100516 -0.13361934
0.1537162 -0.113956146 -0.03744019 0.030277899 -0.080820814 0.16849722 -0.110961996 -0.003233233
-0.14247362 0.06550272 0.14985628 0.17337368 0.025157887 -0.088227734 0.16693671 0.0124074
0.106164694 -0.093742624 -0.0762921 -0.14452536 0.13298206 0.04271936 -0.11933767 0.023221547
-0.07832805 0.0050109266 0.056687284 -0.08865518 0.026446633 -0.11959248 0.041384347 -0.1628434
0.027213495 0.16312754 0.15305065 0.0688683 0.11432486 0.18483958 0.0499334 0.053347316
0.0072905114 0.16320029 0.15514334 -0.07419204 -0.0022744534 -0.09089809 0.05890288 -0.17246737
0.052461483 -0.056110665 0.073730774 0.0611563 -0.1177596 0.11019431 0.07379289 -0.14220451
0.17664164 0.15375753 0.10892995 -0.016621962 0.059263725 -0.1012873 -0.058841247 0.08071372
0.07903029 0.057002828 -0.1650982 0.14685923 -0.098547615 0.15608865 0.14551893 0.062752664
0.1631758 0.10830869 0.10374388 -0.046529 0.17579809 0.0383534 0.11021732 -0.04544512
0.12840182 0.15860751 -0.12323428 0.14382799 -0.13250116 -0.099072464 -0.1604577 0.077597536
-0.13818857 -0.054327637 -0.09156009 0.05406679 -0.17564996 -0.071634576 0.010503207 0.059020597
-0.08337428 0.0479918 -0.115478344 -0.15429816 -0.01737061 -0.09297393 0.12288035 -0.11863791
00000000: eecb 1e3e 2c87 373e 8627 963b 01d1 fabd
00000010: cf97 b5bc bc12 7cbd a06d 1b3e 2103 923a
00000020: d759 723d e46d a43d c857 7c3d f555 ccbd
00000030: 3089 073e f1c7 f23d 0596 d8bd 6b93 173e
00000040: bb68 8c3d 20c2 c3ba 3fc2 15be d4ef 30bd
00000050: e658 38be 0217 d13d bf8a f43d 7e63 4fbd
00000060: 8582 163e 61a5 a5bd 1bc0 e33c 8724 09be
00000070: 6770 f7bc 26b8 a93d 5d20 aa3d 5fa1 633c
00000080: 2498 d9bd 83c0 083e 3f50 eb3d c303 0f3d
00000090: 9e08 9dbd ec4e af3c 9f6d e3b8 3e46 1f3e
000000a0: d6d0 b13c 66bd e13b 10af ea3c 884f bd3d
000000b0: 329b d4bc 87fa 2c3e 57b4 af3d 7ae2 ffbd
000000c0: 9b7a 363b 13a2 12be 2d66 17be 7e3d 143d
000000d0: 92f9 2f3d b797 a5bc ecb4 2b3e 7760 b3bd
000000e0: aa7c 8fbd bb79 2cbd 6109 003b b258 34bc
000000f0: b6e2 073e 3469 9bbd 7cac adbd b006 903c
00000100: ed95 083e a95e ec3c ff9c b43d 56b6 113d
00000110: ec38 2b3e c495 cd3d fcd8 ea3d a7eb 09bd
00000120: 671a 12be f9b1 91bd 8d2e 883d ed82 ea3d
00000130: 85e2 4bbd 37a5 fd3d 8021 353c 44f6 07bc
00000140: de66 a9bb 60a2 2abd 8f9e 223e c228 173c
00000150: 2f41 013e 7475 27be a6f1 b7bd 23fa b83c
00000160: 6b7b 223e 5225 ac3d cd70 153d 04a7 26be
00000170: fdd1 893b a07e 02be 0cf8 03be 8fc2 b73c
00000180: b9de e1bd 9419 153e 457b c3bd 8503 7c3d
00000190: 52db e33d 246f 19be 15e1 aa3d e03f f6bc
000001a0: f129 af3d 99bd 383e 3cc0 9abd 3e27 b7bd
000001b0: 1514 253e f76f 103b 1bde d1bc efc8 033e
000001c0: 4f1d bbbd 014e afbc 2962 f73d ed85 9f3d
000001d0: 812f cdbd 6ed3 393d f6ea 03be e9a1 bebd
000001e0: ce55 043e 95f5 3cbd 712b b1bd b3c6 b83c
000001f0: 21b0 6b3d 2658 f1bd 7047 e1bd 88f2 33be
00000200: 78a4 563d a084 e1bd baf7 8bbb 326f 75bd
00000210: 8d1d 06be 3b2e 45bd eb7c f0bd 9fe0 c9bd
00000220: f463 c53c 6175 19be bdc7 1dbe 3eaa 0b3e
00000230: 0b3d ce3c 3b64 c4bd 8c16 d9ba cbca 063e
00000240: 6dd9 04be 67e0 a2bd e4d3 0fbe ca95 0bbd
00000250: 933d 073c 8b7e 0ebe ac56 e33d 82d3 08be
00000260: c867 1d3e d761 e9bd e25a 19bd 5b09 f83c
00000270: 6285 a5bd 898a 2c3e 0b40 e3bd a6e4 53bb
00000280: 9be4 11be 4a26 863d ed73 193e df88 313e
00000290: ea17 ce3c beb0 b4bd 75f1 2a3e 6848 4b3c
000002a0: e06c d93d 22fc bfbd 083f 9cbd 75fe 13be
000002b0: 732c 083e 7ffa 2e3d 4f67 f4bd 1d3b be3c
000002c0: 756a a0bd b332 a43b ed30 683d d990 b5bd
000002d0: 9ca6 d83c e7ec f4bd a282 293d 6cc0 26be
000002e0: d6ee de3c e80a 273e 4fb9 1c3e d30a 8d3d
000002f0: 2723 ea3d 9646 3d3e f786 4c3d b782 5a3d
00000300: 3ee5 ee3b fa1d 273e e5dd 1e3e fff1 97bd
00000310: ff0e 15bb c728 babd 2544 713d 499b 30be
00000320: dae1 563d 4cd4 65bd 2900 973d 077f 7a3d
00000330: f22b f1bd 8ead e13d ba20 973d 0f9e 11be
00000340: 8ce1 343e 9d72 1d3e aa16 df3d c82a 88bc
00000350: 85be 723d b76f cfbd 8503 71bd 3c4d a53d
00000360: a2da a13d cc7b 693d 810f 29be 4462 163e
00000370: 55d3 c9bd b4d5 1f3e ea02 153e 7884 803d
00000380: 8f17 273e f2d0 dd3d ac77 d43d 3195 3ebd
00000390: 6a04 343e 7418 1d3d 9eb9 e13d aa24 3abd
000003a0: c47b 033e 026a 223e 4162 fcbd a547 133e
000003b0: 62ae 07be 81e6 cabd 064f 24be 75eb 9e3d
000003c0: 4e81 0dbe a886 5ebd db83 bbbd 2375 5d3d
000003d0: 95dd 33be 26b5 92bd a515 2c3c 95bf 713d
000003e0: 22c0 aabd 0d93 443d e97f ecbd 5600 1ebe
000003f0: cf4c 8ebc 1e69 bebd b1a8 fb3d 6ff8 f2bd

rnn.bias_ih_l1 f4 [32]
-0.10782487 -0.14274918 -0.15955162 0.018367626 -0.106947795 0.0119426185 -0.07797435 -0.12221017
0.122325175 0.08901166 0.11160468 0.16241896 -0.12010434 -0.09957917 -0.1365707 0.12273694
0.100665726 0.14576475 -0.12542601 -0.09480454 0.17667861 -0.13162293 -0.11374843 0.053941637
-0.15735672 -0.05145327 0.066258214 0.15310492 -0.01491544 -0.14338684 0.10406899 0.171471
00000000: 49d3 dcbd d72c 12be 8061 23be b477 963c
00000010: 7207 dbbd f9aa 433c 04b1 9fbd 5349 fabd
00000020: 9f85 fa3d bf4b b63d ff90 e43d 2851 263e
00000030: 44f9 f5bd 2af0 cbbd 31d9 0bbe 815d fb3d
00000040: d529 ce3d 5b43 153e ad6f 00be e228 c2bd
00000050: 3deb 343e 29c8 06be f0f4 e8bd e8f1 5c3d
00000060: 1f22 21be aac0 52bd 63b2 873d 89c7 1c3e
00000070: e45f 74bc 00d4 12be 1f22 d53d 1896 2f3e

rnn.bias_hh_l1 f4 [32]
-0.11972985 -3.3927436e-06 -0.11998531 -0.094071575 0.06013555 0.08811934 0.07887361 -0.16908321
-0.039729457 0.064311616 -0.028926032 -0.06180618 -0.08351416 0.16213779 -0.14498767 -0.13521492
0.12532769 -0.10491211 0.10509006 -0.09744761 -0.019571053 -0.07666086 0.15004146 0.111414135
0.0056676026 0.0027663545 -0.07556982 -0.086207695 -0.061722264 0.07093567 -0.027798636 0.1152278
00000000: ec34 f5bd e4ae 63b6 dcba f5bd 99a8 c0bd
00000010: b250 763d ea77 b43d 7d88 a13d 2624 2dbe
00000020: 5bbb 22bd cfb5 833d 49f6 ecbc 7a28 7dbd
00000030: 7909 abbd 7307 263e a677 14be c875 0abe
00000040: e755 003e 29dc d6bd 7539 d73d 9d92 c7bd
00000050: 7953 a0bc 5e00 9dbd 78a4 193e 182d e43d
00000060: 4cb7 b93b ba4b 353b 5ac4 9abd a98d b0bd
00000070: 7cd0 7cbd b846 913d f7b9 e3bc 8efc eb3d

rnn.weight_ih_l2 f4 [32, 32]
0.035608448 0.027572617 -0.11678553 0.08800319 -0.15033814 0.05276893 0.056764074 0.043127522
0.1087306 0.040288292 -0.057087395 -0.13184641 -0.17595929 0.114716284 0.10890014 -0.12421222
0.037581258 -0.06627917 0.1361242 -0.05354866 0.13574377 0.1313323 0.11689911 0.15932508
0.055708557 0.06618205 -0.16870104 -0.036606275 0.005157237 0.11550539 -0.074941956 0.070822485
0.12894532 0.10250115 0.07642901 -0.04102556 0.06795631 -0.03574591 0.17702949 0.012039082
0.0047752876 -0.17864925 0.16108803 -0.00016047076 0.09757096 -0.08399874 -0.13376519 -0.013899123
-0.11900433 0.06387864 -0.035295255 -0.0874112 0.09312399 0.12183369 -0.16283916 -0.14875801
0.07556531 -0.1000877 0.015695993 -0.07235093 0.048377093 -0.078971736 -0.00040155076 -0.056888033
-0.066771336 -0.08278112 0.04220611 0.12350095 0.0008300783 -0.0112735685 0.13767368 0.14892979
-0.032991383 -0.14241464 0.03319495 0.039661437 -0.13134399 -0.1617688 0.024412086 0.17004414
-0.16502213 -0.08815336 -0.070617035 -0.146746 -0.10881739 0.15072095 0.14641519 -0.10946275
0.009588434 -0.13171233 0.061652996 -0.115266465 -0.07246718 -0.07643795 0.022193562 0.108879656
-0.08247664 0.0139963925 0.15009724 0.009933347 0.034667835 -0.008112503 -0.021298386 0.09187557
0.08043273 -0.07420491 0.17398137 0.07911893 -0.010120123 0.13297476 -0.0019748043 0.108328365
-0.16668202 0.14102422 0.19443011 -0.11185085 -0.13419876 -0.05806729 -0.0982381 0.059537753
0.10035825 -0.03470117 0.1386286 0.029098015 -0.068477884 -0.16360787 0.06419627 -0.16917525
0.0008034919 0.015558277 -0.106982015 0.039318793 0.016877035 0.1263675 0.122998446 -0.14756781
-0.11245554 -0.058510613 -0.13067913 0.06616793 -0.110009804 -0.13496476 0.04710891 0.10765993
-0.045339815 -0.17362203 0.02445449 0.081733115 0.13976178 0.008915966 0.10597153 -0.17667152
0.15485784 -0.118886046 -0.10668683 0.11031766 -0.04869506 0.097724654 -0.11749054 0.1400925
0.1716752 0.06345624 0.14629596 -0.13579832 -0.049159035 0.068465784 0.100899994 -0.0839689
0.118506216 -0.06190708 -0.10109932 0.046615794 -0.14061484 -0.14987877 0.071853325 0.047080398
0.06483987 -0.020993626 -0.13017912 -0.14626266 0.14866608 -0.15881535 0.029462647 0.12234492
0.12381081 -0.10010752 -0.061034463 -0.15078212 0.09917613 -0.1574601 -0.17231484 -0.12561543
0.14729671 0.14388819 0.096813925 0.1267529 -0.0898458 -0.073947854 -0.08775697 0.059913497
0.08382954 0.01808129 -0.13100347 0.028870177 -0.112492904 -0.012221502 -0.023888616 0.023546766
-0.13738255 0.17335322 -0.10474288 0.04479402 0.11623436 0.06551608 0.11533255 0.10683377
0.10858483 0.034742415 0.09892132 -0.09426992 -0.08998858 0.102339424 0.047838144 0.0025454226
-0.13128467 0.070993416 0.116922654 -0.019750746 0.04359502 0.0791929 -0.17422363 -0.015837386
-0.06915057 -0.10215597 0.10326359 0.1702766 0.03101236 0.11214483 -0.1261657 0.027450545
-0.023471827 -0.10624616 0.023694845 0.060769975 -0.0077823703 0.08610824 0.100816555 0.1749877
0.01250454 0.023300083 -0.019786786 0.021620192 -0.08545754 -0.0070818383 -0.15115218 -0.13231605
00000000: 2ada 113d f8df e13c 402d efbd 043b b43d
00000010: 3ef2 19be 3c24 583d 7281 683d 7ca6 303d
00000020: 26ae de3d 5605 253d 79d4 69bd bf02 07be
00000030: ac2e 34be 5ff0 ea3d 0907 df3d fa62 febd
00000040: ceee 193d 60bd 87bd 2464 0b3e d755 5bbd
00000050: 6a00 0b3e f97b 063e cd68 ef3d 1d26 233e
00000060: a82e 643d 748a 873d f7bf 2cbe 76f0 15bd
00000070: 0afe a83b 178e ec3d 2b7b 99bd 610b 913d
00000080: 3e0a 043e 1fec d13d d086 9c3d 6b0a 28bd
00000090: ae2c 8b3d 4e6a 12bd 3847 353e 923f 453c
000000a0: 047a 9c3b d4ef 36be 43f4 243e 0b44 28b9
000000b0: 49d3 c73d 8807 acbd bef9 08be 26b9 63bc
000000c0: 8bb8 f3bd ced2 823d c291 10bd a504 b3bd
000000d0: cab7 be3d f183 f93d 4fbf 26be 0554 18be
000000e0: fcc1 9a3d c8fa ccbd e294 803c b92c 94bd
000000f0: 0f27 463d efbb a1bd 3b87 d2b9 6d03 69bd
00000100: 69bf 88bd 2689 a9bd 50e0 2c3d 11ee fc3d
00000110: 9d99 593a c6b4 38bc 54fa 0c3e 0d81 183e
00000120: f921 07bd 25d5 11be 6ef7 073d 0874 223d
00000130: 0a7f 06be b8a6 25be dbfb c73c 0d20 2e3e
00000140: 90fb 28be c089 b4bd aa9f 90bd 9544 16be
00000150: a7db debd 9856 1a3e dded 153e 022e e0bd
00000160: cf18 1d3c 99df 06be da87 7c3d d310 ecbd
00000170: ac69 94bd 808b 9cbd 46cf b53c 4cfc de3d
00000180: 83e9 a8bd 2051 653c 17b3 193e 7abf 223c
00000190: dcff 0d3d 4eea 04bc f479 aebc 4229 bc3d
000001a0: eab9 a43d bef8 97bd 2c28 323e 1b09 a23d
000001b0: dfce 25bc 892a 083e b86b 01bb 43db dd3d
000001c0: b1ae 2abe a768 103e b018 473e 0f12 e5bd
000001d0: 666b 09be f7d7 6dbd 0f31 c9bd dcdd 733d
000001e0: a088 cd3d d022 0ebd a8f4 0d3e f65e ee3c
000001f0: 223e 8cbd d288 27be 5679 833d 473c 2dbe
00000200: 6ea1 523a 25e8 7e3c 6319 dbbd be0c 213d
00000210: b541 8a3c 7b66 013e 9ce6 fb3d 041c 17be
00000220: 174f e6bd d3a8 6fbd c0d0 05be 0d83 873d
00000230: d24c e1bd 3434 0abe 46f5 403d cf7c dc3d
00000240: 3eb6 39bd f9c9 31be c854 c83c b163 a73d
00000250: b61d 0f3e 4614 123c 9a07 d93d 61e9 34be
00000260: 0e93 1e3e 877a f3bd a07e dabd 3aee e13d
00000270: 7974 47bd dd23 c83d e19e f0bd 6974 0f3e
00000280: a0cb 2f3e 58f5 813d 9cce 153e b70e 0bbe
00000290: fc5a 49bd ca37 8c3d a8a4 ce3d e3f7 abbd
000002a0: 63b3 f23d 4792 7dbd 290d cfbd 34f0 3e3d
000002b0: 56fd 0fbe d279 19be d627 933d 60d7 403d
000002c0: c4ca 843d d3fa abbc ad4d 05be e1c5 15be
000002d0: ec3b 183e 7ea0 22be a65b f13c f98f fa3d
000002e0: 8690 fd3d 2c05 cdbd 46ff 79bd a166 1abe
000002f0: db1c cb3d 383d 21be 4d73 30be 55a1 00be
00000300: f3d4 163e 6d57 133e 6146 c63d 83cb 013e
00000310: 1301 b8bd f971 97bd edb9 b3bd db67 753d
00000320: d2ae ab3d 371f 943c c625 06be 2681 ec3c
00000330: ae62 e6bd b23c 48bc 0fb2 c3bc 26e5 c03c
00000340: 03ae 0cbe 8283 313e 6f83 d6bd ef79 373d
00000350: 480c ee3d 4b2d 863d 7933 ec3d aacb da3d
00000360: b961 de3d 104e 0e3d 4397 ca3d 9610 c1bd
00000370: ef4b b8bd 5597 d13d eef1 433d 1bd1 263b
00000380: 7d6f 06be ff64 913d 2575 ef3d 51cc a1bc
00000390: b190 323d e32f a23d ae67 32be 68bd 81bc
000003a0: d09e 8dbd 2637 d1bd dc7b d33d fd5c 2e3e
000003b0: a20d fe3c 30ac e53d 9531 01be f7df e03c
000003c0: fd47 c0bc 9697 d9bd b11b c23c f0e9 783d
000003d0: 4103 ffbb 8459 b03d e978 ce3d fa2f 333e
000003e0: d8df 4c3c d1df be3c e617 a2bc d41c b13c
000003f0: 5d04 afbd c40e e8bb a3c7 1abe dc7d 07be

rnn.weight_hh_l2 f4 [32, 32]
-0.08226939 0.0922033 0.08752126 -0.13697208 0.06095821 0.069517665 -0.09030373 0.15273272
0.12998302 0.14078249 -0.026902633 -0.08492839 -0.109441005 0.067816354 -0.029154988 0.14711677
0.1383723 0.014733818 -0.11927537 0.07310901 0.1703286 -0.05200488 -0.078433014 -0.04333077
0.016910527 -0.12947918 0.08789471 0.087871045 -0.05591649 -0.05245968 -0.0875473 0.12733503
0.10885822 0.049716964 -0.0027676867 0.058343254 0.16388875 0.064205304 -0.083404884 0.064564325
-0.05848746 -0.013385377 -0.104556896 -0.01463816 0.027517024 -0.1102508 0.09206589 0.14528061
-0.17377059 0.061455138 -0.13608678 -0.041201748 0.08692762 -0.007835317 0.036333006 -0.051441055
0.19214442 -0.07711852 0.029125633 -0.00078430516 0.12365331 0.002150326 0.1287092 0.059219345
0.10671999 -0.0067567346 0.043200105 0.16242296 -0.05108832 -0.0782196 0.15453252 0.04762367
-0.17176184 0.054847352 -0.19255936 -0.09072848 0.06885022 0.10406032 -0.036690213 0.15559529
0.1817205 0.13976589 -0.15017441 -0.08627377 0.02048975 0.12782489 -0.018586025 0.030760035
0.08252279 -0.094061665 -0.11379667 0.1827727 -0.0067854333 0.1392449 -0.17801885 -0.063970074
0.11292887 -0.004123202 0.054093536 -0.144822 0.18502155 -0.08665418 -0.00934729 -0.11544614
-0.09020169 -0.14047623 -0.16733013 -0.0160024 -0.10050558 0.12644207 0.02141332 0.16164613
-0.024455564 0.032308385 0.18918456 -0.116906 -0.08899666 0.15349597 -0.010077117 -0.044404216
-0.006658186 -0.09342343 0.019650578 -0.051561747 0.07516774 -0.011741311 -0.0682859 -0.0958251
0.0509826 0.10279393 -0.15554601 -0.14013405 -0.19225512 0.08652436 0.12266605 -0.1640342
0.043872353 0.04398865 -0.08225463 0.019294992 0.15245314 0.17015105 0.06485959 -0.052328162
-0.0896063 -0.066946596 -0.009023747 -0.012668654 0.11983789 -0.16181596 -0.0010155695 -0.052863725
0.024707057 0.17692834 0.0091891615 -0.04521468 -0.060719058 -0.18858223 -0.16839698 0.07898849
-0.13175955 0.07631331 -0.045240577 0.069330886 0.10756646 0.016822495 0.05309949 0.14231181
-0.051522 0.111670725 -0.12013424 0.1523988 -0.036744557 0.005435235 0.08371252 -0.018250003
0.16215551 -0.07621826 -0.12051475 0.16300532 -0.09758653 0.13476561 0.13575548 0.11318257
-0.056526594 -0.014484656 -0.16627859 -0.10523459 -0.05105691 -0.13986954 0.09611274 0.090580896
-0.057210043 -0.022112869 0.16629882 -0.024000237 0.14410058 0.17330195 -0.082727864 -0.1770482
0.16712153 -0.09041173 0.17504375 -0.12986994 0.041498028 0.045502383 -0.058477834 0.12815528
-0.14229593 -0.067512155 -0.036900494 0.13835648 0.06589689 0.11862774 0.06923717 0.16819942
-0.025234621 -0.042816184 -0.01819832 0.050913244 -0.038871944 0.05324414 0.049898937 0.044730477
0.15388918 0.023942621 0.10264888 -0.048134804 -0.1436723 0.103338555 0.08833439 0.12726912
0.069714755 -0.0067337384 -0.14748082 -0.17645158 0.03739615 0.15306653 -0.013176261 -0.056149196
0.068577796 -0.06741136 0.08538745 -0.16381547 -0.14688565 -0.12447819 -0.027758589 0.05046823
0.0897166 -0.109458946 -0.04581419 0.057329882 -0.0451451 0.015839146 0.12227612 -0.030843416
00000000: db7c a8bd 15d5 bc3d 593e b33d 6942 0cbe
00000010: 51af 793d 475f 8e3d 29f1 b8bd f765 1c3e
00000020: 451a 053e 4929 103e e962 dcbc f0ee adbd
00000030: 9b22 e0bd 4de3 8a3d 71d6 eebc c7a5 163e
00000040: 78b1 0d3e 1d66 713c a546 f4bd 2dba 953d
00000050: 9f6a 2e3e 1203 55bd 7da1 a0bd 9b7b 31bd
00000060: f287 8a3c 3196 04be 2402 b43d bcf5 b33d
00000070: b008 65bd f6df 56bd 004c b3bd 1d64 023e
00000080: 0ff1 de3d 04a4 4b3d 1462 35bb 56f9 6e3d
00000090: 74d2 273e 127e 833d 2ed0 aabd 4d3a 843d
000000a0: 8c90 6fbd 574e 5bbc ed21 d6bd e5d4 6fbc
000000b0: 626b e13c 2ccb e1bd 0b8d bc3d 71c4 143e
000000c0: ebf0 31be 62b8 7b3d 555a 0bbe 2ac3 28bd
000000d0: 1c07 b23d b45f 00bc ebd1 143d dbb3 52bd
000000e0: 82c1 443e 51f0 9dbd e198 ee3c d499 4dba
000000f0: f23d fd3d 7cec 0c3b 58cc 033e fc8f 723d
00000100: 0390 da3d 9967 ddbb 98f2 303d 3452 263e
00000110: fc41 51bd 9931 a0bd c63d 1e3e 0a11 433d
00000120: 56e2 2fbe 9ea7 603d 482e 45be dacf b9bd
00000130: 5801 8d3d 941d d53d 7a48 16bd 5f54 1f3e
00000140: f014 3a3e ca1e 0f3e 52c7 19be 4db0 b0bd
00000150: 1fda a73c 87e4 023e b841 98bc 78fc fb3c
00000160: b501 a93d 67a3 c0bd 3b0e e9bd c428 3b3e
00000170: 5758 debb 3796 0e3e 934a 36be be02 83bd
00000180: 4047 e73d ed1b 87bb 2f91 5d3d 384c 14be
00000190: 4a76 3d3e bf77 b1bd 6025 19bc 076f ecbd
000001a0: aabb b8bd 00d9 0fbe 9758 2bbe 7717 83bc
000001b0: dfd5 cdbd 087a 013e fd6a af3c 9086 253e
000001c0: 0957 c8bc cc55 043d 99b9 413e 6a6c efbd
000001d0: e243 b6bd 0c2e 1d3e 7e1a 25bc 32e1 35bd
000001e0: ea2c dabb c954 bfbd 40fa a03c 6932 53bd
000001f0: 8bf1 993d a15e 40bc 7ad9 8bbd f33f c4bd
00000200: 21d3 503d a085 d23d 7447 1fbe 4d7f 0fbe
00000210: 87de 44be af33 b13d 5738 fb3d 95f8 27be
00000220: 7fb3 333d 712d 343d 1e75 a8bd 8810 9e3c
00000230: ad1c 1c3e 143c 2e3e 1bd5 843d 0e56 56bd
00000240: 8283 b7bd 4c1b 89bd 57d8 13bc 3090 4fbc
00000250: 916d f53d 15b3 25be dc1c 85ba a287 58bd
00000260: 7466 ca3c b42c 353e 238e 163c 0733 39bd
00000270: 8cb4 78bd b31b 41be 4270 2cbe b8c4 a13d
00000280: faeb 06be 274a 9c3d 2f4e 39bd 5afd 8d3d
00000290: ce4b dc3d 54cf 893c da7e 593d 30ba 113e
000002a0: bc08 53bd 9fb3 e43d f108 f6bd 6e0e 1c3e
000002b0: 7681 16bd 0e1a b23b 7871 ab3d 0881 95bc
000002c0: 180c 263e 5218 9cbd 70d0 f6bd deea 263e
000002d0: 72db c7bd ffff 093e 7c03 0b3e 43cc e73d
000002e0: 6e88 67bd 0d51 6dbc ef44 2abe 3c85 d7bd
000002f0: 0d21 51bd f639 0fbe c2d6 c43d 7a82 b93d
00000300: 1455 6abd 0c26 b5bc 3d4a 2a3e 259c c4bc
00000310: 1a8f 133e 1176 313e 3a6d a9bd 204c 35be
00000320: e821 2b3e c929 b9bd ab3e 333e a0fc 04be
00000330: d6f9 293d b560 3a3d 7486 6fbd 233b 033e
00000340: 06b6 11be d043 8abd f924 17bd 52ad 0d3e
00000350: f3f4 863d 1af3 f23d 38cc 8d3d 783c 2c3e
00000360: d6b8 cebc 0660 2fbd a514 95bc 688a 503d
00000370: 3038 1fbd 8716 5a3d d462 4c3d 4e37 373d
00000380: 2095 1d3e 5123 c43c 9339 d23d 0029 45bd
00000390: d51e 13be 2aa3 d33d a9e8 b43d d652 023e
000003a0: 9cc6 8e3d b1a6 dcbb 3605 17be b9af 34be
000003b0: b52c 193d 79bd 1c3e 3fe1 57bc b3fc 65bd
000003c0: 8472 8c3d f80e 8abd 9edf ae3d 3ebf 27be
000003d0: 3169 16be 6cee febd fb65 e3bc c6b7 4e3d
000003e0: 56bd b73d 032c e0bd a9a7 3bbd bdd2 6a3d
000003f0: 12ea 38bd 19c1 813c e76b fa3d 55ab fcbc

rnn.bias_ih_l2 f4 [32]
-0.07019399 0.08937392 0.1477129 -0.041645646 0.12964463 -0.018077932 -0.02950858 -0.030897805
-0.08000736 0.05248377 -0.0041550184 -0.085795656 0.101929896 -0.074855 -0.115422264 0.07498019
-0.008335753 -0.09155046 -0.13263011 -0.053238973 -0.12777252 0.09602264 -0.009774332 0.0769184
0.08732735 0.014863067 -0.02561578 -0.09192542 0.05998429 -0.14599228 -0.0853553 0.14415623
00000000: dec1 8fbd ac09 b73d 0d42 173e a094 2abd
00000010: 90c1 043e 2c18 94bc fabb f1bc 651d fdbc
00000020: e6da a3bd 39f9 563d d226 88bb a2b5 afbd
00000030: 9fc0 d03d 944d 99bd 8262 ecbd 378f 993d
00000040: af92 08bc cf7e bbbd 30d0 07be 1c11 5abd
00000050: cdd6 02be 85a7 c43d 8524 20bc 6587 9d3d
00000060: afd8 b23d 3984 733c 2fd8 d1bc 6543 bcbd
00000070: 16b2 753d 007f 15be c2ce aebd b19d 133e

rnn.bias_hh_l2 f4 [32]
-0.046760045 0.14215566 0.09168946 -0.03457518 -0.13503328 0.13728584 0.020759283 0.157083
-0.15972991 0.04052942 -0.15550694 -0.021127095 -0.16545701 -0.15677992 0.013222573 0.18789314
0.01606472 -0.010614611 0.17645912 0.015906995 -0.09112674 0.11228455 0.13838387 0.13915153
0.1402989 0.16494992 -0.06396121 0.024664832 -0.044319823 -0.015807161 0.14054808 -0.13649383
00000000: 7687 3fbd 4191 113e afc7 bb3d b49e 0dbd
00000010: 2a46 0abe a994 0c3e 5f0f aa3c 5eda 203e
00000020: 3d90 23be 2d02 263d 363d 1fbe bb12 adbc
00000030: 906d 29be ea8a 20be 7ea3 583c 0f67 403e
00000040: 299a 833c e8e8 2dbc b3b1 343e 634f 823c
00000050: a8a0 babd 71f5 e53d 80b4 0d3e bd7d 0e3e
00000060: 84aa 0f3e a2e8 283e 18fe 82bd e70d ca3c
00000070: b488 35bd 057e 81bc d6eb 0f3e 0ac5 0bbe

rnn.weight_ih_l3 f4 [32, 32]
0.08535448 -0.102561474 -0.023282161 -0.021417221 -0.06422807 0.009110389 -0.11125434 0.1491899
-0.078298815 0.12247466 -0.04740947 -0.13146082 0.10828894 -0.047812663 -0.043293577 0.03458588
0.024563573 0.039872713 -0.02604639 -0.047233593 0.06196157 0.097212136 0.16953008 0.012373812
-0.065822124 -0.03695346 -0.021216018 -0.040610082 -0.058035865 -0.019852784 0.025868086 0.062104777
0.12597743 -0.17216884 0.1286282 -0.02943032 -0.15800184 0.110762894 -0.10054986 -0.07434546
0.03091553 0.046124857 0.11056067 -0.08388707 0.059718683 0.089762785 0.14497986 -0.022928705
0.053470105 0.023356522 0.19010393 -0.09334125 -0.17137015 -0.13261066 0.0656202 -0.13875362
-0.06289805 -0.08859223 0.04501224 -0.09586046 0.11894854 -0.13624862 -0.13246821 0.0061088474
-0.19495663 0.059662744 -0.07036914 -0.086730786 0.13343671 -0.06181049 0.018543972 -0.053551536
0.07775709 0.17545913 0.1697334 -0.100869104 -0.19389339 -0.122951575 0.06856392 0.07587385
0.12900853 0.07862416 0.16960175 -0.10407739 -0.16721287 -0.054799296 0.14875948 -0.1320684
0.11951634 0.036637407 0.11808917 0.18827666 0.17132655 0.18751048 -0.051597036 -0.091663525
0.060380507 0.1559822 0.0016145224 -0.044146977 -0.020286558 -0.06825189 0.06846367 -0.1674185
0.1328616 0.0073726666 -0.1128383 -0.04632133 -0.13363354 -0.15563759 0.05104428 -0.01683171
-0.026917843 -0.044952262 -0.011578085 0.09496628 -0.15697926 0.0029056862 0.020833403 -0.15124603
0.13620716 -0.08887068 0.1540476 0.1587326 0.0050540697 0.15811954 -0.16137524 -0.042356648
-0.16208729 -0.1042395 0.046479177 0.1315008 -0.09646223 -0.07787185 -0.10629082 -0.015033763
-0.15886015 -0.1303845 -0.043575138 0.18433833 0.009102166 -0.07264465 0.1445448 0.14862466
0.1600405 -0.004820218 -0.0048137987 0.12907386 0.080827855 0.13674705 0.14585651 -0.05952199
0.12769541 0.02943011 0.18496707 0.19404207 0.14621718 0.14258389 0.11910784 -0.10115232
-0.0733533 -0.04055821 -0.09595886 0.13185385 0.021938872 -0.052175198 -0.07827281 -0.15467378
-0.005494197 0.16678171 0.11428882 0.16260055 0.094223194 0.07559745 0.026726551 -0.10594969
0.16875121 -0.1400816 -0.09380574 0.08113656 0.09240466 -0.09062309 0.13674757 -0.17359543
0.015881024 0.06910384 0.04171055 -0.07538759 -0.12170179 0.1639908 0.013115194 -0.10169972
0.15307264 -0.031107163 -0.0367748 0.040823136 0.14984198 -0.07929188 -0.007835361 -0.07593884
-0.0927936 -0.014415773 -0.009746928 0.10842077 -0.1447688 0.09979418 0.15817124 -0.004157557
0.024456736 0.03628269 -0.15521903 0.14185774 -0.0412976 0.010953552 0.10163575 0.06720673
-0.10302141 -0.13120727 -0.16174595 -0.13053297 -0.03978294 -0.11478327 -0.030638354 -0.11283044
0.10803971 0.12100451 0.16085704 -0.11636186 -0.1299194 0.0713487 -0.034644034 0.13459449
-0.14888805 0.15671341 -0.11476332 -0.16015452 -0.00020750437 -0.08375843 -0.13355146 0.085857056
0.11231441 0.108373344 0.005556731 -0.030832356 -0.08919623 0.15872005 -0.11285122 -0.14563334
0.17437121 -0.007551084 0.11317923 -0.07900738 0.1451739 -0.14590576 0.12643981 0.14956197
00000000: 54ce ae3d c00b d2bd 3bba bebc 2b73 afbc
00000010: 028a 83bd be43 153c 51d9 e3bd 3dc5 183e
00000020: 215b a0bd ffd3 fa3d 6f30 42bd aa9d 06be
00000030: 97c6 dd3d 36d7 43bd 9b54 31bd eca9 0d3d
00000040: 8c39 c93c 9251 233d 3d5f d5bc 0378 41bd
00000050: 6acb 7d3d 2817 c73d 4b99 2d3e 87bb 4a3c
00000060: c0cd 86bd 835c 17bd 37cd adbc c256 26bd
00000070: 04b7 6dbd 4ea2 a2bc 4fe9 d33c 9461 7e3d
00000080: 3a00 013e 074d 30be 1cb7 033e db17 f1bc
00000090: 3ccb 21be a8d7 e23d 16ed cdbd 6f42 98bd
000000a0: 9142 fd3c 6bed 3c3d a26d e23d fccc abbd
000000b0: 949b 743d 8dd5 b73d 9a75 143e fbd4 bbbc
000000c0: 7803 5b3d 2d56 bf3c 9baa 423e b329 bfbd
000000d0: a87b 2fbe 17cb 07be e263 863d 6e15 0ebe
000000e0: b1d0 80bd d86f b5bd c15e 383d 7d52 c4bd
000000f0: 4b9b f33d c284 0bbe bfa5 07be ba2c c83b
00000100: b6a2 47be ec60 743d b21d 90bd e99f b1bd
00000110: a2a3 083e ff2c 7dbd 87e9 973c db58 5bbd
00000120: 1c3f 9f3d 8fab 333e 98ce 2d3e 7694 cebd
00000130: fd8b 46be 09ce fbbd 3e6b 8c3d c063 9b3d
00000140: d01a 043e b405 a13d 15ac 2d3e 8726 d5bd
00000150: da39 2bbe 3a75 60bd 6854 183e f03c 07be
00000160: fcc4 f43d 1b11 163d bcd8 f13d 99cb 403e
00000170: 3a70 2f3e bf02 403e 6a57 53bd 16ba bbbd
00000180: 8d51 773d ccb9 1f3e 629e d33a 76d3 34bd
00000190: ff2f a6bc a6c7 8bbd ae36 8c3d c16f 2bbe
000001a0: df0c 083e 6996 f13b c417 e7bd 6fbb 3dbd
000001b0: 3bd7 08be 765f 1fbe cf13 513d a7e2 89bc
000001c0: cf82 dcbc dd1f 38bd 02b2 3dbc ae7d c23d
000001d0: 2cbf 20be 536d 3e3b d0aa aa3c 3de0 1abe
000001e0: e479 0b3e d501 b6bd a7be 1d3e cc8a 223e
000001f0: 9c9c a53b 17ea 213e 8d3f 25be 2a7e 2dbd
00000200: 36fa 25be 857b d5bd f360 3e3d 25a8 063e
00000210: fd8d c5bd 477b 9fbd 00af d9bd 2c50 76bc
00000220: 3cac 22be 8483 05be d87b 32bd 30c3 3c3e
00000230: 4021 153c b8c6 94bd 8d03 143e 1031 183e
00000240: a8e1 233e ebf2 9dbb 12bd 9dbb f02b 043e
00000250: 1389 a53d 6b07 0c3e 695b 153e 55cd 73bd
00000260: 96c2 023e 6a17 f13c 0268 3d3e f7b2 463e
00000270: f5b9 153e 8301 123e d0ee f33d f328 cfbd
00000280: 413a 96bd 5e20 26bd 1486 c4bd b204 073e
00000290: 26b9 b33c a9b5 55bd 7f4d a0bd ce62 1ebe
000002a0: aa08 b4bb d3c8 2a3e 4210 ea3d c280 263e
000002b0: 17f8 c03d d6d2 9a3d a4f1 da3c 27fc d8bd
000002c0: 1ecd 2c3e 8d71 0fbe 391d c0bd ed2a a63d
000002d0: a83e bd3d 9998 b9bd 8e07 0c3e 00c3 31be
000002e0: ec18 823c 5086 8d3d afd8 2a3d cf64 9abd
000002f0: ca3e f9bd 34ed 273e 1ce1 563c f147 d0bd
00000300: 13bf 1c3e 73d4 febc 2ca1 16bd 2936 273d
00000310: 2d70 193e c863 a2bd e35f 00bc d385 9bbd
00000320: 920a bebd 2230 6cbc 94b1 1fbc b50b de3d
00000330: 463e 14be e460 cc3d a4f7 213e 1e3c 88bb
00000340: 7e59 c83c 289d 143d bdf1 1ebe 2843 113e
00000350: ac27 29bd 8776 333c 6726 d03d afa3 893d
00000360: e4fc d2bd 335b 06be bba0 25be 6faa 05be
00000370: 70f3 22bd 7e13 ebbd 49fd fabc a513 e7bd
00000380: ec43 dd3d 36d1 f73d b5b7 243e 204f eebd
00000390: 9709 05be 441f 923d e7e6 0dbd 23d3 093e
000003a0: 1c76 18be 7b79 203e 0809 ebbd 8cff 23be
000003b0: 8895 59b9 8a89 abbd b7c1 08be d3d5 af3d
000003c0: 1905 e63d d8f2 dd3d 3d15 b63b 2394 fcbc
000003d0: 83ac b6bd 8287 223e 8a1e e7bd e820 15be
000003e0: 5e8e 323e 156f f7bb 83ca e73d 9fce a1bd
000003f0: 78a8 143e 5268 15be 7079 013e c626 193e
