lightning_logs/version_3/checkpoints/epoch=199-step=2400.ckpt (torch, 145296 bytes, 63 tensors)

rnn.weight_ih_l0 f4 [32, 11]
0.044150844 0.15074113 -0.08690677 0.021680178 -0.05972368 -0.020935519 0.057837095 0.09257121
-0.023661666 -0.038577028 -0.07216971 0.0945445 -0.16940472 -0.14233762 -0.14793882 0.1653962
-0.04540302 0.15920128 0.0797348 -0.10148829 0.1632736 0.10268659 0.097135894 0.14999883
-0.12407097 0.048097257 -0.08900545 -0.16110072 0.10837966 0.15083663 -0.06403883 -0.06530147
0.017530434 0.11489645 -0.071560815 -0.105044715 -0.08633653 0.14177929 0.0465425 -0.12780729
0.17479172 -0.022307301 0.12613632 0.15042518 0.02102819 -0.11544556 0.08381714 -0.076144755
-0.08779741 -0.04121882 0.11813581 -0.086978234 -0.05264479 -0.014696463 -0.18489172 -0.087897465
-0.04219087 0.050633263 0.002487015 0.07126613 -0.06354357 -0.028723825 -0.087684564 0.10200711
0.12671746 0.24484922 -0.070998736 0.0075770807 -0.01081367 0.023483118 0.1447634 -0.040317066
-0.08635687 -0.13225804 0.16113606 0.165448 0.13339858 -0.08769667 0.04386422 0.134455
-0.13351281 0.05079864 -0.011663678 0.015413359 0.13669677 -0.030190393 0.1011168 0.22943835
-0.13704967 0.13943993 -0.06875318 0.017618123 0.18123485 -0.07007226 -0.099043645 -0.065010585
-0.0668366 -0.033964634 0.009811614 -0.11070689 -0.051165055 -0.12460434 0.15374418 -0.10912478
0.18229729 -0.032334533 0.03276709 0.043596394 0.075480275 0.068659276 0.15710469 0.0910627
-0.056238126 -0.1276479 -0.1612907 0.13767584 0.04723611 0.07755186 -0.002744046 -0.052583575
-0.13305584 -0.16022088 0.008666307 0.039397724 -0.0442732 -0.16996737 -0.05757333 -0.14515784
0.044157658 -0.18908164 -0.14262211 0.053247735 0.05145275 -0.009456293 0.18236805 -0.08060674
-0.07280335 0.10960385 -0.08587988 0.1366743 0.06007194 -0.10007758 -0.112553686 0.10887523
0.13367149 0.010097674 0.08584372 0.004868172 -0.05372783 0.13030577 0.120724685 -0.119380124
-0.029548768 -0.061921168 0.12857151 -0.06475588 0.08213477 0.13068822 -0.15673414 0.010419156
-0.10710374 -0.008030518 -0.054644383 0.09829711 -0.042902235 0.13335975 0.10134581 -0.036358256
0.17232041 -0.12643215 -0.034622025 -0.16013351 0.10220375 -0.017979946 0.1680515 -0.13813218
0.044296406 0.14051138 0.07562631 -0.08856805 -0.16188155 0.028599525 -0.007997841 0.17947316
0.15070385 0.11291042 0.16749762 0.029456533 0.08832615 -0.04081198 0.044209473 -0.13543835
0.016213961 0.14560573 0.056117542 -0.07825631 0.06832811 -0.11249218 -0.01869061 -0.11922224
0.042717963 -0.049891226 -0.1593792 0.008850642 0.06818183 -0.110367805 0.13911927 -0.18026955
0.098271586 -0.08693989 -0.0013599222 0.11524912 0.094290935 0.037018713 -0.11106796 0.18205246
-0.01730882 0.024712972 -0.014948344 -0.10888173 -0.08267198 0.13976942 -0.08545052 0.013409523
-0.030904366 0.114308156 -0.12092349 0.088650964 0.15759084 -0.09884791 -0.21699457 0.091670044
-0.10208483 0.14177676 0.01336398 0.15525536 0.055299263 -0.18709277 -0.08229406 0.17088684
0.061979927 0.17638133 -0.045660455 -0.03481396 -0.13769637 0.07099235 0.102142334 -0.13794856
0.07766231 0.114319436 0.13871124 0.15699002 -0.32011452 0.19209333 0.032228123 -0.067154214
00000000: 84d7 343d e25b 1a3e 2dfc b1bd a19a b13c
00000010: d1a0 74bd f780 abbc 97e6 6c3d f995 bd3d
00000020: 1cd6 c1bc f202 1ebd b7cd 93bd 8ca0 c13d
00000030: 6e78 2dbe f4c0 11be 467d 17be 9f5d 293e
00000040: 84f8 39bd a905 233e 004c a33d 18d9 cfbd
00000050: 3231 273e 594d d23d 2fef c63d 4b99 193e
00000060: ec18 febd a101 453d 7d48 b6bd 96f7 24be
00000070: 28f6 dd3d eb74 1a3e ca26 83bd c7bc 85bd
00000080: fc9b 8f3c d44e eb3d 7a8e 92bd af21 d7bd
00000090: 35d1 b0bd 972e 113e 59a3 3e3d eadf 02be
000000a0: 9afc 323e cdbd b6bc e129 013e 0f09 1a3e
000000b0: 5043 ac3c b96e ecbd 52a8 ab3d c8f1 9bbd
000000c0: 21cf b3bd 11d5 28bd 30f1 f13d a521 b2bd
000000d0: 10a2 57bd 6fc9 70bc 4154 3dbe 9603 b4bd
000000e0: 55d0 2cbd d364 4f3d 30fd 223b faf3 913d
000000f0: 2223 82bd 3a4e ebbc f793 b3bd 1be9 d03d
00000100: 39c2 013e c1b9 7a3e c967 91bd 2949 f83b
00000110: d22b 31bc ab5f c03c db3c 143e 8223 25bd
00000120: dfdb b0bd a76e 07be da00 253e 336b 293e
00000130: a399 083e 509a b3bd f8aa 333d 92ae 093e
00000140: 95b7 08be 3c12 503d 0319 3fbc 5088 7c3c
00000150: 3dfa 0b3e d851 f7bc 5316 cf3d e3f1 6a3e
00000160: c056 0cbe 57c9 0e3e 78ce 8cbd e253 903c
00000170: a195 393e 0c82 8fbd 65d7 cabd 4524 85bd
00000180: a1e1 88bd 801e 0bbd e4c0 203c 4bba e2bd
00000190: 7392 51bd 8f30 ffbd 1d6f 1d3e d07c dfbd
000001a0: 24ac 3a3e 3771 04bd c936 063d 2292 323d
000001b0: 6795 9a3d 3c9d 8c3d 0de0 203e 157f ba3d
000001c0: f359 66bd 22b6 02be 6429 25be e5fa 0c3e
000001d0: a77a 413d 82d3 9e3d 74d5 33bb e061 57bd
000001e0: ca3f 08be f110 24be 20fd 0d3c 825f 213d
000001f0: d157 35bd ed0b 2ebe 03d2 6bbd 42a4 14be
00000200: a9de 343d 9e9e 41be 880b 12be 4c1a 5a3d
00000210: 1ec0 523d 91ee 1abc b1be 3a3e 2615 a5bd
00000220: ec19 95bd fc77 e03d cae1 afbd 59f4 0b3e
00000230: ff0d 763d 79f5 ccbd 8c82 e6bd faf9 de3d
00000240: 2ee1 083e b770 253c d5ce af3d 3085 9f3b
00000250: b711 5cbd e06e 053e 813e f73d 917d f4bd
00000260: 4210 f2bc 0da1 7dbd 40a8 033e bb9e 84bd
00000270: 4636 a83d 22d3 053e ea7e 20be 1cb5 2a3c
00000280: 3559 dbbd 6f92 03bc cad2 5fbd ff4f c93d
00000290: 41ba 2fbd 758f 083e 648e cf3d 65ec 14bd
000002a0: c374 303e 6e77 01be d3cf 0dbd 0afa 23be
000002b0: 3350 d13d ae4a 93bc b115 2c3e 8672 0dbe
000002c0: 2670 353d 37e2 0f3e f8e1 9a3d 2a63 b5bd
000002d0: 47c4 25be 8d49 ea3c 6009 03bc d0c7 373e
000002e0: 1c52 1a3e 943d e73d 7f84 2b3e d44e f13c
000002f0: 57e4 b43d 762a 27bd fe14 353d 5ab0 0abe
00000300: 24d3 843c ab19 153e 82db 653d d844 a0bd
00000310: 9cef 8b3d 4d62 e6bd 0d1d 99bc ca2a f4bd
00000320: 08f9 2e3d be5a 4cbd 4d34 23be 4802 113c
00000330: eaa2 8b3d 8408 e2bd 4875 0e3e 9598 38be
00000340: 9d42 c93d 8b0d b2bd 6b3f b2ba bb07 ec3d
00000350: 9b1b c13d efa0 173d 9977 e3bd f66b 3a3e
00000360: 3acb 8dbc dc72 ca3c e6e9 74bc 62fd debd
00000370: ed4f a9bd b71f 0f3e af00 afbd 9eb3 5b3c
00000380: 272b fdbc 651a ea3d bca6 f7bd a38e b53d
00000390: 7e5f 213e c670 cabd d333 5ebe 81bd bb3d
000003a0: da11 d1bd ed2d 113e 98f4 5a3c 43fb 1e3e
000003b0: 7b81 623d 3f95 3fbe ca89 a8bd f6fc 2e3e
000003c0: aade 7d3d 4f9d 343e 7506 3bbd 1599 0ebd
000003d0: 4700 0dbe 7064 913d 0030 d13d 6342 0dbe
000003e0: 6b0d 9f3d 4f20 ea3d 520a 0e3e fec1 203e
000003f0: 0de6 a3be 1db4 443e a301 043d 2688 89bd

rnn.weight_hh_l0 f4 [32, 32]
0.10364096 0.11200301 0.14485863 0.050804444 0.0073789028 0.07165995 -0.047421943 -0.02258185
-0.16740231 -0.14917302 0.2016366 -0.082155764 -0.1191698 -0.09068612 0.15738261 -0.13520418
-0.035606753 -0.011844151 -0.012523353 0.017697498 -0.07966023 -0.15337946 -0.03888223 -0.14699826
0.0020688623 0.07451619 -0.20590985 0.0801125 -0.08157783 -0.14226262 -0.05833869 -0.10547088
0.01886664 -0.16058213 -0.11336043 -0.18946186 0.030373089 -0.16728467 -0.012433052 -0.100878
-0.15540324 0.11189782 -0.0072018276 -0.1227303 -0.109963715 0.12050668 0.004453737 -0.050525237
-0.0037806644 -0.13864632 -0.10106686 0.0133556165 -0.0027739366 -0.116424546 -0.03989378 0.025148833
-0.034772653 -0.1658424 0.05345687 0.12922485 0.10984413 0.073964655 -0.15689372 0.109576344
0.11049869 0.16024497 0.18351418 0.11937002 -0.14202341 -0.04647007 0.11010556 -0.16919124
-0.10311593 0.054192524 -0.06638122 0.1361445 0.10180243 0.09478539 0.056617938 -0.01073638
0.14863737 -0.104764774 -0.08482957 -0.12501302 0.1829622 0.10190438 0.12363347 0.039859556
-0.15463232 0.15028158 -0.07963653 0.13173191 0.07639345 -0.068569876 0.015822565 -0.10730661
-0.04402077 0.11954499 -0.15609144 -0.039885283 -0.15366374 -0.061524097 -0.11134413 -0.07694615
0.0413623 0.17288324 -0.15378515 0.06008965 -0.13318 -0.1125778 -0.0929727 0.15773766
0.056690767 0.027764404 0.081887655 -0.03199626 0.11869203 0.117657185 -0.13688838 -0.18093154
-0.070645496 0.15658912 -0.04013338 -0.06067892 -0.034115717 -0.09091959 -0.04546139 0.1021044
0.018500816 0.06406568 0.0019104832 0.09574902 -0.19825079 -0.0736442 -0.23793612 0.034010485
-0.027051328 0.21054403 0.11191605 -0.2033497 0.0063641286 0.092059284 -0.2008236 0.036284056
-0.19899833 -0.08710638 -0.10101156 0.0093904575 0.1037129 -0.04991982 -0.13724118 0.18234141
-0.059815664 0.121971615 0.10215652 -0.097721875 -0.040052835 -0.19432595 0.13616529 0.10264467
-0.014479864 -0.071260415 -0.121828206 -0.08416977 0.10849141 -0.14559604 -0.041916125 -0.1510243
0.1438557 0.1521702 -0.03831715 -0.092249826 -0.10293172 0.11937018 -0.07206702 -0.10363436
0.051497202 0.056857873 -0.1346608 0.13749497 -0.15597288 -0.08961279 -0.053963725 -0.10133249
-0.0071923854 -0.10328098 -0.16688383 0.18925913 0.04414413 -0.13638556 -0.090425774 0.013831212
0.0073982207 0.038846172 0.104888596 0.15110867 -0.16632405 0.061835807 -0.043030605 -0.050124265
-0.016558059 -0.14183772 -0.0075684935 -0.081659876 0.08527853 0.13041744 -0.0149262855 0.15347873
0.18449785 0.10961736 -0.038688704 -0.19355123 0.021677753 -0.1490659 0.14434066 0.06925014
-0.019979624 -0.06180944 -0.1751354 -0.16480002 -0.13989134 -0.10105906 -0.16262648 0.093788505
-0.115140125 -0.10036173 -0.103442155 0.10063413 -0.024837332 -0.10618732 -0.13896821 -0.04492282
-0.1821452 0.12021846 0.0009605428 -0.08136906 0.07920757 -0.012099434 0.041063357 -0.012715349
0.13873653 0.0055587254 0.099153884 0.05334353 0.101725 -0.0945106 0.03961164 0.04743603
-0.09337984 -0.05422849 -0.11981027 -0.043660734 -0.017860848 -0.058212902 0.07485221 0.099464335
00000000: b641 d43d d661 e53d d255 143e 5218 503d
00000010: b9ca f13b 74c2 923d 833d 42bd 92fd b8bc
00000020: 836b 2bbe d0c0 18be d379 4e3e 4841 a8bd
00000030: 4c0f f4bd a5b9 b9bd e828 213e f772 0abe
00000040: 63d8 11bd f80d 42bc c02e 4dbc 58fa 903c
00000050: e724 a3bd 810f 1dbe f942 1fbd b686 16be
00000060: c095 073b f29b 983d 08da 52be 0612 a43d
00000070: 4712 a7bd 4bad 11be 8df4 6ebd 1e01 d8bd
00000080: 368e 9a3c a46f 24be 8329 e8bd 4a02 42be
00000090: fcd0 f83c ac4c 2bbe 00b4 4bbc 2099 cebd
000000a0: 0722 1fbe af2a e53d 4ffd ebbb 065a fbbd
000000b0: a834 e1bd 35cc f63d a7f0 913b 8df3 4ebd
000000c0: 06c5 77bb 4df9 0dbe 24fc cebd 84d1 5a3c
000000d0: efca 35bb fe6f eebd a967 23bd ed04 ce3c
000000e0: c56d 0ebd 97d2 29be 97f5 5a3d 8553 043e
000000f0: f6f5 e03d c87a 973d bfa8 20be 9069 e03d
00000100: 234d e23d 4217 243e 24eb 3b3e 4578 f43d
00000110: 966e 11be 6657 3ebd 067f e13d 7840 2dbe
00000120: 722e d3bd fbf8 5d3d e1f2 87bd 7769 0b3e
00000130: cb7d d03d d81e c23d 36e8 673d a4e7 2fbc
00000140: 6534 183e ea8e d6bd 20bb adbd 6a03 00be
00000150: 715a 3b3e 3eb3 d03d 8b33 fd3d c643 233d
00000160: ef57 1ebe 6ae3 193e 7a18 a3bd bbe4 063e
00000170: 2b74 9c3d 5d6e 8cbd 539e 813c 91c3 dbbd
00000180: 1f4f 34bd 01d4 f43d 6fd6 1fbe c05e 23bd
00000190: 075a 1dbe b100 7cbd 6408 e4bd f195 9dbd
000001a0: 846b 293d 4e08 313e db79 1dbe 9120 763d
000001b0: 5760 08be 318f e6bd 7968 bebd fb85 213e
000001c0: 9434 683d 2d72 e33c b7b4 a73d 830e 03bd
000001d0: cf14 f33d 40f6 f03d 782c 0cbe 1e46 39be
000001e0: 96ae 90bd e658 203e e662 24bd 768a 78bd
000001f0: ecbc 0bbd 0d34 babd b935 3abd 1d1c d13d
00000200: 068f 973c de34 833d 2e69 fa3a 1018 c43d
00000210: 4102 4bbe c5d2 96bd 87a5 73be 944e 0b3d
00000220: bf9a ddbc db98 573e 3e34 e53d e73a 50be
00000230: 2e8a d03b 9489 bc3d b4a4 4dbe 979e 143d
00000240: 38c6 4bbe d464 b2bd 26df cebd 6fda 193c
00000250: 6e67 d43d ba78 4cbd f488 0cbe b5b7 3a3e
00000260: 4501 75bd 41cc f93d 7037 d13d 6822 c8bd
00000270: 710e 24bd 62fd 46be ea6e 0b3e 5e37 d23d
00000280: f43c 6dbc fbf0 91bd 1181 f9bd 3361 acbd
00000290: bf30 de3d 2117 15be 3eb0 2bbd 1da6 1abe
000002a0: e94e 133e 81d2 1b3e 72f2 1cbd 7aed bcbd
000002b0: decd d2bd 5a78 f43d e097 93bd 403e d4bd
000002c0: bbee 523d cde3 683d 85e4 09be 7bcb 0c3e
000002d0: 5bb7 1fbe e986 b7bd 1109 5dbd 6987 cfbd
000002e0: 1aae ebbb fa84 d3bd 98e3 2abe 25cd 413e
000002f0: 7ad0 343d a8a8 0bbe 2631 b9bd 4f9c 623c
00000300: c66c f23b 2a1d 1f3d d5cf d63d 3bbc 1a3e
00000310: da50 2abe 8b47 7d3d dc40 30bd 1a4f 4dbd
00000320: c4a4 87bc e83d 11be 2001 f8bb 4b3d a7bd
00000330: 83a6 ae3d 268c 053e 618d 74bc 8729 1d3e
00000340: 01ed 3c3e 117f e03d 0c78 1ebd 4b32 46be
00000350: 8b95 b13c bba4 18be 0ace 133e 04d3 8d3d
00000360: 4fac a3bc e52b 7dbd b256 33be 56c1 28be
00000370: ad3f 0fbe 0df8 cebd 8e87 26be 3014 c03d
00000380: 96ce ebbd 738a cdbd 7bd9 d3bd 4419 ce3d
00000390: a977 cbbc bd78 d9bd af4d 0ebe fe00 38bd
000003a0: 4584 3abe 1935 f63d f0cc 7b3a d2a4 a6bd
000003b0: 9437 a23d b43c 46bc 0d32 283d 0a54 50bc
000003c0: f310 0e3e f825 b63b 3111 cb3d bf7e 5a3d
000003d0: 3255 d03d c68e c1bd d13f 223d 484c 423d
000003e0: ee3d bfbd b11e 5ebd 165f f5bd 99d5 32bd
000003f0: ea50 92bc a770 6ebd 1e4c 993d f5b3 cb3d

rnn.bias_ih_l0 f4 [32]
0.007634221 -0.1223008 -0.17764466 0.033686105 -0.02490503 -0.09934156 0.04462274 -0.0027524119
-0.08187547 -0.03175942 0.16642852 0.14441608 0.13375804 -0.14431037 -0.070598945 0.1314928
-0.17729177 0.10983411 -0.037430484 0.012130947 0.17129995 0.06559369 -0.09835072 -0.12789518
0.07121537 0.0845907 0.15170363 -0.16997293 -0.13046701 -0.1374608 0.026552549 -0.0027341945
00000000: 7d28 fa3b d878 fabd 7be8 35be 71fa 093d
00000010: a205 ccbc 9673 cbbd 56c6 363d cf61 34bb
00000020: 54ae a7bd 2a16 02bd 3d6c 2a3e cfe1 133e
00000030: def7 083e 19c6 13be 2e96 90bd 0ca6 063e
00000040: f98b 35be b5f0 e03d b550 19bd e1c0 463c
00000050: 4169 2f3e fc55 863d 1a6c c9bd f4f6 02be
00000060: 5dd9 913d e43d ad3d 3258 1b3e 620d 2ebe
00000070: 2599 05be 86c2 0cbe bb84 d93c 2c30 33bb

rnn.bias_hh_l0 f4 [32]
-0.14276935 -0.051188864 -0.11952169 -0.04090666 -0.08601349 -0.13300176 -0.1595737 0.057226304
0.082043245 0.08818498 0.111879505 -0.0043543763 -0.12707925 -0.18875295 0.09577563 0.123794064
0.024867823 0.12694246 0.09935499 0.13713035 0.06004313 0.12512758 -0.07287914 0.10218934
0.053696863 0.013604482 0.0739116 -0.14141072 0.07462005 -0.085933976 0.11907675 -0.068220414
00000000: 2132 12be 6aab 51bd cac7 f4bd be8d 27bd
00000010: d727 b0bd 9d31 08be 4a67 23be 2166 6a3d
00000020: 4a06 a83d 549a b43d 1521 e53d 28af 8ebb
00000030: 1021 02be 7448 41be 0326 c43d be87 fd3d
00000040: 9bb7 cb3c 34fd 013e a17a cb3d e66b 0c3e
00000050: c9ef 753d 7221 003e a941 95bd a548 d13d
00000060: 3ef1 5b3d 55e5 5e3c f75e 973d f9cd 10be
00000070: 66d2 983d 27fe afbd 83de f33d 25b7 8bbd

rnn.weight_ih_l1 f4 [32, 32]
-0.07368152 0.15221453 0.0017452406 0.10094129 0.01192226 -0.1721081 0.13677269 -0.15084073
0.15792193 0.027228607 -0.15321396 0.08467064 0.011776223 0.102589026 -0.049140852 -0.013445609
0.026766693 -0.13342454 -0.0120571265 -0.04524675 0.014331281 -0.030428965 0.21167465 0.13049576
-0.19841675 0.07641113 0.094733946 0.03495416 0.07628531 0.16356172 -0.058992818 -0.031877324
0.101967596 -0.14419918 0.09846798 -0.17957707 0.02140027 -0.19260153 -0.15947352 -0.064574994
0.07420067 -0.036320273 -0.0538398 0.09343003 0.079233244 -0.08879606 -0.01765606 0.030013254
-0.16778763 0.1578222 -0.10705298 0.0048385034 0.053710315 0.027226124 -0.02380349 0.0093510505
-0.054526243 0.07569814 -0.17477266 -0.23897412 0.060825564 -0.06374297 0.00938134 0.14070357
0.080267645 0.16532978 -0.13715325 -0.17461564 -0.14209844 -0.1628767 -0.113359295 -0.13655029
-0.09416388 0.08123314 -0.12589689 -0.15945636 -0.01605601 -0.027441697 -0.01889981 0.15229881
-0.104730695 -0.027277911 -0.061909806 0.16600688 0.10198981 -0.11148488 -0.019376913 -0.121486396
-0.12848285 -0.073579 -0.08233843 0.038083017 -0.033107325 -0.0744429 0.06933861 0.1991788
0.17751998 -0.01110955 -0.09263569 0.01320833 0.08862378 -0.1348493 -0.058630727 -0.10724998
-0.16584004 -0.06010697 -0.021431364 0.038056225 0.11937196 -0.09568277 -0.0031351352 -0.08652222
-0.072921544 0.10779991 -0.0011428399 0.12963052 0.0961418 0.007042903 -0.04755469 -0.058984082
-0.07320814 0.08563256 0.008300867 -0.10085852 0.13069776 0.07855766 0.19941488 -0.05648716
-0.017219858 0.017361512 -0.11939403 0.06645554 0.093344994 0.021872 -0.061701536 -0.13367607
0.104478166 0.09446966 0.03697723 0.07339768 -0.011114295 0.043881156 -0.041203298 0.16476698
-0.02072801 -0.15411659 0.0033874435 0.028181292 0.18268847 0.01578148 0.005301422 0.03405484
-0.12803648 -0.04208159 -0.12209027 -0.053768087 -0.048699357 -0.051184617 0.10051474 0.12698364
-0.17330596 -0.13635339 0.14954899 -0.081821196 0.05143622 -0.12254498 0.03219181 0.005229477
-0.14351262 -0.09391437 0.06842015 -0.063728005 0.009991671 -0.10844699 0.100509994 0.13290471
0.04899971 -0.0739598 -0.062053923 -0.14565572 0.06563815 -0.10599109 0.10463811 -0.12068505
0.17910476 -0.110576436 -0.04341429 -0.10536504 0.123261936 -0.022466162 0.037408214 -0.12057728
0.116884276 0.044664882 -0.13319147 -0.02899175 -0.15434226 0.025386924 0.04809002 -0.13605416
0.020387514 -0.024090862 -0.16042712 -0.04123711 -0.107842796 0.1117288 0.14560947 -0.10824084
-0.1530684 -0.09652918 0.15948305 0.018387953 -0.019931037 0.022355419 0.023164937 0.14569311
0.17612123 -0.08254182 -0.020170158 0.039620824 0.10098017 -0.16977988 0.007099971 0.14273216
-0.09031874 -0.07970159 0.002160764 -0.053381734 0.1002646 0.17026158 -0.06195505 0.093496926
0.033540133 -0.016883967 -0.1033291 -0.025858112 -0.14607319 0.05527403 0.05224061 -0.10922012
0.056446988 -0.1664007 -0.1674254 0.08878254 0.17769195 -0.09102178 -0.103007376 0.026988551
-0.16880228 -0.1008301 -0.039339088 0.1866338 -0.08856585 0.09381403 -0.067391396 -0.07520281
00000000: 56e6 96bd 20de 1b3e 8fc0 e43a 4fba ce3d
00000010: 9555 433c 1b3d 30be 240e 0c3e fe75 1abe
00000020: 49b6 213e 870e df3c 1fe4 1cbe cd67 ad3d
00000030: 0ff1 403c 321a d23d eb47 49bd f94a 5cbc
00000040: d345 db3c 71a0 08be 418b 45bc a854 39bd
00000050: c0cd 6a3c 2a46 f9bc 3dc1 583e aea0 053e
00000060: c32d 4bbe 707d 9c3d df03 c23d 182c 0f3d
00000070: 793b 9c3d b97c 273e 74a2 71bd cc91 02bd
00000080: 63d4 d03d f3a8 13be 95a9 c93d 0de3 37be
00000090: 9e4f af3c 5639 45be 074d 23be e53f 84bd
000000a0: 85f6 973d 91c4 14bd 1f87 5cbd 3e58 bf3d
000000b0: 0a45 a23d b5da b5bd 71a3 90bc 5bde f53c
000000c0: 85d0 2bbe 259c 213e 983e dbbd 4f8c 9e3b
000000d0: 59ff 5b3d 5209 df3c 89ff c2bc 2635 193c
000000e0: e956 5fbd a007 9b3d 9bf7 32be a2b5 74be
000000f0: 3a24 793d ad8b 82bd 31b4 193c 9914 103e
00000100: 5d63 a43d 364c 293e e771 0cbe 71ce 32be
00000110: 4182 11be 26c9 26be eb28 e8bd d7d3 0bbe
00000120: fed8 c0bd 8f5d a63d 1deb 00be 8748 23be
00000130: e587 83bc 69cd e0bc c6d3 9abc 38f4 1b3e
00000140: 0c7d d6bd ed75 dfbc 2395 7dbd b5fd 293e
00000150: 09e0 d03d 2f52 e4bd 55bc 9ebc dccd f8bd
00000160: 0291 03be 96b0 96bd 0da1 a8bd f0fc 1b3d
00000170: 8c9b 07bd 8575 98bd 6701 8e3d 87f5 4b3e
00000180: ccc7 353e d404 36bc c8b7 bdbd c067 583c
00000190: 6280 b53d ef15 0abe c626 70bd e1a5 dbbd
000001a0: f9d1 29be ba32 76bd d490 afbc d8e0 1b3d
000001b0: 4979 f43d 54f5 c3bd d776 4dbb 9032 b1bd
000001c0: e457 95bd 33c6 dc3d 58cb 95ba ddbd 043e
000001d0: fee5 c43d 27c8 e63b b5c8 42bd 4b99 71bd
000001e0: 26ee 95bd 2060 af3d 5c00 083c e98e cebd
000001f0: a2d5 053e d7e2 a03d 6a33 4c3e 155f 67bd
00000200: a910 8dbc bb39 8e3c db84 f4bd d819 883d
00000210: a92b bf3d e92c b33c c0ba 7cbd 61e2 08be
00000220: a6f8 d53d 4f79 c13d 7075 173d 8651 963d
00000230: bb18 36bc babc 333d cac4 28bd adb8 283e
00000240: cacd a9bc bdd0 1dbe dfff 5d3b 74dc e63c
00000250: b012 3b3e 2a48 813c 8db7 ad3b 177d 0b3d
00000260: ff1b 03be bf5d 2cbd 770a fabd ed3b 5cbd
00000270: fa78 47bd f6a6 51bd acda cd3d 0008 023e
00000280: 1e77 31be 39a0 0bbe 5f23 193e df91 a7bd
00000290: c9ae 523d ddf8 fabd 8fdb 033d 085c ab3b
000002a0: f9f4 12be 2d56 c0bd dd1f 8c3d d483 82bd
000002b0: 1bb4 233c 7519 debd 2fd8 cd3d 2c18 083e
000002c0: ebb3 483d 3c78 97bd 412c 7ebd c626 15be
000002d0: 4b6d 863d db11 d9bd 814c d63d b929 f7bd
000002e0: 3d67 373e e675 e2bd 2fd3 31bd a0c9 d7bd
000002f0: c170 fc3d f50a b8bc 5b39 193d 39f1 f6bd
00000300: 0661 ef3d 86f2 363d 5863 08be 1b80 edbc
00000310: e60b 1ebe 3df8 cf3c 0afa 443d c851 0bbe
00000320: b703 a73c 335a c5bc 0247 24be 3ee8 28bd
00000330: afdc dcbd 12d2 e43d a61a 153e 60ad ddbd
00000340: f6bd 1cbe 17b1 c5bd 864f 233e 55a2 963c
00000350: 6a46 a3bc b622 b73c 65c4 bd3c 9330 153e
00000360: 2059 343e b00b a9bd e33b a5bc 7249 223d
00000370: b1ce ce3d c7da 2dbe e0a6 e83b 6128 123e
00000380: 08f9 b8bd 963a a3bd 9b9b 0d3b cea6 5abd
00000390: 8757 cd3d 0d59 2e3e 94c4 7dbd 517b bf3d
000003a0: 6161 093d 3f50 8abc 359e d3bd 64d4 d3bc
000003b0: 3694 15be 0567 623d 40fa 553d ccae dfbd
000003c0: f534 673d f264 2abe 9071 2bbe 9fd3 b53d
000003d0: e1f4 353e a169 babd 88f5 d2bd 1817 dd3c
000003e0: 81da 2cbe 0380 cebd 0622 21bd ee1c 3f3e
000003f0: 0362 b5bd 9221 c03d 8004 8abd ee03 9abd

rnn.weight_hh_l1 f4 [32, 32]
-0.116392836 -0.036745142 -0.13489874 0.042821344 -0.09924441 0.06661643 0.011664674 0.06941854
0.06615309 0.116510436 0.08952981 0.14869563 0.15609702 -0.08152282 -0.17583728 -0.14316344
0.04614791 0.03624656 -0.117066845 0.12856477 0.104457684 -0.04375665 -0.22417012 0.030212454
-0.030122275 0.05957734 -0.07793476 -0.04212123 -0.11600957 0.11350682 0.09152926 -0.00024381385
-0.03849947 -0.06579215 0.10447759 0.097557835 -0.079259165 -0.034158178 0.042400673 0.053276073
0.11712133 0.1712847 -0.12788774 -0.1893067 0.057796694 -0.14208505 0.09341527 0.0966097
-0.09091019 0.053514984 0.014329408 -0.0681337 0.18529288 0.02730796 -0.03573863 0.1165581
-0.03693513 -0.03133035 0.06756997 0.057509284 -0.09956743 -0.08498004 -0.013576457 0.082604334
0.14357466 0.0765296 -0.077668495 -0.030133324 -0.15124264 -0.1624432 0.058292698 0.06707084
0.042836186 0.14619845 -0.14274077 0.105441056 0.08026574 -0.063054554 0.11754969 -0.157117
-0.14452371 -0.036920324 -0.0935698 -0.06804873 -0.045205124 -0.1420573 0.1511047 0.009664261
0.08447195 0.109454066 0.1611569 -0.01356806 0.0124267675 0.10590531 0.052424863 -0.16200875
-0.081329174 0.14611107 -0.027455388 0.10861359 0.07180663 0.02553493 0.057611458 -0.16234457
-0.020412927 -0.05279214 0.10402508 -0.11138862 -0.048329685 -0.12112246 0.0063647185 -0.12810257
-0.076949686 -0.12105978 -0.089132726 0.02058589 -0.18153757 0.017780691 0.1054274 0.05241091
0.17809366 -0.14084628 0.005589608 0.0014320333 0.06415694 0.08733539 0.08154087 -0.17588069
0.083387904 -0.04606866 0.16192897 0.0003996296 0.048974294 -0.12674081 0.097806185 -0.16146307
-0.074391805 -0.15416197 -0.0132592665 -0.08828954 -0.15342389 0.1818732 0.16681755 0.13675012
0.11722746 -0.052931245 -0.051981404 -0.12566073 0.17798401 -0.012758319 0.065661095 -0.024974512
0.101093024 0.0012437595 0.1727415 0.039281465 0.1479497 0.07394473 0.047837038 0.1471211
0.10097381 -0.13369764 -0.2059558 -0.07534319 -0.13864157 -0.17914979 -0.16289271 -0.051777102
0.04096338 0.16103023 0.012088897 -0.1249397 -0.14016625 -0.0018813101 0.10022979 0.016801266
-0.09188484 -0.1171481 0.0066681616 0.15415281 0.13258722 -0.021860007 -0.06389501 -0.10329739
0.16767094 0.1515209 0.09658756 0.09338111 0.13854107 0.10016535 0.07094113 0.10137148
0.14503299 0.093067214 0.09180413 -0.08623737 -0.09829306 0.068967 0.05119469 0.12293992
-0.15810029 0.10617358 -0.056297533 -0.058886867 0.01483627 -0.0075887525 0.13800985 0.1353162
0.13932389 0.093058586 0.06580055 0.012614556 -0.013979622 0.10663295 0.0038363729 0.12361707
0.02250903 0.04163749 -0.027481558 -0.13485485 0.16439605 -0.046256315 0.14852051 0.14395662
-0.119619146 -0.12461227 0.047846276 -0.105077736 0.032533765 -0.0849152 -0.025989845 -0.037542585
-0.037277874 0.042746276 -0.09944003 0.08704425 -0.009494822 -0.031918466 0.15090127 0.08433373
-0.022817224 0.11421532 0.015974496 -0.05514679 -0.08846513 -0.037250467 -0.14351259 -0.13089179
0.102076285 0.01908599 -0.032652926 0.104914814 -0.14774232 0.0018054305 0.13393362 0.06322926
00000000: 5e5f eebd 1382 16bd e522 0abe 6f65 2f3d
00000010: a740 cbbd 326e 883d 301d 3f3c 4f2b 8e3d
00000020: 457b 873d 069d ee3d 685b b73d ab43 183e
00000030: e6d7 1f3e 70f5 a6bd b00e 34be 7099 12be
00000040: 9705 3d3d 4677 143d bec0 efbd 7ca6 033e
00000050: e9ed d53d 2c3a 33bd da8c 65be 1c80 f73c
00000060: fdc2 f6bc 5e07 743d 429c 9fbd 5087 2cbd
00000070: 6d96 edbd 4376 e83d b173 bb3d 48a8 7fb9
00000080: 9fb1 1dbd 09be 86bd 59f8 d53d 67cc c73d
00000090: a152 a2bd 72e9 0bbd 54ac 2d3d 0338 5a3d
000000a0: 4fdd ef3d 4265 2f3e 01f5 02be 9ed9 41be
000000b0: 3abc 6c3d be7e 11be 8150 bf3d 4edb c53d
000000c0: 1f2f babd 8732 5b3d e5c5 6a3c ae89 8bbd
000000d0: 6bbd 3d3e f1b4 df3c ab62 12bd 03b6 ee3d
000000e0: 4a49 17bd 4154 00bd 2062 8a3d db8e 6b3d
000000f0: 02ea cbbd 040a aebd ca6f 5ebc 762c a93d
00000100: 3c05 133e 8dbb 9c3d a910 9fbd 29da f6bc
00000110: 5adf 1abe 8357 26be 53c4 6e3d 705c 893d
00000120: ff74 2f3d 0cb5 153e a32a 12be 7bf1 d73d
00000130: 5d62 a43d bf22 81bd e4bd f03d 47e3 20be
00000140: 06fe 13be c439 17bd 86a1 bfbd 225d 8bbd
00000150: 0229 39bd 7877 11be 31bb 1a3e d956 1e3c
00000160: a1ff ac3d 7429 e03d 5006 253e 914c 5ebc
00000170: a499 4b3c e2e4 d83d 74bb 563d 9fe5 25be
00000180: e98f a6bd 249e 153e 1fea e0bc cd70 de3d
00000190: 5b0f 933d a12e d13c fef9 6b3d a83d 26be
000001a0: 0339 a7bc 923c 58bd 1a0b d53d b81f e4bd
000001b0: 59f5 45bd 0d0f f8bd 218f d03b 522d 03be
000001c0: cc97 9dbd 31ee f7bd 388b b6bd bea3 a83c
000001d0: fce4 39be d0a8 913c 52ea d73d d3ac 563d
000001e0: 2f5e 363e 023a 10be 0829 b73b 10b3 bb3a
000001f0: b764 833d e6dc b23d e6fe a63d 111a 34be
00000200: 47c7 aa3d 7eb2 3cbd b5d0 253e 6185 d139
00000210: 4599 483d 58c8 01be 9c4e c83d 9356 25be
00000220: bb5a 98bd a3dc 1dbe 653d 59bc 25d1 b4bd
00000230: 271b 1dbe f83c 3a3e 38d2 2a3e 3908 0c3e
00000240: f314 f03d 6fce 58bd 74ea 54bd 35ad 00be
00000250: 7141 363e 4508 51bc 5379 863d 5997 ccbc
00000260: dc09 cf3d a505 a33a 26e3 303e 9ae5 203d
00000270: 2080 173e 5670 973d c5f0 433d eaa6 163e
00000280: 5bcb ce3d 09e8 08be 14e6 52be 884d 9abd
00000290: 0ef8 0dbe 0b73 37be 59cd 26be 3a14 54bd
000002a0: 38c9 273d 1ce5 243e 8210 463c 63e0 ffbd
000002b0: be87 0fbe 4b96 f6ba 4745 cd3d cfa2 893c
000002c0: 1e2e bcbd 58eb efbd 9880 da3b 3cda 1d3e
000002d0: f2c4 073e c213 b3bc 63db 82bd 958d d3bd
000002e0: eeb1 2b3e 4b28 1b3e b3cf c53d 983e bf3d
000002f0: b6dd 0d3e 7e23 cd3d 9549 913d da9b cf3d
00000300: 8783 143e 069a be3d ce03 bc3d 389d b0bd
00000310: df4d c9bd 923e 8d3d 86b1 513d edc7 fb3d
00000320: 0be5 21be 8971 d93d 3e98 66bd 5b33 71bd
00000330: d413 733c 12ab f8bb 7452 0d3e 5490 0a3e
00000340: ecaa 0e3e 8095 be3d 70c2 863d 48ad 4e3c
00000350: c90a 65bc 6062 da3d a86b 7b3b f22a fd3d
00000360: db64 b83c 138c 2a3d 0121 e1bc 6417 0abe
00000370: 7057 283e 4377 3dbd c315 183e 5d69 133e
00000380: e2fa f4bd b834 ffbd 75fa 433d ff32 d7bd
00000390: 2042 053d 05e8 adbd a8e8 d4bc 41c6 19bd
000003a0: afb0 18bd b816 2f3d 37a7 cbbd 4144 b23d
000003b0: 2b90 1bbc f0bc 02bd dd85 1a3e 2ab7 ac3d
000003c0: 30eb babc b9e9 e93d f2dc 823c 9ae1 61bd
000003d0: 352d b5bd f293 18bd f7f4 12be 7f08 06be
000003e0: 5f0d d13d 395a 9c3c 13bf 05bd 94dd d63d
000003f0: c349 17be 32a4 ec3a e525 093e 587e 813d

rnn.bias_ih_l1 f4 [32]
0.08655985 -0.0033578977 -0.092555456 0.18200341 0.11342028 -0.060686465 -0.0859347 -0.085910775
0.06686973 0.07700591 0.05016439 0.13491148 0.03923898 0.040615823 -0.08651551 0.15293139
0.052234743 -0.086714044 0.07463346 -0.06947643 -0.10598836 -0.08866516 0.11771223 -0.03807076
0.12185008 -0.18354526 0.12071506 0.12982504 0.08224094 -0.019059934 0.041038323 0.12904812
00000000: 4a46 b13d 2d10 5cbb b78d bdbd 1a5f 3a3e
00000010: e448 e83d 5f92 78bd 88fe afbd fdf1 afbd
00000020: fff2 883d 46b5 9d3d 2d79 4d3d 3c26 0a3e
00000030: 0db9 203d c75c 263d 0b2f b1bd 0c9a 1c3e
00000040: 19f4 553d 2297 b1bd 6dd9 983d a949 8ebd
00000050: 6d10 d9bd 1496 b5bd 1c13 f13d 16f0 1bbd
00000060: 898c f93d 4af3 3bbe 7539 f73d dbf0 043e
00000070: f06d a83d 9423 9cbc cd17 283d 3125 043e

rnn.bias_hh_l1 f4 [32]
-0.022436583 -0.033816617 -0.1583157 0.10820111 -0.083684064 -0.038136255 0.03537731 -0.038578637
0.08987742 0.050923206 -0.044533685 -0.05882422 0.16495691 0.0217899 -0.09596004 -0.11262466
-0.09599722 0.07673704 0.13052773 -0.015833667 0.10212594 0.14405265 0.115853764 0.08753378
0.025481807 0.08344578 0.117306 0.04423958 0.10605631 -0.15232834 -0.059757907 0.034139134
00000000: edcc b7bc 4b83 0abd 831d 22be 8b98 dd3d
00000010: 8d62 abbd c334 1cbd cce7 103d a204 1ebd
00000020: a711 b83d da94 503d f468 36bd aaf1 70bd
00000030: 77ea 283e bb80 b23c b386 c4bd c2a7 e6bd
00000040: 319a c4bd 4f28 9d3d 10a9 053e 9bb5 81bc
00000050: 6827 d13d 8a82 133e bd44 ed3d e944 b33d
00000060: 39bf d03c 9fe5 aa3d 213e f03d 9034 353d
00000070: 0d34 d93d f6fb 1bbe b5c4 74bd 7ad5 0b3d

rnn.weight_ih_l2 f4 [32, 32]
-0.09474271 -0.037342396 0.07763789 0.21012528 0.07368178 0.17602953 0.095911086 0.11328287
0.048720956 -0.06895038 0.13424872 -0.19560044 0.060339756 0.1418394 0.025235657 -0.023639172
-0.16747518 -0.0020225826 0.014262014 -0.094836354 0.11639535 0.09715352 -0.1407782 0.07797321
0.12852217 -0.11226902 -0.0667617 -0.0224821 0.1631366 -0.2039782 -0.020344371 -0.11424929
0.050116982 0.078271255 -0.14568853 0.1618952 -0.08860745 -0.13336778 -0.07568266 0.13324325
0.17025115 0.051046368 -0.008373345 0.095742814 -0.0091696195 0.015749384 0.03834471 0.12279414
-0.06353186 0.033109315 0.21995705 0.08088784 0.10580534 0.1518568 -0.03809719 -0.1796128
0.1360601 0.046123102 -0.1955263 0.14428812 0.14806284 0.07097542 0.18950869 -0.15865901
-0.03662207 -0.016488489 -0.024982866 0.010458555 -0.17605694 0.14422789 -0.04260874 0.016730687
-0.14017838 -0.02855274 0.12264198 0.19672833 0.098965354 -0.06922416 0.046783593 -0.08613684
-0.07101189 -0.03193219 -0.03123906 -0.11929314 0.095676966 0.122270234 -0.13176893 -0.16415097
0.0030653272 0.11294444 -0.18762669 0.048078608 -0.08626165 -0.071599856 -0.13704857 -0.08338545
0.16016845 0.089135 0.015299976 -0.13096109 -0.0761152 -0.013478409 0.08314075 -0.0649097
0.12089945 0.2035774 0.16603589 -0.029231967 -0.061627384 0.010343525 0.13909635 0.04792789
0.15245798 0.0051183114 0.0006274247 -0.008133877 0.0715041 -0.053235274 0.1702306 0.052558176
0.13933654 -0.06997162 0.122266866 0.11121135 -0.060444444 0.04809922 0.15818225 0.111021854
0.17109269 0.046045024 0.031504877 0.17380476 0.019424643 0.16959542 0.088355854 0.1518273
-0.08264398 0.018177427 0.10187406 0.09020859 -0.1675755 -0.12618761 0.111816145 0.06818961
0.024459518 0.10389793 -0.036281466 0.0020421003 0.08778473 0.17134765 -0.17902583 0.11129552
-0.1621802 0.12283307 0.09063124 0.10332859 -0.0837493 0.020671919 0.030158298 0.121617
0.075196795 0.12315193 -0.0778362 0.02184567 -0.043513384 0.1073499 0.029728295 -0.058039553
0.03150884 -0.11162817 0.17215036 0.042345777 -0.09787323 -0.021485925 0.0063489974 -0.15353537
-0.14223187 -0.0317171 0.09685127 0.07679113 -0.057726577 -0.08898027 -0.07942322 -0.0059131347
-0.038197663 0.18804371 0.16059342 0.09305323 -0.037511017 0.05564455 0.074544124 0.06141877
0.028214844 0.051536277 0.073869094 -0.05301526 -0.061484598 -0.11847947 0.14839445 0.06407373
-0.035296973 0.15141666 -0.1561811 -0.14433248 0.06381956 -0.09509278 0.054077525 0.09018863
0.110798076 0.028925389 -0.14163823 -0.19015422 -0.03602354 0.062529266 0.12972659 0.024642324
-0.13808785 -0.1730562 0.12473693 -0.080956295 0.044929296 -0.15754992 0.10076504 -0.18049341
-0.13893668 0.19149254 0.22423066 -0.10098984 0.15470248 -0.12181156 -0.021660097 -0.06735174
-0.036095742 -0.03056845 0.07743994 -0.14565153 0.09350115 0.12719849 0.11810984 0.024284875
0.0027035114 -0.10219243 0.1774482 0.09628098 -0.044621296 -0.12505688 -0.06768232 0.13316047
0.13919564 0.028657975 0.15651691 -0.071931936 -0.004989784 0.06931186 0.1006128 -0.07890658
00000000: 7708 c2bd 57f4 18bd 9d00 9f3d 152b 573e
00000010: 79e6 963d 1641 343e 086d c43d d900 e83d
00000020: a08f 473d db35 8dbd 7f78 093e 7b4b 48be
00000030: d226 773d 593e 113e 02bb ce3c f0a6 c1bc
00000040: 9d7e 2bbe 4e8d 04bb 39ab 693c 9039 c2bd
00000050: af60 ee3d 6df8 c63d 2928 10be 6bb0 9f3d
00000060: 519b 033e 4ded e5bd 5cba 88bd 622c b8bc
00000070: 480d 273e a9df 50be 3da9 a6bc 88fb e9bd
00000080: 7747 4d3d ae4c a03d 602f 15be dbc7 253e
00000090: d377 b5bd 9091 08be 83ff 9abd eb70 083e
000000a0: 5156 2e3e ff15 513d 5b30 09bc cf14 c43d
000000b0: 2c3c 16bc da04 813c 580f 1d3d 7e7b fb3d
000000c0: fe1c 82bd a29d 073d 6c3c 613e 86a8 a53d
000000d0: 78b0 d83d 5980 1b3e cd0b 1cbd 6bec 37be
000000e0: 5753 0b3e 94eb 3c3d 0c38 48be 44c0 133e
000000f0: c99d 173e 905b 913d 910e 423e 8277 22be
00000100: 0601 16bd de12 87bc dea8 ccbc 5c5a 2b3c
00000110: 4548 34be 7ab0 133e 8186 2ebd cb0e 893c
00000120: ec8a 0fbe 70e7 e9bc b82b fb3d 2773 493e
00000130: 59ae ca3d 65c5 8dbd 27a0 3f3d 8368 b0bd
00000140: af6e 91bd 54cb 02bd 0fe9 ffbc f64f f4bd
00000150: 49f2 c33d d168 fa3d 6fee 06be 3117 28be
00000160: a8e3 483b 6a4f e73d 3621 40be 13ee 443d
00000170: f3a9 b0bd f2a2 92bd 7656 0cbe fec5 aabd
00000180: 3303 243e 698c b63d c0ac 7a3c aa1a 06be
00000190: 49e2 9bbd 8bd4 5cbc b345 aa3d 60ef 84bd
000001a0: 219a f73d 9876 503e 5005 2a3e e177 efbc
000001b0: ff6c 7cbd e377 293c 466f 0e3e 0950 443d
000001c0: f21d 1c3e 82b7 a73b c279 243a f443 05bc
000001d0: be70 923d 3b0d 5abd ee50 2e3e 3e47 573d
000001e0: 3dae 0e3e 484d 8fbd 0d67 fa3d c7c2 e33d
000001f0: 9894 77bd b003 453d 87fa 213e 6d5f e33d
00000200: ec32 2f3e b599 3c3d 420b 013d e0f9 313e
00000210: 6e20 9f3c 6caa 2d3e eaf3 b43d 9e78 1b3e
00000220: 3f41 a9bd d4e8 943c 59a3 d03d 48bf b83d
00000230: e998 2bbe 5337 01be ddff e43d ffa6 8b3d
00000240: 545f c83c 70c8 d43d e09b 14bd c2d4 053b
00000250: 7bc8 b33d c275 2f3e 8c52 37be e8ee e33d
00000260: 9112 26be e88f fb3d df9c b93d f19d d33d
00000270: c184 abbd 2858 a93c 890e f73c 5512 f93d
00000280: c700 9a3d 1437 fc3d 9668 9fbd b1f5 b23c
00000290: 173b 32bd 44da db3d c188 f33c e2ba 6dbd
000002a0: 6a0f 013d 4f9d e4bd 2f48 303e c472 2d3d
000002b0: c371 c8bd 4003 b0bc 400b d03b 6038 1dbe
000002c0: 3ba5 11be cae9 01bd f559 c63d ab44 9d3d
000002d0: b472 6cbd 4a3b b6bd a4a8 a2bd f8c2 c1bb
000002e0: 2775 1cbd 888e 403e 9a72 243e b192 be3d
000002f0: 27a5 19bd 8aeb 633d 97aa 983d 4092 7b3d
00000300: d122 e73c b417 533d ae48 973d 8726 59bd
00000310: 46d7 7bbd 5da5 f2bd b7f4 173e 1639 833d
00000320: 8f93 10bd f80c 1b3e f0ed 1fbe e5cb 13be
00000330: d4b3 823d 01c0 c2bd 6580 5d3d d1b4 b83d
00000340: 1aea e23d f0f4 ec3c 9d09 11be cab7 42be
00000350: 6b8d 13bd 580f 803d 0cd7 043e b3de c93c
00000360: e766 0dbe a535 31be 1376 ff3d 6acc a5bd
00000370: c807 383d c454 21be e75d ce3d 44d3 38be
00000380: 6b45 0ebe 9f16 443e b99c 653e c3d3 cebd
00000390: 546a 1e3e 5778 f9bd 8470 b1bc b6ef 89bd
000003a0: 21d9 13bd b06a fabc d598 9e3d ad25 15be
000003b0: 887d bf3d 5240 023e 92e3 f13d 13f1 c63c
000003c0: 652d 313b 444a d1bd fbb4 353e f62e c53d
000003d0: d2c4 36bd e90e 00be 079d 8abd 385b 083e
000003e0: 4d89 0e3e 21c4 ea3c f845 203e 0d51 93bd
000003f0: 5881 a3bb 60f3 8d3d 150e ce3d c699 a1bd

rnn.weight_hh_l2 f4 [32, 32]
-0.10524267 0.09692184 -0.073690824 -0.13204034 0.007842703 -0.07382207 0.095933236 -0.054640133
-0.007182142 0.1003376 -0.04783484 -0.003060473 0.05045929 0.08461201 0.037191737 0.18230326
0.06861007 0.06513344 -0.12968305 -0.14497969 -0.009396255 0.13728257 -0.13840166 -0.13906997
-0.012801039 0.029756133 -0.088636294 0.006858484 0.08996937 0.06943284 0.15149759 0.17588249
0.17108527 -0.077455685 0.1417689 0.07360443 -0.09898617 -0.021091444 0.16024385 0.12764208
-0.15045439 0.03410526 0.006837686 0.110498 -0.06318783 -0.00493789 0.0005719472 -0.12720205
0.13175762 0.1404677 -0.14871077 0.13534953 0.15465976 -0.10632528 0.023102302 -0.1678448
0.099624686 0.1724696 -0.029154114 0.009755773 -0.17371184 0.08433496 0.07006839 0.08145479
0.12644136 0.09104092 0.077292025 -0.10398034 0.13094743 0.027996156 -0.01569374 -0.010966106
0.022602534 -0.0025501125 0.10097106 0.11782366 0.0029168369 -0.14933221 -0.17766735 0.16587655
0.074158266 -0.17005569 -0.08471768 -0.08028368 0.138879 0.07720257 -0.108557455 -0.12329352
-0.061655164 0.0054800995 -0.083818115 0.035079435 -0.028078528 -0.06664741 0.10399816 -0.036058675
0.10512282 -0.01800457 -0.14260934 -0.13826066 -0.07561421 0.0328564 0.11402736 0.16987483
-0.074475825 -0.10720933 0.07849581 0.09959459 -0.14970103 -0.08247573 0.032204576 -0.117447354
-0.056025658 0.08312625 -0.018885808 0.01161239 -0.104373604 -0.10044903 0.09286679 0.0583186
0.18331802 -0.037422564 0.049965423 -0.11666656 -0.09079402 -0.112872794 0.05321332 -0.1751911
0.14609045 -0.08428081 0.1371889 -0.16686608 0.14318822 0.14272651 0.16642632 0.10435424
0.015429241 -0.12809546 0.1365678 -0.058843996 0.10536188 -0.002188831 0.022349726 0.05335997
0.026380718 -0.13067281 0.045917414 0.14527418 0.010271838 0.16516827 -0.054883216 0.009841169
-0.13988371 -0.10671945 -0.12001966 -0.07132864 0.03567219 0.15554759 0.04295586 0.02130076
0.12786743 0.051386293 0.074820936 0.14049342 0.01582156 0.10073974 -0.124583945 -0.017143542
0.09709498 0.06741622 -0.03699373 -0.03422175 -0.09931038 0.15637693 -0.09316815 0.1458604
-0.12936051 0.042412642 0.01754845 -0.14631717 0.06438626 0.09310641 -0.026205054 -0.17774883
0.13033512 -0.00930431 -0.18960686 0.13697241 -0.072195105 -0.058236953 -0.050657693 0.112803005
0.16618827 0.16448514 -0.09191165 0.12995264 0.047576964 -0.124872 -0.033123355 -0.109827146
0.12412917 -0.15030694 -0.020579435 -0.15446216 -0.13513918 -0.040427312 -0.008889958 0.025144273
-0.031956427 -0.17512594 -0.041521326 -0.042568043 0.14997232 -0.054392498 -0.071919605 0.119189076
0.1281091 0.0038080325 -0.01448163 0.07913536 0.047406137 -0.054556157 -0.109947965 0.13625959
-0.16159673 0.1633201 -0.02768914 -0.115785584 -0.015082544 -0.14565286 0.15905716 -0.03655356
-0.06736734 0.031596642 0.14934438 -0.08873982 -0.11173503 -0.04446937 0.15381262 0.14151551
-0.01885773 0.034024317 0.15446341 -0.11947878 0.15569033 -0.030437274 -0.1319223 -0.15418722
-0.065230645 -0.11972245 -0.05345945 -0.12111383 0.069487736 0.13582905 -0.088525794 -0.09591355
00000000: 7889 d7bd f57e c63d 37eb 96bd 9535 07be
00000010: ae7e 003c 0730 97bd a578 c43d 55ce 5fbd
00000020: 2d58 ebbb cd7d cd3d 77ee 43bd 3792 48bb
00000030: 67ae 4e3d 1049 ad3d 5d56 183d b5ad 3a3e
00000040: 7083 8c3d ae64 853d a2cb 04be 8e75 14be
00000050: c0f2 19bc cd93 0c3e 2ab9 0dbe 5c68 0ebe
00000060: 73bb 51bc 22c3 f33c f286 b5bd 22bd e03b
00000070: dc41 b83d ce32 8e3d 2f22 1b3e 8a1a 343e
00000080: fa30 2f3e 16a1 9ebd de2b 113e ebbd 963d
00000090: 43b9 cabd f7c7 acbc f716 243e 9bb4 023e
000000a0: b710 1abe f5b1 0b3d ab0e e03b c74c e23d
000000b0: 9f68 81bd 06ce a1bb baee 153a 4141 02be
000000c0: 78eb 063e c4d6 0f3e a347 18be 1199 0a3e
000000d0: 215f 1e3e 12c1 d9bd 0a41 bd3c 82df 2bbe
000000e0: 0708 cc3d df9b 303e 9cd4 eebc add6 1f3c
000000f0: 84e1 31be cfb7 ac3d 0480 8f3d c5d1 a63d
00000100: d879 013e a973 ba3d 484b 9e3d a5f3 d4bd
00000110: 1517 063e 3258 e53c 2990 80bc 2fab 33bc
00000120: f328 b93c ca1f 27bb eac9 ce3d 884d f13d
00000130: 6728 3f3b 8bea 18be 6eee 35be 8bdb 293e
00000140: 4ae0 973d 1423 2ebe 7780 adbd c56b a4bd
00000150: 4c36 0e3e 621c 9e3d 5f53 debd 5081 fcbd
00000160: 208a 7cbd 6892 b33b d5a8 abbd 74af 0f3d
00000170: f104 e6bc 707e 88bd fdfc d43d 43b2 13bd
00000180: a24a d73d 527e 93bc 2f08 12be 3494 0dbe
00000190: 9fdb 9abd 6f94 063d 2d87 e93d abf3 2d3e
000001a0: c886 98bd 9190 dbbd 69c2 a03d 40f8 cb3d
000001b0: 3a4b 19be 09e9 a8bd f2e8 033d 3d88 f0bd
000001c0: 297b 65bd 183e aa3d 69b6 9abc e541 3e3c
000001d0: d4c1 d5bd 39b8 cdbd f230 be3d 7cdf 6e3d
000001e0: b8b7 3b3e 6748 19bd 8ba8 4c3d e1ee eebd
000001f0: 37f2 b9bd da29 e7bd 36f6 593d 4c65 33be
00000200: bc98 153e 6b9b acbd 3f7b 0c3e f1de 2abe
00000210: ef9f 123e e626 123e a96b 2a3e adb7 d53d
00000220: edca 7c3c 752b 03be 6ed8 0b3e 6706 71bd
00000230: f8c7 d73d 7e72 0fbb c616 b73c fc8f 5a3d
00000240: 601c d83c 18cf 05be e613 3c3d c1c2 143e
00000250: 364b 283c df21 293e 39cd 60bd db3c 213c
00000260: ad3d 0fbe ba8f dabd decc f5bd c014 92bd
00000270: 011d 123d de47 1f3e 7cf2 2f3d ee7e ae3c
00000280: aeef 023e 6f7a 523d b83b 993d 82dd 0f3e
00000290: 379c 813c a350 ce3d de25 ffbd 9d70 8cbc
000002a0: bcd9 c63d 8411 8a3d bd86 17bd 1b2c 0cbd
000002b0: 3e63 cbbd 4621 203e f1ce bebd 6e5c 153e
000002c0: 1577 04be e1b8 2d3d c4c1 8f3c 2bd4 15be
000002d0: f2dc 833d 93ae be3d fbab d6bc ca03 36be
000002e0: 9276 053e 1b71 18bc 4d28 42be 7f42 0c3e
000002f0: 07db 93bd df89 6ebd 717e 4fbd 4305 e73d
00000300: 422d 2a3e cb6e 283e 2d3c bcbd 4e12 053e
00000310: 10e0 423d e4bc ffbd 5bac 07bd 0eed e0bd
00000320: 6f37 fe3d 10ea 19be 3496 a8bc 542b 1ebe
00000330: ed61 0abe 1c97 25bd 30a7 11bc 5dfb cd3c
00000340: bee4 02bd 3754 33be 4412 2abd d45b 2ebd
00000350: 5892 193e abca 5ebd 964a 93bd 6719 f43d
00000360: 082f 033e 2f90 793b 5c44 6dbc b811 a23d
00000370: f02c 423d 4776 5fbd 662c e1bd a287 0b3e
00000380: 9d79 25be 623d 273e 56d4 e2bc fe20 edbd
00000390: c61c 77bc 0626 15be e1df 223e 30b9 15bd
000003a0: e3f7 89bd 7b6b 013d bced 183e 39bd b5bd
000003b0: 56d5 e4bd 8425 36bd 0e81 1d3e 71e9 103e
000003c0: 877b 9abc 155d 0b3d a82b 1e3e 4ab1 f4bd
000003d0: 496d 1f3e 9757 f9bc a416 07be 41e3 1dbe
000003e0: a597 85bd 0b31 f5bd 4cf8 5abd 870a f8bd
000003f0: 964f 8e3d c516 0b3e 034d b5bd 536e c4bd

rnn.bias_ih_l2 f4 [32]
0.15612757 0.16079967 0.1391108 -0.1454717 -0.03319713 -0.16006517 -0.05139614 -0.0243191
-0.1608626 -0.08380274 -0.08076333 0.042121653 0.001665063 0.13579701 -0.11247826 0.09136579
0.1919882 -0.10165457 -0.044277273 -0.047728628 0.13144878 0.08684323 -0.044491667 0.091990404
0.013763338 0.14441209 0.16172546 -0.07483345 -0.1282858 -0.14353497 -0.09143892 -0.1304989
00000000: e8df 1f3e aba8 243e 1073 0e3e 89f6 14be
00000010: b7f9 07bd 20e8 23be c284 52bd d938 c7bc
00000020: 2ab9 24be c5a0 abbd 3f67 a5bd c187 2c3d
00000030: 3e3e da3a 5f0e 0b3e 015b e6bd fd1d bb3d
00000040: 8e98 443e 4530 d0bd 165c 35bd 187f 43bd
00000050: 829a 063e ddda b13d e53c 36bd 7765 bc3d
00000060: a07f 613c c3e0 133e 5c9b 253e 4842 99bd
00000070: 5a5d 03be d5fa 12be 5444 bbbd 81a1 05be

rnn.bias_hh_l2 f4 [32]
0.14912063 0.08014083 0.12708046 -0.075632505 -0.15873891 0.1428037 0.02655369 0.015856342
-0.085111134 -0.08326332 -0.05661682 -0.15685773 -0.13649696 -0.06595469 0.10637662 -0.14826061
-0.028114498 -0.017121138 -0.16422684 -0.0907662 -0.070950106 0.13058574 0.08524525 -0.08752358
0.07288836 0.09565832 -0.10698651 -0.092017256 0.037745595 -0.13565437 0.18871288 -0.13078588
00000000: 14b3 183e e020 a43d 6121 023e 37e5 9abd
00000010: 748c 22be 223b 123e 2087 d93c 29e5 813c
00000020: bf4e aebd f685 aabd 0ae7 67bd 509f 20be
00000030: dcc5 0bbe 4113 87bd fcdb d93d a1d1 17be
00000040: 6050 e6bc a141 8cbc 152b 28be a1e3 b9bd
00000050: 4a4e 91bd 45b8 053e 1095 ae3d 903f b3bd
00000060: 7e46 953d 82e8 c33d be1b dbbd 8b73 bcbd
00000070: 209b 1a3d fbe8 0abe f33d 413e bcec 05be

rnn.weight_ih_l3 f4 [32, 32]
-0.0790428 -0.09413569 0.043532 0.010004967 -0.0108430125 0.05425052 0.09806821 0.10668439
-0.033482768 -0.18990079 -0.11679099 -0.16307318 -0.121560164 -0.17715736 -0.09992482 0.01222518
0.035152543 -0.0831709 0.029652912 0.035545383 -0.023009278 -0.11209557 -0.16936958 -0.112637505
-0.16562405 0.006628202 -0.17762248 0.025610738 0.062214486 0.10840885 0.19962026 -0.068417385
0.10028274 0.0024743488 0.050689027 0.027528077 -0.2006098 0.08819358 -0.03535166 0.04404867
-0.12989363 -0.044843595 -0.14412913 -0.25011492 0.020757055 -0.065005414 -0.18290746 -0.01852669
0.19619784 0.005727127 -0.092755795 0.17313655 -0.049978092 0.03954407 0.04000683 0.0680994
-0.07883152 -0.12538274 -0.013341087 0.21505773 0.08531097 0.024088822 0.26401436 -0.15886122
0.079134114 -0.16274604 0.018707966 -0.066779524 0.06847468 -0.11122352 -0.089114934 0.14012852
-0.05601796 0.003553687 0.08998523 0.1381735 -0.14347158 0.13496879 0.14074162 0.11893227
-0.099273324 0.1843947 -0.10068515 -0.087915495 0.004597524 -0.020056078 -0.026614109 0.059312668
0.031337842 0.069743045 -0.17723793 0.0746758 0.08703776 -0.09345345 0.014367244 0.08462947
0.09167993 0.058238704 0.030949004 0.008231779 0.037940435 -0.1454513 -0.16942412 -0.008426286
-0.046542868 0.12230571 0.00085639086 -0.17835817 0.21406437 0.06821369 0.041962467 -0.146798
0.16370672 0.040375203 -0.050429877 -0.05687707 0.11323761 -0.16294338 -0.18077376 -0.11833002
-0.101452224 -0.07294122 0.08440492 -0.054499786 0.1246005 -0.068094015 0.23306136 0.087220244
-0.011005041 -0.06736198 0.08514315 -0.12806243 0.11048042 0.10271164 0.20170395 0.07752584
0.031681832 0.18979362 -0.14743125 -0.13114323 -0.20181997 0.13550904 0.20578983 -0.043688126
-0.04132054 -0.04603021 0.051192 -0.18829164 0.16747326 0.016569978 0.08761958 0.11918692
0.097887 0.046793252 -0.11349715 0.16082734 0.06754594 0.08518408 0.144587 -0.15670761
-0.09253388 -0.14330713 -0.08497773 0.0072774612 -0.046196133 0.10912445 0.0006931476 0.14948685
-0.0053294976 0.061556008 -0.09676061 -0.024682162 0.086679235 0.12527223 0.08799035 0.028769545
0.08590939 0.09263877 -0.032547753 -0.045541164 -0.027414545 0.048733093 0.1181032 0.11879234
0.13271454 0.07990165 0.15697107 -0.09927417 0.063059695 0.05914799 -0.03679418 0.17728369
-0.03446413 0.11905759 -0.11066852 -0.06625666 0.15390591 -0.031507123 0.0006983032 0.1185227
-0.05015388 -0.041581534 -0.05851632 0.09453024 -0.069065675 -0.050938763 -0.040785898 0.05664865
-0.038592543 0.019294923 0.080682844 -0.022117991 -0.10160909 0.0982021 0.01596338 0.122475825
-0.13001353 0.17897642 -0.17790385 0.11969446 0.028004093 0.01724554 0.053773187 0.08605394
-0.16849135 -0.09386415 -0.02621262 0.075239964 -0.030697312 0.09628644 -0.09303348 -0.21863344
-0.10015631 0.13051313 -0.19823848 0.008643189 0.13793361 0.10331005 -0.19384922 -0.21367846
0.11820185 -0.112133294 -0.10145371 -0.025075084 -0.041451477 0.070380524 -0.025244558 -0.05582509
-0.067532495 0.1166544 -0.06530004 0.27281493 0.19755827 0.06023892 0.20983607 -0.2552968
00000000: 31e1 a1bd 36ca c0bd 9c4e 323d e0eb 233c
00000010: e4a6 31bc cb35 5e3d fcd7 c83d 587d da3d
00000020: 3a25 09bd 5a75 42be 1d30 efbd a8fc 26be
00000030: 89f4 f8bd bd68 35be 62a5 ccbd 1f4c 483c
00000040: 1dfc 0f3d 8155 aabd aaea f23c 0998 113d
00000050: f47d bcbc 5d92 e5bd 386f 2dbe 7eae e6bd
00000060: 5a99 29be 6331 d93b abe2 35be 9ccd d13c
00000070: 9ed4 7e3d 7605 de3d 4169 4c3e 6a1e 8cbd
00000080: 0a61 cd3d af28 223b 4c9f 4f3d 9082 e13c
00000090: a86c 4dbe d69e b43d e7cc 10bd 616c 343d
000000a0: d602 05be ebad 37bd 9696 13be 100f 80be
000000b0: b30a aa3c 8f21 85bd 184c 3bbe 49c5 97bc
000000c0: 16e8 483e a0aa bb3b c0f6 bdbd b54a 313e
000000d0: d4b5 4cbd f6f8 213d 34de 233d b377 8b3d
000000e0: 6c72 a1bd 5564 00be 9394 5abc 1838 5c3e
000000f0: 85b7 ae3d ec55 c53c e42c 873e 84ac 22be
00000100: 1111 a23d e6a6 26be 7341 993c b4c3 88bd
00000110: 743c 8c3d 28c9 e3bd e481 b6bd da7d 0f3e
00000120: 1773 65bd f9e4 683b 2d4a b83d 5b7d 0d3e
00000130: 37ea 12be 4235 0a3e 921e 103e c392 f33d
00000140: d04f cbbd f7d1 3c3e 0434 cebd 0a0d b4bd
00000150: d4a6 963b a54c a4bc d505 dabc d7f1 723d
00000160: 1c5c 003d 71d5 8e3d dc7d 35be a0ef 983d
00000170: da40 b23d 8664 bfbd 9764 6b3c 3752 ad3d
00000180: b0c2 bb3d b58b 6e3d c488 fd3c 95de 063c
00000190: 6e67 1b3d 30f1 14be 847d 2dbe 680e 0abc
000001a0: bca3 3ebd 6b7b fa3d 6b7f 603a 86a3 36be
000001b0: b133 5b3e 9eb3 8b3d d6e0 2b3d 3752 16be
000001c0: bca2 273e 7860 253d 8f8f 4ebd eef7 68bd
000001d0: 1fe9 e73d a1da 26be c21c 39be 0257 f2bd
000001e0: 2fc6 cfbd 3562 95bd 7ddc ac3d 2b3b 5fbd
000001f0: 8c2e ff3d e074 8bbd a3a7 6e3e 87a0 b23d
00000200: 7d4e 34bc 14f5 89bd 885f ae3d cc22 03be
00000210: 8f43 e23d 7b5a d23d 7b8b 4e3e dec5 9e3d
00000220: cfc4 013d 4259 423e 38f8 16be 694a 06be
00000230: e5a9 4ebe e2c2 0a3e 92ba 523e 52f2 32bd
00000240: ba3f 29bd 2c8a 3cbd b4ae 513d 86cf 40be
00000250: 1c7e 2b3e c3bd 873c e571 b33d 4618 f43d
00000260: fb78 c83d 48aa 3f3d 3271 e8bd ecaf 243e
00000270: 8755 8a3d fe74 ae3d 9d0e 143e f677 20be
00000280: 6782 bdbd 1bbf 12be ce08 aebd c577 ee3b
00000290: 2838 3dbd a47c df3d 59b4 353a 1513 193e
000002a0: 11a3 aebb 2722 7c3d 6d2a c6bd 3f32 cabc
000002b0: e284 b13d 5d47 003e 4934 b43d 1cae eb3c
000002c0: 43f1 af3d 65b9 bd3d cb50 05bd 5f89 3abd
000002d0: 7894 e0bc 5a9c 473d 17e0 f13d 6649 f33d
000002e0: 52e6 073e 7aa3 a33d 06bd 203e 4250 cbbd
000002f0: 7125 813d 2a45 723d 7eb5 16bd db89 353e
00000300: 422a 0dbd 77d4 f33d 2da6 e2bd 92b1 87bd
00000310: 8399 1d3e 9d0d 01bd 560e 373a 08bc f23d
00000320: 286e 4dbd 6651 2abd cfae 6fbd 1299 c13d
00000330: 4e72 8dbd 2aa5 50bd 1d0f 27bd 6a08 683d
00000340: 3713 1ebd 6310 9e3c 0c3d a53d ca30 b5bc
00000350: 6d18 d0bd 2f1e c93d a2c5 823c 9bd4 fa3d
00000360: 4422 05be 9845 373e 6d2c 36be 5e22 f53d
00000370: d768 e53c 8546 8d3c 4641 5c3d 0c3d b03d
00000380: ff88 2cbe d93b c0bd d9bb d6bc 6917 9a3d
00000390: ee78 fbbc d331 c53d 5688 bebd 72e1 5fbe
000003a0: c01e cdbd 3ca5 053e 07ff 4abe 2a9c 0d3c
000003b0: 783e 0d3e 3894 d33d 6980 46be 87ce 5abe
000003c0: d013 f23d 24a6 e5bd f6c6 cfbd 436a cdbc
000003d0: 06c9 29bd aa23 903d adcd cebc d9a8 64bd
000003e0: 7a4e 8abd 81e8 ee3d 07bc 85bd 66ae 8b3e
000003f0: b74c 4a3e 16bd 763d 44df 563e 43b6 82be
