lightning_logs/version_2/checkpoints/epoch=107-step=1296.ckpt (torch, 145296 bytes, 63 tensors)

rnn.weight_ih_l0 f4 [32, 11]
-0.14505452 0.029128494 -0.16036361 0.030151328 0.05385209 -0.009216577 0.17621359 -0.011233646
-0.16364549 -0.16637647 -0.13958651 -0.017157918 0.019702697 0.11259577 -0.10545965 -0.11929731
0.15080783 -0.13791338 -0.14076513 -0.037601545 0.033091053 -0.11970952 0.03901266 -0.10555457
0.005055508 0.058720138 -0.061920773 0.055887297 0.10932739 -0.051141687 0.13024502 0.1141499
-0.10366618 0.006150071 0.102288894 -0.0025531682 0.0820271 -0.14908381 0.16487439 0.017848592
-0.122544415 -0.16746055 -0.15987705 -0.20466799 0.094826974 0.12074455 0.14854111 -0.051776953
-0.066255264 -0.06899634 0.10074431 -0.04006202 -0.12523162 0.046618577 -0.0718688 -0.05437229
-0.14433432 -0.12735023 -0.068123944 -0.07458906 -0.006528584 -0.08002552 -0.09151837 0.11306415
0.0017126898 0.12336283 -0.01418246 0.05068146 0.1776797 0.12526537 -0.07796266 0.10572709
-0.15604034 -0.06154039 -0.09520681 0.011484238 -0.010627528 0.020120695 0.10036116 -0.120484956
0.11378312 0.10736671 -0.0349279 -0.10316862 0.1431674 -0.066812605 -0.07482324 0.05915297
-0.17107761 -0.15929735 0.13363393 -0.074747436 0.15937042 0.07990872 -0.00864558 -0.027333248
0.18730634 -0.008389828 -0.111927316 0.15774624 0.15990125 0.054293323 0.11967197 -0.019261282
-0.08656591 0.14473379 0.11244715 0.109332286 0.0042497655 0.045571726 -0.14664817 -0.01852067
-0.14478748 0.18033282 -0.1332995 0.16830598 0.026283626 -0.11984744 0.046719726 0.10341719
0.10006374 0.052535824 -0.06355271 -0.06780701 0.043044943 0.010573426 -0.09969099 0.004822023
0.014358789 -0.11404771 -0.027764075 0.2008575 0.04902249 0.083953604 -0.116217084 0.06574039
0.027031275 0.14355719 0.00766934 0.099352024 -0.14399488 -0.07042883 0.16770044 -0.05777444
0.1641555 -0.071068764 0.1245527 -0.05943716 -0.04308138 0.109762475 -0.1010577 -0.0014728053
-0.010221541 -0.023517106 0.026392756 -0.09672962 0.032357864 0.11898252 -0.12591815 -0.10507727
0.07112323 0.105166 0.050518285 -0.08297049 -0.19041298 0.055441834 -0.13482141 -0.16411869
-0.04356881 -0.13801667 0.08677193 0.1667579 -0.16155936 -0.007601494 0.050465934 -0.10045406
-0.13253342 -0.18579856 0.06757351 0.08455643 -0.09155249 -0.030305862 -0.085824095 0.07390194
0.085246205 0.1114749 -0.15930928 0.13455051 0.13827902 0.101511195 -0.063727014 -0.12350288
0.08944279 0.0046795066 -0.111643575 0.001355461 -0.1671023 0.0328687 0.14460038 0.0926844
0.022973396 0.074641414 -0.1255554 -0.029309021 -0.0058969446 0.13880795 0.07006662 -0.0065509835
0.10533419 0.15929404 0.1435894 -0.16722064 0.096320026 -0.0014118248 0.0064265765 -0.07646542
0.10976878 0.008930701 -0.1341551 0.15364587 0.072312586 0.16537517 0.14207503 0.056308407
0.027716704 -0.12983076 -0.12375197 -0.005205404 -0.13545509 -0.026610482 -0.09861244 0.02717014
-0.035949733 0.120903224 -0.09433266 0.12513123 -0.12772691 -0.043410838 0.03440829 0.0039232415
-0.15466732 0.112985246 -0.028125461 0.012677658 -0.021314638 -0.13664185 0.11851553 -0.11811376
-0.076030165 -0.019437885 0.04569164 0.038395505 -0.10042685 -0.00051168376 0.16091481 -0.033806298
00000000: 2c89 14be e19e ee3c 5c36 24be ebff f63c
00000010: 0294 5c3d 2001 17bc 5671 343e 540d 38bc
00000020: af92 27be 985e 2abe c4ef 0ebe c38e 8cbc
00000030: 8d67 a13c 9c98 e63d 3bfb d7bd 2652 f4bd
00000040: 5e6d 1a3e 2a39 0dbe bc24 10be 1404 1abd
00000050: 7c8a 073d 442a f5bd bdcb 1f3d ff2c d8bd
00000060: ada8 a53b 8784 703d a3a0 7dbd 14ea 643d
00000070: 0ae7 df3d f279 51bd f35e 053e 6cc7 e93d
00000080: ef4e d4bd 8986 c93b d77c d13d 0e53 27bb
00000090: d3fd a73d 6da9 18be d5d4 283e 3637 923c
000000a0: 91f8 fabd c77a 2bbe cfb6 23be 7c94 51be
000000b0: a534 c23d eb48 f73d 291b 183e 1214 54bd
000000c0: d7b0 87bd f44d 8dbd 0853 ce3d 1318 24bd
000000d0: b83c 00be 1ff3 3e3d f32f 93bd 7ab5 5ebd
000000e0: 60cc 13be 1968 02be 9184 8bbd 26c2 98bd
000000f0: bbed d5bb 6be4 a3bd fc6d bbbd 2d8e e73d
00000100: 557c e03a a7a5 fc3d 8c5d 68bc 5d97 4f3d
00000110: abf1 353e 9145 003e e3aa 9fbd 7287 d83d
00000120: 0ac9 1fbe c711 7cbd cafb c2bd 6328 3c3c
00000130: 151f 2ebc 28d4 a43c 278a cd3d d1c0 f6bd
00000140: 2007 e93d 14e3 db3d 8f10 0fbd 124a d3bd
00000150: 7a9a 123e 0cd5 88bd ed3c 99bd 624a 723d
00000160: f82e 2fbe d81e 23be 55d7 083e 2f15 99bd
00000170: 0032 233e 2fa7 a33d 31a6 0dbc fae9 dfbc
00000180: 3ccd 3f3e 7d75 09bc 263a e5bd 3b88 213e
00000190: 27bd 233e ad62 5e3d 9416 f53d d6c9 9dbc
000001a0: 7849 b1bd 1835 143e b14a e63d 9be9 df3d
000001b0: 9e41 8b3b 6ba9 3a3d f02a 16be a9b8 97bc
000001c0: 2b43 14be 2ba9 383e aa7f 08be 6758 2c3e
000001d0: c250 d73c 9372 f5bd 2f5d 3f3d 64cc d33d
000001e0: 38ee cc3d ce2f 573d ec27 82bd 67de 8abd
000001f0: e54f 303d 2a3c 2d3c ca2a ccbd 1002 9e3b
00000200: 2041 6b3c d991 e9bd 7c71 e3bc 97ad 4d3e
00000210: cecb 483d deef ab3d 3903 eebd e6a2 863d
00000220: b170 dd3c a800 133e 164f fb3b 1379 cb3d
00000230: 6573 13be fe3c 90bd aab9 2b3e e4a4 6cbd
00000240: 6118 283e 808c 91bd 7c15 ff3d 6174 73bd
00000250: 1a76 30bd 26cb e03d 57f7 cebd 250b c1ba
00000260: 4078 27bc f2a6 c0bc 9f35 d83c 2e1a c6bd
00000270: ae89 043d 1cad f33d b0f0 00be c032 d7bd
00000280: 0ea9 913d 4661 d73d 43ec 4e3d 6fec a9bd
00000290: 9ffb 42be fa16 633d a00e 0abe bb0e 28be
000002a0: 3575 32bd 3e54 0dbe 7bb5 b13d 95c2 2a3e
000002b0: d16f 25be f415 f9bb 5eb5 4e3d dcba cdbd
000002c0: d7b6 07be fa41 3ebe fb63 8a3d ec2b ad3d
000002d0: df7f bbbd 0044 f8bc 8bc4 afbd e659 973d
000002e0: 9095 ae3d f44c e43d f921 23be 9cc7 093e
000002f0: 0499 0d3e 1ae5 cf3d 4f83 82bd 14ef fcbd
00000300: c82d b73d 8c56 993b 63a5 e4bd b9a9 b13a
00000310: de1c 2bbe 54a1 063d 1f12 143e 52d1 bd3d
00000320: b432 bc3c 99dd 983d 9891 00be 7919 f0bc
00000330: 283b c1bb ac23 0e3e 177f 8f3d a2a9 d6bb
00000340: 74b9 d73d fa1d 233e 1a09 133e e33b 2bbe
00000350: 6f43 c53d fb0c b9ba 0896 d23b e799 9cbd
00000360: 74ce e03d 1352 123c f45f 09be 5855 1d3e
00000370: 9f18 943d 1c58 293e 1e7c 113e a5a3 663d
00000380: 240e e33c 5bf2 04be ac71 fdbd 1892 aabb
00000390: bdb4 0abe 3afe d9bc 52f5 c9bd ea93 de3c
000003a0: 0740 13bd 1c9c f73d 7b31 c1bd 6722 003e
000003b0: d8ca 02be 90cf 31bd b5ef 0c3d 898e 803b
000003c0: 1c61 1ebe cf64 e73d 5e67 e6bc f4b5 4f3c
000003d0: 099c aebc d7eb 0bbe 45b8 f23d a1e5 f1bd
000003e0: b4b5 9bbd 333c 9fbc 2827 3b3d 9b44 1d3d
000003f0: 98ac cdbd 8422 06ba dac6 243e 7978 0abd

rnn.weight_hh_l0 f4 [32, 32]
0.12181342 -0.1420459 -0.057925344 0.15389313 0.08965518 -0.011726312 0.16885224 -0.06256482
-0.010715342 -0.022771554 0.16876918 -0.19657344 0.028328728 0.12020352 0.081251 0.04863183
0.10714439 0.16809215 -0.14919877 -0.07110191 0.042140707 0.02104605 0.14219826 0.0523971
-0.11401919 0.100790165 -0.16550578 0.066467434 -0.102544636 -0.029057445 -0.02087174 -0.14893243
-0.1827984 -0.023517186 0.1629464 0.16573375 0.025015734 -0.1340754 -0.12685664 0.16476378
0.20666216 -0.13164009 -0.0135870725 0.040102426 -0.023591902 0.013355768 -0.029879747 -0.1340902
0.075128175 0.09366621 0.14118107 -0.08868635 -0.12856747 -0.15698542 0.12515357 0.12294451
0.017289957 -0.12516741 -0.16044842 -0.020777902 -0.16083063 -0.12984563 -0.0026548246 -0.08282402
0.055855665 0.009453116 -0.08076301 0.04681498 0.015383733 -0.020878084 0.07151361 0.10376627
-0.17495926 -0.1379184 0.018070562 0.018434083 -0.17179097 -0.15734938 -0.14538993 0.09079122
0.087930776 0.059948493 0.13028795 -0.15290846 0.017523928 0.09850938 0.06613737 0.07066112
0.11256313 0.0076904623 -0.049371082 -0.13352741 -0.07603481 -0.18909144 -0.08955163 0.104747355
-0.11453051 0.12083773 0.12344918 -0.08346005 0.092527635 0.15553576 -0.06169695 0.14023797
-0.091648355 0.14527415 0.17683357 -0.01737103 0.13679804 0.10457253 0.0019745387 0.051201895
-0.0021748422 -0.03803808 -0.039769605 -0.16430943 -0.07155641 -0.0106909955 -0.13572343 0.13785426
-0.13486116 -0.04025663 -0.019237792 0.106881596 0.12755772 -0.030134642 0.056732386 0.16401604
0.0428225 0.05638195 0.102315016 0.052909676 -0.035096243 0.047311705 -0.04164751 0.039533727
0.059597515 0.024914997 0.047128975 0.028101446 0.07510724 0.087506354 0.14020939 0.06812421
0.055658404 -0.120410375 0.0076632053 0.10094052 0.08662302 0.0027562 0.06767053 -0.11512165
0.12412544 0.16269973 -0.1462764 0.15915899 -0.068730384 -0.11605739 -0.16143368 -0.112180054
-0.054050732 0.075303346 0.07065063 0.13325603 -0.13059236 0.09944938 -0.0351443 -0.0002058355
0.08342899 0.1134381 0.041235436 0.12160725 0.05948759 -0.17346536 -0.036165323 -0.17193648
-0.05606889 0.12444273 -0.1115926 0.03470689 -0.055402994 0.16377805 -0.1451077 0.16402705
-0.022019867 0.09792771 0.014559838 -0.14407311 -0.16633625 0.11088253 0.16526695 -0.07462862
0.08636848 0.15302435 0.159038 0.01376904 0.04750264 -0.025837373 -0.123399474 0.15561374
0.0062269582 0.10908176 -0.023069853 0.03373883 0.09277749 0.038734976 0.077808 -0.21023834
0.023420047 0.036567245 -0.13593714 0.19935575 -0.039704703 -0.051251862 -0.017933281 -0.011384979
0.003822479 0.076991566 -0.22422032 -0.053721856 0.1394132 0.013475641 0.044886403 -0.046281077
-0.12533186 0.17179687 -0.10622292 0.15560853 0.13597901 -0.015269089 -0.14932355 -0.03440447
0.11102889 -0.030820712 0.1516319 -0.11198981 -0.13094872 -0.14863732 0.12291603 0.051370673
0.16595812 -0.037835557 -0.18559477 -0.15855588 -0.13633555 -0.044885725 0.17348039 0.12291836
-0.17767821 -0.03362014 0.06916461 -0.07475459 0.066297896 0.025045251 0.10324549 0.09670623
00000000: 5079 f93d 7b74 11be 2043 6dbd 2996 1d3e
00000010: 239d b73d b81f 40bc 9ae7 2c3e fc21 80bd
00000020: 678f 2fbc 698b babc d4d1 2c3e 8c4a 49be
00000030: a611 e83c 432d f63d ed66 a63d 2b32 473d
00000040: 856e db3d 5920 2c3e 90c7 18be e19d 91bd
00000050: bc9b 2c3d c468 ac3c 6c9c 113e 579e 563d
00000060: e582 e9bd 136b ce3d 597a 29be 1420 883d
00000070: ec02 d2bd e109 eebc 36fb aabc be81 18be
00000080: 812f 3bbe 1da7 c0bc 6cdb 263e 1cb6 293e
00000090: cced cc3c 104b 09be b5e6 01be d6b7 283e
000000a0: 3f9f 533e a9cc 06be 509c 5ebc 7142 243d
000000b0: ce43 c1bc 27d2 5a3c 5fc6 f4bc f14e 09be
000000c0: cddc 993d 12d4 bf3d c591 103e 30a1 b5bd
000000d0: 31a7 03be c9c0 20be 4228 003e 55ca fb3d
000000e0: aba3 8d3c e32b 00be 974c 24be 6b36 aabc
000000f0: c9b0 24be 41f6 04be 91fc 2dbb a49f a9bd
00000100: e9c8 643d 3ee1 1a3c 1467 a5bd 11c1 3f3d
00000110: 0e0c 7c3c 8408 abbc ba75 923d 6983 d43d
00000120: 8528 33be 7b3a 0dbe b708 943c 1303 973c
00000130: f9e9 2fbe 3220 21be 19e1 14be bff0 b93d
00000140: 0d15 b43d 8d8c 753d 346a 053e 0994 1cbe
00000150: 578e 8f3c 49bf c93d 0873 873d c7b6 903d
00000160: 8087 e63d 4600 fc3b 5539 4abd 69bb 08be
00000170: 23b8 9bbd 30a1 41be d866 b7bd c885 d63d
00000180: f98e eabd c679 f73d ecd2 fc3d 1aed aabd
00000190: 217f bd3d c444 1f3e f1b5 7cbd 8b9a 0f3e
000001a0: 22b2 bbbd bfc2 143e dc13 353e b14d 8ebc
000001b0: c914 0c3e 1f2a d63d 4367 013b 14b9 513d
000001c0: cc87 0ebb d1cd 1bbd 74e5 22bd bb40 28be
000001d0: 2b8c 92bd 4929 2fbc 15fb 0abe ab29 0d3e
000001e0: 0b19 0abe 23e4 24bd 9398 9dbc bde4 da3d
000001f0: 7e9e 023e eddc f6bc 3860 683d d2f3 273e
00000200: a566 2f3d c2f0 663d 898a d13d d1b7 583d
00000210: 14c1 0fbd ebc9 413d 9496 2abd 1eee 213d
00000220: 861c 743d 891a cc3c 500a 413d 0135 e63c
00000230: d3d1 993d 8836 b33d 0d93 0f3e b584 8b3d
00000240: 11fa 633d b799 f6bd a01b fb3b e7b9 ce3d
00000250: 6967 b13d 5da1 343b d996 8a3d e6c4 ebbd
00000260: 7b35 fe3d c29a 263e 7bc9 15be 93fa 223e
00000270: 84c2 8cbd 7faf edbd df4e 25be a8be e5bd
00000280: 4d64 5dbd a438 9a3d 47b1 903d 4574 083e
00000290: 01ba 05be 1eac cb3d 78f3 0fbd 8cd5 57b9
000002a0: d1dc aa3d 3c52 e83d 7de6 283d 390d f93d
000002b0: 42a9 733d e7a0 31be 1722 14bd 1e10 30be
000002c0: 7ea8 65bd d4db fe3d a98a e4bd d028 0e3d
000002d0: 40ee 62bd 6fb5 273e 1d97 14be b5f6 273e
000002e0: 0263 b4bc 538e c83d 638c 6e3c e787 13be
000002f0: 0d54 2abe 6116 e33d bd3b 293e e4d6 98bd
00000300: f5e1 b03d 6ab2 1c3e dcda 223e 8a97 613c
00000310: 2192 423d e6a8 d3bc ddb8 fcbd 3559 1f3e
00000320: 830b cc3b 4266 df3d fdfc bcbc ba31 0a3d
00000330: 2002 be3d 91a8 1e3d cd59 9f3d b848 57be
00000340: 66db bf3c 89c7 153d 1b33 0bbe ea23 4c3e
00000350: 66a1 22bd 79ed 51bd d1e8 92bc 1088 3abc
00000360: 8e82 7a3b c1ad 9d3d 039a 65be 730b 5cbd
00000370: 55c2 0e3e efc8 5c3c ceda 373d 3a91 3dbd
00000380: ff56 00be 85eb 2f3e 678b d9bd d857 1f3e
00000390: 153e 0b3e 332b 7abc 46e8 18be b4eb 0cbd
000003a0: 1d63 e33d b87b fcbc 6545 1b3e ea5a e5bd
000003b0: 6c17 06be 6234 18be 66bb fb3d 0e6a 523d
000003c0: edf0 293e 75f9 1abd 8e0c 3ebe 795c 22be
000003d0: 8c9b 0bbe 18da 37bd d8a4 313e 9fbc fb3d
000003e0: 47f1 35be 46b5 09bd 2da6 8d3d ef18 99bd
000003f0: 31c7 873d b32b cd3c 5f72 d33d ea0d c63d

rnn.bias_ih_l0 f4 [32]
0.103906296 0.13960446 -0.15182999 -0.13937895 0.0038735229 -0.08004886 -0.13458683 -0.006082513
0.06160186 -0.045837853 0.019308945 -0.17543945 0.050183356 -0.10410172 0.109688774 0.07005397
0.027905786 0.16961922 -0.015771506 -0.1486802 -0.05849539 -0.06843103 0.05981602 0.15805474
-0.0496692 -0.038470864 0.07071949 -0.06193586 -0.13661095 0.16967733 0.025693256 0.11241347
00000000: d3cc d43d 79f4 0e3e 5279 1bbe 5bb9 0ebe
00000010: eeda 7d3b a8f0 a3bd 21d1 09be d14f c7bb
00000020: 3b52 7c3d 79c0 3bbd cb2d 9e3c 66a6 33be
00000030: 108d 4d3d 4833 d5bd 82a4 e03d 7578 8f3d
00000040: ad9a e43c a9b0 2d3e 3f33 81bc 9f3f 18be
00000050: dd98 6fbd 9125 8cbd a501 753d 1ad9 213e
00000060: ee71 4bbd a093 1dbd 61d5 903d 75b0 7dbd
00000070: bee3 0bbe e5bf 2d3e aa7a d23c 0939 e63d

rnn.bias_hh_l0 f4 [32]
-0.118344314 -0.0029191806 0.12054765 -0.13064663 -0.069942445 0.138839 0.0026068864 -0.071106076
0.06990154 0.074802876 -0.113064244 0.07440236 0.16262944 0.047615428 0.100351155 -0.07773697
0.08001115 0.14332804 -0.111652814 0.13516334 -0.03163843 -0.057023205 -0.12272295 -0.10991336
0.012586687 -0.05101244 0.1306722 0.12213766 -0.08793838 0.07539192 -0.040738773 0.10549973
00000000: 815e f2bd b94f 3fbb b0e1 f63d 3bc8 05be
00000010: fc3d 8fbd d02b 0e3e 4cd8 2a3b 10a0 91bd
00000020: 8a28 8f3d 4032 993d 3a8e e7bd 4460 983d
00000030: 5588 263e 6508 433d e884 cd3d 8f34 9fbd
00000040: e3dc a33d 96c4 123e 3baa e4bd 4268 0a3e
00000050: 4c97 01bd 2a91 69bd 2c56 fbbd 411a e1bd
00000060: 6438 4e3c 6cf2 50bd efce 053e 4f23 fa3d
00000070: 0a19 b4bd 1467 9a3d b3dd 26bd 3e10 d83d

rnn.weight_ih_l1 f4 [32, 32]
-0.13377012 0.13587648 0.019121569 -0.1321564 -0.11758895 -0.09583627 0.034528624 0.15244038
-0.12484589 -0.084576525 0.0050817817 0.007834783 -0.095333524 0.077134795 0.10076919 0.06049856
0.07982563 0.023982907 0.039425842 0.10059027 0.07983692 0.10631174 -0.030327562 -0.06439366
-0.06736766 -0.06598856 0.10373485 -0.11480853 0.14928836 0.11432765 -0.13784084 -0.035544187
0.1216178 -0.034911357 -0.044815473 -0.043650467 -0.1698989 -0.060308516 -0.021249559 0.09926965
0.13269292 -0.050821103 -0.12329382 0.006507566 -0.12532806 -0.090409786 0.15239112 0.15331496
-0.117732 0.00071208697 -0.16303226 -0.14317457 0.15108576 0.10967806 -0.01630584 0.032849897
0.0933351 0.18122214 -0.058616452 0.11193743 0.09092836 -0.07568952 -0.08022126 0.17978245
-0.15698981 -0.028824348 -0.120953806 -0.020451216 0.13434847 0.03371812 -0.098923996 0.15911706
0.15277287 -0.15129212 -0.24670835 0.090309225 -0.15297194 -0.037850786 0.09097271 -0.23391742
-0.14366575 -0.00045523234 0.08239742 -0.18092436 0.046032816 0.2093107 -0.11522907 -0.12778363
0.15397894 -0.049032442 -0.033539683 -0.18878643 0.11389998 -0.18633497 0.16447905 -0.12526774
-0.029803254 0.11241159 0.1574166 -0.049723305 -0.05621076 0.024462601 -0.05027582 -0.021216568
-0.009004727 -0.08898897 -0.15682887 -0.12716807 0.20012389 0.096706174 -0.16084237 -0.09204102
-0.023106406 0.11864807 -0.12760934 -0.07343411 0.06287171 0.17061126 -0.1453995 0.10119454
-0.12390414 -0.10545675 0.11279807 -0.13519076 0.12266374 0.062293936 0.08482509 -0.07211657
-0.14855437 -0.14148062 -0.09995371 -0.19477648 -0.061980586 -0.07743708 0.0041614 0.19114017
0.09481014 0.108425476 0.036711454 0.13277137 0.06433709 0.042415533 -0.05889421 -0.18115361
0.15408267 0.048022382 0.11847491 0.17942235 -0.031517226 -0.033948205 0.05254383 0.12613522
-0.12482695 0.038722534 0.0730489 0.03644641 0.053752065 -0.110011525 -0.15676676 0.12076498
-0.13306592 0.022259563 -0.045977276 0.025371924 0.11703322 -0.012855587 -0.0383632 -0.16495273
-0.0053685354 0.078680135 -0.19799653 -0.10433335 0.15699391 -0.18218903 -0.13414861 -0.104028575
-0.11253936 -0.181151 -0.11472012 0.13678642 0.08480079 0.13254878 0.0096619055 -0.04046042
0.041355442 0.0036707928 -0.19688527 0.16542372 0.06899509 -0.0951815 -0.13657336 -0.12671745
0.052685823 -0.095153034 0.13278462 -0.12560391 -0.051640227 0.14764944 -0.008303522 0.05375201
-0.0074704792 -0.10745876 -0.14638226 -0.013135337 0.14576463 -0.18543442 0.18526216 0.16191435
0.19506651 -0.08981466 -0.09638642 0.061077446 0.13257287 0.10290382 -0.020155696 -0.14773162
-0.006213644 0.15754831 -0.11470264 0.0768368 -0.11908856 -0.1941316 0.009644056 -0.13132212
-0.072912015 0.042592317 0.09790378 0.07450701 0.0702637 0.00095151045 -0.15126157 0.09058979
0.16075216 -0.17330733 0.109107375 -0.107234456 -0.09629252 -0.16135816 0.1800353 0.13343681
-0.027290964 -0.011886718 0.11074603 -0.1216119 0.104521886 -0.19415858 0.12642483 -0.15673827
-0.19013548 0.007741344 0.20083937 0.117695466 0.08539692 -0.19918081 0.099380784 -0.10977073
00000000: 09fb 08be 3423 0b3e d6a4 9c3c 0254 07be
00000010: 7ad2 f0bd ce45 c4bd e36d 0d3d 5519 1c3e
00000020: 34af ffbd 7536 adbd 1385 a63b 765d 003c
00000030: 393e c3bd d9f8 9d3d 1460 ce3d 57cd 773d
00000040: 9f7b a33d cd77 c43c fe7c 213d 4502 ce3d
00000050: 8a81 a33d f8b9 d93d 8271 f8bc d3e0 83bd
00000060: 0ef8 89bd 0325 87bd f072 d43d bc20 ebbd
00000070: 0cdf 183e 9d24 ea3d 2626 0dbe c896 11bd
00000080: c112 f93d 36ff 0ebd 6e90 37bd d5ca 32bd
00000090: faf9 2dbe 1006 77bd 8e13 aebc e34d cb3d
000000a0: a7e0 073e ca29 50bd 7881 fcbd 6c3d d53b
000000b0: 0056 00be c428 b9bd 6b0c 1c3e 99fe 1c3e
000000c0: 7a1d f1bd 59ab 3a3a eef1 26be 5b9c 12be
000000d0: 3ab6 1a3e e49e e03d d393 85bc 9d8d 063d
000000e0: 7926 bf3d 4c92 393e ce17 70bd 743f e53d
000000f0: a638 ba3d 1b03 9bbd 0b4b a4bd e418 383e
00000100: f0c1 20be 0a21 ecbc a1b6 f7bd 4f89 a7bc
00000110: a592 093e 031c 0a3d aa98 cabd 95ef 223e
00000120: 7e70 1c3e 52ec 1abe 1da1 7cbe 0bf4 b83d
00000130: ada4 1cbe 6d09 1bbd e64f ba3d 0c88 6fbe
00000140: 1d1d 13be 40ac eeb9 fbbf a83d 3c44 39be
00000150: e88c 3c3d 8b55 563e 38fd ebbd b6d9 02be
00000160: a8ac 1d3e 3ed6 48bd e860 09bd 3b51 41be
00000170: 6544 e93d 98ce 3ebe 326d 283e 3046 00be
00000180: f425 f4bc 0c38 e63d d131 213e aaaa 4bbd
00000190: 413d 66bd cb65 c83c 05ee 4dbd 5ece adbc
000001a0: 9088 13bc d93f b6bd bf97 20be 5938 02be
000001b0: 47ed 4c3e e30d c63d ddb3 24be 0180 bcbd
000001c0: a549 bdbc c2fd f23d 06ac 02be 9f64 96bd
000001d0: e2c2 803d b8b4 2e3e 9be3 14be 153f cf3d
000001e0: 74c1 fdbd b5f9 d7bd ad02 e73d 726f 0abe
000001f0: 2037 fb3d ed27 7f3d c7b8 ad3d dab1 93bd
00000200: a31e 18be 4ce0 10be 88b4 ccbd 7c73 47be
00000210: 5bdf 7dbd 5597 9ebd 5a5c 883b 40ba 433e
00000220: d22b c23d 2d0e de3d c05e 163d 38f5 073e
00000230: 2ac3 833d e9bb 2d3d 0e3b 71bd 5580 39be
00000240: d9c7 1d3e 1eb3 443d f9a2 f23d 7eba 373e
00000250: 3518 01bd 460d 0bbd 3338 573d 9729 013e
00000260: 46a5 ffbd 859b 1e3d a99a 953d d548 153d
00000270: 202b 5c3d b94d e1bd 7787 20be a153 f73d
00000280: 6f42 08be b059 b63c ab52 3cbd c8d8 cf3c
00000290: 1daf ef3d 3da0 52bc bb22 1dbd 5ee9 28be
000002a0: 8aea afbb 0d23 a13d 9abf 4abe b9ac d5bd
000002b0: 03c3 203e c38f 3abe 415e 09be ef0c d5bd
000002c0: 097b e6bd a67f 39be 62f2 eabd bd11 0c3e
000002d0: 09ac ad3d deba 073e f84c 1e3c d3b9 25bd
000002e0: 5364 293d af91 703b 4b9c 49be d664 293e
000002f0: 4c4d 8d3d 85ee c2bd e3d9 0bbe 38c2 01be
00000300: 17cd 573d 98df c2bd b1f8 073e 509e 00be
00000310: b484 53bd 6a31 173e 7f0b 08bc 112b 5c3d
00000320: ecca f4bb 5713 dcbd 3be5 15be 9935 57bc
00000330: 5343 153e 85e2 3dbe 5db5 3d3e e0cc 253e
00000340: 84bf 473e c0f0 b7bd 3e66 c5bd 582c 7a3d
00000350: 2fc1 073e 3dbf d23d 8f1d a5bc f546 17be
00000360: d39b cbbb 5854 213e 38e9 eabd 9d5c 9d3d
00000370: b4e4 f3bd 6fca 46be 1a02 1e3c 4e79 06be
00000380: e552 95bd 4875 2e3d c781 c83d 2297 983d
00000390: 6ae6 8f3d c96e 793a 50e4 1abe 2487 b93d
000003a0: 379c 243e 7a77 31be b073 df3d bd9d dbbd
000003b0: 0335 c5bd 133b 25be 2c5b 383e a9a3 083e
000003c0: 4d91 dfbc 82c0 42bc d1ce e23d a90f f9bd
000003d0: 920f d63d 82d1 46be 8375 013e ff7f 20be
000003e0: e0b2 42be 1aab fd3b d6a8 4d3e 520a f13d
000003f0: 95e4 ae3d 0ef6 4bbe 2788 cb3d 7acf e0bd

rnn.weight_hh_l1 f4 [32, 32]
-0.16690701 0.17594169 0.025999513 0.13609304 -0.09890827 0.01090705 0.0008486154 -0.0028291142
0.1330875 0.12912302 0.17247935 -0.038383786 0.10357813 -0.10174784 -0.07715351 0.10783367
-0.07368712 0.14422967 0.09710122 0.017947707 0.010310617 -0.09529932 0.02320522 0.12219406
-0.027666079 -0.040567238 0.07786693 -0.060413502 -0.11652576 0.107431665 -0.072965875 -0.16888067
-0.04809068 0.050934047 -0.117468074 -0.036270086 0.1160888 -0.0025240746 -0.0054320334 0.14072183
-0.07298884 -0.10498889 -0.053290345 0.15062705 -0.13196379 -0.091140226 0.09842771 -0.13866453
-0.09669097 -0.022304084 -0.11822339 0.068059765 -0.032288797 0.073510535 -0.14595386 0.056297105
0.071351625 0.031767435 0.0729897 0.11507358 -0.08981077 0.14282583 -0.1331551 -0.028089788
-0.07363475 0.041646015 0.044448446 0.094527975 0.1433472 0.012212985 -0.07145975 -0.0673259
0.17299308 0.017313018 -0.2023908 0.025857491 0.076504275 -0.10790946 -0.1730542 0.025014644
-0.09454408 -0.20954661 0.04996009 -0.21912876 -0.022298485 -0.0823272 -0.03453669 0.11032967
-0.029217623 -0.13640028 0.17399427 0.086069755 -0.008949225 0.16719812 0.06726543 0.18236461
-0.11931642 0.06000131 0.013266347 -0.1637403 -0.05742936 -0.08372518 -0.055703387 -0.15496819
0.06736745 0.06534178 -0.0021727323 -0.14537239 0.08028395 0.14300686 -0.015089067 -0.06394772
-0.0448158 0.1358977 -0.16425207 0.17565086 0.11183196 -0.17920879 0.15369557 0.09566839
-0.1014216 -0.109376706 -0.17330758 0.08563704 -0.10491045 -0.11538831 0.14471047 0.013748783
0.06496038 -0.028712569 0.12691113 0.026069207 -0.023922527 0.017981786 -0.03817982 0.11127642
0.0016429618 -0.073195055 -0.029560218 -0.18045829 -0.12296395 0.07380365 0.17181778 0.15911789
-0.04256102 -0.038546417 0.052564744 -0.00620683 0.06831656 -0.04728612 0.14526965 -0.045614857
0.13777362 -0.099413656 0.0027817194 0.15483987 0.09608885 0.18545868 0.1398449 -0.03281295
0.042815987 0.019548643 0.05291487 -0.059470147 0.10834748 0.05090882 -0.07922382 -0.025204472
-0.17684458 -0.09487796 -0.036247384 0.17570318 0.06762036 -0.08897981 0.0122435745 0.10049845
-0.15277766 -0.14885199 -0.11259333 0.06829578 0.09580799 0.15103869 0.06722905 0.042543598
-0.19095391 -0.04457543 -0.11792073 -0.057317752 -0.15367296 0.06261031 -0.037139043 0.056016993
-0.035742853 -0.10256905 0.102849156 0.1402248 0.15838258 -0.045409963 0.012252466 -0.17265403
-0.029962707 -0.0053036143 -0.10834985 0.027299583 0.17004801 0.06788318 -0.020997213 -0.009535803
0.021159448 0.15262775 -0.09943723 -0.07943097 -0.056796603 0.13355474 0.024916364 -0.09267629
0.049473476 -0.08701472 -0.06260464 -0.04642256 0.047243167 -0.07439699 0.043241266 0.00016878059
-0.028280215 -0.058893953 0.087742746 0.118070446 0.13730967 0.02110921 0.11790054 -0.17071624
-0.18253444 -0.03155256 -0.031052435 -0.019023478 0.09025562 0.14570177 -0.016930038 0.094115816
-5.1606152e-05 0.025837379 -0.086930044 -0.013277102 0.11743414 0.07367737 0.028328156 0.12959227
-0.11136373 0.01723097 -0.07489503 -0.07753919 -0.16491216 -0.1285351 -0.18505943 -0.021836542
00000000: ace9 2abe 0f2a 343e eefc d43c f95b 0b3e
00000010: 6b90 cabd 7cb3 323c 9e75 5e3a a968 39bb
00000020: 1748 083e d338 043e 6d9e 303e 5138 1dbd
00000030: c520 d43d 2c61 d0bd a902 9ebd e6d7 dc3d
00000040: 46e9 96bd f1b0 133e 01dd c63d 1207 933c
00000050: dded 283c 4a2c c3bd e018 be3c e140 fa3d
00000060: f9a3 e2bc d529 26bd b278 9f3d 2674 77bd
00000070: 0fa5 eebd 2205 dc3d 226f 95bd 0eef 2cbe
00000080: bcfa 44bd 38a0 503d 1a93 f0bd f18f 14bd
00000090: f7bf ed3d f26a 25bb 33ff b1bb 6219 103e
000000a0: 2c7b 95bd 6a04 d7bd fa46 5abd fa3d 1a3e
000000b0: 8421 07be baa7 babd 7894 c93d 13fe 0dbe
000000c0: ea05 c6bd 0eb7 b6bc 1b1f f2bd eb62 8b3d
000000d0: 4241 04bd b18c 963d ee74 15be cb97 663d
000000e0: cd20 923d 921e 023d a07b 953d b2ab eb3d
000000f0: b5ee b7bd ef40 123e cf59 08be 8e1c e6bc
00000100: d1cd 96bd 0395 2a3d 930f 363d e297 c13d
00000110: 9cc9 123e f918 483c 7d59 92bd 29e2 89bd
00000120: 1925 313e 08d4 8d3c 893f 4fbe 17d3 d33c
00000130: 46ae 9c3d a3ff dcbd 1f35 31be 83eb cc3c
00000140: 54a0 c1bd 6393 56be f4a2 4c3d 4a63 60be
00000150: 50ab b6bc 2a9b a8bd 5876 0dbd 86f4 e13d
00000160: cc59 efbc 84ac 0bbe 8e2b 323e 5745 b03d
00000170: c59f 12bc fc35 2b3e 75c2 893d cabd 3a3e
00000180: 2b5c f4bd efc3 753d 185b 593c 8aab 27be
00000190: 0c3b 6bbd 1b78 abbd 3c29 64bd fbaf 1ebe
000001a0: f2f7 893d e9d1 853d 6664 0ebb 80dc 14be
000001b0: e96b a43d 6470 123e 2238 77bc 06f7 82bd
000001c0: c690 37bd c428 0b3e b231 28be d2dd 333e
000001d0: 2808 e53d 8282 37be 5f62 1d3e caed c33d
000001e0: 21b6 cfbd e500 e0bd 8b77 31be 7962 af3d
000001f0: 4adb d6bd b550 ecbd fb2e 143e 9342 613c
00000200: f309 853d 9f36 ebbc fef4 013e 178f d53c
00000210: 2df9 c3bc 8a4e 933c 7162 1cbd e4e4 e33d
00000220: a658 d73a 4ae7 95bd 4528 f2bc 0fca 38be
00000230: 86d4 fbbd 5e26 973d 00f1 2f3e cdef 223e
00000240: 7754 2ebd d9e2 1dbd 214e 573d aa62 cbbb
00000250: 8de9 8b3d 17af 41bd 91c1 143e a5d6 3abd
00000260: 8714 0d3e 6399 cbbd 824d 363b 588e 1e3e
00000270: 3bca c43d e1e8 3d3e 8033 0f3e df66 06bd
00000280: d15f 2f3d 7a24 a03c 43bd 583d f896 73bd
00000290: 49e5 dd3d c485 503d 1940 a2bd 9c79 cebc
000002a0: bf16 35be 604f c2bd 2378 14bd 89eb 333e
000002b0: 8b7c 8a3d 0c3b b6bd 4699 483c 22d2 cd3d
000002c0: bf71 1cbe a86c 18be 5597 e6bd a8de 8b3d
000002d0: fb36 c43d e3a9 1a3e 62af 893d 3242 2e3d
000002e0: 6c89 43be ba94 36bd 6c80 f1bd 05c6 6abd
000002f0: 725c 1dbe d639 803d 1c1f 18bd 1372 653d
00000300: 1967 12bd b90f d2bd 94a2 d23d 1797 0f3e
00000310: 0b2f 223e ccff 39bd 91be 483c 38cc 30be
00000320: 5a74 f5bc f1c9 adbb 87e6 ddbd 60a3 df3c
00000330: 1121 2e3e 5606 8b3d 5902 acbc 0f3c 1cbc
00000340: 9456 ad3c 734a 1c3e bfa5 cbbd b4ac a2bd
00000350: 8ea3 68bd 93c2 083e 671d cc3c 11cd bdbd
00000360: b3a4 4a3d c634 b2bd dd36 80bd 9525 3ebd
00000370: 0d82 413d 735d 98bd c11d 313d b2fa 3039
00000380: e9ab e7bc c93a 71bd 78b2 b33d ebce f13d
00000390: e89a 0c3e 39ed ac3c d775 f13d 3dd0 2ebe
000003a0: 4fea 3abe 423d 01bd ad61 febc 20d7 9bbc
000003b0: f0d7 b83d d832 153e ddb0 8abc cbbf c03d
000003c0: af73 58b8 e9a8 d33c 6108 b2bd 3488 59bc
000003d0: 4f81 f03d 29e4 963d 7310 e83c d6b3 043e
000003e0: ab12 e4bd f727 8d3c 9162 99bd decc 9ebd
000003f0: bcde 28be b59e 03be 3880 3dbe 8ce2 b2bc

rnn.bias_ih_l1 f4 [32]
-0.11399696 0.109756604 -0.11141522 0.12275791 -0.049021833 0.15747964 -0.1569536 -0.09677219
-0.011123645 0.10718986 -0.10342573 0.11727066 0.026068417 -0.07465841 -0.16454825 -0.037752148
0.0102880495 0.056911066 0.008186327 0.017663075 -0.02551307 -0.032950975 -0.0046387655 -0.07687453
0.08571382 -0.0071974006 0.12443143 -0.116897866 -0.055965204 0.03130079 0.009821435 -0.03335793
00000000: 3d77 e9bd 12c8 e03d aa2d e4bd 8068 fb3d
00000010: 1ecb 48bd 5842 213e 72b8 20be 7f30 c6bd
00000020: f33f 36bc 5b86 db3d ded0 d3bd 9a2b f03d
00000030: 6f8d d53c 82e6 98bd 567f 28be ffa1 1abd
00000040: 358f 283c 941b 693d f21f 063c 27b2 903c
00000050: c900 d1bc 9af7 06bd c900 98bb 6570 9dbd
00000060: ba8a af3d 2cd8 ebbb e8d5 fe3d 2668 efbd
00000070: c53b 65bd 4235 003d 16ea 203c 53a2 08bd

rnn.bias_hh_l1 f4 [32]
-0.12783386 -0.109693415 0.11303411 -0.032973558 -0.03764952 -0.067979075 -0.111518994 0.09214425
-0.034675095 -0.16096689 0.100927874 0.0057241973 0.14114496 0.10929296 -0.050748304 0.028117212
0.057034828 -0.12333791 0.13730685 0.0357785 -0.01893599 -0.10626063 -0.0017232599 -0.14502802
0.025182914 0.10041417 -0.1274154 0.06405213 0.11306092 0.032231808 -0.18361276 0.15437014
00000000: e1e6 02be f1a6 e0bd 6d7e e73d 480f 07bd
00000010: 6236 1abd 9d38 8bbd 1264 e4bd 20b6 bc3d
00000020: 7907 0ebd 81d4 24be 46b3 ce3d 0c92 bb3b
00000030: 4e88 103e fdd4 df3d 74dd 4fbd 1156 e63c
00000040: 5a9d 693d 9698 fcbd 2b9a 0c3e 7a8c 123d
00000050: a61f 9bbc 2c9f d9bd 02df e1ba 3a82 14be
00000060: 664c ce3c f2a5 cd3d 2f79 02be c32d 833d
00000070: 7c8c e73d 8005 043d fc04 3cbe 3513 1e3e

rnn.weight_ih_l2 f4 [32, 32]
0.15663914 0.11567478 -0.0872287 -0.09288286 0.07255334 0.06348382 0.039502777 0.124796696
-0.1439329 -0.15493225 -0.030687176 -0.15650779 -0.1119431 0.0035793567 -0.083657645 -0.073386855
-0.18445443 0.017140426 -0.17787023 -0.020805184 0.0032077045 -0.14169341 0.022957796 0.06337487
0.058543764 0.14393072 0.031533655 -0.09420135 0.00024763518 0.09050566 0.058571853 -0.04427468
0.1255596 0.07672056 -0.06883627 0.08115019 0.17598289 0.15151396 -0.09251058 -0.13693754
0.07254007 -0.031418458 -0.06651294 0.030545577 -0.07257138 -0.05160181 0.004941887 0.006826248
-0.13673027 -0.041037276 -0.007551961 -0.084348656 0.1829505 -0.030134458 -0.14018108 0.063414134
0.055386454 0.14000344 -0.046395134 -0.13140151 -0.066199586 0.12182004 0.05117725 -0.069434576
-0.076633416 0.16950886 -0.025142314 -0.12672265 -0.1590287 0.025506 -0.087608255 0.081107534
0.1342055 -0.044342507 0.031103384 -0.06844802 -0.10038394 -0.10844289 0.011686421 0.105682336
0.047299773 0.15680215 -0.11009109 -0.12688233 0.09366563 0.093160205 -0.013448406 -0.06376355
-0.14686477 0.13088776 0.0789376 0.09925477 -0.09398622 -0.030545712 0.101625 0.084895775
0.14279793 0.095915504 0.11376794 -0.1882763 -0.07553268 0.09719926 -0.0479291 0.16959055
0.12801793 -0.06474079 -0.0056966078 0.12484279 -0.060894977 0.14692314 0.10584774 -0.19593972
-0.011273609 -0.08901539 -0.105621845 0.014714449 -0.12353529 -0.038581684 -0.0041465987 -0.105872005
-0.0045937826 0.0036438364 -0.052487917 -0.14793189 0.0671911 -0.05081377 0.0565217 -0.031543203
0.12429997 0.088661425 -0.13154897 0.0066928165 -0.044254515 -0.07830336 0.07695549 -0.0041424534
-0.13384892 0.05133844 -0.116564445 -0.015247059 -0.06663955 0.13948062 -0.18418898 0.14384328
-0.08217801 0.17091325 -0.039916977 -0.14000909 0.042958107 0.07678284 -0.072586134 -0.09951279
-0.02248223 -0.13670318 0.17432961 -0.10999384 0.06633314 -0.051810145 -0.12581508 -0.103281006
-0.15135255 0.20728469 -0.08005175 -0.060702868 -0.18592206 -0.14840841 0.1421736 -0.018984511
-0.17644954 -0.019948801 0.0733856 0.012090421 -0.029851444 -0.09412617 -0.115223855 -0.11545628
-0.15234257 0.115848124 -0.10537151 0.095934816 -0.13584292 -0.09089093 -0.086976066 0.0022106962
-0.049667682 0.028551674 0.14489229 -0.01069181 -0.070434645 0.012600197 0.043736864 -0.068158776
-0.08581427 0.06212756 0.20075926 -0.12957604 0.011383241 -0.04384989 -0.06984233 0.031213788
0.071507506 -0.13258778 0.02240766 -0.18187979 0.022623204 0.110852756 0.08058818 0.15272477
0.0055610584 -0.0520711 -0.001320974 0.002680122 0.06106665 -0.15086754 -0.006715172 0.11694995
-0.15444048 0.16907774 -0.021882242 0.1380343 -0.013818236 0.119915225 0.0666649 0.039923377
-0.051423166 0.109918654 0.10944597 -0.16826351 0.08395335 -0.027134115 0.13396432 0.10272015
-0.014629161 0.065866694 0.11165393 -0.09233664 -0.07066418 -0.09351722 0.03932588 -0.15125035
-0.074878976 -0.023806538 0.17610429 -0.02442369 0.08507335 0.10115414 0.099353015 0.13141915
0.14114703 0.037965506 -0.044532355 -0.13297714 -0.09991988 0.027278591 -0.10507772 -0.18327998
00000000: 0366 203e e6e6 ec3d f6a4 b2bd 5e39 bebd
00000010: d896 943d ce03 823d aacd 213d 6995 ff3d
00000020: 2563 13be 8fa6 1ebe ac63 fbbc 9443 20be
00000030: 6d42 e5bd a493 6a3b b354 abbd d94b 96bd
00000040: 9fe1 3cbe 146a 8c3c 9d23 36be a26f aabc
00000050: 5a38 523b 1418 11be fd11 bc3c afca 813d
00000060: 96cb 6f3d 9362 133e 6f29 013d a3ec c0bd
00000070: 08d5 8139 085b b93d 0ae9 6f3d 5e59 35bd
00000080: b292 003e ab1f 9d3d 08fa 8cbd 1232 a63d
00000090: dc34 343e 7a26 1b3e 3076 bdbd 5b39 0cbe
000000a0: e38f 943d a4b0 00bd f037 88bd b83a fa3c
000000b0: 4ea0 94bd 6b5c 53bd 8eef a13b b8ae df3b
000000c0: 0503 0cbe b416 28bd 7176 f7bb fdbe acbd
000000d0: 6057 3b3e 8adc f6bc a18b 0fbe 45df 813d
000000e0: e8dc 623d 105d 0f3e d308 3ebd 1e8e 06be
000000f0: a693 87bd c97c f93d 3c9f 513d b733 8ebd
00000100: fbf1 9cbd bb93 2d3e 41f7 cdbc 95c3 01be
00000110: 6bd8 22be f5f1 d03c f56b b3bd b51b a63d
00000120: 2b6d 093e 7da0 35bd 86cc fe3c 7a2e 8cbd
00000130: 1896 cdbd 4e17 debd 6778 3f3c fb6f d83d
00000140: 68bd 413d be90 203e 7077 e1bd 71ed 01be
00000150: c4d3 bf3d c7ca be3d b456 5cbc 7796 82bd
00000160: b863 16be 7107 063e 09aa a13d 1646 cb3d
00000170: d97b c0bd 003b fabc c520 d03d d6dd ad3d
00000180: 9f39 123e 596f c43d 2aff e83d 81cb 40be
00000190: e1b0 9abd 6810 c73d 4e51 44bd 25a9 2d3e
000001a0: 2217 033e d296 84bd 9caa babb 94ad ff3d
000001b0: 036d 79bd 0573 163e b3c6 d83d 6ca4 48be
000001c0: f1b4 38bc b34d b6bd 4450 d8bd df14 713c
000001d0: 1200 fdbd d407 1ebd 31e0 87bb 6cd3 d8bd
000001e0: 7187 96bb 6ecd 6e3b 92fd 56bd 757b 17be
000001f0: 7d9b 893d 1a22 50bd 4c83 673d 7233 01bd
00000200: fc90 fe3d 1f94 b53d c6b4 06be 6a4f db3b
00000210: 3944 35bd 835d a0bd d79a 9d3d 6bbd 87bb
00000220: b10f 09be 4248 523d 57b9 eebd cdce 79bc
00000230: 517a 88bd 02d4 0e3e 099c 3cbe a74b 133e
00000240: f24c a8bd e203 2f3e fc7f 23bd 8b5e 0fbe
00000250: d7f4 2f3d 5240 9d3d 0aa8 94bd 5dcd cbbd
00000260: a72c b8bc ebfb 0bbe 7683 323e 7344 e1bd
00000270: abd9 873d e036 54bd abd5 00be fe84 d3bd
00000280: 2afc 1abe 7042 543e 2cf2 a3bd 92a3 78bd
00000290: 5a62 3ebe 60f8 17be f595 113e 6885 9bbc
000002a0: 30af 34be ab6b a3bc 304b 963d e716 463c
000002b0: 048b f4bc 39c5 c0bd 7cfa ebbd 5874 ecbd
000002c0: b1ff 1bbe c841 ed3d 05cd d7bd 7979 c43d
000002d0: 681a 0bbe 0625 babd 8220 b2bd 54e1 103b
000002e0: 5770 4bbd 33e5 e93c a55e 143e b42c 2fbc
000002f0: 0a40 90bd 0f71 4e3c 6d25 333d d496 8bbd
00000300: 64bf afbd 7879 7e3d d693 4d3e 95af 04be
00000310: c680 3a3c f19b 33bd 7f09 8fbd 0fb4 ff3c
00000320: 8772 923d 17c5 07be 4590 b73c b23e 3abe
00000330: 4c54 b93c c506 e33d 6a0b a53d e263 1c3e
00000340: 8a39 b63b 8148 55bd 8824 adba fca4 2f3b
00000350: 0621 7a3d 057d 1abe f20a dcbb 7583 ef3d
00000360: a525 1ebe b722 2d3e 6342 b3bc dd58 0d3e
00000370: e265 62bc 1d96 f53d 9b87 883d b286 233d
00000380: 19a1 52bd 081d e13d 3525 e03d 454d 2cbe
00000390: bcef ab3d 5d48 debc f12d 093e f15e d23d
000003a0: 26af 6fbc 1ee5 863d d1aa e43d fe1a bdbd
000003b0: 62b8 90bd f585 bfbd 2d14 213d 5fe1 1abe
000003c0: 265a 99bd ee05 c3bc af54 343e 3114 c8bc
000003d0: f03a ae3d e729 cf3d 9879 cb3d be92 063e
000003e0: d988 103e b881 1b3d 8f67 36bd 292b 08be
000003f0: cba2 ccbd 5a77 df3c fd32 d7bd bfad 3bbe

rnn.weight_hh_l2 f4 [32, 32]
0.0212225 0.14326844 0.08229646 0.045650203 -0.12565006 -0.007060888 0.17460188 -0.15310979
0.0058285506 -0.120111994 -0.1502793 -0.06475663 -0.050987978 -0.16509661 0.070303805 0.15619014
0.100902036 -0.06999749 0.13727926 0.024695009 0.14417125 -0.02156921 -0.047399733 -0.1916528
-0.12371097 0.13520832 0.15120308 0.025011014 -0.036234938 -0.1489418 -0.013682668 -0.047684666
-0.08581753 -0.1008717 -0.088048235 -0.03819525 0.14061357 0.11223301 0.055851944 0.024525145
-0.10252669 0.03225634 0.008780496 0.09272712 -0.028552294 -0.031678773 -0.16291672 -0.1665375
0.16200426 -0.16141309 -0.11121038 -0.06883395 -0.12873295 0.015018226 -0.15657954 -0.07669315
-0.1243901 0.04847889 -0.12780914 0.055210993 -0.12587002 0.140387 0.14377756 -0.09300494
-0.10918307 0.16375466 0.047334503 -0.088510305 0.1695062 -0.12346679 -0.0026648866 0.056302276
0.0020047396 0.15042995 -0.029759834 -0.02629265 0.042928886 -0.004999555 0.060420074 0.08416863
-0.014593556 -0.027105106 -0.08456272 -0.1496514 -0.080068424 0.014529979 0.12010824 0.024385924
0.10220568 -0.055401716 -0.021542482 0.021436412 0.09429765 0.106050536 0.13891606 -0.16359322
-0.054181084 -0.054888126 -0.1369072 -0.12779957 0.16599801 -0.08998499 -0.15101588 0.034176182
0.000991958 0.022962758 -0.08023196 0.001560559 -0.007861639 -0.069308676 0.15824255 -0.18283355
-0.12852448 0.042889163 -0.09069718 0.0054493686 -0.12484943 -0.013999578 -0.0120971035 -0.024950927
-0.18782274 0.12371257 0.023892114 0.09205016 -0.165878 0.17781651 0.053303428 0.14392018
0.061972924 -0.13487704 0.12935124 0.109675825 -0.16172107 0.13744117 0.09574106 0.033768397
-0.10883011 -0.12197057 0.09616165 -0.13191406 0.16739626 -0.010980029 0.119526446 0.008887737
-0.02817401 0.07983592 0.062071446 -0.099568166 0.036790583 -0.10547061 -0.09325432 -0.110134825
0.07269269 -0.15882671 0.01778167 -0.11748787 0.035124112 -0.019586932 -0.041039657 0.1788976
-0.010651847 0.084983006 -0.14849178 0.012852266 -0.10768785 0.048164826 -0.047233175 0.043423872
-0.19226551 -0.077752665 0.059010785 -0.042247508 0.03361426 0.046020024 -0.058036633 0.023582056
0.14791074 0.18563935 -0.1708154 -0.011755465 0.035982054 -0.12890127 0.13271098 -0.07432445
-0.010844129 -0.01847672 0.14672197 0.023160798 -0.06715443 0.05424093 0.09926745 0.07270606
0.040501747 0.122482024 -0.11163686 0.18528837 -0.16519459 -0.14356737 0.18573786 0.07701445
0.10598248 0.18205547 -0.109756306 0.19311053 0.08449025 -0.055606037 -0.123436876 -0.15964869
-0.04813 0.13347243 0.0093784835 -0.09964979 0.07886717 -0.042463653 -0.040294174 -0.16222183
-0.09462644 -0.08080649 -0.13537638 -0.0033964547 -0.18884258 -0.019414999 -0.115121886 0.11219721
-0.08412026 -0.12583633 0.08118627 0.10405644 -0.1412326 0.13280416 0.16104381 0.14359888
-0.087534785 0.052743424 0.073169276 -0.16902708 0.122961916 0.06068967 -0.1583513 0.08276827
-0.15688086 0.10380934 0.01269456 -0.1382133 0.12117171 -0.15792707 0.1675023 0.18971705
0.07045281 0.055104967 -0.03628291 -0.12849273 -0.17043248 -0.15929876 0.15866327 0.016794078
00000000: cfda ad3c f6b4 123e 0c8b a83d b5fb 3a3d
00000010: 69aa 00be 065f e7bb d6ca 323e d0c8 1cbe
00000020: 6dfd be3b 47fd f5bd d1e2 19be 209f 84bd
00000030: c5d8 50bd 160f 29be 71fb 8f3d 4ff0 1f3e
00000040: baa5 ce3d d85a 8fbd ef92 0c3e 304d ca3c
00000050: a1a1 133e e9b1 b0bc 3926 42bd a240 44be
00000060: 2d5c fdbd 0d74 0a3e fbd4 1a3e e6e3 cc3c
00000070: 166b 14bd 3384 18be 452d 60bc ff50 43bd
00000080: 1ac1 afbd d295 cebd a252 b4bd 9f72 1cbd
00000090: 01fd 0f3e 6cda e53d 02c5 643d f5e8 c83c
000000a0: 83f9 d1bd 391f 043d 12dc 0f3c b7e7 bd3d
000000b0: 80e6 e9bc 9ac1 01bd a4d3 26be ce88 2abe
000000c0: 72e4 253e 7949 25be 45c2 e3bd d0f8 8cbd
000000d0: 92d2 03be 010f 763c 6356 20be 4c11 9dbd
000000e0: 3dc0 febd cd91 463d 66e0 02be ec24 623d
000000f0: 12e4 00be 9cc1 0f3e 6d3a 133e 6079 bebd
00000100: 609b dfbd 4daf 273e d3e1 413d e444 b5bd
00000110: 0993 2d3e 28dc fcbd 61a5 2ebb 379d 663d
00000120: f361 033b 4f0a 1a3e e5ca f3bc af63 d7bc
00000130: 33d6 2f3d 4fd3 a3bb 0a7b 773d 9a60 ac3d
00000140: cf19 6fbc 870b debc 382f adbd 373e 19be
00000150: eafa a3bd 260f 6e3c 4ffb f53d fdc4 c73c
00000160: 3651 d13d e9ec 62bd dc79 b0bc 6a9b af3c
00000170: 201f c13d 0631 d93d 0340 0e3e fb84 27be
00000180: fcec 5dbd 5fd2 60bd 6731 0cbe e4dd 02be
00000190: 62fb 293e 0d4a b8bd e8a3 1abe 53fc 0b3d
000001a0: 9604 823a 651c bc3c a750 a4bd ac8b cc3a
000001b0: 1bce 00bc b5f1 8dbd 560a 223e b838 3bbe
000001c0: ec9b 03be 8cac 2f3d 71bf b9bd 9e90 b23b
000001d0: 0fb1 ffbd 7c5e 65bc ee32 46bc e365 ccbc
000001e0: 9b54 40be 045d fd3d 65b9 c33c cb84 bc3d
000001f0: ecdb 29be 8815 363e b254 5a3d d05f 133e
00000200: 52d7 7d3d 351d 0abe a774 043e b89d e03d
00000210: 359a 25be 61bd 0c3e e413 c43d bb50 0a3d
00000220: 52e2 debd b5cb f9bd 66f0 c43d 7b14 07be
00000230: ed69 2b3e 94e5 33bc 48ca f43d df9d 113c
00000240: 2ecd e6bc 0481 a33d a13e 7e3d 65ea cbbd
00000250: b9b1 163d fa00 d8bd 1ffc bebd 5e8e e1bd
00000260: e8df 943d 78a3 22be ddaa 913c 7b9d f0bd
00000270: 4dde 0f3d c674 a0bc 3319 28bd ef30 373e
00000280: 1685 2ebc 920b ae3d 3b0e 18be 5092 523c
00000290: 738b dcbd 7b48 453d 9377 41bd 3bdd 313d
000002a0: 40e1 44be ca3c 9fbd 4bb5 713d b90b 2dbd
000002b0: 1baf 093d 7e7f 3c3d d2b7 6dbd 282f c13c
000002c0: ea75 173e 3e18 3e3e 3bea 2ebe fe99 40bc
000002d0: eb61 133d b2fe 03be 63e5 073e 6b37 98bd
000002e0: 93ab 31bc 7e5c 97bc 493e 163e b7bb bd3c
000002f0: 4388 89bd bd2b 5e3d bc4c cb3d eae6 943d
00000300: 29e5 253d dbd7 fa3d dea1 e4bd 3cbc 3d3e
00000310: c528 29be 5303 13be 1132 3e3e c1b9 9d3d
00000320: 580d d93d c06c 3a3e eac7 e0bd c4be 453e
00000330: 3909 ad3d 28c3 63bd 79cc fcbd f27a 23be
00000340: f623 45bd ffac 083e 36a8 193c 3015 ccbd
00000350: 1c85 a13d 5eee 2dbd 810b 25bd 7b1d 26be
00000360: 82cb c1bd df7d a5bd 1ba0 0abe 0e97 5ebb
00000370: f35f 41be 340c 9fbc 06c5 ebbd a7c7 e53d
00000380: 3e47 acbd 3ddb 00be fd44 a63d 8b1b d53d
00000390: 479f 10be d0fd 073e abe8 243e 960b 133e
000003a0: 7045 b3bd 7d09 583d c6d9 953d 6f15 2dbe
000003b0: 75d3 fb3d bb95 783d d826 22be 6982 a93d
000003c0: 60a5 20be fe99 d43d d8fc 4f3c ca87 0dbe
000003d0: e028 f83d a2b7 21be b985 2b3e 3045 423e
000003e0: 9049 903d bfb5 613d 639d 14bd 9993 03be
000003f0: da85 2ebe 371f 23be a078 223e bc93 893c

rnn.bias_ih_l2 f4 [32]
0.018500581 0.16061302 0.021839146 -0.08035642 0.101472594 -0.1426578 0.15588033 -0.12804891
-0.16461481 -0.14773466 -0.027217165 -0.16014706 -0.14409737 -0.10730378 0.059783213 -0.14953505
0.089914724 0.15117516 -0.13164566 0.15887554 -0.12826376 -0.05774337 0.1213622 0.039162226
0.000742957 0.031517666 -0.12363977 -0.084706075 -0.0023447517 0.14297922 0.18064716 0.037319727
00000000: 888e 973c bd77 243e 02e8 b23c e891 a4bd
00000010: ddd0 cf3d e314 12be 189f 1f3e 411f 03be
00000020: c990 28be c147 17be 88f6 debc 97fd 23be
00000030: 438e 13be 16c2 dbbd 3edf 743d b71f 19be
00000040: 3625 b83d a9cd 1a3e 1fce 06be 45b0 223e
00000050: 9357 03be 5084 6cbd bf8c f83d 9268 203d
00000060: 00c3 423a ab18 013d d936 fdbd 617a adbd
00000070: 68aa 19bb 2569 123e 92fb 383e 92dc 183d

rnn.bias_hh_l2 f4 [32]
0.014666202 0.01197826 -0.11271068 0.06340896 -0.08565553 -0.13149895 0.020125955 0.1475699
-0.1178347 -0.053070728 -0.06447803 -0.15127246 -0.14878954 0.17443235 -0.14917211 0.13869987
0.0070514535 0.038425174 0.12889077 0.09819135 0.05645627 0.08850498 0.14632146 -0.06529476
-0.109256096 -0.12196229 0.049598183 -0.027814804 -0.047136348 -0.16670369 -0.012211196 0.050807517
00000000: 824a 703c 7740 443c dbd4 e6bd 8fdc 813d
00000010: 2b6c afbd a9a7 06be 30df a43c 901c 173e
00000020: 5253 f1bd b160 59bd 0f0d 84bd 2be7 1abe
00000030: 495c 18be 659e 323e 93c0 18be 5707 0e3e
00000040: e10f e73b b763 1d3d f1fb 033e 8c18 c93d
00000050: b13e 673d 1942 b53d 4bd5 153e 42b9 85bd
00000060: a9c1 dfbd 5dc7 f9bd 7727 4b3d dfdb e3bc
00000070: 0b12 41bd 5fb4 2abe 7811 48bc 8b1b 503d

rnn.weight_ih_l3 f4 [32, 32]
-0.037390403 0.15811892 -0.057739772 -0.027203258 -0.097603664 -0.11409402 0.047842335 -0.11639799
0.06571945 -0.10640462 -0.050956555 0.17258811 -0.15653867 -0.017563453 -0.074014395 0.054347992
0.12994683 0.01529324 0.009018581 0.08931144 0.05954143 0.07898096 -0.015042086 0.09225633
-0.045768164 -0.08817637 -0.054331314 0.026644412 -0.19076802 0.05947829 0.16507858 0.068450905
-0.0043764045 0.02481636 0.091967694 0.16091584 0.07083689 0.17847787 -0.101160735 -0.14006689
0.07556846 0.024131382 0.19402203 0.20120569 -0.036304668 0.09496714 0.025672726 0.0062473174
0.09156168 0.039015606 -0.13333346 0.12170684 0.09074134 0.048523035 -0.110832974 0.02983686
-0.18710433 0.14106184 0.04175033 -0.020573743 0.12477049 -0.07101008 0.031509012 0.11786197
-0.08362462 -0.16398613 -0.026690425 0.16682379 -0.047034815 0.023519421 0.06586418 0.014229528
-0.1921375 0.02114853 -0.18830746 -0.08597043 -0.17474642 -0.00084964774 0.10788273 0.038868792
0.09346166 0.014152542 -0.19544907 0.1027194 0.041969102 0.053281944 0.19048525 -0.04328925
0.10392236 0.12906396 -0.04924007 0.03038688 -0.15782574 -0.113254175 -0.017482648 0.17766196
0.19165479 -0.13160196 -0.06622634 0.117115475 0.14979453 0.09710753 -0.022965178 0.126359
0.085744455 0.17001241 -0.15239632 0.10128971 0.13250154 0.041018452 -0.017670881 -0.076136455
0.03237263 0.07182928 0.17272455 0.044740513 0.08839155 -0.062609695 0.15159081 -0.08816735
0.039603267 0.16729803 0.09375611 0.113681085 0.06929429 -0.12594585 -0.17158678 -0.12026666
-0.038211625 0.16334736 -0.01776827 0.015010353 -0.21141574 -0.16336608 0.016603732 0.013756636
-0.04804887 -0.20318854 -0.13960432 -0.114622995 -0.035036378 0.051503144 -0.023029655 0.17068389
0.08418161 -0.20018072 0.031975545 0.07734029 0.07539612 -0.0677187 -0.21818767 0.0009856519
0.1718275 -0.09242356 0.0894652 -0.17705278 0.09952587 0.055177726 0.10237508 0.0069763837
0.045610804 0.0071944157 0.08709361 0.17376907 -0.017921789 -0.0065835956 -0.05298741 -0.088323414
0.1566225 -0.07996697 -0.074599326 0.011967809 0.11677451 -0.09660984 0.053931013 0.019222874
0.14222892 -0.10401315 0.065945 -0.110357106 -0.12403967 0.08792693 -0.057437275 -0.018987525
-0.039337657 -0.08602829 0.08628968 0.09060673 -0.14959939 0.13730358 0.15967515 0.03197728
0.12869677 -0.18391576 -0.022884365 0.0964374 0.1902058 0.13357136 -0.012123221 -0.08021847
0.046155892 0.017295465 0.08270422 0.14166062 -0.1342755 0.05333509 0.014723827 0.10145338
-0.05005528 0.13359328 -0.18097635 -0.16413207 -0.11630688 0.17568652 0.13454342 0.16245463
0.022970235 0.12646808 0.17003824 0.031136597 -0.032039158 -0.089591704 -0.0068098367 -0.11292617
0.17514274 0.14750063 0.17792179 0.10657847 0.18621397 0.083847985 0.118694216 0.09246237
-0.14132756 0.14393444 0.10735941 0.17763257 0.1549664 -0.17209244 -0.13211602 -0.08141205
-0.11703985 -0.15914983 -0.15149269 -0.051432878 0.00034285622 0.1802926 0.0017791877 -0.10986865
-0.007134732 -0.0018589445 -0.1637898 0.014275197 -0.109237224 -0.09001092 0.041430656 0.11042528
00000000: ae26 19bd ede9 213e 8a80 6cbd 5ed9 debc
00000010: 6ee4 c7bd 20aa e9bd 53f6 433d 1262 eebd
00000020: eb97 863d aaea d9bd d2b7 50bd f0ba 303e
00000030: ac4b 20be 3be1 8fbc dc94 97bd 009c 5e3d
00000040: c810 053e 7f90 7a3c acc2 133c ebe8 b63d
00000050: b7e1 733d c5c0 a13d 1573 76bc e3f0 bc3d
00000060: 6677 3bbd d095 b4bd 838a 5ebd 6245 da3c
00000070: b158 43be 829f 733d 5c0a 293e fd2f 8c3d
00000080: f167 8fbb ae4b cb3c 8f59 bc3d 1fc7 243e
00000090: ee12 913d e7c2 363e 5c2d cfbd b26d 0fbe
000000a0: a3c3 9a3d 2daf c53c b6ad 463e dd08 4e3e
000000b0: 34b4 14bd 227e c23d 9c4f d23c 4cb6 cc3b
000000c0: b184 bb3d d4ce 1f3d 9188 08be 7041 f93d
000000d0: 98d6 b93d 17c0 463d 66fc e2bd 6e6c f43c
000000e0: 4798 3fbe 8472 103e 6502 2b3d 448a a8bc
000000f0: ac87 ff3d bc6d 91bd 980f 013d 9e61 f13d
00000100: 6343 abbd fbeb 27be e1a5 dabc dbd3 2a3e
00000110: 94a7 40bd cdab c03c cde3 863d f722 693c
00000120: b1bf 44be af3f ad3c acd3 40be 4411 b0bd
00000130: baf0 32be e5ba 5eba 9ff1 dc3d e234 1f3d
00000140: d468 bf3d 10e0 673c cd23 48be 8c5e d23d
00000150: cbe7 2b3d 2b3e 5a3d 910e 433e 1250 31bd
00000160: 3fd5 d43d 5829 043e f5af 49bd e8ed f83c
00000170: 129d 21be cef1 e7bd c537 8fbc 04ed 353e
00000180: 2741 443e aac2 06be ada1 87bd 3dda ef3d
00000190: bd63 193e 50e0 c63d 7821 bcbc 4164 013e
000001a0: ca9a af3d bc17 2e3e c80d 1cbe fb70 cf3d
000001b0: 7cae 073e f702 283d 86c2 90bc 6eed 9bbd
000001c0: 2a99 043d 3b1b 933d b4de 303e d441 373d
000001d0: a106 b53d 8339 80bd 9f3a 1b3e 1591 b4bd
000001e0: 0937 223d 2d50 2b3e 3403 c03d a1d1 e83d
000001f0: 2aea 8d3d f3f7 00be 72b4 2fbe 5e4e f6bd
00000200: cb83 1cbd 8844 273e c38e 91bc fced 753c
00000210: 5e7d 58be 7049 27be 8d04 883c 8363 613c
00000220: e4ce 44bd a810 50be 6ff4 0ebe 76bf eabd
00000230: 4e82 0fbd f6f4 523d b0a8 bcbc c2c7 2e3e
00000240: 6867 ac3d 2dfc 4cbe caf8 023d 9664 9e3d
00000250: 4869 9a3d 1ab0 8abd 976c 5fbe fd30 813a
00000260: 8cf3 2f3e 9048 bdbd 8839 b73d 534d 35be
00000270: 38d4 cb3d 0a02 623d 07aa d13d 269a e43b
00000280: 65d2 3a3d 22bf eb3b 225e b23d 85f0 313e
00000290: b7d0 92bc 34bb d7bb 5409 59bd e8e2 b4bd
000002a0: a661 203e b9c5 a3bd 88c7 98bd a114 443c
000002b0: 7927 ef3d 61db c5bd c4e6 5c3d 4a79 9d3c
000002c0: 75a4 113e d904 d5bd 2c0e 873d e802 e2bd
000002d0: 8308 febd 0913 b43d 5943 6bbd ba8b 9bbc
000002e0: 8620 21bd 9a2f b0bd a5b8 b03d 0590 b93d
000002f0: 9530 19be 4f99 0c3e e281 233e 9cfa 023d
00000300: 16c9 033e 6a54 3cbe fe77 bbbc f980 c53d
00000310: 4fc5 423e eec6 083e 79a0 46bc 9549 a4bd
00000320: f60d 3d3d 38af 8d3c d560 a93d 7b0f 113e
00000330: 847f 09be e575 5a3d 353c 713c cac6 cf3d
00000340: c406 4dbd adcc 083e dd51 39be 3d12 28be
00000350: 4d32 eebd 2be7 333e c0c5 093e 825a 263e
00000360: 132c bc3c d980 013e 811e 2e3e 2d12 ff3c
00000370: 7e3b 03bd db7b b7bd 0d25 dfbb d645 e7bd
00000380: 9e58 333e 680a 173e 2131 363e d045 da3d
00000390: e0ae 3e3e 7eb8 ab3d f415 f33d e95c bd3d
000003a0: 2cb8 10be 8d63 133e 40df db3d 50e5 353e
000003b0: 83af 1e3e 0039 30be 6c49 07be 5cbb a6bd
000003c0: 97b2 efbd 2cf8 22be e620 1bbe 48ab 52bd
000003d0: 62c1 b339 a09e 383e a233 e93a d102 e1bd
000003e0: 78ca e9bb d4a7 f3ba 83b8 27be 84e2 693c
000003f0: c4b7 dfbd a557 b8bd 31b3 293d a626 e23d
