lightning_logs/version_2/checkpoints/epoch=94-step=1140.ckpt (torch, 145296 bytes, 63 tensors)

rnn.weight_ih_l0 f4 [32, 11]
00000000: 149b 053e 6f33 3f3e 51bb 9bbd 82ed 96bc
00000010: 7c8e 413d 45e9 f4bd 19e7 353e f8ad 3d3e
00000020: aad3 61bd bf37 e33c f843 0d3d 2519 aa3d
00000030: 9f83 aabd 7ea5 073d b659 bbbd 41c4 0f3e
00000040: 4685 363e bcc0 0abe 3f11 c0bd 6db2 ff3c
00000050: ec35 3bbd d545 d33d f13f e73d 6cfc 55bc
00000060: 1783 8d3d 3ae6 083e 3415 fd3d f6d9 edbd
00000070: c702 00be 9fdd b53d 2cbf 1f3e fefa d5bd
00000080: 2cc7 833d d750 263e 0e58 2b3e 8780 273e
00000090: 65d4 1f3e a6be 02be 2110 14be 3204 cfbc
000000a0: 4873 153e c8e2 efbc dc75 6a3d 9233 0f3e
000000b0: 4e96 e13d e3ef c8b9 5817 36be 9607 25be
000000c0: a8ea cf3d 1945 4d3d fc08 37bd cfee 3dbe
000000d0: fb64 cdbd 45f2 4ebd 69ed e73d e32e 093c
000000e0: 4eb1 b63c a169 08bd 4563 8fbd 9f02 383d
000000f0: 435c b63c e00a 8b3d bf8a 9d3d 4690 a73d
00000100: 967b 4cbd a9f6 cabd 2796 f9bd 139e 2abe
00000110: 039e 13be 0cfd a53b b396 9abd 1392 aabd
00000120: ae69 ec3d 5e76 84bd bce6 173e 1f9a 6abc
00000130: 61d8 a1bd d613 2ebe f972 c63d 76ac 273c
00000140: e0bf 153e b4c1 8d3d 1408 02be d157 abbd
00000150: 3498 0abe fc68 0a3e c350 a53c ef78 663d
00000160: 2c99 c0bc c51e 05be 2bc9 1abe 0dc3 acbd
00000170: d56a 893d 6934 fdbd 3d9a c93d d2dc 17be
00000180: 37ba 19bc c03b d4bd a82c f0bd 7176 5b3e
00000190: 6448 7dbd 5450 71bc 8e26 e13c ad08 e9bd
000001a0: fed8 193e 28ef 203e 6a7e 353e c145 9c3d
000001b0: 34ba c83d 9486 d53d bbeb efbd 26dc 303e
000001c0: e3e7 b03d bfb4 413e 0a9b a53b 4841 143e
000001d0: 56a0 32bd 3b04 21bc a85a 983c 842f 0cbe
000001e0: e84e cebd ebb6 fd3d 9c15 0fbe 75b4 513d
000001f0: 5f6b 4dbd dc38 bfbd 5c16 2c3e fbd0 1cbe
00000200: a0da 2e3d cc0b f23d 5187 11be ce25 26be
00000210: 5be1 e1bd 95e0 283d 9513 4b3d e253 b8bd
00000220: 26d6 cabb a576 dabb 40c5 123e a0a3 043e
00000230: 7e0e 9f3d c6c5 3dbe c9c6 ffbd f45d 0d3e
00000240: ddd0 353e 3c33 f83d 0b27 683d e246 18be
00000250: a5af 1f3d 84a5 02bd b938 77bc e45c cdbd
00000260: 902d 0ebe 5e81 93bc 50f8 fbbd 0237 033e
00000270: d4b6 b03c 1de6 ff3d 8c20 28be 4a29 2b3c
00000280: 640c 8cbc 5bb0 1d3e e507 04be 8293 fbbd
00000290: acaa 27be 37ca 40be 4bd2 fabd 7ed5 053e
000002a0: 74c6 6bbd 255a 2a3e 7bfe 453d d550 913c
000002b0: 698f f13d e181 30be 839e 23be b4cd fdbd
000002c0: cfb4 b13c 6181 823d fe5e 193e fd78 203e
000002d0: a01f de3d 6394 b0bd 32b9 c3bd 2537 80bd
000002e0: d2b7 5abd eb4d debd e7e6 2f3e 1f64 903d
000002f0: 3abd 0a3e af7b fd3d 4bfc 73bd c1f3 01bd
00000300: 3f05 4dbe b133 c9bc 9989 b23d c7db 023e
00000310: cb01 363e 2f2f 113e 7bbb 373e 4a46 143e
00000320: 7077 b03c 9ab3 b93c e931 4f3d 2e48 0cbe
00000330: 541a 3dbd c288 aebd 0e8e 6b3b a3f3 3e3e
00000340: a594 0e3d c1e6 c7bc bed8 e8bd be82 13be
00000350: a0ed 00be 22ce 1dbe 1bca fb3c 3997 ed3d
00000360: 1c1e 11bd 2d5c 56bd 2d0f d3bc 71fb 9abd
00000370: fb07 2fbe d73d 73bd 8876 b93d 756c 06be
00000380: de18 a6bd 4bdf 253e 8897 6ebd a630 163d
00000390: bb29 01bd 81ec 26be f0f6 543d aaa7 19be
000003a0: 60ca ddbc 7a27 9d3c 6fa5 0e3e 888b 0fbd
000003b0: 7b75 333e 70ff 883c 819c ebbb 3a73 bf3c
000003c0: 1151 81bd 0269 dc3c 653f 1fbd eca0 0b3d
000003d0: 9e31 c63b c660 bdbc ab16 e7bd dcd4 1bbd
000003e0: d7f5 c23d b82f 14be af3d babd ede5 393c
000003f0: 9dc2 f2bd fa1b 80bd adef 10be 6688 0ebe
0.13047439 0.18671964 -0.07604087 -0.0184238 0.047255024 -0.11958555 0.17763938 0.18523395
-0.0551335 0.027736543 0.03448865 0.08305577 -0.08325886 0.03311681 -0.091479704 0.14039709
0.17824277 -0.13550085 -0.093782894 0.03121301 -0.04570572 0.10316054 0.11291493 -0.01306067
0.06909769 0.13369074 0.1235756 -0.116138384 -0.1250106 0.088801615 0.1560027 -0.104482636
0.064344734 0.16241775 0.16732809 0.16357623 0.15608366 -0.12768039 -0.14459278 -0.025270555
0.14594758 -0.029282942 0.057241306 0.13984516 0.110149965 -0.00038325702 -0.17782342 -0.16116175
0.10152179 0.050114725 -0.044686303 -0.1854813 -0.10029026 -0.050524015 0.11324579 0.008372995
0.022301342 -0.03330386 -0.07001356 0.044924375 0.02226079 0.067891836 0.07692479 0.08181815
-0.04992255 -0.09910328 -0.121868424 -0.16661863 -0.14415745 0.005065566 -0.07548275 -0.08328643
0.11543594 -0.06467889 0.14834112 -0.014318972 -0.07902599 -0.16999754 0.09689898 0.010233989
0.14623976 0.069217116 -0.12698394 -0.08366359 -0.13534623 0.13516611 0.020180112 0.056267675
-0.023510538 -0.13000019 -0.15115802 -0.084356405 0.0670983 -0.12363512 0.09843872 -0.1483033
-0.009382776 -0.10362959 -0.117272675 0.214319 -0.061836615 -0.014728624 0.027484205 -0.11378608
0.15024182 0.15716231 0.17724004 0.07630492 0.098011404 0.10426059 -0.11714884 0.1727148
0.08637979 0.18916605 0.0050538825 0.14478028 -0.04360994 -0.009827669 0.018597916 -0.13690001
-0.10073644 0.123884045 -0.13973087 0.051197488 -0.050151225 -0.09337017 0.16805404 -0.15314095
0.042688966 0.11818656 -0.14211775 -0.16225359 -0.11029311 0.041229803 0.04957922 -0.090003744
-0.0061900793 -0.0066669756 0.14333057 0.12953043 0.07766436 -0.18532476 -0.12489087 0.13805372
0.17755456 0.12119147 0.05667786 -0.1487079 0.038985867 -0.03189613 -0.015089207 -0.10027483
-0.13884568 -0.018006023 -0.12303221 0.12813953 0.021571554 0.124950625 -0.16418666 0.010446856
-0.017095752 0.15399306 -0.12893637 -0.12283994 -0.163737 -0.18827139 -0.122471415 0.13069722
-0.057562307 0.1663595 0.048338395 0.017738739 0.117949314 -0.17237045 -0.15978436 -0.123927504
0.021692662 0.06372333 0.14977643 0.15671153 0.10845876 -0.086220525 -0.095568076 -0.06260518
-0.05339796 -0.108547054 0.17177926 0.070503466 0.13548747 0.123771064 -0.059566777 -0.031726602
-0.20021532 -0.024560781 0.08717651 0.12779151 0.17774121 0.14178155 0.17942612 0.14479938
0.021541327 0.022668649 0.050584707 -0.1369941 -0.046167687 -0.08522178 0.0035942825 0.18647628
0.034809727 -0.024402024 -0.11369465 -0.14405343 -0.12590647 -0.15410665 0.03073602 0.11601109
-0.035429105 -0.052334 -0.025764072 -0.0756749 -0.17092888 -0.059385147 0.09055811 -0.1312731
-0.08110212 0.16198461 -0.05824998 0.03666749 -0.031533938 -0.16301157 0.05199331 -0.15005365
-0.027074039 0.019183863 0.13930295 -0.035045177 0.17525284 0.016723365 -0.0071902876 0.023370374
-0.0631429 0.02690554 -0.038878817 0.034089014 0.0060483953 -0.023117434 -0.112836204 -0.038044795
0.095195465 -0.14471328 -0.090937965 0.0113463225 -0.11853526 -0.06255336 -0.14153929 -0.1391922

rnn.weight_hh_l0 f4 [32, 32]
00000000: 5396 243d 3fb2 2c3e 5926 20be 6c8e eb3d
00000010: 7d03 453d 4a5d 11be b058 063d 2670 213e
00000020: b7f0 e63d 1fb6 273e 803c fcbc 98f0 13be
00000030: 67b3 113e 5583 76bd 57ca 223e a37d 25be
00000040: 5e53 c1bd 6183 fa3d 8b5e cabd 64f6 d83d
00000050: ff15 a43b 6f20 dbbd c5a1 c93d 2574 03be
00000060: 2786 35bd 0559 253e 3020 efbd 4e1a bfbc
00000070: 249e 06be 1cba dd3d c11d 033d b5da ba3d
00000080: 2295 0ebc 7be8 8d3d 1f25 1d3e f427 103d
00000090: f121 88bd d15d 68be c7d2 813d 13b1 4f3e
000000a0: d685 e73d b84b 133e 5d7c cd3c 411f b7bc
000000b0: 5c57 0b3e 1ec6 8fbd e176 833c 0c56 84bc
000000c0: 73ef edbd e489 61bc 5654 90bd d2a2 4f3c
000000d0: 0d85 3e3d c50f 443d f544 70bd 63fc 183c
000000e0: 876f 0b3e 9942 50bd 9ecb 07be cd34 acbd
000000f0: 3be1 adbd 7e99 0a3e f940 3bbe d452 1f3e
00000100: 6c03 bbbd 2b34 b6bd f7b9 28be 003f 00be
00000110: 61c1 093e 895a 913d fb82 d1bd 9999 463e
00000120: 41da 4bbd f10c c7bd 9fc9 d6bd 0372 10be
00000130: e094 f0bd 9109 083e 6aab 143e 38a0 e4bc
00000140: 5463 ffbc 3276 d4bc 0a3c 963d 5e96 d4bd
00000150: b893 b53d 5cf7 b93d 4283 c0bd 094a a83d
00000160: 447a 1fbe ede4 233e cde3 373e 572f 2bbe
00000170: d281 1f3e 523f 073e a2b8 b33d d561 12be
00000180: cbad 2bbe e1c9 2bbe 2fb9 25be f2d4 07bd
00000190: f727 b6bd 6952 b7bd 0d6c 0fbe 1660 28bd
000001a0: b2b5 84bd 7d49 a0bc 23c1 e6bd 0872 f9bd
000001b0: 6c54 a7bd d2e4 8cbd b519 aa3d cc40 913d
000001c0: ad5b 95bd 4999 d4bd d0b4 1e3e e9ff a6bc
000001d0: 5e07 903d cb63 07bb 1223 03be 318b e73c
000001e0: a251 3cbe d133 783d 216d ad3d 1692 c6bd
000001f0: e519 f5bd 57a9 90bd d68e 79bd 1725 8f3d
00000200: 00fc 0b3d c14d 3bbe f2ef a1bd 0823 59bc
00000210: b43b 31bc 1c19 1fbe e943 98bd ca03 72b9
00000220: e324 60bd 882c 7f3d ea83 8d3d e68d 36bd
00000230: 843a 3ebd 0157 de3d fab6 30be 1f0b 9f3d
00000240: cf1a c73d f242 46be 8499 1dbe 567c b03c
00000250: 0abc 873d 71f5 003e a664 363e 59da f83d
00000260: e611 293e 7008 52bd 5d1e e23d 881b 25bd
00000270: 716c d0bc 49ef 54bc 046c e3bd 72b0 09be
00000280: 63df a6bd a1eb d23d 216f d7bd 33af 31be
00000290: e58a dabd ae58 0a3e 743d 003e 6a6b 323d
000002a0: 8498 1ebe bacf 55bd d7fe d33d d37f 953d
000002b0: 4681 5cbd 3fee cfbd 516a b13d 0081 8e3d
000002c0: 3301 4ebc 156d febd 6b34 403d 9fc7 82bc
000002d0: b1b2 e93b ceae 043d 6ce0 ddbd 8279 06be
000002e0: 69df 1f3e 361b 8f3c b8a3 1dbe c307 d7bc
000002f0: 0d67 99bd e983 1c3e 00b8 ea3d 2ba8 023e
00000300: 2d92 433e ece7 2a3e 1cf4 88bd bff3 363d
00000310: b500 1e3e 1e52 84bd 66da 6bbd d4f3 a9bc
00000320: 22e8 b63d b96c 003e ea27 d03d 4b1e 17bd
00000330: db62 61bd 12af 31bd 31ef 1cbe b736 26bd
00000340: d6da 093e 3afb 003d dc60 4a3d 43c2 4e3d
00000350: b284 d6bd 15dc c53d a163 adbd 397d bb3a
00000360: 0a8e 0abe b854 11be cf5e 18be 53ca 213e
00000370: 29e0 1c3e c6e6 9e3d fba5 10bd 5f81 4cbc
00000380: d573 0cbe bc81 203d 057d acbc 7d5f 9cbd
00000390: befc e5bd 96c9 aabc 6d67 e7bc c28b aebc
000003a0: 4e14 343d d0ee 88bd 6936 f1bd a946 36bd
000003b0: 5c16 3fbd c659 ac3d 1458 73bd 8a3d ddbd
000003c0: 312c cc3c 000e f1bc 1ff2 25be 2095 f33d
000003d0: 620a 21bc 021b bbbc df07 103e 9014 893c
000003e0: 5916 493c 3850 cabd 0e00 b7bd 1046 0bbe
000003f0: 75b5 89bd 35e1 42be c75f 25bd a126 a4bd
0.040182423 0.1686487 -0.15639628 0.11501774 0.04809903 -0.14195743 0.032799423 0.15765437
0.112763815 0.16378067 -0.030790567 -0.14447248 0.14228593 -0.06018384 0.15897499 -0.16161208
-0.09439729 0.1223209 -0.09881314 0.1059387 0.005007505 -0.106995456 0.09845308 -0.12837274
-0.04431739 0.1614724 -0.11676061 -0.023327973 -0.13146263 0.10826513 0.032010797 0.09123746
-0.008702548 0.06929108 0.15346192 0.035194352 -0.06647099 -0.22692038 0.06339031 0.20282392
0.11304824 0.14384353 0.025083715 -0.02235377 0.13607544 -0.0702021 0.016047897 -0.016154312
-0.11617937 -0.013765786 -0.07047336 0.012673097 0.046513606 0.0478666 -0.058659513 0.009337517
0.13616763 -0.050844762 -0.13261268 -0.084085084 -0.08490225 0.13535115 -0.18286504 0.1555894
-0.09131512 -0.08896669 -0.1647719 -0.12524033 0.13452674 0.07097346 -0.10230061 0.1939453
-0.04976869 -0.09719265 -0.10487675 -0.14105992 -0.11747146 0.132849 0.14518514 -0.02790843
-0.031175293 -0.025935266 0.0733567 -0.10380243 0.08866066 0.09080383 -0.094000354 0.08217246
-0.15573984 0.16005297 0.17957993 -0.16717277 0.15576866 0.13207749 0.0877545 -0.14295132
-0.16765516 -0.1677623 -0.16183923 -0.033162065 -0.088943414 -0.08951265 -0.14006062 -0.04110726
-0.06479968 -0.019566292 -0.11267307 -0.12179953 -0.08170399 -0.068795815 0.083056845 0.07092437
-0.072928764 -0.10380799 0.15498662 -0.0203857 0.07032655 -0.0020658846 -0.12806347 0.028264614
-0.18390515 0.06059629 0.0846808 -0.096958324 -0.119678296 -0.07063549 -0.060927235 0.06989496
0.034175873 -0.1829138 -0.07907094 -0.013252981 -0.010817457 -0.15536922 -0.07434828 -0.0002308033
-0.054722678 0.062298328 0.06909926 -0.04456892 -0.046442524 0.108564384 -0.172573 0.07765793
0.0972191 -0.19361475 -0.15390593 0.021543663 0.066276625 0.12593628 0.17811832 0.121510215
0.16510734 -0.051277578 0.110409476 -0.04030946 -0.025442334 -0.012996503 -0.11104587 -0.13446215
-0.081480764 0.10298849 -0.10519243 -0.1735199 -0.10671023 0.13510391 0.12523443 0.04355947
-0.15487868 -0.052200057 0.10351341 0.07299771 -0.053834222 -0.10152864 0.08662856 0.069581985
-0.012573528 -0.124231495 0.04692499 -0.015964327 0.0071318974 0.03239327 -0.10833821 -0.13132289
0.15612568 0.01746903 -0.15394485 -0.026248818 -0.074903585 0.15284695 0.114608765 0.12759463
0.1909873 0.16690034 -0.06687185 0.04466605 0.15429957 -0.06460975 -0.057581328 -0.02074615
0.089309946 0.12541474 0.10163863 -0.036894124 -0.055025917 -0.04337985 -0.1532562 -0.040579524
0.13462386 0.03148959 0.04940878 0.05047823 -0.10474528 0.09661118 -0.08466268 0.0014304287
-0.13530746 -0.14192474 -0.14879917 0.15799837 0.15319885 0.0775886 -0.03531454 -0.012482016
-0.13716061 0.039186224 -0.021055708 -0.076354004 -0.11229847 -0.020848077 -0.02824756 -0.021306876
0.043964677 -0.06686175 -0.11777956 -0.04450098 -0.046652183 0.084155604 -0.05941017 -0.10802753
0.024923416 -0.029425621 -0.16205643 0.11893678 -0.009829136 -0.022840027 0.14065503 0.016733438
0.0122733945 -0.09878582 -0.08935557 -0.13600945 -0.06724063 -0.19031222 -0.040374544 -0.080151804

rnn.bias_ih_l0 f4 [32]
00000000: e760 353d f5ac 22be a411 c5bd fac6 b63d
00000010: 0248 21be e47e 0bbe 6028 763c e07c 37be
00000020: 882f 8bbd f75c b03d 1880 0c3e 3120 4a3d
00000030: d2d5 9fbd 34fd bc3d fc43 bebd 6879 fa3d
00000040: cf08 c4bd 6312 e93c de13 91bd 7ee0 bcbd
00000050: 59f3 61bd 3594 77bd f1d3 2bbe c704 003d
00000060: efc1 cd3d 1626 adbd 03d8 95bd 42ec a43b
00000070: 17ff e53d a0d2 12bd 4bb7 a7bc 0158 aabd
0.044281866 -0.1588629 -0.09622505 0.089246705 -0.15750125 -0.13622624 0.015024275 -0.1791873
-0.06796175 0.08611482 0.13720739 0.049347106 -0.07804455 0.09227982 -0.09290311 0.12230188
-0.095719926 0.02845115 -0.070838675 -0.09222506 -0.055163715 -0.060444076 -0.16780068 0.031254556
0.100467555 -0.0845453 -0.073165916 0.005033047 0.11230295 -0.0358454 -0.020473143 -0.08317567

rnn.bias_hh_l0 f4 [32]
00000000: 0438 e23d 5677 e839 cfb6 283d 31c5 cfbd
00000010: 38f0 b43d 71e4 10bc e794 133e de36 5b3a
00000020: 1e17 1abe e6f2 0c3d 8818 ab3d 770a 94bd
00000030: c2d1 debd 420d abbd 18d9 02be 5fbc 883d
00000040: 5362 c6bb 35a8 3e3c a67d 87bd 6cca 12be
00000050: 12f1 153c 544e d63d 103b 2abe 167e 39bc
00000060: 9900 8a3c c765 9b3d 330d 14be 8088 163c
00000070: ea26 27be cfd7 e8bd 7089 cc3d 9bc1 e73d
0.110458404 0.000443394 0.041189965 -0.10145033 0.088348806 -0.008843527 0.1441227 0.0008362363
-0.15047881 0.034411334 0.08354288 -0.072285585 -0.10879852 -0.08352138 -0.12778127 0.06676554
-0.0060542016 0.011636783 -0.066157624 -0.1433503 0.009151714 0.10464159 -0.16624093 -0.011321565
0.016845988 0.07587772 -0.1445816 0.009187818 -0.16323438 -0.11369287 0.099871516 0.11316224

rnn.weight_ih_l1 f4 [32, 32]
00000000: 5544 f8bd 7584 ffbc e812 ddbd c52f 16be
00000010: d673 e93c ce7f d1bd 4d23 3e3e beba ea3d
00000020: 35f9 0fbe 912e 14bd caab c4bd fb47 cbbd
00000030: 1796 12be 6b65 04be 4cb1 463d aa74 283e
00000040: 305c 80bd f024 193d 5236 ae3d 0ffc 103e
00000050: 6a34 493d 680e d83d c0ea d2bd 0e16 bbbd
00000060: f5d3 2c3e 79c2 71bc 28a7 453d 4868 0e3e
00000070: 778a 3dbe 4474 513d b488 413e 3459 81bd
00000080: 2f2c a33d d50b bcbd a78b f33d ce4c c5bc
00000090: 5e47 9cbd 7235 1c3d 40fb fa3d 3768 ab3c
000000a0: b130 2a3e 5fcc 9b3c 6b73 e9bd 2873 0cbe
000000b0: 6be6 103e e180 1f3e 3f30 d5bd 041f db3d
000000c0: fb55 afbd 17ce 063e 5b3f 273e 2a7a 0cbe
000000d0: a3f6 1cbd fa70 043e 1826 683d 691f 64bd
000000e0: e8d8 033d 5251 b7bd 7ba0 08bb 9cb1 1bbe
000000f0: 396a 853d 049e 23be f6f7 2d3e 5a6d 693d
00000100: 9057 893d 9e11 35be cab5 43bd 6231 583d
00000110: 0a1f 5fbc 1371 84bd 621d 6d3d f6e1 e03a
00000120: b277 b93c b884 debd 3068 2d3e 2414 0d3e
00000130: fd17 e83d 3358 223e 25d3 843d c7f1 b13d
00000140: e192 a63d b7b8 7c3d 3684 debd 1a10 fcbd
00000150: e5e0 093d 2a24 8dbd eef7 27be 475e 17be
00000160: 84cb 123d b259 d83d 420f e5bd 1782 b0bd
00000170: 0c6d 863d cc45 593d 8fb6 003d ed8a 3dbc
00000180: ef90 2e3e 27ae 61bb 5e2c 2ebe 28be cc3d
00000190: e11b 02bc 6f52 0d3e 3401 0d3e 6034 08be
000001a0: 5ce0 6f3c efda 31bd 8429 67bd c384 0e3e
000001b0: f0d7 273e 2632 29bd 0d6e 27be 33a4 013d
000001c0: 6f47 243e 0b3f 9abd 0dbd 37be 23fb dabd
000001d0: cd61 733d 1aed 2a3e 8c6a bb3d e172 36be
000001e0: abbb f6bd 3bd0 15bd 8f1c 3fbd b198 b53d
000001f0: f038 eebd 5959 0b3e bf26 993d f1d7 a13b
00000200: aa18 78bd a734 b43c 9a0d c93d 3f11 9dbd
00000210: 50c1 403d 43a0 c9bd c99c 50be 4bd7 2dbe
00000220: 5f14 25bd 8a01 ffbd e039 3d3e cf76 05be
00000230: db91 19be 5089 4a3e 4d8b 89bd 5824 96bd
00000240: 32b3 1f3e 03b7 e8bb 747c 253e 157f 9f3d
00000250: 6ed6 4cbe c100 59bd 4344 c1bd a78b 73be
00000260: 43e9 07bd dc9b dfbd bb6a c5bd 79e6 113d
00000270: 78b1 133e ad15 6a3d b144 be3d 3257 0abe
00000280: 757c 5e3e 4533 583d 8851 123d bddc 613e
00000290: 6dcc 03bc 5d28 46be bea5 b8bd 4b04 993c
000002a0: a9d1 eebc 1d8d 9f3d 86d5 1dbe 0fa5 38be
000002b0: fdec 8bbd dcee 3e3e dfb2 22be c9df 1abe
000002c0: c794 103e 644f d9bc cef2 903d bc8e 9cbd
000002d0: c1e1 f33d 3cdc f53c 05f0 e43d 2694 efbd
000002e0: e17d 043e f5a0 0d3e bdb1 61bd 0a80 0cbe
000002f0: e81b f7bd 8990 2bbc 0f38 95bd 660c ecbd
00000300: af30 0fbe f624 be3c 1ec2 5a3d 47e0 2dbc
00000310: 8adf 02be 9d01 af3c 79fe 1d3d 2828 88bd
00000320: c585 eabd f2b9 0e3e 29bb a93d b54e 69bb
00000330: 4c7c d0bd 5a7c c13d 6fba ef3d f5a2 2c3d
00000340: f361 b13d 7be3 5a3d bda9 cd3d 34ea c93c
00000350: 7cfe b6bd 3bc7 1dbe 599f 283e bfa3 2dbe
00000360: 8e65 073d b640 22be 08e5 013e 194c dc3d
00000370: 145a 91bd 41c2 003d 3b58 273e 17c8 be3d
00000380: 4f71 603d 7b52 f6bd 65fe cb3c 20a3 28be
00000390: 4e2e 95bd 4e7c debd 10db 4e3d efb5 d2bd
000003a0: 815e 84bd 129b 35be 2937 3f3e e174 363d
000003b0: b7f6 083d d4cc a13b 77d0 023e c6e2 593d
000003c0: 5cb5 b73d 808a cfbd c799 1ebe 6d01 133d
000003d0: b599 ffbd 3c14 1abd b99f 533a abb8 27bd
000003e0: 7907 133d c1c1 5fbc 0322 abbc 77de 053d
000003f0: 69bd 0bbe 5168 123e 970f d1bd 7464 83bd
-0.12122408 -0.03119109 -0.10794622 -0.1466666 0.028497618 -0.10229455 0.18568154 0.114613995
-0.14059909 -0.03617722 -0.09603079 -0.099258386 -0.14315067 -0.12929313 0.048508927 0.16450754
-0.06267583 0.037388742 0.085064545 0.14158653 0.04912225 0.10549623 -0.10298681 -0.09135066
0.1687773 -0.014755839 0.048255116 0.13906968 -0.18509851 0.05113627 0.18899804 -0.06315842
0.07967412 -0.09181944 0.11891871 -0.024084475 -0.076308 0.038136907 0.122549534 0.020923717
0.16620137 0.01901835 -0.11398967 -0.13715804 0.14150397 0.15576507 -0.10409593 0.10699275
-0.08561321 0.13164555 0.16332762 -0.13718477 -0.03832115 0.12933722 0.056676954 -0.055694018
0.03218928 -0.089510575 -0.0020847607 -0.15204471 0.06514401 -0.15978247 0.16989121 0.05698905
0.06706154 -0.17682502 -0.04778079 0.05278147 -0.01361824 -0.0646688 0.05788935 0.0017157185
0.022640083 -0.10865158 0.16934276 0.13777214 0.113327004 0.15853958 0.06485585 0.086886935
0.08133484 0.061699595 -0.10865061 -0.12307759 0.03366174 -0.06891663 -0.16403171 -0.14782058
0.03583862 0.10563983 -0.11184551 -0.08618563 0.06563768 0.05304508 0.0314241 -0.011568767
0.17047475 -0.0034436078 -0.17009112 0.09997207 -0.007941217 0.13800977 0.1376999 -0.1330123
0.014640894 -0.043421682 -0.056436077 0.13917832 0.16390967 -0.04130759 -0.16350575 0.031650733
0.16042875 -0.07531556 -0.17943211 -0.10692432 0.059419442 0.1669201 0.091511816 -0.1781726
-0.120475136 -0.036575537 -0.046658095 0.08867014 -0.11631954 0.13608302 0.07478093 0.0049390723
-0.060570396 0.021997763 0.098170474 -0.07669305 0.047059357 -0.098450206 -0.20372309 -0.16976659
-0.04030263 -0.124514654 0.18479109 -0.13033603 -0.14997046 0.19778943 -0.06716023 -0.07331151
0.15595701 -0.007101895 0.16160756 0.07787911 -0.20003673 -0.052979235 -0.09436848 -0.23783742
-0.03318144 -0.109184 -0.09639498 0.035620186 0.14423168 0.057149578 0.092904456 -0.13509825
0.21727164 0.05278327 0.035722286 0.22056861 -0.008044344 -0.19351335 -0.09015988 0.018678805
-0.029152708 0.07790587 -0.15413484 -0.18031715 -0.06832311 0.18645805 -0.15888546 -0.1512443
0.14119254 -0.026527114 0.07077561 -0.07644412 0.119082935 0.030012242 0.111785926 -0.11698179
0.12938644 0.13830931 -0.055101145 -0.13720718 -0.120658696 -0.010471472 -0.07286083 -0.11525802
-0.13983415 0.023210984 0.05340778 -0.010612554 -0.12780586 0.021363074 0.038572762 -0.06648284
-0.11451296 0.1393812 0.08287651 -0.0035599892 -0.10179958 0.09447546 0.11705481 0.042147595
0.086612605 0.0534396 0.10042141 0.02464781 -0.08935258 -0.15408032 0.16467036 -0.16956995
0.033055834 -0.15844998 0.12685025 0.10756702 -0.07097259 0.031435255 0.16342251 0.09315508
0.05479556 -0.12027451 0.024901578 -0.16468477 -0.072842225 -0.10863553 0.050501883 -0.10288607
-0.06463338 -0.17734936 0.18673386 0.04454506 0.03343841 0.0049377475 0.12774836 0.053194784
0.089701384 -0.10133839 -0.15488349 0.03589003 -0.12480489 -0.037616953 0.0008072812 -0.040947597
0.0358958 -0.013657034 -0.020890241 0.032682862 -0.13646473 0.14297606 -0.10208052 -0.06415644

rnn.weight_hh_l1 f4 [32, 32]
00000000: 916d 09be 7082 003e 6149 b1bd 17c7 3d3e
00000010: 2046 27bc 0299 18be 6e88 d53d 65bd 2f3d
00000020: f260 4fbd 2097 463a 239e 373c 3b19 fa3d
00000030: 6bc2 30be 5707 a0bd 835c 943b 3ae4 7e3c
00000040: 18b0 033e b413 45ba ecb6 613b 1929 d33d
00000050: 3c3b c7bd 4803 fa3c 5080 6c3d 334b a8bd
00000060: e448 a8b9 5202 313e e1b3 dabd 2104 233d
00000070: 9f38 213d 24b4 823d e400 aa3d 2319 2a3d
00000080: 640f e5bb 3b64 19be e573 af3d 1860 a6bd
00000090: 82c7 f1bd 92fc f23d 4f47 3ebd 89b2 5ebd
000000a0: 6012 393e 307f 65bc 16b5 00be b49f 8abd
000000b0: 4e3c bdba c557 253d 2cdb 32be deee f63d
000000c0: 706a 89bc 314d 17be 9c82 02bd 3d82 893d
000000d0: f4bb fc3d 65f5 97bd 600d 31be f969 39be
000000e0: 316d c63c 8087 29be d639 1ebe b0a9 92bd
000000f0: aec2 8f3d 6337 86bd 3e72 c93c 7b0b 95bd
00000100: f197 c3bd 5b19 be3b 16e6 d23c 2dd8 8bbd
00000110: 2704 463d 8186 24bd 9a08 d43d 3207 0e3e
00000120: e135 e43d b7c8 19be 4b24 ef3d 51ad ed3d
00000130: aa8d e6bd 8033 cdbd 3634 143e 6c58 bdbd
00000140: a5a9 03be aa13 e9bc 80cf 37bd f38e 003c
00000150: 521d 87bd 4063 0abe 91e6 df3d 0abe 023e
00000160: 8ce5 ea3c 207d 58bc 835d 943c d21c bcbd
00000170: 02d8 8abd 222f 393d 1057 cdbb 4ae1 2bbe
00000180: 3099 0d3e 984d 223e 4143 10be 6885 b63c
00000190: 3f66 633d 8e46 3e3e 0b7a 303e 0533 dc3c
000001a0: 7cfe 253d f878 bf3c efa4 05bc bd8b f53a
000001b0: 1080 26be 2bbf d63d 3ab9 2fbe 5b42 dfbd
000001c0: ae58 a63d 4575 77bd 3f8f 833d 2334 0a3e
000001d0: 4ab7 ce3d 7cb6 2eba 918e 1abe 0de9 c6bd
000001e0: 9f6e c83d 20db db3d a3d8 bfbd 1ef8 e0bd
000001f0: 3847 4f3c 992c 40be 4911 0c3e 16fd 303e
00000200: 0d7d 193e 5239 783d b9c2 6dbd 698d 033e
00000210: 000a 2bbd 7a6f 00be 7f74 4a3c b877 09be
00000220: d90a 233c 2de8 33bc 9a2b 43be c38a d43d
00000230: db17 3cbd e1d4 6c3a 852f e83d 1a67 13be
00000240: f741 953d 1c18 2fbd 3eaa b43d 4036 1fbe
00000250: 0e9b ca3d 2796 81bd 426a 80bd 6aff b03c
00000260: 14e0 8a3d f198 003c 8526 8ebb ad49 083e
00000270: 1e2a 76bd 7c63 42be b051 283e 39f9 11be
00000280: 8f0a 863d 44b5 873d 6874 e03d b8b5 0cbe
00000290: 3cf7 1fbe 1121 053d 3ce0 27bd fb76 d43d
000002a0: ea83 e0bd 9a48 933d 5bde fa3d 9b68 093e
000002b0: 66a5 043e f0a0 cbbb 0514 f2bd 79f9 c63d
000002c0: 26b9 103e 92dd f3bc 55a8 893d eff4 6d3d
000002d0: 945e 143e cb80 1c3e 2c52 fd3d f284 a63d
000002e0: 50bf 04be 49ed 833d 64f5 21be 5055 c3bd
000002f0: d442 413d 6261 1fbe d5ef 073d b316 ef3d
00000300: 5227 f7bd 6650 813c 345a 0f3e 1876 b43d
00000310: 43b6 a03c e9c0 033e 83c6 1d3c 3761 1fbe
00000320: f764 3f3d 4390 68ba 47bb a1bd 44de ccbd
00000330: 840b 1f3d dc41 8e3d e5b3 823d ed72 1dbc
00000340: d23f 823d 7dd2 f0bc 8184 653c dbf3 783d
00000350: 0182 03be b56e 343d 9492 83bd 7e6b ca3d
00000360: fea8 42bd b0ca bbbb aad7 143d b262 2f3e
00000370: db32 1f3e 6037 2dbe fcc0 8cba 539f 82bd
00000380: 481b bcbc 2a60 0cbd d52c 953d 1fc0 0dbe
00000390: f9d4 693d 8a8e 203d d6b4 2dbd 263e 16be
000003a0: 5bd8 5bbd d43d 2ebe 4d96 95bc aae6 fabd
000003b0: 1c72 3e3e 2843 0b3e b925 6c3d 2e7c ac3d
000003c0: c807 e3bb dba0 bcbd 3dba 05be e371 5ebd
000003d0: 1b0f 5bbd 0315 da3d 436a 2f3e 49ed 983d
000003e0: 43be 073e ae95 21be 2e44 83bb 3e20 823d
000003f0: 1e56 a7bd d146 2fbe 7559 a1bc 3f69 10be
-0.13420703 0.12549758 -0.08656574 0.18532978 -0.01020959 -0.14902118 0.104264125 0.04290523
-0.050629564 0.000757562 0.011207136 0.122118436 -0.17261665 -0.078139 0.00452763 0.015557343
0.12860143 -0.00075178896 0.0034441305 0.10310573 -0.09728095 0.030519143 0.057739556 -0.08217468
-0.00032097765 0.17286041 -0.106788404 0.03979886 0.03936064 0.06382015 0.08300951 0.04152788
-0.00699036 -0.14979641 0.08567027 -0.08123797 -0.11805631 0.1186458 -0.046454724 -0.054369483
0.18073416 -0.014007375 -0.12569079 -0.06768742 -0.0014437528 0.040366907 -0.1746642 0.12057279
-0.016774386 -0.1477554 -0.03186284 0.06714294 0.12340537 -0.07419852 -0.17290258 -0.18106832
0.024221988 -0.16555595 -0.1545175 -0.071612716 0.07019554 -0.06553533 0.024590608 -0.0727758
-0.09550465 0.0058013625 0.02574448 -0.06828342 0.048343804 -0.040167335 0.10353203 0.13869932
0.11143089 -0.15017973 0.11676844 0.11605323 -0.11257489 -0.100195885 0.14473042 -0.09245381
-0.12857683 -0.02845176 -0.04487562 0.007846582 -0.06597389 -0.13514423 0.10932649 0.12767807
0.02867391 -0.013213426 0.018110996 -0.091851845 -0.067794815 0.045210965 -0.006266482 -0.1678516
0.13827968 0.15849912 -0.14088155 0.02228041 0.05551743 0.18581602 0.17234056 0.026879797
0.0405259 0.023373112 -0.008156999 0.0018733662 -0.1625979 0.10485681 -0.17160502 -0.10901328
0.08122383 -0.06041457 0.064238064 0.13496451 0.10093553 -0.00066647655 -0.15093447 -0.0971242
0.09786724 0.10735154 -0.09367492 -0.109848246 0.012651257 -0.18767013 0.13678469 0.17284045
0.1498911 0.06060154 -0.05804703 0.12846912 -0.041757584 -0.12542525 0.012356876 -0.13424575
0.009951317 -0.010980648 -0.19059601 0.10378029 -0.045921188 0.0009034407 0.11337189 -0.14394799
0.072879724 -0.042747602 0.088215336 -0.15548038 0.098928556 -0.063274674 -0.06270267 0.021606166
0.06781021 0.007848964 -0.004338088 0.13309355 -0.06009876 -0.18983263 0.16437411 -0.14255227
0.06544983 0.066263705 0.10959703 -0.13741195 -0.15621656 0.032502238 -0.04098533 0.10374256
-0.109626606 0.07191582 0.12249442 0.1341881 0.1295372 -0.0062142536 -0.11820225 0.09715552
0.14133129 -0.029768739 0.0672156 0.058094915 0.14489204 0.15283506 0.12369189 0.08130826
-0.12963605 0.06441743 -0.15816265 -0.095377564 0.047182873 -0.15564492 0.033187706 0.116742514
-0.12068047 0.015785407 0.13999254 0.08811587 0.01961816 0.12866558 0.009629848 -0.15564428
0.046727147 -0.00088715943 -0.078970484 -0.10003331 0.03882934 0.069461554 0.063819684 -0.00960992
0.06359829 -0.029397244 0.014008642 0.060779434 -0.12842561 0.04405089 -0.06424442 0.09883784
-0.047524445 -0.0057309493 0.036338486 0.17127493 0.15546744 -0.16915655 -0.0010738666 -0.06378045
-0.022962227 -0.034271397 0.07283942 -0.1384282 0.057087872 0.039198436 -0.042408787 -0.14672145
-0.05367313 -0.17015773 -0.018260146 -0.12251027 0.18598217 0.13599837 0.057653163 0.08422123
-0.006928418 -0.09210368 -0.13059326 -0.05430783 -0.053481203 0.10648539 0.1713038 0.074671336
0.13256173 -0.15779755 -0.0040059304 0.06353806 -0.081707224 -0.17116858 -0.019695977 -0.14102648

rnn.bias_ih_l1 f4 [32]
00000000: 7a30 113e a08c 0fbd 6744 26be 47a5 f1bc
00000010: 2095 ecbd dcca cfbd c100 b63b 7327 a8bb
00000020: 6c18 8abd db12 e2bd 3e73 27be 2c33 a23b
00000030: 4778 babc 8cc1 ac3d b962 f23d 3373 adbd
00000040: 175c 253e 2b51 003e 1e60 763d 532e efbd
00000050: ba93 703d e215 1ebe 7ac8 e6bd cf33 a53d
00000060: 9cc8 9e3d 3a86 8c3d 0405 f23d b27f 033e
00000070: 6d8b 383e 06d7 f1bd 9e46 66bd fc28 073e
0.14178649 -0.03504622 -0.16237031 -0.029497756 -0.11551881 -0.10146114 0.005554289 -0.005131656
-0.06742939 -0.11038753 -0.16352555 0.004949948 -0.02276243 0.08435354 0.11835236 -0.08469238
0.1614841 0.12530963 0.06015026 -0.116787575 0.058734633 -0.15438035 -0.112687066 0.08066522
0.07753107 0.06861539 0.11817363 0.1284168 0.18021937 -0.118085906 -0.05621969 0.13199228

rnn.bias_hh_l1 f4 [32]
00000000: 41ca 753d 5474 e73b ce79 1dbe 25a5 afbd
00000010: d467 333e b84d 113e 88c0 00be 2900 12be
00000020: f66b 313e cb16 10be 2aab f1bc 8c65 1a3e
00000030: e801 8abd e13b 22be c404 f1bd 574e eabd
00000040: 26fd f0bd c95b 673d f99b 223e 8a6e b73c
00000050: 3c62 2d3d 47b4 98bd 6d1c 013e 8652 9b3d
00000060: 834e 9bbd 3c56 c9bb 2010 ef3d cd4b 34be
00000070: 3f21 e43b bc86 27be 32a2 11be 46d9 063e
0.060007337 0.007063428 -0.15378496 -0.08576421 0.17520076 0.14189804 -0.12573445 -0.14257874
0.1732634 -0.14071195 -0.029500563 0.150778 -0.06738645 -0.15843154 -0.11768487 -0.114407234
-0.11767034 0.056484018 0.15879811 0.022391576 0.04233001 -0.0745626 0.126085 0.075840995
-0.07583334 -0.006144313 0.116729975 -0.1760704 0.006961971 -0.16359991 -0.14222029 0.1316882

rnn.weight_ih_l2 f4 [32, 32]
00000000: a108 e83d bbb6 5a3d fb94 f83d 3422 2dbd
00000010: 7f63 bf3d 9651 d23d f35f 723d 0906 07be
00000020: bf4b 34be 5c99 83bd 78c9 cd3d dc89 1f3e
00000030: 4256 ca3d 8c19 1d3e 1008 28be 73b7 b4bc
00000040: c133 103e fd96 ec3d 39dc b63c c436 21be
00000050: a64d db3c f154 e6bd 882f 993d f42c 03bc
00000060: af82 e4bd 0e39 293e 3765 cebd c240 5e3c
00000070: dfb9 3f3a a4de 1a3e 1415 1fbe 8445 11be
00000080: e0b3 3abe ccf1 9b3d 03e6 cebd b72c e8bd
00000090: bb1b d8bd fefe dfbd 150f 1d3e 9ace 38bd
000000a0: e530 5abc 856a 203e 6531 21be 3277 443d
000000b0: b1d0 9d3c 13b9 ea3d 76cf af3d 93ec 013d
000000c0: a146 013e a83a 453e e938 08be 85cc 7ebc
000000d0: 2085 ea3d 0fa1 f6bd 3737 873d 4f3b 21bd
000000e0: b005 b63d cf76 ecbd 2196 e23c d44e e3bd
000000f0: 74f3 fdbd ae1a d23d 595f e13c a02d 843d
00000100: b180 e6bd 3027 8cbd ae8e fdbd 3319 c5bd
00000110: 415b 023e 9de5 57bd 6a88 3fbe 52e1 73bc
00000120: c2f7 283e 0492 353e 3042 863d 7d2f 923d
00000130: fb35 03bd 943c b13d 4124 f5bd 0625 85bd
00000140: 534c 213d 612f 083e aa78 2ebd c473 94bd
00000150: d641 f2bd c4f2 f43d 910e ef3a 4d94 f43d
00000160: 47d3 34be bf01 be3d a77f 18be d28b 213e
00000170: 0d57 b23c d911 a63c 0dc0 c5bd d94d 9bbd
00000180: a5f0 f03d 0ab2 85bd 6fac 003e 2878 d2bd
00000190: 3c2b a13d f1e7 323e cc3e 0bbd 14a3 0f3e
000001a0: d982 7b3b c47e 263e 2e0b 6bbc fc2e bdbd
000001b0: bff1 213e ee75 623d 836b babc a930 bcbc
000001c0: dd98 18be e168 ea3d a5f1 f73d 53b4 1cbe
000001d0: c450 803d 75f8 17bd 18a2 2e3e f8e9 d83b
000001e0: be93 e2bd a797 2a3e 7f45 e5bc 9782 2f3e
000001f0: 1fec 8fbd 6792 393d c0ff 61bc 12a9 d3bd
00000200: 306e 443d 027b e0bc 5a3b b8bd b94e afbd
00000210: 8d2e 29be 44ca 12bb 51a8 0f3e d288 ccbd
00000220: ad86 93bd b11d eabd a744 ad3d 6be5 13be
00000230: fd31 d8bd 5c7c 07be f576 00be 9e00 fc3d
00000240: 2044 0d3e 0cd5 06be fc56 ab3d c301 2d3d
00000250: 9026 0ebe 4fb0 a0bb 89aa 063e d9e7 fc3d
00000260: 51e2 073e 4109 f6bd b846 26be e80e 323e
00000270: 1f4f 21be 9d14 5d3e cd61 ed3d 4833 063e
00000280: f61e 29bd c86c ddbd ef7e 333e 019d 61bd
00000290: 6089 ccbd 5067 f0bd ccc0 273d cc95 d2bd
000002a0: 26be a93d 7323 dd3c b27c 843d d1bb f33d
000002b0: 3ec7 cabd 027a 76bd 4742 79bd 210d a8bd
000002c0: 9e16 963c ece2 353c e839 c33d 5b54 f5bc
000002d0: 6928 c2bd fd35 01bd 65f6 c23c 98e7 063e
000002e0: 66b7 e43d 0f00 0c3e 5e92 c5bc 0b5e 273e
000002f0: da05 363e a35d 9abd 7843 afbd 1f05 113d
00000300: 93dd 203d 2cd1 dcbb ac9e a53d d658 0abe
00000310: ccd8 2dbe 0937 78bd ae92 533c dd12 043d
00000320: a854 d8bd 3587 b5bd b37f c8bc 3c1e 943b
00000330: 73d3 2c3e a734 4cbd ee08 f9bd c85e 953d
00000340: f2a8 8c3c c8bb 2a3e eaa6 bcbd 0f30 e0bd
00000350: 779d 713c 5497 9dbc b81b af3d 7416 af3d
00000360: 8630 4fbe 9443 bbbc 5d4c 34be de53 723d
00000370: 3161 a23d 6a6d 0dbe 50f6 04be c686 f6bc
00000380: 7078 ca3d c089 853d acdd 0a3e 5c81 e23c
00000390: 5c08 fcbc 9adc 19be ae90 8f3c 28a1 71bd
000003a0: d6fb d63c 5ee5 bcbd 2fb1 74bd 1b91 19bd
000003b0: f16f 213e 9738 ed3c 534e e8ba e5a5 17be
000003c0: 7320 2ebe e92a 673d cb50 1f3d 38aa 373e
000003d0: 78a7 65bc a28c f0bd 756e 0fbe 78cd 8cbd
000003e0: ce33 ab3d 056b 0dbe 0b2f 613d 5d52 b63b
000003f0: 40a7 b9bd f0b9 2d3e 9dae ec3d ebff 483c
0.11329771 0.05339692 0.12137791 -0.042268947 0.09345149 0.102694675 0.059173536 -0.13185896
-0.1760702 -0.06425735 0.10048193 0.15579933 0.098797336 0.15341777 -0.16409326 -0.022060132
0.14082243 0.11552236 0.022321807 -0.15743548 0.026770424 -0.1124667 0.07479769 -0.008006323
-0.111577384 0.16525671 -0.10077899 0.013565244 0.0007313769 0.15123993 -0.15535384 -0.14186674
-0.1823268 0.076144785 -0.10102465 -0.11336654 -0.10552164 -0.10937308 0.15337785 -0.045118906
-0.013317321 0.15665634 -0.15741499 0.047965236 0.01926455 0.11461081 0.08584492 0.031719755
0.12624599 0.19260657 -0.1330296 -0.015551691 0.11451173 -0.12042438 0.06602328 -0.0393632
0.088878036 -0.115460984 0.027659478 -0.1109902 -0.123999506 0.10258995 0.027511286 0.06454015
-0.11255015 -0.06843412 -0.123807296 -0.09623947 0.12730123 -0.05270921 -0.18704382 -0.0148852635
0.16500762 0.17731482 0.06555593 0.07137964 -0.0320339 0.086541325 -0.119698055 -0.06501202
0.03937943 0.13299324 -0.042595543 -0.07248643 -0.118289635 0.11960366 0.0018238594 0.11942349
-0.17658721 0.09277677 -0.14892446 0.15775993 0.021770025 0.020272182 -0.096557714 -0.07583208
0.11764649 -0.06528099 0.12565778 -0.10276824 0.078695744 0.17471291 -0.033995435 0.14027053
0.0038377552 0.16259295 -0.014345927 -0.09237477 0.15814875 0.055288248 -0.022756344 -0.022972422
-0.14902063 0.11445785 0.12106637 -0.15303163 0.06265405 -0.03710218 0.17054021 0.006619688
-0.11063336 0.16659413 -0.02798724 0.1713966 -0.070274584 0.045305636 -0.013793886 -0.10334982
0.047956645 -0.027402405 -0.089956954 -0.08559937 -0.16521664 -0.0022398392 0.14029051 -0.09987034
-0.07203422 -0.114314444 0.0846036 -0.14442985 -0.105564095 -0.13231033 -0.12545379 0.12304805
0.13795519 -0.13167208 0.083662 0.04223801 -0.13881898 -0.00490383 0.13150991 0.12348909
0.13269927 -0.12013484 -0.16237915 0.17388499 -0.15752839 0.21589895 0.1159092 0.131055
-0.041289292 -0.10811764 0.1752889 -0.05508137 -0.0998714 -0.11738455 0.04095535 -0.10282478
0.08288221 0.026994443 0.06469096 0.119010575 -0.09901284 -0.06017495 -0.060854223 -0.08205629
0.018321332 0.011101466 0.09532529 -0.02994745 -0.09480364 -0.031545628 0.02379913 0.13174284
0.11167793 0.13671897 -0.024117645 0.16344468 0.1777567 -0.07537391 -0.085577905 0.035405274
0.03927381 -0.0067388024 0.08086905 -0.1351045 -0.16977233 -0.06059936 0.012913389 0.032244552
-0.10563022 -0.08863679 -0.024474954 0.004520206 0.16877536 -0.0498549 -0.12159906 0.07293469
0.017170403 0.16673195 -0.09211524 -0.109466664 0.014747015 -0.019237198 0.08550209 0.085492045
-0.20233354 -0.022859372 -0.17607255 0.059162013 0.07928694 -0.1381127 -0.12984586 -0.030093562
0.09886253 0.06520414 0.13561124 0.027649574 -0.030765705 -0.15025559 0.017525043 -0.05899158
0.026243132 -0.09223436 -0.059739288 -0.0374919 0.15765359 0.028957648 -0.0017723538 -0.14809377
-0.17004566 0.056437407 0.03889541 0.17936027 -0.014016978 -0.117455736 -0.1400698 -0.068751276
0.0835949 -0.13810356 0.054976504 0.0055640177 -0.090651035 0.16965461 0.11556742 0.012268047

rnn.weight_hh_l2 f4 [32, 32]
00000000: 33fe 04bd 1e76 e3bd c29d bd3d 7a21 333e
00000010: d790 233e 0800 83bc 0cfa 3dbd 0523 b4bc
00000020: 05ac e3bd f250 88bd cd35 29be 6bc3 313e
00000030: ddef 27be ea7b 72bd e916 e13c c8e6 24be
00000040: 117e 5abd 6620 6c3c faac 193c b656 8bbd
00000050: d620 cc3c fb8d 01be f32e a3bd 000f 9d3d
00000060: 4296 b93d 797b 84bd e4e2 e63d 1640 9c3c
00000070: f836 cabd a6b6 fd3d bc74 2a3c fdd5 16be
00000080: 3ba1 ac3d b1e2 1fbe 07f9 31be 3dcc 95bd
00000090: 1f8a 573d 326a 03be fb23 f6bd 483e 03be
000000a0: 8e7d 84bd 5c4b f23d ae09 c2bd ba98 bebc
000000b0: adb5 32bd 584f 17bd 5dcc 133e 5c2b 09bd
000000c0: bd3b ac3c 4c57 553d 676b 6c3d 02e2 603d
000000d0: ed63 093c 855e 28be f2f3 94bd 2953 74bd
000000e0: 8df3 bd3d c5b6 f23d 0486 2b3d d474 a13d
000000f0: 1557 d6bc 7057 24be 2d66 cfbb 7e2d f53c
00000100: 3ea4 553d 2919 863d 3418 40bd d083 13be
00000110: 281c 2bbd b49f 1b3e 2eeb ed3c e3ba 46be
00000120: 0066 883d 2be4 2e3e 0a76 643d 1247 7e3d
00000130: 6a04 dcbc 1102 aa3a d4b7 ac3d e5b2 acbd
00000140: 3a8f f33d e9a1 a6bd f799 0a3e 25b3 4dbd
00000150: 7998 0fb9 f06a a8bc 7817 19bd 7a2e a93c
00000160: 6f8d 84bd 8a93 fc3d 852c b2bd f0d9 22be
00000170: 9bbf f3bc ed44 12bd e8a4 ec3d e886 db3d
00000180: f5ef 233e 49fa e3bd 3123 ad3d 755c 83bc
00000190: 3c7e 893d 01f3 12be 2c23 a93d 09fd e3bc
000001a0: decb 41bd 029c a8bc c47d 0ebb 7ed6 63bd
000001b0: e44a 6cbd ca80 46be ebce 16be 7009 38be
000001c0: c8a8 1fbe 2207 9b3d 4cec 2a3e d710 c5bc
000001d0: 99e9 f7bd 0688 b6bc b77e 15be c6b8 1b3d
000001e0: b222 bf3d d33d 04be 26aa 333c 2e5a e5bc
000001f0: 9e0a 00be c5c3 acbd 5d20 cc3d a8f8 ec3d
00000200: 0cf9 d83d 4e0a 09be 9df4 c9bd bc02 65bd
00000210: 2ede 86bd 4e2f 1a3e b600 0d3e 3adb 99bd
00000220: 3d5b edbd 6de8 3cbd 6841 f73d db9e 07be
00000230: 8b46 c93b 23fd 1cbe d5fa 05be 8bd7 80bc
00000240: 24ed 623d 44c7 47be bec1 ad3d 9f10 03be
00000250: b471 0ebd 3dd4 063e 13fa 8dbd 6fe1 09bc
00000260: f574 34be 8981 0d3d 32a3 98bc b3ee ef3d
00000270: 9b4c 13bd a3ac e9bd a305 dfbd 46bf 193e
00000280: 0e67 8d3b 086b de3d 169f f3bd 0bfb df3d
00000290: 3d59 113d 8b9c 38bd 149d b7bc 2fac e63d
000002a0: 065a 24be adae 49bd 9615 15be 401a 143d
000002b0: ac44 abbd 6473 a83c de3f 0b3e 1c65 c8bb
000002c0: 84d4 13be 110d b13a 9878 173e 0e14 6cbd
000002d0: df5e 233e ac97 f43b 1b45 173d cf07 523d
000002e0: 449e 7abd c1cc bc3d ef19 df3d f23d b03d
000002f0: 4234 343d 1e50 713d f783 a5bd baa3 06bd
00000300: 355a eabd 90e3 edbd fd84 443e 7889 6f3d
00000310: a23a e8bc 26bc 51bc 9233 90bc 4fb0 a3bd
00000320: e810 45bd 5232 493c 908c 163d e801 dbbc
00000330: c2ba bdbd e3d8 ef3c 1c3e 383e 6d21 f0bc
00000340: be33 b1bd 19f3 073e 16df c8bd 7e91 673c
00000350: c5e5 b93d 4df1 1f3e f57c dfbd a8b8 f63d
00000360: 0cf4 063e 5ac8 643d 9ca6 ce3d 362f 0f3d
00000370: 6acf d5bd 0112 e63d 7a56 a63d 6e01 683d
00000380: 8c81 1e3e 3b40 f93b afc9 a23d bdef cebd
00000390: f7a4 dc3d e6f3 f03d 9a94 c2bd 80b3 063e
000003a0: df65 95bd b8f2 1a3c 2227 033d 43b5 373e
000003b0: b0b1 e1bc 153c dc3d 44d9 03be e213 52bd
000003c0: b81b 0ebe e415 00be ad23 983d cc41 48bd
000003d0: 2afb 013e c9d4 8fbb e43d 09be 28d3 b83d
000003e0: ef0c 95bc a8b4 893d 1407 7c3d d395 95bd
000003f0: 94ce a6bd f306 b5bc fa73 90bd e962 183e
-0.032468986 -0.111065134 0.092586055 0.17493239 0.15973221 -0.015991226 -0.04638104 -0.021989355
-0.111167945 -0.06656064 -0.1652443 0.17359702 -0.16400094 -0.059200205 0.027476745 -0.16103661
-0.053342883 0.014412021 0.00937962 -0.06803648 0.024918001 -0.12651818 -0.07967939 0.07668877
0.090618625 -0.06468863 0.11273745 0.019073527 -0.09873766 0.12388353 0.010403808 -0.14730068
0.0842919 -0.1561382 -0.17380153 -0.07314346 0.052621957 -0.12833479 -0.120185815 -0.12816727
-0.0646926 0.1183078 -0.094745025 -0.023266185 -0.04363029 -0.036940902 0.14433427 -0.033488616
0.02102458 0.052085206 0.057719614 0.054903038 0.008385641 -0.16442306 -0.072730914 -0.05964962
0.09274969 0.11851267 0.041875854 0.07883611 -0.02616457 -0.1604898 -0.006329319 0.029928919
0.052158587 0.06547768 -0.046898082 -0.14405751 -0.0417749 0.1519764 0.029042806 -0.19407229
0.0666008 0.17079227 0.055776633 0.062079497 -0.026857574 0.0012970587 0.084335 -0.08432559
0.11892553 -0.08136351 0.13535295 -0.050219674 -0.00013694343 -0.020558804 -0.037375897 0.020652045
-0.06472289 0.12332828 -0.08699898 -0.15903449 -0.02975445 -0.035710264 0.11554891 0.10719091
0.16009505 -0.111317225 0.08453978 -0.016035298 0.067135304 -0.14350511 0.08258662 -0.027830618
-0.047313564 -0.020582203 -0.0021742443 -0.055624478 -0.05768861 -0.19385067 -0.1472737 -0.1797235
-0.15591729 0.0756972 0.16691703 -0.024055881 -0.12105102 -0.022281658 -0.14599119 0.03801801
0.093327895 -0.12914209 0.0109658595 -0.027997103 -0.1250405 -0.084357776 0.0996711 0.11570865
0.10594377 -0.13382837 -0.098611094 -0.05591081 -0.06585346 0.15057108 0.13769802 -0.07512517
-0.11589668 -0.046120096 0.12073022 -0.13244192 0.0061424426 -0.15330939 -0.13083966 -0.015727779
0.055401936 -0.19509608 0.08484219 -0.12799309 -0.034776405 0.131669 -0.069324635 -0.008415564
-0.1762274 0.034547362 -0.018632505 0.1171545 -0.03596173 -0.11409881 -0.10889747 0.15014371
0.0043152636 0.10860258 -0.118955776 0.109365545 0.035485495 -0.045071166 -0.022413768 0.1126331
-0.16049966 -0.04923885 -0.14559016 0.036157846 -0.083627075 0.020562835 0.13598582 -0.006115569
-0.14436537 0.0013507922 0.14792097 -0.057636313 0.15954159 0.0074643698 0.03693114 0.051276978
-0.06118609 0.09218741 0.10893618 0.08605565 0.04399515 0.058914296 -0.08081811 -0.032870986
-0.11442987 -0.1161567 0.19191356 0.05848071 -0.02834827 -0.012801206 -0.017602716 -0.079926126
-0.048111826 0.012280064 0.036755145 -0.026734307 -0.09264137 0.029278224 0.17992443 -0.029312814
-0.08652447 0.13276328 -0.09808175 0.014133809 0.09077028 0.15619393 -0.109125055 0.12046939
0.13179034 0.055855133 0.10090372 0.034957133 -0.10439952 0.11233903 0.08121963 0.05664199
0.15479106 0.007606534 0.07948624 -0.1010432 0.10773652 0.1176527 -0.09501 0.13154411
-0.07294821 0.009457283 0.03201974 0.1794024 -0.027550548 0.10753647 -0.12875849 -0.051288493
-0.13877761 -0.1250835 0.074286796 -0.048890874 0.12693468 -0.0043893796 -0.13402516 0.0902465
-0.018194644 0.067239106 0.061530188 -0.07303967 -0.081448704 -0.02209804 -0.07053371 0.14881481

rnn.bias_ih_l2 f4 [32]
00000000: d44a ff3c bb1a 143e 5632 ef3d 55a5 ddbc
00000010: c7fb 3cbe a8e9 d53d fde4 b5bd 8cc9 f1bd
00000020: db81 bc3d 954c ed3d c183 f73d 7675 8abc
00000030: 0e2e 0abe b336 42bd 5007 efbd 2009 e03d
00000040: 0d32 05be b559 2d3e d9db 043c 3fb5 31bd
00000050: d7de 3ebd ec50 2fbe 3a4f ba3c 237e 933c
00000060: 9d17 24be 3433 d2bd ea08 093d 8fef 183e
00000070: 2aab dfbd 71d3 fe3c b376 c6bc 7f38 abbc
0.03116361 0.14463322 0.11679523 -0.027056376 -0.1845542 0.10444957 -0.08881567 -0.1180602
0.092044555 0.115868725 0.12085677 -0.016901713 -0.13494131 -0.047415446 -0.116713166 0.109392405
-0.13007374 0.16928752 0.008109056 -0.04338574 -0.046599235 -0.17120713 0.022742856 0.018004483
-0.16024633 -0.102636725 0.033455767 0.14935134 -0.10921319 0.031106682 -0.024226522 -0.020900963

rnn.bias_hh_l2 f4 [32]
00000000: cdd3 1dbd dc95 ff3d c0c3 33bd 0067 6e3c
00000010: 3af3 d4bc f140 f1bc 5e46 cabc 57c7 00bc
00000020: 5a0e c03d b522 103e 1087 44be aa1c 06be
00000030: 2f94 0abe 2004 04bd d15d 19be 4194 09bc
00000040: 8b1f 543d 5444 223e b250 61bd c4a5 a6bd
00000050: 47c9 b63d 05d8 1ebe ade5 683c 8568 28bc
00000060: 7362 f63d 0f19 b7bb 54f1 023d db87 79bd
00000070: 3d26 d83d 2642 0fbe 6839 bd3d 230e bcbd
-0.038532067 0.12479755 -0.043887854 0.014550924 -0.025994886 -0.029449912 -0.024691757 -0.007860026
0.09377737 0.1407574 -0.19192147 -0.13096872 -0.1353309 -0.032230496 -0.14977194 -0.008397163
0.051787894 0.15846378 -0.055008598 -0.08137086 0.08925109 -0.15512092 0.014214915 -0.010278826
0.120304964 -0.005587704 0.03196843 -0.060920577 0.105541684 -0.13990077 0.09239465 -0.09182384

rnn.weight_ih_l3 f4 [32, 32]
00000000: 09b3 463d 3042 cf3c 803d d03d 85d3 1a3e
00000010: 91f3 133b 3db8 edbd 14b1 083e 033b 933d
00000020: 004f e3bd b658 5bbd 59cf 61bd 1720 cbbd
00000030: 8267 963d 841e 1cbb 73f9 cbbc 824e 2cbe
00000040: d99c bebd 9e15 f83c d9da 1bbe b389 953d
00000050: 0b99 f4bd 994a 17be 25eb 2c3e c84e f9bd
00000060: 5108 3c3e 02eb 843d f2e0 b9bd a11e 8abd
00000070: 168a bbbd 1cbc bebd 2309 2fbc 66cf 073e
00000080: 9c1d 2f3e c525 f5bc 4791 183e 3135 09be
00000090: 1667 a7bc 2c85 ff3d f0ce aebd 9e43 a4bd
000000a0: 25f1 083e 15c1 443e 08ba 35be 0cbe adbd
000000b0: 4c8a dd3c 77c7 15be dc36 a2bd e97c 9abd
000000c0: 3982 af3d 977f e03d c88b 56bd 73b2 ddbd
000000d0: d4d9 8c3c 30a1 0fbe 1881 3c3d 8eaf 193c
000000e0: 8397 723d 8c1f 30be b2cc 01be 7bc7 46bd
000000f0: 5b5e cb3d 2241 eabd 8348 ce3d 99f9 10bd
00000100: a026 513b ef87 33be 6e8d 88bd 1145 a4bd
00000110: 5e1f 293e d0ad 1ebd a4fe 0fbd 1744 cb3a
00000120: 8432 a43a 2dff c5bb 2002 993d 7edc f3bc
00000130: f37b bcbd 8085 f9bc a9ac 17bd c18a b33c
00000140: a807 18be 1787 3fbe 5d2b 5a3c 178c a4bd
00000150: 1b58 da3c 61f3 af3d 0010 30be 806b b13b
00000160: 08f1 483d 03e0 023e 5b43 c73d c703 02be
00000170: e7b6 a3bb 8f79 3d3d fad9 c13d ee77 c33b
00000180: 1d59 fe3d 4fe3 383e c03a be3d af88 2c3e
00000190: 4f6b 9ebd 8a71 ba3d 0144 81bd 6bcb 3abe
000001a0: b9b4 80bd a661 aa3c 292a 3b3d bb07 033e
000001b0: 8460 a43d a679 51bd 58a0 8b3d eb8a c1bc
000001c0: 200e efbc 9915 353e bc1a bcbd c9d6 bf3d
000001d0: 01bc 003e 019b 8c3d f6c6 293d c65f 82bc
000001e0: dc17 86bd 0b00 193e 4918 a4bd 4cbc 90bd
000001f0: e3ab 473e 55ea 893d 37d9 bb3d 2899 bc3d
00000200: 5e84 123e dbba a33d fbac 043e ef94 ac3c
00000210: 4a35 0bbc 0e76 20be 8541 113e 9637 a8bd
00000220: b8e1 ee3d 8655 33bd 0b0a 15be 8344 acbd
00000230: 7b15 47be 7fa2 abbd c0ab ddba e888 fabd
00000240: d49f dabc 8e7a a0bc 5615 123e c478 073d
00000250: d371 393e 950d 143e bfaa 2a3e cad4 c0bd
00000260: 054b debd b1bb 59bb 7dc2 b5bd 8e65 1e3e
00000270: ab74 1ebe 7cda 9abd e4c2 723d ee3e 4e3e
00000280: 8655 04be 8778 de3d 5b39 0abe 8bb3 f33d
00000290: 20d9 bb3d 2814 933d e5a3 8a3d cba5 c83c
000002a0: 07a3 813d d134 353e bf76 3cbd 4e85 bfbd
000002b0: 75a5 d13d bee7 9c3c d7dd 8fbd 0242 acbd
000002c0: 9987 0e3c 1855 88bd cacc 033e 538b eebd
000002d0: a1f1 233d affe 013d 66d6 433e d771 d4bd
000002e0: 5199 f03d a7b9 913d 00b9 043e 1235 943d
000002f0: 568e 003e 80a7 cfbd 91f9 e83c 502b 98bd
00000300: aef0 23be e000 2ebd e715 923d d7a2 24be
00000310: c076 07bd 4868 0ebe 4990 1cbe 9ba9 3b3d
00000320: 8e3f 6f3c 32e1 d13c 2063 49bb a9c8 653d
00000330: 8de4 823b 2dcc d7bd bca9 763b 2761 28be
00000340: e87f f63d 4fae 0bbe 5b25 26be a7ec 10be
00000350: c61b 00be 02da 1d3c 64b1 06be f192 29be
00000360: fc8c 44bd 8259 293d c7d3 8a3d 6876 17be
00000370: 4a1a d7bc 14bf bdbd e08a a73d d9bb fbbd
00000380: 0c34 4bbe 1bac 44be e3b8 12be b94c 493c
00000390: aa24 803d 6cea 41bd 9df1 963d 7ffb 943d
000003a0: d91b 2cbd cfc1 3fbe c73f cebc ac31 453c
000003b0: aee7 0b3c ab9a fc3c 6702 15be 2799 cf3b
000003c0: c5ce bcbd 008d eebb 0c97 67bd b5dd b3bd
000003d0: 11a7 4cbd a0b8 233e 2369 22be a268 7c3d
000003e0: 47a8 bb3c 453d d7bd b2bd 1a3e 85eb 2f3e
000003f0: c347 583d ae9c 0e3d ec95 cdbd 798a 30be
0.048510585 0.025300115 0.1016798 0.15119751 0.0022575597 -0.11607406 0.133488 0.0718899
-0.110990524 -0.0535514 -0.055129383 -0.0991823 0.07343961 -0.00238219 -0.02489922 -0.16826823
-0.0930726 0.030283745 -0.15220203 0.07301655 -0.11943253 -0.1477455 0.16886576 -0.121732295
0.18362547 0.06490137 -0.09076108 -0.06744123 -0.09157197 -0.09313223 -0.010683331 0.1326271
0.17101139 -0.029925236 0.14899169 -0.13399197 -0.020434897 0.124765724 -0.08535564 -0.080207095
0.1337324 0.1921428 -0.17746747 -0.08483514 0.027043484 -0.14626871 -0.0792062 -0.07543356
0.0856976 0.10961836 -0.0523794 -0.10825052 0.017193712 -0.14026332 0.04602155 0.009380234
0.059226524 -0.17199534 -0.12675741 -0.048530083 0.09930106 -0.11438204 0.10072424 -0.035394285
0.0031913891 -0.17532323 -0.066676006 -0.08020986 0.16515872 -0.03873998 -0.035154954 0.0015507963
0.0012527262 -0.006042382 0.074711084 -0.029768225 -0.09203329 -0.030459166 -0.037029896 0.021916749
-0.1484667 -0.18703876 0.013316003 -0.080345325 0.02665334 0.08591343 -0.17193604 0.0054144263
0.04905799 0.12780766 0.09729644 -0.12696753 -0.004996169 0.046258505 0.09465404 0.0059652245
0.12419341 0.18055461 0.092885494 0.16849016 -0.07735311 0.09103687 -0.06311799 -0.1824166
-0.0628447 0.020798516 0.045694504 0.12795918 0.080262214 -0.051141404 0.068176925 -0.023625812
-0.02918154 0.1768402 -0.09184787 0.09367139 0.12571718 0.06865502 0.04144951 -0.015914809
-0.065475196 0.14941423 -0.080124445 -0.07067165 0.19499163 0.067341484 0.0917229 0.092089
0.14308307 0.07994624 0.12956612 0.02106711 -0.008496592 -0.15670034 0.1418515 -0.08213727
0.11664146 -0.043782733 -0.14554612 -0.08411505 -0.19441788 -0.08380603 -0.0016912147 -0.12233144
-0.02668754 -0.019589689 0.14265952 0.033074155 0.18109827 0.14458306 0.16666697 -0.09415586
-0.108541526 -0.0033223445 -0.08874986 0.15468428 -0.15474193 -0.07561204 0.059267893 0.20141193
-0.1292325 0.108628325 -0.13498442 0.118994795 0.09172273 0.07181579 0.06769542 0.024493119
0.06329923 0.17695929 -0.046011683 -0.09351598 0.102366365 0.019153472 -0.070247345 -0.084110275
0.008699321 -0.06656855 0.1287109 -0.11647668 0.040025357 0.031737026 0.19124755 -0.10373276
0.11747993 0.071154885 0.12961197 0.07236685 0.12554297 -0.1013937 0.028439315 -0.07430136
-0.16009781 -0.042481303 0.07133084 -0.16077743 -0.033072233 -0.13906968 -0.15289415 0.045816045
0.014602555 0.025620077 -0.003072925 0.056099568 0.0039945305 -0.1053699 0.003763779 -0.1644331
0.12036115 -0.13640712 -0.16225187 -0.14152776 -0.12510595 0.009634497 -0.13153607 -0.1655996
-0.047986016 0.041345127 0.067786746 -0.14791262 -0.026257653 -0.09264961 0.08180785 -0.122916885
-0.19844073 -0.19206278 -0.14328341 0.0122863585 0.06256993 -0.047342703 0.07370303 0.072745316
-0.042018745 -0.18726276 -0.025176896 0.0120357685 0.008539123 0.03083547 -0.14551698 0.006335396
-0.09219126 -0.007279992 -0.056540534 -0.08782522 -0.049964014 0.15988398 -0.15860419 0.061623223
0.02290739 -0.10509733 0.15111426 0.17179687 0.052802812 0.03481739 -0.10038361 -0.17240323
