lightning_logs/version_22/checkpoints/epoch=25-step=364.ckpt (torch, 146497 bytes, 63 tensors)

rnn.weight_ih_l0 f4 [32, 13]
0	0x3dfd48e3	0.12367418
1	0x3e0a735c	0.13520569
2	0xbd590134	-0.052979663
3	0x3e1a52bc	0.15070623
4	0xbd4ee97e	-0.050515644
5	0x3cbff5ac	0.023432575
6	0xbdca3691	-0.09873689
7	0x3dc112c9	0.09427411
8	0x3e15cb1c	0.14628261
9	0xbe0e937e	-0.13923451
10	0x3e230966	0.15921554
11	0x3cb44e7e	0.022010084
12	0x3df7d4af	0.12101113
13	0x3c731104	0.0148356
14	0x3d9bc074	0.07605067
15	0xbd0c308d	-0.03422599
16	0x3e01e218	0.12683904
17	0x3c86ec33	0.01647005
18	0xbdbe3cd6	-0.09288947
19	0x3d0bd285	0.034136314
20	0xbdb581a2	-0.08862616
21	0xbce47c8d	-0.027891422
22	0xbda1bd87	-0.078974776
23	0x3df88c5e	0.12136148
24	0xbe174f13	-0.14776258
25	0xbdb5a384	-0.08869079
26	0xbd5742ef	-0.052554067
27	0xbddf73f0	-0.10910785
28	0x3c5f51cd	0.013630343
29	0xbe3682b6	-0.178233
30	0x3e1ee3a1	0.15516521
31	0xbe206c2b	-0.15666263
32	0x3e0360af	0.1282985
33	0x3caec1f6	0.021332722
34	0xbd860685	-0.06544212
35	0x3dcf3495	0.10117451
36	0x3d13a619	0.036047075
37	0x3e11cf88	0.14239323
38	0x3c3a552c	0.011372846
39	0xbd42173c	-0.04738544
40	0x3d6500d7	0.055909004
41	0xbd21a38e	-0.03946262
42	0x3da9f633	0.08298912
43	0x3e2a8f3e	0.16656205
44	0x3de4546e	0.11148916
45	0xbd89d454	-0.067299515
46	0x3ddcc149	0.10779054
47	0x3d191d80	0.03738165
48	0x3dc3a02e	0.09552036
49	0xbdd93e8b	-0.10607632
50	0xbe2b3e0b	-0.16722886
51	0xbd7fec0b	-0.062480967
52	0xbe1723e2	-0.14759782
53	0x3e083432	0.13301161
54	0x3d1f1847	0.038841512
55	0x3d7a257f	0.061070915
56	0x3d32c44d	0.04364424
57	0xbc8022bb	-0.01564156
58	0x3e009244	0.12555796
59	0xbe0c18c2	-0.1368132
60	0xb8aee104	-8.338879e-05
61	0xbe070887	-0.13186847
62	0x3d7f8e25	0.06239142
63	0xbd94942b	-0.07254823
64	0x3d2fdfc2	0.042938
65	0xbcd4de4f	-0.025984911
66	0x3e215364	0.15754467
67	0xbdc0150d	-0.09379015
68	0xbdc0f169	-0.09421045
69	0xbdc08666	-0.094006345
70	0x3e2f6955	0.17130025
71	0x3d94394f	0.07237493
72	0x3e357150	0.17719007
73	0xbe0e1f83	-0.13879208
74	0xbe2c4973	-0.16824894
75	0xbe0e4b33	-0.13895874
76	0xbddf00c3	-0.10888817
77	0x3da161ea	0.07880004
78	0x3d992d1d	0.07479308
79	0x3e22356f	0.15840696
80	0xbda34c48	-0.07973534
81	0xbddeeb3a	-0.1088471
82	0x3dd81dbb	0.10552546
83	0xbd72a5a1	-0.059239987
84	0x3df66e16	0.12032716
85	0xbd0afcc4	-0.033932462
86	0x3ddf8dfc	0.10915753
87	0xbe046e21	-0.12932636
88	0xbdbb4813	-0.091446064
89	0x3d851626	0.06498365
90	0x3d3a5ff6	0.04550167
91	0xbd6671d8	-0.056260914
92	0x3dc0c847	0.094132
93	0x3ddf0ce6	0.10891132
94	0xbe0ef09d	-0.13958974
95	0xbdd8acc6	-0.10579829
96	0x3e198e0c	0.14995593
97	0xbd94cea9	-0.0726598
98	0xbd88e1c9	-0.0668369
99	0xbe337298	-0.17524183
100	0xbdd7e47e	-0.10541628
101	0x3ce08cc2	0.027410869
102	0xbd0ae4ec	-0.033909723
103	0xbe07e42a	-0.13270631
104	0xbbd648b3	-0.006539428
105	0xbe0683b7	-0.13136183
106	0xbe245858	-0.16049325
107	0xbddc71e6	-0.10763912
108	0xbe28dae3	-0.16489749
109	0xbdf9ae9c	-0.12191507
110	0x3e2c12bf	0.16804026
111	0x3cad4279	0.02114986
112	0x3d2d0af1	0.042246763
113	0xbe355cea	-0.17711225
114	0xbdd9d4de	-0.10636304
115	0xbd8fab14	-0.070150524
116	0x3c7cecf7	0.015437356
117	0xbe15e2b8	-0.14637268
118	0xbd890c86	-0.06691842
119	0xbdc5bf38	-0.09655613
120	0x3c20f6b8	0.009824447
121	0xbd66ccb3	-0.05634756
122	0xbb3ff9e2	-0.002929323
123	0xbde3c530	-0.11121595
124	0xbde66ac8	-0.11250836
125	0xbdc1282e	-0.09431492
126	0xbd53b5a4	-0.051686898
127	0xbe151394	-0.1455825
128	0x3e20dad6	0.1570848
129	0xbcd79d59	-0.026320146
130	0x3e28ed2c	0.16496724
131	0x3d8b3c28	0.06798583
132	0xbe0c0bff	-0.13676451
133	0x3e0a95b0	0.13533664
134	0xbd11a8bc	-0.03556131
135	0xbd5ed83a	-0.05440543
136	0xbe085288	-0.13312733
137	0xbe2b29d8	-0.16715181
138	0x3d7264d2	0.05917818
139	0xbcf5ea11	-0.030018838
140	0x3d8491d2	0.064731255
141	0xbe081ca5	-0.13292177
142	0x3e0f45bf	0.1399145
143	0xbdff2c95	-0.12459675
144	0xbccee88e	-0.025257375
145	0x3d2cf03d	0.042221297
146	0x3dc6197a	0.09672828
147	0x3e17d5eb	0.14827697
148	0x3e2b95c9	0.16756357
149	0xbe04eb1b	-0.1298031
150	0x3d39d56f	0.04536956
151	0xbd99dd98	-0.07512969
152	0xbc976dec	-0.018485032
153	0xbdf7753b	-0.12082907
154	0x3e29c402	0.16578677
155	0xbe03c191	-0.12866808
156	0x3da93c65	0.082634725
157	0x3d4d9c6b	0.050198
158	0x3d3a30c5	0.045456666
159	0xbddc9982	-0.10771467
160	0x3e17edfe	0.1483688
161	0x3cd38c99	0.025823878
162	0x3c158dd4	0.009128053
163	0xbe298b80	-0.16557121
164	0x3d83ee51	0.064419396
165	0xbd14b5f0	-0.03630632
166	0xbd97d5f4	-0.07413855
167	0x3e1018fa	0.14072028
168	0x3cf26adf	0.029591976
169	0xbdda7a41	-0.10667849
170	0xbdc98b9c	-0.098410815
171	0xbc8f7cb4	-0.017515518
172	0x3db73884	0.089463264
173	0xbd5f397d	-0.054498184
174	0xbde41ab1	-0.111379035
175	0xbd950857	-0.07276981
176	0xbe0cc629	-0.13747467
177	0x3d6bef74	0.057601407
178	0x3e0690e1	0.13141204
179	0xbe372750	-0.1788609
180	0x3d05f3c1	0.032703165
181	0x3daf9bad	0.08574615
182	0x3cb6af04	0.02230025
183	0xbd950804	-0.072769195
184	0x3da8b890	0.082383275
185	0x3da9bd05	0.08288006
186	0x3d655142	0.055985697
187	0xbd2b6dc8	-0.041852742
188	0xbd6fd0d5	-0.058548767
189	0x3c39005a	0.011291588
190	0xbd1f2ea0	-0.038862824
191	0xbd7702a7	-0.060305264
192	0x3dea37b6	0.11436407
193	0x3e1201f0	0.14258552
194	0xbcce81a6	-0.025208306
195	0xbcf2d4c5	-0.029642472
196	0x3c4d2e9a	0.012523318
197	0xba17e017	-0.0005793585
198	0x3d576484	0.052586094
199	0x3d74a859	0.05973086
200	0xbe198e38	-0.14995658
201	0xbd5c702f	-0.053817924
202	0x3e1eecea	0.15520063
203	0x3d99fd32	0.07518996
204	0xbb213c34	-0.0024602534
205	0xbdce16e5	-0.100629605
206	0xbdc9c16a	-0.09851344
207	0xbe1b93bd	-0.15193076
208	0xbd398343	-0.045291197
209	0x3d939f35	0.07208101
210	0x3e002468	0.12513888
211	0x3dc0cb45	0.094137706
212	0xbe1322f2	-0.143688
213	0xbdbf2d5b	-0.09334823
214	0xbc6f2061	-0.014595122
215	0x3e38ca58	0.18045938
216	0x3d0f87b4	0.035041526
217	0xbd14c64c	-0.036321923
218	0x3d8b3542	0.067972675
219	0xbd62dd4e	-0.055386834
220	0xbdd6d581	-0.104899414
221	0x3df2e0b7	0.11859267
222	0xbdba2610	-0.09089291
223	0xbd3c71b4	-0.046006873
224	0xbe3f0cb1	-0.18657185
225	0x3ddc0c18	0.10744494
226	0x3dfab523	0.1224158
227	0x3d56407e	0.0523076
228	0xbe06cae7	-0.13163339
229	0xbe3b3b0a	-0.1828424
230	0xbe1b9805	-0.1519471
231	0x3e09dd00	0.13463211
232	0x3d99a4ed	0.0750216
233	0x3e0fb479	0.14033689
234	0x3dcf1fa1	0.101134546
235	0x3d5a900e	0.053360038
236	0x3be7f2d1	0.0070785065
237	0xbe005760	-0.12533331
238	0xbe1160eb	-0.14197128
239	0xbe1ef10c	-0.1552164
240	0x3da3a441	0.07990313
241	0xbda5abd9	-0.08089418
242	0xbcf3465b	-0.029696634
243	0xbdc44a0f	-0.09584438
244	0xbcea037f	-0.02856612
245	0xbdf0c93d	-0.11757133
246	0xbde08be2	-0.109641805
247	0x3d3c7a56	0.046015106
248	0xbd8580e1	-0.06518722
249	0x3dc586bd	0.0964484
250	0xbd8e41d2	-0.06946148
251	0xbe11eb6e	-0.14249966
252	0xbd35a87e	-0.04435014
253	0xbdcb4ad1	-0.099263795
254	0xbd85175a	-0.064985946
255	0xbe378099	-0.1792015

rnn.weight_hh_l0 f4 [32, 32]
0	0xbd979376	-0.07401173
1	0x3d92a534	0.07160416
2	0xbe02d301	-0.12775804
3	0xbdfb0720	-0.12257218
4	0xbc8b3975	-0.016995171
5	0xbd75e674	-0.06003423
6	0xbe0ef395	-0.13960107
7	0x3dee3aed	0.11632333
8	0x3e0d01ed	0.13770266
9	0x3d0e2e4b	0.034712117
10	0xbd084b44	-0.033274904
11	0xbe301287	-0.17194568
12	0xbd93f1ab	-0.07223829
13	0x3d6cc67b	0.057806473
14	0x3db77413	0.08957686
15	0xbc53102e	-0.0128822755
16	0xbd815ce5	-0.06316546
17	0x3dda557a	0.106608346
18	0xbe02108e	-0.12701628
19	0x3dd0d622	0.101970926
20	0xbda854b6	-0.08219282
21	0xb8c5d9a7	-9.434233e-05
22	0xbd3bbf20	-0.045836568
23	0x3c77888e	0.015108241
24	0xbd8f1c97	-0.06987875
25	0x3e0d16d6	0.13778242
26	0x3bc81092	0.006105491
27	0x3e0e0c17	0.138718
28	0x3e380a7d	0.17972751
29	0xbdbc55f9	-0.091960855
30	0xbe0cd5fc	-0.13753504
31	0x3e1dd6ee	0.1541402
32	0x3e00337f	0.12519644
33	0xbe04e166	-0.12976608
34	0xbcce523e	-0.0251857
35	0xbe38ee2d	-0.18059607
36	0xbe1d6cc6	-0.15373525
37	0x3d1f6104	0.03891088
38	0x3d24dca8	0.040249497
39	0x3d402652	0.046911545
40	0xbd3141a7	-0.0432755
41	0x3e33b9ab	0.17551295
42	0x3cab0e85	0.020880947
43	0xbde2e89f	-0.11079525
44	0xbcad363e	-0.021144029
45	0x3d434ec3	0.047682535
46	0x3d8b61c9	0.068057604
47	0xbdeea6ad	-0.11652885
48	0x3d710599	0.05884323
49	0xbdacf542	-0.08445217
50	0xbe0de12d	-0.13855429
51	0xbdd26311	-0.10272802
52	0x3e24ade2	0.16081956
53	0x3e21b033	0.15789871
54	0x3e271805	0.16317756
55	0x3dc6b9d4	0.09703413
56	0x3df67d37	0.120356016
57	0xbc4d7075	-0.012539019
58	0xbdb7f13e	-0.0898156
59	0x3dc7d5b2	0.09757556
60	0xbda70bdc	-0.08156559
61	0xbde31a45	-0.11088995
62	0xbd7941ef	-0.060853895
63	0x3d573267	0.0525383
64	0x3dac4cc0	0.084130764
65	0xbd761616	-0.060079657
66	0xbdeaf18d	-0.114718534
67	0x3c5f680c	0.013635647
68	0xbde4b0f5	-0.111665644
69	0xbdfbaeb9	-0.12289185
70	0x3dc2f5a9	0.09519512
71	0xbc9d4225	-0.01919658
72	0x3e2a4760	0.1662879
73	0x3e394199	0.1809143
74	0x3d59195e	0.053002708
75	0x3d4d61af	0.050141986
76	0x3cedc689	0.029025333
77	0x3b41beae	0.0029563117
78	0xbc8b572e	-0.017009344
79	0x3b30c446	0.0026972457
80	0x3d9a558c	0.07535848
81	0x3e323e42	0.17406562
82	0xbd1cfd4a	-0.038327493
83	0xbdaf9094	-0.08572498
84	0xbd4c99d4	-0.04995139
85	0xbda94445	-0.082649745
86	0x3cd214bf	0.025644658
87	0x3e006331	0.12537839
88	0x3e0ec327	0.13941632
89	0x3db10710	0.08643925
90	0xbdff3215	-0.12460724
91	0xbdb42f57	-0.08798092
92	0xbcf07b93	-0.0293558
93	0xbccd6447	-0.02507223
94	0x3c23a2a3	0.009987506
95	0xbe196538	-0.14980018
96	0x3d965701	0.073408134
97	0xbe0c158a	-0.13680092
98	0xbdd4bafe	-0.103872284
99	0xbe147661	-0.14498283
100	0x3e319866	0.17343292
101	0xbe35dd09	-0.177601
102	0x3e0b4d5a	0.13603726
103	0xbc750e8b	-0.014957081
104	0xbcae89c1	-0.02130592
105	0x3db7aad9	0.089681335
106	0xbc99ba6b	-0.018765649
107	0x3debf6e7	0.11521702
108	0x3e0ee788	0.1395551
109	0xbe2843e3	-0.16432147
110	0x3d890403	0.06690218
111	0x3c85d304	0.016335972
112	0x3d0d1ab8	0.03444931
113	0x3cafa85a	0.021442581
114	0x3d136c64	0.03599204
115	0xbd9e8e0e	-0.077419385
116	0xbc1a9f17	-0.009437344
117	0x3e26ce88	0.16289723
118	0x3dfaa92a	0.12239297
119	0xbb93719d	-0.0044996277
120	0xbe12f49a	-0.1435112
121	0xbbc008b2	-0.0058604116
122	0xbe02d95a	-0.12778226
123	0x3e07109e	0.13189933
124	0xbde92d86	-0.11385636
125	0xbc8489b0	-0.016178936
126	0xbd0fe8b2	-0.035134025
127	0x3c0a0289	0.008423456
128	0x3e2de3be	0.16981408
129	0x3cbe8b87	0.023259891
130	0x3dbbd699	0.09171791
131	0x3e03bb86	0.12864503
132	0x3e00617a	0.12537184
133	0xbd5294a3	-0.051411282
134	0xbd4444d4	-0.047917202
135	0x3dc2e4cd	0.095162965
136	0xbd5fba13	-0.054620814
137	0x3dc8a467	0.09796982
138	0xbd406829	-0.046974335
139	0xbe0491a4	-0.12946182
140	0x3da594f3	0.080850504
141	0x3d258737	0.040412154
142	0x3db0d196	0.08633725
143	0x3e43be25	0.19115503
144	0x3e03fbc3	0.12889008
145	0x3e354f25	0.17705972
146	0x3cbf81da	0.023377348
147	0xbe2598c0	-0.16171551
148	0xbe0eeca1	-0.13957454
149	0xbde08acc	-0.109639734
150	0xbe28e8ab	-0.16495006
151	0xbdc491bc	-0.09598109
152	0xbe337147	-0.1752368
153	0xbe192dea	-0.14958921
154	0xbdc1db99	-0.09465713
155	0xbe2643ea	-0.16236845
156	0xbdcb6edc	-0.09933254
157	0x3d749c94	0.059719637
158	0x3e0c56ea	0.1370503
159	0xbd6f2165	-0.058381457
160	0xbd3a4cdc	-0.045483455
161	0x3db9e6f4	0.09077254
162	0xbda23ea9	-0.07922108
163	0xbda3aab9	-0.07991547
164	0x3df62dc1	0.120204456
165	0xbe24a01b	-0.160767
166	0x3cd299d8	0.025708124
167	0x3e164a7f	0.14676856
168	0x3cf53087	0.029930366
169	0x3d278fc8	0.040908605
170	0xbdcf4dc5	-0.10122255
171	0x3b468b45	0.0030295413
172	0x3c6b5bf1	0.014365182
173	0x3cf3da06	0.029767048
174	0x3d894dd8	0.06704301
175	0x3e129279	0.14313687
176	0xbe0b72f3	-0.13618068
177	0x39f4ab1a	0.00046666787
178	0xbdd172e6	-0.10226993
179	0xbe079ef3	-0.13244228
180	0xb9b17d04	-0.00033853215
181	0xbe1f1862	-0.15536645
182	0x3e0519e5	0.12998159
183	0x3cb7262a	0.022357065
184	0xbda69e15	-0.081356205
185	0x3da15594	0.07877651
186	0xbe354638	-0.17702568
187	0xbd94ea7f	-0.07271289
188	0xbd2bf348	-0.041980058
189	0xbe181708	-0.14852536
190	0xbdd8f650	-0.105938554
191	0xbd293d9e	-0.04131853
192	0x3e0d3f06	0.13793573
193	0x3e2a9461	0.16658165
194	0x3df74335	0.120733656
195	0xbdceaa17	-0.10091036
196	0xbdd21fe0	-0.10259986
197	0x3e12d635	0.14339526
198	0x3d86296a	0.06550868
199	0xbba9d020	-0.005182281
200	0x3cc0114e	0.023445752
201	0xbe18c98a	-0.14920631
202	0xbd699869	-0.057030115
203	0x3e346109	0.17615141
204	0xbd1bd191	-0.038041655
205	0xbcc3bd2f	-0.02389392
206	0xbe18e6e5	-0.1493183
207	0xbde3c011	-0.11120618
208	0xbbda9f2e	-0.0066718077
209	0xbdec6ab4	-0.115437895
210	0xbd15c07a	-0.036560513
211	0x3da37e89	0.07983119
212	0xbe21cd09	-0.15800871
213	0x3d5a6735	0.053321082
214	0xbddee7b9	-0.10884041
215	0xbda9c90b	-0.08290299
216	0x3daa0897	0.0830242
217	0x3e0151f8	0.12628925
218	0xbd6de59a	-0.058080293
219	0xbd9b8009	-0.0759278
220	0xbe2c0bdc	-0.16801399
221	0xbdb438ad	-0.087998725
222	0xbe182297	-0.14856945
223	0xbd53a73e	-0.051673166
224	0x3d0eec6e	0.034893446
225	0xbe396946	-0.18106565
226	0x3e183716	0.14864764
227	0x3df961b7	0.12176841
228	0xbe39362f	-0.18087076
229	0xbd8d7832	-0.06907691
230	0x3d69da4d	0.057092953
231	0xbd4200c9	-0.04736403
232	0xbb3f9c07	-0.0029237287
233	0xbd84d01c	-0.06485006
234	0x3e0c4249	0.13697161
235	0xbdb59603	-0.08866503
236	0x3e247023	0.16058402
237	0x3cddd0f7	0.027077181
238	0x3cb7da24	0.022442885
239	0x3e1e461a	0.15456429
240	0xbd34abce	-0.04410916
241	0xbde5a214	-0.112125546
242	0xbcb512db	-0.022103718
243	0x3e1c58d0	0.15268254
244	0xbe17d54f	-0.14827465
245	0x3d5a4ca6	0.053295754
246	0xbe25c2f6	-0.16187653
247	0x3dd99fa0	0.10626149
248	0x3d43fc7b	0.047848206
249	0x3cca1178	0.024666533
250	0x3dafdec4	0.08587411
251	0x3c9763b7	0.018480165
252	0x3dcfa41d	0.10138724
253	0xbe117470	-0.14204574
254	0xbd0761f4	-0.0330524
255	0x3d8b9b81	0.068167694

rnn.bias_ih_l0 f4 [32]
0	0xbdbab2d9	-0.09116144
1	0x398c7567	0.00026790352
2	0xbcec16fa	-0.02881955
3	0xbe1d078a	-0.15334907
4	0xbe21326c	-0.1574189
5	0xbdfcb54e	-0.123392686
6	0x3d93d9d9	0.072192855
7	0x3dae2b08	0.08504301
8	0xbe10e9ff	-0.14151762
9	0xbd9a0844	-0.07521108
10	0xbbbb178d	-0.0057095946
11	0xbe1d69ee	-0.1537244
12	0x3de008de	0.10939191
13	0x3e298049	0.16552843
14	0x3d1f4b0d	0.038889933
15	0xbe0cfca8	-0.13768256
16	0x3d021b5c	0.031764373
17	0x3d949280	0.07254505
18	0x3e094edc	0.13408989
19	0xbdaa4c7b	-0.08315369
20	0xbe18a0e4	-0.14905125
21	0x3d8a986b	0.06767353
22	0x3af9a4b8	0.0019046282
23	0xbd86bca9	-0.06578953
24	0xbd83c931	-0.064348586
25	0xbdb3c923	-0.08778598
26	0x3e16ade8	0.14714777
27	0xbd241578	-0.040059537
28	0x3e0922ad	0.13392134
29	0x3e186b31	0.1488464
30	0x3c843339	0.016137706
31	0x3ccd9bb8	0.025098667

rnn.bias_hh_l0 f4 [32]
0	0xbb236c14	-0.0024936246
1	0x3e03ac94	0.12858802
2	0xbe1ada2c	-0.15122288
3	0x3d8434f9	0.06455416
4	0xbc901aea	-0.017590959
5	0x3d96c9ff	0.073627464
6	0xbc105a34	-0.008810569
7	0xbd7afbd3	-0.061275315
8	0xbbe05a4e	-0.0068467027
9	0x3db16d43	0.08663418
10	0xbe0686dc	-0.13137382
11	0xbde6a8d9	-0.11262674
12	0xbcf43670	-0.029811114
13	0xbd7074d8	-0.05870518
14	0x3d9dd6ae	0.077069625
15	0x3de6aace	0.11263047
16	0xbce8923c	-0.028390042
17	0x3e33bdaa	0.1755282
18	0xbda35430	-0.07975042
19	0xbdb4d48c	-0.088296026
20	0xbd8efc4e	-0.06981717
21	0xbe06f35f	-0.13178776
22	0xbe0833a7	-0.13300954
23	0xbe29adc1	-0.16570188
24	0xbe1679b8	-0.1469487
25	0x3d4ac1df	0.049501296
26	0x3de51489	0.111855574
27	0x3e202959	0.15640773
28	0x3e20c65b	0.15700667
29	0xbc9cbfa0	-0.019134343
30	0x3ce5c358	0.028047249
31	0xbdf25559	-0.11832685

rnn.weight_ih_l1 f4 [32, 32]
0	0x3d987255	0.07443682
1	0xbe2469f4	-0.16056043
2	0x3d93a2b1	0.07208765
3	0x3cbc4d70	0.022986144
4	0x3d67b77e	0.056571476
5	0x3d7189ba	0.058969237
6	0xbdb96cca	-0.09053953
7	0x3e27f35e	0.16401431
8	0x3d9c69cc	0.07637367
9	0x3de46948	0.11152893
10	0x3c79d1da	0.015247786
11	0x3dced06c	0.10098347
12	0x3de1b557	0.11020916
13	0x3da80fb0	0.08206117
14	0x3e125d36	0.1429337
15	0xbd10e34f	-0.03537303
16	0x3dfec391	0.12439645
17	0x3d4f6e1f	0.05064213
18	0x3df8087b	0.121109925
19	0x3e2634f4	0.16231138
20	0x3cd1955a	0.025583912
21	0xbd961826	-0.07328825
22	0xbcd97658	-0.026545689
23	0x3d280b8d	0.04102664
24	0x3d074623	0.033025872
25	0xbd525594	-0.051351145
26	0x3e1bb374	0.15205175
27	0x3dcdbc6a	0.10045703
28	0xbdc09afe	-0.094045624
29	0xbcb5a353	-0.022172606
30	0xbceb7510	-0.028742343
31	0xbdcf3d68	-0.10119134
32	0x3d0feb78	0.03513667
33	0xbd34be22	-0.044126637
34	0xbdcc71f2	-0.09982671
35	0xbd878bae	-0.06618439
36	0xbd5e6b92	-0.054301806
37	0x3e268021	0.16259815
38	0x3d78479f	0.06061518
39	0x3e43f8c0	0.1913786
40	0x3d288456	0.04114183
41	0x3d0149a1	0.03156436
42	0x3d8ae295	0.06781498
43	0x3cad79fa	0.021176327
44	0xbe13e6be	-0.1444349
45	0xbde1778a	-0.110091284
46	0xbd0b22fe	-0.033968918
47	0xbbc14833	-0.0058984994
48	0x3d988b2e	0.074484214
49	0x3d9e0f56	0.07717769
50	0x3e1de2a8	0.15418494
51	0x3cdade12	0.02671722
52	0xbd90bc31	-0.07067145
53	0xbe123d04	-0.14281088
54	0xbe0ed854	-0.1394971
55	0xbdeb74ab	-0.11496862
56	0x3d720742	0.059088953
57	0x3dbb6249	0.09149606
58	0x3e27487f	0.16336249
59	0xbd84cfe8	-0.064849675
60	0xbb73987b	-0.0037169743
61	0xbd78ebf4	-0.060771897
62	0xbc26716e	-0.01015888
63	0x3d75501b	0.059890848
64	0x3b6acc0d	0.003582719
65	0x3a471ef4	0.000759586
66	0x3ce427c6	0.027850997
67	0x3d9351e0	0.07193351
68	0xbd5ccb38	-0.053904742
69	0xbdcf98e0	-0.101365805
70	0x3d390a50	0.04517585
71	0xbce81230	-0.028328985
72	0xbd9ab046	-0.07553153
73	0x3d995bc9	0.0748821
74	0x3b3c18f6	0.0028701401
75	0xbc996e58	-0.018729374
76	0xbd9c577f	-0.07633876
77	0xbcbbc396	-0.022920411
78	0xbe1eb841	-0.15499975
79	0x3d34c915	0.04413708
80	0xbbaa01c1	-0.0051881974
81	0x3dce8be9	0.100852795
82	0xbb1f1aed	-0.0024277524
83	0x3cafff89	0.021484153
84	0x3d7bc5f5	0.061468083
85	0x3e0e9e98	0.13927686
86	0xbd9b9cab	-0.075982414
87	0x3de47fa3	0.11157157
88	0x3d3781ec	0.044801638
89	0xbdf72881	-0.120682724
90	0x3d5c4b44	0.053782716
91	0xbdd36ce0	-0.10323501
92	0xbd7bdf44	-0.06149222
93	0xbd9f971d	-0.077924944
94	0xbdf0c066	-0.11755447
95	0x3e1005d6	0.14064726
96	0xbe23dc82	-0.16002086
97	0x3da9a0dd	0.08282635
98	0xbe19eaf5	-0.15031035
99	0xbc8228af	-0.01588854
100	0x3c2b1413	0.010441798
101	0x3e019f3c	0.126584
102	0xbd716a19	-0.058939073
103	0x3d1d3dd4	0.038389042
104	0x3d004dd5	0.031324226
105	0x3dd624d7	0.104562454
106	0x3c30d64a	0.010793278
107	0x3d955f58	0.07293576
108	0xbdcd5281	-0.10025502
109	0xbe04ccb6	-0.12968716
110	0x3e1c7377	0.15278421
111	0xbe050957	-0.12991844
112	0xbd129ebd	-0.035795916
113	0xbce5e602	-0.028063778
114	0x3e1d8053	0.15380983
115	0xbcf5a534	-0.029986002
116	0xbdec24c6	-0.115304515
117	0xbd2c95a4	-0.042134896
118	0x3dcdc019	0.10046405
119	0x3d9937ef	0.074813716
120	0x3e17e9cd	0.14835282
121	0xbd198578	-0.0374808
122	0x3d91edcf	0.071254365
123	0xbe289718	-0.16463888
124	0x3d69c632	0.05707378
125	0x3db052f1	0.0860957
126	0x3df8ffc2	0.12158157
127	0xbde10a3e	-0.10988282
128	0xbd286304	-0.041110054
129	0x3d42bac0	0.04754138
130	0xbe0bd9b6	-0.13657269
131	0xbe147ed4	-0.14501506
132	0xbe2bcd17	-0.16777454
133	0x3bff704d	0.0077953697
134	0x3dd103c1	0.10205794
135	0x3d824b66	0.06362037
136	0x3bb049ff	0.005379915
137	0x3d766b99	0.060161207
138	0xbdf066ea	-0.11738379
139	0x3c648885	0.013948564
140	0xbd3f3566	-0.046681784
141	0xbd96a27b	-0.073552094
142	0x3e1ec947	0.15506469
143	0xbe0a68bc	-0.13516515
144	0x3d01cab4	0.031687453
145	0xbe193f72	-0.14965609
146	0x3c0d0f1b	0.008609558
147	0xbdae96e7	-0.08524876
148	0x3d5536cc	0.05205421
149	0xbdd18ddc	-0.10232136
150	0x3def6954	0.116900116
151	0xbe1744cf	-0.14772342
152	0x3ddc911a	0.107698634
153	0xbe07fd80	-0.13280296
154	0x3de3815c	0.11108658
155	0xbd9a7adf	-0.07542967
156	0x3caabb0f	0.02084115
157	0xbd00137f	-0.031268593
158	0x3dd225fa	0.1026115
159	0x3d6b38ab	0.05742709
160	0xbe1f6505	-0.1556588
161	0x3cb62a9c	0.022237115
162	0xbe045a51	-0.12925078
163	0x3e01b781	0.12667657
164	0x3cdd0614	0.026980437
165	0xbd41d85c	-0.047325477
166	0xbdbe41f7	-0.092899255
167	0x3d8e1e60	0.06939387
168	0xbde0090b	-0.10939225
169	0x3dadce74	0.084866434
170	0x3dc00460	0.093758345
171	0x3dd0f12e	0.102022514
172	0x3d2c8777	0.042121377
173	0xbe1c3432	-0.15254286
174	0x3e06d800	0.13168335
175	0xbd6803ab	-0.056644123
176	0xbd3e4a44	-0.046457544
177	0xbc4d5e1f	-0.012534647
178	0x3e16be3d	0.14721008
179	0x3e04adaf	0.1295688
180	0x3c1dfe96	0.009643218
181	0x3da60674	0.081066996
182	0xbe2d131b	-0.1690182
183	0xbbbbbfb9	-0.005729642
184	0xbe21ed09	-0.15813078
185	0x3d79b1a6	0.060960434
186	0xbde7040d	-0.112800695
187	0xbd828c7b	-0.06374451
188	0x3e0adb51	0.13560225
189	0x3e28624a	0.16443744
190	0xbde2ff33	-0.11083832
191	0xbdc4f34d	-0.096167184
192	0x3cd96d82	0.026541475
193	0x3da16cb1	0.07882059
194	0xbd19e212	-0.037569113
195	0xbd8269da	-0.06367846
196	0xbdddd5aa	-0.10831769
197	0x3d8e0219	0.06933994
198	0x3e296474	0.16542226
199	0xbd9a930c	-0.07547578
200	0x3d989396	0.07450025
201	0x3da2bac4	0.07945779
202	0x3e0b7296	0.1361793
203	0xbcec99c8	-0.028881922
204	0xbb13729e	-0.0022498737
205	0x3dfbb5d5	0.12290541
206	0x3df525e4	0.11970118
207	0x3e2a9daa	0.16661707
208	0xbd2d4299	-0.04229984
209	0x3da1527d	0.078770615
210	0x3e0ab279	0.13544644
211	0xbe03a900	-0.12857437
212	0x3ccaa932	0.024738882
213	0xbd477132	-0.048691936
214	0x3dd87dd6	0.10570876
215	0xbdb44551	-0.088022836
216	0x3c7a086a	0.015260795
217	0x3dcec584	0.10096267
218	0xbe1bed77	-0.15227304
219	0xbe20bda7	-0.15697347
220	0xbda2afa0	-0.07943654
221	0x3dd5546b	0.10416492
222	0x3de20655	0.11036364
223	0xbded4792	-0.115859166
224	0x3d442f0e	0.047896437
225	0xbdb6dc50	-0.0892874
226	0xbda47fff	-0.08032226
227	0x3e1926b2	0.14956167
228	0x3de00c41	0.10939837
229	0xbd895f51	-0.06707633
230	0x3c9ee9b2	0.019398544
231	0x3cda7f69	0.026672082
232	0x3d036307	0.03207686
233	0xbdaad9ee	-0.08342348
234	0xbdd7ad0b	-0.10531052
235	0x3dedb6b1	0.11607111
236	0x3cfa90c5	0.03058661
237	0x3d6155a7	0.055013325
238	0xbd7039e5	-0.058648963
239	0x3d804aed	0.06264291
240	0x3e08a83e	0.1334543
241	0x3dded505	0.10880474
242	0x3d0d599c	0.034509286
243	0x3e326b9e	0.17423865
244	0x3c71c2f9	0.014755958
245	0x3ce0eaee	0.027455773
246	0x3e2ab77f	0.1667156
247	0x3e2bf113	0.16791181
248	0xbd696d2e	-0.056988887
249	0x3e0cb2ef	0.13740133
250	0x3d78c8b1	0.06073827
251	0xbd2315dc	-0.03981577
252	0x3e1a92e6	0.150951
253	0xbdd97294	-0.10617557
254	0x3dec087a	0.11525054
255	0x3e272420	0.16322374

rnn.weight_hh_l1 f4 [32, 32]
0	0x3e21d9e1	0.1580577
1	0x3e161cfc	0.14659494
2	0x3bbe0213	0.005798587
3	0xbdefa349	-0.11701066
4	0xbb00ce53	-0.0019654229
5	0xbdb89dfd	-0.09014509
6	0x3e08cf8b	0.13360421
7	0xba9b2bf8	-0.0011838665
8	0x3d676c50	0.05649978
9	0x3de8c0ae	0.11364876
10	0x3d8bdfa5	0.06829766
11	0xbdc55eea	-0.09637244
12	0x3e0bf780	0.13668633
13	0x3dd0f43e	0.102028355
14	0xbdf2ac39	-0.11849255
15	0x3e135e65	0.14391477
16	0x3d7ad097	0.061234083
17	0xbcc42f8c	-0.023948453
18	0xbe0bb6ea	-0.13643995
19	0xbd23d6a2	-0.03999961
20	0xbe297090	-0.16546845
21	0x3dba71f2	0.091037646
22	0x3e0b1d55	0.13585408
23	0xbd324ea6	-0.043532036
24	0x3e193341	0.14960958
25	0xbd9a8d22	-0.0754645
26	0x3d24d776	0.040244542
27	0xbdf7633c	-0.12079474
28	0xbba47063	-0.0050182804
29	0x3d81bd50	0.063349366
30	0x3dafc7b1	0.0858301
31	0x3b800ac8	0.003907535
32	0xbdc97baa	-0.0983804
33	0x3decb1a7	0.11557322
34	0x3ddeeb36	0.10884707
35	0x3ca91aa3	0.020642584
36	0xbda515b2	-0.08060779
37	0x3cf62b9e	0.030050095
38	0x3c5a9159	0.013340318
39	0x3e1c6548	0.1527301
40	0x3d02af29	0.031905327
41	0x3cb532b1	0.022118898
42	0x3ca7aa1d	0.020466859
43	0x3dd396e8	0.103315175
44	0xbc080a97	-0.008303306
45	0x3e12a607	0.14321147
46	0x3da9fd6b	0.08300289
47	0xbdffbf06	-0.12487607
48	0x3c0e78c3	0.008695784
49	0xbe1949a1	-0.14969493
50	0xbe11bc08	-0.14231884
51	0x3ccc86a9	0.024966555
52	0x3d45ab22	0.048258908
53	0xbcc181c3	-0.023621446
54	0x3e313067	0.1730362
55	0xbdbc6a5f	-0.09199976
56	0xbda3dcf2	-0.08001126
57	0xbd183095	-0.037155706
58	0x3c15b3a1	0.009137065
59	0xbcbc6ff1	-0.023002597
60	0x3e259315	0.16169389
61	0xbda8f699	-0.0825016
62	0xbdab3e6a	-0.08361514
63	0x3cc86a7a	0.024464834
64	0x3e129f23	0.14318518
65	0x3d4dc230	0.05023402
66	0x3dcf0249	0.10107858
67	0x3d1a33ae	0.03764694
68	0x3e23874c	0.1596958
69	0x3ded3fa1	0.11584402
70	0x3dec20e9	0.115297146
71	0xbc8c1148	-0.017098084
72	0xbe16ed8a	-0.14739051
73	0xbdb43f2d	-0.08801112
74	0x3d5ca81a	0.05387125
75	0x3dea86db	0.11451503
76	0xbd9a75ad	-0.07541976
77	0x3e1b99b9	0.1519536
78	0x3cfc2ef6	0.030784111
79	0xbbd56750	-0.00651256
80	0x3c8f5f4b	0.017501494
81	0xbcd8e18c	-0.026474737
82	0x3e1f5e8d	0.15563412
83	0x3c4e36c9	0.012586304
84	0x3dcef23e	0.10104798
85	0xbe107e16	-0.14110598
86	0xbdc30a38	-0.095234334
87	0x3c8fcfc3	0.017555123
88	0x3e15b93e	0.14621446
89	0x3dbac5ac	0.09119734
90	0x3cf5b0a1	0.02999145
91	0xbe2b5f3b	-0.16735546
92	0x3c887a08	0.016659752
93	0xbde194d0	-0.11014712
94	0xbe1faab2	-0.15592459
95	0x3ce967d1	0.028491886
96	0xbdd3b1b0	-0.103366256
97	0x3e294fa7	0.16534291
98	0xbdb77883	-0.08958533
99	0x3d737058	0.05943331
100	0x3dd2215e	0.102602705
101	0xbe091453	-0.1338666
102	0x3da34365	0.07971839
103	0xbc908e0d	-0.01764586
104	0x3d9bfad5	0.07616202
105	0x3e26eb24	0.16300637
106	0xbda79eaa	-0.0818456
107	0xbdb8f653	-0.090313576
108	0x3e170366	0.1474739
109	0x3cb273a2	0.021783654
110	0xbc546a22	-0.012964757
111	0x3e030cc8	0.12797844
112	0xbdba7283	-0.091038726
113	0xbc6fcf65	-0.014636849
114	0x3df8727e	0.12131213
115	0x3d9c25c4	0.07624391
116	0xbdf2011e	-0.11816619
117	0x3d5d8f69	0.054091845
118	0xbe0b8737	-0.13625799
119	0xbdca913a	-0.09890981
120	0x3dfbe89d	0.12300227
121	0xbd27c6bd	-0.040961016
122	0xbdc4ceb5	-0.09609739
123	0x3c202967	0.009775496
124	0x3d7685e7	0.060186293
125	0xbdd840ee	-0.10559259
126	0xbdfddf30	-0.12396085
127	0xbe357239	-0.17719354
128	0x3d1a293b	0.037636977
129	0xbde8f353	-0.113745354
130	0x3bda3ef0	0.0066603348
131	0xbd56f9e1	-0.052484397
132	0xbdfb5734	-0.12272492
133	0xbd278ae2	-0.040903933
134	0xbe0d1b20	-0.13779879
135	0xbdccdbee	-0.10002886
136	0x3c2a8e72	0.010409938
137	0xbe139a4d	-0.1441433
138	0xbe18bbb9	-0.1491536
139	0x3e19130a	0.14948669
140	0x3b5d7d3d	0.0033796572
141	0xbdab7021	-0.08370996
142	0xbbabacb2	-0.0052390927
143	0x3e0c44b4	0.13698083
144	0xbe09e73c	-0.13467115
145	0xbdcbf8a6	-0.09959535
146	0xbe064080	-0.13110542
147	0xbcbea916	-0.023273986
148	0xbafb32ea	-0.0019164954
149	0xbe147ca5	-0.14500673
150	0x3dfbb859	0.12291021
151	0xbe03e676	-0.12880883
152	0x3e143c2c	0.14476079
153	0xbe032b0a	-0.12809387
154	0xbcca37d5	-0.024684826
155	0x3d195d21	0.03744233
156	0xbdba72e7	-0.09103947
157	0x3e267408	0.162552
158	0xbdeecac1	-0.11659766
159	0xbb9ec494	-0.0048452113
160	0xbe0d19fc	-0.13779444
161	0x3d3bd5b5	0.045858104
162	0x3e13f8de	0.14450404
163	0x3e2882ca	0.16456142
164	0x3c820f16	0.015876334
165	0xbda05f09	-0.078306265
166	0x3e329ada	0.17441884
167	0x3bf6c060	0.007530257
168	0x3e058f98	0.13043058
169	0xbda5fe54	-0.0810515
170	0xbda9509e	-0.0826733
171	0xbe07e6c1	-0.1327162
172	0x3e217095	0.15765603
173	0x3cdb715a	0.026787449
174	0xbe048994	-0.12943107
175	0x3ca64b4a	0.020299572
176	0xbd91b54d	-0.071146585
177	0xb883bc5f	-6.2816536e-05
178	0x3d73008a	0.059326686
179	0xbdbfdefa	-0.09368701
180	0x3d117537	0.035512175
181	0xbdf63685	-0.120221175
182	0x3d150f9f	0.03639185
183	0xbe2a1b6f	-0.16612028
184	0x3c86de12	0.016463313
185	0x3e2d83db	0.1694483
186	0x3e150257	0.14551674
187	0x3d91ef11	0.071256764
188	0x3df0bcbc	0.11754748
189	0x3e30468c	0.17214411
190	0x3d5c7169	0.053819094
191	0x3d7d2a15	0.06180771
192	0x3c516f27	0.012782848
193	0x3e16de25	0.14733179
194	0x3e137d6c	0.14403313
195	0xbdb78bd2	-0.089622155
196	0xbc943ab2	-0.018094394
197	0xbdccb189	-0.099948
198	0x3d9c364a	0.07627542
199	0xbe385b54	-0.18003589
200	0x3d8946e3	0.06702974
201	0xbd280c8f	-0.0410276
202	0x3d96b9dd	0.07359669
203	0x3d86befb	0.065793954
204	0xbdbc9bd0	-0.092094064
205	0x3dadafa2	0.08480765
206	0x3d8672b5	0.065648474
207	0xbe1031a3	-0.14081435
208	0x3e3a7a23	0.18210654
209	0x3e1b227b	0.15149872
210	0x3dd5c22c	0.10437426
211	0xbcd65e7f	-0.026168106
212	0x3d92e2b0	0.071721435
213	0xbdd54d17	-0.10415094
214	0xbd569698	-0.05238971
215	0x3db66dd0	0.08907664
216	0x3d916b70	0.0710057
217	0x3d78f170	0.060777128
218	0xbe234c60	-0.15947104
219	0x3e0b1edb	0.13585989
220	0xbda9b608	-0.08286673
221	0x3e135244	0.1438685
222	0x3e1dddb1	0.154166
223	0x3d94b968	0.07261926
224	0x3e30b135	0.17255099
225	0x3da8d58b	0.08243855
226	0x3dda2fc3	0.10653641
227	0xbd71e556	-0.059056602
228	0x3e354805	0.17703255
229	0x3cd89fb6	0.026443344
230	0x3ddea80f	0.108718984
231	0xbd305972	-0.04305405
232	0x3def61c3	0.116885684
233	0x3e20f9f8	0.15720356
234	0xbe041d9d	-0.12901922
235	0x3e0cc034	0.13745195
236	0xbdef386b	-0.11680683
237	0xbdfe9b4b	-0.124319635
238	0xbe215ddd	-0.15758462
239	0x3d6926da	0.056921817
240	0xbe0b0271	-0.1357515
241	0xbd7dc1e4	-0.061952487
242	0xbdc4064e	-0.09571515
243	0x3d4efc5c	0.050533637
244	0xbe30016f	-0.17188047
245	0xbd9fc1b5	-0.078006186
246	0x3b924c0a	0.004464631
247	0x3c8fd816	0.017559092
248	0xbd7f0a30	-0.062265575
249	0x3d6fdae4	0.05855836
250	0xbdd477d4	-0.10374418
251	0xbe19ce53	-0.15020113
252	0xbc7facff	-0.01560521
253	0xbde2198e	-0.110400304
254	0x3df03ad8	0.117299736
255	0xbdef1d34	-0.11675492

rnn.bias_ih_l1 f4 [32]
0	0xbddea8a9	-0.10872013
1	0xbe0feae3	-0.14054446
2	0xbe33d3a9	-0.1756121
3	0x3c649f48	0.013953991
4	0xbdcf93a0	-0.10135579
5	0x3c70baae	0.014692945
6	0xbd983092	-0.07431139
7	0xbdf6aeb3	-0.1204504
8	0x3e03d995	0.1287597
9	0x3db97375	0.09055225
10	0x3de70c36	0.11281626
11	0x3e23ed74	0.1600855
12	0xbdfed71a	-0.12443371
13	0xbdd0bb75	-0.101920046
14	0xbe122970	-0.1427362
15	0x3e0288de	0.12747523
16	0x3dc2f46b	0.09519275
17	0x3e192682	0.14956096
18	0xbe06fb50	-0.13181806
19	0xbdce7515	-0.100809254
20	0x3e393fa4	0.18090683
21	0xbe066351	-0.13123824
22	0xbddf0ba7	-0.108908944
23	0x3d94442c	0.07239565
24	0xbe255186	-0.1614438
25	0xbd6989f9	-0.057016347
26	0x3d820ba9	0.0634988
27	0x3e1d07b2	0.15334967
28	0xbc2b5356	-0.010456881
29	0xbe178252	-0.14795807
30	0x3ddfd822	0.10929896
31	0x3e3d38bd	0.18478675

rnn.bias_hh_l1 f4 [32]
0	0xbdf70a4d	-0.120625116
1	0x3b103ecf	0.0022010093
2	0xbe0b4f97	-0.1360458
3	0xbdc9b29a	-0.09848519
4	0x3d869c1f	0.065727465
5	0x3dba19d4	0.090869576
6	0x3da908ef	0.08253657
7	0xbe2b56dd	-0.16732354
8	0xbd08603b	-0.033294898
9	0x3d86dd85	0.0658522
10	0xbce3097a	-0.02771448
11	0xbd835b90	-0.064139485
12	0xbdb3e74d	-0.087843515
13	0x3e23a1b0	0.15979648
14	0xbe1ac7e5	-0.15115316
15	0xbe059b9d	-0.13047643
16	0x3df5763e	0.119854435
17	0xbdcf15ee	-0.10111605
18	0x3dca2237	0.09869807
19	0xbdd3ded0	-0.103452325
20	0xbc7b5f79	-0.015342587
21	0xbd9c36cf	-0.076276414
22	0x3e1e9929	0.15488113
23	0x3e04fc2b	0.1298682
24	0x3acf292c	0.0015805117
25	0xbb37483c	-0.002796664
26	0xbda06b14	-0.078329235
27	0xbdb00d31	-0.08596266
28	0xbd6a8d66	-0.057263754
29	0x3d87ea25	0.066364564
30	0xbcb8e25c	-0.022568874
31	0x3e03a0e5	0.12854345

rnn.weight_ih_l2 f4 [32, 32]
0	0x3cfdc63b	0.030978313
1	0x3ba4a84c	0.0050249454
2	0xbddb4696	-0.107068226
3	0x3d9a8a8b	0.07545956
4	0xbe1fec70	-0.15617537
5	0x3d45a747	0.04825523
6	0x3d5f89be	0.05457472
7	0x3d0650c8	0.032791883
8	0x3ddb15e9	0.106975384
9	0x3d4de6d2	0.050268956
10	0xbd59b35b	-0.053149562
11	0xbe0bcc59	-0.13652171
12	0xbe2422c8	-0.16028893
13	0x3db2f97f	0.08738994
14	0x3dc89f69	0.0979603
15	0xbe0ebb9f	-0.1393876
16	0x3d3bd0eb	0.045853537
17	0xbd8f5548	-0.06998688
18	0x3e15b14f	0.14618419
19	0xbd645b90	-0.055751383
20	0x3e165229	0.14679779
21	0x3e0390c4	0.12848192
22	0x3dcbbfe4	0.099487096
23	0x3e031eb2	0.12804678
24	0x3d933c00	0.071891785
25	0x3d819297	0.06326788
26	0xbe20eca5	-0.15715273
27	0xbcba6c80	-0.022756815
28	0xbb597252	-0.0033179712
29	0x3db66993	0.089068554
30	0xbd901662	-0.07035519
31	0x3da02760	0.0782001
32	0x3de2cfb8	0.110747755
33	0x3d8bc5e3	0.06824853
34	0x3da9dab9	0.08293671
35	0xbcd77522	-0.02630097
36	0x3db28ecd	0.08718643
37	0xbd828172	-0.06372346
38	0x3e297828	0.16549742
39	0xbc44112b	-0.011966984
40	0x3b91a615	0.0044448473
41	0xbe163e89	-0.14672293
42	0x3e2f39e5	0.17111929
43	0xbc32fd36	-0.010924628
44	0x3dfe4e3d	0.124172665
45	0xbdf24e88	-0.11831385
46	0xbe1e2276	-0.15442833
47	0xbca61764	-0.020274825
48	0xbe08d26c	-0.1336152
49	0x3d279199	0.040910337
50	0xbb144048	-0.0022621322
51	0xbd95c704	-0.0731335
52	0x3dee500e	0.11636363
53	0x3dd8430f	0.105596654
54	0xbe1f6601	-0.15566255
55	0xbe0ea99c	-0.13931888
56	0x3dc3120f	0.09524929
57	0xbded0843	-0.115738414
58	0x3d2c69bf	0.042093035
59	0xbd4c9bd9	-0.049953315
60	0x3cec243a	0.028825868
61	0xbdd4a664	-0.10383299
62	0x3c00a012	0.007850664
63	0xbd60b67b	-0.054861527
64	0xbd8fc9a7	-0.07020884
65	0xbda2c077	-0.07946866
66	0x3d431619	0.047628496
67	0x3df7bdf5	0.12096778
68	0xbbe95a31	-0.0071213474
69	0x3bc3bfea	0.0059738057
70	0x3e090d05	0.13383873
71	0x3e1a0448	0.15040696
72	0xbd299aa6	-0.04140725
73	0xbe1cd8a2	-0.15317014
74	0x3d061e5f	0.032743808
75	0x3d21549e	0.039387338
76	0xbe058ac1	-0.13041212
77	0xbe1d740c	-0.153763
78	0x3cd40531	0.025881382
79	0x3e286155	0.16443379
80	0xbe2a5fb1	-0.16638066
81	0xbdc3b5d7	-0.095561676
82	0xbd637104	-0.055527702
83	0xbe169415	-0.14704926
84	0xbdeb5a80	-0.11491871
85	0x3e173cd1	0.14769293
86	0x3e080f16	0.13287005
87	0xbe0a2b16	-0.13492998
88	0x3c52a3b7	0.0128564155
89	0xbe0b3eb8	-0.13598144
90	0x3d8407dc	0.064468116
91	0xbde8ac84	-0.1136103
92	0xbd9903b1	-0.07471407
93	0xbd98e44a	-0.07465418
94	0x3c96d0b2	0.01841006
95	0x3de17804	0.11009219
96	0xbd8602dc	-0.06543514
97	0x3d1da892	0.03849084
98	0x3e170012	0.1474612
99	0xbc158cfb	-0.009127851
100	0x3c8830bd	0.016624803
101	0x3c8b72da	0.017022539
102	0xbc2b5f56	-0.010459742
103	0x3de53483	0.111916564
104	0x3da5182d	0.08061252
105	0xbdd17a15	-0.102283634
106	0x3e2667b5	0.16250499
107	0x3db497cc	0.088180155
108	0xbca8cb8c	-0.020604871
109	0x3e1dae62	0.15398553
110	0x3c6f57bf	0.014608323
111	0x3dd7ec6f	0.10543143
112	0xbe1f9e9a	-0.15587845
113	0x3e1b69d5	0.1517709
114	0x3e2c7d3b	0.16844647
115	0xbe0018d8	-0.12509477
116	0xbe2502d7	-0.16114365
117	0xbd316b7a	-0.04331539
118	0xbde04dfc	-0.10952374
119	0x3d3c2ec5	0.04594304
120	0x3db20ff0	0.08694446
121	0xbc81d9bf	-0.0158509
122	0x3df0589a	0.117356494
123	0x3bca0f6d	0.0061663897
124	0xbd170c11	-0.03687674
125	0xbe15f058	-0.14642465
126	0x3d515fb5	0.051116664
127	0xbe313fc6	-0.17309484
128	0xbc09ab66	-0.008402681
129	0x3ca46303	0.020066744
130	0xbdda3473	-0.10654535
131	0x3d42e3db	0.04758058
132	0x3d09cee5	0.033644576
133	0x3deee167	0.11664086
134	0x3dea6ab3	0.114461325
135	0xbe18c8e4	-0.14920384
136	0xbde6cc1a	-0.11269398
137	0xbd740a2f	-0.059580024
138	0xbdf5f92d	-0.12010417
139	0x3d8f2424	0.06989315
140	0xbdfd0c77	-0.12355893
141	0xbe0b6a71	-0.13614823
142	0x3d3fbd4c	0.046811387
143	0x3de82832	0.11335792
144	0xbd2d5c15	-0.042324144
145	0xbe2b02a9	-0.16700234
146	0x3c9cb7f9	0.019130694
147	0x3da8867f	0.08228778
148	0x3e1009d0	0.14066243
149	0x3c23caaa	0.009997049
150	0x3dfc7397	0.123267345
151	0xbe1fe97c	-0.15616411
152	0x3e2311a3	0.15924697
153	0xbdf8f987	-0.121569686
154	0xbde2ab69	-0.1106785
155	0x3e0001b9	0.12500657
156	0xbd3dfe5b	-0.04638515
157	0x3dd4834c	0.103766054
158	0xbdf15709	-0.11784179
159	0x3e0febfc	0.14054865
160	0x3e235c64	0.15953213
161	0x3d50d27a	0.050981976
162	0x3e0b291f	0.13589905
163	0xbe042223	-0.12903647
164	0xbd2250bc	-0.039627776
165	0x3d88670d	0.066602804
166	0x3dcefb0e	0.10106479
167	0xbdcc7a09	-0.09984214
168	0x3e03ff92	0.12890461
169	0xbd55cb44	-0.052195802
170	0xbdb547c3	-0.08851578
171	0x3d47f475	0.048817117
172	0xbe17a65b	-0.14809553
173	0xbe25f107	-0.16205226
174	0x3d626e9b	0.055281263
175	0x3d86251b	0.06550046
176	0x3d9ae320	0.07562852
177	0xbc8366a7	-0.01604016
178	0xbe0567f0	-0.1302793
179	0xbe18fafc	-0.14939493
180	0x3e2e49b4	0.17020303
181	0xbe244213	-0.1604083
182	0x3d569e6e	0.052397184
183	0x3e1543d4	0.14576656
184	0x3df89dde	0.12139486
185	0xbdef7ddc	-0.11693928
186	0xbd4a0d9b	-0.04932938
187	0xbe0f5d16	-0.14000353
188	0x3db69b0d	0.08916292
189	0xbe2c13f0	-0.1680448
190	0xbe2278fb	-0.15866463
191	0xbde5c209	-0.1121865
192	0x3e0b00a4	0.13574463
193	0x3ddfc47d	0.10926149
194	0x3de088db	0.10963603
195	0x3e00ee20	0.12590837
196	0xbda6a3c3	-0.08136704
197	0xbdd0621a	-0.101749614
198	0xbdce43ea	-0.10071547
199	0x3d5028c3	0.050820123
200	0x3db51ec6	0.0884376
201	0x3d2e7aab	0.042597454
202	0xbe02785d	-0.12741227
203	0x3cf7903e	0.030220147
204	0xbdd35646	-0.1031919
205	0xbd23eff2	-0.04002375
206	0xbd08b997	-0.033380117
207	0x3c88a7c1	0.016681554
208	0xbe11d8c8	-0.14242852
209	0x3e2599de	0.16171977
210	0xbdac238c	-0.084052175
211	0x3d39fd9e	0.045407884
212	0x3e01beba	0.12670413
213	0x3d827e5b	0.06371757
214	0x3e024b9a	0.12724152
215	0x3dd7fce3	0.10546281
216	0x3df8e6de	0.121534094
217	0x3cf24c6f	0.029577462
218	0x3dff42c5	0.12463907
219	0xbd992652	-0.07478012
220	0xbde11576	-0.109904215
221	0x3d9fc932	0.07802047
222	0x3d5a35f0	0.053274095
223	0x3a95448d	0.0011388228
224	0xbe0f8925	-0.1401716
225	0x3d826df0	0.06368625
226	0x3dfa44e2	0.122201696
227	0xbc70e1c2	-0.014702262
228	0x3d1c6cf4	0.038189843
229	0x3da5cd15	0.08095757
230	0xbe3988f9	-0.18118657
231	0xbcb2e014	-0.021835364
232	0xbda86edb	-0.08224269
233	0xbdc8ba17	-0.09801119
234	0x3dccb6d8	0.09995812
235	0x3e25a02c	0.16174382
236	0x3d15a4b3	0.036534023
237	0x3de86d87	0.11349016
238	0xbe002303	-0.12513356
239	0x3cc32ca1	0.023824992
240	0xbcfee0d1	-0.03111306
241	0xbdefd400	-0.11710358
242	0x3d273693	0.04082353
243	0x3d84838e	0.064704046
244	0xbc52b6af	-0.012860938
245	0x3daa7821	0.08323694
246	0x3dab9425	0.08377866
247	0x3e1fc0d2	0.15600899
248	0x3cbcc310	0.023042232
249	0x3c5939cc	0.013258409
250	0xbc412bd3	-0.011790234
251	0x3cc4e0e1	0.024033012
252	0xbdcac9f3	-0.099018
253	0xbc831e51	-0.016005667
254	0xbe200ca2	-0.15629819
255	0xbe068d28	-0.13139784

rnn.weight_hh_l2 f4 [32, 32]
0	0xbd8ac175	-0.0677518
1	0x3dbca18d	0.09210501
2	0x3dbeffd3	0.09326138
3	0xbe10dbf7	-0.1414641
4	0x3d3dc1d0	0.046327412
5	0x3d8a0f07	0.067411475
6	0xbdc21deb	-0.09478363
7	0x3e155824	0.14584404
8	0x3e1408f5	0.14456542
9	0x3e142887	0.14468585
10	0xbbb7f8db	-0.0056143827
11	0xbdbd437f	-0.092413895
12	0xbdcafc97	-0.09911459
13	0x3d868bf4	0.06569663
14	0xbd054ef4	-0.032546
15	0x3e107b1e	0.14109465
16	0x3e1b1ecb	0.15148465
17	0x3cfd2f87	0.030906452
18	0xbe11925b	-0.14215986
19	0x3daa8f93	0.08328166
20	0x3e2e07c9	0.16995157
21	0xbd7c41e3	-0.061586272
22	0xbd953ce5	-0.07287005
23	0xbd35cf08	-0.044386894
24	0x3c9d483e	0.019199487
25	0xbe08575d	-0.13314576
26	0x3dbb19dc	0.09135792
27	0x3d9eec37	0.07759898
28	0xbd7291a5	-0.05922093
29	0xbd3e4609	-0.04645351
30	0xbd8e528c	-0.06949338
31	0x3e0cb9a5	0.13742693
32	0x3dc8790f	0.09788715
33	0x3d69c349	0.057071004
34	0x3b790b2d	0.0038001046
35	0x3d279f12	0.040923186
36	0x3e24a77a	0.16079512
37	0x3d816d21	0.06319643
38	0xbdc98aec	-0.0984095
39	0x3da66ad0	0.081258416
40	0xbd9f41d0	-0.077762246
41	0x3ab56c8f	0.0013841557
42	0xbde9ae9b	-0.114102565
43	0x3b1a3d11	0.0023534934
44	0x3b92a671	0.004475408
45	0xbde991ed	-0.11404786
46	0x3de5112c	0.11184916
47	0x3e288cb4	0.16459924
48	0xbe12dfe9	-0.14343227
49	0x3d2b8d3a	0.04188273
50	0xbdf7d835	-0.12101785
51	0xbcd5ed12	-0.02611402
52	0x3d95386e	0.07286154
53	0xbb1e9c3f	-0.0024202017
54	0x3d6ff02a	0.058578648
55	0xbd49697c	-0.049172863
56	0x3e32ceab	0.1746165
57	0xbd9c075b	-0.076185904
58	0x3d26a6c0	0.04068637
59	0x3c57f302	0.013180496
60	0x3e01132b	0.12604968
61	0x3c8b1a3b	0.016980281
62	0x3dd421fd	0.10358045
63	0x3d20bde7	0.039243605
64	0x3df2ad60	0.11849475
65	0xbb9e971c	-0.004839791
66	0x3d458b46	0.048228525
67	0x3e380ccf	0.17973636
68	0xbd2b2a0b	-0.041788142
69	0xbda289a9	-0.07936413
70	0x3e1080d8	0.1411165
71	0x3d654728	0.055976063
72	0xbe218b6c	-0.15775841
73	0x3d62c635	0.055364806
74	0xbe30656e	-0.17226192
75	0xbdc72ef4	-0.097257525
76	0x3d99d4e1	0.075113066
77	0x3dcdf77d	0.1005697
78	0xbcf56c06	-0.029958736
79	0x3e1715e9	0.14754452
80	0x3e2ecb42	0.17069724
81	0x3e19965b	0.14998762
82	0xbe2bd4d8	-0.16780412
83	0xbd97197f	-0.0737791
84	0x3cabc508	0.020967975
85	0x3e0f2cfd	0.13982005
86	0xbcdceca3	-0.026968306
87	0x3ceab4f8	0.028650746
88	0x3db1754f	0.08664953
89	0xbdcd90b5	-0.10037366
90	0xbdeb4a5f	-0.114887945
91	0x3e3a1940	0.18173695
92	0xbbf66745	-0.007519635
93	0x3dff3fe2	0.124633566
94	0xbe282130	-0.1641891
95	0xbd808054	-0.06274477
96	0x3e05db10	0.13071847
97	0xbc978aad	-0.018498743
98	0x3d456f78	0.048202008
99	0xbe130f88	-0.14361393
100	0x3e3f902f	0.18707345
101	0xbdc0cf55	-0.094145454
102	0x3a4d38e2	0.00078286056
103	0xbe0629ad	-0.13101836
104	0xbd8eb7ab	-0.06968626
105	0xbe206e33	-0.15667038
106	0xbe203184	-0.15643889
107	0xbd07d9b6	-0.03316661
108	0xbda2c7f4	-0.07948294
109	0x3e0b4c01	0.13603212
110	0xb9c7ef73	-0.0003813464
111	0x3e0b426a	0.13599554
112	0xbd20d32f	-0.0392639
113	0x3d5af334	0.053454593
114	0x3e3fc77e	0.18728444
115	0xbe142da9	-0.14470543
116	0xbd7cc2e3	-0.061709296
117	0x3e099438	0.13435447
118	0xbce8ca47	-0.028416766
119	0xbd57a04e	-0.052643113
120	0x3c0265af	0.007958814
121	0xbdc80ad4	-0.0976769
122	0x3bdcdd07	0.0067402157
123	0xbd8efb3a	-0.069815114
124	0x3d5da069	0.054108057
125	0xbcb01bb1	-0.02149758
126	0xbd3e948c	-0.046528384
127	0xbd89053f	-0.06690454
128	0x3d160071	0.036621515
129	0x3db69b83	0.0891638
130	0xbe1a36be	-0.15059945
131	0xbe03b560	-0.12862158
132	0xbe43171f	-0.19051789
133	0x3db48f99	0.088164516
134	0x3df99775	0.12187091
135	0xbe20c783	-0.15701108
136	0x3d1dd63d	0.03853439
137	0x3d2814d8	0.041035503
138	0xbdb50ebc	-0.08840701
139	0x3d18febc	0.03735231
140	0x3e0eda39	0.13950433
141	0x3e2b53cc	0.16731185
142	0x3d9b48ab	0.0758222
143	0xbd15b624	-0.036550656
144	0xbdba2328	-0.09088737
145	0xbda4c2d1	-0.08044971
146	0xbc6a5fd1	-0.014305071
147	0xbbf1c359	-0.0073780236
148	0x3de887c9	0.11354024
149	0xbe16918c	-0.14703959
150	0xbb0a1c80	-0.0021074116
151	0xbd4d65ca	-0.0501459
152	0x3cae9fee	0.021316495
153	0x3e31a92b	0.17349689
154	0x3c36ec66	0.01116476
155	0xbd17fca3	-0.037106168
156	0xbd68de4b	-0.05685262
157	0xbe484a28	-0.19559538
158	0xbe352ca5	-0.17692812
159	0x3d8a8daf	0.06765305
160	0xbde81f8e	-0.113341436
161	0x3dc03631	0.09385336
162	0xbd1aaced	-0.03776257
163	0x3d6fd8e7	0.058556464
164	0x3de26dca	0.11056097
165	0x3cf23e88	0.029570833
166	0x3d4cbd38	0.04998514
167	0x3e288c43	0.16459756
168	0xbd80211f	-0.06256317
169	0x3e07d264	0.13263851
170	0xbe1534c1	-0.14570905
171	0x3e26518e	0.16242048
172	0xbd65d2c0	-0.05610919
173	0xbc2e9747	-0.0106561845
174	0x3dc3a6b4	0.095532805
175	0x3c32cc0c	0.010912906
176	0x3e2901d4	0.16504604
177	0xbdbadd39	-0.09124226
178	0xbdf55efe	-0.11981009
179	0x3e28b0a8	0.16473639
180	0xbde3724f	-0.11105787
181	0x3e0aa0c2	0.13537887
182	0x3e1ba5ef	0.15200017
183	0x3dff22f1	0.124578364
184	0xbd804b76	-0.06264393
185	0xb9552c0d	-0.00020329673
186	0xbe1e83c4	-0.15479952
187	0xbdcdf4ac	-0.10056433
188	0xbd0d3754	-0.034476593
189	0xbe063177	-0.13104807
190	0x3db37dac	0.087642044
191	0x3d9bb959	0.07603712
192	0xbd3793db	-0.04481874
193	0xbccf13cb	-0.025277993
194	0x3e3b2752	0.18276718
195	0xbc988b5b	-0.018621137
196	0x3e0df554	0.13863117
197	0x3e2d5669	0.16927494
198	0xbd994732	-0.074842826
199	0xbe25345e	-0.16133258
200	0x3e213d75	0.157461
201	0xbdb6000d	-0.088867284
202	0x3e2c7677	0.16842066
203	0xbddd76a5	-0.10813645
204	0x3ced20b8	0.028946266
205	0x3d39ec1c	0.045391187
206	0xbd23e55a	-0.04001365
207	0x3e0e130a	0.1387445
208	0xbe169259	-0.14704265
209	0xbda7a74a	-0.08186205
210	0xbd304761	-0.043036822
211	0x3e0ed224	0.1394735
212	0x3d81a531	0.06330336
213	0x3dfca147	0.12335449
214	0x3d9c024a	0.07617624
215	0x3e2acbb2	0.16679266
216	0xbd102412	-0.03519065
217	0xbd43af19	-0.047774408
218	0xbc92a7be	-0.017902251
219	0x3d7a4796	0.061103426
220	0xbd3e6da9	-0.0464913
221	0x3d494216	0.04913529
222	0x3d12033d	0.03564762
223	0x3ce12aeb	0.027486285
224	0x3e097c7a	0.1342639
225	0x3cc1e7d8	0.023670122
226	0x3dd89d4a	0.105768755
227	0xbd308757	-0.04309782
228	0xbe12a5b1	-0.14321019
229	0x3dd07b1a	0.1017973
230	0x3dacd845	0.08439688
231	0x3e0a5634	0.13509446
232	0x3d999629	0.07499344
233	0xbb29695d	-0.0025850155
234	0xbe04de2b	-0.12975375
235	0xbe2e92cf	-0.1704819
236	0x3d20ee0f	0.03928953
237	0x3e19b05e	0.15008685
238	0xbc846ad8	-0.016164228
239	0xbd6f7299	-0.0584589
240	0x3d9d7b86	0.07689576
241	0xbd98959a	-0.07450409
242	0x3d812b01	0.063070305
243	0xbe1bb1ba	-0.15204516
244	0xbe15543e	-0.14582917
245	0xbdd3ae6d	-0.103360035
246	0xbc609698	-0.013707779
247	0x3d55fb1f	0.05224144
248	0x3da9ec6c	0.08297047
249	0xbdf1f22c	-0.11813769
250	0xbd30e933	-0.043191146
251	0x3d8363c4	0.06415513
252	0xbd3406c7	-0.043951776
253	0x3b7cad18	0.003855532
254	0x3e013520	0.12617922
255	0xbd3022a8	-0.0430018

rnn.bias_ih_l2 f4 [32]
0	0xbd7d4c65	-0.061840434
1	0x3dcb3b21	0.09923387
2	0x3e1aff8b	0.15136544
3	0xbd58191e	-0.05275833
4	0x3e056a38	0.130288
5	0xbbafc8d6	-0.0053645177
6	0xbcda8145	-0.026672969
7	0xbcf3d3a0	-0.029763997
8	0xbd938260	-0.072026014
9	0x3d70dd3f	0.058804747
10	0xbc314d5e	-0.010821668
11	0xbdc3645c	-0.095406264
12	0x3dd4d965	0.10393027
13	0xbdac6e71	-0.084195025
14	0xbe000709	-0.12502684
15	0x3d8cf9e8	0.06883603
16	0xbc9b3906	-0.01894809
17	0xbdb3f8d9	-0.08787698
18	0xbe0c7126	-0.13715038
19	0xbd7de309	-0.061984096
20	0xbe00ef5c	-0.12591308
21	0x3db40c0b	0.087913595
22	0xbc91b9f2	-0.017788861
23	0x3dc72f8b	0.09725865
24	0x3dc2bdcc	0.09508857
25	0x3cc0bead	0.023528421
26	0xbcc060e7	-0.023483707
27	0xbdcab5ef	-0.09897982
28	0x3d3729a2	0.04471744
29	0xbe171047	-0.14752303
30	0xbd9d6460	-0.07685161
31	0x3e19f57c	0.15035051

rnn.bias_hh_l2 f4 [32]
0	0xbd1d5037	-0.038406577
1	0x3e1ba9fa	0.1520156
2	0x3dc342a8	0.09534198
3	0xbd3b2332	-0.04568786
4	0xbe099d82	-0.1343899
5	0x3e199968	0.14999926
6	0x3cc14a13	0.023594892
7	0x3e2203a1	0.15821697
8	0xbe1b6402	-0.15174869
9	0x3d3fe633	0.046850394
10	0xbe2610e5	-0.16217382
11	0xbcfbcd9d	-0.030737692
12	0xbe276132	-0.16345671
13	0xbe2a1b6c	-0.16612023
14	0x3b6d1d05	0.0036180627
15	0x3e3a1c67	0.18174897
16	0x3bb2a9c0	0.0054523647
17	0xbbe3720d	-0.006941086
18	0x3e3010bd	0.17193885
19	0x3beaadc1	0.0071618264
20	0xbdb6d1ad	-0.08926711
21	0x3dd559f7	0.1041755
22	0x3e057f73	0.130369
23	0x3e2351af	0.15949129
24	0x3e179d1e	0.14806029
25	0x3e31c81c	0.17361492
26	0xbd7d40a9	-0.061829243
27	0x3c90438f	0.01761034
28	0xbd741124	-0.05958666
29	0xbc8e088c	-0.01733806
30	0x3e18a116	0.149052
31	0xbe056d3f	-0.13029955
