notebooks/model.pth (torch, 88529 bytes, 42 tensors)

net.0.weight f4 [32, 1]
00000000: ee6c 093f 5503 143f 4ea6 3fbe 72e7 1f3f
00000010: dab3 01be 9bc4 c73d 74d0 b7be 85b7 df3e
00000020: 256c 283f 786d fdbe de50 1e3f 2046 003e
00000030: 4825 033f b683 973d 04d2 bb3e e06b dfbd
00000040: a227 0c3f 0ab2 7a3b db7d b5be d785 3d3e
00000050: 5e29 b0be 1549 91bc 6810 86be 09cd e93e
00000060: 542c 16bf 99c9 8fbe 4818 73be 2f3a cdbe
00000070: e3cc 293b 1383 3cbf ad6a 203f 9354 18bf
0.5368184 0.57817584 -0.18715784 0.6246253 -0.12666264 0.097542964 -0.35901225 0.43694702
0.65790015 -0.4949758 0.61842144 0.1252675 0.5122876 0.07398169 0.36683667 -0.109092474
0.54747975 0.0038253092 -0.35447583 0.18508087 -0.3440656 -0.017735044 -0.26184392 0.45664242
-0.5866139 -0.28083494 -0.23739731 -0.40083453 0.0025909476 -0.73637503 0.62662774 -0.5950405

net.0.bias f4 [32]
00000000: 5da1 37bc 17eb 90bb dcaa fdbc 5e54 acbc
00000010: 2a14 a93c 9fd6 36bd 50a2 b7bc 13b2 2d3c
00000020: 39c5 9b3c c9fd 063c 3981 983b 0157 8dbc
00000030: c529 7cbc 01ba b3bc 5fc3 df3c 02a8 963c
00000040: 9b74 5dbc 3d93 c3be 3e7b e0bc 3a4e 043c
00000050: b752 35bc 8b68 923c b32c c5b8 ebf0 77bc
00000060: 9d9b 6bbc 27bb 1d3d 1211 b0bc 8085 903c
00000070: 42a5 b8bd 3c86 d9bc ec20 15b9 98b9 0b3c
-0.011207906 -0.004422556 -0.030965261 -0.021036323 0.020639498 -0.044638272 -0.022416264 0.010601538
0.019014942 0.008239218 0.0046540764 -0.0172534 -0.015390818 -0.02193928 0.02731484 0.01839066
-0.01351657 -0.3819827 -0.027402516 0.008075291 -0.011067084 0.017872116 -9.402018e-05 -0.015133123
-0.014380363 0.03850856 -0.021492515 0.017641783 -0.090158954 -0.026553266 -0.00014222012 0.008528136

net.2.weight f4 [32, 32]
00000000: bdbc b83e 419e 533d d3a5 05be 237f 903e
00000010: 8c2f e93d 2d67 c13e 60dc b63d 8a78 47be
00000020: 21e0 d43d 1f03 d7bd 3ff9 393e 86c5 d73e
00000030: 3f05 863e cf37 84be 4678 853e 175a fe3d
00000040: f7ec 673e 6d27 7cbe 963a f1be eca1 6dbe
00000050: 7407 b7be 636e eb3e cb2b 393e acf3 353e
00000060: 5f5c 473e f98e c43c cc47 de3e f4be a8be
00000070: a359 273c 0841 a1be e6f9 fd3d 5108 12be
00000080: 59c8 0e3e dee4 fcbd e6c4 de3e 2abc a3be
00000090: a0f5 98be 6d15 9cbe 7e0c f33e 06b5 1c3e
000000a0: de5a f23e c80e cfbe 0a12 06bf 2150 cebe
000000b0: ad49 b8be 074b 553e b79f 2a3e bb0b da3e
000000c0: 4d85 8fbe 3c9c afbe b6cb 923e 4877 5ebe
000000d0: a97a a63e f13d 10be 556a 9c3e fa8a d3be
000000e0: f2b2 75be 5f65 2c3e fc8b f83d 0e3c eabd
000000f0: 2ece 9e3e edc2 ba3e 976b c6be 859f 82be
00000100: 28ca e93e 0da3 39be 249a 1fbe b27f 00bf
00000110: a80a 88be 7146 d03d f501 4dbd 0e04 c5be
00000120: bd9d 803b 4471 acbe 4b31 e2be 11d2 9dbe
00000130: 1f75 eabe beeb b3be f846 fc3e 5329 fe3d
00000140: ef27 163e 0d34 19bf b194 a2be 46fd 46be
00000150: 81e9 c73d 83b9 d9be 0f40 4cbe 3539 a3be
00000160: a6ce 393c ff1c 2ebe 723f 42bc ff55 a9be
00000170: 6db6 ddbe c51f 95be 4184 3bbe b566 c9be
00000180: 5e1a d83e 9159 debd 8c97 d53e 799b 1a3e
00000190: 2791 edbe e291 c43e 8c32 12be 0315 4abe
000001a0: f013 ddbe 44b1 00bf 3519 0e3e be4f 9cbd
000001b0: 021c 463e 9980 c2be 5b2a c33e 9f92 d7be
000001c0: 45be bfbd dfe5 f73d 0774 853e 0bb8 dc3e
000001d0: f7af ec3e 22f7 afbe 6583 f73d 78c2 63be
000001e0: 942f 4bbd b41d c7be cead e53e 1796 bfbe
000001f0: 6d9d 6e3e 31af 413e 72b5 213e 91cc 89be
00000200: e708 ed3e f381 e23d a5ec 643d 3195 e7be
00000210: 5817 533e c5db 99bd 6d14 73be 8438 e13e
00000220: b3d9 e33d a95a 90be 9a54 85be 8375 4abc
00000230: cfa8 913e 8977 06be f753 93be 1c14 41be
00000240: 7c97 c3be 2478 c13d 4c1b c83e 32c2 f1be
00000250: 3879 eb3d 3fc8 c63e aed9 b43d 3a82 39be
00000260: ec08 893e 202a 873e 128b 3a3e 649d bbbd
00000270: 0cd4 66be de0e 6f3d 5af0 bdbd 71cf 19be
00000280: 29c8 953e cefe cf3e 7693 deba b55b 15be
00000290: 20e6 7d3d 4607 d1bd 8998 273e 3bf6 d63d
000002a0: 7d91 fdbe 99e1 1cbe 2447 cb3e ca64 153e
000002b0: 7a09 74bd c568 c3be 56ed b4be 49e2 cbbe
000002c0: f47b 4cbe 44d3 313f 07f6 bb3e cd05 403e
000002d0: c9db d1be 6d24 d8bd 99d5 16bd 6fd8 e93e
000002e0: 8a2d dc3d f1ad b7bd e857 843e c90f 20be
000002f0: 9220 aebe 6d44 ce3e 9946 87be a4e4 8dbd
00000300: da22 0abf 0f92 9f3e 7364 e43e aa25 213e
00000310: 39c6 95be d900 10bf da34 bebe a55f af3e
00000320: 8182 5d3e f81b ed3e 8843 733e 2c12 843d
00000330: 8fec 1abd c76a e5be 27e6 f5be 680a d2be
00000340: 584a 353e 0d30 fcbe fdc5 71bd e800 b4be
00000350: 0d07 4abd 5f61 b5be 85bb 91be f662 083e
00000360: 3c7c f6bd 1c73 b93e 2916 ddbd 79c9 abbe
00000370: 0920 4ebe 941a 64be 62a6 3dbe 952c e9be
00000380: 9648 a03e 4241 a8be 8050 663e eb1f 843e
00000390: e7c1 a83e 042d b5be 91b9 ac3e 31c4 59be
000003a0: 8b32 5c3e 05de e63e aaa9 3abd 78b5 f53c
000003b0: 1013 b7bd 6a12 c7be 18a2 8c3e da26 0abf
000003c0: 6221 b03e af6d dc3e 37ff e73e a2fc b2bd
000003d0: 1778 e6be 2771 743d 1c87 7f3e 3b31 f5be
000003e0: d6d3 11be 7c2b adbe de6a 9bbd b1ad 8fbe
000003f0: 29fb 14be 499d 3fbe c7a8 eabe 5b99 c83e
0.36081496 0.051664595 -0.13051538 0.28221998 0.11386022 0.3777403 0.08928752 -0.19479576
0.10394312 -0.10498642 0.18161486 0.42142886 0.26175877 -0.2582383 0.26068324 0.12419527
0.22648989 -0.24624415 -0.4711501 -0.232063 -0.35747874 0.45982656 0.18083112 0.17768735
0.1946883 0.023993956 0.43414152 -0.32958186 0.010214242 -0.31494927 0.1240118 -0.14260985
0.13943614 -0.123483405 0.43509597 -0.31979495 -0.29874897 -0.30485097 0.47470468 0.1530343
0.4733495 -0.40440965 -0.52371275 -0.40295509 -0.3599371 0.20829402 0.16662489 0.42587075
-0.28031388 -0.34298885 0.28671044 -0.2172519 0.32515457 -0.14086129 0.30549875 -0.41316968
-0.23994043 0.16835545 0.12136075 -0.11437236 0.31016678 0.36476842 -0.3875396 -0.2551233
0.45662045 -0.18128605 -0.15586144 -0.5019485 -0.2657063 0.10169686 -0.050050694 -0.38479656
0.003925054 -0.33680165 -0.44178233 -0.3082433 -0.4579248 -0.35140795 0.49272895 0.12410226
0.14663671 -0.5984505 -0.31754068 -0.19432554 0.09761334 -0.42524347 -0.19946311 -0.31879583
0.011340773 -0.17003249 -0.011855947 -0.33073422 -0.43303242 -0.291258 -0.1831217 -0.39336172
0.42207617 -0.10856927 0.41717184 0.1509837 -0.46399805 0.3839255 -0.14277095 -0.19734578
-0.43179274 -0.50270486 0.13876803 -0.07632397 0.19346622 -0.37988737 0.38118252 -0.4210405
-0.09362463 0.12104391 0.26065084 0.43109164 0.46228 -0.34368235 0.120856084 -0.22242153
-0.04960592 -0.3888985 0.44859165 -0.37419197 0.2330224 0.18914486 0.15791872 -0.26913884
0.46295854 0.11059942 0.055889744 -0.45231012 0.20614374 -0.07512621 -0.2373826 0.4398843
0.11125507 -0.28194168 -0.26041108 -0.012357119 0.28449103 -0.13131537 -0.28774998 -0.18855327
-0.3820151 0.09446743 0.39083326 -0.47218472 0.1149773 0.3882465 0.088305816 -0.18116084
0.2676462 0.26399326 0.18217114 -0.09160879 -0.22541827 0.058363788 -0.09274359 -0.15020539
0.29254273 0.40624088 -0.0016981203 -0.14585765 0.061987042 -0.102064654 0.16366781 0.104961835
-0.4952506 -0.15320434 0.39702713 0.14589229 -0.05957935 -0.3816587 -0.35337323 -0.3982108
-0.1996916 0.6946299 0.3671114 0.18752213 -0.40987995 -0.10553823 -0.036824796 0.45672938
0.107508734 -0.089687236 0.25848317 -0.15631022 -0.34009224 0.4028658 -0.2642105 -0.06928375
-0.5395943 0.3116612 0.44607887 0.15737024 -0.29252794 -0.56251293 -0.37149698 0.34252658
0.21631815 0.463104 0.2375623 0.064487785 -0.037823256 -0.44808027 -0.48027155 -0.41023564
0.17704141 -0.4925541 -0.059026707 -0.3515694 -0.04932313 -0.3542585 -0.2846338 0.13319
-0.120354146 0.36220634 -0.10795242 -0.3355215 -0.20129408 -0.22275764 -0.18520501 -0.45541826
0.3130538 -0.32862288 0.22491646 0.258056 0.32960436 -0.35385907 0.33735326 -0.21266247
0.21503656 0.45091262 -0.04557196 0.029993758 -0.08939183 -0.38881236 0.27467418 -0.5396553
0.3440047 0.43052432 0.453119 -0.08739592 -0.45013496 0.059678223 0.24953884 -0.47889122
-0.14240965 -0.33822238 -0.07588743 -0.28062204 -0.14548935 -0.18712343 -0.45831892 0.391795

net.2.bias f4 [32]
00000000: c445 00bd b928 66bc 08e7 04b9 cd4f 29bc
00000010: 12c7 d9bb 381d 93bc 5caf 89bc ed92 423c
00000020: a1ef 053c 1d6d c7bb ffde 223c 8ada 963c
00000030: b008 123d 4dc2 39bc acf7 b33b 5410 383d
00000040: 5d42 153c a480 143c 3c17 77bc 1a6d 313d
00000050: 9bad 22bb cb47 f63c 6239 a5b9 3c51 693c
00000060: d9cc 26bd c0d3 06bc 0351 2abc 5ac1 bfba
00000070: 0c3f d33c 8d8b c23b b5f4 72bc bd39 cdbb
-0.031316534 -0.014047795 -0.00012674567 -0.010333967 -0.0066460455 -0.017958269 -0.01680725 0.01187585
0.008174808 -0.0060860054 0.009940862 0.018414754 0.035652816 -0.011337829 0.0054921713 0.044937447
0.0091100605 0.009063873 -0.015081223 0.043316938 -0.0024822715 0.03006353 -0.00031514006 0.014240559
-0.0407227 -0.008229196 -0.010395291 -0.0014629767 0.025786899 0.005937046 -0.0148288505 -0.0062629865

net.4.weight f4 [32, 32]
00000000: 48ea 75bd a6ec 62be fe98 25bd 3f98 d6be
00000010: 5fe9 d2be 34f2 973e ae6a ec3e bed0 f43e
00000020: d43b d8be 7758 873e a9c5 9dbe 3a24 a13e
00000030: b023 bc3e c21a c33e b35b c03e 7bec 9c3e
00000040: 02e3 9c3c 090a a73e 8c07 00be 3680 6f3e
00000050: 34c4 26be 04c1 94ba 831a ebbe 508c bbbd
00000060: 0f61 85be b05b a6be ba31 c0be 78df efbe
00000070: ed53 cb3c 9bea ab3e 7ab8 e93e 1d1e 8b3e
00000080: 60ff 84be 06e9 02bf 98d9 df3d f438 9a3e
00000090: ecf8 e4be 1346 713e 6b75 d53e e77c bd3c
000000a0: 1db9 87be fbc5 d33e 298a 693e 3ad8 b33e
000000b0: 5e4a a2be 6139 903e 12bf adbe f9cc f53e
000000c0: 3c6a 57be 768e 803e 1e5d 6d3d 6585 0e3e
000000d0: e11c 8dbd cb70 5f3e a15c 88be 41a4 17bf
000000e0: 6ed8 44be 2377 033f efdb 19be 4832 1d3e
000000f0: 0cba 4abe 92fb c93e 67fe 973e 5d3e 7a3e
00000100: 402f 80be e2db dabe c827 153b e75a 97be
00000110: ffe7 d43e 5579 f8be cedb 693e 9d96 003f
00000120: e576 843e 93c0 2e3e 4934 f8be 5dca ff3e
00000130: 32e5 bebd 0d63 fabe 0b16 033f 9328 5cbe
00000140: 950f cdbc c3e3 093f a13b cebe a6f4 b3be
00000150: d0f3 a13d fa13 73bd 8a8b e33d 3681 eabe
00000160: 9516 d93c 8642 4abe a754 7ebe a2de f3be
00000170: 0d7e 863e 78d6 c83d eb03 e1be bd52 ce3e
00000180: 65ee 1c3e 3b99 bf3d ffcb 8bbe 48eb ab3d
00000190: 72de f63e bca2 ad3e 4c65 c9be a2cd eb3e
000001a0: 24a2 cb3c c2a3 6d3e e835 ce3e 6ba4 e13e
000001b0: aa00 b9be 1db0 e33e 368e afbe 1d47 013d
000001c0: a4e7 b6be a054 53be cc35 f23c 2395 70bd
000001d0: 2c21 7abd 4503 303d 30c4 023f 2395 ae3e
000001e0: 158c 913e ce99 143e 0167 c33e b803 dabc
000001f0: 103b 143d 20e5 ec3d 0d9d e5be 5b8d d6be
00000200: d516 783d c5de 4bbe 1e3c 09be c5e7 f3bd
00000210: 4c99 9f3d b92c bb3e 9b6c 49be 8742 d23e
00000220: 654a f03e 0a57 c4be d4d5 c8be ebd0 d2be
00000230: 6166 89be cb89 4abe a369 18bd 9172 fcbd
00000240: 38b0 84be 41e5 57be 6de5 7dbe a99a fe3e
00000250: 8d77 3ebe 5c97 babe b9ed 573e adcb f8bd
00000260: 3e44 c93e ad72 023f 9450 0a3f 34ad bebe
00000270: d8da a73e ce77 dc3e f030 81be ce8b 093f
00000280: baf1 c33e 2718 a13b c759 813e b7ac 3abe
00000290: 9391 e3be 8c50 d33d 0577 1c3e 9def aabe
000002a0: fec3 7a3e ca2e e1be 282d e03e 6a4c fb3e
000002b0: d59c 223e b557 a2be 4f2f 7d3e f0cc d03d
000002c0: c2e6 0e3e e0a3 323e 6a26 c83e f4b6 5dbe
000002d0: ec8b e5bd 812d 113e 5fb1 723d 6b65 e13e
000002e0: f8d3 8bbe 7a7c 32bd 829c bc3d 895b 0dbe
000002f0: 5a8e b43e cbe2 5d3d e7ad f1be 30be 8cbd
00000300: 8436 75be 1217 683d cb05 b6bd 4bc8 00bf
00000310: 2b49 b7bd 3c2d bdbc 9c38 29be 2379 f13e
00000320: 5d24 c2bd c43a a83e 2d5d 013e b095 ddbe
00000330: f758 f93d 903f d83e e45a adbe cf05 b1be
00000340: a658 fb3e 264d cc3e 5450 9dbe eea4 9a3e
00000350: e261 85bd 40b6 02bf 6d22 683c 73c4 143e
00000360: b6d6 1ebe afd4 533e c549 e4be 223d b83e
00000370: 9ff2 df3e d3f9 8e3e ff71 ba3d b9a3 2d3e
00000380: 5f50 b6be cb15 0abe 1e70 0cbd dcdd 95be
00000390: 25de c0be b036 aa3e d1e7 b83e 3c5b eebe
000003a0: 0373 133e 1a88 593e 8b2d f73e 8107 963e
000003b0: 9cd2 db3e d5ec 24be 8a0d b93e f193 dc3e
000003c0: 17bf f0be df63 c7be a389 063e 8864 923e
000003d0: b0ec 81be 9b17 7c3d 0580 e83c 7b8f 0a3e
000003e0: 52a0 88be cccf 953e d122 bb3e 4898 b8be
000003f0: a0be 3f3b 68c5 39bb af7e 243e 96cc ef3e
-0.06003788 -0.22160587 -0.040429108 -0.4191303 -0.41193673 0.29676974 0.4617514 0.47815508
-0.42233145 0.2643468 -0.30814865 0.3147295 0.36745977 0.38106352 0.3756996 0.3064917
0.019151215 0.32624844 -0.12502879 0.23388752 -0.16285783 -0.0011349027 -0.45918664 -0.09157622
-0.26050612 -0.32491827 -0.37537938 -0.4685018 0.024820292 0.33577427 0.45648557 0.27171412
-0.25976086 -0.51136816 0.109301746 0.30121577 -0.44721162 0.23561887 0.41691145 0.023130847
-0.26508418 0.41361985 0.2280661 0.35125905 -0.31697363 0.28168777 -0.33934838 0.48007944
-0.21036619 0.2510869 0.05795013 0.13918073 -0.06890274 0.21820371 -0.2663317 -0.59235007
-0.19223186 0.51353663 -0.15025304 0.15351212 -0.19797534 0.39449745 0.2968628 0.24437852
-0.2503605 -0.42745882 0.0022759307 -0.2956154 0.4158325 -0.4853007 0.22837755 0.5022982
0.2587196 0.17065649 -0.4847739 0.49959078 -0.09321059 -0.48903695 0.5120551 -0.21499853
-0.025031844 0.5386316 -0.40279868 -0.3514759 0.07907832 -0.059345223 0.11110599 -0.45801705
0.026500026 -0.19751939 -0.2483698 -0.47630793 0.26268044 0.09806532 -0.43948302 0.402975
0.15325315 0.09355398 -0.27304074 0.08394486 0.48216587 0.3391322 -0.39335096 0.46055323
0.024857588 0.23207 0.40275502 0.44070753 -0.3613332 0.444703 -0.34288186 0.03156196
-0.35723603 -0.2063775 0.029566668 -0.058735978 -0.06106679 0.042971868 0.5108061 0.34098157
0.28427187 0.14511797 0.38164523 -0.026613101 0.03618914 0.115671396 -0.44846383 -0.4190472
0.06056865 -0.19909199 -0.13401839 -0.11909441 0.07792911 0.36557558 -0.19670336 0.4106638
0.4693176 -0.38347656 -0.39225638 -0.41175017 -0.2683592 -0.19779126 -0.037210118 -0.12326539
-0.25915694 -0.21083547 -0.2479455 0.4972737 -0.18600293 -0.36443603 0.21086778 -0.12148223
0.39309877 0.5095623 0.540292 -0.37241518 0.32784152 0.43060154 -0.2523265 0.5372895
0.3827036 0.0049162093 0.25263807 -0.18229948 -0.44447002 0.103180975 0.15279777 -0.33385935
0.24488828 -0.4398101 0.4378445 0.49081737 0.15880139 -0.3170754 0.24725078 0.10195339
0.13955215 0.17445326 0.39091808 -0.21651822 -0.112083286 0.14177515 0.059251186 0.44022688
-0.27310157 -0.04357574 0.09209539 -0.13804449 0.35264856 0.054171365 -0.4720299 -0.06872213
-0.23946577 0.056662627 -0.08887824 -0.5030562 -0.089495026 -0.023092858 -0.16525501 0.47162732
-0.09479592 0.32857335 0.126332 -0.43278265 0.12175172 0.42235994 -0.33858407 -0.34574744
0.4909107 0.3990261 -0.30725348 0.30203956 -0.0651281 -0.5105934 0.014168364 0.14528064
-0.15511593 0.20686601 -0.44587532 0.3598414 0.43739793 0.27924976 0.09103774 0.16956986
-0.35608193 -0.13484876 -0.03428661 -0.29270828 -0.37669483 0.33244848 0.36114362 -0.4655398
0.14399342 0.21243325 0.48276934 0.293026 0.4293412 -0.16105969 0.36143142 0.4308162
-0.4702079 -0.38943383 0.13138442 0.28592324 -0.2537589 0.06154595 0.028381357 0.13531296
-0.26684815 0.292601 0.3655 -0.3605368 0.0029257908 -0.0028346423 0.16063951 0.46835774

net.4.bias f4 [32]
00000000: e4f8 f43b 3468 813b 8619 0f3c 78b4 a3b9
00000010: 7266 e0ba 49ca 883a a7e3 2fbc 4373 963c
00000020: aa7e e13c ddf0 00bc f4cf 89bc 3256 903b
00000030: 248b bc3c 830f 81ba 3e52 f4bc 86eb 1f3c
00000040: ffa3 cdbc dda1 ecba 2478 7fbb 199b ac3c
00000050: 482f 803a a161 003c 136a 073a 3092 b83b
00000060: c5cd 93bc a8dc c2bb ff8e a33c f248 2dbc
00000070: 566d a4bb b800 9d3c c4b2 c43b f747 8abc
0.007475959 0.0039491896 0.008734113 -0.00031224242 -0.0017120375 0.0010436262 -0.010735429 0.018365508
0.027526218 -0.007869926 -0.016822793 0.0044048065 0.023015566 -0.0009846542 -0.029824372 0.009760743
-0.025102613 -0.001805361 -0.0038981522 0.02107005 0.0009779716 0.007835777 0.00051656476 0.0056326613
-0.018042454 -0.0059467144 0.019965647 -0.010576474 -0.0050179167 0.019165382 0.006002756 -0.016880019

net.6.weight f4 [32, 32]
00000000: 89c7 acbe 4f03 a13e f3d3 38bd 5ec6 0abe
00000010: b398 80bd 69d9 cb3e 0d3a 8dbe c69a b1be
00000020: 0ee4 a13e 2c13 babe 8957 333e 31e7 44bd
00000030: 2010 553e 3654 c83e 3bd0 83be b4a4 bebe
00000040: b446 ab3e 0e06 2ebd f8a4 c4bd 2560 e4be
00000050: 3c8d d93e 0dd0 dabc 5d5d d3bd 4ed9 bebd
00000060: d8bc c9bd a788 813e d754 0dbc 2bea dd3e
00000070: 742d e3bc 9923 99bd 9fba 9b3e 0571 5ebc
00000080: ee8b 593d 64e6 133e c352 213e 7b00 f73d
00000090: 8329 5d3d 68b9 a93e 9107 143e 03f3 333e
000000a0: 4e2b 2c3e 31ff 41be 7b54 e83e f070 2d3f
000000b0: ea61 8e3e f265 d1bc a817 ee3e 5309 ebbe
000000c0: 0ba8 0b3f a3d3 b23e 5669 923e e53e 1ebd
000000d0: e929 b7be dfbd cd3e 6381 a7be a692 773e
000000e0: 660b d93e 7242 f3be 348c 023d 428b 38be
000000f0: 4803 ba3e 8481 a8be 3b1c a63e a95f a13e
00000100: 33c9 6a3e bfc1 f63e 8c35 6f3d 4fbf f3be
00000110: 188a de3e 881c 8a3d 6688 1cbc 2e01 eebe
00000120: e911 bfbd 2592 74be 64a7 043f bd13 cc3e
00000130: 4689 c93e da6f a83e b64b 96be 5ffa 4bbe
00000140: 4c19 3ebe 1ca4 f8bd fa7d da3e d191 493e
00000150: 714c d83e e468 c63c 8e8b f3be b27d 38be
00000160: 6fb4 ca3e a020 983e 2072 343e 78fb 29be
00000170: f313 febe d623 96be 79e0 833e f8e1 65be
00000180: 2785 9f3e 5604 e13d 2cf1 24be 390b 923e
00000190: d211 8abe f88e e5bc 08b0 3bbe 7964 ffbe
000001a0: 837d 8a3d 414f 8a3d 33e4 81be c2c5 ae3e
000001b0: d716 c8be aae4 f5be 992d a7be cfda 84be
000001c0: e0d5 0cbd 6c93 12be 2298 4c3e dd44 e4be
000001d0: b35e 863d fa98 c1bc 42c8 0c3e c8f0 173f
000001e0: 7504 9c3e 31ca 8cbe 8739 d7be 0d46 f2bd
000001f0: 7d14 7bbe 1e32 3e3e 5bf8 a63c 02b9 d63e
00000200: 41b2 2a3e 9a7b 92bd ff8a a43d 90d9 d63d
00000210: fc0b b8bc bbd7 e13e f4d4 dabe fde7 8c3e
00000220: 9ced 95be bb40 f1be 7b57 aebd 3cee fe3d
00000230: 8579 af3e 8dd5 c93d 192b 9abc 53f7 1abb
00000240: 9304 39be 9e72 8dbd 7239 bfbc a875 e13e
00000250: 7b8f 7e3e 871e b0be 92be 51bc afe7 acbe
00000260: 1fbd 7bbd 68d5 d2be 92b3 1e3e f52d c8be
00000270: 3497 f43e 138b b83e 9183 bdbe 9839 01bf
00000280: 1918 febd 4eb6 03be 7ae6 763e be60 a9be
00000290: 74b5 943e 9b02 e4be 1d04 88be 6f5f 8abe
000002a0: 310d 753e 4f8a 703d 72ce 01bf 5857 c3be
000002b0: a44d 67be c81b f0be afee 683d 4d8f 543e
000002c0: 80a1 03be 961d 57be 127e 7f3c 0b60 d4be
000002d0: 9794 acbe d4b1 383d 11e8 003f 817c 4cbe
000002e0: c560 3c3e e7a1 45be 240b 15be 68f5 f6be
000002f0: 9541 da3e a24c 003f 27d2 63bc f870 a83e
00000300: 14a5 013f ac2d 883e 413c a93e 589c f9be
00000310: 7828 0ebf 9fc5 cabe 2352 273e f699 e5be
00000320: 772d c9be db2c adbe f680 eebe 04b2 a2bc
00000330: 9de9 663d 8e92 96be a73a a93e 86c4 54be
00000340: 2acb efbd 1eb7 b53e 8315 ce3e 830d 98bd
00000350: cdcd bfbe 67fe 92be 19f1 5e3d c1eb a83e
00000360: 335f 853e f7ff 60be bada f8be 5039 e3be
00000370: 27ce 21be 83f5 e93b 76b4 66be 3e45 cdbe
00000380: e10f 903d cb62 c4be 2a28 b7be 23b2 e1be
00000390: 62d0 ffbd 65b8 f33e 8fe6 323e 8c98 18bd
000003a0: 06cb 043e 1755 3a3e 4969 ec3c 9ec1 c1be
000003b0: 16a2 a6be cd69 bebe 57c7 243c 8bc2 e5be
000003c0: d52d a3bd e876 38be 3ab8 053f 99d2 df3e
000003d0: effd a43e b2aa 293d e83d 44be d7ed e93d
000003e0: 44d1 a8be 7167 78be a8ac 99bd 8140 14be
000003f0: c43e 02bf 0664 363e 35ca cd3e 55a5 9cbe
-0.33745983 0.31447837 -0.045124006 -0.13552234 -0.06279125 0.39814308 -0.27583352 -0.34688395
0.31619304 -0.36342752 0.17513861 -0.048072044 0.20806932 0.39126748 -0.25744805 -0.37235034
0.3345238 -0.042486243 -0.09601778 -0.44604602 0.42490566 -0.026710534 -0.10320542 -0.09318791
-0.09850472 0.2529957 -0.008626184 0.43342718 -0.027731635 -0.07477493 0.30415818 -0.013576751
0.053111963 0.14443356 0.15754227 0.120606385 0.053994667 0.33149266 0.14456011 0.1757317
0.16813394 -0.18945004 0.45376953 0.67750454 0.27809078 -0.025561307 0.46502423 -0.4590555
0.5455329 0.3492709 0.2859599 -0.0386342 -0.35774162 0.40183923 -0.32715902 0.24177036
0.4239151 -0.4751163 0.03187199 -0.18021873 0.36330628 -0.32911313 0.32443413 0.31518295
0.22928314 0.48194692 0.058400676 -0.47606894 0.43464732 0.06743723 -0.009554004 -0.46485275
-0.09329588 -0.23883875 0.5181792 0.3985881 0.39362544 0.32897836 -0.29354638 -0.19919728
-0.18564337 -0.121406764 0.42674237 0.19684531 0.4224582 0.024219938 -0.4756741 -0.18016699
0.39590785 0.2971239 0.1762166 -0.16599834 -0.49624595 -0.29324216 0.25757197 -0.22449481
0.31156275 0.10987155 -0.16107625 0.28524187 -0.2696672 -0.028022274 -0.1832887 -0.49881342
0.06762221 0.06753398 -0.25369415 0.34135252 -0.39079925 -0.4802602 -0.32651976 -0.25948188
-0.034383655 -0.1431405 0.19979909 -0.4458379 0.06561031 -0.023632515 0.13748267 0.5935178
0.3047215 -0.2749801 -0.42036077 -0.118297674 -0.24519534 0.18573806 0.020382097 0.41938025
0.16669561 -0.071524814 0.08034324 0.104907155 -0.022466652 0.44109902 -0.42740595 0.27520743
-0.29282844 -0.47119698 -0.08512779 0.12447783 0.342724 0.09855185 -0.018819379 -0.0023645952
-0.18068151 -0.06906627 -0.023342822 0.44035077 0.24859421 -0.3439829 -0.012801783 -0.3377051
-0.061459657 -0.4117844 0.15498188 -0.39097562 0.4777161 0.36043605 -0.3701444 -0.50478506
-0.1240694 -0.12862512 0.24111357 -0.3308162 0.29044688 -0.44533238 -0.26565638 -0.27025935
0.23930813 0.05872565 -0.50705636 -0.38152575 -0.22588211 -0.46896195 0.05686825 0.2075779
-0.12854576 -0.2100738 0.015594022 -0.41479525 -0.33707115 0.045091465 0.50354105 -0.1996937
0.1839629 -0.19300042 -0.14555031 -0.48234105 0.4262816 0.5011693 -0.013905085 0.32898688
0.50642514 0.26597345 0.33053783 -0.48752093 -0.555305 -0.39603898 0.16339926 -0.44844025
-0.392925 -0.33823285 -0.46582764 -0.019860275 0.056375135 -0.29408687 0.3305256 -0.20778093
-0.11708672 0.3549127 0.40250787 -0.07424452 -0.374617 -0.2870972 0.054429147 0.32992366
0.26049194 -0.21972643 -0.48604375 -0.44379663 -0.15801297 0.007139863 -0.22529778 -0.4009189
0.07034279 -0.38356623 -0.3577283 -0.4408122 -0.12490918 0.4760162 0.17470764 -0.037254855
0.12968072 0.18196522 0.028858798 -0.3784303 -0.32545537 -0.37190095 0.010057292 -0.44874987
-0.07967726 -0.18014109 0.5223423 0.4371536 0.32224986 0.041422553 -0.1916424 0.114223175
-0.32972157 -0.2425821 -0.07503635 -0.14477731 -0.5087702 0.17811593 0.40193334 -0.30594888

net.6.bias f4 [32]
00000000: 7ffb 1cbb 35b5 3bba b9df a73c baa9 42bc
00000010: 2434 f73c 2259 89bb 8136 9cbb b8f1 cf3c
00000020: 7174 c73c 8032 683b 31dc 7639 3127 043b
00000030: 0c24 953c d323 baba 0821 603c 9bca 39bb
00000040: 6b43 33bc 94ce a03c 2c03 d33c 91a2 f13c
00000050: a4fc a33b 60b2 f239 c940 413c 5b26 c5bc
00000060: f073 123d db1d 42bb acbe 793c 717a 373c
00000070: 23cb 2f3c f417 86bc 6922 863b 3412 47bc
-0.0023953614 -0.0007160486 0.020492421 -0.011881286 0.03017623 -0.0041915337 -0.0047672396 0.025383815
0.024347516 0.003543049 0.00023542416 0.0020164961 0.018205665 -0.001420135 0.01367975 -0.0028349522
-0.010941367 0.019629754 0.025758348 0.029496463 0.0050044823 0.00046290737 0.011795231 -0.02406614
0.035755098 -0.0029619846 0.015243214 0.011198626 0.010729584 -0.016368844 0.0040934575 -0.012150336

net.8.weight f4 [32, 32]
00000000: 3c66 3e3e 7f32 d93e d8e0 eebd a82d da3e
00000010: 1a05 a5bd d2f7 b2be 9663 1fbe caf5 873d
00000020: 6737 f6bd 065f 613e bc8c 9fbe 3214 46be
00000030: 79ad 08bf ea31 c33e fb3f e2bd a79e d9be
00000040: dce1 023c ab61 fa3c f917 213e 5642 afbd
00000050: cd58 983e d072 1dbe c8cb fabd 3073 04be
00000060: 1215 1b3e b312 c03e 410c 013a dea0 d93e
00000070: d43d d73e e415 73be f25f 5abc 4b17 92be
00000080: a961 5e3e 33de 37be d504 1c3e 6798 153d
00000090: ab5d acbe 9933 aebe 6f02 ffbe 707e 91be
000000a0: c353 f13d ac1d e33c 094d c93e 1114 dcbe
000000b0: f2e3 3cbc 60a9 ebbe 9f5f 0ebd 1d43 133e
000000c0: 2a50 f1be becf e33e 9e4c 2bbe 1b59 e93e
000000d0: 8a29 a5bd 2a19 6c3e 28a7 ee3e 65a2 36be
000000e0: aa4c a8bd c733 9b3e 4eec dcbe f6de 943e
000000f0: 5d94 b1be 4e62 f23e f42e 90be a696 62be
00000100: 1b2d b23e 5d46 74be 8a3e e03e 6c1b ad3e
00000110: 4144 f23e b21c f7be 6eb0 b63a 7577 24be
00000120: a64a 123e 34ed c2be 2ed9 533e fea3 6b3d
00000130: 11bf 79be 1e68 eebe 09ef 903e 41fd cdbd
00000140: 16ae c53e 3100 103e 114e 3d3e 8e8d a1bd
00000150: f499 9dbd 33b0 56bc 8850 e7be 370b 933e
00000160: 82f9 b7be 1389 903e 391e 31be d95f ab3e
00000170: bab8 dd3e 8eb6 9ebe eb9d b13e 3dd7 913c
00000180: 9599 c3be 10e3 a13e aa9f c43e f670 ba3e
00000190: a154 c2be e055 a63e bba1 963e e75e 263f
000001a0: 2cec 663e ec8d c5be 392c 963e da2b 8c3e
000001b0: c3c7 9dbe b742 7bbe a5fa 143e 4e0a 953e
000001c0: 9ced 8c3e 7849 a83e 91a6 90be 9e8c 47be
000001d0: a827 b9be 6de1 38bc 81ec 6b3e a8e6 c4be
000001e0: 2c8d 063e 54bf dcbe e1fc babe e259 f83e
000001f0: c3a0 62be 56e3 b63e c950 6c3d 3e50 74be
00000200: 0ca8 9c3d 3704 bf3e 30f0 d6bd b463 eb3e
00000210: 32b2 823e 3743 c93e 972b f8be 2338 8ebe
00000220: 9bb4 eabe b577 a8bd 159f 9bbd 812d be3d
00000230: a3cc f93e 080e 8c3e 8311 a9be 74d2 a2be
00000240: ca4e ae3e 6d6e fdbb 8157 5d3d f6ee 72be
00000250: 2e91 c8bc fc1a 223e 41f6 b9be 6401 893e
00000260: c220 5f3e ef94 85be c87a 71be 40d8 1ebe
00000270: 8f18 873d 0cd0 5ebe 0653 f83e d617 dcbe
00000280: b42e 84be d6c8 b7be 2e79 f23d 4f0e b53d
00000290: 8785 24be 259a f73e f9dc 0bbf cd0b 263e
000002a0: 7995 82be aae0 bcbd 6870 f3be 851c a2be
000002b0: 0f29 d7be f864 7e3e 5c37 34be 570f 923e
000002c0: 58a5 9fbe 38ef febd dfc4 453c 82fe e13e
000002d0: 2813 f6bd 07dd 923e 13ca e13d ef57 973e
000002e0: 4548 813e 32bc 653e e8ba 2cbe ff6b 27be
000002f0: ccfc 3e3e 4cb6 873e d793 9dbd 3437 b43e
00000300: 01bc 9dbe abd6 903e 9314 b3bd 53c5 acbe
00000310: 91c0 8bbe 6a46 c0be 1975 953d 25dd a8be
00000320: d747 cfbd 3b2f e1bb 639f 92be e388 453d
00000330: 39e8 28bd b773 413e a743 c43e 06d9 9abe
00000340: 98e3 8b3e 8bf2 203d a8f3 84be 7e42 55be
00000350: 5dc3 0e3e 82a1 513e 5992 b8bc 89ab 6cbe
00000360: 6133 863e 273c c33d c2e8 03bf 64dc c6bd
00000370: 77c6 18be c695 77be fad4 aebe cd0b cabe
00000380: 46fb f03e cdeb eebe 172e f83e 595a d3be
00000390: 9e38 e2bd 1576 60be 1b46 92be c7f3 463e
000003a0: 8a0a 9c3e 3f0f acbe 7b84 7bbe e1d0 8d3e
000003b0: aafd 8cbd 2440 dd3d 5239 983e 5ed1 17be
000003c0: 84c3 8cbe d235 413e 5ae9 2ebe ccd0 b0be
000003d0: 88e4 86be 9bd2 44be 232e ff3e 3234 9e3d
000003e0: b94e 133e 0543 823d db16 adbe 7ca4 bf3e
000003f0: e82b 8fbd 141f 02be da96 c23e 23fe a0be
0.18593687 0.42421338 -0.11663979 0.42612958 -0.08057614 -0.34954697 -0.15565333 0.066386774
-0.12022286 0.22008905 -0.3116206 -0.19343641 -0.533897 0.3812402 -0.110473596 -0.42503855
0.007988419 0.03056415 0.15731801 -0.085575745 0.2975525 -0.15375829 -0.122458994 -0.12934566
0.15144756 0.37514266 0.00049227854 0.42505544 0.4203936 -0.2373882 -0.013328539 -0.28533396
0.21716942 -0.17955856 0.15236218 0.036522295 -0.33665213 -0.3402374 -0.49806544 -0.28416777
0.117835544 0.02772411 0.39316586 -0.4298406 -0.011528956 -0.4602766 -0.03475916 0.1438107
-0.47131473 0.44494432 -0.16728446 0.45575795 -0.080645636 0.23056474 0.46611905 -0.17835386
-0.082177475 0.3031294 -0.43149036 0.29076356 -0.34683505 0.47340626 -0.28160822 -0.2212778
0.34800038 -0.23854966 0.43797714 0.33809984 0.473177 -0.4826408 0.0013938078 -0.16061194
0.14286289 -0.38071597 0.20688316 0.057529442 -0.24389292 -0.4656381 0.2830737 -0.1005807
0.3860938 0.14062573 0.18486811 -0.078883275 -0.0769538 -0.013103533 -0.45178628 0.28719494
-0.35932547 0.2822958 -0.17296685 0.33471563 0.43304998 -0.30998653 0.34690794 0.017802829
-0.3820311 0.31618547 0.38403064 0.36414307 -0.37955192 0.32487392 0.29420266 0.6498856
0.2255103 -0.3858484 0.29330614 0.27377206 -0.3081647 -0.24537168 0.14548738 0.29109424
0.27525032 0.32868552 -0.2825208 -0.19487235 -0.36163068 -0.011284214 0.23039438 -0.38457227
0.1313979 -0.43114722 -0.36521056 0.48506075 -0.22131638 0.3572032 0.05769423 -0.23858735
0.0764924 0.37307903 -0.10495031 0.45974505 0.25526577 0.39309093 -0.48470756 -0.27777204
-0.45840916 -0.08225957 -0.07598702 0.09286023 0.48788938 0.27354455 -0.33021173 -0.31801188
0.34044486 -0.007734111 0.05403853 -0.23723969 -0.02448329 0.15830606 -0.3632069 0.26758873
0.2178984 -0.2609019 -0.23581994 -0.1551218 0.06596481 -0.21759051 0.48500842 -0.42986935
-0.25816882 -0.35895413 0.118395194 0.0884062 -0.16066562 0.4835979 -0.5463405 0.16215439
-0.25504664 -0.09222539 -0.47546697 -0.31662384 -0.42023513 0.24843204 -0.17599243 0.28527328
-0.31180835 -0.12447971 0.0120708635 0.44139487 -0.120153725 0.28684255 0.11024871 0.29559276
0.2525045 0.22435072 -0.16868174 -0.16349791 0.18651122 0.2650627 -0.07694214 0.35198367
-0.30807498 0.2828878 -0.087441586 -0.33744296 -0.27295354 -0.37553722 0.07297725 -0.3298122
-0.10121124 -0.0068720854 -0.28637227 0.04822625 -0.04123709 0.18891798 0.38332865 -0.302437
0.27322078 0.039293807 -0.25967145 -0.20826146 0.13941713 0.20471767 -0.022530722 -0.2311231
0.26211074 0.095329575 -0.51527035 -0.09710005 -0.14919458 -0.24178228 -0.34146863 -0.39462128
0.47066706 -0.46664277 0.48472664 -0.41279867 -0.11045955 -0.21920045 -0.2856911 0.19428931
0.3047679 -0.33605382 -0.24562256 0.27698424 -0.0688432 0.108032495 0.29731232 -0.14825961
-0.27492917 0.18868187 -0.17081204 -0.345343 -0.2634623 -0.19220965 0.49839887 0.07724799
0.14385499 0.06360439 -0.338065 0.3743018 -0.06990796 -0.12707168 0.38005716 -0.3144389

net.8.bias f4 [32]
00000000: 19ca e83c 2245 71bb 2cde fa3a c5b5 d63d
00000010: 048b edbc 79dd 42bc 0463 c0bc fdef d33b
00000020: ea09 18bd 76cd e8bc d60c f8bb 6fc4 573c
00000030: 4d44 0dbc 85a5 1c3c 4caa 6cbc 35e0 e5bc
00000040: 9e18 63bc 284c 25bc 958b 88bd 306a 713c
00000050: 6b07 94bc e36c c03b dcbe 53bb 56f8 37bc
00000060: 8f17 16bc 6112 933c 416d b0ba d87a 70bc
00000070: 911e 0cbc 03c7 aebc 47cb 85bc 2eda be3c
0.02841668 -0.0036814888 0.0019139699 0.104838885 -0.028996952 -0.0118936235 -0.023484714 0.006467818
-0.03711883 -0.028418284 -0.0075698895 0.013169392 -0.008622241 0.009560947 -0.014444899 -0.028061012
-0.01386085 -0.010088958 -0.06667248 0.01473479 -0.018069943 0.0058723553 -0.0032309806 -0.0112286415
-0.00916089 0.0179531 -0.0013460295 -0.014677726 -0.0085522095 -0.02133513 -0.016332282 0.023297396

net.10.weight f4 [32, 32]
00000000: 886f 7dbe 94d0 76be b454 31be c90a 2dbe
00000010: 3560 b1bb d957 1d3f df3e 25bf ea37 44be
00000020: da6e c0be c91d 603d 1f94 a03d d0af 9fbe
00000030: 1f37 943e f0f4 f9be 4832 ee3e b707 813d
00000040: 04ff dbbd 597b 90be 266e 943e 410b d03e
00000050: 071a b0be 9794 babd 8cd1 c93e 8c63 f0bc
00000060: b32a c5be 99e7 19be a379 003d 075a 85bd
00000070: 0b20 9ebe 878b b4be f50d 563e 07f6 b53e
00000080: e553 113f 04cd a5bd 9b05 613e fe97 c4be
00000090: 1cb3 783e 1a00 d33e ec98 a03e 8436 36be
000000a0: 91ea c63e 56c1 35bf c504 ffbd a8a2 c3bd
000000b0: 7639 0bbf 963a 7ebe 6fa5 cabe 0a7e 2c3e
000000c0: 5329 88bd 212a 773e f90d eebd a3ae d43e
000000d0: 8b03 883d ff7c e73e b516 ce3e d739 01bf
000000e0: 6cfc c0be 11b1 9c3e d18a e53e 012a e7be
000000f0: e412 0dbd f38b 6cbe eaa9 063f 909d d23e
00000100: e52a ac3e 0b86 823e 662e 52bc 2c8c 013f
00000110: dea5 cdbe dc6d 4fbc fbb2 29be 7d88 adbe
00000120: 3ba6 8dbe 588a a4bd 5d51 59bd ff5e 96be
00000130: a3f7 81bd adab c73d 8973 cbbe 8a27 833e
00000140: 119f eebe fbb7 93bd 980d cdbe 7ba4 d8be
00000150: 2f31 f4bd 5fa4 003f f743 fa3e 97ae 413e
00000160: c7ce ca3e 4432 a4be c196 923e b108 a83e
00000170: ba58 fcbe e112 debe 3ee8 2f3e fd12 6f3d
00000180: b230 c5be cf40 c3be afd1 b63e 3d38 5a3d
00000190: b40e 92bc 2b6c e1be 31be cc3e 92be afbe
000001a0: 1b43 723e 0398 f9bd e2cf 213d 2e9b 783e
000001b0: 37b6 ecbd f765 31be ce0f dc3e ea01 c8be
000001c0: 2c7a 663e 86b6 31be d221 2abe ac79 ac3e
000001d0: b23d cb3d 6186 febe 247c e33e 82e2 70be
000001e0: 81c2 cc3e 60c2 c1bd a571 053f df7a 1e3e
000001f0: e286 f9bc 43fe 523e 6e29 e13c 40a5 7dbe
00000200: b3cf 913e 3c1b 9f3e 3ff6 90bd 3d48 ef3e
00000210: 877c 7b3d 1fc0 87be a8b0 9ebe ec66 ad3e
00000220: 2919 53be 6a37 ae3e b464 f6be 172b ef3b
00000230: 31ad b1be 812a 433e fb06 c73e a622 753e
00000240: 3845 2fbe 9d9a f6be 9dc5 7dbe 9057 9dbe
00000250: feb9 063f d1f4 88be 22ad 463e 5838 e53e
00000260: 3a1a 363e 52a2 cebe 518e 38bd fb3d 31be
00000270: d8b7 b73e 11cf 5ebd 8d49 16bd 397c e93e
00000280: 8a2e 313e 14c5 273e 2555 24be 2322 ad3e
00000290: c7f8 953d df82 e5bd 699a 493d 5322 ccbe
000002a0: d09f 233c eaf2 4a3f 5878 02bf 32ad 81be
000002b0: e1df 783e 6a9f 5e3d 125c e1bc fb36 423f
000002c0: 20c4 67be ffb0 d63e 00c6 f9bd 8e58 3dbe
000002d0: 7069 243f f6d2 d4be e6c8 5ebe afe3 413d
000002e0: 657f 37be 6496 c13e 0fd0 dabe 0204 49be
000002f0: 8ff5 6abe 6a0c eb3e 3176 9f3e bbf7 c1be
00000300: d8a7 a33d e1da 6bbd b1ea fb3e 61d8 9d3e
00000310: 9eeb cdbe 2c0c de3e 409c e3bd 8fed bcbd
00000320: 927b 043e 425a ff3e ca94 1a3e cd6c ebbe
00000330: 8d57 3cbe e81e fa3e 578f 4abe 9ba4 6fbe
00000340: d02b ddbe 0129 b6be 89ff 87be 909f 243e
00000350: a5af 723e bf28 033f dd15 a93e 7965 1e3d
00000360: 61e5 8c3e c363 963e b734 dcbe da35 7d3e
00000370: eb88 abbe 7a0b bd3e c8ae 80be a777 da3d
00000380: 51af 783d 21a8 5c3e 71f6 b13d e247 bfbe
00000390: 4636 5a3e ebfb 8f3e 28d5 85be 4f38 a4be
000003a0: 66e0 b4be 6174 aebd 77a6 89bd 3a90 3e3d
000003b0: 00be acbc 523e f9bd f239 a53e 5bf7 b93d
000003c0: 7c03 9bbe 465e 1dbe 5c27 9abe 63ea 4fbe
000003d0: dc13 03bf 0a08 c53d 27aa acbe 7c63 043e
000003e0: d395 8b3e d0e3 cebe d505 94be 5dce d5be
000003f0: d427 8c3d 3537 a83d 2e3f 9abe 76f3 903e
-0.24749577 -0.24103004 -0.17317468 -0.16898645 -0.00541308 0.6146217 -0.6454906 -0.19161955
-0.37584573 0.054715905 0.07840752 -0.31188822 0.28948304 -0.48819685 0.46522737 0.063002996
-0.10742 -0.28219107 0.28990287 0.40633586 -0.34394857 -0.091103725 0.39417684 -0.029344343
-0.3850914 -0.15029754 0.031366 -0.06511312 -0.30883822 -0.352627 0.20903762 0.35539266
0.5676864 -0.08095744 0.21974795 -0.3839721 0.24287075 0.41211015 0.3136667 -0.17794234
0.38850835 -0.7099813 -0.124520816 -0.095525086 -0.54384553 -0.24827036 -0.3957934 0.16844955
-0.06648507 0.24137165 -0.11623759 0.41539487 0.06641301 0.45212552 0.402517 -0.5047888
-0.37692583 0.3060384 0.4483247 -0.45149234 -0.034441844 -0.23100261 0.5260302 0.41135836
0.33626476 0.25492892 -0.012828445 0.5060451 -0.4016561 -0.01266047 -0.16572182 -0.33893195
-0.27665886 -0.080341995 -0.05305611 -0.2936935 -0.06346061 0.097495414 -0.39736584 0.25616103
-0.46605733 -0.07212826 -0.40049434 -0.4231299 -0.119234435 0.5025081 0.48879978 0.18914257
0.39610884 -0.320696 0.2863064 0.3281913 -0.49286443 -0.43373778 0.17178437 0.058367718
-0.38513714 -0.38135383 0.3570685 0.05327629 -0.017829277 -0.44027838 0.39988855 -0.3432508
0.23658411 -0.12187197 0.039504893 0.24277946 -0.11558192 -0.17324053 0.42980808 -0.3906396
0.22507542 -0.17354783 -0.16614464 0.33686578 0.09923877 -0.49711898 0.4443065 -0.23523906
0.39992145 -0.09460902 0.5212653 0.15476559 -0.030459825 0.20604806 0.027485576 -0.24770069
0.28478774 0.31075466 -0.07078218 0.467348 0.061398055 -0.26513764 -0.30994153 0.33867586
-0.20615067 0.34026653 -0.48123705 0.007298838 -0.34702447 0.19059183 0.38872513 0.23938999
-0.17116249 -0.48164836 -0.24782415 -0.30730867 0.5262755 -0.2674928 0.19401982 0.4476955
0.17783442 -0.40358216 -0.0450576 -0.173088 0.3588245 -0.054396693 -0.036691237 0.45602587
0.1730291 0.16383773 -0.16048105 0.33815107 0.07322841 -0.11206602 0.049219523 -0.39869937
0.009986833 0.7927691 -0.5096488 -0.2532745 0.24304153 0.054351248 -0.027509723 0.75865144
-0.2263341 0.41931912 -0.12195969 -0.18490812 0.64223385 -0.415672 -0.21756324 0.047336277
-0.17919691 0.3781005 -0.4273686 -0.19630435 -0.22945236 0.4590791 0.3114486 -0.37884316
0.07990998 -0.057581786 0.49202493 0.30829147 -0.40218824 0.4336866 -0.11113787 -0.09224998
0.12937763 0.4987355 0.15095821 -0.45981446 -0.18392773 0.48851705 -0.19781242 -0.23402636
-0.4319749 -0.35578158 -0.26562145 0.16076493 0.23699816 0.5123405 0.33024493 0.03867099
0.27518752 0.29372987 -0.43008968 0.24727574 -0.33502898 0.36922818 -0.25133348 0.10667353
0.06071407 0.21548511 0.08689583 -0.3735953 0.21309766 0.28121886 -0.26139188 -0.3207421
-0.35327452 -0.08518291 -0.06721204 0.046524264 -0.021086693 -0.1217009 0.3227077 0.090803824
-0.30276096 -0.15367994 -0.30108154 -0.20304255 -0.5120218 0.09620674 -0.33723566 0.12928575
0.27262744 -0.40408182 -0.289107 -0.41759005 0.06843534 0.08213655 -0.30126327 0.28310746

net.10.bias f4 [32]
00000000: 51b1 463d 8235 a93c c7f0 0a3d 978a 49bb
00000010: 89e8 d9bb 0f57 7a3b b05f d73c e5d5 f13b
00000020: 7c6b 1a3c 772e 263c 81d0 6f3d f7da 02bd
00000030: 89fd 4c3c 3984 8a3c c867 bcbc 861e 99bc
00000040: ee0d adbc 12b8 28bd 4e12 9f3b 0ace 2b3b
00000050: aac4 fc3c a00b 51bb 5236 a5bc 40b3 baba
00000060: 2907 3ebc fa40 dc3c 58aa ea3c 8535 903c
00000070: f26f a03d 54a2 14bc 0603 843c c3ee 9ebc
0.048508946 0.020655397 0.03392103 -0.0030752772 -0.006650035 0.0038198864 0.026290745 0.0073802345
0.00942504 0.010142914 0.058548454 -0.031947102 0.012511619 0.016908752 -0.022998706 -0.018691313
-0.021124806 -0.041191168 0.004854477 0.0026215338 0.030855495 -0.0031897798 -0.020167504 -0.0014244094
-0.011598387 0.026886452 0.02864568 0.017603645 0.07833852 -0.009071905 0.016114723 -0.01940096

net.12.weight f4 [6, 32]
00000000: 9827 203e 0cf7 323e a315 4fbc c3ec 133f
00000010: ac22 f93d c74c 023d 54b8 e33e 1876 3abd
00000020: 48c9 94bc 3ff0 11bf a240 b8bb 7c84 9ebe
00000030: 863f b93e 936f 0f3f c724 23bf e7f1 9cbe
00000040: d3a1 1d3f d6ef 91be 3378 e03e 06a3 253f
00000050: 0fed 23be af59 0abf a91f bd3e 1c65 863e
00000060: afd2 133f b41b ae3d 15fb bb3e aac0 f2be
00000070: 9a58 ca3d 0c79 263e a41b 9d3e 41e4 babe
00000080: db32 743c a067 08bf 846d fabe fe3f 843e
00000090: 24ab 023e a9d8 763e 6d5c 9cbc 4318 28bd
000000a0: 2406 a7bd 4079 a63e 31d0 14bf c249 1e3e
000000b0: 9d45 b83e 0a68 e43e c8d7 a6be 144b df3e
000000c0: e6af f1be 4085 cc3e 9f96 433f 934a 9bbd
000000d0: 133c 923e a452 20bf 94ef 87be dd1c 91be
000000e0: 5b8c 18bf 5d20 17be a4ab e83e 1538 fbbd
000000f0: e30d 263f 85a8 07bf be80 9b3d 23a0 1c3f
00000100: 35b9 203f 5186 77be 5a95 11bf 0a58 8abe
00000110: f42f 093f fa34 f8ba 4b0b 2b3f 5c59 06bf
00000120: 5fad bebe c958 c73e 6802 6d3e 1af1 d4be
00000130: 3aaf 293f 419b 90be 8bef 14bf e9fe ff3c
00000140: e5c8 cdbe 51e2 c1be 3fb0 8cbe 9380 353e
00000150: 7aa2 773e 68e1 f03e 01d1 d8be d4ed 40be
00000160: b81d 183f e031 d7be 0513 5ebe 67c2 47be
00000170: 177e 0ebf 3223 12bf 9ca6 2e3f ad0c b33d
00000180: 1203 ab3e 33f3 a53e b69b e63e 14d9 d93e
00000190: e09c f63e 0400 793e b485 043f 4db7 d63e
000001a0: 7377 a1bd 47d5 193e 0da9 95be 3624 f9be
000001b0: f4a5 2e3f 240a fdbe a21a c5be 1adc 34bf
000001c0: 1d82 11bf 49cc c43d b6d9 c93e 1948 04bf
000001d0: 68a2 c73a b0a7 f5be 67a5 de3d da77 d33e
000001e0: 4158 83be a945 b7be ef31 e13e bca7 f6be
000001f0: 0db0 02be 11e2 0ebf 609c e23e e994 243e
00000200: 8e6a 9dbe 5b8b f53e 9005 213f d2c5 853e
00000210: 0936 e3be 17d5 0cbe e523 0d3f 6331 e53e
00000220: df00 70be 04bf f93e 6509 e3be 9c7f 503e
00000230: 0421 193f 77ee cd3d 47ae 0bbf 7018 163e
00000240: 30db b03e 1fb6 d53e 2b00 dbbe c2f4 f3bd
00000250: 7f16 48bd f9bc c1bd 3040 5bbe 500d 86be
00000260: 5544 583e 6677 953e 70cf debd a050 f83e
00000270: 76d4 9b3c 6671 263e 7c3c 2b3e 52e3 68be
00000280: 7901 7c3d 2a7b 7abd 3275 883e 9b48 bdbe
00000290: 6c7d 8abe 903d 40bf 2a55 8abe 6099 523e
000002a0: 7cc2 093f 7f84 25bf 2096 66be fdef de3e
000002b0: 795b 95be 1257 de3e adf3 e13c e2cc 39bf
000002c0: 1d06 133d e378 e2be 360f eb3d 2d42 13bf
000002d0: 2aed 183f bec1 89be f658 c43e 54ac dbbe
000002e0: 55c0 0fbf d7a5 383e 1346 d23e d21f 22bd
000002f0: 9553 0bbf 046a 61be 3c27 f7be fbd1 253e
0.15640104 0.17477053 -0.012639436 0.57783145 0.12164816 0.0318115 0.4447657 -0.04552278
-0.018162385 -0.5700721 -0.005622939 -0.30960453 0.36181277 0.56029624 -0.6372799 -0.30653307
0.6157505 -0.28503293 0.43841705 0.6470188 -0.160084 -0.54043096 0.36938217 0.26249015
0.5774335 0.08501378 0.36714998 -0.47412616 0.09880181 0.16257113 0.3068515 -0.3650227
0.014904703 -0.5328312 -0.4891168 0.25830072 0.12760597 0.24106087 -0.01908704 -0.041038763
-0.08155468 0.3251438 -0.58130175 0.15457824 0.3599061 0.44610626 -0.32586503 0.43611968
-0.47204512 0.39945412 0.76401705 -0.07582583 0.28561458 -0.626261 -0.2654997 -0.28342333
-0.59589165 -0.1475844 0.4544345 -0.12266556 0.6486494 -0.52991515 0.07592915 0.6118185
0.62782604 -0.24172331 -0.5686852 -0.27020293 0.53588796 -0.0018936687 0.66814107 -0.524801
-0.37241647 0.38934925 0.23145449 -0.41590196 0.66283 -0.2824345 -0.58178014 0.03124948
-0.40192333 -0.37867978 -0.27478215 0.17724828 0.24183074 0.4704697 -0.42346957 -0.18840724
0.5942035 -0.4203024 -0.21686943 -0.19507752 -0.5566115 -0.57084954 0.68222976 0.08742652
0.3340078 0.3241211 0.45040673 0.4254843 0.4816656 0.24316412 0.51766515 0.41936722
-0.07884111 0.15022765 -0.29230538 -0.4866044 0.68221974 -0.494218 -0.38496882 -0.7064835
-0.5683916 0.09609277 0.39423913 -0.5167251 0.0015230896 -0.47979498 0.10871392 0.41302377
-0.2565327 -0.35795334 0.4398341 -0.48174846 -0.1276247 -0.558137 0.4425993 0.1607243
-0.30745357 0.47957882 0.6289911 0.26127487 -0.44377163 -0.13753162 0.55132896 0.44764242
-0.23437832 0.48778546 -0.44343105 0.20361179 0.59816 0.10055249 -0.545628 0.1465776
0.34542227 0.4174051 -0.42773566 -0.11911918 -0.04884958 -0.09459872 -0.21411204 -0.26182032
0.21119817 0.29192656 -0.10879409 0.48499012 0.019022208 0.16254196 0.16722292 -0.22742966
0.061524842 -0.061152615 0.26651913 -0.36969456 -0.27048814 -0.75093937 -0.270181 0.2056632
0.53812385 -0.646553 -0.22518206 0.43542472 -0.2917135 0.43425804 0.027582014 -0.7257825
0.035894502 -0.44232854 0.11477511 -0.5752285 0.59736884 -0.26905626 0.38349122 -0.42904913
-0.5615285 0.18032013 0.41069087 -0.039581127 -0.5442441 -0.22013098 -0.4827212 0.16193382

net.12.bias f4 [6]
00000000: 3b6f ce3b ee08 343a 5b3b e93c 55d3 a33b
00000010: b1b4 bf3c cb8d 6c3c
0.006299881 0.00068677857 0.028470686 0.004999558 0.02340159 0.014438103

exp_avg f4 [32, 1]
00000000: 1603 7d39 9635 083a cc38 5e3a a751 1339
00000010: b4b9 38bb 63ad 983a 6b1b 7439 826a 193a
00000020: 5b73 f3ba 2898 37bb e3f4 21ba fe02 ebb9
00000030: f47a 8f3a 6a8c 00ba 389d 07ba c5dc d0ba
00000040: 43a2 28ba 41f1 8140 9e39 a33a 997e 943a
00000050: 1eb4 bcba 48c2 583b 8e80 33ba 7126 963a
00000060: de91 b43a 7d14 343a 50aa 593b c920 8439
00000070: 07fb 1640 21f2 a7b6 9e95 433a 2427 fa39
0.0002412911 0.0005195973 0.00084770913 0.0001404943 -0.002818686 0.0011648353 0.00023279867 0.0005852358
-0.0018573807 -0.0028014276 -0.00061781536 -0.00044824922 0.0010946677 -0.0004903736 -0.0005173269 -0.0015934935
-0.000643287 4.0607 0.0012453084 0.0011329233 -0.0014396941 0.0033074785 -0.0006847464 0.0011455548
0.0013776382 0.0006869508 0.0033213086 0.0002520143 2.3590715 -5.0051754e-06 0.00074609544 0.00047712878

exp_avg_sq f4 [32, 1]
00000000: e090 ab37 1590 1a38 8e68 4739 277d 1738
00000010: b39f 393a c227 1239 2f92 9537 6d1c 0138
00000020: ea5d a239 7037 4f3a 5436 6d38 1916 9638
00000030: e402 0539 d71d 2838 c3d5 7738 8dc7 5f39
00000040: c9d7 2538 ce38 8845 f20a 4a39 0bf6 3239
00000050: f1e6 6439 25ef ac3c 8cf2 4838 ed90 0239
00000060: c0f0 5539 1af3 0638 cfe5 9e3a 2b62 9b37
00000070: 1199 a944 e1e1 2637 e649 ac38 9b52 2938
2.0452251e-05 3.6850648e-05 0.00019017069 3.6117763e-05 0.0007080987 0.00013938456 1.7830256e-05 3.078247e-05
0.0003096902 0.0007904684 5.65558e-05 7.1566734e-05 0.00012684945 4.008211e-05 5.908847e-05 0.00021341276
3.954003e-05 4359.1006 0.00019268299 0.00017067061 0.00021829807 0.021110127 4.7909605e-05 0.00012451755
0.0002040295 3.2174496e-05 0.0012122932 1.8523153e-05 1356.7833 9.946963e-06 8.215364e-05 4.0369672e-05

exp_avg f4 [32]
00000000: 9d2c 7e39 c33f 083a d11b 6c3a 0edb 0b39
00000010: b667 35bb 80ec 963a ea56 7139 6549 173a
00000020: 0c3a f0ba f720 36bb 50ce 23ba 2706 cdb9
00000030: f0b1 8f3a 3c43 f9b9 9a00 08ba 78ae d4ba
00000040: bf9a 24ba 6cbe 6a3c d58c a03a 849a 943a
00000050: 4da1 baba f6cc 953b fde1 2fba 888b 923a
00000060: cae3 b13a 2926 2e3a b444 583b 8ee2 7e39
00000070: 023f af3b e078 56b7 a2c3 403a 3cbd fa39
0.00024239947 0.00051974895 0.00090068305 0.00013337677 -0.0027680225 0.0011514574 0.00023015929 0.00057711295
-0.0018327846 -0.0027790645 -0.00062486995 -0.0003910523 0.0010963064 -0.00047543074 -0.0005188078 -0.0016226312
-0.00062791625 0.014327627 0.0012249002 0.0011337553 -0.0014238745 0.0045715524 -0.0006709395 0.00111805
0.0013571915 0.00066432595 0.0032999935 0.00024307726 0.0053480873 -1.2783537e-05 0.00073533703 0.00047824706

exp_avg_sq f4 [32]
00000000: c237 ab37 0c59 1a38 be85 4439 5f37 1738
00000010: e85d 2e3a 5a22 e138 5ae8 9337 c85c 0038
00000020: c71d a239 c67e 4e3a bdaf 6c38 d576 8138
00000030: 88a9 0439 d6d5 3538 b8bf 7638 9b72 5839
00000040: 9ce4 2538 7e94 323d 75ed 4739 381d 2e39
00000050: a686 6339 44e5 0a3b f49a 4638 690e 0239
00000060: 986a 5539 cad3 0538 c8ef 9c3a 6088 9a37
00000070: 9b8f 013c 94bc 2637 c60e ac38 f42b 2938
2.0410753e-05 3.6799393e-05 0.0001874184 3.6052774e-05 0.00066515664 0.000107352345 1.7631963e-05 3.0603987e-05
0.00030921234 0.0007877167 5.6430454e-05 6.1733335e-05 0.00012651656 4.3352913e-05 5.8829522e-05 0.00020642059
3.9551975e-05 0.043598644 0.00019066579 0.00016604818 0.00021698567 0.0021193782 4.735119e-05 0.00012403134
0.00020352972 3.1906915e-05 0.0011973316 1.8421735e-05 0.007907773 9.938278e-06 8.204351e-05 4.0333674e-05
