notebooks/model.pth (torch, 314690 bytes, 66 tensors)

net.0.weight f4 [50, 1]
0	0x3ee19a6d	0.4406313
1	0x3f03be03	0.5146181
2	0xbdb3aa75	-0.087727465
3	0x3ef54f18	0.47911906
4	0xbe0764f4	-0.13222104
5	0x3dbea978	0.09309667
6	0xbe8ecbf0	-0.27889967
7	0x3ec3961c	0.38200462
8	0x3f0bd786	0.5462574
9	0xbed97fe3	-0.42480382
10	0x3f0b03c4	0.5430262
11	0x3e0bc56a	0.13649526
12	0x3ebee9c2	0.37287718
13	0x3d4cbb15	0.049983103
14	0x3e9227bd	0.28545943
15	0xbe05e0ee	-0.13074085
16	0x3ed04c71	0.4068332
17	0x3ddfb52e	0.10923229
18	0xbe8477e9	-0.25872734
19	0x3df8ca81	0.121479996
20	0xbe7b694b	-0.24551885
21	0xbc8661b0	-0.016404003
22	0xbe899ad1	-0.26875928
23	0x3ec2ea7f	0.3806953
24	0xbef6ab36	-0.481775
25	0xbe691d3f	-0.22765063
26	0xbe190f04	-0.14947134
27	0xbec65f6d	-0.3874468
28	0x3b20ace4	0.0024517113
29	0xbec1964b	-0.37809977
30	0x3f292b84	0.66082025
31	0xbee712e3	-0.45131597
32	0x3eeccf9b	0.4625214
33	0x3db928db	0.09040996
34	0xbe3beb77	-0.18351541
35	0x3eb2e068	0.34936833
36	0x3d41d78f	0.047324713
37	0x3edfefd4	0.43737662
38	0x3c82f1c4	0.015984423
39	0xbe676a46	-0.22599134
40	0x3e2d6c54	0.16935855
41	0xbe18b06d	-0.14911051
42	0x3e9aaf5e	0.3021192
43	0x3ef8e60d	0.48613015
44	0x3ec5504e	0.3853783
45	0xbe7752e9	-0.24152721
46	0x3e9e0304	0.30861676
47	0x3dcd98e6	0.10038929
48	0x3e67ed1c	0.22649044
49	0xbebb43b0	-0.3657508

net.0.bias f4 [50]
0	0xbc038342	-0.0080269
1	0xbd6d28cb	-0.05790023
2	0xbcf79dd5	-0.030226627
3	0xbc7e3777	-0.015516154
4	0xbc3ae3fb	-0.011406894
5	0xbcba72fc	-0.022759907
6	0xbac15b52	-0.0014751947
7	0x3c95497c	0.018223517
8	0xbbaa031a	-0.005188358
9	0xbd0624fe	-0.032750122
10	0x3db38c2c	0.0876697
11	0x3ce16d61	0.027517976
12	0x3d30e319	0.043185327
13	0x3ae929ec	0.0017788983
14	0x3c8ea148	0.01741089
15	0x3b395c36	0.0028283722
16	0xbd1522fe	-0.036410324
17	0x3c4f1449	0.012639114
18	0xbd024f0a	-0.03181366
19	0xbc508dae	-0.012729092
20	0x3bf63720	0.0075138956
21	0x3e068450	0.1313641
22	0x3c7ebf45	0.015548532
23	0x3ad745a8	0.0016423957
24	0x3d75d759	0.060019825
25	0xba7e73b2	-0.0009706571
26	0xbcae89e0	-0.021305978
27	0x3c1195b7	0.008885792
28	0xbde6ffbd	-0.11279247
29	0x3da1a207	0.078922324
30	0x3db910f2	0.09036435
31	0xbe091634	-0.13387376
32	0xbb816f4e	-0.003950036
33	0xbc10629b	-0.008812572
34	0xbc78703b	-0.015163477
35	0x3c06a367	0.008217669
36	0xba95d466	-0.0011431098
37	0xbc91da9a	-0.017804433
38	0xbe132ba5	-0.14372118
39	0xbca0f286	-0.019646894
40	0x3c9fe863	0.01951999
41	0x3d103e25	0.035215516
42	0x3d8d0173	0.06885042
43	0x3beac762	0.0071648816
44	0x3c7d727b	0.015469189
45	0x3ca4dd5b	0.020125082
46	0x3cbc5430	0.022989362
47	0x3bebca09	0.0071957153
48	0xbca3b629	-0.019984322
49	0xbcc1d67c	-0.023661844

net.2.weight f4 [50, 50]
0	0xbed1a32b	-0.409448
1	0xbe26f613	-0.16304807
2	0xbe9dbbbd	-0.30807295
3	0x3ea8c7c7	0.32964918
4	0x3dfb35b4	0.122661024
5	0x3e27fffd	0.16406246
6	0x3e099837	0.13436972
7	0xbc4af4df	-0.012387483
8	0x3ea0dc90	0.31418276
9	0xbe91cb78	-0.28475547
10	0x3ca6e1ed	0.020371402
11	0xbe914002	-0.28369147
12	0x3df6efa3	0.12057426
13	0xbe151be3	-0.14561419
14	0x3df56d5c	0.11983749
15	0xbda3f93c	-0.08006522
16	0x3eaaa318	0.33327556
17	0xbe7cdf2d	-0.2469451
18	0xbe73f323	-0.23823218
19	0xbe7e926f	-0.24860547
20	0x3ebeb0ef	0.37244365
21	0x3e130e77	0.14360987
22	0x3ecbcf14	0.39806426
23	0xbeaf374f	-0.34221885
24	0xbecc993b	-0.39960656
25	0xbea0d8a6	-0.3141529
26	0xbe89f85a	-0.2694729
27	0x3e2ebe01	0.17064668
28	0x3e39a4f8	0.18129337
29	0x3eb0693b	0.34455284
30	0xbe5d4fa6	-0.21612415
31	0xbe8bc717	-0.2730033
32	0x3e585ab2	0.21128348
33	0xbe2e21fe	-0.17005154
34	0x3e8183c4	0.25295842
35	0xbdd141e3	-0.10217645
36	0x3e6a017b	0.22852127
37	0xbea51f60	-0.322505
38	0xbe5ab9f1	-0.21359994
39	0x3e04ba3d	0.1296167
40	0x3da63f9a	0.081176
41	0xbdcaa61b	-0.09894963
42	0x3e73d740	0.2381258
43	0x3e8b5e1b	0.27220234
44	0xbe9a49c6	-0.3013441
45	0xbe59d22e	-0.21271583
46	0x3ebcb0d8	0.3685367
47	0xbe1240a6	-0.14282474
48	0xbe1999de	-0.15000102
49	0xbec78a96	-0.3897292
50	0xbe7579be	-0.23972222
51	0x3dc63574	0.09678164
52	0xbd263cfc	-0.040585503
53	0xbe9a6994	-0.30158675
54	0x3cbbb422	0.022913042
55	0xbe95e69e	-0.2927751
56	0xbeaceaa6	-0.33772773
57	0xbe6d8c9f	-0.23198174
58	0xbeb973b7	-0.36221096
59	0xbe82110d	-0.25403634
60	0x3ece07ba	0.4024027
61	0x3d835e17	0.064144306
62	0x3df4fd81	0.119624145
63	0xbeca4f14	-0.39513457
64	0xbe8da48a	-0.27664596
65	0xbdf8e066	-0.121521756
66	0x3d6c1dc4	0.057645574
67	0xbebf067b	-0.37309632
68	0xbe2a64a4	-0.16639954
69	0xbe83d6d8	-0.2574985
70	0x3c30bc7f	0.0107871285
71	0xbe13ef0f	-0.14446662
72	0xbc9b89b8	-0.018986568
73	0xbe9113a0	-0.28335285
74	0xbe8c9614	-0.2745825
75	0xbe6a2658	-0.2286619
76	0xbe034d95	-0.12822564
77	0xbea13b98	-0.3149078
78	0x3ea839f7	0.32856724
79	0xbd9ba390	-0.075995564
80	0x3eb190a3	0.34680662
81	0x3e079a83	0.13242535
82	0xbeb42a9b	-0.35188755
83	0x3e8929c9	0.26789692
84	0xbdd06817	-0.101761036
85	0xbe281528	-0.1641432
86	0xbeb4df23	-0.3532649
87	0xbed2ab22	-0.4114619
88	0x3de02d26	0.109461114
89	0xbda05a15	-0.07829682
90	0x3e16e2c6	0.14734945
91	0xbea55fea	-0.3229974
92	0x3e96806f	0.29394862
93	0xbe9c2c04	-0.3050233
94	0xbd9fe642	-0.0780759
95	0x3dc30f3e	0.095243916
96	0x3e4f86ed	0.20266314
97	0x3ea186e4	0.31548226
98	0x3eb9a483	0.36258325
99	0xbea22c08	-0.31674218
100	0x3dbad635	0.09122888
101	0xbe3f95ff	-0.18709563
102	0xbd090f6b	-0.03346197
103	0xbea256cb	-0.31706843
104	0x3ec41d6f	0.38303706
105	0xbe9f298d	-0.31086388
106	0x3e6b3ee0	0.22973204
107	0x3e071ccb	0.13194577
108	0x3df82ce3	0.121179365
109	0xbe563b36	-0.20921025
110	0x3eb81a57	0.35957596
111	0x3da09cfb	0.07842442
112	0x3d27f4f9	0.04100511
113	0xbebdcc2b	-0.3706983
114	0x3e23ab98	0.15983427
115	0xbd4da66d	-0.050207544
116	0xbe4b5049	-0.19854845
117	0x3eadd89f	0.3395433
118	0x3dd20e90	0.10256684
119	0xbe72e2ef	-0.23719381
120	0xbe47c30b	-0.19507997
121	0xbb0e90f8	-0.0021753889
122	0x3e753efd	0.2394981
123	0xbded40ee	-0.1158465
124	0xbe62bda6	-0.22142658
125	0xbe03554f	-0.12825511
126	0xbe9643db	-0.29348645
127	0x3e20e621	0.15712787
128	0x3eb15446	0.34634608
129	0xbebee661	-0.3728514
130	0x3daab8a9	0.083360024
131	0x3e63b64e	0.22237512
132	0x3d800406	0.062507674
133	0xbe202183	-0.15637784
134	0x3e66008f	0.2246115
135	0x3e4fde73	0.20299701
136	0x3e10ff5c	0.14159912
137	0xbdaa7930	-0.08323896
138	0xbdfd62d2	-0.12372364
139	0x3d61bf4a	0.055114068
140	0xbdab28d6	-0.08357398
141	0xbde1a510	-0.11017811
142	0x3e7f6921	0.24942447
143	0x3eadbf5c	0.33935058
144	0xbd54d512	-0.051961012
145	0xbda38f90	-0.07986367
146	0xbbb6f969	-0.005583931
147	0xbd114f7c	-0.035476193
148	0x3db1578f	0.086592786
149	0x3e00f3c5	0.1259299
150	0xbec3ad4e	-0.38218158
151	0xbe275fe8	-0.16345179
152	0x3eb56749	0.35430363
153	0x3e1659b3	0.14682655
154	0xbc1ff444	-0.009762827
155	0xbe827f4c	-0.25487745
156	0xbe762529	-0.24037613
157	0xbec0e2e0	-0.37673092
158	0xbe168777	-0.14700113
159	0x3e19c1e0	0.15015364
160	0x3e7bb16a	0.24579397
161	0x3e36f09f	0.17865227
162	0xbebeaa64	-0.37239373
163	0xbe824cf0	-0.25449324
164	0xbd977261	-0.07394863
165	0x3ecea86c	0.4036287
166	0x3d4772ac	0.048693344
167	0xbded0e15	-0.115749516
168	0x3e35e721	0.1776395
169	0xbe28af92	-0.16473225
170	0xbe830386	-0.25588626
171	0x3e955510	0.2916646
172	0xbe352151	-0.1768849
173	0xbdbdeb5f	-0.09273409
174	0xbec9fbe1	-0.3944998
175	0x3e9086d5	0.2822787
176	0x3ea30e3f	0.31846806
177	0x3e22bf94	0.15893394
178	0xbe9a6ba4	-0.30160248
179	0xbec935fb	-0.39298996
180	0xbeb36715	-0.35039583
181	0x3ea40073	0.32031593
182	0x3e3d486e	0.18484661
183	0x3eab48f9	0.3345411
184	0x3e64605a	0.2230238
185	0x3dc085ef	0.09400546
186	0xbc57f333	-0.013180542
187	0xbea508b5	-0.32233205
188	0xbeb14b9a	-0.34627992
189	0xbebe1153	-0.37122592
190	0x3e2115ce	0.15730974
191	0xbe44fc06	-0.19236764
192	0xbdbf2193	-0.09332576
193	0xbe7d927d	-0.24762912
194	0xbdac5322	-0.08414294
195	0xbe8eb3a4	-0.2787143
196	0xbe8d9781	-0.2765465
197	0x3e011f60	0.12609625
198	0xbe046477	-0.1292895
199	0x3e86d74c	0.26336133
200	0xbdf098e7	-0.11747914
201	0xbe926be6	-0.28597945
202	0xbdab50f2	-0.083650485
203	0xbe3cc4d1	-0.18434455
204	0xbe0bba22	-0.13645223
205	0xbec11695	-0.3771254
206	0x3e5c616b	0.21521537
207	0xbe8aae54	-0.27086127
208	0x3e5ffefc	0.21874613
209	0x3e2fe54b	0.17177312
210	0x3e9c4527	0.3052151
211	0xbe9a7e81	-0.3017464
212	0x3e9d3e8e	0.30711788
213	0xbe3abfa4	-0.18237168
214	0x3e28a00f	0.16467308
215	0x3ebecbaa	0.37264758
216	0xbd348a7e	-0.04407739
217	0x3c0189bb	0.007906373
218	0xbddb3733	-0.10703888
219	0xbea87ffc	-0.32910144
220	0x3e3b4312	0.18287304
221	0xbed457d8	-0.4147327
222	0x3e76543e	0.24055573
223	0x3ea3488a	0.3189128
224	0x3ebec325	0.37258258
225	0xbddffb1f	-0.109365694
226	0xbeb20c46	-0.3477499
227	0x3da09fdd	0.078429915
228	0x3e946a7b	0.28987488
229	0xbed6fecd	-0.41991273
230	0xbda2034e	-0.079107866
231	0xbe8439ff	-0.25825498
232	0xbcb5fb39	-0.022214519
233	0xbe42a99a	-0.1901001
234	0xbe37bd69	-0.17943348
235	0xbdee07a9	-0.11622555
236	0xbec101f4	-0.37696803
237	0x3eb26f89	0.3485072
238	0x3eb3e12d	0.35132733
239	0xbd9c25d9	-0.07624406
240	0xbd0cc023	-0.034362923
241	0xbe36f6e9	-0.17867626
242	0xbeb62512	-0.35575157
243	0xbec47a4c	-0.38374555
244	0x3e290179	0.16504468
245	0xbe72cba9	-0.23710503
246	0xbe7f1ac3	-0.24912553
247	0xbcaa324d	-0.020775938
248	0xbdfb68ce	-0.12275849
249	0xbe14f29f	-0.14545678
250	0x3c348bb5	0.011019637
251	0xbdb66b8e	-0.08907233
252	0xbe0e9ada	-0.13926259
253	0xbe4a969b	-0.19784014
254	0xbea98d32	-0.33115536
255	0x3eaec41e	0.34134

net.2.bias f4 [50]
0	0xbba1d3d3	-0.0049385815
1	0xb9845051	-0.00025236842
2	0xbc358ce6	-0.011080956
3	0xbd27e140	-0.0409863
4	0x3c6975ca	0.0142492745
5	0xbba5110a	-0.0050374316
6	0x3c0e2527	0.00867585
7	0xbca7c2a3	-0.020478552
8	0x3c453288	0.012035973
9	0x3b3e128f	0.002900276
10	0x3b9f374d	0.0048588873
11	0x3c294017	0.010330222
12	0xb9a8e5f1	-0.00032214777
13	0x3c5d0654	0.013490278
14	0x3cf55ab7	0.029950483
15	0xbb442605	-0.0029929888
16	0xbb53967f	-0.0032285748
17	0xbb097de8	-0.0020979587
18	0x3ca83f33	0.020537948
19	0x3a351e7a	0.00069091434
20	0xb9335ceb	-0.00017105385
21	0x3bb9face	0.00567565
22	0x3c52b97b	0.012861605
23	0x3b54a6f4	0.0032448145
24	0xbb996f57	-0.004682462
25	0xbce8d990	-0.028424054
26	0x3ac9edcc	0.0015405952
27	0xbbc611bc	-0.0060445946
28	0xbb807eb9	-0.0039213565
29	0xbb708bbf	-0.003670439
30	0x3bebfe40	0.00720194
31	0xbbb3f20c	-0.0054915007
32	0x3b8daa98	0.004323315
33	0xbbf558fb	-0.007487414
34	0xbc18e46b	-0.009331803
35	0x3b22f078	0.0024862569
36	0xbab3cca7	-0.0013717607
37	0x3b4894af	0.00306062
38	0xbb96b50c	-0.004599219
39	0xbbd90acd	-0.006623602
40	0xba326f5a	-0.0006806754
41	0x3c8bfc92	0.017088208
42	0x3c2be148	0.010490723
43	0xbc681117	-0.014164231
44	0x3bc50cbd	0.0060134814
45	0xbbd65f01	-0.006542087
46	0xba88d3cf	-0.00104391
47	0x3acc1087	0.001556889
48	0x3b5b1de7	0.0033434571
49	0x3ba66a67	0.005078602

net.4.weight f4 [50, 50]
0	0x3e9c1a00	0.30488586
1	0xbdefab79	-0.11702628
2	0x3ec586f5	0.38579527
3	0xbe1a189c	-0.1504845
4	0x3d93c65a	0.07215567
5	0xbe925cd4	-0.28586447
6	0xbc8d7796	-0.017268937
7	0x3e282956	0.16422018
8	0x3e3200e8	0.17383158
9	0xbbd22f2a	-0.006414314
10	0xbe5ba8e1	-0.21451141
11	0x3e9081ee	0.28224128
12	0x3e8a8b52	0.27059418
13	0x3d538ad2	0.05164606
14	0xbe3f6bd0	-0.18693471
15	0x3db01a8f	0.08598816
16	0x3d020a42	0.031748064
17	0x3eb0a114	0.34497893
18	0x3d86c060	0.06579661
19	0x3cfdf7c9	0.031001942
20	0x3b7d7151	0.0038672278
21	0x3e5f8edf	0.21831845
22	0xbb8ab705	-0.0042332434
23	0x3eb374f8	0.35050178
24	0x3e5b9506	0.21443567
25	0xbe9e52f7	-0.30922672
26	0x3b96622e	0.0045893406
27	0xbeb08dc2	-0.34483153
28	0xbea047f1	-0.31304887
29	0x3da87675	0.08225719
30	0x3dbd89ac	0.092547745
31	0xbd138597	-0.036016073
32	0x3ed5802b	0.41699347
33	0xbe5e7395	-0.21723779
34	0xbe35814f	-0.17725109
35	0xbd941c95	-0.07232014
36	0x3c40cd45	0.01176769
37	0xbcefaf17	-0.029258294
38	0x3edcc33d	0.43117705
39	0xbe2f6e43	-0.17131905
40	0xbe5a340c	-0.21308917
41	0x3d0d0e5b	0.03443752
42	0x3e9d41b3	0.30714187
43	0x3dcf7b38	0.10130924
44	0x3e63f2d0	0.22260594
45	0x3da2db53	0.07951989
46	0x3eaee82c	0.34161508
47	0x3e7a4a97	0.24442516
48	0x3e953b16	0.29146641
49	0xbd5bda14	-0.053674772
50	0xbeaa72cf	-0.33290717
51	0xbe435383	-0.19074826
52	0x3e13a44f	0.14418148
53	0x3e91d2a4	0.2848102
54	0xbe247025	-0.16058405
55	0x3eadd17d	0.3394889
56	0x3d78b67c	0.060720906
57	0x3b5507f1	0.0032505954
58	0x3c8fdfca	0.017562766
59	0xbd940b70	-0.07228744
60	0x3ec38700	0.38188934
61	0x3c9f8aba	0.01947533
62	0x3e7d7da4	0.2475496
63	0xbeb44ff7	-0.35217258
64	0xbe594aad	-0.21219893
65	0x3d433d80	0.047666073
66	0x3eacc26d	0.33742085
67	0x3e3ca1de	0.18421122
68	0x3da135c0	0.0787158
69	0xbecd6648	-0.40117097
70	0x3b93842d	0.0045018406
71	0xbe8aa13f	-0.27076146
72	0xbeb328d0	-0.34992075
73	0x3d5bb072	0.05363507
74	0xbe855454	-0.260409
75	0x3ebeb7df	0.37249658
76	0xbe63e297	-0.22254406
77	0x3e039bc6	0.12852392
78	0x3e730018	0.23730505
79	0xbea31c4a	-0.3185752
80	0x3e540bce	0.20707628
81	0xbd569492	-0.05238778
82	0x3e62d8b4	0.22152978
83	0x3ec96314	0.39333403
84	0xbe32f318	-0.17475545
85	0xbe38a135	-0.18030246
86	0x3ea6c65c	0.3257321
87	0x3d39d941	0.045373205
88	0xbcf2402c	-0.029571615
89	0x3e9dbd1c	0.30808342
90	0xbe47478b	-0.19460885
91	0xbc96ad64	-0.018393226
92	0x3e8ea20c	0.27858007
93	0x3e277df8	0.16356647
94	0xbe87ed0c	-0.2654804
95	0x3dd5e1ae	0.104434356
96	0xbe9f3b68	-0.3110001
97	0xbe608265	-0.21924742
98	0x3e86fd2b	0.26365027
99	0xbdd874ea	-0.105691746
100	0xbe55002f	-0.20800851
101	0x3cf71dcb	0.030165574
102	0x3dc9630f	0.09833347
103	0xbe82d73d	-0.2555484
104	0xbe8ebad5	-0.27876917
105	0xbec94b81	-0.39315417
106	0x3ddb5dd0	0.10711253
107	0xbe85e4c8	-0.2615111
108	0x3d0f4997	0.03498229
109	0xbdc3b412	-0.0955583
110	0xbe87b216	-0.26503056
111	0xbe03013d	-0.12793441
112	0xbea1944c	-0.31558454
113	0xbe5ee075	-0.21765311
114	0xbc766241	-0.015038074
115	0xbeb1b9f5	-0.34712186
116	0xbeb6be74	-0.3569218
117	0x3e9b8563	0.30375203
118	0x3d0f6043	0.03500391
119	0xbe3786ef	-0.17922567
120	0xbb19a7d9	-0.0023445992
121	0x3e9a25da	0.30107003
122	0xbeaf3b88	-0.34225106
123	0xbe5fe54a	-0.2186481
124	0xbe98d0ce	-0.29846805
125	0xbce0cba8	-0.02744086
126	0xbc8ea216	-0.017411273
127	0xbea2933b	-0.31752953
128	0x3e8ff1b4	0.28114092
129	0xbea24f5d	-0.31701174
130	0x3ec1f729	0.3788388
131	0xbe8f9089	-0.2803996
132	0xbd7e6991	-0.062112395
133	0x3d980c06	0.07424168
134	0xbe370440	-0.17872715
135	0x3ebdb6e2	0.3705359
136	0xbe89e0e3	-0.26929387
137	0xbccc5e73	-0.02494738
138	0xbe931409	-0.28726223
139	0x3de3c2d9	0.111211486
140	0x3eb3179a	0.34978944
141	0x3ec2d058	0.3804958
142	0x3d3e22cc	0.046419904
143	0xbe4ffaa7	-0.2031046
144	0x3eca7b93	0.39547405
145	0x3cec1bd3	0.028821861
146	0x3e8f119d	0.27943125
147	0xbe552a4b	-0.20816915
148	0xbe4096e0	-0.18807554
149	0xbeac4a14	-0.33650267
150	0x3eba529f	0.3639116
151	0x3d799ccc	0.06094055
152	0xbe9b7e19	-0.30369642
153	0x3d266b53	0.040629696
154	0xbe2d9d67	-0.16954575
155	0x3c79012b	0.015198032
156	0x3e0499d7	0.1294931
157	0xbe551907	-0.20810328
158	0x3d87255a	0.06598921
159	0xbe83333d	-0.2562503
160	0x3da1cd02	0.0790043
161	0xbecbb9df	-0.39790246
162	0x3d91ee0f	0.07125484
163	0x3ed6af4b	0.41930613
164	0x3ec37553	0.3817545
165	0x3e12a682	0.1432133
166	0x3e8cc8f4	0.27497065
167	0x3ed533d9	0.4164112
168	0x3df2373d	0.11826942
169	0x3e05e0ec	0.13074082
170	0x3d97dbae	0.074149475
171	0x3ebbb2d7	0.3665988
172	0x3eb6479d	0.35601512
173	0xbe3e46b1	-0.18581654
174	0xbc3da514	-0.011575002
175	0xbe589b80	-0.21153069
176	0x3e18d524	0.14925057
177	0xbec79a7b	-0.38985047
178	0x3e1a5c40	0.15074253
179	0xbddc53c9	-0.10758168
180	0x3e1d7709	0.1537744
181	0x3df88371	0.121344455
182	0xbe65c54c	-0.22438544
183	0x3e5e05bd	0.21681876
184	0x3e2ef81a	0.1708683
185	0xbeac0e76	-0.33604783
186	0x3ec8e52a	0.39237338
187	0x3eb4ee90	0.3533826
188	0x3e615b3b	0.22007458
189	0xbd13ecb4	-0.03611441
190	0x3e0d2450	0.13783383
191	0xbe67f7f2	-0.22653177
192	0xbe084029	-0.13305725
193	0x3e3bc38d	0.18336315
194	0x3e3e74ba	0.18599215
195	0x3e2b4deb	0.16728942
196	0xbec83876	-0.39105576
197	0x3ea9eff0	0.3319087
198	0xbe34138e	-0.17585585
199	0x3eb1406a	0.34619457
200	0x3ea60ae6	0.3243019
201	0x3e1099a2	0.14121106
202	0x3ec9c9c7	0.39411756
203	0x3e75ce67	0.24004517
204	0x3e7e4c81	0.24833871
205	0xbe16400f	-0.14672874
206	0x3ebe1310	0.3712392
207	0x3dcd3617	0.100200824
208	0x3e6e585e	0.23275897
209	0xbdaea5d3	-0.08527722
210	0x3e9592d9	0.29213598
211	0x3eb58f44	0.35460865
212	0xbe9b1371	-0.3028827
213	0x3eb4da00	0.3532257
214	0xbe85737a	-0.26064664
215	0xbe9387b0	-0.2881446
216	0xbeb87882	-0.3602944
217	0x3e039079	0.1284808
218	0xbe999251	-0.29994443
219	0xbe26c1a9	-0.16284813
220	0xbe42feae	-0.19042465
221	0x3de84744	0.11341718
222	0xbecabf2a	-0.39598972
223	0xbe35347c	-0.17695802
224	0x3c3ec274	0.011643041
225	0x3cdd3ac0	0.027005553
226	0xbe353688	-0.17696583
227	0x3e20aed2	0.15691689
228	0xbe850dfa	-0.25987226
229	0xbeab93dc	-0.33511245
230	0xbd4bcac2	-0.04975391
231	0xbe6b54bb	-0.22981541
232	0x3e7aa746	0.24477872
233	0xbe8ac040	-0.270998
234	0xbd230b86	-0.03980591
235	0x3e3edd7f	0.18639182
236	0xbebf7b8f	-0.37398955
237	0x3ea25148	0.31702638
238	0xbe4865d3	-0.19570093
239	0xbdd53812	-0.10411085
240	0xbe857393	-0.2606474
241	0xbe22629f	-0.15857933
242	0xbe192be1	-0.14958145
243	0xbebf9cd8	-0.3742435
244	0x3e159251	0.14606597
245	0x3b84150d	0.0040308298
246	0x3ec92cf5	0.39292112
247	0x3e8621e5	0.26197734
248	0x3eb48df3	0.3526455
249	0x3dde05e1	0.10840965
250	0x3e5b873d	0.21438308
251	0x3ec4cc85	0.38437286
252	0x3eaacfeb	0.33361754
253	0xbea287ff	-0.31744382
254	0xbdc5e050	-0.09661925
255	0xbec796b2	-0.3898216

net.4.bias f4 [50]
0	0xb9e6f2ef	-0.00044050018
1	0x3a795a3b	0.00095120416
2	0x3ad0c67c	0.0015928294
3	0xbbb907a9	-0.005646665
4	0xbb2fc596	-0.0026820651
5	0x3b9cbe2b	0.004783412
6	0x3ca31733	0.019908523
7	0xb8cad6b1	-9.6721e-05
8	0xbb94ce92	-0.0045412267
9	0xbbcc8555	-0.0062414804
10	0xba5b668b	-0.0008369467
11	0x39d6f1cc	0.00040997413
12	0x398b836c	0.00026610063
13	0xbbc709b0	-0.006074153
14	0xbc048451	-0.008088187
15	0x3ba30c3f	0.004975825
16	0x3ad1f176	0.0016017396
17	0xbac7852e	-0.0015222186
18	0x3a111cda	0.000553561
19	0x3b175fa7	0.0023097785
20	0x3bc13f07	0.005897406
21	0x3c2a311b	0.010387684
22	0x3ba71f01	0.0051001315
23	0x3c290bae	0.010317726
24	0x3af5eda6	0.0018762841
25	0x3bb35cb6	0.0054736985
26	0xbc1463d7	-0.009057007
27	0x3b81313f	0.003942638
28	0x3bf1a747	0.0073746773
29	0x3c20b0d4	0.009807784
30	0xba975d6f	-0.0011548231
31	0x3c40a75f	0.011758654
32	0xba426d29	-0.0007416779
33	0x3a8e00b8	0.0010833954
34	0x39162134	0.00014317484
35	0x3b014c97	0.001972949
36	0x3b9b30cd	0.004736042
37	0x3b76d19a	0.0037661553
38	0x3ae8b1e7	0.0017753214
39	0xb89be29b	-7.4331845e-05
40	0x3b808733	0.003922367
41	0x3b9c0c0b	0.004762178
42	0xbbd15363	-0.0063881143
43	0xbd02af8c	-0.031905696
44	0xbb3f63c3	-0.002920375
45	0x3b4e0820	0.0031437948
46	0xb92c6c42	-0.00016443527
47	0x3b8fdf81	0.0043906574
48	0xbb2f3ee1	-0.002674036
49	0xbba4f868	-0.005034495

net.6.weight f4 [50, 50]
0	0xbe10db3d	-0.14146133
1	0x3e05681b	0.13027994
2	0x3eb61032	0.3555923
3	0xbe200441	-0.15626623
4	0xbea196c3	-0.31560335
5	0xbea0a8a9	-0.31378677
6	0xbe428e35	-0.1899956
7	0x3dc231c4	0.09482148
8	0xbd59d3f9	-0.05318067
9	0xbdda0e6b	-0.10647281
10	0xbe593b63	-0.2121406
11	0x3dd2896a	0.10280116
12	0xbea8ee64	-0.32994378
13	0x3ecfeec8	0.40611863
14	0xbd90aa63	-0.07063749
15	0x3d91d145	0.07119993
16	0x3e0f096d	0.1396844
17	0xbe27cd2e	-0.16386864
18	0x3ea4a48f	0.32156798
19	0xbc1aeba8	-0.009455599
20	0x3d010d05	0.031506557
21	0xbec47e1f	-0.38377473
22	0x3d3b1850	0.045677483
23	0x3e0da4d7	0.13832413
24	0x3d3adc63	0.045620333
25	0xbd49536f	-0.049151834
26	0x3e9a399e	0.30122083
27	0x3ea27fc5	0.31738105
28	0x3e8a88df	0.2705755
29	0xbd8579ba	-0.06517358
30	0x3d96ce6e	0.07363592
31	0xbe917d63	-0.28415975
32	0xbe9dc5fa	-0.30815107
33	0xbdd58eae	-0.104276046
34	0x3d0e11e0	0.034685016
35	0xbe75f2c7	-0.24018393
36	0xbea4d7a8	-0.32195783
37	0x3e43806d	0.1909196
38	0x3e2de2ab	0.16980998
39	0xbe8b05dd	-0.2715291
40	0x3e8dac04	0.276703
41	0xbe9cde64	-0.3063842
42	0x3e9b15cf	0.30290076
43	0x3e638835	0.22219928
44	0xbe18485e	-0.14871356
45	0x3ec5f874	0.38666117
46	0xbe7302b8	-0.23731506
47	0xbe4347cd	-0.19070359
48	0x3eae3811	0.3402715
49	0xbdcdddc5	-0.10052065
50	0xbe7294c6	-0.23689565
51	0x3d4d8d7d	0.050183762
52	0xbd81711a	-0.063204005
53	0x3e851b38	0.2599733
54	0x3ea8bbf9	0.32955912
55	0x3e35b452	0.17744568
56	0x3dcee2da	0.10101862
57	0x3df4b903	0.11949351
58	0x3c81d150	0.015846878
59	0x3d2c15e3	0.04201306
60	0xbde19bbf	-0.11016034
61	0x3e94ebb6	0.29086083
62	0x3e673513	0.2257884
63	0xbd2e801f	-0.042602655
64	0x3e1f3b2e	0.15549919
65	0x3cef6482	0.02922273
66	0x3e0ebb69	0.13938679
67	0x3eaddca0	0.33957386
68	0xbe7f5abf	-0.2493696
69	0x3d888c05	0.066673316
70	0xbd964b56	-0.07338588
71	0xbecf317b	-0.40467438
72	0xbee06147	-0.43824217
73	0xbd3b7b5a	-0.045771934
74	0x3e92c7f2	0.2866817
75	0xbe8af52e	-0.27140182
76	0x3e0ca419	0.13734473
77	0x3e773160	0.24139929
78	0xbe9379fa	-0.28803998
79	0x3e2ef0de	0.17084071
80	0x3d93e7bb	0.072219335
81	0xbeb7aa1d	-0.35871974
82	0xbcd03d86	-0.025419962
83	0xbed8d7c3	-0.42352113
84	0x3ec71eac	0.38890588
85	0x3e5074a2	0.20356992
86	0x3e16a80e	0.14712545
87	0x3e9c0f75	0.30480543
88	0x3e9d4125	0.30713764
89	0x3edc807d	0.4306678
90	0x3e25da85	0.1619664
91	0xbe9359f3	-0.28779563
92	0x3ec44cfe	0.3833999
93	0x3ddfd52c	0.10929331
94	0xbe2c7ff0	-0.1684568
95	0xbe26f240	-0.16303349
96	0x3ec10ca8	0.37704968
97	0x3dc3c53e	0.09559105
98	0x3e9783ca	0.29592735
99	0x3ce3b284	0.027795084
100	0x3ea9857e	0.3310966
101	0xbe9b2878	-0.30304313
102	0x3dcc0340	0.099615574
103	0x3dc8be94	0.09801975
104	0xbbc6ddce	-0.0060689216
105	0x3eb91e27	0.36155817
106	0x3db25d0f	0.08709156
107	0x3d19e92f	0.037575897
108	0x3e8fae61	0.28062728
109	0xbd14687d	-0.03623246
110	0xbde6b25f	-0.1126449
111	0xbea9831f	-0.3310785
112	0xbb58235f	-0.0032980067
113	0xbe43b0a5	-0.19110353
114	0x3e720134	0.23633271
115	0x3eb71a60	0.3576231
116	0xbec3d95d	-0.38251773
117	0xbe703d2a	-0.23460832
118	0x3ed1797b	0.40912995
119	0xbe2dfd4a	-0.16991153
120	0x3ebc1ae7	0.36739275
121	0x3ecc827d	0.39943305
122	0xbdf82d63	-0.12118032
123	0xbea75912	-0.32685143
124	0x3e4c1813	0.19931059
125	0x3e3d08d7	0.18460403
126	0x3eb64ac8	0.3560393
127	0x3d7d38f8	0.061821908
128	0x3e6840bf	0.22680949
129	0xbeb40efb	-0.3516768
130	0x3d58588d	0.052818824
131	0x3dd28432	0.102791205
132	0x3e7dc4e2	0.24782136
133	0xbe7c7cb9	-0.24656953
134	0xbd2252b6	-0.03962966
135	0xbe74c2ae	-0.2390239
136	0xbe8ddbf8	-0.27706885
137	0x3e29b6dd	0.16573663
138	0x3d744f50	0.05964595
139	0x3e272f87	0.16326724
140	0xbc3582b6	-0.011078527
141	0xbbdd38cc	-0.0067511555
142	0xbc6d6392	-0.014489071
143	0x3e601e00	0.21886444
144	0xbe9343a3	-0.2876254
145	0x3da6c6d3	0.081433915
146	0x3e67118f	0.22565292
147	0x3e75020c	0.23926562
148	0xbe46174b	-0.19344823
149	0x3ea1092d	0.31452313
150	0xbe8519a0	-0.25996113
151	0x3e51113f	0.20416735
152	0x3eacbd8e	0.3373837
153	0x3c9520c8	0.018204108
154	0x3df86c97	0.12130087
155	0xbec7f8e6	-0.39057082
156	0xbe25b15d	-0.1618094
157	0xbe2f50d2	-0.17120674
158	0xbec13e80	-0.37742996
159	0xbdb2daf3	-0.087331675
160	0x3ea52804	0.32257092
161	0xbd1c4d45	-0.038159627
162	0x3ecc44c4	0.39896214
163	0xbebebf53	-0.37255344
164	0x3e2c5b17	0.16831623
165	0x3eb5d344	0.35512745
166	0x3ec8b947	0.39203855
167	0xbe1e84f2	-0.15480402
168	0xbec084a6	-0.37601203
169	0xbe19d6f0	-0.15023398
170	0x3e9b93a1	0.3038607
171	0x3d05f0b4	0.032700256
172	0x3ecd2826	0.40069693
173	0xbe974200	-0.29542542
174	0xbe81c051	-0.25342038
175	0x3e59566c	0.21224374
176	0x3e12c468	0.14332736
177	0xbe86144b	-0.26187357
178	0x3ebcf733	0.36907348
179	0xbe249725	-0.16073282
180	0xbeafbe0e	-0.34324688
181	0x3de70e19	0.11281986
182	0xbe6e672b	-0.23281543
183	0xbe3d7ecb	-0.18505399
184	0xbe70c3c4	-0.23512179
185	0x3de47cfa	0.1115665
186	0x3e4957b0	0.19662356
187	0x3e8c004a	0.2734397
188	0xbe795539	-0.24348916
189	0xbdc90f41	-0.098173626
190	0x3ec18077	0.37793323
191	0xbe52781a	-0.20553628
192	0xbe135404	-0.14387518
193	0xbda85cb5	-0.082208075
194	0xbeb4ddcf	-0.35325477
195	0xbe93b29d	-0.2884721
196	0x3ebad976	0.36494035
197	0x3da056ce	0.07829057
198	0x3d9eec66	0.07759933
199	0x3e2174e7	0.15767251
200	0x3e576da4	0.21037918
201	0x3e8e32cc	0.2777313
202	0x3e9242cd	0.2856659
203	0x3e2052ab	0.15656535
204	0x3ea1cd7d	0.31602088
205	0x3e8ccb95	0.2749907
206	0xbd91a2c6	-0.07111125
207	0x3d96be35	0.07360498
208	0xbe64560d	-0.22298451
209	0xbe9b1cea	-0.30295497
210	0x3eb2ace3	0.34897527
211	0xbe9f8cd0	-0.3116212
212	0xbe7c5182	-0.24640468
213	0xbec60809	-0.38678005
214	0xbea4914b	-0.321421
215	0x3dacdba6	0.08440332
216	0x3e50af95	0.20379479
217	0xbeb20c5f	-0.34775063
218	0x3cff1c8f	0.031141547
219	0xbe9f5414	-0.31118834
220	0x3d9481ad	0.07251296
221	0x3e80ae17	0.2513282
222	0xbe307362	-0.17231515
223	0xbe3982cc	-0.18116301
224	0x3e7b92af	0.24567674
225	0xbe8e2171	-0.2775989
226	0xbdc0325e	-0.09384607
227	0xbeb1d571	-0.34733155
228	0x3e89df60	0.26928234
229	0x3e0e4078	0.1389178
230	0xbe213b1d	-0.15745206
231	0x3e93b447	0.28848478
232	0x3ec52963	0.38508138
233	0x3dff92c2	0.12479164
234	0xbe9cb2fd	-0.30605307
235	0xbdc00f22	-0.09377886
236	0x3eb4a476	0.35281724
237	0x3e9c5d91	0.30540136
238	0xbe057a77	-0.13034998
239	0x3e88e5a9	0.26737717
240	0xbe8317f3	-0.2560421
241	0x3dd959b4	0.10612813
242	0x3eb394fb	0.350746
243	0x3da7f941	0.08201838
244	0xbeac999d	-0.33710948
245	0x3df2813e	0.11841057
246	0x3e5feeb7	0.21868406
247	0x3e8dd071	0.2769809
248	0xbe7eb3f3	-0.24873333
249	0xbd874a15	-0.06605927
250	0xbd319b04	-0.043360725
251	0xbd8ad23a	-0.06778379
252	0xbdbeb245	-0.09311346
253	0xbe1a80d4	-0.15088207
254	0x3e12cef9	0.14336766
255	0x3e4955fe	0.1966171

net.6.bias f4 [50]
0	0x3ba3d6dc	0.0049999785
1	0xbb736e66	-0.003714466
2	0xba9b80b1	-0.0011863915
3	0xbb8e4044	-0.004341157
4	0x3bff7306	0.0077956943
5	0x3b51fab1	0.0032040293
6	0x3a82f90e	0.0009992437
7	0x3b17947a	0.002312927
8	0x3b8a46c1	0.0042198603
9	0xbc441f45	-0.011970346
10	0x3b7981fd	0.0038071864
11	0x3b0a8e04	0.0021141777
12	0xb9a09d4d	-0.00030634776
13	0xb84bd487	-4.8596903e-05
14	0x3b0676fa	0.0020517693
15	0xba8c92e3	-0.0010724928
16	0x3a9fe9e3	0.0012200441
17	0xbb4d6638	-0.0031341445
18	0xbc8402d7	-0.016114635
19	0x3ac219a7	0.001480867
20	0x3c15e1ef	0.009148105
21	0xbb22b0cd	-0.002482462
22	0xb912f83c	-0.0001401612
23	0x3b26e324	0.0025464976
24	0x3b8cb503	0.004294039
25	0xba78fdcf	-0.00094982696
26	0xbc0cebb5	-0.008601119
27	0xba6d5fcf	-0.0009055109
28	0x39a95c16	0.000323028
29	0x3c1623e5	0.009163831
30	0x3b033bb2	0.0020024595
31	0xbb6e2198	-0.0036335941
32	0x3b126224	0.0022336328
33	0x3bc61fa1	0.006046251
34	0xbb861d2f	-0.0040928344
35	0xba74fcbd	-0.0009345522
36	0xbb99a890	-0.0046892837
37	0xbb167050	-0.0022955127
38	0xbacd4edb	-0.001566376
39	0xbb9a1788	-0.004702512
40	0xbbcfefcc	-0.0063457247
41	0xbc060fbe	-0.008182464
42	0xbb9b9282	-0.0047476897
43	0xbb48b9ed	-0.0030628399
44	0x3c146c86	0.009059077
45	0x3c04f929	0.008116045
46	0xbba386c8	-0.0049904324
47	0xbb563271	-0.0032683874
48	0xbb0f33b1	-0.002185088
49	0x3ae2e644	0.0017311056

net.8.weight f4 [50, 50]
0	0xbc9f519b	-0.019448092
1	0xbea651a1	-0.32484153
2	0xbe89353f	-0.26798436
3	0xbbd0f507	-0.006376866
4	0xbeba9a65	-0.3644592
5	0x3eb30099	0.34961393
6	0xbe82d9c1	-0.25556758
7	0xbe9e22ba	-0.3088587
8	0x3eca05a3	0.39457425
9	0xbe87204f	-0.26391837
10	0xbe3c8283	-0.18409161
11	0x3b958190	0.004562564
12	0x3dfdb924	0.123888284
13	0xbe17ede9	-0.1483685
14	0x3e65f7f6	0.22457871
15	0xbe81f0e2	-0.25379092
16	0x3da13bab	0.07872709
17	0xbeccb8f4	-0.39984858
18	0xbebb706e	-0.36609215
19	0x3e19be86	0.15014085
20	0x3e4878de	0.19577357
21	0xbe39ec94	-0.18156654
22	0x3e0c75f4	0.1371687
23	0xbe004b48	-0.12528718
24	0x3e68e00b	0.22741716
25	0x3d436005	0.047698993
26	0xbdb3954e	-0.08768712
27	0x3da2fad1	0.07957996
28	0xbec32b16	-0.3811881
29	0x3e6767cf	0.22598194
30	0x3ebfec34	0.37484896
31	0x3eb3b2b2	0.3509727
32	0xbe738bd5	-0.2378381
33	0xbe2de78a	-0.16982856
34	0xbe38aea8	-0.18035376
35	0x3d86fa44	0.06590703
36	0xbe925778	-0.28582358
37	0xbe9e2fa1	-0.30895713
38	0xbe1f946e	-0.15583965
39	0x3eb991b8	0.36243987
40	0x3dd63c89	0.10460765
41	0xbebb5ec2	-0.36595732
42	0xbe45fe9c	-0.19335407
43	0xbea4a1c5	-0.3215467
44	0xbd4c537a	-0.049884297
45	0x3c35ebe1	0.011103601
46	0xbe89d776	-0.26922196
47	0xbe9fb4a0	-0.31192493
48	0xbd9bc500	-0.07605934
49	0x3cb1e051	0.021713408
50	0x3e986375	0.2976338
51	0x3e203cb5	0.15648158
52	0xbe727407	-0.23677073
53	0xbec04aa1	-0.37556937
54	0x3dac3424	0.084083825
55	0xbd61a3dc	-0.05508791
56	0x3e74196a	0.2383782
57	0xbe8fe39c	-0.2810334
58	0xbcef103c	-0.029182546
59	0xbe99c278	-0.3003118
60	0xbe57f742	-0.21090415
61	0xbe79eff3	-0.2440794
62	0xbda04528	-0.078256905
63	0xbd0fa599	-0.035070036
64	0x3ebeccfc	0.37265766
65	0x3eb961e3	0.36207494
66	0x3ea24d55	0.31699625
67	0x3dc5fca9	0.09667332
68	0x3b51cc0a	0.0032012486
69	0x3ec1b628	0.37834287
70	0xbe92a28b	-0.28639635
71	0xbec6573b	-0.38738427
72	0xbe652b97	-0.2237991
73	0x3e9991a8	0.2999394
74	0x3ecc66ac	0.39922082
75	0xbe285b5c	-0.16441101
76	0xbe85bb9e	-0.26119703
77	0xbeb3183d	-0.3497943
78	0x3e482fd4	0.19549495
79	0xbe2b37f9	-0.1672057
80	0x3e9aaa09	0.30207852
81	0xbe1083f0	-0.1411283
82	0x3ebd5936	0.36982125
83	0x3e891a85	0.26778045
84	0x3e8832b4	0.26601183
85	0x3e634b81	0.22196771
86	0xbea9d9ed	-0.33174077
87	0x3d58c6d1	0.05292398
88	0xbe7ea28b	-0.24866693
89	0xbdfabc4b	-0.12242945
90	0x3e8026c4	0.25029576
91	0xbe4b91fb	-0.19879906
92	0x3e81d5f6	0.25358552
93	0x3c84be06	0.016203891
94	0xbe433f3f	-0.19067095
95	0xbe4b614f	-0.19861339
96	0xbecd392c	-0.4008268
97	0x3e143db6	0.14476666
98	0x3c95c9aa	0.018284637
99	0x3eb89922	0.3605433
100	0x3e125ad0	0.14292455
101	0x3e1990b6	0.14996609
102	0xbd002df7	-0.031293835
103	0x3e4999ef	0.19687627
104	0xbd6bee75	-0.057600457
105	0x3e2e0a1a	0.16996041
106	0xbe08ce69	-0.13359989
107	0x3e883c26	0.2660839
108	0x3dbcd35f	0.09220003
109	0x3e55428a	0.20826164
110	0x3c7b8813	0.015352267
111	0x3e3eef80	0.1864605
112	0x3ede209a	0.43384248
113	0x3d6d825a	0.05798564
114	0x3e700940	0.23441029
115	0xbed6e4fb	-0.41971573
116	0xbd300046	-0.04296901
117	0xbebc5fd8	-0.36791873
118	0x3cad53dd	0.021158153
119	0x3dd480de	0.10376142
120	0x3dc12576	0.09430973
121	0xbe529851	-0.20565917
122	0x3e44b5ef	0.19210027
123	0xbe287ecf	-0.16454624
124	0xbde5259f	-0.11188816
125	0x3eb647fe	0.356018
126	0xbebc7d37	-0.3681428
127	0x3d9cc7d3	0.07655301
128	0xbeaa3024	-0.33239853
129	0x3e28aefd	0.16473003
130	0xbeb25b3e	-0.34835237
131	0xbec0c1d9	-0.37647894
132	0xbdf863f3	-0.12128439
133	0x3ebddcc9	0.37082508
134	0x3e4bd520	0.1990552
135	0x3e8b878d	0.27251855
136	0xbdb391fa	-0.08768077
137	0x3eb4f3a9	0.35342148
138	0xbe421b23	-0.18955664
139	0xbc5b2ee2	-0.013377877
140	0xbec31dfd	-0.38108817
141	0x3d3e44d0	0.046452343
142	0x3db1990f	0.08671772
143	0xbedc98c3	-0.43085298
144	0x3eb38e8a	0.35069686
145	0x3d8712ba	0.06595369
146	0x3eb38f62	0.3507033
147	0xbe2893cc	-0.1646263
148	0x3cde01c9	0.02710046
149	0xbe0bd011	-0.1365359
150	0x3eaef373	0.34170112
151	0xbe7326b8	-0.23745239
152	0x3e6d1ed7	0.23156296
153	0xbe90684c	-0.28204572
154	0x3e9ee5b1	0.31034616
155	0xbec1378c	-0.3773769
156	0xbe4cada9	-0.19988121
157	0xbe39c444	-0.18141276
158	0xbd892e56	-0.06698291
159	0xbc008763	-0.007844779
160	0x3e0af95b	0.13571684
161	0x3eba2738	0.36358047
162	0x3e707586	0.23482332
163	0xbe4cded0	-0.20006871
164	0x3ec8ee03	0.3924409
165	0xbd628cbb	-0.055309992
166	0xbe6bea64	-0.23038632
167	0x3e135085	0.14386185
168	0xbd993e25	-0.07482556
169	0x3ec493e5	0.38394085
170	0x3d59497d	0.0530486
171	0x3e8c8627	0.274461
172	0x3dd2d593	0.10294642
173	0xbe819048	-0.2530539
174	0x3daa2cb9	0.083093114
175	0xbe7e275f	-0.24819706
176	0xbddab44c	-0.1067892
177	0xbe034e34	-0.12822801
178	0xbea940bd	-0.33057204
179	0x3e1fd9dd	0.15610452
180	0x3e92901e	0.28625578
181	0xbecc9e2f	-0.39964435
182	0x3e61896b	0.22025077
183	0xbea6b89a	-0.32562715
184	0xbece4be8	-0.40292287
185	0x3e122c3c	0.14274687
186	0xbbd27e38	-0.006423738
187	0xbe8197a4	-0.25311005
188	0x3ebd7574	0.37003672
189	0x3d03584c	0.03206663
190	0xbe842aaa	-0.258138
191	0x3e3add0f	0.1824839
192	0x3cd63d7c	0.026152365
193	0xbd6e4e6e	-0.058180265
194	0xbe936e63	-0.28795156
195	0xbcee415d	-0.029083902
196	0x3e73751b	0.23775141
197	0xbe508d46	-0.20366392
198	0x3e429d26	0.1900526
199	0xbeceec9e	-0.404149
200	0xbe1ed0e6	-0.15509376
201	0xbe07390d	-0.13205357
202	0xbeb7f3e9	-0.35928276
203	0x3e188e55	0.14898045
204	0xbea30981	-0.31843188
205	0x3e7118ba	0.23544589
206	0x3daccf47	0.084379725
207	0x3bc86f0d	0.006116754
208	0xbe5c3613	-0.21505003
209	0xbe0d732c	-0.13813466
210	0x3dce5b30	0.100759864
211	0x3ec92072	0.39282566
212	0xbe5077b9	-0.2035817
213	0xbe8e69ee	-0.27815193
214	0xbe35b937	-0.17746435
215	0xbe91c5ab	-0.2847112
216	0xbd596395	-0.053073484
217	0xbe90ddf3	-0.28294334
218	0x3e971bb6	0.2951333
219	0x3e8d9c10	0.2765813
220	0xbe839f49	-0.25707462
221	0x3eba9631	0.36442712
222	0x3db0cc04	0.08632663
223	0xbe83b059	-0.2572048
224	0x3e0a5f9b	0.13513033
225	0xbec32b47	-0.38118955
226	0xbe5fa502	-0.21840289
227	0xbe96a9df	-0.29426476
228	0xbe78b523	-0.24287848
229	0xbdad9606	-0.0847588
230	0x3dc0c10a	0.09411819
231	0x3d9d6c18	0.07686633
232	0xbecbb4b8	-0.39786315
233	0xbec5e5e3	-0.38651952
234	0xbd7c40dd	-0.061585296
235	0x3eb05985	0.34443298
236	0x3e1df5de	0.15425822
237	0x3ebae2e0	0.36501217
238	0xbe431c0b	-0.19053666
239	0x3dd24411	0.10266889
240	0xbeb66fc1	-0.35632136
241	0x3e478760	0.19485235
242	0xbc0775f0	-0.008267865
243	0xbc606638	-0.013696246
244	0xbe62e37f	-0.22157095
245	0xbeb4c162	-0.3530379
246	0xbe14ac2f	-0.14518808
247	0xbd1f7822	-0.038932927
248	0xbe60c80c	-0.21951312
249	0x3e2ebcd7	0.17064224
250	0xbd8d1890	-0.068894506
251	0x3d3626ff	0.044470783
252	0xbec0d000	-0.3765869
253	0x3de7b469	0.113137074
254	0xbe4c29ca	-0.19937816
255	0xbe9e805d	-0.30957308

net.8.bias f4 [50]
0	0x3b23cdf7	0.002499459
1	0x3b3d8acf	0.0028921848
2	0x3bf0d50c	0.007349616
3	0x3b2d77fa	0.0026469217
4	0xba8978db	-0.0010488288
5	0xbab55e1d	-0.0013837252
6	0x3b833810	0.004004486
7	0x3b9392a0	0.004503563
8	0xbad6eaf6	-0.0016396928
9	0x3a4349f3	0.0007449679
10	0x3ac32caf	0.0014890636
11	0x3a8066a0	0.000979621
12	0xb9c83fba	-0.00038194453
13	0x3c2ee8ab	0.01067559
14	0xbbeee001	-0.007289887
15	0xbaea5698	-0.001787859
16	0x3addfdf7	0.0016936649
17	0x3aff11a5	0.0019460215
18	0xbba5b6c7	-0.005057189
19	0x3bb2b59b	0.005453778
20	0xbcbc4f46	-0.02298702
21	0x39db6b32	0.00041850802
22	0xb9c28fa1	-0.00037109575
23	0xbb5ced6c	-0.003371085
24	0xbc9b02ba	-0.018922199
25	0x3b16e2c3	0.0023023344
26	0x3cc89a2a	0.024487574
27	0xbb047cfe	-0.0020216103
28	0x3a4f730c	0.00079135667
29	0xb9cf5c3b	-0.00039550834
30	0xbb62c447	-0.0034601854
31	0x3b819eec	0.0039557125
32	0xba9834b1	-0.0011612383
33	0x3b06f4e5	0.0020592746
34	0xbb84dc0a	-0.004054551
35	0x3c41fa2d	0.011839432
36	0x3b9b8e08	0.004747156
37	0x3a082f80	0.00051950663
38	0x3b5ac25e	0.0033380012
39	0xbbc50948	-0.0060130693
40	0xbadf2ef8	-0.0017027548
41	0x3a23faea	0.00062553457
42	0x3b8162b9	0.0039485362
43	0xbbf93857	-0.007605593
44	0x3b6168da	0.0034394772
45	0x3b1dc499	0.002407348
46	0x3b653704	0.0034975419
47	0x3b349705	0.0027555835
48	0xbc0d66a8	-0.008630432
49	0xbb243aaa	-0.002505938

net.10.weight f4 [50, 50]
0	0xbeb76ba3	-0.35824308
1	0x3e4b5fcd	0.19860764
2	0xbe43c242	-0.19117072
3	0xbe479c46	-0.19493207
4	0x3cbfb84c	0.02340331
5	0xbe1ec229	-0.15503754
6	0x3ea45de6	0.3210289
7	0x3eba1c3c	0.36349666
8	0xbec29a8a	-0.3800853
9	0x3e430589	0.1904508
10	0x3c90c0bf	0.017670033
11	0x3e4e4550	0.20143628
12	0xbe18d432	-0.14924696
13	0xbd03058a	-0.031987704
14	0xbbbbcffb	-0.0057315803
15	0x3e03a771	0.12856843
16	0x3e4b084e	0.19827387
17	0x3e1a9137	0.15094458
18	0x3d48d4c7	0.049031045
19	0xbea07a5d	-0.31343356
20	0xbe691f4e	-0.22765848
21	0xbe661352	-0.22468308
22	0xbed4099b	-0.41413578
23	0x3ecfc114	0.40576994
24	0xbe338580	-0.17531395
25	0xbe9209fe	-0.28523248
26	0xbe356a73	-0.17716388
27	0x3e5add6a	0.21373525
28	0xbe7f8c61	-0.24955894
29	0xbeb75dc6	-0.3581373
30	0xbe9fca5a	-0.3120907
31	0x3dca2a84	0.098713905
32	0xbccaa594	-0.024737157
33	0xbec10030	-0.37695456
34	0xbe8bd32d	-0.27309552
35	0xbeb0749b	-0.34463963
36	0x3defd487	0.11710458
37	0x3e2bf939	0.1679429
38	0x3d9ff39c	0.07810137
39	0xbdfd7318	-0.12375468
40	0xbe73b268	-0.23798525
41	0x3e1928df	0.14956997
42	0xbd7cd8d0	-0.061730206
43	0xbd6f915a	-0.058488227
44	0xbe14b333	-0.14521484
45	0x3d7b40d9	0.06134114
46	0x3d9adf94	0.075621754
47	0x3eb00128	0.34375882
48	0x3ebf4d6b	0.37363753
49	0xbdea9d89	-0.11455829
50	0x3d8e103d	0.06936691
51	0xbe8cbfb1	-0.2749
52	0xbe9d407b	-0.30713257
53	0x3eabf79d	0.3358735
54	0x3d435839	0.047691558
55	0xbe4f4b9d	-0.20243688
56	0x3e503271	0.20331742
57	0x3e2a8d5b	0.16655485
58	0x3e1f22e4	0.15540653
59	0x3e2fcc20	0.17167711
60	0x3c969772	0.018382762
61	0xbe9714aa	-0.29507953
62	0xbeb72ada	-0.3577488
63	0x3ecd3945	0.40082756
64	0x3e8efb47	0.27926084
65	0xbea1aa22	-0.31575114
66	0x3ea4bb96	0.32174367
67	0xbebfcae5	-0.37459484
68	0x3e8b8ce7	0.27255937
69	0x3e8ee246	0.27907008
70	0x3e823355	0.25429788
71	0x3e2f5239	0.17121209
72	0xbe7b3e13	-0.24535398
73	0xbe329ffe	-0.17443845
74	0x3daf5304	0.08560756
75	0x3e1d2e7d	0.15349765
76	0x3eb60ecc	0.35558164
77	0x3c9cb96e	0.019131389
78	0x3e2925cd	0.16518326
79	0xbe9e36c3	-0.30901155
80	0xbda5b482	-0.0809107
81	0x3e763cfa	0.24046698
82	0x3d1103eb	0.035404127
83	0x3ea63fb6	0.32470483
84	0xbea6f3b4	-0.32607806
85	0xbe8cab75	-0.2747456
86	0x3e0b3ea0	0.13598108
87	0xbc5edf0c	-0.013602983
88	0xbeade49c	-0.33963478
89	0x3e309316	0.17243609
90	0x3c9384f4	0.018007733
91	0x3dcec863	0.100968145
92	0x3da50391	0.08057321
93	0xbe91c7e3	-0.28472814
94	0xbe8b4406	-0.27200335
95	0xbea66cea	-0.3250497
96	0x3e9a2a6d	0.30110493
97	0xbe67724d	-0.22602196
98	0x3eb97c5f	0.362277
99	0xbe017073	-0.12640552
100	0x3dab12fb	0.083532296
101	0x3ec805eb	0.39067015
102	0xbe664c75	-0.22490104
103	0xbec55ab9	-0.38545778
104	0x3d770481	0.06030703
105	0xbe9857f3	-0.297546
106	0x3e6c3b39	0.23069467
107	0x3e258794	0.16165
108	0x3e92f90b	0.2870563
109	0xbd2dc10a	-0.042420425
110	0xbe881437	-0.26577923
111	0xbec0bd48	-0.3764441
112	0xbe8cb90d	-0.27484933
113	0x3eb80b4c	0.3594612
114	0xbda3da0e	-0.08000575
115	0xbbf55cb4	-0.0074878577
116	0xbdb303ca	-0.08740957
117	0xbe5be383	-0.21473508
118	0x3eaabc99	0.33347014
119	0xbdd40642	-0.10352756
120	0xbe49e5e5	-0.19716604
121	0x3ec15490	0.3775983
122	0x3e799dfb	0.24376671
123	0x3e60d274	0.21955281
124	0x3e964f13	0.29357204
125	0xbe857c5a	-0.26071435
126	0x3e08d8a4	0.13363892
127	0xbde88597	-0.11353605
128	0x3c8afcfb	0.016966334
129	0x3e44a42c	0.19203252
130	0xbe0c2c67	-0.13688813
131	0x3ecd2a2d	0.4007124
132	0x3a6434cb	0.00087053765
133	0x3e7007d4	0.23440486
134	0x3d16135f	0.036639567
135	0xbec900fb	-0.3925856
136	0xbe854dfe	-0.26036066
137	0xbeb2d8f7	-0.34931156
138	0x3d308bb8	0.043101996
139	0xbe8c130b	-0.2735828
140	0xbea98c72	-0.33114964
141	0x3dafa2bd	0.08575962
142	0xbeb38a91	-0.35066655
143	0xbe6479ce	-0.2231209
144	0xbe8803f0	-0.26565504
145	0x3e5053a6	0.2034441
146	0x3ebd23fd	0.3694152
147	0x3e1309c2	0.14359191
148	0xbe6378c8	-0.22214043
149	0x3e9aff9c	0.3027314
150	0x3ec1c268	0.37843633
151	0xbddf2c09	-0.10897071
152	0x3ea00ee8	0.31261373
153	0x3dd4208f	0.103577726
154	0xbe9262ce	-0.28591007
155	0xbdb94d7b	-0.09047981
156	0xbeb804f2	-0.35941273
157	0x3df9363e	0.12168549
158	0x3e8d7d69	0.27634743
159	0xbecc06aa	-0.39848834
160	0xbe3196da	-0.17342702
161	0x3c0ab8ca	0.008466909
162	0x3ea30653	0.31840762
163	0xbe70ba95	-0.23508675
164	0xbbcfae55	-0.0063379207
165	0xbca1e8b1	-0.019764276
166	0xbe55a7dd	-0.20864816
167	0xbe398fd5	-0.18121274
168	0xbdb75df4	-0.08953467
169	0xbe0ad248	-0.13556778
170	0xbe04c8f6	-0.12967286
171	0x3cf79adb	0.030225208
172	0xbd1089f5	-0.035287816
173	0xbe4462d7	-0.1917833
174	0x3e7e5901	0.2483864
175	0x3e7e5f0f	0.2484095
176	0xbd89ac5e	-0.067223296
177	0xbda7fa6c	-0.08202061
178	0xbec9c3a5	-0.39407077
179	0xbe9f3583	-0.31095514
180	0x3b902917	0.0043994295
181	0xbda309e2	-0.07960869
182	0x3df15f3c	0.11785743
183	0xbe4fe0b6	-0.20300564
184	0xbdc95299	-0.098302074
185	0x3d73e193	0.059541296
186	0x3ed851db	0.4224995
187	0x3eaf7b62	0.3427382
188	0xbe8cda32	-0.2751022
189	0xbd07c887	-0.033150222
190	0xbd3c141a	-0.045917608
191	0xbc7e6d46	-0.0155289825
192	0x3e13e75e	0.14443728
193	0xbe2be337	-0.16785894
194	0xbd831587	-0.064005904
195	0xbec880ef	-0.3916087
196	0xbe115dc9	-0.14195932
197	0xbecdc201	-0.40187076
198	0x3e113a38	0.14182365
199	0xbea65885	-0.3248941
200	0xbe55c5b2	-0.20876196
201	0xbe94bc4a	-0.29049903
202	0x3ea1b1bd	0.31580916
203	0xbde87729	-0.11350853
204	0x3eb47393	0.35244426
205	0xbe62c20d	-0.22144337
206	0x3e9eca9e	0.3101396
207	0xbdb01b0d	-0.085989095
208	0xbea0432f	-0.31301257
209	0x3eb1a2b4	0.34694445
210	0xbe8bba68	-0.27290654
211	0xbe7bae86	-0.24578294
212	0x3e70e05c	0.23523086
213	0xbd28dc20	-0.041225553
214	0xba184885	-0.0005809146
215	0x3ec8b5fc	0.39201343
216	0xbea8d4a3	-0.3297473
217	0xbe17445a	-0.14772168
218	0x3e187af0	0.14890647
219	0xbd9f6dfc	-0.0778465
220	0x3c4bf3c0	0.012448251
221	0xbe0797ad	-0.13241453
222	0xbd8e4d7e	-0.06948374
223	0x3eab99f3	0.3351589
224	0xbd8fa19d	-0.07013247
225	0x3e1b416b	0.15161674
226	0x3ea080c8	0.31348252
227	0x3e9f0268	0.31056523
228	0x3e4ca6b9	0.19985475
229	0x3e9387a2	0.28814417
230	0xbde0db8c	-0.10979375
231	0x3d1bd648	0.03804615
232	0xbe3951da	-0.1809763
233	0xbece400a	-0.40283233
234	0x3eb1c3b6	0.34719628
235	0xbec434fb	-0.3832167
236	0xbe89d771	-0.2692218
237	0xbe113f2f	-0.14184259
238	0xbebdcc1e	-0.37069792
239	0xbe9f699f	-0.3113527
240	0xbe588b0d	-0.21146794
241	0x3d2bbbc4	0.041927114
242	0xbeb07063	-0.34460744
243	0xbe8f6496	-0.28006428
244	0xbe73f3e4	-0.23823506
245	0xbea62f67	-0.3245804
246	0x3db1cb46	0.086813495
247	0x3ca3e9d5	0.02000896
248	0x3da6adf0	0.08138645
249	0x3eb84a5a	0.35994226
250	0xbe2726f4	-0.16323453
251	0xbe26a222	-0.16272786
252	0x3df5f6ad	0.1200994
253	0x3eb28948	0.34870362
254	0x3e051d8e	0.12999555
255	0xbcf69539	-0.030100452

net.10.bias f4 [50]
0	0xbbdd61ac	-0.006756028
1	0x3af3ee2f	0.0018610413
2	0xba260a00	-0.00063338876
3	0xbaaea5df	-0.001332458
4	0xbbbb05fe	-0.0057075014
5	0x3c1c3a75	0.009535422
6	0xb9ec154a	-0.0004502929
7	0x3c874735	0.016513446
8	0xbc2ca9ce	-0.0105385315
9	0xbb0b4938	-0.0021253359
10	0x3b877ffc	0.00413513
11	0x3b901c25	0.0043978863
12	0x3bb2f9ee	0.005461923
13	0xbc1d02fd	-0.009583232
14	0xbb7e62ef	-0.0038816293
15	0x3b7ede66	0.0038889884
16	0xba7f0c38	-0.0009729299
17	0x3a7b20c9	0.00095797755
18	0xbc29d945	-0.0103667425
19	0x3abaf07d	0.0014262345
20	0x3b37a9a5	0.00280247
21	0xb980517f	-0.00024474782
22	0x3a8810f5	0.001038103
23	0x3b6653f8	0.0035145264
24	0xbbde046e	-0.0067754304
25	0xbbe28e2b	-0.0069139204
26	0x3a4dc917	0.0007850094
27	0x3c83cbd0	0.016088396
28	0x3bb2a55c	0.0054518413
29	0xba708c0a	-0.0009176141
30	0x3a1a9a10	0.0005897591
31	0xb90cdb93	-0.00013433238
32	0xbc1dedfc	-0.009639259
33	0x3c6411c1	0.0139202485
34	0xbc18a7a9	-0.009317317
35	0x3b18c0c7	0.0023308264
36	0xbb0d3ef8	-0.0021552425
37	0xba130478	-0.0005608271
38	0xbc12e63d	-0.008966026
39	0xbb9e17a6	-0.0048245965
40	0xba939bb4	-0.0011261613
41	0x3c425e8c	0.011863362
42	0xbc355e8b	-0.011069904
43	0x3b81b145	0.0039578998
44	0xbbf5569b	-0.007487131
45	0xbbb21493	-0.0054345815
46	0xbb551f19	-0.0032519756
47	0x3c8c0a37	0.017094715
48	0xbb1b6755	-0.0023712714
49	0x3b7f0943	0.0038915433

net.12.weight f4 [50, 50]
0	0xbea96810	-0.33087206
1	0xbd7cbfbd	-0.061706293
2	0xbd470ef4	-0.048598245
3	0xbe7230ad	-0.23651381
4	0xbe0a681f	-0.13516282
5	0xbe033d40	-0.12816334
6	0x3ec96f05	0.39342514
7	0xbcf6f715	-0.030147115
8	0x3eaab9b5	0.33344808
9	0x3d364788	0.04450181
10	0x3e189e61	0.14904167
11	0x3e6e1520	0.23250246
12	0xbec1f87c	-0.3788489
13	0xbe371284	-0.17878157
14	0xbe9e7334	-0.30947268
15	0x3eca0b2d	0.3946165
16	0x3e15bc60	0.1462264
17	0xbe323c86	-0.174059
18	0xbe9fb3cc	-0.31191862
19	0x3e661c4e	0.22471735
20	0x3dc03932	0.09385909
21	0xbe4e3cdd	-0.20140405
22	0xbe99c9c9	-0.30036762
23	0xbe61b96f	-0.22043394
24	0x3ddaed5e	0.106898054
25	0xbeae9e6b	-0.34105238
26	0xbd4da0bf	-0.050202128
27	0x3e75eb9f	0.24015664
28	0x3e590860	0.21194601
29	0x3d35cba5	0.044383664
30	0x3d1ec8e4	0.038765803
31	0x3dc7dab8	0.09758514
32	0x3e2062b3	0.15662651
33	0x3ea63469	0.3246186
34	0x3de65a72	0.1124772
35	0x3e6de5c0	0.23232174
36	0x3e921f71	0.28539613
37	0xbea0dfce	-0.3142075
38	0xbe5bc6f8	-0.2146262
39	0x3e62533e	0.22102067
40	0x3dac1253	0.084019326
41	0xbe721026	-0.23638973
42	0x3dfedf47	0.124449305
43	0xbebf72d8	-0.37392306
44	0xbe209632	-0.15682295
45	0x3e4dd386	0.20100221
46	0xbc825e0e	-0.01591399
47	0xbe8c1b29	-0.27364472
48	0x3e4b948d	0.19880886
49	0x3ce18838	0.027530774
50	0xbd824aac	-0.06361899
51	0xbecdf09a	-0.40222627
52	0xbe20d425	-0.15705927
53	0x3d2fed44	0.042950884
54	0xbe629039	-0.22125329
55	0x3d897e2c	0.067135185
56	0xbe8ec185	-0.2788202
57	0x3e9fe42d	0.31228772
58	0x3e98de7e	0.29857248
59	0x3e7e431b	0.24830286
60	0xbd69f2e4	-0.057116404
61	0xbec6c406	-0.3882143
62	0xbe206fb7	-0.15667616
63	0xbd3804a1	-0.04492629
64	0xbec554e1	-0.3854132
65	0x3ea68397	0.3252227
66	0x3e033e4e	0.12816736
67	0x3e9fe6d0	0.31230783
68	0xbebb4086	-0.36572665
69	0xbe67cbb9	-0.22636308
70	0x3dc05d8f	0.09392845
71	0xbc93cb47	-0.018041266
72	0xbe70933f	-0.2349367
73	0x3e9a050a	0.3008197
74	0x3e27b7b0	0.16378665
75	0xbc51963a	-0.012792164
76	0x3ec443db	0.3833302
77	0xbecc6d5b	-0.39927182
78	0xbec0eef3	-0.37682304
79	0x3d9d2926	0.07673864
80	0x3ebccdc6	0.36875743
81	0x3e7b4144	0.24536616
82	0xbe5cf973	-0.21579532
83	0x3e963b58	0.2934215
84	0x3e643ac0	0.22288036
85	0x3b7456f1	0.0037283266
86	0x3e8980b9	0.2685602
87	0x3da8b8dc	0.08238384
88	0xbad8eaac	-0.001654943
89	0xbe06ff9d	-0.13183446
90	0xbe4f0e50	-0.20220304
91	0xbe83cf85	-0.25744262
92	0xbd1f18c1	-0.038841967
93	0xbe8c946a	-0.2745698
94	0x3e1c79d4	0.15280849
95	0x3defa56b	0.11701473
96	0xbec75c77	-0.38937733
97	0xbe97a13a	-0.29615194
98	0x3e82578e	0.25457424
99	0xbe50a326	-0.20374736
100	0xbb28fb61	-0.00257846
101	0xbe8a6dee	-0.27036995
102	0xbdb29488	-0.08719736
103	0x3e61c3b9	0.22047319
104	0x3da9fd7c	0.083003014
105	0x3e491c75	0.19639762
106	0xbcb7e396	-0.022447389
107	0xbeab7cfa	-0.33493787
108	0xbc8df3a3	-0.01732809
109	0x3e7cfc60	0.24705648
110	0x3dbdbca9	0.092645
111	0x3dc9172a	0.09818871
112	0x3dab3763	0.083601736
113	0x3ea6b330	0.32558584
114	0x3e4b0baa	0.19828668
115	0xbd7d1a1e	-0.061792485
116	0xbe601a86	-0.21885118
117	0x3eabdbf4	0.33566248
118	0xbe4f9925	-0.20273264
119	0xbe8f77a9	-0.2802098
120	0x3e098008	0.13427746
121	0xbe898df5	-0.26866117
122	0xbeb28a96	-0.34871358
123	0xbea2247e	-0.31668466
124	0x3da7a804	0.08186343
125	0xbe82cd61	-0.25547317
126	0x3eb69146	0.3565771
127	0xbb9766f3	-0.004620427
128	0xbe37a1fb	-0.17932884
129	0xbe808359	-0.2510021
130	0xbe13fee3	-0.144527
131	0x3eb887cc	0.36041105
132	0xbe818265	-0.25294796
133	0xbec03415	-0.37539735
134	0x3df7bf3f	0.12097024
135	0x3e0d1e81	0.13781168
136	0xbeaf2be1	-0.34213164
137	0xbe3c600a	-0.18396011
138	0x3eb37855	0.35052744
139	0xbe4d0817	-0.20022617
140	0x3e2e7e44	0.17040354
141	0xbe55b474	-0.20869619
142	0xbeb8306e	-0.3597445
143	0xbec870ce	-0.39148563
144	0x3e9ed88a	0.3102458
145	0x3e05c61a	0.13063851
146	0x3dfff65f	0.124981634
147	0x3e0769cc	0.13223952
148	0x3e1afb34	0.15134889
149	0x3e8b6ec3	0.27232942
150	0x3e9e5120	0.30921268
151	0x3e9f0372	0.31057316
152	0x3e0333ca	0.12812725
153	0x3d4b34ac	0.04961078
154	0x3defbf11	0.11706365
155	0xbea51b56	-0.32247418
156	0x3e379b53	0.17930345
157	0x3de29408	0.11063391
158	0x3e4c8c55	0.19975407
159	0xbddf48df	-0.10902571
160	0x3eb1536c	0.34633958
161	0x3ce4145d	0.027841741
162	0xbdd623bc	-0.104560345
163	0x3a100922	0.0005494525
164	0xbe1a6e23	-0.15081076
165	0xbda44852	-0.080216065
166	0x3eacd9c8	0.33759904
167	0x3e02e58f	0.12782882
168	0xbd71eed6	-0.059065662
169	0x3c85f3d1	0.016351612
170	0x3da0ea34	0.07857171
171	0xbe66ac54	-0.22526675
172	0xbe6d6962	-0.23184732
173	0x3eb3ed4a	0.35141975
174	0x3cb06a3e	0.021535035
175	0x3dfd3393	0.123633526
176	0xbe376060	-0.17907858
177	0xbea010b9	-0.31262758
178	0x3db7464c	0.08948955
179	0x3e5d1bb2	0.21592596
180	0xbeb05fd5	-0.34448114
181	0xbecfcae0	-0.4058447
182	0xbe18167e	-0.1485233
183	0x3e88c5b2	0.2671333
184	0xbeb92fb5	-0.3616921
185	0x3ea9177e	0.33025736
186	0x3ec08ddf	0.3760824
187	0xbdb6a85b	-0.0891883
188	0x3d095fa3	0.033538472
189	0xbc35bafe	-0.011091946
190	0x3ecc3b9e	0.39889234
191	0x3d5f3e7c	0.05450295
192	0x3dcaad3d	0.09896324
193	0xbe151bcc	-0.14561385
194	0xbb7e9a36	-0.003884924
195	0xbe677ead	-0.22606917
196	0x3ba8fc6b	0.0051570437
197	0xbd42b4eb	-0.047535818
198	0x3db61d4c	0.08892307
199	0x3d8a7dae	0.06762253
200	0xbead923f	-0.3390064
201	0x3e89bf55	0.26903787
202	0x3e597da0	0.21239328
203	0x3e902a1e	0.28157133
204	0x3e9c4444	0.30520833
205	0x3de8467c	0.11341569
206	0x3e6915f7	0.22762285
207	0x3e5079ec	0.2035901
208	0x3e806fd6	0.25085324
209	0xbe782f64	-0.24236828
210	0x3e4ec2a8	0.20191443
211	0xbcdf6bca	-0.027273078
212	0x3e18c49d	0.14918752
213	0x3e22b7bf	0.15890406
214	0xbe9c8b63	-0.30575094
215	0xbe4adfee	-0.19811985
216	0xbe997980	-0.2997551
217	0xbdee6bdd	-0.11641667
218	0x3dfb8f2c	0.12283167
219	0x3dbbd157	0.09170788
220	0x3e9f3290	0.31093264
221	0xbe989537	-0.29801342
222	0x3df1e499	0.1181118
223	0x3ea7e8a0	0.32794666
224	0xbe9e086e	-0.30865806
225	0xbe97ac95	-0.29623857
226	0x3dbdc960	0.09266925
227	0xbe2eb424	-0.17060906
228	0x3dccff25	0.100096025
229	0xbe4ed03e	-0.20196626
230	0x3d187c3f	0.037227865
231	0xbeaa866b	-0.33305678
232	0x3ea2daae	0.31807464
233	0xbe83846b	-0.25686964
234	0xbebf04fb	-0.37308487
235	0xbe4fe330	-0.20301509
236	0x3c3dc67f	0.01158297
237	0x3ec86e59	0.3914669
238	0x3dbfb83f	0.09361314
239	0xbdb3d6c7	-0.087812
240	0xbe8e82f6	-0.2783429
241	0x3e3d268d	0.18471737
242	0x3d041746	0.032248758
243	0xbdff5bde	-0.12468694
244	0xbdf1a9ca	-0.11799963
245	0x3d4b1b94	0.049586847
246	0x3e6cda74	0.23130208
247	0xbe72b5ff	-0.23702239
248	0xbdba75ce	-0.09104501
249	0x3e3e97de	0.1861262
250	0xbe8bff4e	-0.2734322
251	0x3ca43529	0.02004488
252	0x3eac1ef2	0.3361736
253	0x3e8733e9	0.26406792
254	0xbe98cac2	-0.29842192
255	0xbe454c27	-0.19267331
