lightning_logs/version_25/checkpoints/epoch=126-step=1651.ckpt (torch, 146497 bytes, 63 tensors)

rnn.weight_ih_l0 f4 [32, 13]
0.12256514 0.13410491 -0.053916916 0.14979035 -0.05135465 0.023193687 -0.09804912 0.093590885
0.14561029 -0.1399177 0.15967679 0.020602535 0.12031018 0.017301248 0.078253195 -0.03211747
0.12868333 0.01799306 -0.09232376 0.034429602 -0.08817108 -0.027384646 -0.078490205 0.11528663
-0.14677301 -0.08798544 -0.04816332 -0.105680004 0.01767048 -0.1744804 0.15751514 -0.15556017
0.1294222 0.02023757 -0.06644909 0.100117296 0.040205862 0.1431732 0.010565798 -0.046925783
0.056377057 -0.039068565 0.08326586 0.16673905 0.11129672 -0.06771067 0.10867122 0.038247325
0.096401446 -0.108595274 -0.16653167 -0.06160549 -0.14741515 0.13295645 0.03873289 0.061335817
0.043608624 -0.015331529 0.12676583 -0.1376766 -0.00094052893 -0.13272624 0.06334256 -0.07314188
0.0421489 -0.023953779 0.15944363 -0.092234656 -0.0925217 -0.09256056 0.17243984 0.073973
0.17745028 -0.13854094 -0.16798687 -0.13880871 -0.10737736 0.079159304 0.07830708 0.16160981
-0.07685167 -0.1058249 0.10796398 -0.05737171 0.122615695 -0.033822846 0.109268114 -0.12920448
-0.09143238 0.067093186 0.04581083 -0.05781309 0.09286894 0.10806465 -0.1412801 -0.106990635
0.14835161 -0.07503149 -0.06721405 -0.17562057 -0.105801366 0.031779677 -0.03381611 -0.13316226
-0.0021737027 -0.12670465 -0.15569489 -0.10216717 -0.15893933 -0.11476931 0.17481375 0.034746807
0.05581378 -0.16352934 -0.12779073 -0.06453226 0.028376956 -0.14908987 -0.0689673 -0.09846279
0.007622389 -0.057570685 -0.004385024 -0.11482026 -0.11115917 -0.092998184 -0.05036863 -0.14003724
0.15804218 -0.025393875 0.16747242 0.070423715 -0.1344179 0.13731831 -0.033671662 -0.053780485
-0.13566425 -0.16699144 0.059343982 -0.029853946 0.06542396 -0.13077888 0.14012858 -0.11642903
-0.017740574 0.049654312 0.104095325 0.15499376 0.17428729 -0.12275046 0.045261446 -0.075238116
-0.01857667 -0.121071585 0.16928989 -0.12825312 0.08343289 0.050817292 0.045894064 -0.10710687
0.14855532 0.026141262 0.010476652 -0.16583441 0.06417429 -0.036559053 -0.074866004 0.14010204
0.029407803 -0.10546773 -0.09646816 -0.015438451 0.09052651 -0.051970985 -0.11002031 -0.07367133
-0.12917045 0.065905236 0.13968103 -0.18763526 0.036068834 0.09348417 0.01969306 -0.07518143
0.080069855 0.080408506 0.05384132 -0.043987475 -0.06143064 0.01057029 -0.039583758 -0.06103476
0.114415735 0.14061777 -0.026089743 -0.027528303 0.014405786 0.001228647 0.054585285 0.06136646
-0.14811683 -0.051715948 0.15541068 0.07538334 -0.0022504602 -0.100896806 -0.096995525 -0.15160458
-0.043587573 0.07366389 0.12661919 0.09570824 -0.14246984 -0.092955776 -0.015556778 0.18047422
0.035049673 -0.036303457 0.06854241 -0.053488262 -0.10482669 0.11878146 -0.09081187 -0.0459384
-0.18652691 0.10718791 0.1221585 0.052494217 -0.13221064 -0.18340085 -0.15251306 0.13405372
0.074285954 0.13985023 0.0980668 0.05116384 0.0044457754 -0.1281357 -0.14357065 -0.15895192
0.07610854 -0.07906139 -0.027917748 -0.09404542 -0.028459316 -0.11683635 -0.108209044 0.045640446
-0.06558284 0.0959537 -0.069869556 -0.14300244 -0.044817604 -0.099224724 -0.06491616 -0.17912045
00000000: 6f03 fb3d cc52 093e fcd7 5cbd a462 193e
00000010: 4159 52bd b000 be3c facd c8bd 94ac bf3d
00000020: dd1a 153e 9646 0fbe 5082 233e a6c6 a83c
00000030: 2f65 f63d 59bb 8d3c 3643 a03d 9c8d 03bd
00000040: 90c5 033e 2f66 933c 3d14 bdbd 0e06 0d3d
00000050: 0a93 b4bd c455 e0bc 79bf a0bd 661b ec3d
00000060: aa4b 16be b631 b4bd e746 45bd c26e d8bd
00000070: afc1 903c fdaa 32be a64b 213e 2a4b 1fbe
00000080: 4187 043e 43c9 a53c 7616 88bd 4c0a cd3d
00000090: e7ae 243d ff9b 123e 2b1c 2d3c 4035 40bd
000000a0: a1eb 663d 5c06 20bd 4b87 aa3d a4bd 2a3e
000000b0: 89ef e33d e4ab 8abd 048f de3d 3aa9 1c3d
000000c0: 1f6e c53d 3367 debd 4787 2abe 0a56 7cbd
000000d0: fff3 16be bc25 083e 61a6 1e3d 443b 7b3d
000000e0: f59e 323d 1831 7bbc e7ce 013e 18fb 0cbe
000000f0: d48d 76ba 63e9 07be beb9 813d 69cb 95bd
00000100: 53a4 2c3d b73a c4bc 3145 233e 86e5 bcbd
00000110: 047c bdbd 6490 bdbd 1294 303e 287f 973d
00000120: 87b5 353e addd 0dbe c004 2cbe df23 0ebe
00000130: a9e8 dbbd 461e a23d 765f a03d 0b7d 253e
00000140: 6964 9dbd baba d8bd 381c dd3d 99fe 6abd
00000150: f01d fb3d d389 0abd f6c7 df3d 2e4e 04be
00000160: e640 bbbd 2768 893d 23a4 3b3d 6bcd 6cbd
00000170: 1232 be3d 0051 dd3d bbab 10be e81d dbbd
00000180: 7ce9 173e 1caa 99bd 85a7 89bd e1d5 33be
00000190: 63ae d8bd 682b 023d c382 0abd b05b 08be
000001a0: ae74 0ebb ddbe 01be 7b6e 1fbe 053d d1bd
000001b0: fec0 22be 2c0c ebbd 6002 333e ab52 0e3d
000001c0: fd9c 643d 3c74 27be 93db 02be 7d29 84bd
000001d0: ca76 e83c 04ab 18be ba3e 8dbd dca6 c9bd
000001e0: 3cc5 f93b 3dcf 6bbd 3fb0 8fbb e226 ebbd
000001f0: 6ba7 e3bd d575 bebd 564f 4ebd ec65 0fbe
00000200: cfd5 213e d106 d0bc e47d 2b3e 4f3a 903d
00000210: d9a4 09be 2c9d 0c3e 4ceb 09bd ed48 5cbd
00000220: 92eb 0abe ceff 2abe ad12 733d 4390 f4bc
00000230: fffc 853d e6ea 05be de7d 0f3e 5872 eebd
00000240: ae54 91bc 5262 4b3d ee2f d53d afb6 1e3e
00000250: 5e78 323e 9864 fbbd 1164 393d 7116 9abd
00000260: 1a2e 98bc 61f4 f7bd 545a 2d3e c954 03be
00000270: ddde aa3d cb25 503d 6afb 3b3d d95a dbbd
00000280: e31e 183e 3326 d63c 43a6 2b3c 7fd0 29be
00000290: cf6d 833d f2be 15bd 5953 99bd e976 0f3e
000002a0: a2e8 f03c 77ff d7bd 1991 c5bd 8ff1 7cbc
000002b0: f665 b93d 87df 54bd 5452 e1bd ffe0 96bd
000002c0: 4245 04be 53f9 863d 8b08 0f3e 7523 40be
000002d0: eabc 133d a174 bf3d 5753 a13c b9f8 99bd
000002e0: aafb a33d 37ad a43d b788 5c3d 362c 34bd
000002f0: b29e 7bbd 022f 2d3c 9422 22bd 96ff 79bd
00000300: cc52 ea3d 1bfe 0f3e 28ba d5bc 0983 e1bc
00000310: 3f06 6c3c 8d0a a13a d294 5f3d 665b 7b3d
00000320: f0ab 17be 1ad4 53bd fa23 1f3e 9562 9a3d
00000330: 757c 13bb fca2 cebd 97a5 c6bd 3b3e 1bbe
00000340: e288 32bd 18dd 963d 76a8 013e af02 c43d
00000350: 9de3 11be 995f bebd dbe1 7ebc 3cce 383e
00000360: 3f90 0f3d efb2 14bd f75f 8c3d 8216 5bbd
00000370: 60af d6bd b243 f33d 93fb b9bd e729 3cbd
00000380: e900 3fbe 5685 db3d 3c2e fa3d 2d04 573d
00000390: 3a62 07be 6fcd 3bbe 622c 1cbe 6145 093e
000003a0: 3c23 983d e634 0f3e 3fd7 c83d 2d91 513d
000003b0: dead 913b 0136 03be 2f04 13be 4bc4 22be
000003c0: cbde 9b3d f0ea a1bd c3b3 e4bc e39a c0bd
000003d0: 8323 e9bc e547 efbd b49c ddbd 7af1 3a3d
000003e0: 4c50 86bd 6083 c43d c517 8fbd 3b6f 12be
000003f0: aa92 37bd 5536 cbbd c4f2 84bd 5a6b 37be

rnn.weight_hh_l0 f4 [32, 32]
-0.072097026 0.071716465 -0.12795769 -0.12297413 -0.011812069 -0.062600896 -0.14001808 0.11707771
0.13846403 0.030970266 -0.03387512 -0.17245783 -0.07319426 0.05338393 0.08975892 -0.018607257
-0.06329069 0.10659483 -0.12601538 0.10158032 -0.08320402 -0.0007813718 -0.04731205 0.0151696345
-0.061549496 0.13286206 0.005636819 0.13740465 0.17919159 -0.091594495 -0.1380134 0.15579438
0.11829429 -0.13734579 -0.026527883 -0.17290455 -0.15977882 0.051191464 0.046640925 0.048899233
-0.048742123 0.18052717 0.025782859 -0.10631134 -0.01434368 0.0545493 0.05884197 -0.10670579
0.051203698 -0.0889676 -0.1369909 -0.0984887 0.15863137 0.15794328 0.16699983 0.10804518
0.11734851 -0.00776516 -0.08768906 0.10264185 -0.080714464 -0.10733121 -0.06578862 0.057348244
0.08460843 -0.06168408 -0.11164045 0.015074808 -0.113380514 -0.11953168 0.09070053 -0.017153133
0.16012323 0.18329364 0.061214536 0.052138392 0.027833445 0.006392069 -0.009997544 0.0009031649
0.06932389 0.17282344 -0.03597904 -0.086381465 -0.048888978 -0.08771751 0.024921376 0.12714086
0.1405788 0.0900843 -0.12202707 -0.08691157 -0.027620472 -0.025039239 0.0017774653 -0.15055247
0.067017145 -0.13761264 -0.10345194 -0.14367 0.16720138 -0.17664891 0.13626382 -0.014174713
-0.01985962 0.095599696 -0.018586513 0.116259724 0.14013387 -0.16252796 0.06619275 0.021015767
0.033429306 0.02081928 0.035655327 -0.07763464 -0.008160713 0.16626996 0.119434685 -0.0030214798
-0.14801311 -0.004067732 -0.12795101 0.13678029 -0.11402957 -0.012666051 -0.034752242 0.009270436
0.16871966 0.023589669 0.09082492 0.12719971 0.12461515 -0.057067752 -0.048657693 0.09915361
-0.053058844 0.097480215 -0.045300387 -0.13097316 0.07635477 0.038638297 0.0864953 0.1919606
0.12803271 0.1782043 0.025243513 -0.16332918 -0.14075547 -0.10699675 -0.18012524 -0.09455739
-0.17118987 -0.15655486 -0.09516988 -0.1634437 -0.09915367 0.06183186 0.13569409 -0.05359971
-0.047757667 0.09047772 -0.078557186 -0.079433486 0.11851006 -0.1593623 0.027321868 0.14505915
0.029070765 0.042851645 -0.09989669 0.004242173 0.013584196 0.030284273 0.06598009 0.14560397
-0.13376154 4.2746715e-06 -0.103616595 -0.13116398 -0.00011395785 -0.15497197 0.13158157 0.022184705
-0.0856739 0.08085718 -0.17751132 -0.072195336 -0.038150955 -0.14809825 -0.104072385 -0.04721023
0.13787039 0.16685748 0.12065724 -0.100822024 -0.10552686 0.1449603 0.065948084 -0.005515736
0.020595433 -0.1487039 -0.055834446 0.17677544 -0.037057266 -0.024181288 -0.14944881 -0.10780792
-0.0058510783 -0.11492164 -0.03814751 0.08008363 -0.1565693 0.053245872 -0.109175734 -0.08330195
0.079030514 0.12694047 -0.05766064 -0.07608423 -0.16704068 -0.088109106 -0.14848009 -0.056427136
0.026573477 -0.18070053 0.14562559 0.1184704 -0.18589441 -0.06911523 0.05792116 -0.04619002
-0.005157484 -0.0633458 0.13367718 -0.09248833 0.16336562 0.028165976 0.026083905 0.15444657
-0.04380815 -0.11039684 -0.0153716365 0.15274355 -0.14639725 0.04881261 -0.1619068 0.10392469
0.04950446 0.024264608 0.08857749 0.014778355 0.102677405 -0.14371328 -0.034813896 0.071510695
00000000: 9ba7 93bd 15e0 923d 5707 03be dcd9 fbbd
00000010: 6987 41bc e634 80bd e660 0fbe 70c6 ef3d
00000020: 84c9 0d3e 5bb5 fd3c a3c0 0abd c998 30be
00000030: dfe6 95bd 1ca9 5a3d 86d3 b73d 3f6e 98bc
00000040: 8d9e 81bd 644e da3d 2d0a 01be 5809 d03d
00000050: df66 aabd f9d4 4cba 48ca 41bd 0f8a 783c
00000060: 531b 7cbd fe0c 083e 11b5 b83b ceb3 0c3e
00000070: 007e 373e e595 bbbd 6253 0dbe 9088 1f3e
00000080: 4744 f23d 60a4 0cbe 0151 d9bc e40d 31be
00000090: 0f9d 23be 24ae 513d 8e0a 3f3d 904a 483d
000000a0: d2a5 47bd 1ddc 383e 9336 d33c c3b9 d9bd
000000b0: c101 6bbc 166f 5f3d 4704 713d 9188 dabd
000000c0: f8ba 513d a534 b6bd 5847 0cbe 72b4 c9bd
000000d0: 4370 223e e2bb 213e 0102 2b3e cb46 dd3d
000000e0: 6a54 f03d e272 febb 5296 b3bd e435 d23d
000000f0: a04d a5bd 77d0 dbbd 2fbc 86bd fee5 6a3d
00000100: 2f47 ad3d 72a8 7cbd c0a3 e4bd 54fc 763c
00000110: 0b34 e8bd 07cd f4bd 33c1 b93d ba84 8cbc
00000120: 58f7 233e 54b1 3b3e 18bc 7a3d 118f 553d
00000130: f702 e43c 9074 d13b bdcc 23bc 5fc2 6c3a
00000140: aff9 8d3d a1f8 303e c25e 13bd c4e8 b0bd
00000150: cf3f 48bd 3da5 b3bd ea27 cc3c 3731 023e
00000160: e4f3 0f3e 1e7e b83d 54e9 f9bd b1fe b1bd
00000170: 5444 e2bc 171f cdbc d7f9 e83a 6d2a 1abe
00000180: 4940 893d 54ea 0cbe 9cde d3bd 3a1e 13be
00000190: d736 2b3e 74e3 34be be88 0b3e 0e3d 68bc
000001a0: a4b0 a2bc c6c9 c33d be42 98bc 9419 ee3d
000001b0: 417f 0f3e bb6d 26be 1190 873d 4229 ac3c
000001c0: 2bed 083d 328d aa3c 520b 123d e9fe 9ebd
000001d0: 83b4 05bc ac42 2a3e 2c9a f43d 0504 46bb
000001e0: c090 17be 9c4a 85bb 9705 03be 2210 0c3e
000001f0: 5688 e9bd 4585 4fbc 5e58 0ebd 07e3 173c
00000200: d9c4 2c3e 1f3f c13c 6a02 ba3d a440 023e
00000210: 3a36 ff3d e0bf 69bd 4a4d 47bd 0c11 cb3d
00000220: 3b54 59bd b5a3 c73d e68c 39bd d41d 06be
00000230: e45f 9c3d 3143 1e3d 7324 b13d 5291 443e
00000240: 021b 033e 307b 363e 7ccb ce3c c43f 27be
00000250: 3422 10be 1d21 dbbd c072 38be 4ea7 c1bd
00000260: 664c 2fbe eb4f 20be 6de8 c2bd c95d 27be
00000270: 1411 cbbd 6843 7d3d 64f3 0a3e 5f8b 5bbd
00000280: 8b9d 43bd 624c b93d 97e2 a0bd 06ae a2bd
00000290: 67b5 f23d df2f 23be 1cd2 df3c 638a 143e
000002a0: d025 ee3c 3585 2f3d a396 ccbd ed01 8b3b
000002b0: 3f90 5e3c b916 f83c 9220 873d 3519 153e
000002c0: c9f8 08be 266f 8f36 f034 d4bd da4f 06be
000002d0: a8fc eeb8 f9b0 1ebe 52bd 063e b3bc b53c
000002e0: cc75 afbd 7398 a53d 87c5 35be 26db 93bd
000002f0: 2d44 1cbd 11a7 17be e723 d5bd 845f 41bd
00000300: e52d 0d3e b0dc 2a3e 251b f73d c77b cebd
00000310: 771e d8bd 7970 143e ca0f 873d 59bd b4bb
00000320: c1b7 a83c d645 18be a9b2 64bd 9f04 353e
00000330: 5cc9 17bd d617 c6bc 1c09 19be 66ca dcbd
00000340: 67ba bfbb 095c ebbd 9040 1cbd e302 a43d
00000350: b453 20be 5818 5a3d 8797 dfbd 369a aabd
00000360: c0da a13d affc 013e 902d 6cbd 0cd2 9bbd
00000370: b60c 2bbe 8c72 b4bd 2a0b 18be 2420 67bd
00000380: 9fb0 d93c 8f09 39be e01e 153e 9ca0 f23d
00000390: 1b5b 3ebe 498c 8dbd bd3e 6d3d bf31 3dbd
000003a0: 1d00 a9bb 71bb 81bd ace2 083e 866a bdbd
000003b0: 5149 273e 55bc e63c eaad d53c 3e27 1e3e
000003c0: 2d70 33bd bd17 e2bd 51d9 7bbc ce68 1c3e
000003d0: 29e9 15be bbef 473d e5ca 25be 78d6 d43d
000003e0: 30c5 4a3d 92c6 c63c 1d68 b53d ea20 723c
000003f0: 8848 d23d 9329 13be 0499 0ebd 3374 923d

rnn.bias_ih_l0 f4 [32]
-0.09047922 -0.00021339177 -0.027766043 -0.154229 -0.15656209 -0.123655945 0.0720718 0.08543282
-0.15509735 -0.07652854 -0.005874935 -0.15364195 0.10964556 0.15724304 0.039618224 -0.13789403
0.031748578 0.073113374 0.13228853 -0.08322687 -0.14908828 0.06651463 0.0005686625 -0.067087844
-0.06375757 -0.0963633 0.15016744 -0.043921024 0.13359857 0.14950061 0.016396746 0.0250172
00000000: 2b4d b9bd ebc1 5fb9 9d75 e3bc 35ee 1dbe
00000010: d051 20be 543f fdbd 619a 933d 67f7 ae3d
00000020: d7d1 1ebe ffba 9cbd 8782 c0bb 5154 1dbe
00000030: da8d e03d 5204 213e b846 223d 1834 0dbe
00000040: cc0a 023d 77bc 953d a576 073e d972 aabd
00000050: 99aa 18be d338 883d 4b12 153a 5a65 89bd
00000060: 5493 82bd 1f5a c5bd 7ec5 193e 88e6 33bd
00000070: 10ce 083e b016 193e 7852 863c dff0 cc3c

rnn.bias_hh_l0 f4 [32]
-0.001811355 0.12810673 -0.15016946 0.063674875 -0.016734261 0.073364206 -0.008931622 -0.06088555
-0.020426637 0.08531672 -0.13153936 -0.112544514 -0.029557358 -0.066990584 0.07779816 0.11241899
-0.028405774 0.17609629 -0.08155154 -0.088369206 -0.06985473 -0.13294606 -0.13434547 -0.16699997
-0.1463579 0.0409239 0.11487556 0.15254611 0.15668389 -0.018480493 0.028306292 -0.11840835
00000000: fd6a edba 692e 033e 06c6 19be f967 823d
00000010: 4a16 89bc f93f 963d f055 12bc 2063 79bd
00000020: c355 a7bc 88ba ae3d 41b2 06be bd7d e6bd
00000030: 4622 f2bc 5c32 89bd a454 9f3d ed3b e63d
00000040: 3ab3 e8bc 9652 343e 7e04 a7bd eafa b4bd
00000050: ff0f 8fbd 0323 08be dc91 09be 0a02 2bbe
00000060: d8de 15be d29f 273d e143 eb3d 0c35 1c3e
00000070: be71 203e 6764 97bc 99e2 e73c 1480 f2bd

rnn.weight_ih_l1 f4 [32, 32]
0.072858185 -0.16142458 0.071626596 0.023794005 0.057661112 0.06051599 -0.08881481 0.1644987
0.07619715 0.111483954 0.01670523 0.101750866 0.110197626 0.077156514 0.141332 -0.035972767
0.1234961 0.050153032 0.124348596 0.16285455 0.021992145 -0.07270665 -0.024997767 0.04206154
0.034067348 -0.05228378 0.1531352 0.10126981 -0.09435944 -0.01990196 -0.02906467 -0.10151755
0.034108683 -0.045480855 -0.1001258 -0.06568384 -0.05412483 0.16336255 0.061958924 0.17843203
0.041565496 0.03199988 0.06368046 0.02114123 -0.14302619 -0.11006367 -0.034479234 -0.0048350743
0.07332847 0.07631031 0.14677005 0.028200664 -0.07312582 -0.1434169 -0.13549945 -0.11541046
0.058943763 0.09122312 0.16340557 -0.06548574 -0.008950392 -0.061976515 -0.008347754 0.060445398
0.0044734557 0.0006812903 0.024177136 0.07182879 -0.055857085 -0.100856274 0.046537995 -0.026811944
-0.08119968 0.07472726 0.0027616138 -0.01736836 -0.06957824 -0.019891845 -0.15561637 0.0438866
-0.005843212 0.10162813 -0.0029009185 0.02296716 0.059732225 0.13912728 -0.0750775 0.112335816
0.04466546 -0.12249184 0.05904455 -0.10366712 -0.050462153 -0.07300799 -0.12157844 0.13580742
-0.15885554 0.083594434 -0.14932002 -0.01660556 0.010513927 0.124386966 -0.060122456 0.037053116
0.029387496 0.10407156 0.010865416 0.072716214 -0.10178048 -0.12761644 0.15392329 -0.12997475
-0.034185812 -0.027302537 0.15607882 -0.03059203 -0.11452353 -0.04285834 0.0964483 0.074059054
0.14864041 -0.03790787 0.0700404 -0.16546442 0.056702778 0.08355301 0.12223694 -0.110104054
-0.044046972 0.04740698 -0.13976398 -0.14407657 -0.16873774 0.009037818 0.10502518 0.053333633
0.0035474703 0.05962486 -0.1202674 0.01512082 -0.046307392 -0.078667045 0.15326741 -0.13506097
0.031172391 -0.14961864 -0.0029498572 -0.08484477 0.04952578 -0.10182679 0.11973541 -0.14766245
0.106102586 -0.13464172 0.11285058 -0.07639774 0.014171928 -0.0295123 0.10129664 0.061552428
-0.15635973 0.021596603 -0.12934683 0.12695871 0.026216628 -0.046399873 -0.09250018 0.069702104
-0.10587682 0.086158805 0.09201052 0.101659305 0.04215964 -0.15413015 0.13119133 -0.055983093
-0.047871448 -0.0131988535 0.15463108 0.13087414 0.009866179 0.08183288 -0.16771956 -0.005650421
-0.15840591 0.062358856 -0.10758369 -0.062439796 0.13739514 0.1647815 -0.10965413 -0.095547095
0.028343683 0.07919242 -0.03745331 -0.06368522 -0.10674167 0.06796909 0.16578887 -0.07779854
0.073647 0.07758631 0.12759238 -0.028900279 0.0004642617 0.1197525 0.120677635 0.16518454
-0.0430966 0.07908228 0.12762994 -0.12776372 0.026875138 -0.05000932 0.10670466 -0.08934728
0.018743113 0.09804369 -0.15687506 -0.15811692 -0.0861032 0.10323711 0.1121346 -0.11833023
0.04774318 -0.08889813 -0.080191106 0.15009856 0.11197489 -0.06687388 0.020667909 0.024776535
0.027211243 -0.08376708 -0.10394698 0.117572434 0.034813628 0.050263286 -0.058899917 0.06178479
0.13515341 0.108751416 0.03028891 0.17528613 0.018307358 0.026571786 0.16661383 0.16773613
-0.056797102 0.13327993 0.058077164 -0.039116606 0.15001428 -0.10523357 0.11646016 0.15918536
00000000: ac36 953d 7c4c 25be f7b0 923d a5eb c23c
00000010: 0f2e 6c3d 9ddf 773d 8ae4 b5bd 5972 283e
00000020: 400d 9c3d b351 e43d 68d9 883c c262 d03d
00000030: 4baf e13d 3c04 9e3d 56b9 103e 2e58 13bd
00000040: 86eb fc3d 446d 4d3d 7aaa fe3d 58c3 263e
00000050: df28 b43c 39e7 94bd 1ec8 ccbc b948 2c3d
00000060: 348a 0b3d 8427 56bd 79cf 1c3e 8c66 cf3d
00000070: 863f c1bd 6f09 a3bc 0819 eebc 6fe8 cfbd
00000080: 8cb5 0b3d 224a 3abd c10e cdbd 4085 86bd
00000090: ffb1 5dbd 8348 273e a4c8 7d3d e3b6 363e
000000a0: 9540 2a3d 4e12 033d e76a 823d 5f30 ad3c
000000b0: 7575 12be 1069 e1bd 193a 0dbd 8b6f 9ebb
000000c0: 3d2d 963d 9448 9c3d e34a 163e 1405 e73c
000000d0: fdc2 95bd e1db 12be 5ec0 0abe 525c ecbd
000000e0: 046f 713d 30d3 ba3d ca53 273e 631d 86bd
000000f0: aaa4 12bc 16db 7dbd 05c5 08bc 9895 773d
00000100: 1196 923b 9e98 323a 210f c63c f91a 933d
00000110: 66ca 64bd bc8d cebd a09e 3e3d b9a4 dbbc
00000120: 054c a6bd 9b0a 993d 31fc 343b 1748 8ebc
00000130: 097f 8ebd 39f4 a2bc e659 1fbe 6fc2 333d
00000140: 6a78 bfbb 6922 d03d 561d 3ebb a025 bc3c
00000150: c7a9 743d 6277 0e3e 3bc2 99bd 5210 e63d
00000160: 21f3 363d 00dd fabd b3d8 713d 6d4f d4bd
00000170: 67b1 4ebd 3785 95bd 1efe f8bd 1a11 0b3e
00000180: 07ab 22be 8f33 ab3d 59e7 18be 6208 88bc
00000190: 9b42 2c3c 98be fe3d f742 76bd 02c5 173d
000001a0: 0cbe f03c 7823 d53d dc04 323c 3dec 943d
000001b0: 4972 d0bd e2ad 02be 119e 1d3e 1a18 05be
000001c0: 6c06 0cbd 92a9 dfbc 20d3 1f3e 239c fabc
000001d0: 508b eabd 3a8c 2fbd b086 c53d 46ac 973d
000001e0: 3135 183e 4845 1bbd 5771 8f3d 816f 29be
000001f0: 2c41 683d d71d ab3d 5c57 fa3d 3c7e e1bd
00000200: 996a 34bd d22d 423d 4a1e 0fbe cf88 13be
00000210: 96c9 2cbe 5b13 143c 7117 d73d 5e74 5a3d
00000220: ad7c 683b 3239 743d c14e f6bd 51bd 773c
00000230: d2ac 3dbd 301c a1bd 22f2 1c3e 6c4d 0abe
00000240: 3e5d ff3c a135 19be 6452 41bb 18c3 adbd
00000250: 8bdb 4a3d 908a d0bd d737 f53d d334 17be
00000260: 504c d93d 85df 09be 341e e73d 6b76 9cbd
00000270: 6031 683c c7c3 f1bc 9d74 cf3d 661e 7c3d
00000280: c41c 20be 5ceb b03c 7f73 04be 7701 023e
00000290: 41c4 d63c cb0d 3ebd bc70 bdbd fabf 8e3d
000002a0: f2d5 d8bd 0774 b03d 0370 bc3d c132 d03d
000002b0: 96af 2c3d 4bd4 1dbe 0557 063e 874e 65bd
000002c0: da14 44bd 0140 58bc 9c57 1e3e df03 063e
000002d0: c1a5 213c ff97 a73d adbe 2bbe 2b27 b9bb
000002e0: 2935 22be 006c 7f3d d654 dcbd dfc0 7fbd
000002f0: 50b1 0c3e 7bbc 283e 5892 e0bd 32ae c3bd
00000300: 0331 e83c a32f a23d a468 19bd 666d 82bd
00000310: 609b dabd 6133 8b3d 8fc4 293e d754 9fbd
00000320: 3dd4 963d 92e5 9e3d 94a7 023e 47c0 ecbc
00000330: 2768 f339 cc40 f53d d625 f73d 2326 293e
00000340: 0f86 30bd e4f5 a13d 6cb1 023e 7ed4 02be
00000350: 4029 dc3c 93d6 4cbd f987 da3d b5fb b6bd
00000360: 288b 993c 21cb c83d dba3 20be 67e9 21be
00000370: e056 b0bd fa6d d33d d3a6 e53d 1f57 f2bd
00000380: 5a8e 433d 3910 b6bd 3c3b a4bd 70b3 193e
00000390: 1753 e53d 2cf5 88bd bf4f a93c 29f8 ca3c
000003a0: 1dea de3c 138e abbd 27e2 d4bd d1c9 f03d
000003b0: bc98 0e3d e0e0 4d3d 0a41 71bd 0c12 7d3d
000003c0: a865 0a3e 10b9 de3d 7320 f83c 357e 333e
000003d0: 50f9 953c 13ad d93c d19c 2a3e 05c3 2b3e
000003e0: 14a4 68bd 897a 083e 52e2 6d3d bc38 20bd
000003f0: 589d 193e b384 d7bd aa82 ee3d 7d01 233e

rnn.weight_hh_l1 f4 [32, 32]
0.15842839 0.14879403 0.0066596493 -0.11564031 -0.0023305118 -0.08999072 0.12793082 -0.0003812208
0.054302197 0.11198204 0.06777244 -0.09406743 0.13714041 0.103482895 -0.11737605 0.14318156
0.06202171 -0.025051242 -0.13560498 -0.04000848 -0.16648641 0.0920552 0.1344875 -0.044516243
0.15984517 -0.07402437 0.039335083 -0.12120179 -0.0043801637 0.06446464 0.085086495 0.0031132207
-0.098503515 0.11514142 0.10779951 0.023694763 -0.07826095 0.03106216 0.0151598025 0.15253389
0.023094632 0.024506552 0.020621961 0.105288066 -0.008375406 0.1439469 0.08312024 -0.12457469
0.009096358 -0.15666032 -0.14163859 0.025448887 0.04835823 -0.02423732 0.17384432 -0.08931844
-0.06916628 -0.03682888 0.00902862 -0.020779623 0.1629008 -0.08232461 -0.08463076 0.024627598
0.14243747 0.052886244 0.102901824 0.034895923 0.16246034 0.11513732 0.11355321 -0.015805563
-0.14859357 -0.09336507 0.057023294 0.11923332 -0.08561281 0.15038833 0.028330807 -0.0074193315
0.01587578 -0.025838697 0.151252 0.009679274 0.10134834 -0.14263928 -0.092700124 0.017930077
0.14621226 0.090896815 0.024097199 -0.16518281 0.01915349 -0.110279486 -0.15546212 0.032965094
-0.103925236 0.16494238 -0.08942243 0.058573876 0.10386449 -0.13516285 0.077198915 -0.018052932
0.071470425 0.16526435 -0.08155191 -0.09215043 0.14735138 0.020632084 -0.013458027 0.12788534
-0.0927458 -0.015256027 0.120402716 0.07671609 -0.11748824 0.053623077 -0.13577107 -0.098707944
0.11947169 -0.041380882 -0.09637241 0.010996937 0.061150186 -0.106483 -0.12379103 -0.17694685
0.03679036 -0.11256906 0.007269922 -0.049695954 -0.11777523 -0.008921661 -0.13863814 -0.100138
-0.006041076 -0.14424768 -0.14753614 0.14385119 0.0013495191 -0.08395324 -0.0065803546 0.13431983
-0.13689171 -0.10314778 -0.12904353 -0.022742268 -0.0026909213 -0.14477289 0.12649703 -0.12896052
0.15587701 -0.12652044 -0.019840313 0.039962538 -0.08921257 0.1601004 -0.11813062 -0.0043847137
-0.13539141 0.048272703 0.14358427 0.16746625 0.011270541 -0.07917427 0.17492035 0.008308622
0.12605347 -0.08406678 -0.0954622 -0.13731135 0.15954413 0.02881409 -0.124674745 0.020157397
-0.068324015 -0.0030234156 0.060884267 -0.09352089 0.034657672 -0.11948897 0.034723386 -0.16564092
0.013898187 0.1708762 0.14571415 0.06982643 0.1191141 0.17688292 0.052601285 0.058440678
0.012753367 0.14763166 0.14418508 -0.08303126 -0.006774311 -0.1008207 0.07657954 -0.179884
0.055105623 -0.042118587 0.07168228 0.06697895 -0.08733424 0.084429026 0.06454615 -0.13974689
0.18177119 0.14577709 0.10447891 -0.025856622 0.07223223 -0.103772625 -0.051284164 0.09129537
0.075932555 0.060847826 -0.1596159 0.1362582 -0.07314222 0.14319143 0.15346846 0.07095205
0.17285128 0.08407203 0.10788385 -0.059623983 0.1759352 0.031944737 0.10311631 -0.042915225
0.108697146 0.16210243 -0.12908143 0.13638426 -0.11687025 -0.12741752 -0.15597641 0.05348974
-0.13667668 -0.06498523 -0.09593322 0.05155507 -0.17180985 -0.07746601 0.0064093466 0.018025713
-0.054684747 0.0600603 -0.10554446 -0.14665626 -0.016624479 -0.10816713 0.115434736 -0.1167511
00000000: 0d3b 223e 765d 183e 3039 da3b d4d4 ecbd
00000010: 80bb 18bb 0e4d b8bd 4c00 033e 97de c7b9
00000020: fb6b 5e3d d756 e53d 47cc 8a3d 6da6 c0bd
00000030: 896e 0c3e d7ee d33d db62 f0bd 309e 123e
00000040: 7a0a 7e3d 4338 cdbc 08dc 0abe efdf 23bd
00000050: 6a7b 2abe 7087 bc3d 17b7 093e aa56 36bd
00000060: 74ae 233e 179a 97bd d31d 213d a538 f8bd
00000070: 7a87 8fbb 0a06 843d d441 ae3d 2d07 4c3b
00000080: 36bc c9bd 44cf eb3d fdc5 dc3d 851b c23c
00000090: 4747 a0bd 1276 fe3c d260 783c d831 1c3e
000000a0: f430 bd3c f7c1 c83c 63ef a83c 45a1 d73d
000000b0: 0039 09bc d166 133e f23a aa3d 0421 ffbd
000000c0: e408 153c 906b 20be b509 11be 2f7a d03c
000000d0: 4813 463d 588d c6bc 3f04 323e 96ec b6bd
000000e0: 0da7 8dbd e1d9 16bd c7ec 133c 073a aabc
000000f0: 78cf 263e ce99 a8bd e452 adbd d1bf c93c
00000100: 21db 113e 3f9f 583d 31be d23d 07ef 0e3d
00000110: 015c 263e 1dcd eb3d 968e e83d ab7a 81bc
00000120: ea28 18be 3036 bfbd 4291 693d 9930 f43d
00000130: c555 afbd 66ff 193e 0216 e83c dd1d f3bb
00000140: ec0d 823c adab d3bc cee1 1a3e d195 1e3c
00000150: b88f cf3d 0810 12be 90d9 bdbd 19e2 923c
00000160: abb8 153e 1c28 ba3d 7d67 c53c af25 29be
00000170: c8e7 9c3c 36da e1bd 7631 1fbe 6806 073d
00000180: c1d6 d4bd a8e6 283e 1b23 b7bd 29eb 6f3d
00000190: e8b6 d43d 2168 0abe 771a 9e3d bee3 93bc
000001a0: 165f 923d 0f3b 293e b004 a7bd 5db9 bcbd
000001b0: 48e3 163e 9e04 a93c 0e7f 5cbc 60f4 023e
000001c0: 83f1 bdbd 6af4 79bc b395 f63d 531d 9d3d
000001d0: ad9d f0bd dfa3 5b3d 9207 0bbe 6427 cabd
000001e0: 93ad f43d 007f 29bd e65e c5bd 7f2c 343c
000001f0: 9e78 7a3d c213 dabd 2786 fdbd 8e31 35be
00000200: 7db1 163d 9b8a e6bd 8738 ee3b fc8d 4bbd
00000210: 2434 f1bd 292c 12bc 28f7 0dbe 2715 cdbd
00000220: 38f4 c5bb aab5 13be b713 17be ba4d 133e
00000230: 59e2 b03a adef abbd 04a0 d7bb 238b 093e
00000240: 572d 0cbe 253f d3bd fd23 04be fe4d babc
00000250: 2b5a 30bb 583f 14be 7088 013e 3a0e 04be
00000260: 399e 1f3e 938e 01be 2788 a2bc c2af 233d
00000270: 14b5 b6bd 5cf1 233e 77ee f1bd a5ad 8fbb
00000280: 0ca4 0abe 99b9 453d c107 133e 467c 2b3e
00000290: 13a8 383c 1f26 a2bd 521e 333e e320 083c
000002a0: 2914 013e 342b acbd b081 c3bd 599b 0cbe
000002b0: 895f 233e 870b ec3c 7955 ffbd 2021 a53c
000002c0: 76ed 8bbd 7f24 46bb c861 793d e187 bfbd
000002d0: 34f5 0d3d a2b6 f4bd 1c3a 0e3d c69d 29be
000002e0: 39b5 633c 2cfa 2e3e 1736 153e 2901 8f3d
000002f0: 18f2 f33d cc20 353e 7274 573d 7e5f 6f3d
00000300: 80f3 503c c12c 173e 41a5 133e 4b0c aabd
00000310: 0afb ddbb 157b cebd bcd5 9c3d 8333 38be
00000320: 6fb6 613d 8a84 2cbd 29ce 923d 422c 893d
00000330: 4bdc b2bd 20e9 ac3d c630 843d cf19 0fbe
00000340: 3a22 3a3e 9746 153e 0af9 d53d 44d1 d3bc
00000350: 7eee 933d be86 d4bd 580f 52bd 11f9 ba3d
00000360: 8782 9b3d 923b 793d 5a72 23be 4587 0b3e
00000370: 97cb 95bd c6a0 123e d626 1d3e 4f4f 913d
00000380: edff 303e f52d ac3d 35f2 dc3d 4738 74bd
00000390: 5b28 343e 7cd8 023d a52e d33d e0c7 2fbd
000003a0: 9c9c de3d 2efe 253e ec2d 04be 51a8 0b3e
000003b0: ab59 efbd bd79 02be 48b8 1fbe 0f18 5b3d
000003c0: f9f4 0bbe fa16 85bd a378 c4bd 692b 533d
000003d0: ecee 2fbe 80a6 9ebd 7f05 d23b a9aa 933c
000003e0: 1dfd 5fbd ca01 763d b227 d8bd 0f2d 16be
000003f0: 0f30 88bc ba86 ddbd 0c69 ec3d 331b efbd

rnn.bias_ih_l1 f4 [32]
-0.10899943 -0.14061339 -0.17511508 0.014143442 -0.10115178 0.014846011 -0.074301414 -0.121151485
0.12760161 0.089844815 0.1134472 0.15998662 -0.12484732 -0.10213687 -0.14323997 0.1276301
0.097261935 0.14888255 -0.13197817 -0.100222014 0.18121132 -0.1309291 -0.10878884 0.07261913
-0.15876621 -0.057067666 0.06206802 0.15311258 -0.010244025 -0.15137543 0.10911193 0.1847736
00000000: 183b dfbd f5fc 0fbe 5e51 33be e5b9 673c
00000010: aa28 cfbd af3c 733c 572b 98bd 451e f8bd
00000020: ffa9 023e 8f00 b83d 0157 e83d 88d3 233e
00000030: f4af ffbd 232d d1bd 80ad 12be 77b1 023e
00000040: 4431 c73d ab74 183e 4925 07be 3341 cdbd
00000050: 768f 393e 4712 06be afcc debd 57b9 943d
00000060: 9c93 22be c9bf 69bd 093b 7e3d 8bc9 1c3e
00000070: 8ed6 27bc 2902 1bbe 1376 df3d 4a35 3d3e

rnn.bias_hh_l1 f4 [32]
-0.120904416 0.0021319755 -0.13554877 -0.09829582 0.06593148 0.09102265 0.08254655 -0.16802453
-0.03445301 0.06514477 -0.027083494 -0.06423843 -0.08825708 0.15957958 -0.15165694 -0.13032155
0.12192361 -0.101794355 0.09853783 -0.102865085 -0.015038285 -0.07596712 0.15500097 0.13009156
0.0042583235 -0.0028479884 -0.079759926 -0.086199924 -0.05705096 0.06294719 -0.022755953 0.12853028
00000000: bc9c f7bd 9db8 0b3b 4ccd 0abe 524f c9bd
00000010: 1507 873d 156a ba3d 2a0e a93d 9f0e 2cbe
00000020: 991e 0dbd 9f6a 853d 34de ddbc 708f 83bd
00000030: 21c0 b4bd d468 233e f54b 1bbe 0373 05be
00000040: 16b3 f93d 8f79 d0bd 34ce c93d eeaa d2bd
00000050: 2463 76bc a694 9bbd 93b8 1e3e b936 053e
00000060: 6889 8b3b 51a5 3abb 2c59 a3bd 9689 b0bd
00000070: 44ae 69bd 75ea 803d b16a babc 719d 033e

rnn.weight_ih_l2 f4 [32, 32]
0.031189134 0.005341791 -0.10648658 0.0745231 -0.15621725 0.04571222 0.052901782 0.033543214
0.1112509 0.043917753 -0.053372543 -0.13726611 -0.16040637 0.08726369 0.0977651 -0.13903816
0.045977436 -0.06893955 0.14570895 -0.055810243 0.14689434 0.12842394 0.099125765 0.12607037
0.06816859 0.063252375 -0.1576481 -0.02080734 -0.010327874 0.08840121 -0.07011523 0.077770494
0.11141158 0.06838392 0.08191365 -0.02635911 0.08603558 -0.06458365 0.16652767 -0.01176139
0.0093665365 -0.14845031 0.17122622 -0.008039003 0.123305075 -0.116659135 -0.15427323 -0.019342566
-0.13223895 0.044334173 -0.0018887711 -0.07409388 0.11605417 0.105292514 -0.1565276 -0.13855468
0.098090164 -0.115895025 0.04244373 -0.04949974 0.028548539 -0.103310674 0.00829407 -0.05482341
-0.0702197 -0.07993503 0.047732875 0.11754123 -0.00731562 0.003459558 0.13371362 0.15022679
-0.03951178 -0.15276545 0.032947775 0.037473656 -0.13039082 -0.15425716 0.025692381 0.16441062
-0.1664761 -0.09496494 -0.05606288 -0.14706805 -0.114556335 0.1471801 0.13234897 -0.13497059
0.0052163526 -0.13651383 0.064414665 -0.121142216 -0.08327819 -0.0749626 0.019194314 0.11024268
-0.06616387 0.038586456 0.14799681 -0.011011212 0.018491326 0.018421596 -0.012709176 0.1113877
0.074373655 -0.09965039 0.16252208 0.08599842 -0.01967961 0.15210469 0.014084498 0.104450904
-0.1573033 0.14982119 0.16747628 -0.12398115 -0.16049041 -0.043015428 -0.10841245 0.046016134
0.08745127 -0.015189723 0.11710243 0.008847504 -0.040314935 -0.147291 0.05069657 -0.17288326
-0.008422372 0.020790076 -0.10601865 0.048417334 0.03473545 0.11601391 0.11030849 -0.14913462
-0.10875013 -0.059854228 -0.12014376 0.07320595 -0.1235871 -0.13648981 0.047018632 0.113227524
-0.041590653 -0.16826151 0.019955827 0.08170495 0.14120641 0.01011403 0.12464814 -0.15553796
0.16533253 -0.12188341 -0.11215129 0.12691791 -0.043252006 0.104274586 -0.11784961 0.14047143
0.16021639 0.051507153 0.13564101 -0.12907495 -0.04021189 0.057142757 0.102369264 -0.09942288
0.13348345 -0.05541709 -0.08835204 0.04999254 -0.14874886 -0.16114919 0.055447254 0.06597301
0.076716445 -0.01463984 -0.13005592 -0.15015428 0.16989043 -0.16030394 0.05181001 0.14559348
0.123874806 -0.116789624 -0.049099166 -0.14187948 0.08804571 -0.1676875 -0.1580785 -0.11227658
0.13574302 0.11065539 0.11068383 0.12810649 -0.080938965 -0.09977199 -0.101744466 0.05124594
0.086201094 0.041957833 -0.12770432 0.032298595 -0.10278001 -0.03960717 -0.032697283 0.015358975
-0.14294495 0.15943934 -0.08140725 0.04573956 0.12629327 0.06438707 0.12767312 0.10481391
0.1281531 0.03068866 0.12271892 -0.073852316 -0.11112246 0.07876546 0.052468088 0.0007888649
-0.1399999 0.06378235 0.12222362 -0.015754597 0.03742918 0.08039558 -0.1767133 -0.021540297
-0.08509775 -0.09773714 0.10003982 0.16105749 0.035644017 0.11410291 -0.12483188 0.023904966
-0.032332882 -0.1163544 0.04115789 0.06469527 -0.013176198 0.08240416 0.08239957 0.15557389
0.012604979 0.013040451 -0.012302249 0.021613596 -0.107419744 -0.015773354 -0.15604861 -0.13156796
00000000: 5b80 ff3c 310a af3b a315 dabd 919f 983d
00000010: 6af7 1fbe bd3c 3b3d 8aaf 583d 9c64 093d
00000020: 83d7 e33d 1ae3 333d 2b9d 5abd 7d8f 0cbe
00000030: 9141 24be 4eb7 b23d 1239 c83d 0560 0ebe
00000040: d652 3c3d 2e30 8dbd ba34 153e 4899 64bd
00000050: 786b 163e 9181 033e 7302 cb3d 9718 013e
00000060: f99b 8b3d 768a 813d 816e 21be 2874 aabc
00000070: 3e36 29bc b20b b53d 9398 8fbd 2346 9f3d
00000080: c12b e43d de0c 8c3d 58c2 a73d 0fef d7bc
00000090: 6c33 b03d 6f44 84bd 3b86 2a3e d8b2 40bc
000000a0: 1a76 193c 5c03 18be ed55 2f3e 06b6 03bc
000000b0: 5f87 fc3d fcea eebd cdf9 1dbe 4d74 9ebc
000000c0: a669 07be c097 353d a490 f7ba 88be 97bd
000000d0: cfad ed3d 9aa3 d73d c548 20be 47e1 0dbe
000000e0: 7fe3 c83d 5f5a edbd 7ad9 2d3d 3dc0 4abd
000000f0: a0de e93c 8c94 d3bd dae3 073c 838e 60bd
00000100: 59cf 8fbd fab4 a3bd 8c83 433d 75b9 f03d
00000110: deb7 efbb c0b9 623b 39ec 083e 0dd5 193e
00000120: 1bd7 21bd 8c6e 1cbe 3ff4 063d fa7d 193d
00000130: 2c85 05be 97f5 1dbe d478 d23c 425b 283e
00000140: b678 2abe fa7c c2bd 31a2 65bd 0299 16be
00000150: 839c eabd 61b6 163e 7d86 073e bb35 0abe
00000160: f0ed aa3b 48ca 0bbe d6eb 833d 6919 f8bd
00000170: c18d aabd fe85 99bd 653d 9d3c eac6 e13d
00000180: ec80 87bd d50c 1e3d 7a8c 173e 5f68 34bc
00000190: 1f7b 973c e3e8 963c 263a 50bc 3c1f e43d
000001a0: 3751 983d 8115 ccbd 306c 263e f11f b03d
000001b0: 2237 a1bc 55c1 1b3e abc2 663c 5bea d53d
000001c0: 1e14 21be ba6a 193e e77e 2b3e d4e9 fdbd
000001d0: 9957 24be f230 30bd 5907 debd 6a7b 3c3d
000001e0: a719 b33d 51de 78bc 66d3 ef3d 1ff5 103c
000001f0: 4621 25bd 74d3 16be 35a7 4f3d 4f08 31be
00000200: fdfd 09bc f34f aa3c 4e20 d9bd 4151 463d
00000210: c246 0e3d b398 ed3d 6be9 e13d bfb6 18be
00000220: 63b8 debd b529 75bd ef0d f6bd 00ed 953d
00000230: 3c1b fdbd fcc3 0bbe 9c96 403d d5e3 e73d
00000240: f65a 2abd bf4c 2cbe 677a a33c ed54 a73d
00000250: 6a98 103e 51b5 253c 8647 ff3d 5845 1fbe
00000260: ee4c 293e 029e f9bd 93af e5bd c5f6 013e
00000270: 0429 31bd ea8d d53d 235b f1bd bed7 0f3e
00000280: c40f 243e 2af9 523d 7ae5 0a3e 392c 04be
00000290: 39b5 24bd 860e 6a3d faa6 d13d 399e cbbd
000002a0: e3af 083e 08fd 62bd eaf1 b4bd fac4 4c3d
000002b0: 9f51 18be 4b04 25be a91c 633d dc1c 873d
000002c0: 831d 9d3d f1db 6fbc 612d 05be 0bc2 19be
000002d0: c2f7 2d3e b726 24be bc36 543d 7516 153e
000002e0: 13b2 fd3d 662f efbd 351c 49bd db48 11be
000002f0: 4f51 b43d 46b6 2bbe 55df 21be 43f1 e5bd
00000300: 3800 0b3e 4b9f e23d 34ae e23d 592e 033e
00000310: 54c3 a5bd 4255 ccbd 675f d0bd 43e7 513d
00000320: 338a b03d fadb 2b3d ecc4 02be 884b 043d
00000330: 537e d2bd 213b 22bd 96ed 05bd 36a4 7b3c
00000340: 2960 12be 1144 233e d8b8 a6bd 6859 3b3d
00000350: 0653 013e 5edd 833d bebc 023e ada8 d63d
00000360: 913a 033e c966 fb3c 0f54 fb3d e23f 97bd
00000370: 2c94 e3bd c94f a13d c7e8 563d d4cb 4e3a
00000380: 225c 0fbe 52a0 823d 6150 fa3d c90f 81bc
00000390: 574f 193d 70a6 a43d 55f4 34be 4775 b0bc
000003a0: bb47 aebd 692a c8bd ade1 cc3d 41ec 243e
000003b0: 76ff 113d c9ae e93d dba7 ffbd 59d4 c33c
000003c0: 7c6f 04bd 374b eebd 2d95 283d f47e 843d
000003d0: fbe0 57bc 83c3 a83d 1bc1 a83d c34e 1f3e
000003e0: 1d85 4e3c 9ea7 553c 5f8f 49bc ff0e b13c
000003f0: e2fe dbbd 1f37 81bc 35cb 1fbe c0b9 06be

rnn.weight_hh_l2 f4 [32, 32]
-0.06782149 0.09196566 0.093022905 -0.14175203 0.047816094 0.06763406 -0.09375787 0.14491126
0.14236201 0.1446889 -0.0056321197 -0.09294237 -0.09876791 0.06551193 -0.028984156 0.14112577
0.15256126 0.031488195 -0.14232226 0.07938139 0.17167073 -0.063143544 -0.07971807 -0.04419638
0.019090524 -0.13322586 0.09177252 0.07772003 -0.06321948 -0.04406554 -0.06927654 0.13781738
0.0981214 0.05729441 0.004299719 0.040977675 0.16202055 0.06323204 -0.099741295 0.08046438
-0.07710315 0.0017177406 -0.114437185 0.0014595224 0.004865663 -0.11397746 0.11300523 0.16386174
-0.14953755 0.04304701 -0.12006176 -0.026227357 0.07154373 -0.0026779776 0.05843115 -0.0493002
0.1751172 -0.075580254 0.040645234 0.012353119 0.12600774 0.015860965 0.10405799 0.04048949
0.114221975 -0.004191074 0.04791451 0.17995393 -0.040226858 -0.07911479 0.14272456 0.055537302
-0.15914033 0.055648077 -0.17292534 -0.09579313 0.07446025 0.10024572 -0.037925363 0.147278
0.16608109 0.1514446 -0.16720451 -0.07380875 0.020626383 0.14422674 -0.029158317 0.029171543
0.090830654 -0.10021124 -0.11467685 0.18106747 -0.008112494 0.124927096 -0.16375513 -0.06242142
0.13119602 -0.018703727 0.04768359 -0.14407331 0.18181902 -0.09399359 0.0013034999 -0.13073772
-0.07116004 -0.15668453 -0.15651299 -0.032988146 -0.07995822 0.13577442 0.0014062582 0.13675022
-0.039515834 0.05264883 0.18788846 -0.14413148 -0.05975271 0.13356178 -0.02635979 -0.052599363
0.0072489036 -0.097974576 0.0070984894 -0.06930238 0.05439593 -0.021577137 -0.047255505 -0.06701184
0.038544737 0.08953185 -0.1500562 -0.12883082 -0.17955218 0.08783178 0.12186716 -0.15525404
0.041059326 0.041220155 -0.09052521 0.037551463 0.1369083 0.16765425 0.07727534 -0.035341717
-0.091507025 -0.08025275 -0.017804122 -0.007557453 0.11387877 -0.14776789 0.004239864 -0.05019349
0.02017543 0.17326511 0.011024856 -0.036424506 -0.0569101 -0.1853048 -0.1770713 0.070788436
-0.10805698 0.09436049 -0.036576234 0.058820203 0.10795035 0.029608209 0.049309257 0.16485433
-0.06098756 0.13275105 -0.14589398 0.1623405 -0.055957776 -0.010427554 0.09643168 0.01055191
0.16536823 -0.09104503 -0.121848114 0.16371518 -0.1095989 0.13489212 0.1512162 0.12448101
-0.062978014 3.2173626e-05 -0.1549712 -0.10084065 -0.03458106 -0.12654988 0.088818826 0.07546709
-0.041404437 -0.026082408 0.18439238 -0.018104237 0.14283301 0.1684569 -0.07483856 -0.15727873
0.15923958 -0.089400776 0.16954482 -0.10523984 0.029125363 0.045991197 -0.0385981 0.13893689
-0.16029216 -0.08383587 -0.0498923 0.13767639 0.06392774 0.12197337 0.07572879 0.16617972
-0.038403712 -0.048904978 -0.018356897 0.06252125 -0.04718509 0.045901015 0.035166774 0.024444818
0.13257112 0.024527423 0.10578239 -0.04298729 -0.14101394 0.101977095 0.08553355 0.13422497
0.07314078 -0.0024772075 -0.13019982 -0.17209233 0.039637104 0.1499432 -0.01785408 -0.059124418
0.07699254 -0.073140554 0.06332548 -0.15179235 -0.14434563 -0.1026385 -0.020029599 0.05251502
0.0883479 -0.11795448 -0.043235686 0.0635968 -0.04350136 0.0029432145 0.12579602 -0.041213833
00000000: fee5 8abd 7e58 bc3d cb82 be3d 7227 11be
00000010: cfda 433d ba83 8a3d 2004 c0bd 9e63 143e
00000020: 59c7 113e 5429 143e a58d b8bb 9258 bebd
00000030: d446 cabd 1e2b 863d 2e70 edbc 4683 103e
00000040: 0539 1c3e c4f9 003d edbc 11be b692 a23d
00000050: 74ca 2f3e 6751 81bd 3a43 a3bd 4307 35bd
00000060: bb63 9c3c 5c6c 08be 3bf3 bb3d ae2b 9f3d
00000070: 3779 81bd 117e 34bd dce0 8dbd 0020 0d3e
00000080: dff3 c83d 8bad 6a3d a8e4 8c3b 35d8 273d
00000090: b7e8 253e cd7f 813d 2a45 ccbd 82ca a43d
000000a0: 42e8 9dbd cf25 e13a 0b5e eabd 724d bf3a
000000b0: 2470 9f3b 046d e9bd 496f e73d 5fcb 273e
000000c0: 5f20 19be 1052 303d f1e2 f5bd c1da d6bc
000000d0: 8585 923d 0281 2fbb 8055 6f3d 02ef 49bd
000000e0: ec51 333e d2c9 9abd 9e7b 263d bd64 4a3c
000000f0: 2c08 013e dbee 813c 5b1c d53d 4fd8 253d
00000100: 36ed e93d 4755 89bb 0142 443d d845 383e
00000110: ebc4 24bd ef06 a2bd 6326 123e 157b 633d
00000120: aff5 22be 3def 633d 5713 31be 302f c4bd
00000130: 9e7e 983d a14d cd3d a057 1bbd 0bd0 163e
00000140: 2911 2a3e 4b14 1b3e a937 2bbe 0b29 97bd
00000150: a9f8 a83c 2db0 133e 6cdd eebc 29f9 ee3c
00000160: 6c05 ba3d 8d3b cdbd b2db eabd c069 393e
00000170: 44ea 04bc c7d9 ff3d 6daf 27be 9aad 7fbd
00000180: 4058 063e 8f38 99bc de4f 433d f487 13be
00000190: c42e 3a3e b67f c0bd 33da aa3a 1ce0 05be
000001a0: 5bbc 91bd e971 20be f144 20be 941e 07bd
000001b0: 23c1 a3bd 7308 0b3e 3252 b83a 4008 0c3e
000001c0: 5bdb 21bd 4da6 573d d565 403e 3497 13be
000001d0: 42bf 74bd 6bc4 083e 7cf0 d7bc 6e72 57bd
000001e0: 3688 ed3b e5a6 c8bd 729a e83b 68ee 8dbd
000001f0: 44ce 5e3d 89c2 b0bc fd8e 41bd 813d 89bd
00000200: 16e1 1d3d 795c b73d 55a8 19be 3aec 03be
00000210: 87dc 37be 26e1 b33d 7d95 f93d eafa 1ebe
00000220: d32d 283d 77d6 283d 4865 b9bd 90cf 193d
00000230: b031 0c3e 8ead 2b3e 8942 9e3d 7ac2 10bd
00000240: 0968 bbbd 8e5b a4bd f3d9 91bc 83a4 f7bb
00000250: 4639 e93d 7750 17be 8fee 8a3b b097 4dbd
00000260: f246 a53c 696c 313e 99a1 343c dd31 15bd
00000270: 911a 69bd 8bc0 3dbe 2e52 35be 87f9 903d
00000280: fa4c ddbd 1340 c13d f6d0 15bd 74ed 703d
00000290: 1315 dd3d ea8c f23c 81f8 493d 93cf 283e
000002a0: 17ce 79bd e4ef 073e 3b65 15be 973c 263e
000002b0: fb33 65bd 55d8 2abc f97d c53d ebe1 2c3c
000002c0: 4a56 293e d175 babd 818b f9bd f4a4 273e
000002d0: 6375 e0bd 2921 0a3e 6bd8 1a3e e6ef fe3d
000002e0: 9efa 80bd 2bf2 0638 c5b0 1ebe 8b85 cebd
000002f0: dfa4 0dbd 4b96 01be a5e6 b53d 7d8e 9a3d
00000300: b397 29bd c6aa d5bc 5bd1 3c3e 564f 94bc
00000310: d142 123e f77f 2c3e f544 99bd ad0d 21be
00000320: b30f 233e c117 b7bd 289d 2d3e fc87 d7bd
00000330: 5098 ee3c 4461 3c3d 0b19 1ebd 7945 0e3e
00000340: a123 24be 24b2 abbd de5b 4cbd 0afb 0c3e
00000350: 8cec 823d 2dcd f93d b217 9b3d 042b 2a3e
00000360: 364d 1dbd 9650 48bd 3461 96bc 240b 803d
00000370: 2745 41bd b402 3c3d 090b 103d 8040 c83c
00000380: b9c0 073e bced c83c 70a4 d83d 7113 30bd
00000390: f565 10be 5ed9 d03d 372c af3d 4572 093e
000003a0: d5ca 953d a558 22bb 1a53 05be f938 30be
000003b0: 845a 223d b68a 193e b842 92bc 722c 72bd
000003c0: 44ae 9d3d b7ca 95bd cab0 813d 746f 1bbe
000003d0: 57cf 13be 2234 d2bd 1d15 a4bc fd19 573d
000003e0: beef b43d 1e92 f1bd e717 31bd 0a3f 823d
000003f0: 7b2e 32bd f2e2 403b acd0 003e d6cf 28bd

rnn.bias_ih_l2 f4 [32]
-0.061948568 0.099658184 0.15154654 -0.0531198 0.13037974 -0.0051803533 -0.027049068 -0.029532488
-0.07624993 0.059255697 -0.011135756 -0.095573306 0.1040657 -0.084630765 -0.12505162 0.06952789
-0.018874025 -0.088198505 -0.13731782 -0.062075466 -0.12576582 0.08799382 -0.01795771 0.097271055
0.09564597 0.023748143 -0.025261514 -0.09871265 0.042572796 -0.14734827 -0.07678781 0.1502812
00000000: c8bd 7dbd 9719 cc3d 042f 1b3e 2694 59bd
00000010: 4482 053e f4bf a9bb 0296 ddbc 1eee f1bc
00000020: ec28 9cbd 1ab6 723d bf72 36bc f0bb c3bd
00000030: 6620 d53d e552 adbd 880d 00be a364 8e3d
00000040: b39d 9abc 6ba1 b4bd 0b9d 0cbe d842 7ebd
00000050: c1c8 00be 1b36 b43d 0c1c 93bc 0c36 c73d
00000060: 09e2 c33d 778b c23c 3cf1 cebc dc29 cabd
00000070: d060 2e3d 77e2 16be ed42 9dbd 51e3 193e

rnn.bias_hh_l2 f4 [32]
-0.03851471 0.15243953 0.09552318 -0.046049334 -0.13429818 0.15018308 0.023218792 0.15844856
-0.15597267 0.047301345 -0.16248749 -0.030904524 -0.16332205 -0.16655558 0.0035931568 0.18244088
0.00552642 -0.007262719 0.1717714 0.0070705037 -0.08911972 0.10425573 0.1302003 0.15950356
0.14861746 0.17383477 -0.063607104 0.017877676 -0.061731324 -0.017163346 0.14911556 -0.13036886
00000000: 9ac1 1dbd 1c19 1c3e a8a1 c33d 3a9e 3cbd
00000010: 7685 09be 98c9 193e 5635 be3c 5740 223e
00000020: 4db7 1fbe 0ebf 413d 1f63 26be 7c2b fdbc
00000030: e53d 27be 8c8d 2abe 2b7b 6b3b c8d1 3a3e
00000040: f916 b53b 1afc edbb d8e4 2f3e afaf e73b
00000050: 6684 b6bd 0784 d53d 3a53 053e e754 233e
00000060: 2d2f 183e be01 323e 7144 82bd 3474 923c
00000070: fcd9 7cbd 259a 8cbc c0b1 183e 6a7f 05be

rnn.weight_ih_l3 f4 [32, 32]
0.10668454 -0.10623044 -0.01423183 -0.016244467 -0.06360404 0.007942689 -0.07588201 0.15423568
-0.054178625 0.10785623 -0.04117224 -0.13458623 0.13659547 -0.043064233 -0.062117152 0.011629045
-0.010155345 0.061577078 -0.028337572 -0.060305584 0.113704555 0.0781889 0.14810546 0.011982503
-0.053495266 -0.04070171 -0.042560976 -0.052085273 -0.044398434 -0.0307433 0.045071766 0.081930876
0.14152005 -0.1760516 0.12396627 -0.03155251 -0.15507875 0.10958991 -0.08787948 -0.09570491
0.0653773 0.023571242 0.11932927 -0.121925116 0.09732518 0.097338356 0.12459456 -0.059163693
0.022635287 0.06483906 0.1704448 -0.116045415 -0.1469372 -0.16283596 0.0209589 -0.14076827
-0.03846081 -0.08744033 0.025980571 -0.12115745 0.10612188 -0.16479613 -0.09132527 0.049318906
-0.1813776 0.044988733 -0.0588812 -0.07783823 0.114170134 -0.06887466 0.046689834 -0.05200071
0.09391655 0.15554872 0.17308536 -0.09448247 -0.1729111 -0.118231915 0.03471576 0.053788975
0.085025676 0.08202665 0.17242046 -0.12909608 -0.14799175 -0.06267116 0.13237469 -0.13358182
0.11866213 0.03230627 0.10072432 0.17756175 0.16554824 0.175901 -0.03994462 -0.08816906
0.075587325 0.1478547 -0.008669499 -0.039977662 -0.014641323 -0.066924684 0.09860358 -0.19140181
0.15538815 -0.010470293 -0.10894292 -0.06407957 -0.10782983 -0.15080056 0.025089905 -0.03942263
-0.08244194 -0.018151551 -0.023762967 0.07124526 -0.1279363 -0.007880411 -0.0041967602 -0.1490029
0.15978388 -0.087294914 0.13626604 0.13699815 0.0032015548 0.13947752 -0.12614065 -0.011150122
-0.14349772 -0.112138234 0.042459473 0.13650592 -0.09307637 -0.07767474 -0.08780017 -0.030301861
-0.14073382 -0.14588277 -0.038639877 0.17246266 0.032851767 -0.0682922 0.11942892 0.12807687
0.113997266 0.015539876 -0.018709475 0.1061407 0.109016955 0.12318248 0.12477321 -0.056500148
0.14259008 0.029414538 0.16983268 0.17952359 0.14491145 0.1323219 0.14713085 -0.07731234
-0.071121216 -0.04678784 -0.10402277 0.13447906 0.027290735 -0.051411204 -0.06705121 -0.17124532
0.018491162 0.1487138 0.116196394 0.14163855 0.12407303 0.079828046 -0.0060931756 -0.13288154
0.13312645 -0.11271688 -0.10833102 0.061809584 0.10986476 -0.093533024 0.10908742 -0.1722755
0.03529381 0.071738206 0.026219217 -0.09556323 -0.12404921 0.14684966 0.046006136 -0.07220941
0.15611441 -0.039610323 -0.045280173 0.046724875 0.15935938 -0.08218562 0.011072679 -0.0950904
-0.07749653 -0.027436117 -0.008102395 0.094703496 -0.13196462 0.10426852 0.13717818 -0.019575203
-0.009266377 0.056666177 -0.16215923 0.12678802 -0.016523462 0.0031500126 0.09601933 0.07023136
-0.083920345 -0.13308313 -0.17397636 -0.14920042 -0.039253943 -0.13166635 -0.008499795 -0.094751626
0.09200024 0.12855418 0.16184323 -0.123568 -0.13867636 0.070226856 -0.052277297 0.14703941
-0.17075515 0.1727858 -0.1255479 -0.14627194 -0.02451278 -0.08647174 -0.115825385 0.10536867
0.14685634 0.08709288 0.023581903 -0.015123501 -0.109602556 0.17102899 -0.09021506 -0.14584464
0.1588265 -0.0058049583 0.12765089 -0.06600954 0.14436792 -0.13434356 0.100898355 0.12959763
00000000: 6d7d da3d 588f d9bd 9f2c 69bc 1e13 85bc
00000010: d642 82bd 0d22 023c 0768 9bbd f5ef 1d3e
00000020: 68ea 5dbd bae3 dc3d 39a4 28bd f9d0 09be
00000030: afdf 0b3e 1f64 30bd 8e6e 7ebd c087 3e3c
00000040: 9b62 26bc 3f38 7c3d 3224 e8bc fd02 77bd
00000050: efdd e83d 8121 a03d f5a8 173e 4352 443c
00000060: da1d 5bbd d6b6 26bd 6b54 2ebd 5e57 55bd
00000070: 22db 35bd 60d9 fbbc 2c9d 383d 60cb a73d
00000080: a2ea 103e df46 34be 07e2 fd3d 343d 01bd
00000090: f7cc 1ebe ad70 e03d 28fa b3bd f000 c4bd
000000a0: 89e4 853d 7a18 c13c e862 f43d e0b3 f9bd
000000b0: 6d52 c73d 5559 c73d 6f2b ff3d a155 72bd
000000c0: a36d b93c 57ca 843d 1589 2e3e 38a9 edbd
000000d0: b576 16be 78be 26be 00b2 ab3c 8f25 10be
000000e0: 1589 1dbd ea13 b3bd 35d5 d43c 6621 f8bd
000000f0: 6e56 d93d 51c0 28be be08 bbbd 9f02 4a3d
00000100: 0dbb 39be 1b46 383d 6a2d 71bd a669 9fbd
00000110: 08d2 e93d 280e 8dbd d73d 3f3d b2fe 54bd
00000120: 5257 c03d 2a48 1f3e 4a3d 313e 0680 c1bd
00000130: 9b0f 31be 9323 f2bd 1d32 0e3d d451 5c3d
00000140: f121 ae3d 97fd a73d fd8e 303e c331 04be
00000150: 268b 17be bd59 80bd 3b8d 073e acc9 08be
00000160: 2105 f33d 9453 043d 8d48 ce3d bfd2 353e
00000170: 7a85 293e 641f 343e f89c 23bd fb91 b4bd
00000180: 87cd 9a3d 3967 173e 840a 0ebc 9ebf 23bd
00000190: 29e2 6fbc cf0f 89bd acf0 c93d d6fe 43be
000001a0: 121e 1f3e 988b 2bbc 771d dfbd 263c 83bd
000001b0: e3d5 dcbd 766b 1abe 5889 cd3c a079 21bd
000001c0: 52d7 a8bd 90b2 94bc 8eaa c2bc 09e9 913d
000001d0: bc01 03be d71c 01bc fa84 89bb 3794 18be
000001e0: 639e 233e adc7 b2bd 5389 0b3e 3e49 0c3e
000001f0: 2dd1 513b 32d3 0e3e 042b 01be 00af 36bc
00000200: 11f1 12be bba8 e5bd fce9 2d3d 35c8 0b3e
00000210: d39e bebd ef13 9fbd 93d0 b3bd 9c3b f8bc
00000220: 871c 10be 4b62 15be d944 1ebd 0d9a 303e
00000230: 938f 063d c8dc 8bbd 2697 f43d 9526 033e
00000240: 6677 e93d f79a 7e3c 9d44 99bc 4c60 d93d
00000250: 4844 df3d 1947 fc3d 1989 ff3d b36c 67bd
00000260: 2203 123e c2f6 f03c 9ee8 2d3e 08d5 373e
00000270: ab63 143e 647f 073e 78a9 163e ef55 9ebd
00000280: 00a8 91bd 9ba4 3fbd e409 d5bd e1b4 093e
00000290: d290 df3c 8e94 52bd 2552 89bd ef5a 2fbe
000002a0: c77a 973c 6e48 183e 60f8 ed3d b209 113e
000002b0: 001a fe3d e37c a33d 43a9 c7bb 1912 08be
000002c0: 4d52 083e 1cd8 e6bd a7dc ddbd 0c2c 7d3d
000002d0: c600 e13d 3e8e bfbd 3a69 df3d fd68 30be
000002e0: 3e90 103d 7beb 923d afc9 d63c a8b6 c3bd
000002f0: 830d febd c25f 163e ee70 3c3d 87e2 93bd
00000300: 75dc 1f3e 6f3e 22bd b477 39bd 9562 3f3d
00000310: 1b2f 233e ef50 a8bd 2f6a 353c c1be c2bd
00000320: 80b6 9ebd b5c1 e0bc e8bf 04bc e8f3 c13d
00000330: bc21 07be bc8a d53d 7078 0c3e 2d5c a0bc
00000340: 01d2 17bc cb1a 683d 120d 26be b8d4 013e
00000350: 365c 87bc 7170 4e3b c8a5 c43d 76d5 8f3d
00000360: 6ede abbd f246 08be dc26 32be ffc7 18be
00000370: bec8 20bd 8bd3 06be b942 0bbc 240d c2bd
00000380: 9f6a bc3d b5a3 033e 3bba 253e 3811 fdbd
00000390: 2d01 0ebe 19d3 8f3d b820 56bd 8091 163e
000003a0: 70da 2ebe c3ee 303e a18f 00be 50c8 15be
000003b0: 07cf c8bc 1818 b1bd dc35 edbd 87cb d73d
000003c0: 8261 163e c05d b23d d62e c13c 90c8 77bc
000003d0: 4e77 e0bd 3922 2f3e acc2 b8bd 4c58 15be
000003e0: 6aa3 223e 8537 bebb eab6 023e 0230 87bd
000003f0: 2fd5 133e 5c91 09be cca3 ce3d 3eb5 043e
