lightning_logs/version_1/checkpoints/epoch=170-step=2052.ckpt (torch, 145296 bytes, 63 tensors)

rnn.weight_ih_l0 f4 [32, 11]
00000000: 6d74 99bd b7b6 1d3e 87a9 00bc a6b2 50bd
00000010: e40d b83c 3866 cdbd 371a d5bd eabd f23d
00000020: a0c3 9d3c 3c0c 1e3d 19c9 773e 3a74 a73d
00000030: 1cce d1bd baeb 1fbe 625c 1abe 62e3 04be
00000040: 51e3 b13d 2000 903d 0dff 023d 893d f43b
00000050: 2bd4 49bd 6327 08bd f95a 50be c326 b7bc
00000060: 367c 03bc 007c 183e d826 753c 6e67 2dbe
00000070: 11f7 0e3d 7208 cf3c 666e a1bc ee1d 19bd
00000080: 1332 3abe 250b 15be 233d b63c d38b 133e
00000090: acdd a0bc aee2 fe3c 5ebb dd3d 4759 b0bd
000000a0: 498b 13be 2559 d03c 527f ebbd d701 533d
000000b0: 414b 163d 64cf 2e3e bebb 0ebd 95c8 0fbd
000000c0: af39 2f3e 45f6 fa3d 47ec a6bd 0cf9 f63d
000000d0: bc98 10be 053a 98bd 341e adbd 7596 1e3e
000000e0: a7ea 63bd 8ed0 453e 4a1c 28bd fa52 c9bd
000000f0: ef6b db3d eda7 2d3d 901b 153e f060 3d3e
00000100: 290b 1aba 31b3 cabd f8a2 07be 385e e4bc
00000110: 94d4 81bd 96f0 2fbd 8ec6 ae3c 652c 67bd
00000120: 059e 5fbd 4aa2 3cbe 18d5 d8bd e34a 093e
00000130: e2b9 a5bd fbff 0e3e dbec 2b3e 9bc1 1dbd
00000140: dec9 af3d 8384 c6bc 1ca9 68bd 0eb6 a4bd
00000150: c69f 1cbe 51c0 3abc 2329 893d 7a44 32bd
00000160: 9319 103e cb74 193e f2a0 2bbd 1963 a93c
00000170: 3e18 013e 506a f9bd e210 b5bd 7bb9 1d3e
00000180: c2d2 c93d 4344 ffbd 9bd2 f13d 8d0f cabd
00000190: 231d b43d cc62 0ebe 1167 0abe 0953 e7bc
000001a0: ce04 313e a08d 2dbc de08 3cbe f25c eabd
000001b0: f75c 1ebe 2965 693d 1593 f93d 60b0 063e
000001c0: 182a bfbc d7e0 d43d 7c5f db3d 25cc 41bd
000001d0: d08d 8cbc a20c e93d 3ba0 12be fd3a b1bd
000001e0: db28 103e fd8c 3cbd e84b c1bd 1df5 0abd
000001f0: 31f5 c1bd 2b3c c7bc ccb4 0dbe 3bb1 a1bc
00000200: 0a6b ca3d 1107 133e 4575 603d 0846 64be
00000210: 14c1 853c 7e08 2fbd af1b 283e 9da5 103e
00000220: e925 f93d 25a4 9bbd 29eb 473d 455f 8c3d
00000230: 4a29 653b 1d0b 9fbd b823 013e 53c1 d6bd
00000240: b622 b13c 12e4 fabd b95a c93d 4455 1d3d
00000250: b9ac 1ebe 0a70 d03d 4236 a93b 3987 04be
00000260: f689 02be efde e53c fb51 8cbd 7924 8a3d
00000270: 2b3b a13c 2c11 1e3d 89f0 3cbe d8d9 bd3d
00000280: 206f 1cbb 03d5 223e 8165 e43d e285 e13d
00000290: 9eb4 393e e734 3d3e 5c42 28be 225e 9e3d
000002a0: d68f 25be cff4 b33b d3f7 3a3e 10bd 083e
000002b0: 1919 ff3c bae5 81bc 60df 263d 4fd2 093e
000002c0: c767 b43d b613 6d3d 7e9e e53c b704 ccbd
000002d0: 5aec 31bd 8155 8d3d ac0c f8bd 7d86 403e
000002e0: d26c 973d 32e1 3e3e b781 5a3e a49f 5d3d
000002f0: 000d 05be 09d3 cdbd e193 093d d007 3fbd
00000300: 5fc7 c8bd ec27 eb3d 063b bc3d fe5f 4cbe
00000310: 64cc 38be 455e ae3d dac9 cdbd 68b7 84bd
00000320: 1e7e 083e 6466 d53d fbac 0ebe ad44 483e
00000330: 16f2 113d 03c8 05be 15cd ff3c ede3 76bc
00000340: 848b 083d 074f cabd 9e28 75bd 5c81 d23d
00000350: b931 433c 316a 0e3e add7 9cbd 61eb 693d
00000360: f786 cfbd baab 0b3e 653f dcbd 2c09 33be
00000370: 767f 88b6 d4a4 9c3d ff9b 05be d5d6 d23d
00000380: ff7b ddbd 76b4 b5bd ac66 11be b9a5 afbb
00000390: ae14 aa3b 5655 2abe 023c 35bd 5869 39be
000003a0: fd0e 303d 57a6 96bd 7fc2 dabd 68d7 f23c
000003b0: 69a8 253e b89a f6bd ca6d 043e 5e07 1f3e
000003c0: bce6 3fbe 5ef2 8e3d bf45 4bbd bc37 d2bd
000003d0: 9fe5 5a3d 367c 7e3d 3e08 edbd 3cc2 d3bd
000003e0: d377 d0bc 9c79 40be 0e73 3abd 0069 a1bd
000003f0: 856e 21be 2417 b9bd de70 14be f45a 843c
-0.074929096 0.15401731 -0.0078529185 -0.050951622 0.022467561 -0.10029262 -0.10405391 0.118526295
0.01925832 0.038585886 0.24197806 0.08176465 -0.1024439 -0.15617266 -0.15074304 -0.12977365
0.08685935 0.07031274 0.031981517 0.0074536246 -0.049274605 -0.033240687 -0.20347203 -0.02235735
-0.00802522 0.14891052 0.014962874 -0.16933987 0.03490359 0.025272582 -0.019705962 -0.03738206
-0.18183164 -0.14555033 0.02224595 0.14408807 -0.019636951 0.031113949 0.10826753 -0.08610778
-0.14408602 0.025433132 -0.11498894 0.051515426 0.03669286 0.170713 -0.034847014 -0.0351034
0.17111848 0.122540034 -0.08150535 0.12059221 -0.14120764 -0.07432941 -0.084530264 0.15487082
-0.055643704 0.19317839 -0.041042604 -0.0983028 0.10713946 0.042396475 0.14561296 0.1849401
-0.0005876297 -0.09897459 -0.13245761 -0.027876958 -0.06339374 -0.04295405 0.021334913 -0.056438822
-0.05459406 -0.18421283 -0.105875194 0.13407473 -0.08092095 0.13964836 0.16789572 -0.038514715
0.08583425 -0.024233108 -0.0568019 -0.08042537 -0.15295324 -0.011398391 0.06697299 -0.043522336
0.14072256 0.14985959 -0.041901536 0.020677136 0.12606904 -0.121784806 -0.08841111 0.15402786
0.09854652 -0.12464192 0.11807748 -0.09866247 0.0879462 -0.13904876 -0.13515879 -0.028237836
0.17286989 -0.010592848 -0.18362758 -0.11443509 -0.15465151 0.05698124 0.12186257 0.13153219
-0.023335502 0.10394447 0.107115716 -0.047313828 -0.017157465 0.11379363 -0.14318936 -0.08653829
0.14078085 -0.046032894 -0.09438306 -0.033925164 -0.09470595 -0.024320683 -0.138385 -0.01973783
0.09883697 0.14358164 0.054799337 -0.2229234 0.016327418 -0.04273271 0.1641681 0.14125676
0.12165434 -0.075996675 0.04880825 0.06854109 0.0034967237 -0.077657916 0.12611282 -0.104860924
0.021622997 -0.12250532 0.09831757 0.038411394 -0.15495576 0.1017762 0.0051639387 -0.12942208
-0.1274794 0.028060405 -0.06851574 0.06745238 0.019681534 0.038590595 -0.18451132 0.09270066
-0.0023869947 0.1590157 0.11152173 0.11011864 0.18135306 0.18477212 -0.16431564 0.07732798
-0.1616815 0.00549183 0.182586 0.13353372 0.031139897 -0.015856612 0.04074037 0.13459133
0.088088565 0.057880126 0.028029677 -0.09961837 -0.043438293 0.06901074 -0.12111792 0.18801303
0.07393803 0.18640593 0.21338545 0.054107323 -0.1299324 -0.100500174 0.033588294 -0.04663831
-0.09803652 0.11482224 0.09190945 -0.19958493 -0.18046719 0.08514074 -0.10048266 -0.064802945
0.1332936 0.1041992 -0.13933174 0.19557448 0.03563126 -0.1306458 0.03122572 -0.01506899
0.033336177 -0.098783545 -0.05985319 0.102785796 0.01191371 0.13907696 -0.076583244 0.05710924
-0.101331644 0.13639727 -0.10754279 -0.17483968 -4.0679543e-06 0.07648626 -0.13047789 0.10294882
-0.10814666 -0.08872311 -0.14199322 -0.005360332 0.0051904535 -0.16634116 -0.04424668 -0.18106592
0.042983044 -0.073559456 -0.106816284 0.02964373 0.16177525 -0.12041229 0.12932506 0.15530154
-0.18740362 0.069798216 -0.049627062 -0.10264537 0.05344164 0.062130176 -0.11573838 -0.10339782
-0.025447762 -0.1879639 -0.04551988 -0.07881355 -0.15764816 -0.09037617 -0.1449618 0.016156651

rnn.weight_hh_l0 f4 [32, 32]
00000000: e88c acbd ea8f 073e a2de 483c 7fd9 a63d
00000010: 8137 c3bd 151b e6bd 4a6a 433d 8d08 08be
00000020: fd04 aebd 73f9 9abd 4986 9ebd 7542 2bbe
00000030: 516d 5bbd 1c35 533d ca33 b63d 586e 02be
00000040: eea5 1a3e 6b5c c3bd 2db7 c2bd 0b20 31be
00000050: 0692 1bbe a26e 5abd 9ff4 683d 8860 003d
00000060: 18ef debd 65a6 893d ee49 1abd 9000 323d
00000070: b7ec 0dbd 2d5b 68bc ae9a e5bd 3b1a d73b
00000080: 2a95 8abd 78b0 de3d bfaf 31bc f677 443e
00000090: ea52 223e f020 123c f100 30be 3ec0 d2bd
000000a0: 2385 9abd 7fb6 953d 467f 21be a009 0f3a
000000b0: 30ec d93b 807a 46bd 42a3 e23c 7d06 4b3d
000000c0: c31e 0dbd 3c7f 24bd f34f be3b 819c 2fbd
000000d0: 9ffc 013e b3b4 263d 4a62 3abd 763b ce3b
000000e0: 26cb f33c 7f86 323e 99d2 1a3e 69da 5c3c
000000f0: 2f72 963c f9f6 b9bd c106 fe3d c0d0 2bbd
00000100: 100a cc3d 2518 28be 017e 26be 34e4 20be
00000110: aa57 253e 8a34 cf3d 383b 163e 8167 38be
00000120: 6dba cf3d 3cf9 053e 1bc5 3d3d 5742 02be
00000130: 3ee8 1e3e 12a6 d5bd 9ba4 ecbd 0c2f b43d
00000140: 4a4b 15be 289b 323e e705 87bd db59 e7bd
00000150: 4eea b23b 1bbc 94bd 5ca0 05be 0244 9b3d
00000160: 6b62 98bd f5e4 08be 2dc1 d5bd 196b 003e
00000170: 36d5 023e b5f3 74bd 1013 023e d096 903c
00000180: 87a4 993d 48d0 a53a e148 0f3e 495f f6bd
00000190: 3d78 91bd 7252 a03d 230e 8ebc f685 1b3e
000001a0: 567d 433e c3c7 86bd 0901 bd3b 3760 063e
000001b0: 5e16 003d 0072 11be d88e 2c3e be26 2b3d
000001c0: 5681 473e ee75 093e f86d 99bc 8356 0e3e
000001d0: dbdd a4bd 4d08 4e3b 9e2c 053e 8cdd 0a3d
000001e0: 110a 1f3d cf80 123e d288 b23c fa05 133e
000001f0: e6d1 c0bc b38a 46bb 55eb 493d 3999 95bd
00000200: a533 df3c 3098 5bbe 26f9 773c f65a b93c
00000210: e2c3 ab3c 124f f13d adb4 95bd f8a2 0dbc
00000220: 3f1d 84ba 1950 c03d dd19 be3c 626a 07bd
00000230: b727 663d 2e78 45be 1ab6 10be fee0 1e3e
00000240: 39d5 cb3d be16 4fbc b55d ac3d d66b dc3d
00000250: 1f87 1fbc ed4f 393c d408 e3bd fc12 f13d
00000260: cfb2 933d d535 313d 40ad 0bbe fc7d 15be
00000270: a464 043e a0d4 cfbd ca9d 4cbc 2e17 1abd
00000280: 1176 98bc e416 fe3d 2522 2f3d 59d8 603d
00000290: 1d98 34bd fafa 05bc 7c49 babd 99d8 0ebe
000002a0: 1236 afbb 0017 43bd 40bd 7fbd 8662 cfbd
000002b0: 4d8f 25be 3ac7 af3d a5d8 d2bd fe95 00bd
000002c0: 6a4a ca3d bfab c33d aea5 11be 2384 8ebb
000002d0: 7876 6e3d 1345 f83d ba59 ad3d fcd4 783c
000002e0: 673d 283e e207 2b3e a075 203e aa11 10bd
000002f0: ccfe 16be a93f ec3d b3b3 843d 87b2 ebbd
00000300: e5a3 d73d 30b3 7f3b 5521 1c3e 6929 88bc
00000310: 1c01 523d 29c0 88bd 9bf2 ef3d d9d9 50bb
00000320: 13c6 913d 9c0c 16be af67 113e c1e3 44be
00000330: f32d 80bc f86d dabc 27fb 2a3d 45bc 093c
00000340: 06d7 8f3d ee6c 253e 0177 683d e6f9 cdbc
00000350: 082a 9abd a1f4 20be 51fe 12be 6d7b 93bd
00000360: d2df c33d ff65 02be 6e19 033e 9918 493d
00000370: 5d3c cbbd 1bcf eabb 82d8 403e f374 f1bd
00000380: acb2 763d d798 2d3e 6531 903d cd93 1d3d
00000390: 166a 35be 0c76 09bd 2e2e 393e c2a3 b3bd
000003a0: cf6f 68bd a6fe 0abc 0be7 9d3d 7c4a 1abd
000003b0: f46b cfbc 216d 323e bdc5 51bd 8b93 cfbd
000003c0: d897 d03c 138f f7bd d21c d4bd 01b0 3cbe
000003d0: 38ae 013d 7399 2bbe ef19 e93d 80d4 3cbd
000003e0: 0127 09be a5a9 a13d 73ff 083e 2cac 51bb
000003f0: 6fd6 d1bc 38ec b43d 7fbb 24be 784a 71bd
-0.08425313 0.13238493 0.012260111 0.08146953 -0.09532071 -0.11235634 0.047708787 -0.13284512
-0.08497045 -0.0756711 -0.077404566 -0.1672457 -0.05357105 0.05156432 0.08896597 -0.12737405
0.1510236 -0.09539112 -0.09507594 -0.1729738 -0.15192422 -0.053328164 0.056873914 0.03134206
-0.10885447 0.0672119 -0.03766816 0.043457568 -0.034649577 -0.014181894 -0.112111434 0.006564406
-0.06766732 0.108735025 -0.010845124 0.19186386 0.15851942 0.008918986 -0.17187859 -0.102905735
-0.07544925 0.07310199 -0.15771207 0.00054564513 0.00665047 -0.04845667 0.027665738 0.049566735
-0.034453165 -0.040160403 0.0058078705 -0.042873863 0.12694024 0.040699672 -0.045503892 0.0062937094
0.029759955 0.17434119 0.15119399 0.013479807 0.018364994 -0.090803094 0.12403632 -0.041947126
0.09962857 -0.1641546 -0.16259004 -0.15712053 0.16146722 0.10117443 0.14671028 -0.18008234
0.1014298 0.13083357 0.046330553 -0.12720619 0.15518281 -0.10432066 -0.115548335 0.08798036
-0.14579502 0.17442 -0.06592923 -0.112964354 0.00546006 -0.07262441 -0.13049453 0.07581331
-0.07440647 -0.1336859 -0.10437236 0.12540855 0.12776646 -0.05980273 0.12702584 0.017650038
0.07502084 0.0012650574 0.13992645 -0.12029893 -0.07103012 0.07828225 -0.017340725 0.15187821
0.1909078 -0.0658107 0.0057679457 0.1312264 0.03127133 -0.14203644 0.16851366 0.041784994
0.19482931 0.13423893 -0.018729195 0.13900189 -0.08050128 0.0031438053 0.13005301 0.03390269
0.03882796 0.14306949 0.021793757 0.14357749 -0.023537587 -0.0030295074 0.049296696 -0.073046155
0.027246306 -0.21444774 0.015135085 0.022626381 0.020967428 0.117826596 -0.07309852 -0.008644812
-0.0010079517 0.093902774 0.023205692 -0.03306044 0.05619022 -0.19284126 -0.14131966 0.15515515
0.09952778 -0.0126396995 0.08416311 0.107627556 -0.009736805 0.01131056 -0.11085668 0.11771199
0.072118394 0.04326423 -0.13640308 -0.1459884 0.12929016 -0.10147977 -0.012488792 -0.037619762
-0.018610986 0.1240671 0.042757172 0.054893825 -0.04409038 -0.008177513 -0.09096047 -0.13949813
-0.005347022 -0.047629356 -0.062436342 -0.10126214 -0.16167946 0.08582921 -0.10295228 -0.031393044
0.098774746 0.09554242 -0.14223358 -0.004349248 0.05821845 0.1212255 0.084643796 0.015187498
0.16429673 0.16702226 0.1566987 -0.035173096 -0.14745635 0.1153558 0.064795874 -0.11508661
0.10529307 0.0039016716 0.1524709 -0.016621308 0.05127059 -0.06677277 0.11716195 -0.0031868129
0.07117858 -0.14653248 0.14199708 -0.19227506 -0.01564691 -0.026663765 0.041743424 0.008406703
0.07023434 0.16154835 0.056754116 -0.025143575 -0.07527548 -0.15718319 -0.14354827 -0.07201276
0.09564175 -0.12734221 0.1280267 0.049095724 -0.09923623 -0.007165802 0.18832591 -0.117898844
0.06022899 0.16952835 0.07040671 0.038471032 -0.1771625 -0.033559844 0.18084022 -0.08771469
-0.056747254 -0.0084835645 0.077100836 -0.03766869 -0.02532003 0.17424442 -0.05121397 -0.101355635
0.02546303 -0.12087836 -0.103570595 -0.18426515 0.03166029 -0.16757755 0.113818996 -0.046101093
-0.13393785 0.07893685 0.13378696 -0.0031993492 -0.025614945 0.08834118 -0.16087149 -0.05890891

rnn.bias_ih_l0 f4 [32]
00000000: 5814 16be 7ef8 233e cd19 17be 007f 1f3e
00000010: 9b3d 123e b80f 4cbd f351 babd 776a 33be
00000020: 060c f63d e095 263d 21b9 27be a194 283e
00000030: df00 ef3d 13ef 963d 1012 a3bd 644f 213e
00000040: df00 e7bd 8699 05be 9c9e 303d b674 0c3e
00000050: c8a1 203e 8757 883d 361c bebd e0fd 373e
00000060: 8433 44bd 5d71 9fbd 1702 b53d 2a28 04be
00000070: 43a8 4b3d b4ee c63d 591d 3dbd 6141 8d3b
-0.14656198 0.16012761 -0.14755936 0.1557579 0.14281313 -0.049819678 -0.09097662 -0.17521082
0.12014012 0.040670276 -0.16379215 0.16462947 0.11670088 0.073698185 -0.079624295 0.15752941
-0.11279463 -0.13046846 0.04312001 0.13716397 0.15686715 0.066573195 -0.092827246 0.1796794
-0.04790069 -0.07785294 0.08838289 -0.12905946 0.049721014 0.09713498 -0.046170566 0.0043107723

rnn.bias_hh_l0 f4 [32]
00000000: 5463 903b 6859 8bbd 04f2 c53d 1937 efbd
00000010: 3cd1 2d3d 06b2 29bc 9ac6 f8bd c4d7 edbd
00000020: 68e6 6ebd ca11 693d 0e6e 953d 9412 cbbd
00000030: 8dc1 0abe 08e0 93bd 4f69 bc3d 68d5 0f3d
00000040: 7752 8e3d 04f1 503e 8a0e 013e e5bb a73d
00000050: d6f9 a2bc e912 e83d e879 3a3e c2cf 2f3e
00000060: 60a7 1c3e d265 073d c974 5b3d 093d e7bd
00000070: a5d0 193e 8f63 043b d523 cfbb 0f84 313e
0.004406372 -0.06804162 0.096653014 -0.11680431 0.04243587 -0.0103573855 -0.12147255 -0.1161342
-0.0583252 0.05690173 0.07296382 -0.09915653 -0.13550396 -0.07220465 0.091997735 0.03511563
0.06949323 0.2040444 0.12603202 0.08190135 -0.019894522 0.11331732 0.18210566 0.17169097
0.15298223 0.033056088 0.053578172 -0.112909384 0.15020998 0.0020200943 -0.00632141 0.17335533

rnn.weight_ih_l1 f4 [32, 32]
00000000: b556 43bd d309 b13d e43f f63d 599c f7bc
00000010: d4c1 14be 4af2 a3bd b4ca 153e 9c46 8cbd
00000020: ecc7 603d 169d 323e 7520 58bd 3617 c03c
00000030: 3c7c 093e 9b54 c1bd 25c5 52be 509c b2bd
00000040: 7aad c6bd 3283 ccbd 048e 0e3e 0139 433e
00000050: 094a 293e 0db4 413d a7ff fdbc da27 e83d
00000060: dcb0 2b3d 8a55 3a3e 2bb7 023e f797 393d
00000070: 4282 2f3e bf1a e7bc 5782 04bd f043 013d
00000080: 2bb8 30bd 824f 343d 73c2 6fbd e4aa 5a3d
00000090: 1979 093d ddca fe3d 9a68 a7bd 4820 aabd
000000a0: bc8f f53c 2164 c53d b235 0ebe df51 72bd
000000b0: ac50 153e c5b5 94bd babe b93c b0d1 05bd
000000c0: 7445 1ebd af16 9e3b 888f 19be 53b6 07be
000000d0: 5c43 ae3d d395 4cbc 4719 26be 9e3a bcbc
000000e0: f586 143e 9793 00be 385f 883d 7580 b93d
000000f0: 789f 50bb ea55 093e 8077 10ba e433 abbd
00000100: c8fe b2bd dc4d ae3d 17f5 923d ffe4 29be
00000110: c076 e43c 9761 34be 0a90 2d3e 5eda a43b
00000120: 25c0 033e 25ab 24be 552c 153e 7fd4 303e
00000130: e7f7 233e db25 dc3d 3748 bdbd b746 b03d
00000140: 706b 2c3e 5eca 2abe 987e d8bd 8f21 75bd
00000150: 384d ffbd d693 853d 658c 40be 8b61 1f3e
00000160: 2f48 fc3c 2653 8f3d 10c8 1abe 9ed5 10be
00000170: 1774 1ebe 598f ddbd 5f04 a9bd 1cc2 03bb
00000180: 2faa e03d 84fd 2bbe 6c30 efbd 9dec 9e3d
00000190: a493 5a3e 6fe3 48bd 860f 2fbe 7ff4 e43d
000001a0: aecd 483e 5d78 9dbc fe7c 103e 32aa 47be
000001b0: c4d8 27bd e9d2 d0bd b5bb 47bd fed2 fc3d
000001c0: c22a 98bd 4b17 0a3e fd3f 453e ce43 d0bd
000001d0: 299e c43d a703 33be 83d2 3cbb fa4c 13be
000001e0: 72ac ba3d c803 cb3d a087 25be 257d 653c
000001f0: 5c17 a23b f8be 84bd 33bb 82bd cb38 163e
00000200: 1c33 b33d 4023 963d 1bd6 e93d ab17 bfbd
00000210: 7d0e 8dbd d4ae ee3d 93b4 ba3d 664a 07be
00000220: 42a0 c43b 3c6d ec3d df61 b93d 1da9 a0bd
00000230: 03d7 a9bc bfd3 133e 61ea a73d 0106 b8bd
00000240: f755 dd3c c2ff 1c3d afaa 3bbe 4d9a d03d
00000250: 0189 15be cf96 053d 1c72 7bbd 68c9 13be
00000260: 8b1d 273d a255 103e d91c a03d c168 383e
00000270: 920b 953d 8188 0cbe e335 043e 9513 673d
00000280: 4064 a83d 4401 adbd 7587 f7bd 1cc3 0cbe
00000290: c75e 903d e09e 263e 8ab3 21bc d9f4 bebd
000002a0: 9cc3 0f3d f359 67bc b490 1a3e d4cf c9bd
000002b0: b723 473e 8756 093e ff4a 67bc d528 efbd
000002c0: 1796 073e ba93 1fbe b0d7 1c3e d67c b53c
000002d0: 1350 343b f977 c0bd 34de d53c a87b 693d
000002e0: 47a0 bdba 7385 48bd 703c 21be 6ea6 523d
000002f0: 62b6 6dbd a076 67bd 40dc bbbd 0ab7 35be
00000300: 177c 1ebe 6678 2c3e c018 ee3d f109 e43c
00000310: 9f85 b0bd 2819 20be cc11 fcbc cc79 313e
00000320: 6c32 edbd 2483 853d b79a 46be bb45 783e
00000330: 64f4 76be 3f10 4c3d 572c f23d a2f8 b3bc
00000340: c91b f33d 9f74 253c fc0b 49be 10db 4a3d
00000350: 38f7 6bbd bd5d d7bd eab1 80bd cf16 cabd
00000360: cbce e43d de79 ecbc 7069 703d 710e 26be
00000370: c39f 9bbd 62ac 2abe 0dd5 a63d 3e5b 443e
00000380: a3d4 e9bd 2841 27bd ae00 a53c f699 d9bd
00000390: 9fae 10be 376a 93bb 795c eebd 2321 87bd
000003a0: a4fc fabd d0ad b23a 2a4a 2e3e cea6 2ebe
000003b0: 498c 4a3e 5379 33bd b7b1 8a3d 30f3 243e
000003c0: 008a a83d e895 9a3b c4a1 103e 1906 1fbe
000003d0: c237 20be 8ac0 98bd 5584 78bd 1d8e 12be
000003e0: 74b8 f93d 3873 0abe 3e40 d13c 5aea abbd
000003f0: e392 84bc a44b 00be 259d 463d 7d67 9bbd
-0.047690112 0.08644452 0.12023905 -0.03022592 -0.14527065 -0.08005197 0.14628106 -0.06849405
0.05487816 0.17442736 -0.05276533 0.023448568 0.13426298 -0.09439965 -0.20583017 -0.087212205
-0.09701057 -0.09985961 0.13921362 0.19064714 0.16532148 0.04729085 -0.031005694 0.11335726
0.041916713 0.18196693 0.12765186 0.04531094 0.17139533 -0.028210996 -0.032350864 0.03155893
-0.043144386 0.044021137 -0.05853505 0.05338563 0.033562753 0.12441037 -0.08174248 -0.083069384
0.029975764 0.09638239 -0.1388767 -0.05916011 0.14581555 -0.07261232 0.022673953 -0.032670677
-0.038640454 0.0048244814 -0.14996159 -0.13253145 0.085089415 -0.012486893 -0.1622058 -0.02297717
0.14504607 -0.12556301 0.066587865 0.09057704 -0.0031833332 0.1341168 -0.0005510971 -0.08359507
-0.08740002 0.08510944 0.071756534 -0.16591261 0.027888656 -0.17615353 0.16949478 0.005030914
0.12866266 -0.16080911 0.14567693 0.17268561 0.16012536 0.10749408 -0.092422895 0.08607238
0.16837859 -0.1667876 -0.10571021 -0.059846457 -0.124659 0.06522338 -0.18803556 0.15564553
0.030796139 0.06998281 -0.1511538 -0.14143988 -0.15473972 -0.10818357 -0.08252787 -0.0020104712
0.1096996 -0.16795927 -0.116791576 0.07759974 0.21345383 -0.049045023 -0.17095765 0.111794464
0.1960971 -0.019222433 0.1411018 -0.19498518 -0.04097821 -0.10196478 -0.048762996 0.12344931
-0.074300304 0.13485448 0.19262691 -0.10169183 0.09600479 -0.17481862 -0.0028811998 -0.14384833
0.091149226 0.099128306 -0.16165018 0.014006888 0.0049466323 -0.06481737 -0.06383362 0.14670102
0.08749983 0.07330942 0.114177905 -0.09330686 -0.06887529 0.116544396 0.09116473 -0.13211975
0.0060005495 0.11544272 0.090518706 -0.07844756 -0.020732408 0.14436243 0.08199001 -0.0898552
0.02701853 0.038329847 -0.1832683 0.101856805 -0.14603044 0.032614525 -0.06138812 -0.14432299
0.04079966 0.14095166 0.07818002 0.1800871 0.072775975 -0.13723947 0.12911181 0.05641516
0.08222246 -0.08447507 -0.12086383 -0.13746303 0.07049327 0.16271544 -0.009869466 -0.09324045
0.035098657 -0.014120567 0.15094262 -0.09854093 0.19447218 0.13411914 -0.014117002 -0.1167771
0.13240848 -0.15583697 0.15316653 0.022154253 0.0027513548 -0.09397883 0.026106931 0.057002693
-0.0014467322 -0.048955392 -0.15745711 0.05142825 -0.058035262 -0.056509614 -0.09172869 -0.17745605
-0.15477024 0.16842803 0.116258144 0.027836772 -0.08619236 -0.15634596 -0.030770205 0.17331618
-0.11581883 0.06519154 -0.19394957 0.2424535 -0.24116665 0.04982018 0.118248634 -0.021969143
0.11870534 0.010098605 -0.19633478 0.04952532 -0.057608813 -0.10515926 -0.062839344 -0.09867632
0.11172255 -0.028866705 0.058694303 -0.16216446 -0.075988315 -0.16667321 0.08146105 0.19175431
-0.1141751 -0.040833622 0.020141926 -0.10625069 -0.14129113 -0.004498746 -0.116387315 -0.06598117
-0.122552186 0.0013632122 0.17020479 -0.17055818 0.19780077 -0.043816876 0.06772178 0.16108394
0.082294464 0.0047175772 0.14124209 -0.1552967 -0.1564627 -0.07458599 -0.060673077 -0.14312024
0.12193385 -0.13520515 0.025543328 -0.083943084 -0.016183322 -0.12528855 0.04848971 -0.07588098

rnn.weight_hh_l1 f4 [32, 32]
00000000: d158 0c3e 50b2 1fbe a053 b63d ce8e ed3d
00000010: f367 053e 2be5 f3bd d00d 57bd 528f 8c3d
00000020: 040e 1e3e 907b 1ebe ab5a 0b3e 4fe2 0cbe
00000030: 27c4 073e f49e 2d3e 0ef2 58bd 294d 283e
00000040: 04f8 21be fd8b c7bd a5c6 bebb a4b8 31bc
00000050: 2768 013d cbe0 1cbe 98f2 eb3c ea86 04be
00000060: 048c 213e 5122 d3bd bb71 8bbd d48c 693d
00000070: 449c 213e b2f6 03bd 971b ca3c 34ea c33d
00000080: 0d45 a2bd 4b3f b73d 8918 17bd b3b3 183d
00000090: fab9 ee3c 427c 0bbd 832e 83bd f57f 26be
000000a0: aa57 c73d bba4 cf3d ce44 5e3d c8e8 783d
000000b0: 271e 4f3d ebcc a83c 4f27 9f3d b7f9 8c3d
000000c0: 1604 993a 39de 8fbd 561e d9bd 6959 04be
000000d0: f311 f2bd 5892 8f3d dbf7 2dbe 82fa 373d
000000e0: 29ef a3bd fb70 28be 9e7b c43d 8a8b 4fbe
000000f0: 6d53 d7bd d0e6 c03d aba8 fcbc e9c1 27bd
00000100: 9079 1abe ad99 e6bd 0d91 b0bc ef36 20be
00000110: df8f ad3d 8632 1bbe 5a01 723d e74d ca3d
00000120: cc79 5d3d 2f3c a9bd 0053 253e 21b2 0fbe
00000130: 11db 1ebd ed21 d93d f8d6 ab3d 20c4 a43d
00000140: 4b2e 0c3e 201c e63d 883d 98bd cea7 8fbd
00000150: 28de 24bc d3e5 883d 9e2d 0e3e 7c52 ee3d
00000160: a231 f33d 1c28 cdbd 2928 003e 75fb 3f3d
00000170: 8fbd 67bd dda4 c1bd 2203 cc3d b4b4 e13d
00000180: eaac b4bd 8ae9 163d 0a42 18be 3de1 593e
00000190: 9c7a d7bc a151 91bd c666 98bd 94b9 19bd
000001a0: 4ca1 d6bb 113f 013e e580 ef3c 57ba e93d
000001b0: 030c e5bc 73f3 1c3c ff07 14be 3f23 c33d
000001c0: fd0b 573c 6828 ff3d a65c 52bd 198e 883d
000001d0: f181 083e 43d0 7dbd fc73 1abe 9cb3 d3bd
000001e0: 64df 5d3d 01e8 34bd 8eb2 3dbc d2b5 e5bd
000001f0: e236 d63c f146 63bd 2a22 49bc ae36 353e
00000200: e2f1 133e 3c2b a73d 0970 1ebd 2b1e aa3b
00000210: 7d66 85bc e0f4 363e 0315 0e3d 02f5 bb3d
00000220: a765 043e de56 83bc fafe 8cbd 6553 073e
00000230: 7604 d13d e16b 083e bb16 9a3d 78a6 f63d
00000240: c539 113e 7727 67ba 1ccc 4cbe 85dd f63d
00000250: 8ac3 cabd 8812 17be 76dd 163e be6e 14be
00000260: a789 cb3d 21fc 0f3e 0341 d2bd e46e 08bd
00000270: b4c4 65bc 9fbb 9ebd 2868 8d3d 9204 63bc
00000280: 77d2 d23d 13b1 c63d f6f3 863d 9ec9 1fbe
00000290: 1a07 ef3d 5103 e3bd 2a66 643d caff 39bd
000002a0: b97a 1cbe 0239 1cbe a990 9dbb 7a07 8abd
000002b0: 8087 03be 5f43 fd3d dcd2 213e 7f33 093e
000002c0: 2bf1 073e 8494 ebbd dd32 c13d a935 013b
000002d0: e49b 593d 5c00 fbbc c141 343d 63fc 20be
000002e0: 6c9b aabd b3d5 acbd 9a01 263e 0938 66bc
000002f0: 0cac 16bc fd1a 683d 93f2 273d a257 2d3b
00000300: feb2 0c3e 13ed 2d3e 9eb0 ecbc 45e9 59be
00000310: 30ee 8bbd 16bd 043c 3f9c 64bc 41a4 5dbe
00000320: 6d67 21bd 2864 0b3c 19ef 87bd 07b8 abbd
00000330: 19b0 623d dbf2 87bd 925f 57be 4743 96bd
00000340: 2586 89bd ee6f 25be fe00 923d b990 13be
00000350: 5ea9 ef3d c64b 5dbe d304 503d cc6b debd
00000360: 2015 27be b395 243d cbd2 c8bd 10b8 fbbd
00000370: ba9f d2bd b77e 393e 0fc6 2bbe 9ca7 903d
00000380: 58ad c5bd 10f8 1dbe c255 05be ffd0 693d
00000390: 4e97 e3bd ca0c 3f3e ea60 c83d 1bc3 a4bc
000003a0: 6453 d73d cc1d 29bd 6ee6 053e 7d0c 223d
000003b0: 4a37 4abd b69b 0fbe bfa9 103e 6738 a43d
000003c0: 0feb 30bd da3b ac3d 9c6a 31be ce7e 06bc
000003d0: 2046 b13d 427e dbbd 90a1 f5bd c9e1 2b3e
000003e0: ace2 263e d653 d23c 4968 acbd 42f3 253e
000003f0: 5e0a 36bd 740a 34be 60b6 013c 59aa febd
0.13705756 -0.15595365 0.08902669 0.115995035 0.13027935 -0.11908945 -0.052503407 0.06863274
0.15435034 -0.15476823 0.13608806 -0.13758205 0.1325842 0.16955167 -0.052965216 0.16435684
-0.15817267 -0.097434975 -0.00582202 -0.010847244 0.031593468 -0.15320127 0.028802201 -0.1294209
0.15776068 -0.1030928 -0.06808802 0.05701907 0.15782267 -0.03221769 0.024671359 0.09566155
-0.07923327 0.08947619 -0.036888633 0.03728075 0.029141415 -0.03405405 -0.06405356 -0.16259749
0.097335175 0.10138842 0.054264836 0.060768872 0.050565865 0.020605525 0.077711694 0.06883567
0.0011674191 -0.070248075 -0.10601489 -0.12924732 -0.1181983 0.07010335 -0.1698908 0.044916637
-0.080046006 -0.16449349 0.095938906 -0.20268074 -0.10513959 0.09419024 -0.030842146 -0.04095641
-0.15085435 -0.1125978 -0.02155354 -0.15645956 0.08474707 -0.15155992 0.05908332 0.0987814
0.054071233 -0.08263432 0.16144943 -0.14032795 -0.038783137 0.10602174 0.083906114 0.080452204
0.13689534 0.11235833 -0.07433611 -0.07014428 -0.010062732 0.066844605 0.13884589 0.116368264
0.11874701 -0.10017416 0.1251532 0.046870667 -0.05657726 -0.09455273 0.09961535 0.110207945
-0.08822043 0.036843814 -0.14868942 0.21277328 -0.026303582 -0.070956476 -0.074414775 -0.037530497
-0.00654999 0.12621714 0.029236266 0.11412495 -0.02795983 0.009579527 -0.14456175 0.09528207
0.013125417 0.12458879 -0.051357888 0.06667728 0.13330819 -0.061966192 -0.15083307 -0.10336992
0.05416812 -0.04416657 -0.011578215 -0.1121632 0.026149217 -0.055487577 -0.012276212 0.1769664
0.1444774 0.08162543 -0.038681064 0.0051915846 -0.016284222 0.1786685 0.034688007 0.09177591
0.12929402 -0.016032632 -0.068845704 0.13215406 0.10205929 0.13322403 0.07523867 0.1204347
0.14182194 -0.00088178314 -0.19999737 0.1205397 -0.09900577 -0.14753163 0.14732918 -0.1449537
0.099383645 0.14061023 -0.10266306 -0.03330888 -0.014023948 -0.0775063 0.06904632 -0.01385607
0.10294049 0.09701743 0.065895006 -0.15604255 0.116712764 -0.11084617 0.055761494 -0.045409955
-0.1528119 -0.15256122 -0.0048085046 -0.06739707 -0.12844658 0.12366366 0.15803093 0.1339855
0.13275592 -0.115029365 0.094335295 0.0019715822 0.053127185 -0.03063982 0.04400802 -0.15721278
-0.083304256 -0.084391974 0.16211548 -0.014051446 -0.009196293 0.056666363 0.04100282 0.0026449938
0.13740155 0.16984968 -0.028892811 -0.21280392 -0.0683254 0.008101722 -0.013953268 -0.21644689
-0.039405275 0.008507766 -0.06637401 -0.0838471 0.05534372 -0.06638118 -0.21032551 -0.07337051
-0.06715039 -0.16155979 0.071290955 -0.14410676 0.11702226 -0.21610937 0.05078585 -0.10860404
-0.16316652 0.040181827 -0.098058306 -0.122909665 -0.10284372 0.18114744 -0.16774772 0.07063219
-0.09652203 -0.1542666 -0.13020995 0.05708408 -0.111128435 0.18657222 0.0978411 -0.020112565
0.105139524 -0.041288182 0.13076183 0.03956269 -0.049369134 -0.14024243 0.14127253 0.080185704
-0.04319292 0.08409853 -0.17325824 -0.0082089435 0.086559534 -0.10717441 -0.11993706 0.16785349
0.16297406 0.025674742 -0.08418328 0.16206077 -0.04444348 -0.17582113 0.007917017 -0.12434835

rnn.bias_ih_l1 f4 [32]
00000000: c038 8bbb 61c1 bbbd 4188 25be 34c3 243c
00000010: fc72 04be cf3d 3b3d fe39 06bd 9300 4b3d
00000020: 6072 4c3c dbf1 44bd 7e67 d63d 3d00 f33d
00000030: 059e 083d cf0f cebd 1135 1a3e 75d1 4abc
00000040: d055 68bd fdbe 2d3e 472c 35bc 3be6 813c
00000050: 0977 333e 93bd bf3d f49d 1fbd f83f 0abc
00000060: 3fad b33d d865 0d3e 3e77 28bd 70b1 bb3d
00000070: d944 25be bad6 9abd 9a09 96bd eaf5 94bd
-0.0042487085 -0.091677435 -0.16165258 0.010056306 -0.12934488 0.045713242 -0.03277015 0.049561094
0.012478441 -0.048082214 0.10468958 0.1186528 0.033353824 -0.10061609 0.15059306 -0.01237904
-0.056722462 0.16967387 -0.01105792 0.015856853 0.17525877 0.0936233 -0.038968995 -0.008438103
0.087732784 0.13808382 -0.041129343 0.09164703 -0.16139545 -0.07560487 -0.0732605 -0.07273467

rnn.bias_hh_l1 f4 [32]
00000000: 0526 dbbd 8b3f 99bd 4744 1f3e 220c 9e3d
00000010: d45f 2abd 6bc8 4cbd 5293 2fbe 467a 093e
00000020: c9da ee3d d7ac 143e 3c27 83bd 6594 a93d
00000030: 2813 36bd 84cd 0ebd 0e58 e43d 9960 dd3c
00000040: 2490 05be e20f 563d 475c 233e 39e3 193e
00000050: 5cc3 1a3e c3e2 a2bc b6e6 863d 261e 623d
00000060: d2bf 6dbc b726 bebd e8c2 073d 5156 553d
00000070: afb8 a93d a977 28be 7b4d d0bc 5935 083e
-0.10700611 -0.07482823 0.1555339 0.07717158 -0.041595295 -0.04999582 -0.17146042 0.1342555
0.11662824 0.14519058 -0.06403968 0.08280257 -0.044451863 -0.034863964 0.111496076 0.0270236
-0.13043267 0.05226124 0.1595317 0.15028085 0.15113586 -0.019883519 0.06586973 0.055204533
-0.014511066 -0.09284728 0.03314486 0.05208427 0.08287179 -0.16451897 -0.02542757 0.133016

rnn.weight_ih_l2 f4 [32, 32]
00000000: 1e2c b13d 9b01 3abd 6d3c b3bc fa79 8dbc
00000010: 7d86 e13d 9091 123e f24d cdbc 8152 05be
00000020: f280 36bd 01a3 0ebc 8f04 cabd 2a4f 1d3e
00000030: b52c 01bc 6ca6 be3d 8b5b ab3d 96c1 0f3d
00000040: 595d 8abd 2bf9 8fbb ebb2 b5bc 5300 be3d
00000050: ab56 18be bb39 ddbc d8dd c83d b780 f5bd
00000060: 84df 22be 28b1 59bd 27cf 07be e71b 1b3e
00000070: dbb1 26be 23ba 013d 52a4 c83c 0182 db3d
00000080: 88b5 0ebe 0e32 d73d aaa5 f2bd 323c 07be
00000090: 58c0 353d a1e6 eb3d 91e0 1cbe 6ff5 1e3e
000000a0: 7a06 a93d 16af 293e 66ff 3cbd 28d6 c33d
000000b0: 22ce 6e3d 2364 2c3e c624 d03b fc24 a63d
000000c0: f3cd cc3d 74aa 0d3c 4f1a 71bd 148d 0e3e
000000d0: 3e86 1e3e 28b8 023d dfd9 71bd 0380 2abd
000000e0: b95b 123e 4868 36be 50f1 90bd 6a3a 3e3d
000000f0: 8dc9 89bc 0f56 c63d c933 243c c820 473d
00000100: 8338 2b3d 9587 6c3e b2d9 c1bd b1ff 07bd
00000110: 6422 513e 790e bcbd b6d3 1c3e 27fa 18bb
00000120: 8a85 07be 93db 2c3e d7ad 52be c550 3a3e
00000130: b9b1 313e 3c1e cabd 45c4 673d a929 7d3e
00000140: bebc 7bbd 466c 63be e880 3a3e b631 5cbe
00000150: 9ac8 dfbd a3ea 3d3e c627 023e 54d1 8e3d
00000160: 9c19 83be 0843 46be 8c5a 7cbe 81cc 333e
00000170: 2162 3a3e d2c7 c2bd 3874 abbd dae9 ee3b
00000180: 5578 5fbe b12a b23d 1dc8 aabd 4302 94bd
00000190: f1f0 203d 4549 1d3d 09ae 083e ef78 433c
000001a0: c529 5ebd 907c 91ba 5c7b d0bd 3e9d 3b3d
000001b0: 2594 e13c 8f9b 2cbd 7212 3bbc 371f 0ebe
000001c0: 951e d83a fc07 9f3c a5d5 5c3e 033f 473d
000001d0: 622e 6cbd d050 babd 9c24 243e 8eb8 2cbe
000001e0: 22cc ec3a 4113 9a3d 38dc ad3c f62c 3cbd
000001f0: d5c2 323e 28b8 15be 6a01 46bd 2a3e 433c
00000200: 8d17 4ebe 953c b7bd 823f c6bc b34e a7bd
00000210: 8f07 b5bd 5269 0dbd 0879 993d 3b86 103d
00000220: a4ae 4f3d 7776 c9bd caef febd 297a d13d
00000230: a176 c23c 54c3 d1bd 2e2f 293e ceb8 cdbd
00000240: 8791 03be de3e 8e3c cc8d 4c3e e6c8 cb3c
00000250: 42e9 533d 9158 743c d1d8 8e3d b09c 01bd
00000260: 1ae7 12bd 4059 f73d 346b 23be 71c3 2a3e
00000270: ad5a 313e f5c8 81bc ef68 cd3d f269 873c
00000280: b80c 5b3d 0a55 243d 5d9c 323e b8fe b43d
00000290: 6bd4 ca3d a8c1 01bd 3acd 613d 6a34 e53d
000002a0: 9789 323e 795d a93c 15ee bdbd b891 043d
000002b0: 4b69 b9bd 5f63 2e3e a918 e43b 3f4b 2f3d
000002c0: 94d4 d5bd 8562 11bd bfa8 20be 07d3 d03d
000002d0: 5df7 35bd a62e 7d3d d7c7 fcbd 5478 dc3c
000002e0: 290f babd ede9 90bd c045 43be 4178 333e
000002f0: 9c25 aebb 72ce f73b 2f6c 103e 566a 6cbd
00000300: 562d 5f3e 0b58 a2bd 9c7f 01be dd25 fcbd
00000310: 0bac 0cbe 6b4c 0bbd 9008 0fbe b9c7 19be
00000320: e5a6 0c3b 0185 43be dcfb 343e ae7b 2dbe
00000330: 2e40 1fbd 4103 723a 08fa 05bd 1716 1a3e
00000340: 74c6 9c3c b86e c13d 6e2f 553d 007e be3d
00000350: 1d5a 8b3c fb74 ffbd 8c72 c8bd d545 b7bc
00000360: 97d6 153e 936e 613c de32 e33c 9717 763d
00000370: 22cf 04be 4ce5 0b3e 4258 6abd 4e69 3f3e
00000380: 24aa 72be 59d0 7f3d 4c79 fd3d 3fc0 bdbd
00000390: d251 fd3c 8f88 8e3d 8cbd 703d aa89 803d
000003a0: 7a9d 3cbe a0a7 9b3d 8db0 2fbe 8460 c9bd
000003b0: 5a56 ba3d fc61 8bbd 4bfa 1fbe 065c 17be
000003c0: cc09 86bd 0f84 2a3e c5b3 343d 84f3 58bd
000003d0: 0274 213e f23c 753c 7ac8 043d 6d5e 17be
000003e0: 94d7 44be a9ed bbbd b644 2abe 9d0e 75bd
000003f0: 2988 953d a7cb 943c e5ba e8bd e03e 24be
0.08650993 -0.045411687 -0.0218794 -0.017270077 0.1101198 0.1431334 -0.025061581 -0.13019754
-0.044556566 -0.008705855 -0.09864151 0.1536223 -0.007884194 0.09309086 0.0836707 0.035096727
-0.06756086 -0.004393717 -0.022180041 0.092774056 -0.14876811 -0.027005067 0.09807938 -0.11987441
-0.15905577 -0.053147465 -0.13262616 0.15147363 -0.16278784 0.031671654 0.024492417 0.10718156
-0.13936436 0.10507594 -0.11848004 -0.13206556 0.044372886 0.11518598 -0.1532004 0.15523313
0.082531884 0.16570696 -0.046142004 0.095623314 0.058302052 0.16835074 0.00635204 0.08112523
0.10000219 0.008646596 -0.05886298 0.13921005 0.15480897 0.031913906 -0.05904567 -0.041625988
0.14292802 -0.17813218 -0.07077277 0.046442427 -0.01681974 0.09684383 0.010022112 0.048615247
0.04180194 0.23098595 -0.0946535 -0.03320283 0.20423275 -0.09182448 0.15315136 -0.0023342462
-0.13234535 0.16880636 -0.20574127 0.18194874 0.17352952 -0.09869048 0.05658366 0.24722923
-0.061459295 -0.22209272 0.18213236 -0.21503338 -0.109269336 0.18546538 0.12710485 0.0697352
-0.25605476 -0.19361508 -0.24643916 0.17558481 0.18201496 -0.09510769 -0.08371776 0.007291061
-0.21823247 0.08699549 -0.0833895 -0.07226994 0.03929228 0.038399953 0.13347639 0.011930688
-0.054239053 -0.0011099745 -0.10179779 0.045804255 0.027536461 -0.04214054 -0.011417972 -0.13879095
0.0016488606 0.019412987 0.21565874 0.048644077 -0.05766142 -0.09097445 0.1602959 -0.16867277
0.0018066207 0.07523204 0.021223173 -0.045941316 0.17457135 -0.14621031 -0.048341192 0.011916677
-0.20126171 -0.08947102 -0.024200205 -0.081693076 -0.08839332 -0.03452427 0.07493788 0.035284262
0.05070366 -0.098370485 -0.1244808 0.10228378 0.023738207 -0.10242334 0.16521904 -0.10045014
-0.12848483 0.017363962 0.19975966 0.02487607 0.051736124 0.014913694 0.06974948 -0.03164357
-0.035864927 0.1207757 -0.15958863 0.16676117 0.17319746 -0.015842894 0.1002978 0.01653001
0.053478926 0.040120162 0.1744246 0.08837646 0.09903797 -0.031678826 0.05512736 0.11191638
0.17435299 0.020674454 -0.09273926 0.03236553 -0.09053286 0.17030095 0.0069609475 0.04279637
-0.10440937 -0.035494346 -0.15689372 0.101965 -0.044425357 0.061812066 -0.12342804 0.026912846
-0.09084923 -0.07075868 -0.19069576 0.17526342 -0.005314542 0.007562452 0.14103769 -0.057718597
0.21794638 -0.07926949 -0.12646335 -0.12311909 -0.13737504 -0.034008425 -0.1396811 -0.15017594
0.0021461782 -0.19093706 0.17674202 -0.16941711 -0.038879566 0.0009232052 -0.03270915 0.15047489
0.019137599 0.09444946 0.052047186 0.09301376 0.017010743 -0.12473484 -0.09787473 -0.022372166
0.14632641 0.013759273 0.027734216 0.06008109 -0.1296964 0.13661689 -0.057213075 0.18692514
-0.23697716 0.062454555 0.12376651 -0.09265184 0.030922804 0.0695964 0.058774516 0.06276257
-0.18419448 0.07600331 -0.17157193 -0.09832862 0.090985015 -0.068057984 -0.15622823 -0.14781198
-0.06544837 0.16651939 0.044116754 -0.05296661 0.1576691 0.014968144 0.03241775 -0.14782114
-0.19222862 -0.091761895 -0.16627774 -0.05982839 0.07301361 0.018163515 -0.11363772 -0.1603961

rnn.weight_hh_l2 f4 [32, 32]
00000000: e8b1 953c a96f 2c3e df7f 4c3e 6712 133e
00000010: 15ab 2f3e 4d68 373c f49e ea3c 6da3 c73d
00000020: ee3c 34bd 5253 2fbc a752 953d 3942 f13d
00000030: 0a51 0c3e 1dc3 86bb 78ff bcbd f2e0 183d
00000040: 920d 0cbe eb8a 2cbd 9f59 21be fdb6 19be
00000050: 0dd5 123e 9e16 a93d 804c 1dbd b4d6 0a3e
00000060: e1e9 a03d 153a 953d ae3f 133e a7f0 3f3e
00000070: bdd0 0b3d b769 e6bd 3e1e cebc 93f0 d3bd
00000080: f82d 98bc 6866 40bd b477 323e 0e5a eebd
00000090: 3fed fb3d 6838 ff3d 301a 3a3d 35dc 14be
000000a0: c765 7d3d 85c4 1fbe 9a3a 34bd ee69 a03a
000000b0: c754 0cbe e16d ff3d b814 1a3d 3225 2d3e
000000c0: 4269 d73c 40c1 843d 2ca3 80bd 5356 9dbd
000000d0: 676a c83c 3972 52bd 1dbf 7c3c 6840 1e3e
000000e0: 6fd6 d6bd 89fd a1bd 1b9b 9fbd 84d8 f9bd
000000f0: 89a8 233e 280f 013e cbf7 79bd d1c0 d0bd
00000100: 3a1b 6a3e 5e42 ec3d 3938 5b3e 45fa 5d3e
00000110: 1b4a 09be f5df 4f3e 0469 123e d64c 663e
00000120: 5c7b fa3d d24d 55bd 2c7a 2b3c 669e 013d
00000130: d3c2 42bd f985 5cbd c8b4 443d 26cf 0cbe
00000140: e496 1c3e b6a1 3abe b32c 8b3d bf59 09be
00000150: 085a 8e3d fb2c 093d 752b e13c 43c9 7abd
00000160: 0fcd 01bd 424e 533d 4716 da3d a236 bcbc
00000170: 9a4d 64bd 5ceb 7ebd 33bc 183e 7b77 c23c
00000180: b120 fe3d c2d0 743c 6ac1 533e fad0 efbd
00000190: 2fb1 0e3e a013 9f3d 6025 e93c 07c1 93bd
000001a0: 66c9 33bd 274f 27bd d649 30be 5bc5 be3c
000001b0: e82a 2cbd 45fb 9a3d 7917 db3d e593 573c
000001c0: e370 793c 40f0 5f3d 7632 e93d ffec 4dbe
000001d0: fee0 57bc ab3b 1a3e 32c4 d53c 8ded c13d
000001e0: eff8 d33d d557 f6bd 8863 15be 882c bcbd
000001f0: 8ed4 d23d c8dd 07be fe89 48be 8f4c f6bd
00000200: 2d78 e3bd dae6 8ebd ec52 ad3d 88c1 58bd
00000210: 965c 2bbe 7237 3fbe 877f 0d3e 0e1d 05be
00000220: cf96 4abe 0d2c 093e 12f1 fa3d cf44 8e3c
00000230: b909 56bd c269 803d de18 bfbd 2224 28be
00000240: 1d60 973d c974 06be ed50 063e 404a 63bd
00000250: 6a64 b7bd f776 3e3e 9687 1ebe d89f 97bd
00000260: bde1 683d b941 f53d 400c eb3d ba96 f03a
00000270: 7a50 06bd 3667 693d d2b4 19be c375 54bd
00000280: 18e6 e73c 9f43 d63d 05a4 fdb9 c222 143e
00000290: 5c8c 273d 9d5b 0d3e 8780 c43d b7ab 28be
000002a0: ba00 2d3e 88df 1e3e 615e ec3d de6c 263e
000002b0: 9b2e 0abe 21c1 0abe 9d72 6a3d dc08 4dbd
000002c0: a6ca e13b 701c 02be b972 133d 9a0b 0b3e
000002d0: 78bf 1abc 285d e1bc 44aa 283e 71d4 c6bd
000002e0: 1bd5 dabd fca9 153d b9d7 05be 4b50 19bd
000002f0: 443d f2bd 3d8b 1ebd bfc0 8b3d 1e9d 27be
00000300: 8cd0 083e 23fa 993b 9092 e23d 42bd b63d
00000310: fbb3 26be 8523 87bd 0dab d23d ced0 3ebd
00000320: 8051 01bc bde0 99bd b67d 9c3d 16d2 16bb
00000330: 3e39 233e 743e dd3d d4f5 03be fce8 c2bd
00000340: 4597 fd3d fc5b 233e 81eb 0bbe 7fae 0dbe
00000350: 353b 223e af1e 25be 42d0 10be 24c5 fe3d
00000360: ad44 18bc ad9b 9fbd 4626 bbbd caf1 333e
00000370: 0abd 0c3e df74 9b3d a320 5dbd 7bb2 d9bd
00000380: ed19 5bbd 4493 3b3e ef5c 10be ce71 9dbd
00000390: 6afc 99bd 669d d93d 69c7 313d 3ee0 11bc
000003a0: b989 49bd ba20 02be 2b9d 3c3d 7ed8 9a3c
000003b0: 6f51 fbbc 77df 583d d21a 23be 89c3 ad3d
000003c0: f353 bd3d 97ff 32bd 1696 3cbd d695 233d
000003d0: c55d d3bd eab0 8c3c dea3 fdbc 784d f3bc
000003e0: eca3 babd dc10 57bd 7112 43be 3562 dc3a
000003f0: 3cfe 8fbc 9840 873d 5435 2fbe 9985 033e
0.018273309 0.1683947 0.19970654 0.14362489 0.17155106 0.011194301 0.028640248 0.09747968
-0.04400342 -0.010701017 0.07291155 0.11780209 0.13702789 -0.004112615 -0.09228414 0.0373239
-0.13677052 -0.04212467 -0.15756844 -0.1501121 0.14339085 0.08256267 -0.038403034 0.13558465
0.07857109 0.07286469 0.1437976 0.18744145 0.034134615 -0.11250632 -0.025160905 -0.1034862
-0.018576607 -0.046972662 0.17428476 -0.1163827 0.123011105 0.124619305 0.04543513 -0.14537127
0.06186464 -0.1560231 -0.0440012 0.0012238601 -0.13704215 0.124721296 0.037617415 0.1690872
0.026295308 0.06482172 -0.062811226 -0.07682481 0.0244648 -0.051378462 0.015426424 0.15454257
-0.10490119 -0.07909686 -0.07793256 -0.121995 0.1598226 0.12603438 -0.06102733 -0.10193027
0.22861949 0.11536096 0.21408166 0.21677501 -0.13407175 0.20300277 0.14297873 0.22490248
0.1223056 -0.05207617 0.01046614 0.0316452 -0.04754908 -0.053838704 0.04802397 -0.13750896
0.15291935 -0.1822575 0.06795635 -0.13413142 0.06950766 0.033490162 0.027486542 -0.061227094
-0.0316897 0.051588304 0.1064878 -0.02297527 -0.05573807 -0.062236175 0.14915542 0.023738613
0.12408579 0.01494235 0.2067925 -0.11709781 0.13934778 0.07767415 0.028460205 -0.072145514
-0.04389324 -0.04084697 -0.17215666 0.023287466 -0.042033106 0.07567457 0.106978364 0.013157819
0.015224668 0.05467248 0.11386578 -0.20109938 -0.013176201 0.15061824 0.02609453 0.09469137
0.10350215 -0.120284714 -0.1458875 -0.09188181 0.10294448 -0.13268197 -0.1958389 -0.12026321
-0.11106906 -0.06977625 0.08463082 -0.05291894 -0.16734537 -0.18673494 0.13818179 -0.12999365
-0.19784091 0.1339571 0.12253012 0.017366795 -0.052255366 0.06270172 -0.09330915 -0.16420034
0.07391379 -0.13130488 0.13116808 -0.055490732 -0.08954699 0.18600069 -0.1548141 -0.07403535
0.056855906 0.11975426 0.11476946 0.0018355467 -0.032791592 0.056983195 -0.15010384 -0.05187012
0.02830796 0.104621165 -0.00048378124 0.14466384 0.04090534 0.13804479 0.09594827 -0.16471754
0.16894808 0.15514958 0.11541439 0.16252467 -0.13494341 -0.13550235 0.05723821 -0.050057277
0.0068906127 -0.1270616 0.03599808 0.13578644 -0.009445064 -0.02751024 0.16471201 -0.09708489
-0.10685178 0.036539063 -0.13070573 -0.03743009 -0.11828092 -0.038707007 0.06823873 -0.16368529
0.13360804 0.004699008 0.11063111 0.08922817 -0.16279595 -0.06598572 0.102865316 -0.04658585
-0.007892966 -0.075135686 0.07641165 -0.0023013405 0.15939805 0.108029276 -0.12886745 -0.095170945
0.12382368 0.15953058 -0.13664056 -0.13836096 0.15842898 -0.16124986 -0.14141944 0.12439945
-0.009293717 -0.07793365 -0.091381595 0.17572704 0.13743988 0.07590651 -0.053986203 -0.106297456
-0.05349152 0.18317896 -0.14097951 -0.07687722 -0.07518847 0.106257245 0.043403063 -0.008903561
-0.04920361 -0.12707797 0.046048325 0.01890206 -0.030678479 0.052947488 -0.159282 0.08484561
0.09244528 -0.04370078 -0.04604157 0.039937817 -0.103206195 0.017174203 -0.030961927 -0.029700026
-0.09113297 -0.052506313 -0.19050004 0.0016813936 -0.017577283 0.06604117 -0.17110187 0.12843932

rnn.bias_ih_l2 f4 [32]
00000000: b6d7 1cbd f95d ea3c 4d86 b03d 9f8d e6bd
00000010: fcdd 26be bbf7 2cbe 8118 e4bc 2f86 82bd
00000020: c721 033d 728c e43d 634a ce3c 9d03 1bbe
00000030: e928 b5bd cd83 d53d 829c 93bc 9b2b 8e3d
00000040: bec2 0a3d 83f2 55bd cfe9 63bd c8bf 0c3e
00000050: b7ce fcbd 22dd 943d 8e65 9abd 6587 2dbe
00000060: 3a80 81bc 4231 19be 4adb 0e3e 2630 25bc
00000070: 5046 d23b a734 903d d47f 0c3d 6e95 f6bd
-0.038291655 0.028609263 0.08619366 -0.11257481 -0.16295618 -0.16891377 -0.027843716 -0.0637325
0.032014634 0.111596 0.025181955 -0.15138097 -0.088456936 0.1042553 -0.018018965 0.06941911
0.033877127 -0.05223323 -0.0556429 0.13745034 -0.12344115 0.0726874 -0.07538901 -0.1694618
-0.015808214 -0.14960197 0.1395084 -0.01008228 0.0064170733 0.07041293 0.034301594 -0.1204022

rnn.bias_hh_l2 f4 [32]
00000000: 8bb3 b7bc 0064 123e f82e 71bd 7788 3f3d
00000010: 8af4 08be b564 773c 1d1e 80bd c0c3 373d
00000020: 2bcf 6bbd 727f 2cbd 1ca7 c7bd 1e0d ea3d
00000030: c5d8 ffbd b2d6 1fbe 2e78 173d eba7 763d
00000040: 7170 8b3d 33d5 dbbd a662 0d3e 048f 343e
00000050: f16a 2a3d 60b6 193d 292f d9bb dd85 31be
00000060: 6444 d0bc 4557 eabd 6739 0fbe 6e3f 443d
00000070: dc0a 25bd 1bbb a9ba d1f2 f5bd a095 263e
-0.02242448 0.1429596 -0.058882684 0.046761002 -0.13374534 0.015099694 -0.06255744 0.044864416
-0.057570618 -0.04211373 -0.097486705 0.11428283 -0.124925174 -0.15609244 0.036979847 0.060218733
0.06808556 -0.10734024 0.13807163 0.17632681 0.041605894 0.037527442 -0.0066279364 -0.17336221
-0.025423236 -0.114424266 -0.13986741 0.047912054 -0.04029356 -0.0012949439 -0.12009204 0.16268015

rnn.weight_ih_l3 f4 [32, 32]
00000000: ea01 2ebe 3840 fd3d 3072 c3bd 03a9 3bbe
00000010: e5b9 f5bd a59b 9dbd ff4d 42bd 7219 24be
00000020: 149d 1f3d efb3 d13d 1975 123e 9d2a 45bd
00000030: 0462 09bc 43aa 17be 7de3 0d3d 4a20 c3bc
00000040: b317 b9bd 1908 8a3d 7662 0bbe 4622 49bd
00000050: 6f05 703d 1f69 133e a0da f0bc 9cda f4bd
00000060: 0eb9 413e 7da4 b3bd 92fd 0c3d 8757 1f3e
00000070: 3104 ea3d defa 85bd c77e f4bc 31d2 c23d
00000080: b870 0cbe 4f93 38be fc1a fabd e679 353e
00000090: 561b 09bc 2e45 0fbc e544 3b3e b04a 1dbd
000000a0: a491 fcbd ea09 253e 15d2 82bc a6b0 ce3d
000000b0: 8a2e e13d 5d6c 5f3d a0ab 83bd 94a6 e7bd
000000c0: 2a79 f4bd cfaa b23d 1fdc 10be 42b5 d93b
000000d0: fd12 0bbe a4ef 75bd 764a de3d fd38 173e
000000e0: 2a2a 4abd 5ec5 e33d e603 453d 1e0f e6bd
000000f0: 2261 ddbd 49c0 09be ac33 5f3d 37e6 293e
00000100: 42b6 96bd 5982 d7bd d918 2bbc 0c15 dc3b
00000110: 999a e6bc 3e2a 7abd 633c 32be 2c77 11bd
00000120: ca05 00be eccb 143e dd1a 34be 8fcb 2bbe
00000130: 7ecb 33be d095 3ebe c901 933d 4458 383d
00000140: 826a 89bb dcc8 0dbd 8da0 ebbd 686a 20be
00000150: 2b27 143d 44e7 413e 7364 843d db50 083a
00000160: 75cc fa3d 080a 583d c457 c1bd 1b26 d9bd
00000170: ee0c c0bd 3f2a 7a3d 7f0a 54be 2f3a 1b3e
00000180: ebe1 713d 56c5 45be edbb 4dbe 2ff9 b63d
00000190: 4680 3bbe 7e61 23be 2790 4e3e f36a 60bd
000001a0: 827b 233e db81 73bd b12a 09be eadf 62bd
000001b0: 2f19 1d3e 3074 69bd eea6 933c 8981 173e
000001c0: cfe9 46be 9391 0dbd fac9 e93d 65a4 323e
000001d0: afac d4bd 5614 cbbd 4fa6 943d d3ed ab3d
000001e0: ca7e 31be f192 29bd 2652 cf3d 5f2c eebd
000001f0: e1a5 963c bc17 963d a7e6 173e e008 c63d
00000200: 772f 273e 3341 ae3d 8dd4 1b3e 2aff 343e
00000210: c406 523e 7529 273d be9e a6bd b254 55bd
00000220: b023 8b3b b696 0ebe de82 6dbd b995 07be
00000230: 7ebf e63c 69c6 173d 9d10 14bd 3d04 febd
00000240: 9c2b 04be 26c1 ebbb 28c6 a7bc 1100 3fbe
00000250: 03d7 173e 1a9b 343e 9655 b63c e97e c93d
00000260: 515d ed3c eefe e7bd ee1d 7cbd 0b0f 2ebe
00000270: 1c50 d5bc 0e2e c13d 91b5 83bd 44a8 d63d
00000280: d87f 163e c6db f3bd fe54 1abe ffad f83d
00000290: e060 8abc 0723 203e d53d 6cbd 2d0c 3bbd
000002a0: b893 ac3c 300a dd3d 1bae ccbd c02b eabd
000002b0: 8dcc 99bd 9508 fa3d ac10 33be e00b a93d
000002c0: 828a 113c 0609 2f3d a20a c53d e636 543d
000002d0: 7707 af3d bcef 10bc df45 29be adac 213e
000002e0: e23c f13c 7a74 c73d 8065 8a3a a7cb 03be
000002f0: 8aa0 24be 9075 69bc 58c6 90bc f28a 25bd
00000300: f1bd 5e3d ee99 903d 5a4c 1a3e cacb f8bd
00000310: 30f2 fa3d 0f93 453b bfef 0ebe 61b2 053e
00000320: 4a63 143c 18e5 783c 7da4 d83a 827d 133e
00000330: 5953 aabd 6409 07bd 46af 393e 65c2 293c
00000340: 7a6e e93d ef3d 113e 3c1d 183d 334a 14bd
00000350: f086 a03d 3c8b 863d e0c0 9f3d 6221 e7bc
00000360: 51c9 69ba c61a 75bd 2d8e 9c3d 09ad 643d
00000370: 9d52 1bbe 0f83 4d3c 7037 0fbe d1e9 093e
00000380: f214 18bc b754 343d 0757 74bd 220c 1c3e
00000390: 1312 00be b381 043d 60ae f2bd b983 d2bc
000003a0: 1b27 c0bd 75a0 523d 1a74 aa3c 600d 2abe
000003b0: d32e 0cbe 5339 42be 833a 033e 17ff 18be
000003c0: d34f 783c 7f92 473e 202f 44be 1a2d 41bd
000003d0: 55c9 efbd 540b 8d3a 77bb 9e3d 7819 a63d
000003e0: 4f2e de3d edaa 83bd 4c65 ca3d d91e 67bd
000003f0: 2111 d13d 2bca 213d 34ab 39be 3bb2 44bd
-0.16992918 0.123657644 -0.09543264 -0.18326192 -0.11998347 -0.076957025 -0.047437664 -0.16025332
0.03896816 0.10239398 0.14302482 -0.048136342 -0.008385185 -0.14811043 0.034640778 -0.023819108
-0.090377234 0.06739826 -0.13611779 -0.04910495 0.058598932 0.1439557 -0.029401124 -0.11955759
0.18918249 -0.08771608 0.03442151 0.15560733 0.11426581 -0.0654199 -0.029845608 0.09512747
-0.13714874 -0.18024944 -0.12212178 0.17722282 -0.008368334 -0.008744521 0.18288 -0.038401306
-0.12332466 0.16117063 -0.015969316 0.10092287 0.10995205 0.054546703 -0.06429219 -0.11311069
-0.11937173 0.087239854 -0.1414647 0.006643922 -0.13581462 -0.060042992 0.10854046 0.14767833
-0.049356617 0.11121629 0.04809942 -0.11233352 -0.10809542 -0.13452257 0.054492638 0.16591726
-0.07358982 -0.10522909 -0.010442936 0.006716376 -0.02814989 -0.06107544 -0.17405848 -0.03551404
-0.12502208 0.14530915 -0.17588373 -0.1677687 -0.17558095 -0.18611836 0.07178075 0.04500605
-0.004193605 -0.034615383 -0.11505232 -0.15665591 0.036170166 0.18935877 0.06464472 0.00052000367
0.12246028 0.05274394 -0.09440568 -0.10602971 -0.09377466 0.061075445 -0.20707129 0.15158914
0.059053343 -0.19313559 -0.20091219 0.08934247 -0.18310651 -0.15955159 0.20172177 -0.054789495
0.15965083 -0.05945001 -0.13395192 -0.055389322 0.15341638 -0.05699557 0.018023934 0.14795507
-0.19425128 -0.03456266 0.11415477 0.17445524 -0.10384499 -0.09915988 0.07258283 0.08394971
-0.17333522 -0.0413999 0.101230904 -0.11629557 0.018389644 0.07328746 0.1483408 0.096696615
0.163267 0.085085295 0.152178 0.17675462 0.20510393 0.04081102 -0.081357464 -0.052082725
0.0042461976 -0.13924679 -0.057986133 -0.13240708 0.028167482 0.037054453 -0.036148656 -0.12403152
-0.1290726 -0.007194656 -0.02048023 -0.18652369 0.14828114 0.17637292 0.022257607 0.09838659
0.02897516 -0.11327921 -0.06155198 -0.16997926 -0.026039176 0.09432612 -0.064311154 0.10481313
0.14697206 -0.11907153 -0.15071484 0.12142562 -0.016891897 0.15638362 -0.057676155 -0.04566591
0.021066532 0.10792959 -0.099941455 -0.11434126 -0.07509718 0.12208668 -0.17486829 0.08254218
0.0088831205 0.042733215 0.09621169 0.051810168 0.08546346 -0.00884622 -0.1653056 0.15788527
0.029447976 0.09739013 0.0010558814 -0.12870656 -0.16076866 -0.0142492205 -0.017672703 -0.04041571
0.05438036 0.0706061 0.15068188 -0.12148245 0.12253225 0.0030147468 -0.13958643 0.13056327
0.0090568755 0.015191339 0.0016528514 0.14403346 -0.083166786 -0.03296794 0.18133268 0.010361289
0.11398025 0.14183782 0.037137255 -0.036203574 0.07838237 0.065695256 0.0780046 -0.02821416
-0.0008918243 -0.059839986 0.076443054 0.05582908 -0.15168233 0.012543454 -0.13985991 0.134681
-0.0092823375 0.044026103 -0.05965331 0.15239003 -0.12506895 0.032350253 -0.11849666 -0.025697576
-0.09382459 0.051422555 0.020807315 -0.16606665 -0.13689737 -0.1896718 0.12815289 -0.14941059
0.01515575 0.19489478 -0.19158602 -0.047162153 -0.11708323 0.0010760822 0.077506 0.081103265
0.108486764 -0.06429086 0.09882602 -0.056425903 0.10208345 0.039499443 -0.18131715 -0.048021536
