models/epinet3_model.pth (torch, 11541 bytes, 12 tensors)

net.0.weight f4 [20, 1]
-0.56003785 0.9232652 0.072395615 -0.0017512537 -2.284289 0.034452792 -0.18752348 0.24503806
1.6225003 -0.7334187 -0.010272374 0.011835566 0.0643037 -0.059033524 -0.6336441 0.02891583
-2.1454227 -0.0032312186 0.04618155 1.0672563
00000000: a45e 0fbf 1c5b 6c3f 2744 943d 538a e5ba
00000010: ca31 12c0 5f1e 0d3d 2806 40be 42eb 7a3e
00000020: 17ae cf3f 54c1 3bbf 764d 28bc f6e9 413c
00000030: a9b1 833d 23cd 71bd 8036 22bf e4e0 ec3c
00000040: 9b4e 09c0 dac2 53bb dd28 3d3d db9b 883f

net.0.bias f4 [20]
0.12371963 -0.5186933 -0.38009596 0.115109615 1.3180928 -0.68067366 0.6853182 0.071321465
-1.7668363 -0.28154728 0.3653186 -0.3482163 -0.6756663 0.56501174 -0.15786187 -0.5213192
-0.9617807 1.1568823 -0.10309401 -0.46909085
00000000: b860 fd3d 16c9 04bf f09b c2be 97be eb3d
00000010: 44b7 a83f a140 2ebf 0371 2f3f fd10 923d
00000020: b127 e2bf f726 90be 0a0b bb3e 6849 b2be
00000030: 77f8 2cbf 9ca4 103f 8ba6 21be 2d75 05bf
00000040: 4337 76bf b814 943f f422 d3bd ad2c f0be

net.2.weight f4 [20, 20]
-0.224393 -0.16552363 -0.33649954 -0.11547914 0.24167308 -0.11325539 0.6073066 0.44964933
0.4207814 0.00822458 -0.12061472 -0.5557226 0.5998103 0.24658647 0.11520336 -0.08125422
-0.9188372 0.5402744 -0.538275 -0.20150997 -0.4596191 -0.84892553 0.37209067 -0.179271
0.40609396 -0.7590418 0.2210686 -0.17395943 -0.025306977 -0.07965041 -0.16903222 -0.1850876
0.40773875 0.010498056 0.023350293 0.06304591 -0.2707057 -0.5175644 0.04713979 0.31262937
0.9254122 -0.15434887 -0.123408884 -0.7510889 -0.13845846 -0.5565805 0.25704253 -0.6707094
0.17573853 0.0016538752 -0.4182219 -0.41039634 0.29363027 -0.009142106 0.76111656 0.7136051
-0.4144137 0.42850015 -0.3057421 -0.037481986 0.18426819 0.5168782 0.24347602 -0.22531836
-0.31396893 0.6120989 0.1377751 -0.035437573 0.3448302 0.45312738 0.3645023 -0.22568232
0.047725067 0.1064297 0.10047968 0.21040016 0.3391912 0.99181014 -0.44603083 0.20909789
0.091728985 -0.38366094 0.6568141 0.39754158 -0.09077285 0.36315048 0.48632836 -0.48243892
0.050544802 0.3752996 0.3330917 -0.04502737 0.15314883 -0.04410913 -0.31773064 -0.15901199
0.14263651 0.1572679 -0.03129746 0.10261275 -0.3115222 -0.0034287663 -0.30486375 0.4395935
0.02904228 0.020403733 -0.34577313 -0.12741545 0.24292126 -0.46891764 0.417812 -0.2011557
-0.15164638 -0.23878255 0.55405295 -0.22130209 0.088815376 -0.34270024 0.40405452 0.43092045
0.21973646 -0.18412292 0.19396697 0.0014420637 -0.42829195 0.33870438 0.60520244 -0.5348495
-0.35919937 -0.9662047 0.42845765 0.10801841 0.20104443 0.4552398 -0.24678397 0.4186989
0.20127968 -0.87272584 -0.07054921 -0.20654523 -0.086651295 -0.13512912 0.35179588 0.61125445
0.31320834 -0.005874406 -0.4454367 -0.2957737 0.30509764 0.01706682 -0.3159395 -0.37659547
0.16589586 0.14085467 0.3298796 -0.10744649 -0.092316344 0.33912805 1.0979939 -0.10895788
-0.14291194 0.15547456 0.46555728 0.0950102 0.13206527 -0.21572419 0.3380251 0.054254405
-0.3058092 -0.034386218 0.10689996 0.36852297 -0.2657055 0.33201087 0.3430603 -0.043004416
-0.79377365 0.61276245 -0.383831 0.025392214 -0.5345237 -0.15967122 -0.10222603 0.10953689
-0.5058248 -0.66642654 0.51862144 0.3408204 -0.21263772 -0.049730208 0.29332054 -0.30763614
-0.14980033 0.19591682 -0.5074691 0.079857886 -0.19462717 0.7940008 0.110661596 -0.2876991
0.2506118 0.060812823 0.5663775 -0.68720025 -0.31644884 -0.0645076 -0.11090588 -0.7010245
0.4227252 -0.12665677 0.55701524 -0.76027465 0.66062886 -0.47520378 0.1596471 0.07614824
0.29306504 0.09183321 -0.004488644 -0.17284825 -0.7100428 0.09131764 0.46698347 0.32557255
-0.18011203 -0.37204337 0.15797941 0.26176593 0.40715078 0.044972017 0.29568318 0.5427355
0.25343853 0.7140722 0.13456328 -0.2301214 -1.00737 1.1874809 -0.16477244 -0.15390556
-0.079481654 -0.11331723 0.49728966 -0.074338295 0.35421312 0.46533364 -0.32471552 -0.18941791
-0.4809618 0.41247046 -0.6328006 0.21099815 -0.19809255 0.10785609 0.46967295 0.57297754
00000000: 47c7 65be 077f 29be ab49 acbe 5480 ecbd
00000010: 2679 773e 71f2 e7bd 7278 1b3f 7038 e63e
00000020: a970 d73e 64c0 063c da04 f7bd d643 0ebf
00000030: 2b8d 193f 2a81 7c3e bdef eb3d 9d68 a6bd
00000040: ea38 6bbf 6c4f 0a3f 64cc 09bf a158 4ebe
00000050: 3253 ebbe 2f53 59bf ab82 be3e d192 37be
00000060: 8ceb cf3e 9050 42bf cf5f 623e 6c22 32be
00000070: 9450 cfbc c11f a3bd c816 2dbe 9b87 3dbe
00000080: 22c3 d03e 0a00 2c3c 1d49 bf3c 371e 813d
00000090: f099 8abe 1a7f 04bf a715 413d f510 a03e
000000a0: d0e7 6c3f a10d 1ebe ccbd fcbd 5d47 40bf
000000b0: 0ec8 0dbe 0f7c 0ebf 149b 833e 9cb3 2bbf
000000c0: cdf4 333e d8c6 d83a 2e21 d6be 781f d2be
000000d0: b556 963e c6c8 15bc 89d8 423f d3ae 363f
000000e0: 082e d4be 5f64 db3e 3b8a 9cbe b686 19bd
000000f0: cdb0 3c3e 2152 043f c751 793e dbb9 66be
00000100: 89c0 a0be 83b2 1c3f ea14 0d3e fd26 11bd
00000110: 958d b03e 5000 e83e 0ca0 ba3e 4419 67be
00000120: 5c7b 433d d1f7 d93d 4ac8 cd3d 2473 573e
00000130: 78aa ad3e 45e7 7d3f 275e e4be c21d 563e
00000140: 68dc bb3d 356f c4be f824 283f 928a cb3e
00000150: 1ee7 b9bd dcee b93e 0800 f93e 3c02 f7be
00000160: 1108 4f3d 4527 c03e ff8a aa3e 9f6e 38bd
00000170: 0cd3 1c3e c6ab 34bd 97ad a2be 0ad4 22be
00000180: 4e0f 123e d60a 213e c431 00bd a226 d23d
00000190: d67f 9fbe 27b5 60bb 1a17 9cbe 6612 e13e
000001a0: 13ea ed3c bb25 a73c 2d09 b1be 3279 02be
000001b0: 5ac0 783e f915 f0be 74eb d53e c3fb 4dbe
000001c0: 3049 1bbe 6a83 74be 6ad6 0d3f 049d 62be
000001d0: d6e4 b53d 6876 afbe 3ce0 ce3e 9ba1 dc3e
000001e0: 9802 613e b88a 3cbe 479f 463e a103 bd3a
000001f0: 1549 dbbe a96a ad3e 8cee 1a3f e6eb 08bf
00000200: fbe8 b7be 3159 77bf cd5e db3e c238 dd3d
00000210: 97de 4d3e 3115 e93e f0b4 7cbe b45f d63e
00000220: 431c 4e3e f66a 5fbf 1b7c 90bd 9880 53be
00000230: 3c76 b1bd 4a5f 0abe 971e b43e 2c7b 1c3f
00000240: d85c a03e 177e c0bb 4710 e4be a76f 97be
00000250: c235 9c3e b7cf 8b3c d2c2 a1be 1fd1 c0be
00000260: 9be0 293e 353c 103e fbe5 a83e e80c dcbd
00000270: 5a10 bdbd 31a2 ad3e 108b 8c3f 4f25 dfbd
00000280: 8257 12be b934 1f3e 865d ee3e b594 c23d
00000290: 1e3c 073e cde6 5cbe a011 ad3e de39 5e3d
000002a0: 0693 9cbe 90d8 0cbd 5eee da3d 0baf bc3e
000002b0: 8d0a 88be 54fd a93e 9aa5 af3e 6625 30bd
000002c0: c034 4bbf 00de 1c3f 7f85 c4be 5503 d03c
000002d0: 8cd6 08bf da80 23be e15b d1bd e154 e03d
000002e0: bc7d 01bf ee9a 2abf 60c4 043f 0380 ae3e
000002f0: b4bd 59be e7b1 4bbd 1c2e 963e 7c82 9dbe
00000300: 4265 19be 6b9e 483e 7fe9 01bf 888c a33d
00000310: 584c 47be a343 4b3f 8ca2 e23d 4c4d 93be
00000320: 3150 803e de16 793d 1efe 103f 5bec 2fbf
00000330: 9505 a2be 901c 84bd 9f22 e3bd 5776 33bf
00000340: 706f d83e 50b2 01be 8d98 0e3f 5ca1 42bf
00000350: f91e 293f e94d f3be 887a 233e 9cf3 9b3d
00000360: 9f0c 963e 0d13 bc3d 7a15 93bb 22ff 30be
00000370: 5dc5 35bf be04 bb3d 7518 ef3e 72b1 a63e
00000380: 4a6f 38be 787c bebe 5bc5 213e 2f06 863e
00000390: 1176 d03e 9434 383d c963 973e b7f0 0a3f
000003a0: b2c2 813e 70cd 363f f5ca 093e f2a4 6bbe
000003b0: 80f1 80bf 60ff 973f 1bba 28be 6b99 1dbe
000003c0: 47c7 a2bd dd12 e8bd c09c fe3e ad3e 98bd
000003d0: 6c5b b53e 3640 ee3e 1d41 a6be c5f6 41be
000003e0: a040 f6be 542f d33e 38ff 21bf e60f 583e
000003f0: c6d8 4abe a7e3 dc3d f978 f03e a8ae 123f

net.2.bias f4 [20]
0.07052015 0.050499965 -0.07634866 -0.09605255 -0.09164783 0.02025674 0.017872296 0.032406367
0.004726174 -0.18964978 0.15018685 0.2783011 0.057522483 0.026845172 -0.037895676 0.048533656
0.024828006 0.025014272 0.09681334 -0.043028645
00000000: de6c 903d 0dd9 4e3d b05c 9cbd 33b7 c4bd
00000010: dcb1 bbbd 76f1 a53c ec68 923c 8abc 043d
00000020: 05de 9a3b 8d33 42be 95ca 193e 7b7d 8e3e
00000030: b29c 6b3d 68ea db3c 7f38 1bbd 3acb 463d
00000040: 1a64 cb3c bbea cc3c 1346 c63d ce3e 30bd

net.4.weight f4 [20, 20]
0.4158853 -0.93844074 -0.42424825 0.50136936 0.08883126 -0.17997578 -0.25710502 -0.43018335
-0.034493733 -0.34955359 0.58028364 -0.29241908 1.0299252 -0.66339 0.58192325 -0.07422022
0.47599307 -0.2924274 0.25424984 0.13684152 -0.15792273 0.49917352 0.44677037 -0.33374992
-0.31548768 0.19861293 0.73366266 -0.6482766 0.2978072 0.4116374 0.2576769 -0.43854338
-0.49782544 -0.25569847 -0.43304878 0.2616625 0.38404378 0.06983339 -0.5549197 0.025547897
0.98513967 0.7205699 0.0068788547 -0.1225802 0.95823264 0.19287878 -0.14333677 -0.2764139
0.36927897 0.47379705 0.0055245855 0.03055425 -0.67141485 0.7032353 0.17909804 0.31337646
-0.040116698 0.5617876 0.62495905 0.0039706593 0.40063754 0.78855413 -0.23553465 -0.6688108
0.14316164 0.18531495 -0.031221915 -0.19206369 1.0950924 0.2524946 -0.2924266 -0.30757457
-0.6643867 -0.12446073 -0.6273657 0.08401765 0.3873846 -0.358377 0.7693157 -0.7024415
0.071408734 0.23701856 0.3850666 -0.37765676 0.37247658 0.5410516 0.763847 -0.46533906
-1.2783703 0.10881275 0.017113736 -0.604668 -0.51155376 -0.3358237 -0.4422979 -0.0059895488
-0.157331 -0.37272865 -0.07236846 -0.12774353 0.36736488 -0.3568176 0.107216224 -0.16234697
-0.4482955 0.13873887 -0.1176268 0.10574839 -0.04002056 0.30530033 0.09753817 0.18006144
-0.2397207 -0.40541378 0.023458978 0.32662424 -0.11860012 -0.23191942 0.005873879 0.053463567
0.6333585 -0.2566361 0.5870394 0.9471112 0.46193686 -0.96639776 -0.379436 -0.15954743
0.5891393 0.51703376 -0.1440672 0.28349036 0.6045221 -0.44388843 0.19308889 0.039811425
-1.1315732 -0.3981762 -0.11420567 0.7059855 0.16252436 -0.53791 -0.4839908 -0.32149285
-0.18991046 -0.06136242 -0.26300654 -0.16643645 0.31832546 -0.16816 -0.024638519 0.04089851
0.7167128 -0.75161344 0.08378652 0.11131753 -0.15986665 -0.063436866 0.3714151 0.22087598
-0.13545923 0.1889192 0.24078384 -0.52689373 -0.045612883 0.17311633 -0.13370858 0.37272814
-0.28194502 0.13130516 0.3678931 -0.07944714 -0.33572948 0.17036675 -0.93340266 -0.048709687
-0.273127 -0.16166313 -0.15255907 0.23963438 -0.29995835 -0.45016205 -0.4703638 0.18286686
-0.5220382 -0.17015536 0.3444683 -0.16636598 -0.27847973 -0.57098293 -0.11582442 0.083378956
-0.09836761 -0.38980696 -0.21299054 0.23317486 0.37751347 -0.10830119 -0.026501391 0.11980148
-0.32878023 0.46982008 -0.47763914 0.21394433 0.25307623 0.073005274 0.48775625 0.47985354
-0.22182147 0.1085005 0.4315486 0.221281 -0.44878498 -0.10117932 0.6330755 0.4680699
0.98512137 0.22611615 0.27988815 -0.9190577 0.5632973 0.4432719 -0.47092792 -0.81722575
-0.26993293 1.0544443 0.649399 -0.032543834 -0.3207597 0.15565664 0.90710455 0.04527534
-0.20462595 0.043967746 -0.96543795 0.7642996 0.19733877 0.18653925 -0.38112772 -0.9871461
0.12911178 -0.22625047 -0.35422972 0.26226604 0.71874565 -0.383122 -0.84590614 -0.2978215
-0.24614194 0.5912661 0.27682894 -0.66235685 0.114017144 0.2391931 0.21614414 -0.19268136
00000000: ebee d43e a73d 70bf 1137 d9be be59 003f
00000010: 2aed b53d 924b 38be 45a3 83be fe40 dcbe
00000020: 4d49 0dbd b0f8 b2be 788d 143f f4b7 95be
00000030: 97d4 833f edd3 29bf ecf8 143f c500 98bd
00000040: 5db5 f33e 0bb9 95be 092d 823e 2f20 0c3e
00000050: 7fb6 21be ac93 ff3e 16bf e43e 45e1 aabe
00000060: 9a87 a1be 3061 4b3e 51d1 3b3f 75f5 25bf
00000070: 2f7a 983e 23c2 d23e 3aee 833e c288 e0be
00000080: fae2 febe e9ea 82be 92b8 ddbe a1f8 853e
00000090: 63a1 c43e cf04 8f3d 380f 0ebf d349 d13c
000000a0: 1d32 7c3f 4577 383f 0468 e13b 540b fbbd
000000b0: bc4e 753f 0482 453e e0c6 12be 1f86 8dbe
000000c0: 2212 bd3e 8795 f23e 9507 b53b e84c fa3c
000000d0: d8e1 2bbf 3b07 343f 7a65 373e e172 a03e
000000e0: 6851 24bd 50d1 0f3f 51fd 1f3f 4e1c 823b
000000f0: 5d20 cd3e afde 493f ff2f 71be 2f37 2bbf
00000100: f798 123e 34c3 3d3e 1ac5 ffbc 58ac 44be
00000110: fd2b 8c3f f946 813e f0b8 95be 6a7a 9dbe
00000120: 3f15 2abf 44e5 febd 0a9b 20bf 7211 ac3d
00000130: 4657 c63e 317d b7be e0f1 443f 35d3 33bf
00000140: be3e 923d feb4 723e 7327 c53e 3a5c c1be
00000150: 40b5 be3e 5c82 0a3f 7a8b 433f ec40 eebe
00000160: a3a1 a3bf 38d9 de3d 1b32 8c3c 86cb 1abf
00000170: 30f5 02bf 16f1 abbe df74 e2be fa43 c4bb
00000180: 611b 21be 4ad6 bebe ea35 94bd 33cf 02be
00000190: 4017 bc3e ccb0 b6be 2e94 db3d 493e 26be
000001a0: fd86 e5be 9011 0e3e 52e6 f0bd 9d92 d83d
000001b0: 99ec 23bd 5350 9c3e 18c2 c73d 0762 383e
000001c0: 5879 75be 6592 cfbe 0b2d c03c 4b3b a73e
000001d0: 9fe4 f2bd 497c 6dbe ab79 c03b 9dfc 5a3d
000001e0: c823 223f cf65 83be 3748 163f e175 723f
000001f0: fd82 ec3e d865 77bf 6f45 c2be 6760 23be
00000200: d5d1 163f 535c 043f 5a86 13be a625 913e
00000210: f6c1 1a3f 5845 e3be 18b9 453e 4e11 233d
00000220: 64d7 90bf c0dd cbbe aae4 e9bd 77bb 343f
00000230: c96c 263e 78b4 09bf a4cd f7be b69a a4be
00000240: e377 42be 2957 7bbd cba8 86be 516e 2abe
00000250: 8efb a23e 2332 2cbe b8d6 c9bc 3285 273d
00000260: 7d7a 373f bd69 40bf 4498 ab3d 72fa e33d
00000270: 15b4 23be 30eb 81bd 1f2a be3e 502d 623e
00000280: d3b5 0abe 0974 413e 0a90 763e 82e2 06bf
00000290: 93d4 3abd 6845 313e e7ea 08be 39d6 be3e
000002a0: 195b 90be dc74 063e 7c5c bc3e 2fb5 a2bd
000002b0: bce4 abbe 9f74 2e3e 7af3 6ebf cf83 47bd
000002c0: 4dd7 8bbe 058b 25be 7238 1cbe b762 753e
000002d0: 2494 99be a47b e6be 86d3 f0be 7341 3b3e
000002e0: 4ca4 05bf 353d 2ebe 265e b03e d85b 2abe
000002f0: e594 8ebe f02b 12bf 5a35 edbd 96c2 aa3d
00000300: f574 c9bd c794 c7be 311a 5abe 64c5 6e3e
00000310: 7249 c13e 04cd ddbd 7219 d9bc 7a5a f53d
00000320: e255 a8be 428c f03e 1e8d f4be 3914 5b3e
00000330: 3593 813e ca83 953d 30bb f93e 5daf f53e
00000340: 2b25 63be 8335 de3d f0f3 dc3e 7d97 623e
00000350: 25c7 e5be 1a37 cfbd 3c11 223f dca6 ef3e
00000360: ea30 7c3f fe8a 673e 804d 8f3e 5e47 6bbf
00000370: 4034 103f 89f4 e23e 771d f1be b535 51bf
00000380: a634 8abe 08f8 863f 033f 263f af4c 05bd
00000390: 9e3a a4be 7464 1f3e 0138 683f a372 393d
000003a0: 7789 51be 8617 343d f126 77bf 23a9 433f
000003b0: 2d13 4a3e 2504 3f3e 2c23 c3be 9bb5 7cbf
000003c0: e135 043e 34ae 67be 995d b5be bc47 863e
000003d0: b7ff 373f 9128 c4be 4e8d 58bf 0f7c 98be
000003e0: a20c 7cbe 375d 173f 86bc 8d3e 3890 29bf
000003f0: d281 e93d 09ef 743e e454 5d3e 434e 45be

net.4.bias f4 [20]
0.0479985 -0.0008898514 -0.24514307 -0.0484744 0.022169698 0.20024076 -0.021612024 0.03499214
-0.035418693 0.1808812 0.06342039 0.07452388 0.05312965 -0.04567946 0.06509084 0.101238474
-0.03202535 0.06207483 -0.007689691 0.088665046
00000000: 139a 443d eb44 69ba c906 7bbe 188d 46bd
00000010: 3a9d b53c ea0b 4d3e b30b b1bc eb53 0f3d
00000020: 3113 11bd ec38 393e 8de2 813d fa9f 983d
00000030: 7a9e 593d 631a 3bbd 594e 853d 1e56 cf3d
00000040: 032d 03bd 2d42 7e3d cef9 fbbb 0596 b53d

net.6.weight f4 [20, 20]
-0.044887833 0.40578836 0.6583815 -0.3650187 0.6184461 -0.05278043 -0.04608121 -0.061634146
0.14440154 -0.38552704 -0.08542907 -0.74609214 0.69129604 0.7774866 -0.63159156 -0.6198721
-0.31136963 -0.13765271 -0.6878408 0.43703485 0.2776811 -0.0092040375 0.43998286 0.0657444
-0.38612747 0.39793757 0.13114175 0.29729035 -0.28232172 -0.2475335 -0.5180509 -0.5369647
0.24669121 0.696647 -0.34764528 -0.3913688 -1.257687 0.37218592 -0.8089539 0.5727998
0.4981864 -0.74545205 0.31786987 -0.17777377 0.4353305 0.5604542 0.55104595 0.6040969
0.40712515 -0.3290752 0.32246476 -0.2122674 -0.023237033 0.08420515 0.13007589 0.114037946
1.2149544 -0.43489128 0.098283365 0.7959786 -0.28325 0.17473854 0.010431927 0.4426327
0.37951073 -0.56386936 -0.78357005 0.12072505 -0.066193216 0.007969731 0.62857646 1.2611322
-0.62375027 -0.08047059 1.3826206 1.1606301 0.0003958208 -0.6006702 0.8808855 0.5278531
-0.7890702 -0.024652071 0.48847428 -0.32643497 -0.39428386 -0.080004275 1.1481751 -0.465584
-0.46311885 0.1258034 -0.82689947 -1.1754404 0.1566437 0.24453768 -0.37939137 -0.21542859
0.41298252 0.6216731 -0.7209703 -0.6731246 -0.19995277 -0.3776623 0.14414808 -0.19374639
-0.570351 0.18867107 0.69875175 0.27794814 0.39947364 0.20893188 -0.84189 0.11779077
0.11425114 -0.634409 0.3640439 0.7571211 0.7217835 0.5875732 -0.14526801 -0.60298026
-0.6115004 1.476734 -0.41042545 1.4036156 1.16876 -1.037889 -0.054244585 -0.18308122
-0.12260121 -0.3126365 -0.35781488 0.30899325 0.4310424 -0.40466878 -0.17458053 0.15107647
-0.32895738 -0.43634862 0.79799247 -0.083227806 -0.09140576 -0.42283043 -0.51286864 -0.37145525
-0.48659262 -0.4473831 1.0486437 -0.22408879 0.15662612 0.07496081 -0.4000467 -0.611813
0.36033717 0.3862308 -1.7476858 -1.9589661 0.3489598 0.8307154 0.27862778 -0.13930337
-0.583372 -0.08161778 -0.71061003 0.34001336 0.27581435 0.51686466 0.338482 0.24640547
-0.09426487 0.497053 0.59260064 -0.14138776 0.1032435 -0.24914508 -0.33770847 -0.061517306
1.1016845 -0.8534029 -0.39003095 0.20296474 -0.35226473 -0.27639973 0.037751332 -0.300626
0.39937368 -0.07367531 -0.7230602 -0.13753748 0.072159 0.09337904 0.7312879 0.09037947
-0.5320972 -0.32129064 1.3293489 0.008354118 0.37025616 0.30225202 0.18019192 -0.37830114
-0.90798676 0.38761333 0.3225922 0.37421635 1.0685745 -0.18167803 -0.6932681 -0.57560354
0.82674545 -0.15162541 -0.27366957 0.505401 -0.24858113 0.4984407 -0.34866458 -0.12243541
0.8070734 -1.135052 0.19446969 0.41144708 0.4819981 0.18988527 -0.092866085 0.32101396
-0.28104374 -1.1174955 0.4376396 -0.0014137483 -0.059865978 0.5385424 -0.2454722 -0.9541053
0.5804762 0.0026269134 0.1757139 0.0099675525 -0.5683063 0.16782507 -0.032549027 -0.1676157
0.17485324 -0.16633184 -0.511731 -0.31632766 0.45539907 0.19521224 -0.7001806 -0.71067256
0.3755757 0.30365923 0.3899528 0.6143882 -0.2500075 0.66372144 1.0351727 0.8473981
00000000: 4edc 37bd 7ec3 cf3e b18b 283f bbe3 babe
00000010: 7c52 1e3f 4b30 58bd a7bf 3cbd 1674 7cbd
00000020: ffdd 133e cd63 c5be 70f5 aebd e5ff 3ebf
00000030: c7f8 303f 5d09 473f fcaf 21bf f0af 1ebf
00000040: d76b 9fbe d5f4 0cbe 5616 30bf 08c3 df3e
00000050: 382c 8e3e 88cc 16bc 6f45 e13e 00a5 863d
00000060: 80b2 c5be 79be cb3e 064a 063e 7136 983e
00000070: 798c 90be 6c79 7dbe fc9e 04bf 8576 09bf
00000080: 9f9c 7c3e 7557 323f 90fe b1be 7e61 c8be
00000090: e3fb a0bf 278f be3e 9a17 4fbf 02a3 123f
000000a0: 4a12 ff3e f2d5 3ebf d7bf a23e 540a 36be
000000b0: a4e3 de3e ed79 0f3f 5911 0d3f 18a6 1a3f
000000c0: b572 d03e 8b7c a8be 1a1a a53e a05c 59be
000000d0: 975b bebc c073 ac3d 9d32 053e ba8c e93d
000000e0: a083 9b3f 12aa debe ca48 c93d 41c5 4b3f
000000f0: 2506 91be a9ee 323e acea 2a3c c1a0 e23e
00000100: 3b4f c23e be59 10bf 0c98 48bf b23e f73d
00000110: 4f90 87bd 7a93 023c 63ea 203f c86c a13f
00000120: 19ae 1fbf c4cd a4bd b6f9 b03f 878f 943f
00000130: 2b86 cf39 86c5 19bf b681 613f 6121 073f
00000140: 8100 4abf 24f3 c9bc 4d19 fa3e 7c22 a7be
00000150: 93df c9be 48d9 a3bd 67f7 923f 0761 eebe
00000160: ea1d edbe 9bd2 003e afaf 53bf d574 96bf
00000170: 3567 203e 1668 7a3e 963f c2be 5099 5cbe
00000180: 7272 d33e f825 1f3f 8291 38bf e551 2cbf
00000190: 6bc0 4cbe f45c c1be 8e9b 133e 7465 46be
000001a0: 8602 12bf fd32 413e 65e1 323f 384f 8e3e
000001b0: cf87 cc3e 3df2 553e 1a86 57bf 4a3c f13d
000001c0: 80fc e93d a168 22bf f663 ba3e b0d2 413f
000001d0: cec6 383f 326b 163f 23c1 14be ea5c 1abf
000001e0: 4a8b 1cbf 9f05 bd3f 4923 d2be ada9 b33f
000001f0: ed99 953f 8cd9 84bf 922f 5ebd a579 3bbe
00000200: 5816 fbbd e411 a0be 8333 b7be 5d34 9e3e
00000210: 97b1 dc3e bf30 cfbe 3dc5 32be cab3 1a3e
00000220: 1a6d a8be 1669 dfbe 3c49 4c3f 5773 aabd
00000230: f132 bbbd 3b7d d8be 5c4b 03bf 622f bebe
00000240: ab22 f9be 660f e5be f539 863f 8877 65be
00000250: 9962 203e 0e85 993d ecd2 ccbe c79f 1cbf
00000260: 1d7e b83e 0bc0 c53e 2bb4 dfbf 67bf fabf
00000270: dcaa b23e c4a9 543f 4da8 8e3e 8ba5 0ebe
00000280: de57 15bf 3927 a7bd 8aea 35bf 3b16 ae3e
00000290: 8a37 8d3e 3e51 043f 834d ad3e b751 7c3e
000002a0: f10d c1bd bb7d fe3e adb4 173f f4c7 10be
000002b0: 5471 d33d e31f 7fbe 20e8 acbe 92f9 7bbd
000002c0: ff03 8d3f 9d78 5abf 23b2 c7be fdd5 4f3e
000002d0: 0b5c b4be 4484 8dbe 24a1 1a3d a7eb 99be
000002e0: b57a cc3e 15e3 96bd 791a 39bf a0d6 0cbe
000002f0: 19c8 933d 833d bf3d af35 3b3f df18 b93d
00000300: 8637 08bf 3580 a4be 1b28 aa3f b6df 083c
00000310: 3792 bd3e c7c0 9a3e 3b84 383e b0b0 c1be
00000320: d271 68bf 4175 c63e ce2a a53e 4999 bf3e
00000330: 0dc7 883f ce09 3abe 057a 31bf c15a 13bf
00000340: 97a5 533f b143 1bbe 6b1e 8cbe f661 013f
00000350: 0d8c 7ebe 9f33 ff3e 2a84 b2be 6bbf fabd
00000360: 5d9c 4e3f 6249 91bf 1023 473e 31a9 d23e
00000370: 74c8 f63e 4971 423e 9330 bebd f15b a43e
00000380: f7e4 8fbe 180a 8fbf 4c12 e03e 854d b9ba
00000390: 0736 75bd eadd 093f 105d 7bbe 3f40 74bf
000003a0: 179a 143f 4b28 2c3b 58ee 333e f24e 233c
000003b0: 867c 11bf 56da 2b3e 2152 05bd 73a3 2bbe
000003c0: ba0c 333e e552 2abe ce00 03bf b3f5 a1be
000003d0: 112a e93e b8e5 473e 093f 33bf a3ee 35bf
000003e0: 754b c03e 3979 9b3e e5a7 c73e 8c48 1d3f
000003f0: fc00 80be a6e9 293f 8a80 843f 15ef 583f

net.6.bias f4 [20]
-0.09383718 0.086402245 0.1442171 0.043264706 -0.037430175 -0.052703295 -0.10707571 -0.08800902
0.18892698 0.11659285 -0.046602007 -0.027405022 0.05539699 0.06349811 0.17531791 -0.051232193
-0.01704315 -0.05424063 -0.14329702 -0.10546641
00000000: b52d c0bd a9f3 b03d a6ad 133e 5536 313d
00000010: 6250 19bd 69df 57bd 834a dbbd 133e b4bd
00000020: 1376 413e 3bc8 ee3d bfe1 3ebd 7f80 e0bc
00000030: f4e7 623d 4c0b 823d 8a86 333e d9d8 51bd
00000040: 139e 8bbc 6c2b 5ebd 74bc 12be c6fe d7bd

net.8.weight f4 [20, 20]
0.604545 -0.13884246 -0.114153825 -0.3393225 0.009995632 -1.3526887 1.121624 0.26209348
0.4466524 -0.18826653 0.9086316 0.41454744 0.13365461 0.382015 -0.99430656 -0.28760576
-0.39412788 0.9197667 -0.2614266 -0.76394993 -0.53761435 -0.58997446 -0.06886652 -0.27958173
-1.1990023 0.13898045 -0.39449725 0.31864202 -0.03542912 0.76560754 -0.073812075 -0.7609626
0.3539974 0.65269697 0.81912845 -1.4561251 -1.0019829 -0.060313053 0.20577806 -0.6010371
0.5425263 0.2739744 -0.8845436 -0.9405728 -0.21966021 0.6416272 -0.469863 0.8835538
0.41849375 -0.3398605 -0.40956134 0.77611166 -1.0233502 0.69872725 0.32692406 0.5287219
-0.37064472 -0.15188912 0.1401545 0.57078856 -0.72179025 -0.32371965 -0.1072136 0.5623457
-0.66094434 -0.34368646 0.08335673 -0.1505952 0.6779853 0.18368484 0.11882206 0.33811244
-0.11300015 -0.5649391 -0.019156719 -0.3745064 0.15047875 0.2666449 -0.2393086 -0.23535746
-0.0041408064 1.5042863 -0.026708419 -1.2181251 -0.035559103 -0.2565871 -0.43108448 0.90144813
-0.017734375 -0.103248805 0.3485081 0.2719088 -0.7903651 0.59290063 0.5375574 -0.31660396
0.20672663 -0.3734938 0.7807504 0.99616915 0.5549046 0.06589703 -0.8340442 -0.24721578
0.07048777 0.39444828 -0.5957924 0.7166293 -0.6662554 -0.28159583 -0.76612717 0.30925962
-0.7895557 1.5212952 0.025178906 1.0149632 0.26938406 0.4585386 -0.76834047 -0.3903977
0.15888056 -0.32345495 -0.21384467 -0.44911313 0.11388169 0.066422544 -0.35341114 -0.31045517
-1.7778924 0.048294276 -1.3871113 0.10309771 -0.40725157 -0.03943336 -0.4703602 0.7377979
-0.5149098 -0.8135928 1.848644 -0.45111537 0.7259284 1.1580806 -0.77317494 0.09931309
-0.4364623 -0.85391814 -0.24962229 0.24383752 -1.1884128 0.2354356 -0.09991602 -0.18878722
-0.14613694 0.21864986 -0.7655917 -0.7326624 0.2359959 -0.42735487 -0.051893044 0.14181885
-0.46202898 -0.2054515 0.12288539 -0.28104028 -0.91578513 0.0041692303 -0.3714119 -0.27266353
-0.10263133 -0.28649488 -0.5024623 -0.738584 -0.6462602 0.5252051 0.21290492 0.121078454
-0.30888212 0.8488883 0.070551135 -0.03943147 0.1503412 -0.55972576 0.4993716 -0.2660952
-0.49831071 1.2539805 -1.9240475 0.1803949 0.3666115 -0.4871033 -0.28418508 -0.46052352
-0.3130667 -0.19145942 1.5985278 -0.5361521 -0.23287411 -1.6783308 0.48093772 0.7735273
0.10503974 -0.6779725 0.1556701 1.0126232 -0.61073434 -0.33369732 0.39441642 -1.2059966
-0.67352086 0.5262604 1.3283156 -0.49389145 1.2195171 0.007134937 -0.25383502 0.20205982
-0.09380427 -0.14090362 0.10910183 -1.181173 0.23224801 0.11800237 -1.0343943 0.87022316
-0.38090274 0.043595493 0.14703737 0.20849143 0.045626927 -0.5125632 0.25847793 0.30792803
-0.23420344 -0.013474506 0.5840446 -0.37737626 0.5304351 0.22173084 -0.11272793 0.5262045
-1.302589 0.9085083 -0.5000042 -0.2152915 -0.7695881 -1.6693792 0.36430326 1.4723318
-0.1661731 0.558112 0.25279483 0.25061604 0.007381609 -0.005405039 -1.2992833 -0.582004
00000000: 76c3 1a3f b82c 0ebe 7bc9 e9bd aebb adbe
00000010: b8c4 233c e724 adbf 6091 8f3f 1e31 863e
00000020: a0af e43e f1c8 40be 159c 683f 903f d43e
00000030: c1dc 083e 7897 c33e e08a 7ebf 1041 93be
00000040: 21cb c9be d575 6b3f b5d9 85be 3992 43bf
00000050: 18a1 09bf 9108 17bf e409 8dbd 5625 8fbe
00000060: e878 99bf e450 0e3e 8bfb c9be 0c25 a33e
00000070: 201e 11bd dbfe 433f c92a 97bd 72ce 42bf
00000080: 263f b53e 2617 273f 67b2 513f 4f62 babf
00000090: fa40 80bf d20a 77bd 7cb7 523e 91dd 19bf
000000a0: 01e3 0a3f 5f46 8c3e 7371 62bf 61c9 70bf
000000b0: 9bee 60be ae41 243f e291 f0be 9530 623f
000000c0: d044 d63e 3202 aebe 06b2 d1be 41af 463f
000000d0: 24fd 82bf cadf 323f 9762 a73e 525a 073f
000000e0: 25c5 bdbe d288 1bbe a984 0f3e 331f 123f
000000f0: 3fc7 38bf 95be a5be ce92 dbbd e3f5 0f3f
00000100: a633 29bf acf7 afbe efb6 aa3d a135 1abe
00000110: 7290 2d3f e117 3c3e fb58 f33d 131d ad3e
00000120: 9f6c e7bd d99f 10bf 8dee 9cbc 4ebf bfbe
00000130: 1a17 1a3e ae85 883e 500d 75be 8c01 71be
00000140: 9aaf 87bb 748c c03f 9dcb dabc 86eb 9bbf
00000150: 6ca6 11bd 625f 83be 1bb7 dcbe 4ec5 663f
00000160: ae47 91bc 1c74 d3bd a76f b23e a137 8b3e
00000170: 5e55 4abf 56c8 173f 5d9d 093f ea19 a2be
00000180: 25b0 533e 943a bfbe 42df 473f f104 7f3f
00000190: 3a0e 0e3f 06f5 863d ec83 55bf 2226 7dbe
000001a0: e45b 903d 20f5 c93e da85 18bf 0575 373f
000001b0: b78f 2abf 542d 90be e920 44bf 4757 9e3e
000001c0: 5320 4abf cdb9 c23f fe43 ce3c 50ea 813f
000001d0: b5ec 893e 92c5 ea3e f6b1 44bf 35e2 c7be
000001e0: 96b1 223e e39b a5be 19fa 5abe 28f2 e5be
000001f0: ce3a e93d 8b08 883d 4ef2 b4be fbf3 9ebe
00000200: fa91 e3bf 38d0 453d dd8c b1bf e424 d33d
00000210: 4783 d0be e084 21bd 0dd3 f0be 53e0 3c3f
00000220: 21d1 03bf 9e47 50bf 5ea0 ec3f 98f8 e6be
00000230: 72d6 393f fc3b 943f cbee 45bf a964 cb3d
00000240: fd77 dfbe 619a 5abf fc9c 7fbe 8bb0 793e
00000250: e91d 98bf 0816 713e c5a0 ccbd 7051 41be
00000260: eca4 15be c0e5 5f3e d1fd 43bf c38f 3bbf
00000270: e9a8 713e 42ce dabe cd8d 54bd f638 113e
00000280: 108f ecbe e161 52be 56ab fb3d 83e4 8fbe
00000290: e570 6abf 0a9e 883b b329 bebe 8e9a 8bbe
000002a0: 6030 d2bd 75af 92be 5fa1 00bf d713 3dbf
000002b0: 4f71 25bf d773 063f bf03 5a3e fbf7 f73d
000002c0: cc25 9ebe be50 593f 1d7d 903d e582 21bd
000002d0: 0bf3 193e 304a 0fbf a2ad ff3e a13d 88be
000002e0: 9522 ffbe 6f82 a03f 3047 f6bf 71b9 383e
000002f0: 81b4 bb3e 9b65 f9be b580 91be bdc9 ebbe
00000300: 474a a0be f00d 44be 8f9c cc3f 4441 09bf
00000310: 8d76 6ebe 8bd3 d6bf 783d f63e e305 463f
00000320: 131f d73d 9b8f 2dbf fc67 1f3e a39d 813f
00000330: 1659 1cbf 60da aabe f3f0 c93e 195e 9abf
00000340: dd6b 2cbf 00b9 063f 3f06 aa3f 57df fcbe
00000350: 2319 9c3f 31cc e93b aaf6 81be c5e8 4e3e
00000360: 741c c0bd 0a49 10be c870 df3d ad30 97bf
00000370: 6cd2 6d3e 3aab f13d 0867 84bf f2c6 5e3f
00000380: af05 c3be 3091 323d f790 163e c77e 553e
00000390: 4de3 3a3d 5837 03bf 3857 843e bea8 9d3e
000003a0: 07d3 6fbe 2dc4 5cbc f283 153f 7637 c1be
000003b0: 98ca 073f 690d 633e e7dd e6bd 57b5 063f
000003c0: 3dbb a6bf 0094 683f 4600 00bf 6075 5cbe
000003d0: ba03 45bf 38ae d5bf f585 ba3e 5e75 bc3f
000003e0: 4829 2abe 6ee0 0e3f 536e 813e bf50 803e
000003f0: 6de1 f13b c11c b1bb ea4e a6bf 37fe 14bf

net.8.bias f4 [20]
-0.21544361 0.14673579 -0.078442805 -0.042757362 0.23113583 0.03601347 -0.09131771 -0.13825299
0.06505325 0.3236977 -0.010831647 -0.25914714 -0.18211235 -0.37283364 0.115565315 -0.05080524
-0.30638373 -0.19055974 0.31052622 0.25186893
00000000: 409d 5cbe e841 163e 9fa6 a0bd 5822 2fbd
00000010: dfae 6c3e dc82 133d c804 bbbd 3192 0dbe
00000020: a33a 853d b4bb a53e 3877 31bc efae 84be
00000030: a97b 3abe 0de4 bebe 82ad ec3d 2819 50bd
00000040: 54de 9cbe 1822 43be 4bfd 9e3e f7f4 803e

net.10.weight f4 [8, 20]
-0.8788817 1.0326623 -0.71326727 -0.57937545 0.27505025 0.022578772 -0.115595974 0.032023117
1.5381733 0.9221904 -0.22992976 -1.1302574 0.32993272 -1.4073828 0.2574634 -0.14076391
-0.53264505 -0.345081 -0.030833965 -0.51783967 1.2838975 -0.47510576 0.3601389 0.8832574
-0.54269075 0.29151052 0.50887644 0.056004677 -0.709007 0.6190536 0.46988228 0.6524295
0.903641 0.5523403 -0.16588293 0.2261631 0.6307471 0.6552446 1.5696462 0.73523927
1.3641169 0.84645057 0.6591419 1.036016 -0.27623317 -0.11046314 0.51285267 0.22483817
-0.99778897 -0.8638049 0.26836437 -0.37850752 0.61928004 0.5954782 -0.025523186 -0.0023650648
-0.24039134 0.69230044 1.5581988 -0.23236011 0.67143536 -0.5840435 0.3948516 0.41763547
-0.061124306 -0.037881978 -0.12544642 -0.6297803 -1.8841971 -0.0069270055 0.5198252 0.62696993
0.24639007 1.5006866 -0.5387053 0.1121494 0.4246138 0.47578505 0.65736115 0.716232
-0.4128986 0.11643653 -0.968711 1.174006 -0.36436746 0.13206236 -0.11667651 0.6900852
0.54527617 -0.96287984 -0.9333504 0.8705948 0.9798425 0.2108148 -0.49721703 -0.8336855
0.26725748 0.62773675 1.1078434 -0.6616171 -0.08436851 0.17836729 -0.68793803 0.23982506
0.88309044 0.8990686 -0.42311817 0.7819473 0.41682842 0.14250743 0.29037294 0.27880347
0.5108726 0.18779965 1.096638 -0.5005585 0.94952327 0.046078872 0.850019 -0.7684664
1.2970271 -0.27457035 0.19900647 0.4818153 -0.1627987 0.50529194 0.31975037 -0.009849983
-1.0521467 0.4207898 0.21903007 0.818409 0.20216365 0.32222146 -0.20425072 0.2654161
0.18269998 0.4230525 1.314882 0.012021054 -0.36130002 -0.09522693 -1.064246 -0.029810887
0.13545465 0.20989934 -0.436122 1.0000046 0.14549404 -0.12203044 -0.57091296 1.5555549
0.9765418 0.39819008 0.7784114 -0.2639747 1.1327116 0.49917024 1.1993243 0.039059147
00000000: 64fe 60bf 472e 843f af98 36bf f351 14bf
00000010: 63d3 8c3e 1ef7 b83c 95bd ecbd ac2a 033d
00000020: dde2 c43f ac14 6c3f b572 6bbe 46ac 90bf
00000030: f1ec a83e 1f25 b4bf 3ed2 833e 6a24 10be
00000040: 6d5b 08bf 75ae b0be 8397 fcbc 2491 04bf
00000050: c156 a43f 1041 f3be 2064 b83e 281d 623f
00000060: c8ed 0abf de40 953e ba45 023f 2965 653d
00000070: 7c81 35bf 4c7a 1e3f 6994 f03e 9f05 273f
00000080: 0455 673f 2d66 0d3f 37dd 29be 4d97 673e
00000090: a478 213f 1cbe 273f 2bea c83f a438 3c3f
000000a0: 629b ae3f fcb0 583f 86bd 283f 2c9c 843f
000000b0: 6f6e 8dbe 803a e2bd 504a 033f fa3b 663e
000000c0: 196f 7fbf 5122 5dbf 0e67 893e bdcb c1be
000000d0: 2389 1e3f 4271 183f 0016 d1bc 34ff 1abb
000000e0: 2629 76be 9a3a 313f 0f73 c73f cfef 6dbe
000000f0: 30e3 2b3f e083 15bf fd29 ca3e 51d4 d53e
00000100: 7b5d 7abd 222a 1bbd 0775 00be 4839 21bf
00000110: 5f2d f1bf effb e2bb 4413 053f 1a81 203f
00000120: ae4d 7c3e 8016 c03f 97e8 09bf 96ae e53d
00000130: fb66 d93e 199a f33e d248 283f fb5a 373f
00000140: 7267 d3be 4776 ee3d 72fd 77bf d445 963f
00000150: 5f8e babe 5b3b 073e 18f4 eebd 6ca9 303f
00000160: 3897 0b3f 4b7f 76bf 0df0 6ebf 4ddf 5e3f
00000170: f5d6 7a3f d6df 573e 3b93 febe 6a6c 55bf
00000180: f9d5 883e 5bb3 203f d0cd 8d3f bd5f 29bf
00000190: 66c9 acbd eaa5 363e b51c 30bf b394 753e
000001a0: 3712 623f 5c29 663f f2a2 d8be b32d 483f
000001b0: 896a d53e 78ed 113e c3ab 943e 54bf 8e3e
000001c0: 8cc8 023f 8d4e 403e a25e 8c3f 9a24 00bf
000001d0: f513 733f 33bd 3c3d d89a 593f 37ba 44bf
000001e0: fc04 a63f 7c94 8cbe 5ac8 4b3e 7fb0 f63e
000001f0: b4b4 26be d05a 013f 52b6 a33e d361 21bc
00000200: beac 86bf c371 d73e 6b49 603e 4183 513f
00000210: fd03 4f3e 36fa a43e 1a27 51be 9ee4 873e
00000220: b415 3b3e 569a d83e 0e4e a83f f4f3 443c
00000230: 51fc b8be 5606 c3bd 3739 88bf f635 f4bc
00000240: a0b4 0a3e daef 563e 624b dfbe 2700 803f
00000250: 64fc 143e 18eb f9bd 5a27 12bf 6c1c c73f
00000260: a5fe 793f 92df cb3e f845 473f b127 87be
00000270: b2fc 903f 3e93 ff3e 7583 993f 7cfc 1f3d

net.10.bias f4 [8]
2.0756907 -1.2796031 0.13951899 -1.5794188 -0.18358463 -0.72915006 -0.91280663 -0.28106147
00000000: 1ed8 0440 09ca a3bf 11de 0e3e 652a cabf
00000010: 9cfd 3bbe 94a9 3abf b2ad 69bf 4ae7 8fbe
