models/epinet_model.pth (torch, 11970 bytes, 12 tensors)

net.0.weight f4 [20, 1]
00000000: dcdf 78bd 8e55 9e3f 966f 753f 2e00 cabe
00000010: 59f0 7dbf e852 6d3c 643d 95bd 1867 423f
00000020: e4f7 813f e5ec c1bd b325 54bc 64f9 6f3b
00000030: 8846 983d d8fa f1bc ab13 6cbf c18a 1a3e
00000040: 3a2c 57bf a75f 3ebd 5941 6b3e 74e7 0f40
-0.060760364 1.2369859 0.9587339 -0.39453262 -0.99194866 0.014485098 -0.072871 0.7593856
1.0153775 -0.09469012 -0.012948441 0.0036617154 0.07435328 -0.029538557 -0.9221751 0.15091993
-0.8405186 -0.04647794 0.22974147 2.2485018

net.0.bias f4 [20]
00000000: 392f a13e 7a50 1bbf 3792 02bf 55b9 94be
00000010: f1bb 723f ccbf 8cbe 0697 4cbf bb45 5fbf
00000020: 0ecf e6be db21 373e c307 2a3e 8385 97be
00000030: e9e7 2cbf 7342 db3e c67c 283f 3587 abbd
00000040: 475b 6cbe 605b 86bd 4ac9 20bf 61e2 cabe
0.3148134 -0.6066967 -0.51004356 -0.29047647 0.94818026 -0.2749008 -0.79917943 -0.87215775
-0.45079845 0.17884009 0.16604523 -0.2959405 -0.67541367 0.42824134 0.6581539 -0.08375398
-0.23081695 -0.06560397 -0.6280714 -0.39625838

net.2.weight f4 [20, 20]
00000000: cdf2 81be 3d50 1ebe 6ce9 aabe 5de0 0dbe
00000010: c3ad 6f3e fa3e 4fbd 0468 1e3f 6b47 fd3e
00000020: 85a1 ef3e 717a 19bc 14ba 5cbe 3c5f 34bf
00000030: 95e9 293f 9efb 5e3e 0437 cd3d 827f 1ebd
00000040: 1a09 7cbf 3aec b43e 718a 09bf 1f49 50be
00000050: 9c29 ebbe 433a 6ebf 621a b03e a90f f9bd
00000060: d5f8 f23e 48b1 57bf 00e5 953e f684 61be
00000070: cd6f 89bd f072 64bd d186 02be d81a 94be
00000080: 9372 d23e 9975 0a3d c169 a13d fdbc 1f3d
00000090: f2a4 5fbe c4a6 9dbe e6d3 103d 7136 883e
000000a0: b364 663f 667c d8bd fe56 c9bd 68d0 5abf
000000b0: 4b06 1dbe f9fe 12bf d05f 673e fd02 2abf
000000c0: 9b91 7b3e bf1d 81bd 9516 edbe 33a9 b6be
000000d0: 61e6 b13e b801 67bd f3f3 433f 39b5 493f
000000e0: dc11 f3be aa4d b33e fe06 88be cf4c 2c3c
000000f0: 2f05 493e 1650 0b3f 1b42 863e c7b1 87be
00000100: 7824 aabe 1d48 293f bd55 113e d38d f9bc
00000110: 7e34 bb3e 47f4 f43e 2d31 b73e 5344 b8be
00000120: 3770 593d 82f2 dd3d f6d5 c53d 8779 6b3e
00000130: cb24 b23e f39a 083f 66f6 f4be 538b 603e
00000140: ea31 bf3d f32e d6be 4186 2f3f 4e95 a93e
00000150: 1285 bebd e152 c83e f21c 093f 53d1 fabe
00000160: e572 0b3d c25b c83e 0f2f a93e d810 c33b
00000170: 5847 1b3e afee 38bd 55af abbe 048a 29be
00000180: cabc 223e b031 91bc aadc 0cbd 9290 8d3d
00000190: c719 acbe 9885 113b 506d b6be 75be f83e
000001a0: a2ff 823d 9611 89bd ed1d a5be 6cbc 19be
000001b0: 3db1 653e e33f f7be 83c3 cf3e 181a 773e
000001c0: fc72 b2be e1aa 89be b8dc 203f d574 7cbd
000001d0: d228 113e 0d92 973a 9fb8 fa3e 0db5 d83e
000001e0: fb1a 803e e438 5cbe 6690 333e fa77 633d
000001f0: 25ce e1be 943c b63e 3366 283f c104 18bf
00000200: 7bbe d0be af54 7ebf 33ba e33e 9870 f03e
00000210: be23 1c3e 06c4 063f 0be4 71be 2626 f33e
00000220: b050 6c3e 95e4 16bf 5774 babd ffb4 61be
00000230: 766e 84bd 584c 34be 0497 ad3e 9fb3 253f
00000240: 07f2 ba3e 8e70 68bd d234 ddbe 3e0b adbe
00000250: 3f6e 923e 4c6d 343d 3a22 92be d9a7 0abf
00000260: be91 133e c45a 383e 95cd c23e cb7b 11be
00000270: 4236 7dbd 4c5a 703e 2af0 903f 83f3 22be
00000280: 8270 43be 81a3 4e3e 2c72 093f 7fd3 c23c
00000290: 7b77 b73d 1a92 44be 7b75 9c3e 7811 cc3d
000002a0: 79a7 8ebe ff84 98bd c102 903d 21b0 083f
000002b0: cd97 61be 9c05 8d3e 28bd a03e 49b3 b8bc
000002c0: 27dc 62bf c794 dd3e 88fb b6be e841 ad3d
000002d0: c6d0 2ebf 6d30 a7bd ba07 edbc bfca dabd
000002e0: 0e85 18bf e541 00bf b4cb f83e e6d8 de3e
000002f0: 03be 13be 0198 24be 5cdf e23d b98e 04bf
00000300: bc72 debc 3d13 443d fc7b 1fbf 0b05 813e
00000310: b0f2 90be ae80 113f f241 7c3e e0ef 76be
00000320: d7bb ad3e ea20 39bb d05c 093f 9402 19bf
00000330: e4be 98be c4d9 eabd f2a3 8abd 3516 4dbf
00000340: 7b5b c73e 6ae4 84bd 85a0 1e3f 19da 62bf
00000350: dfe4 013f cc64 a0be 8087 593e da58 b43d
00000360: 7cca b53e 2416 b03e 8157 e8bd af2b 57be
00000370: c165 abbe 8ec2 a33d 572c ac3e cf6d 713e
00000380: 46d6 47be 275c 19be aa5b 5d3e acef 223d
00000390: 69bd dd3e 8ecd dc3e d6ba a63d 92d2 ab3f
000003a0: 4a0e 003f 71ff 073f 58fc c53e f6a7 38bd
000003b0: e7b2 23bf 106f 773f 8bfa 0cbc 982f 58be
000003c0: aea1 a7be 86a1 0b3e 912c 583f a408 aebe
000003d0: 761f 4e3e 3046 b33e 1857 10bf b66d 3f3d
000003e0: 1d23 1fbe 4012 173e e71e 19bf 4ba3 833d
000003f0: 1383 8cbd 807c 743d a751 a63e b030 093f
-0.25380555 -0.15460296 -0.33381212 -0.13855119 0.23406129 -0.05059717 0.61877465 0.4946855
0.46802917 -0.009367571 -0.21555358 -0.70457816 0.6637204 0.21775672 0.10020259 -0.03869582
-0.9845139 0.35336477 -0.5372687 -0.20340393 -0.45930183 -0.9305765 0.34395128 -0.1216119
0.4745547 -0.84254885 0.29276276 -0.22023377 -0.067107774 -0.055773675 -0.12746741 -0.2892673
0.41103038 0.033803556 0.07881499 0.038998593 -0.21840265 -0.30791295 0.035358332 0.26604035
0.89997405 -0.10570602 -0.098310456 -0.8547425 -0.15334432 -0.5742031 0.22595143 -0.6641081
0.24567263 -0.06304502 -0.4630629 -0.35675964 0.34746078 -0.056398124 0.7654411 0.7879215
-0.47474563 0.3502019 -0.26567835 0.0105163595 0.19630884 0.54419076 0.2622231 -0.2650282
-0.33230948 0.6612566 0.14192863 -0.030463135 0.36563486 0.4784262 0.35779706 -0.35989627
0.053085532 0.1083727 0.096599504 0.22995578 0.34793696 0.53361434 -0.47844237 0.21928148
0.09335692 -0.41832694 0.6856423 0.33121723 -0.09302725 0.39125732 0.5355979 -0.48987827
0.03404512 0.39132506 0.33043715 0.0059529357 0.15163934 -0.0451495 -0.33532205 -0.16556555
0.1589233 -0.017723888 -0.03439013 0.0691234 -0.33613417 0.0022204872 -0.35630274 0.48582807
0.06396414 -0.066928074 -0.32249394 -0.15013283 0.22430892 -0.4829093 0.4057885 0.24131048
-0.3485335 -0.26888183 0.6283679 -0.061634857 0.14175728 0.0011563912 0.4896898 0.4232563
0.25020584 -0.21506077 0.17535552 0.05553434 -0.44102588 0.35593092 0.65780944 -0.59382254
-0.40770325 -0.99347967 0.44477996 0.46960902 0.1524801 0.5264286 -0.23622148 0.47490042
0.23077655 -0.5894254 -0.09104221 -0.22041701 -0.06466381 -0.17607248 0.33904278 0.64727205
0.36512777 -0.056747966 -0.4320436 -0.3379764 0.28599736 0.044049546 -0.28541738 -0.54162365
0.14411065 0.18003374 0.38047472 -0.1420738 -0.061819322 0.23471946 1.1323292 -0.15913205
-0.19085887 0.2017956 0.5368984 0.02378249 0.08958336 -0.19196358 0.3055838 0.099642694
-0.27862146 -0.07447242 0.07031775 0.5339375 -0.22030564 0.27543342 0.31394315 -0.022546427
-0.88617176 0.4327757 -0.35738778 0.08459836 -0.68287313 -0.08163533 -0.028934348 -0.10683202
-0.59578025 -0.5010055 0.48592913 0.43524855 -0.14427952 -0.1607361 0.11077759 -0.5178028
-0.027154319 0.04786991 -0.6229856 0.2519916 -0.28310156 0.56836975 0.24634531 -0.24114943
0.33932373 -0.0028248378 0.53657246 -0.5976956 -0.29833138 -0.11467317 -0.06769551 -0.8011201
0.38936982 -0.06488879 0.61963683 -0.8861404 0.50739855 -0.31326902 0.21243095 0.088060096
0.35506046 0.34391892 -0.11344815 -0.21012758 -0.3347607 0.07996093 0.3362758 0.23577045
-0.19515333 -0.1497656 0.21616998 0.03977935 0.4330857 0.43125576 0.08141105 1.3423636
0.50021803 0.5312415 0.38669086 -0.045082055 -0.6394486 0.9665384 -0.008604656 -0.21111906
-0.3274054 0.13635835 0.84443 -0.33990967 0.20129189 0.35014486 -0.56382895 0.046735488
-0.15540738 0.14753056 -0.5981278 0.0642763 -0.06860938 0.059689045 0.3248417 0.53589916

net.2.bias f4 [20]
00000000: 6b19 883d cff2 51bb b84a 9fbb 51f6 acbd
00000010: b873 62bd 0133 f4bb 6cd0 15bd 9320 feba
00000020: c548 423d a5a4 1dbe 8fa2 2e3c c8b5 0dbd
00000030: 497d 5f3d 96f7 d53c dc44 bc3d ab1f 033d
00000040: 1dc9 ab3d e8d7 143b 5ca3 853d a556 a9bc
0.06645473 -0.0032035594 -0.004861202 -0.084454186 -0.05528614 -0.007452369 -0.03657572 -0.001938837
0.04743268 -0.15394838 0.010658874 -0.03459719 0.05456284 0.026119035 0.091928214 0.032012623
0.08387969 0.0022711698 0.06525299 -0.020671198

net.4.weight f4 [20, 20]
00000000: 92eb ea3e 7cab 9fbe e9d1 d8be 4201 1f3e
00000010: 4cfa 053e 9a73 1e3e ab30 363e f2ea 11bf
00000020: 5f83 55bd 3d5d 9ebe 2982 3c3f c449 babe
00000030: 2a8e 093f cac6 e1be d112 12be 41bc e1bd
00000040: 0fec 373f a3c7 01be 81c2 f43e b5f2 bbbe
00000050: a2a5 fc3c 30bf 8e3e cb8e 0b3f 52c5 dbbd
00000060: 17eb a4be abd2 833e c9f5 b03e 607e d8be
00000070: d363 3a3e 21c2 ea3e add0 c23e 5269 52bf
00000080: f20b 82be 3f3f ef3d 9b81 9ebf f69c 893e
00000090: 809b 8d3e e583 e73e 6919 34bf 6d20 b73e
000000a0: 974d 053f 342c 6a3e 249c 0abf 74ba b4bd
000000b0: 49e0 1c3f 2f40 30bf 39d3 29be 35b7 84be
000000c0: e821 033e 25a1 943d 90af d3be 4e11 063f
000000d0: 255c 09be 625c da3c 0cec 1b3f e24a 5b3f
000000e0: 4e7d 703e 8a0d f7bd bd79 fd3e 6ecc 8c3e
000000f0: 7732 513f be23 a53e c11b 093d 91d1 ee3e
00000100: eab2 a13d 38ce 5fbf 1ae2 9fbf e684 2cbc
00000110: c6a8 143f 4506 ad3e 4ba5 d63c 9ec6 52bf
00000120: dc2c f7bd 6fdc a73e 4040 efbe 6bc7 b53c
00000130: a8f1 2f3e 0a97 28be 4438 efbc 34c5 0c3f
00000140: 6fcb 493e ae62 f83d 3e61 d83e 4fd8 d43e
00000150: 4c79 ff3e f803 213f 3913 2f3f 2c8b 93be
00000160: cc63 b9bf ec12 b93e 27cd 903e 0943 35bf
00000170: dd1f 45be 4afc 123e 97b6 dfbe 9b08 b33c
00000180: e0fd b9be b410 383f c4f4 a7bd bebb e23d
00000190: 9c9f f93e da19 80be 748c 583e 0d61 7fbe
000001a0: 2d71 c2be dad3 353c d90c 9ebd 6d0c 1fbe
000001b0: f183 373d fb46 ec3e 836f b03d 7fb2 9d3c
000001c0: 9cd4 43be bd27 8ebe d907 e6bd 7ba8 713e
000001d0: 1ca2 2bbe cc2e a8be 0eb0 423d 4f08 46bd
000001e0: 581c 7dbc 08e3 8abe 0b96 2b3e f7df 0e3f
000001f0: 04c2 1a3e 9c57 bbbf 7df3 db3e 8528 11bf
00000200: 25a1 483e c27b d43d e8bf fabe a9f7 513f
00000210: 9a9a 093e a9de 1bbf b2a0 dd3e 9e3f d83e
00000220: abeb c5be 3aa2 88bf 3e84 6e3e ca16 913f
00000230: 5ee3 bf3d fef0 56be 8198 f4be 89bd 91bf
00000240: a91a 79be a954 a93d ee0b 0d3e cd68 1ebf
00000250: 2342 973e 61b8 a4be 0008 553e b61f 083e
00000260: 4896 ce3e 8afc 1bbf 4e78 32be df02 263e
00000270: 15b6 31bd cbaf fdbe 1896 393f f231 03be
00000280: 111c 5d3e 619a c03d 84fd 0a3e 8cc0 5e3e
00000290: 5c9f 0bbe 06dd bfbc b937 f5be e4f2 cc3e
000002a0: 7f4c 9bbe eb25 fa3e df58 8f3e 7d9b eabe
000002b0: 27c0 53bd c93a 6f3e 71d8 8ebf a655 6b3d
000002c0: 1060 d5be d049 ee3d 2649 6ebe 4a59 533f
000002d0: 61dd bbbd 10fe edbe d456 13be 731d 343f
000002e0: 67c8 8fbe e1d5 1dbf a6b8 3dbe 2637 f43c
000002f0: 85c6 353d 27bf 3cbe de1d 8ebe 6e3d 25bf
00000300: ffd0 303e bc71 abbe ad00 11bf f1d1 ba3c
00000310: d346 6bbd 3839 08be 459d 92be 842f d03f
00000320: 21df e2be 7631 ec3e 69a3 febe c0e9 553e
00000330: 5370 9a3e 49ad f23d 3855 093f 76b8 cb3e
00000340: 56fb 6bbc 19dc 973e 06a1 b63e 1dfa cf3e
00000350: ed78 8abe 2301 c2be cb54 843f 9bb4 d93e
00000360: efdb f33e 7561 6a3d cc49 ba3e 516a 84bf
00000370: abc6 ca3e de80 933e af34 04bf 8113 28bf
00000380: 32c1 84be e4c2 993f 771b 1d3f 19dc 3dbe
00000390: c4d8 4c3d 8870 b63e 7d08 473f 1849 943e
000003a0: 22d4 df3e dbdb b2be 9d5b 2fbf c793 293f
000003b0: 0e58 74be 9eab 13be 2f73 21bf ca40 72bf
000003c0: c38f e13e 0eca 2ebe 423e 8dbe db84 483e
000003d0: c9ec 3e3f 131f 13bf b064 61bf d0a7 99be
000003e0: c687 01bf 3113 103f 08c7 793e 736b 9bbf
000003f0: 6a41 34be 259e 213f 7a3a 98be f013 3bbe
0.4588285 -0.3118552 -0.4234765 0.15527824 0.13083762 0.15473786 0.17792003 -0.56999123
-0.05212724 -0.3093051 0.7363611 -0.36384404 0.5373255 -0.44096977 -0.1426499 -0.11022235
0.7184457 -0.12673812 0.47804645 -0.36708608 0.030840699 0.2788024 0.5451476 -0.10730995
-0.3221061 0.25746664 0.3456252 -0.42283916 0.18202142 0.45851234 0.38049832 -0.82191956
-0.2539974 0.11681985 -1.2383302 0.26877564 0.276577 0.45217815 -0.7035127 0.35766926
0.5207152 0.22868425 -0.541445 -0.088246256 0.6127973 -0.68847936 -0.16584481 -0.25921026
0.12805903 0.072572984 -0.4134488 0.52370155 -0.13414057 0.02665538 0.60907054 0.8566114
0.234853 -0.12063129 0.4950694 0.27499717 0.8171763 0.32253832 0.033473734 0.4664426
0.07895453 -0.8742404 -1.2490876 -0.010529732 0.5807003 0.33793846 0.026201865 -0.82334316
-0.12069103 0.32785365 -0.46728706 0.022189816 0.17182028 -0.16463867 -0.029201634 0.5498841
0.1970651 0.12128197 0.4226169 0.4157128 0.4989723 0.6289668 0.68388706 -0.28817117
-1.448358 0.3614725 0.2828152 -0.7080541 -0.19250436 0.14354053 -0.43693992 0.02185469
-0.36326504 0.71900487 -0.08200982 0.11070965 0.48754585 -0.25019723 0.21147329 -0.24939366
-0.3797697 0.011097873 -0.07717294 -0.15532084 0.044803564 0.46147904 0.08615019 0.019250153
-0.19124073 -0.27764693 -0.112319656 0.23599426 -0.16761059 -0.32848203 0.04753118 -0.048347767
-0.015448652 -0.27126336 0.16756456 0.55810493 0.15113074 -1.4636111 0.42959204 -0.5670245
0.19592722 0.103751674 -0.48974538 0.82018524 0.13437882 -0.6088663 0.43286663 0.42236036
-0.38656363 -1.0674508 0.23292634 1.133508 0.09369539 -0.20990369 -0.477726 -1.1385967
-0.24326576 0.08268101 0.13774082 -0.61878663 0.29542646 -0.3217192 0.20803833 0.13293347
0.4034903 -0.6093222 -0.17428705 0.16212033 -0.043386538 -0.49548182 0.7249465 -0.12812021
0.21592738 0.094044454 0.13573271 0.21753138 -0.1363501 -0.023420822 -0.47894076 0.4002906
-0.303318 0.48857054 0.2799749 -0.45821753 -0.051696923 0.23362269 -1.1159803 0.057454728
-0.41674852 0.11635172 -0.23270091 0.8255812 -0.09173084 -0.46482897 -0.14388591 0.70357436
-0.28082582 -0.6165448 -0.18527469 0.029811453 0.044378776 -0.18432294 -0.27757162 -0.6454686
0.17267226 -0.3348521 -0.56641656 0.022805186 -0.05744059 -0.13303077 -0.28635612 1.6264501
-0.4431086 0.46131486 -0.49734047 0.2088995 0.30163822 0.11849458 0.5364566 0.3978917
-0.014403185 0.2966011 0.35669726 0.4062051 -0.27045384 -0.37891492 1.0338377 0.42520604
0.47628734 0.05722185 0.36384428 -1.0344945 0.39604697 0.28809255 -0.5164289 -0.6565476
-0.25928646 1.2012601 0.61370033 -0.18540992 0.05001141 0.3563273 0.7774733 0.28962016
0.43716532 -0.3493336 -0.68499166 0.66241115 -0.23861715 -0.14420936 -0.6306638 -0.9463011
0.44054994 -0.17069265 -0.2758656 0.1958193 0.74580055 -0.5746929 -0.8804426 -0.30010843
-0.505978 0.56279284 0.2439233 -1.2142166 -0.17603078 0.63131934 -0.29732114 -0.18269324

net.4.bias f4 [20]
00000000: 4f88 e13c 0801 26bb 0a21 613d abaa 4dbc
00000010: a860 d7bd 5c2d ac3d 2ce3 a93d 1296 153d
00000020: c310 1fbd 04a9 26be 94db 373d 6319 9dbc
00000030: a8c6 923d 8485 6fbd bd3a 103d cd5a a73d
00000040: cc09 08be 1a07 20bd ce34 a637 d2b0 e43c
0.027530817 -0.0025330205 0.05496315 -0.012552897 -0.105164826 0.08407089 0.08295283 0.03652007
-0.038834345 -0.16275412 0.04488714 -0.019177144 0.07166797 -0.05847694 0.035212267 0.08171616
-0.13284987 -0.039069273 1.9813331e-05 0.027916346

net.6.weight f4 [20, 20]
00000000: d31a f93d 9a88 cc3e b9c4 323e e610 b4be
00000010: d48c 323f 6f1c 38be 7822 eebe fa44 cabd
00000020: 505d 9d3b b670 17bf 2299 023f b4dd 2cbf
00000030: 3c9d 533e 9117 dc3e 474a 0ebf c7aa b8be
00000040: 7bcb c8be 869f b93d ffea 33bf ba8e 5f3f
00000050: 3047 b43d 30fc 2ebe 95ad f43e afbf 40be
00000060: 210c 0abe c0e1 b93d c682 96be f014 9a3e
00000070: 004a 7cbe 3980 f7be 7e61 4e3e a22d 72be
00000080: b4ba 11bf 9fa9 2c3f 293e adbe b23d 83be
00000090: 8c74 a3bf 96a9 82bf a10b 0dbe 70d3 813f
000000a0: 228b 1a3f c69a d9bf ec8b 153f df48 03bf
000000b0: b24b cf3e 8657 eb3e 586e 2c3f 51a1 4a3f
000000c0: 75c3 9cbf fa35 e3be 199e a33f 5329 f7bd
000000d0: fbde f7be 265a 8e3b ec7e a5bd 9296 8cbe
000000e0: d7db 683f 94cb 32bf fc36 023f 661c 783f
000000f0: a1c3 17be fe18 e33b 0220 a93a 6786 c33d
00000100: 2e73 0e3d 2b69 f4be bab4 a0be b4a2 e53d
00000110: 2f92 e3bd b79f abbc 7b5c 213f 6df4 5b3f
00000120: 200b 86bf ef84 d33e 6ec2 bf3c 6db2 ae3e
00000130: 67b6 37be bc9d 2bbf d547 073f b01e 313f
00000140: 51a0 1ebf 14aa 42bd 084d 9d3e a4e3 24bf
00000150: 388d d13d 8909 2b3d 60db 573e b8d7 d7be
00000160: 23e2 03bf cc5e 843e e202 72be cd46 20bf
00000170: 9016 783e 7903 ebbd af90 3bbe 3f26 633d
00000180: f44a c53e b69c 31bc ba74 a3be 1f05 07bf
00000190: 92e0 13be 76e6 dd3c a27c 69bb c753 f63d
000001a0: d8b0 00be 5deb 183e ab5f b63e 20cc 8b3e
000001b0: db18 063f 977b b13e 7cb4 64bf de1f eb3d
000001c0: d461 f03e cfc0 50bf 360d 403f effa 423f
000001d0: d2ea 303f ef5b d93f f628 a9be cac3 68bf
000001e0: 8a44 32bf c290 793f fdd9 e3be 967e af3e
000001f0: 95b6 7e3f f044 7cbf 0c35 f7bd 3fe4 89be
00000200: 5f0b 56be e7c6 b6be a302 aabe 6be0 9b3e
00000210: 9a5d dd3e 1581 47bf 56a5 1bbe 8e1e 373d
00000220: 20c9 e4be 054f 9d3d c41f 623f 1ee3 91bd
00000230: 7036 87be 6588 3cbf 748a 41bf 9138 f3be
00000240: 100a 97be 6ef1 1abf 8d69 ef3e d01b d4bd
00000250: 9a0d b63d 7a09 d8bc 2ea3 5a3f 0da7 4ebe
00000260: 6668 4cbf 4b59 1b3f 84ed e3bf 5019 aabf
00000270: a1a9 b53d e506 75bf 0dad 8f3f a464 693f
00000280: 6fc6 1bbf 7903 b2be 23ef a9be a410 693f
00000290: 0a55 c7be d33c 4a3f 8022 273f bada 123e
000002a0: 731a c7be 0745 c03e c96a 153c 0ee9 afbe
000002b0: d5b2 6b3e d87e a2be c386 1ebf f6fe 1ebf
000002c0: 7e0f ff3e 81ca 84be 83c8 0bbe 8e4f c53e
000002d0: d324 31bf c3cc a2be 859b 0f3e 40b1 a3be
000002e0: c129 fd3e 6b71 43be 9d13 b3be 1cbb e5be
000002f0: b9a8 133e b227 2abe 28db 3b3f 7c98 1d3e
00000300: e5d4 d7be e030 db3e 1ce2 a03e e656 94be
00000310: 1210 c23e 1e55 dd3d d7da 9bbd c52d 27bf
00000320: dab6 00bd 2818 33be ebc2 b13e f9cb 96be
00000330: e072 393e aa5b 9c3a e38d e5be 4e00 b4be
00000340: 084a 0bbe fb7e 61be 59e7 00be a3ab f33e
00000350: 1d6c 26bf caf2 d33e 2f89 d6bf 0588 e7be
00000360: b167 213e e6ee adbf f27d 033f 2ede 333f
00000370: 4fda cf3e 7530 fc3d 621d d4bb 7bbd ae3e
00000380: 535f 19be ec31 8fbf 47cf 953e e4e1 44bd
00000390: 2a0d c7bd d730 223f 5255 f2bd 8378 e0be
000003a0: 7417 133f 1fab 83bd 74be 8f3d c091 023d
000003b0: b369 01bf b78f 983d d7e3 b63c b0c1 15be
000003c0: 9e6c 32be 0c2e a5bd c2d6 01bf 80f1 bebe
000003d0: 3a2d f53e 72a8 bf3d 208a fcbe 812d 86bf
000003e0: d610 0d3f 6bb3 6a3e fc04 08bd 8b57 6f3e
000003f0: 896d 6ebd e228 453f 9b5a 583f a8ec d23e
0.121633194 0.3994797 0.17457856 -0.35169142 0.69746137 -0.17979597 -0.46510673 -0.098764375
0.0048023835 -0.5915636 0.5101491 -0.6752579 0.20665449 0.4298673 -0.5558209 -0.36067793
-0.39217743 0.0906363 -0.7028045 0.8732716 0.088026404 -0.1708839 0.47788683 -0.18823121
-0.1348119 0.090762615 -0.29396647 0.300941 -0.24637604 -0.48340014 0.20154378 -0.2365022
-0.5692551 0.6744632 -0.33836487 -0.25633007 -1.2769942 -1.0208004 -0.13773967 1.0142651
0.6036855 -1.7000358 0.5841663 -0.5128307 0.40487438 0.45965213 0.6735587 0.791524
-1.2247149 -0.44377118 1.2782623 -0.12068429 -0.48412308 0.0043442426 -0.08080849 -0.27458626
0.9096045 -0.69841886 0.5086515 0.9691833 -0.1482072 0.0069304695 0.0012903216 0.095471196
0.034777813 -0.47736487 -0.31387883 0.11212674 -0.11111867 -0.020950181 0.6303174 0.8591984
-1.0472145 0.41312358 0.023408141 0.34120503 -0.17940675 -0.6703756 0.5284398 0.6918745
-0.61963373 -0.04752548 0.30722833 -0.6440985 0.102320135 0.04175714 0.21079779 -0.42156768
-0.5151693 0.25853574 -0.23633912 -0.62608033 0.24227357 -0.11475272 -0.18316911 0.055456396
0.38533747 -0.010840585 -0.31924993 -0.5274219 -0.14441136 0.027087431 -0.0035627265 0.12027698
-0.1256746 0.14933534 0.35619864 0.27304173 0.52381676 0.34664604 -0.893379 0.114806876
0.46949637 -0.815442 0.7502016 0.76164144 0.6910831 1.6981181 -0.33039063 -0.9092375
-0.6963583 0.9748651 -0.4450225 0.34276265 0.9949735 -0.9854269 -0.12070665 -0.2693195
-0.20902775 -0.35698625 -0.33205137 0.30444655 0.43235475 -0.7793134 -0.1519979 0.044706874
-0.44684696 0.076810874 0.8832972 -0.07123397 -0.2640872 -0.7364562 -0.7560189 -0.47504094
-0.29499865 -0.6052464 0.46760216 -0.10356867 0.08889313 -0.026371706 0.8540524 -0.20180912
-0.798468 0.60683125 -1.7806859 -1.3288975 0.08870245 -0.95713645 1.1224686 0.9116919
-0.6084966 -0.34768274 -0.3319026 0.91041017 -0.38932067 0.7899906 0.6528702 0.1434125
-0.38887367 0.37552664 0.009119698 -0.34357494 0.23017438 -0.317374 -0.6192438 -0.6210779
0.49816507 -0.25935748 -0.13650708 0.38537258 -0.69196814 -0.31796846 0.1402417 -0.3197117
0.49445918 -0.19086234 -0.349759 -0.44869316 0.14419831 -0.16616705 0.7338128 0.153902
-0.42154613 0.42810726 0.31422508 -0.28972548 0.37902886 0.108072504 -0.076101 -0.65304214
-0.03142438 -0.17489684 0.34719023 -0.29452494 0.18110228 0.0011929173 -0.44834813 -0.35156482
-0.1360246 -0.22021095 -0.12588252 0.47591886 -0.6500872 0.4139617 -1.6760615 -0.45220962
0.15762211 -1.3588531 0.5136405 0.70260894 0.40596244 0.1231393 -0.0064732293 0.34128937
-0.1497777 -1.118711 0.29259703 -0.04806699 -0.09719308 0.63355774 -0.1183268 -0.43841943
0.5745766 -0.06429123 0.07018748 0.03187728 -0.5055191 0.074492864 0.02232544 -0.14624667
-0.17424247 -0.08065423 -0.5071832 -0.37293625 0.47886068 0.093583 -0.4932413 -1.0482637
0.55103815 0.22920005 -0.03320788 0.23373239 -0.05820993 0.7701551 0.8451325 0.4119618

net.6.bias f4 [20]
00000000: 6d3a afbc 96a0 b7bd 1d2a 3d3d 264c 5a3d
00000010: a353 76bd 9761 8dbc e72d 0ebe 7ac9 abbe
00000020: 41a6 2e3a 68af babd 649e b8bd f199 47bc
00000030: 59f2 e9bd 8395 5e3d eac5 f1bc aad9 4cbd
00000040: 0446 5a3d 7871 3fbe 9217 2e3d d059 103c
-0.021390164 -0.08966176 0.04618274 0.053295277 -0.060138356 -0.017258449 -0.13884698 -0.33552152
0.0006662347 -0.09115487 -0.090145856 -0.012182699 -0.11423177 0.054341804 -0.029513318 -0.050012268
0.05328943 -0.18695629 0.042502947 0.0088104755

net.8.weight f4 [20, 20]
00000000: 6c84 d03e 9a47 98be 0c0c 443e 5e76 72be
00000010: 1d86 cebd 639b 1bbf b89c 3e3e 79db 863e
00000020: 6f75 bb3e f4aa 1fbe 676f 3a3f 4d1b 523e
00000030: 4cc5 833e 28f9 a13e 29ca 903c 05c8 c8be
00000040: c278 47bd 1c64 f53d 6e15 d7bd a338 a2bf
00000050: d545 81be 1594 18bf 7ad4 6e3e a321 4fbe
00000060: 44a5 81be 38a0 d7be 8dce efbe 9696 073d
00000070: 493d d33e c48a 2c3e 0627 11be 09f3 26bf
00000080: 0ceb b13d ec3b 893e 5782 f73e 4bfd 13bf
00000090: db92 1ebf 298c 323d aaa4 b3be 0962 3fbf
000000a0: 3401 fb3e 80c7 1e3e 77ca 3ebf d319 52be
000000b0: 79a2 1abf 2df6 c33e 94b0 8ebe 9ffe 0f3f
000000c0: e98c 9e3e a3d3 a7bd c312 52bd 5128 0a3e
000000d0: 75af 12bf 5483 113f 2339 dc3e fa21 743e
000000e0: 2798 81be 5bfc 4fbe 2a11 793e 8ca7 0c3f
000000f0: 47a5 4dbf 71d9 1fbe d732 c33d 1487 1c3f
00000100: 9e8f 21bf 658f 0ebf 010d 31bd 1aaa 8b3c
00000110: 3150 463f 3018 443e cd5d 333e 2300 73bf
00000120: fc0c 023d 4b0b e0be 343a 5a3d eacf 7abe
00000130: b3fc 893e 44f4 8e3e 2ba4 99be 9556 8abe
00000140: 877e 90bd ea8c 973f 0db7 c7bd 3cdd a43c
00000150: cf4d 63be 16d4 02bf 7af0 2abe e6dc d1bd
00000160: 0015 b73d 055d 26be d819 2e3f c75f 0a3d
00000170: 6d72 47be 7c3e 353f 6eba 973e fd44 21bf
00000180: a75f 1f3f b12b ffbe 7dd2 263f 5fe3 233f
00000190: b0eb be3e bf74 e1be b2cf 41bf 9f4f 9d3e
000001a0: 1181 63bd d74d aa3d 88a1 993e 3447 143e
000001b0: 8be0 a0bf 4aca 793e 5304 e0be ba73 7a3e
000001c0: f241 be3e ff2d 8b3e b9fb 2f3f 28b9 343f
000001d0: 7cb2 1ebf 332f 563f cbf9 70bf 5674 4dbf
000001e0: 95b5 d7be a06d 1abf d288 19bd 9c63 98be
000001f0: 7efa 8cbe 891b 04bf e22f d3be 98bd e33d
00000200: aeb3 24bf a250 613f 5e0e b6bd c9c7 febe
00000210: e1dd a73d 387e 5dbe 274a 18bf f948 e33e
00000220: 3766 24bd a4cf 60bf 4762 b43e a201 1bbe
00000230: 69e5 f63e a77f 773f c2bc abbe e4c5 59bd
00000240: 043e d7be 9e8a 46be 03d4 18bf d857 303e
00000250: b44e 50bf d011 58bd 90d9 38be 82fd 49be
00000260: f6e4 abbe 499d b83d f914 88bf 4ce9 53bf
00000270: 83db 1a3f 385e 74bf d007 803e c652 013e
00000280: f3de 5cbf c7a5 18bf 5865 4d3f 971e 73be
00000290: 1620 39bf 8571 883f 1861 3fbf 2b31 e9be
000002a0: 39e5 57bd 483f adbe 8ed9 e6be 1c90 84bf
000002b0: d30c f8be caf2 523f 0975 d43f afe1 3bbe
000002c0: a052 c33e 18f8 f4bd 5dc1 92be 5714 973e
000002d0: f0ed 8b3c a707 98be d50c 413d c735 7bbd
000002e0: 7008 3fbf 4567 5bbe 61a7 4dbf e343 cf3c
000002f0: 8d7a 0f3f 4639 74bf 89f6 763e b993 9dbe
00000300: 7a11 83bf 0278 073e f920 193f e135 b7bc
00000310: d75f 0bbf 1eb7 19bf f3d4 c83e 5e0e f63e
00000320: 762f 4c3e c7b0 8b3e 7d6f 603e 7584 983f
00000330: 08c0 9b3e 4970 8cbf abf0 0a3d 20fb 583f
00000340: 06c2 10bf 8217 173f 1d47 0940 4efd 21bf
00000350: 6f4b 033f f7aa bebd b208 f6be 07b8 a63e
00000360: 95a3 13be 9866 4abe 55e3 6dbf 924f 04be
00000370: b465 c13e 8b73 b03e 15db 8abf 2ff5 6c3f
00000380: 1297 d8be 6dce 04bf f3eb ce3e 9df9 1f3f
00000390: e29f 09be a396 a8be 639f 383f 5fc6 193e
000003a0: 5810 82bd 8af9 97bd 1dad 793e 9420 aebe
000003b0: f3e9 9b3e e2bb af3e e153 a03d 6216 103f
000003c0: b52e 0abf 06ec d53e 8332 183e bbc1 4a3d
000003d0: 9ef2 aebe 5515 36bf 4d57 23bf b4cb 683f
000003e0: 9533 c93e 4db7 b2be 0d7e da3e 5dde 1c3e
000003f0: 3b4d 1fbe 6757 d73e 2a24 6ebe 9e7d a6be
0.4072603 -0.29742128 0.1914522 -0.23677966 -0.10084174 -0.60783976 0.18614471 0.2633932
0.36613032 -0.15592557 0.72826236 0.20518227 0.25736463 0.31635404 0.017674522 -0.39215103
-0.048699148 0.11981985 -0.10502134 -1.2673534 -0.2524859 -0.59600955 0.23323241 -0.20227675
-0.253214 -0.42114425 -0.46837273 0.033102594 0.41257694 0.1684981 -0.14175043 -0.6521459
0.0868741 0.2680353 0.4834163 -0.5780837 -0.61942834 0.0435907 -0.35086566 -0.74758965
0.49024355 0.1550579 -0.74527687 -0.20517664 -0.60404164 0.38273755 -0.27869093 0.56247896
0.3096688 -0.081946634 -0.051287424 0.13491942 -0.57298976 0.56841016 0.43012342 0.23841086
-0.25311396 -0.2031111 0.24322954 0.54943156 -0.8033032 -0.15610291 0.09531181 0.6114361
-0.6310977 -0.5568755 -0.043225292 0.017048884 0.7746611 0.19149852 0.17516251 -0.94922084
0.031750664 -0.43758616 0.053278163 -0.24493375 0.26950607 0.27920735 -0.30008063 -0.27019182
-0.07055383 1.1839879 -0.09751711 0.020125024 -0.2219765 -0.5110487 -0.16693297 -0.10247211
0.08939552 -0.16246422 0.68008184 0.033782747 -0.19477244 0.7079847 0.29634422 -0.6299589
0.6225533 -0.4983802 0.6516493 0.64018816 0.3728919 -0.44034383 -0.7570754 0.3072481
-0.05554301 0.08315628 0.3000605 0.14480287 -1.2568525 0.24393573 -0.437533 0.24458209
0.37159687 0.2718353 0.68743473 0.70595026 -0.61991096 0.8366577 -0.94131154 -0.8025564
-0.42130724 -0.60323524 -0.037483998 -0.29763496 -0.2753486 -0.51604515 -0.4124747 0.111201465
-0.6433667 0.8801366 -0.08889459 -0.497618 0.08196617 -0.2163018 -0.5948815 0.4439161
-0.040136542 -0.87816834 0.3523123 -0.15137342 0.482219 0.96679157 -0.33542448 -0.05316724
-0.42039502 -0.19388816 -0.59698504 0.1722101 -0.8137009 -0.052751362 -0.18051744 -0.19725612
-0.3357312 0.09014375 -1.06314 -0.8277786 0.604912 -0.95456266 0.2500596 0.12629232
-0.86277694 -0.59627956 0.80232763 -0.23742138 -0.72314584 1.0659643 -0.7475753 -0.45545325
-0.052708838 -0.33837342 -0.45087856 -1.0356479 -0.48447284 0.82401717 1.6598216 -0.1834781
0.38148975 -0.11961383 -0.2866315 0.29507706 0.01708123 -0.29693338 0.04713138 -0.061330583
-0.7462225 -0.21426113 -0.80333525 0.025300926 0.5604637 -0.9539989 0.24117483 -0.30776766
-1.0239708 0.13229373 0.5981594 -0.022364559 -0.54443115 -0.6004504 0.39224967 0.48057836
0.1993998 0.27283308 0.2191753 1.1915423 0.30419946 -1.0971767 0.033920925 0.84758186
-0.56546056 0.59020245 2.1449654 -0.6327714 0.5128698 -0.09309953 -0.4805351 0.32562277
-0.1441787 -0.19765699 -0.92925006 -0.12920979 0.37772906 0.34463152 -1.0848109 0.9256162
-0.42302758 -0.5187748 0.4041439 0.62490255 -0.13439897 -0.32927427 0.72118205 0.15017079
-0.063507736 -0.07420643 0.24382444 -0.3400923 0.30451927 0.3432303 0.07828499 0.56284153
-0.5397752 0.41781634 0.14863019 0.049501162 -0.34169477 -0.711263 -0.63805085 0.90935826
0.39297166 -0.34905472 0.42674294 0.153192 -0.15556805 0.4205887 -0.23255983 -0.32517713

net.8.bias f4 [20]
00000000: 3ad7 37bd a67a 1dbe 0d69 38bb 83ed 1cbd
00000010: cd94 2a3d dca9 57be 4a99 5cbd af12 213e
00000020: 5523 2c3e 7773 5e3e 5a41 c4be ed94 193d
00000030: 74dc a43d b9ff 45be ad07 c8bd 06e0 87bc
00000040: 4a8d 873d 2658 99bd c571 0bbc 153a 4cbe
-0.04488299 -0.15378818 -0.0028138787 -0.038312446 0.041645814 -0.2106089 -0.053857125 0.15729783
0.16810353 0.21723734 -0.3833111 0.037495542 0.080498606 -0.19335832 -0.09767089 -0.016586315
0.066187456 -0.07487516 -0.0085110115 -0.19944032

net.10.weight f4 [8, 20]
00000000: fb72 00be d26f 36be 5371 69be e59d 00bf
00000010: 15e5 613c 4e73 443e 9bcf 0dbe ca31 fb3d
00000020: 3270 88be ece5 983d 69f8 abbd a6e9 113e
00000030: 549c e23e f146 113d 5e1c 213f 0250 1f3e
00000040: 996d c63e 3e4a 563d d7a5 02be e67c 663d
00000050: c8e2 a93f 6196 763f 17f1 203f eba9 ef3f
00000060: fb56 a83e aafc b2be abd3 323f 7524 1b3d
00000070: 8c0c 2740 3986 8fbf d61e 5d40 fd73 843f
00000080: 8774 b53e 0d9a 8dbe e9ca 2abe 5a5b 293f
00000090: d427 a2be 90a6 073f 9a88 943f 4178 c2be
000000a0: e0c7 823f ef92 123f db77 153f 34ce bb3f
000000b0: 29ff 77be 7d65 38bf e69a 003f 5b92 81bd
000000c0: 3e1c 25bf 7a51 7ebd f128 0a3f d8f8 4ebe
000000d0: e9df d13e 8f46 13be f8d4 2bbc 272c 60be
000000e0: f2a8 84be 279b 213d fe67 733f cb98 13bf
000000f0: 0bf6 083f 530c 68bc ab5d cdbe 41b3 d13e
00000100: a934 143f 2ab0 23bf 2848 c23d 0153 00bf
00000110: 9246 d1bf 6dc4 30bf 096e 873f 99be 25be
00000120: 5701 653d 9f50 11bf f871 d53e eac8 523e
00000130: 11cf d4be ab7a 8b3f 6b7f 763e 6d8b 513f
00000140: cfa4 9f3e b095 4e3d a1af 48bf fc35 d73f
00000150: 40cf cfbe 44a4 463e 37bc 6abf 6b02 5a3e
00000160: 0d00 493f cc45 0fbf 2312 e9be fe2e 7b3f
00000170: 3417 853f 3fbf 1ebf 2a98 24be 13f7 1cbf
00000180: 38db 8d3d 720c 63bf 6370 183e a94d 5fbf
00000190: 21bd 473e 788e 5c3f f45c abbe 43fd 68bd
000001a0: afc6 5b3f 0c85 1d3e d886 0d3f 7c5f 0f3f
000001b0: 706f 38bf 2c1b 133f b726 db3d 9d2d fe3c
000001c0: 181a 0e3e e393 66bf 1eaa 693f 008a acbe
000001d0: 061a 013f 8ef7 4abf d456 983e 7c83 73be
000001e0: 6361 153f be24 963e 9085 1cbe 7e94 403f
000001f0: f72c 793d 8f09 03bf 2150 9abe 65cc 2f3e
00000200: ebbc 92bf 571e aabe d31f 58be 1c42 973e
00000210: 3ead ed3e f947 91be 85c6 353f 5e2d 44be
00000220: 2949 453e b332 133f 9ad1 c23e 4f55 4ebe
00000230: f89d d43d 862b c03d de1f 27bf 75ae e8be
00000240: 6689 3d3e 1ea8 b0be 212f 103f 2372 593f
00000250: 22e2 863e 2f8e 403c 8e78 a9be a7d5 b23f
00000260: 0273 363f 223c b9be 959e b23e cc76 01bf
00000270: 6149 933f 4250 083e 465c 913e 8710 9c3d
-0.12543862 -0.17816094 -0.22797136 -0.5024093 0.013787528 0.1918461 -0.13848726 0.12265356
-0.26648098 0.07465729 -0.0839699 0.14249286 0.44259894 0.035468046 0.6293391 0.15557864
0.3875549 0.052316897 -0.12758575 0.056271456 1.3272333 0.9632321 0.62867874 1.872373
0.3287886 -0.34958392 0.6985423 0.037876565 2.6101408 -1.1212837 3.455007 1.0347897
0.35440466 -0.27656594 -0.16678967 0.66155016 -0.3167101 0.5298853 1.1604187 -0.3798237
1.0217247 0.5725545 0.5838601 1.4672303 -0.2421843 -0.7202986 0.50236356 -0.06326743
-0.6449622 -0.06208942 0.5396872 -0.20212114 0.40991142 -0.14382385 -0.010487787 -0.21891843
-0.25910145 0.039454605 0.95080554 -0.5765502 0.5350043 -0.014163095 -0.40110525 0.40957072
0.57892853 -0.6394068 0.09486419 -0.50126654 -1.6349661 -0.6904972 1.0580455 -0.16185988
0.05590948 -0.56763643 0.41688514 0.20584455 -0.4156423 1.089681 0.24072044 0.8185337
0.31180426 0.050435722 -0.7839299 1.681335 -0.40587807 0.193986 -0.91693443 0.21289985
0.785157 -0.55965877 -0.4552165 0.9811858 1.0397706 -0.6201057 -0.16073671 -0.61314505
0.06926578 -0.88690865 0.14886622 -0.87227875 0.1950574 0.8615489 -0.33469355 -0.056882154
0.8585004 0.15382785 0.5528388 0.5600507 -0.7204504 0.57463336 0.10700744 0.03102761
0.13877141 -0.9006941 0.91275203 -0.33699036 0.50430334 -0.7928399 0.29753745 -0.23780626
0.58351725 0.29324907 -0.15285325 0.7522658 0.060833897 -0.5118646 -0.30139259 0.17167814
-1.1463903 -0.33226272 -0.2110589 0.29542625 0.46421236 -0.28375223 0.7100604 -0.19157931
0.1926619 0.57499236 0.38050538 -0.2014973 0.10381693 0.093833014 -0.65283 -0.454456
0.18509445 -0.34503263 0.56321913 0.84939784 0.263444 0.011752649 -0.33099788 1.3971452
0.7126924 -0.3617869 0.34886613 -0.50571895 1.1506768 0.13311866 0.28390712 0.0762034

net.10.bias f4 [8]
00000000: 4369 51bd 0578 0340 354a adbd e576 80bf
00000010: 6249 773d 4f0d b5bd ed65 7fbf a15d 18bc
-0.051125776 2.0542004 -0.084614195 -1.0036284 0.060372718 -0.08840429 -0.997649 -0.009299667
