models/epinet_model.pth (torch, 13771 bytes, 14 tensors)

net.0.weight f4 [20, 1]
000000 fa 61 9c bb 6a 75 56 3f d4 38 0c bb 2c 05 c5 3e
       -0.004772422 0.8377291 -0.0021396177 0.38480508
000010 73 af 4b 3f 7c 41 16 3f a3 6d a7 3d 0b 1b 2e bf
       0.7956459 0.5869367 0.081752084 -0.68010014
000020 9c 0e e1 3f c7 01 19 3e 60 f9 9e 3d e7 3a 1b 3e
       1.7582583 0.14942084 0.07762408 0.15159188
000030 4b ab d6 3e b0 ef e2 bf 9b 5f 37 3d 7e ff 42 be
       0.4192756 -1.7729397 0.04476891 -0.19042775
000040 3c ae df bf 4f 1d 9b 3f 34 5b a8 be 2d 55 4c bf
       -1.7475047 1.2118319 -0.32882082 -0.7981747

net.0.bias f4 [20]
000000 ce 3a fa 3e 5d 67 91 bf 7e e2 f3 3e 63 53 1d be
       0.4887299 -1.1359669 0.47633737 -0.15363841
000010 83 79 8d bf 9a 3f 00 bf 72 64 76 be f6 8e 1f 3f
       -1.1052707 -0.5009705 -0.24061754 0.62327516
000020 55 fb fc 3e 76 7a 10 be ea 85 14 bf 42 45 ce be
       0.494105 -0.14109215 -0.58016837 -0.40287215
000030 4c 69 c0 be 80 36 8f 3f a4 47 de be d7 c4 02 3f
       -0.37580335 1.1188507 -0.43414032 0.51081604
000040 68 89 25 be aa 27 ba bf ea 16 83 3e 0c 50 1e 3f
       -0.16165698 -1.4543355 0.2560342 0.6184089

net.2.weight f4 [20, 20]
000000 c1 55 80 be 13 e1 4a 3e 7f 41 69 3f 22 3c 31 be
       -0.25065425 0.19812422 0.91115564 -0.17308095
000010 b8 64 e7 3d 1a 71 7c bd 32 77 4b be 5f 3c 9a be
       0.112985075 -0.0616313 -0.19869688 -0.30124184
000020 fb b9 99 3e a1 fa d5 3e e7 32 79 3e 5c 13 f1 be
       0.30024704 0.41792777 0.24335824 -0.47085083
000030 bf 93 5f bf 40 70 a3 be 1f 43 96 3d 57 8a f2 3e
       -0.8733482 -0.31921577 0.07337021 0.4737117
000040 c2 4a ad 3e 02 ab e1 3d 89 ff 21 bf b6 f2 a2 3e
       0.33846098 0.11018945 -0.6328054 0.318258
000050 eb 19 b3 3e 2d 06 2b bd 44 e5 3a bf 29 a8 91 be
       0.3498071 -0.041753937 -0.7300608 -0.2844861
000060 00 e3 37 3f fb 4a 3f 3d e3 a5 75 be 14 8b 1d be
       0.7183075 0.046702366 -0.23989062 -0.15385085
000070 6f 5d 2d 3e 96 9a a5 3e 98 31 c5 be 54 75 43 3f
       0.16930173 0.32344502 -0.385144 0.76350904
000080 9a 28 8b be e4 8e 5a 3e 9f 75 82 3e e1 5e 22 3f
       -0.27179414 0.21343571 0.25480363 0.63426024
000090 6c f4 31 3e 80 ee 82 3e b1 47 3d 3e 98 12 1d 3e
       0.17378396 0.25572586 0.1848438 0.15339124
0000a0 d4 6b 12 3f 5a dd bc 3e a0 85 5b be 2f 60 4b be
       0.5719578 0.36887628 -0.21437693 -0.1986091
0000b0 ee c5 2b 3c 55 00 a1 3d 5f f0 91 be 04 8e 70 3d
       0.010484202 0.078613915 -0.285037 0.058729187
0000c0 e3 88 53 3f 78 d8 c7 3e fd cd c0 bd 6e 01 91 be
       0.8263075 0.3903234 -0.09414289 -0.28321403
0000d0 ac e7 49 3f 18 8a 4f 3e 5d 55 f7 be 10 a0 eb 3d
       0.7886913 0.20267522 -0.48307315 0.11505139
0000e0 8b ff 76 3e fb 48 9f be 36 5e c5 3e c4 3d d2 3c
       0.2412092 -0.31110367 0.3854844 0.025664218
0000f0 1e 53 28 ba 92 ba a6 3e 29 0b 9b 3e 6b 78 09 bf
       -0.0006421077 0.32564217 0.30281952 -0.5369937
000100 4d 8a a8 3e e2 8e d7 3e 5c a4 c6 3e e8 6e a2 be
       0.32918015 0.42101198 0.3879727 -0.3172524
000110 fb 51 38 bf f8 e1 b2 bd 6c ab 3a bd a3 bf e4 3e
       -0.7200009 -0.08734506 -0.045573637 0.44677457
000120 a3 df 65 be 20 fd 85 be 42 b3 a9 be ff 09 7f 3d
       -0.22448592 -0.26169682 -0.33144575 0.062265392
000130 12 f6 3f 3d 18 11 1a 3e 7a 6a d5 3d 6d 15 ae 3e
       0.04686553 0.15045583 0.104206994 0.34000722
000140 da 57 14 3f 4d ed 3e be 0d 12 d0 3e 5e 1a 7a be
       0.5794655 -0.1864521 0.40638772 -0.24424121
000150 ce 17 c1 3d e4 61 d3 be 72 f2 e2 3e cf 5c 3a bd
       0.094283685 -0.41285622 0.44325596 -0.045498665
000160 c9 e5 95 3d eb 69 d1 3e 80 9c 0f 3e 10 f0 85 bc
       0.07319219 0.40901121 0.14024544 -0.016349822
000170 57 c0 01 3f 25 b8 00 3e 90 f0 58 3e e7 8d 54 3f
       0.5068411 0.12570246 0.21185517 0.83029026
000180 37 4d 6f be fc a6 5b be 76 71 3e 3d 30 a1 1b bd
       -0.23369299 -0.21450418 0.046494924 -0.037995517
000190 45 e6 04 bf aa d8 26 be 9e 18 19 bf 50 16 60 be
       -0.51913863 -0.16293588 -0.5980319 -0.21883512
0001a0 de 22 2a 3e fb 2d 84 bf 25 d0 e6 3e 9d f4 e0 be
       0.16614863 -1.0326532 0.45080677 -0.43936625
0001b0 e6 9f fa 3d 4e bc f5 be 30 6f 01 bd f4 9b 85 3c
       0.122375295 -0.47995228 -0.031600177 0.016309716
0001c0 47 6d ca 3d 32 15 89 be f4 d9 c5 3d a6 75 97 3e
       0.09884124 -0.26773983 0.09660712 0.29581946
0001d0 53 6b 1f bf 19 64 26 3e ca 2c a2 3e d1 b8 f2 3e
       -0.6227314 0.16249122 0.31674796 0.4740663
0001e0 39 d4 42 be 56 8a c4 bd b7 87 33 bf 9e 40 8d bf
       -0.19026269 -0.09596698 -0.7012896 -1.1035345
0001f0 f3 5b bc 3d b0 cc 63 bf 25 8f ae 3e 78 ac a7 3f
       0.091972254 -0.88984203 0.34093586 1.3099508
000200 cd 43 06 bf 55 16 c8 be 29 c2 11 3f b3 de 75 3e
       -0.52447206 -0.39079538 0.5693689 0.24010734
000210 d8 bd 4c bd 9b 7c 9b 3d 11 1e 44 be 59 17 33 3e
       -0.049985737 0.07592126 -0.19152094 0.17489375
000220 d3 ae 4c 3f 51 ba 14 3d 54 5c 58 3f e8 22 a2 3e
       0.7995426 0.036310498 0.8451588 0.31667256
000230 2f 9b 0e bc 94 d3 62 3e 69 d3 1b bf 85 89 5b 3e
       -0.008703991 0.22151023 -0.6086946 0.21439178
000240 15 6b 86 3d a4 3f 33 3e 41 77 8f be b0 0b 76 3e
       0.06563393 0.17504746 -0.2802067 0.24027896
000250 05 8d fb 3d a3 f1 cb bd 10 d1 62 3e 58 ac 3a be
       0.12282757 -0.09958198 0.22150064 -0.18229806
000260 f2 f1 4f bc 63 db 5e be 4a 63 29 bf dc 1f 3e be
       -0.012691962 -0.21763377 -0.6616713 -0.18566841
000270 e9 ef 39 be bd 13 10 3d 4b 61 78 3d af 85 f7 3e
       -0.18157925 0.035175074 0.06063966 0.4834418
000280 b4 d5 24 bd 67 64 b5 be e8 f1 b5 be 3b 9d d1 3e
       -0.040242866 -0.35428163 -0.35536122 0.4094027
000290 0a 3a 51 be 77 e5 b5 3e 48 b2 a0 be 51 c9 2c bf
       -0.20432296 0.3552663 -0.31386018 -0.67494684
0002a0 a7 f0 99 3d 15 0c 48 bd 23 ca 5c be 15 89 be bc
       0.07516604 -0.048839647 -0.21561484 -0.023258725
0002b0 ac 2c ee 3e 76 aa 19 bf 20 1f 09 3d 11 a4 21 3f
       0.46518457 -0.6002573 0.03347695 0.6314097
0002c0 18 f2 26 bd 70 03 3a bd 49 6b 52 bd 0a ab 26 3f
       -0.040758222 -0.045413435 -0.051371846 0.65104735
0002d0 4d da 31 bf 23 83 77 be bc fb 65 bf e0 5e 2f 3e
       -0.69473726 -0.24171118 -0.8983724 0.17126036
0002e0 6f 6c 8f 3e 2f 3f 13 bd 74 83 df 3e 9e d6 0a 3f
       0.28012416 -0.03594893 0.43654978 0.5423373
0002f0 04 89 89 be 68 ce 84 3e 90 c4 ab be a7 70 5e be
       -0.26862347 0.25938725 -0.33548403 -0.21722661
000300 49 5e b8 be 2d db ca bd c5 62 2b 3f f4 ea f6 3e
       -0.36009434 -0.09905086 0.66947585 0.4822613
000310 72 79 5e be 89 49 f7 3d d6 f7 5c 3e 00 b7 c3 3e
       -0.21726015 0.120745726 0.21578917 0.38225555
000320 0f e0 27 3f dd c0 e3 3e e4 ec 83 be 60 d0 b5 be
       0.6557626 0.4448308 -0.2576667 -0.3551054
000330 b0 cc 71 3e bc 3c c7 bb b5 d8 e5 3a 72 32 21 bf
       0.23613238 -0.006080238 0.0017535897 -0.629676
000340 6e be d7 bd 35 d7 ba 3e a5 64 6f 3f bd 3a 34 bb
       -0.105343685 0.36492315 0.93512946 -0.002750083
000350 22 61 8a bd 4f 2d 5d bf f7 0b 1e bf 71 d5 0a 3e
       -0.06756808 -0.8639726 -0.61737007 0.13557984
000360 d2 a7 b7 be 56 4f bf 3d ad 67 23 bf 72 91 10 bf
       -0.35870224 0.09341304 -0.6383007 -0.5647193
000370 ab b8 27 3e 83 1c 98 bf a3 a3 f3 3e a3 60 f0 bd
       0.16379039 -1.1883701 0.47585782 -0.11737182
000380 b2 29 64 3f 68 96 b1 be 6d 72 18 bf f8 2e e5 be
       0.8912612 -0.34685063 -0.595496 -0.44762397
000390 06 12 21 3f 03 4e b9 3e 38 26 8e be f8 79 03 3e
       0.62918127 0.3619233 -0.27763534 0.12839496
0003a0 94 02 c6 bd ae d2 2d 3e 3e 17 0c 3e e1 48 b2 be
       -0.096684605 0.16974899 0.13680741 -0.34821227
0003b0 67 c8 a3 3e f1 26 7f bd a4 6a 01 be c4 95 34 bf
       0.31988832 -0.062292997 -0.12638336 -0.70541024
0003c0 8f e4 c7 3e 93 b1 e3 be a1 ec d2 be 03 80 15 3e
       0.39041564 -0.44471416 -0.4119616 0.14599614
0003d0 42 b4 b1 bc 20 01 67 3d a5 43 b4 3e 80 5a 1f 3f
       -0.021692399 0.056397557 0.3520786 0.6224747
0003e0 10 e3 b7 be 77 af 3d 3f 69 02 4e 3f f4 86 0a 3e
       -0.35915422 0.74095863 0.8047243 0.13528043
0003f0 80 b8 75 3e ed 56 a7 be e8 2e 41 3e 52 c6 49 3f
       0.23996162 -0.32683507 0.1886555 0.7881824

net.2.bias f4 [20]
000000 bb a5 c2 bc a7 32 b3 3a 1e 22 07 bc e8 20 9b bd
       -0.023760667 0.0013671712 -0.00824788 -0.07574636
000010 72 b7 72 3b 98 b1 06 3b f5 19 13 bf 63 e4 fe 3d
       0.0037035611 0.0020552631 -0.5746148 0.12445905
000020 26 bf 18 3d 02 47 0c bd 83 93 7b 3c 89 67 cb 3d
       0.03729167 -0.034247406 0.015354994 0.09931857
000030 ce ea 4e bc 83 53 28 3e e6 8e 43 bc d7 b5 8f 3d
       -0.012629224 0.16438107 -0.011935925 0.07017105
000040 a5 82 19 3d 3b 63 21 3d 9f e7 a6 bd 78 55 37 3c
       0.037478108 0.039401274 -0.08149647 0.011189811

net.4.weight f4 [20, 20]
000000 7d c7 15 3e 6b 49 89 3e 25 d3 6d 3f ee 4d 76 3e
       0.1462688 0.26813826 0.92900306 0.24053165
000010 4d 50 0d 3d 10 e6 39 3e ec bd 44 3c 2a b5 3c 3e
       0.03450041 0.18154168 0.0120081715 0.18428484
000020 a2 0a 1c be e8 ab 14 bf d7 78 db be d2 2d 00 be
       -0.15238431 -0.5807481 -0.4286563 -0.12517479
000030 43 70 19 be 32 54 22 be 39 28 91 3e 4a 6a 08 3e
       -0.1498423 -0.1585243 0.28351 0.13321796
000040 41 35 85 bf 1e d6 f4 be cc be 00 bf 9d 62 64 3f
       -1.0406877 -0.47819608 -0.5029113 0.8921297
000050 33 06 54 3f af cc 5d be f3 f4 8e be 6a 13 8d 3e
       0.8282196 -0.21660112 -0.27921256 0.27553874
000060 0b d0 8e 3f 95 45 21 3d 31 fc 92 3e 58 70 c7 3e
       1.115724 0.039373 0.28708032 0.389529
000070 42 c8 ef bd f5 a7 7f bf 01 89 fe bb 02 0f 00 bf
       -0.11708118 -0.9986566 -0.007767797 -0.500229
000080 14 03 56 3d 4e a4 25 3e ce 40 8a bc dc 90 af 3d
       0.05224903 0.16175959 -0.016876604 0.085725516
000090 70 24 85 bf d7 ec 1f bf 7f f1 82 bd a3 ef 64 3e
       -1.0401745 -0.62470764 -0.06393718 0.22357039
0000a0 b8 9a 35 bd 08 ec 98 bd 21 1c 3b 3d bb 5f f5 3e
       -0.044337004 -0.074668944 0.045681123 0.479246
0000b0 36 1f e8 3e 65 38 4e bf 6d cc 8d 3c 74 38 fa be
       0.45336312 -0.805548 0.017309392 -0.48871195
0000c0 b6 55 40 be 1c 4b e7 be ff c4 9e 3e c8 2d 84 3f
       -0.18782696 -0.4517449 0.3100967 1.0326471
0000d0 e4 a6 a1 3e c6 d1 8e be c2 1c 8e be 86 03 7e 3e
       0.3157264 -0.2789442 -0.27756315 0.24806032
0000e0 0b 5f 9c be 13 59 bc be bb 2c 06 3f 84 af 66 3f
       -0.30541262 -0.36786708 0.52412003 0.90111566
0000f0 8c 43 54 bf a1 9c 28 3f 8a f3 36 3e 10 7b 99 be
       -0.8291557 0.65863997 0.1786634 -0.29976702
000100 94 3e 77 be 6b 29 fa 3e 34 42 a1 3d f4 4f 0f be
       -0.24144965 0.48859724 0.07873955 -0.13995343
000110 ce 20 ef be 79 51 e1 3e c9 04 02 be 71 57 9f bc
       -0.46704715 0.4400747 -0.12697138 -0.019450875
000120 d2 67 b0 3e 5d 28 8b bd a5 d1 30 3e 46 58 99 3d
       0.3445421 -0.06794808 0.17267473 0.0748754
000130 49 8a 9d bb e7 9b f8 3e 9e da 31 bf 93 79 72 bf
       -0.0048077446 0.48556444 -0.6947421 -0.9471676
000140 3b d8 9f be b4 59 95 3d 1b 6d 0d bd 65 97 2d be
       -0.31219658 0.072925 -0.03452788 -0.16952284
000150 45 9a 7d bf fa 53 29 3f 71 c1 ee bc 4c d6 ba 3e
       -0.9906352 0.66143763 -0.029144974 0.3649162
000160 79 ff e9 3e 76 a9 44 3f 62 01 0b bf ab 4d e4 3d
       0.45702723 0.76821077 -0.54298985 0.111476265
000170 7e ce 81 3e 6d 51 34 bd 5b 3d 67 be cd 1c 9a be
       0.25352854 -0.044022966 -0.22581999 -0.30100098
000180 ed 43 4b 3f c2 f9 22 3f 68 49 65 3c b8 fd 69 bf
       0.7940052 0.6366235 0.013994552 -0.9140277
000190 b0 e4 46 bf 86 a8 0d 3f 1a eb 7a 3f 08 fe 16 be
       -0.776927 0.5533527 0.98014987 -0.14745343
0001a0 22 e9 1c 3f 53 43 19 bf 8a 5c 9d 3c 17 f5 75 3e
       0.6129323 -0.59868354 0.019209165 0.24019276
0001b0 4f 5f 5a be 51 6a 13 3f 02 01 a0 be 88 de 2c bc
       -0.2132542 0.575841 -0.3125077 -0.010551102
0001c0 b1 6a 0a 3f 12 ee 1c bf 20 7c 80 3d 89 08 b8 3d
       0.5406905 -0.61300766 0.06273675 0.08986003
0001d0 9b e7 60 3f 5c bc b6 3d ff 0b 84 3e 9f e4 b3 be
       0.878534 0.089226454 0.25790402 -0.35135362
0001e0 95 32 b4 3e 6d 00 57 bf a5 1d 15 bf 19 71 00 bd
       0.3519484 -0.83985025 -0.5824836 -0.03135786
0001f0 22 f2 be 3e 2d c7 40 bf 0a 86 84 bd eb 82 cf bf
       0.37294108 -0.7530392 -0.064708784 -1.6211828
000200 3c 44 2f 3b 06 55 9c be 6a b4 81 3e 81 fa e8 3e
       0.0026743552 -0.30533618 0.25332958 0.4550362
000210 55 03 28 be fd 20 26 be 65 92 3c bf fd 9a dd be
       -0.16407521 -0.16223522 -0.7366088 -0.4328231
000220 06 25 bd 3e ec 55 01 be 43 d9 54 3f 06 8c c3 3e
       0.3694231 -0.12630433 0.83144015 0.38192767
000230 58 e0 15 bf e6 e9 39 3e a7 93 46 bf c9 0c e1 be
       -0.58545446 0.18155631 -0.7756905 -0.43955067
000240 0f 8e a0 bd 61 08 85 3e 96 90 f6 3e d6 14 25 3e
       -0.078395955 0.25982955 0.48157185 0.1612123
000250 8f 64 8c 3e fe e8 5a 3e e4 69 7d be aa 8e 17 be
       0.2742047 0.21377942 -0.24747425 -0.14800516
000260 f0 8e 1a 3e 1b fd 34 be 06 70 16 bf 74 44 c4 bd
       0.15093589 -0.17674677 -0.58764684 -0.09583369
000270 eb bf ef be b5 b4 8e 3e 9b 71 85 be cf 7e 47 3f
       -0.4682611 0.27872244 -0.26063237 0.7792787
000280 c2 52 80 bf ef ab d8 3e d6 e4 83 3e fc 27 0e bf
       -1.0025256 0.42318675 0.25760525 -0.5552976
000290 32 e3 c9 bd a1 39 9c 3f d1 e3 d8 be ef 77 d9 3e
       -0.09857787 1.2205087 -0.4236131 0.42474315
0002a0 a5 0d ac 3e 2d c0 07 3f a6 aa 15 3f 3c 59 e9 bc
       0.3360416 0.5302761 0.58463514 -0.028484933
0002b0 48 a1 9e 3e e8 de 91 3e 03 60 23 3e 73 a1 33 3f
       0.30982423 0.28490376 0.15954594 0.70168227
0002c0 89 7e 60 3f 5a 8f 28 3f c6 15 92 be 68 e2 87 bf
       0.8769308 0.6584374 -0.28532237 -1.0615969
0002d0 b0 a2 fe be 0b 37 08 3f 3c 01 05 be e9 b7 58 be
       -0.49733496 0.5320899 -0.12988752 -0.21163906
0002e0 14 56 31 3e aa 99 05 3f c4 5a c4 be f1 48 0b be
       0.17317992 0.521876 -0.383505 -0.13602044
0002f0 da 21 d1 3e e4 b8 4f 3f 99 a7 13 3b 0e 00 10 bf
       0.4084614 0.81141496 0.0022530316 -0.56250083
000300 06 83 4c be b4 6d 98 3d 0f 80 7d bd 58 6a 5a be
       -0.19971856 0.07442799 -0.061889704 -0.2132963
000310 62 87 80 3d c9 1a 48 3f 2f 9f c9 3c e4 73 15 be
       0.06275822 0.7816587 0.024612037 -0.1459499
000320 77 66 b7 3e e8 e8 b2 3e 49 e2 41 be c3 89 a3 3e
       0.35820362 0.34943318 -0.18933977 0.3194104
000330 7c a6 0a bf 5f 14 48 3e df a9 a4 3e 5b 31 65 3d
       -0.54160285 0.19539021 0.3216085 0.055955272
000340 cb 2a ea bd e8 70 36 3f 96 96 87 3d 68 a4 fd be
       -0.11433943 0.7126603 0.06620519 -0.49539495
000350 fe 26 55 be 94 cc b4 be 3f fa e7 bc fa 1a 38 be
       -0.20815656 -0.3531233 -0.028317569 -0.1797904
000360 9a 71 ca be 70 d6 35 3e b0 90 d7 3d 1c 83 9b be
       -0.39539796 0.17757583 0.10525644 -0.30373466
000370 4a b2 83 3d 17 fb fe 3e 8f 16 43 bd e5 85 fe 3d
       0.0643049 0.4980094 -0.047628935 0.12427882
000380 78 a3 73 3e 70 11 bb 3e 50 3d 91 be a5 87 2a bf
       0.23792827 0.3653674 -0.2836709 -0.6661323
000390 89 ef 38 be 6c ba ed 3e 00 5f 85 3e 86 f0 98 be
       -0.18060125 0.4643129 0.26049042 -0.29871005
0003a0 c4 92 26 be ee 20 38 3f 35 b9 36 3f bf aa c9 3e
       -0.16266924 0.71925247 0.71376354 0.3938808
0003b0 e0 e8 48 3e 7a d0 56 3e 9f 3c 83 3e 13 3a e6 3d
       0.19620085 0.20977965 0.25632188 0.112415455
0003c0 53 18 19 3e 97 20 17 3f 87 3f 0f bc e6 85 f6 be
       0.14950685 0.59034103 -0.008743173 -0.4814903
0003d0 09 50 b0 be 67 d5 c4 bc b0 55 23 be 22 7c 0a bf
       -0.34436062 -0.02402754 -0.15950656 -0.5409566
0003e0 ff ca 22 be df a2 eb be 29 64 dd be 2e 6f 07 3f
       -0.1589775 -0.46022698 -0.4324048 0.5290402
0003f0 22 5d 73 bf 18 cf 2c 3c 0e 01 a9 bc be c6 c0 3e
       -0.95063984 0.010547422 -0.020630386 0.37651628

net.4.bias f4 [20]
000000 9c e8 ae bc 43 0d 80 3d 3c 15 ce bc 70 31 f6 3d
       -0.021351151 0.062525295 -0.02515661 0.12021148
000010 0a 0c 24 3d d8 eb e6 bc 5d 46 27 ba 39 7a 02 3d
       0.040050544 -0.028188631 -0.00063810294 0.03185484
000020 ee ab 54 3c 52 94 c4 bc 73 fb c7 3d c5 ac d9 3b
       0.012980444 -0.023996506 0.09764757 0.00664291
000030 9b 01 9a 3d 31 b5 cf 3c 16 6c ca 3c b0 35 89 3d
       0.075198375 0.025354953 0.024709743 0.06699693
000040 7e 8e 99 3c bb b0 2a be bd 04 8d 3d 84 15 4d 3d
       0.018744703 -0.1666898 0.068856694 0.050069347

net.6.weight f4 [20, 20]
000000 9e e4 6c be 80 f3 27 bf 5b af 47 3e 1b 0e 28 be
       -0.23134086 -0.65605927 0.19500487 -0.16411631
000010 68 ce f3 be 0a 88 4a bc 9e 80 90 3f 03 07 ee be
       -0.47618413 -0.012361536 1.1289251 -0.46489725
000020 cd 31 81 3e eb ac c1 3b 9f a9 94 be 1a 3a 2a bf
       0.25233307 0.005910506 -0.2903566 -0.66494906
000030 08 84 20 3e cf 41 5b 3f 1f f5 37 be 5e 6a 4c 3e
       0.15675366 0.8564729 -0.179646 0.19962451
000040 29 48 38 bf 70 ea c0 3d 44 7d 84 bd f5 5b e1 be
       -0.7198511 0.094197154 -0.06469205 -0.4401547
000050 db 56 a8 bc 5d 5f 11 3e 5e bb 9d 3e 2e 9b 91 bf
       -0.020549228 0.14196534 0.30807012 -1.1375482
000060 09 53 93 bf 44 c1 0d be 82 5b ae be 46 37 b1 3e
       -1.1509715 -0.13843256 -0.3405419 0.34612483
000070 bf 31 ac be eb 04 d5 be d8 e7 fd 3d 7d 8a a0 3c
       -0.33631703 -0.41605315 0.12397736 0.019597286
000080 e7 77 fe be 91 f6 39 3f c9 cb c3 3e 14 05 35 3a
       -0.49700853 0.72641855 0.38241413 0.0006905359
000090 ab c6 c8 be a0 96 68 be d2 ce 7e 3e ef 62 89 bf
       -0.39214072 -0.22713709 0.24883583 -1.0733317
0000a0 42 b9 fd be 2a e3 8b be 86 5c 4c 3e 1b 08 d1 3e
       -0.49555403 -0.2732175 0.1995717 0.40826496
0000b0 bf 99 18 bf d6 34 99 be 4c d5 a1 3d f2 3c 70 3e
       -0.596096 -0.29923123 0.07902011 0.23460749
0000c0 6e 57 32 3f 57 eb 23 3e 86 e7 6a bd ca 18 2e bf
       0.6966466 0.16007744 -0.057349704 -0.68006575
0000d0 0d 45 f4 3e 09 93 3e 3f d0 a1 a8 3e b4 2a 5c be
       0.47708932 0.7444311 0.32935953 -0.21500665
0000e0 07 86 97 3e 1f b5 a7 3e 07 56 ad be f6 4b b1 bd
       0.29594442 0.32755372 -0.33854696 -0.086570665
0000f0 37 f1 1a 3e c8 60 da bb 8d f9 78 bd 4a 1c 08 3f
       0.15131079 -0.0066643693 -0.060784865 0.53168166
000100 4f 3f 29 bd ed 4d d8 be 0a 8f 0a 3e ec fe 42 be
       -0.04132014 -0.42246953 0.13531128 -0.19042557
000110 12 3a 27 3f a7 fa 11 3f ff 0b ee 3b b6 04 1a be
       0.65322983 0.5702309 0.0072646136 -0.1504086
000120 02 38 d7 3d 66 c6 15 3f 7a 2b c4 3e 1c 85 d3 be
       0.105087295 0.58505857 0.3831442 -0.41312492
000130 40 7b 6d 3d bd 20 8e 3f ff 73 b1 be d0 50 27 bf
       0.05797887 1.1103741 -0.3465881 -0.65357685
000140 7a f9 74 3e 91 83 08 be 34 59 9b be 39 dd 51 3d
       0.23923293 -0.13331439 -0.30341494 0.051236365
000150 e1 15 b0 bf 9d e0 5b bf 1d 66 6a 3f 47 ca 9c be
       -1.3756677 -0.8588961 0.9156206 -0.30623075
000160 56 df b8 bf 9a b0 0e bf 57 ea de be c4 17 75 bd
       -1.4443157 -0.5573822 -0.43538162 -0.059837118
000170 1c cd e4 bd cd e6 13 3e 7e 5b 8f 3e 9c 46 8d be
       -0.11171934 0.14443512 0.2799949 -0.27592933
000180 84 71 52 be 22 cf e5 3e 03 60 c8 be bd cf bb bf
       -0.20551115 0.44884592 -0.3913575 -1.4672772
000190 07 9d b5 3e bb 6a 8f 3f 6c 67 f6 bd 9c 50 2d bf
       0.35471365 1.1204447 -0.12031445 -0.67701125
0001a0 b2 33 a4 be e4 55 29 bf 4b 2b 14 bf fc 6e a1 be
       -0.3207069 -0.66146684 -0.5787856 -0.31529987
0001b0 a9 06 22 bf 1a 52 6c be d6 8d 1f bf b8 ad 39 3f
       -0.6329141 -0.23078194 -0.623258 0.725307
0001c0 60 7b a9 3d 50 89 da 37 7c 2b 76 be b0 76 97 3e
       0.08275485 2.6051566e-05 -0.24040025 0.2958274
0001d0 17 9c b1 bd a3 c3 43 3f 3b 68 0f be cb c1 e6 be
       -0.0867235 0.7647039 -0.14004605 -0.45069727
0001e0 ed ec c1 3e 93 fa 38 3f a8 5b ec be 6e f2 df bc
       0.37876073 0.72257346 -0.46163678 -0.02733728
0001f0 ba 1e c5 3e 31 08 3b 3f 6f b8 fe be bc 2d fa be
       0.38500005 0.73059374 -0.49750087 -0.48863018
000200 6a 75 97 bf 8e 9f 92 3e b4 d9 cf bc a8 1c 75 be
       -1.1832707 0.28637356 -0.025372364 -0.23936713
000210 33 f2 d9 be 5d 63 e4 3d 2d 61 cf 3d 60 d0 1d 3f
       -0.42567596 0.111517645 0.10125957 0.6164608
000220 73 d1 51 3e 5f 4e 45 bf 6e 47 6f 3e 73 f7 ba 3d
       0.20490055 -0.7707271 0.23367092 0.091292284
000230 32 84 f1 3e 47 4c ac 3e 24 82 d3 3e f7 24 b4 be
       0.4717117 0.33651945 0.41310227 -0.35184452
000240 f5 3d 56 bf 9b e1 18 3f 14 6e 30 bf 97 f2 18 be
       -0.8368829 0.59719247 -0.68917966 -0.1493629
000250 8a 35 86 3e a9 bf 0a 3f 12 1f 01 bf d5 4f e8 3e
       0.26212722 0.541987 -0.50438035 0.45373407
000260 20 fc 32 bf e3 30 27 3f f0 6a 42 3f 7f fe ee 3c
       -0.6991596 0.6530897 0.75944424 0.029174088
000270 e4 df ac be 78 38 4c 3e e2 1d 03 3f 24 7f a7 3e
       -0.33764565 0.19943416 0.5121747 0.32714188
000280 e5 e7 61 be 71 ea 64 bf 81 a5 95 3e cd ad 95 bd
       -0.22061117 -0.8942023 0.29227832 -0.073085405
000290 14 7d dc be 46 6c 91 3e ff 63 e9 3d 1c de bb 3e
       -0.43064177 0.2840292 0.11396026 0.36692894
0002a0 41 7f 43 3f 93 bc 35 3b 47 b8 cc 3e c8 5d 7b be
       0.7636605 0.0027730807 0.39984342 -0.24547493
0002b0 45 61 83 be 2e e4 6f 3e e0 2f 0f 3f 8a c7 dc 3d
       -0.25660148 0.23426887 0.55932426 0.107802466
0002c0 ef 4d 04 bf 13 2f e3 be 74 aa 21 3e eb e5 0b 3f
       -0.5168142 -0.44371852 0.15787679 0.546477
0002d0 a3 0b c6 be 83 8a d5 3e 9e 44 4b 3d f3 e2 56 3d
       -0.38680753 0.4170724 0.049625985 0.05246253
0002e0 d0 d3 af be 7b 7e 77 be 35 5e df bd f0 fa 5b be
       -0.34341288 -0.24169342 -0.109066404 -0.21482444
0002f0 4e f8 e1 be c9 97 b9 3c 07 ec 5a be 11 90 d1 3e
       -0.44134754 0.022655385 -0.213791 0.40930226
000300 af 73 e3 3d a9 37 1d 3e f1 46 84 be 9c a0 3d 3f
       0.11106049 0.15353264 -0.25835374 0.74073195
000310 79 f3 46 bd 09 ae 0c 3f 91 6e 5d bd ca b2 53 bf
       -0.048572037 0.54953057 -0.054060522 -0.82694685
000320 4a cf 09 3e e4 f3 af 3d a0 e2 91 bf 1b d4 7e 3f
       0.13457981 0.0859144 -1.1397285 0.995424
000330 58 ab 4f 3f 91 a1 51 3f 11 07 2a be fd c4 96 be
       0.81120825 0.81887156 -0.16604258 -0.29447165
000340 81 ef a3 3e 26 cd 3a 3d b6 66 dd 3e 4e 15 e3 3e
       0.32018664 0.0456058 0.43242425 0.44352192
000350 ed d2 15 3e 31 54 e1 be 12 b4 5e bd d1 cf c2 be
       0.14631243 -0.44009545 -0.054370947 -0.38049176
000360 ef 51 55 3e 35 e3 53 3e 23 8a b0 bd 76 17 43 3f
       0.20832036 0.20692141 -0.086200975 0.76207674
000370 6b 14 0c bf 8d 29 8e 3e 0c f0 a9 3e 10 31 2b bf
       -0.54718655 0.27766076 0.33190954 -0.6687174
000380 b2 4d 36 bd 25 29 5a bf 52 ae 9d be 52 c1 20 3f
       -0.04450769 -0.8521903 -0.30797058 0.62794983
000390 26 e7 1c 3e 17 49 fa 3e 47 fb f9 bd 3f 09 00 3e
       0.15322551 0.48883888 -0.122061305 0.12503527
0003a0 6a d8 3b be 43 0e 37 3d 8b 57 a2 be 94 ce a3 bd
       -0.18344274 0.044691335 -0.31707415 -0.07998386
0003b0 0c 21 54 3e 70 d4 98 3e 06 b9 af 3e 7c d9 e8 be
       0.20715731 0.29849577 0.3432085 -0.45478427
0003c0 e0 79 20 be b4 13 9a be 76 29 60 bf d1 b2 26 be
       -0.15671492 -0.30093157 -0.87563264 -0.1627915
0003d0 cf 1f 26 be 86 7f 1d 3e ad ba 35 bf 50 1c 05 3e
       -0.16223072 0.15380678 -0.7098797 0.12999082
0003e0 5a 1e 2c be d3 02 9d 3e 17 23 fe 3d c9 70 4a 3f
       -0.16808453 0.30666217 0.124090366 0.79078346
0003f0 84 b9 12 3f 8f dd 03 3f 3d cc fc 3e e1 04 8a 3e
       0.57314324 0.51509947 0.4937457 0.26956847

net.6.bias f4 [20]
000000 9a 89 53 3d 29 9c 73 bd 1c 55 86 bd c5 5d ac bd
       0.0516449 -0.059475098 -0.06559202 -0.084163226
000010 5e 19 d3 3c 1a 63 13 be 0b 1d 14 3e 53 87 bc 3c
       0.025768932 -0.14393273 0.14464204 0.023013746
000020 39 75 3a 3c 0f b4 9a 3c 1d b1 41 bd 7d db 90 3d
       0.011380487 0.018884687 -0.04728805 0.07073114
000030 76 b1 03 3d bf e7 0a be 21 29 02 3e b6 1d 55 3d
       0.03215166 -0.13564967 0.12711002 0.052030288
000040 69 51 de 3c b7 38 09 3e b5 0b 09 3a d9 6a 2e 3c
       0.027138429 0.13400541 0.000522788 0.010645592

net.8.weight f4 [20, 20]
000000 ad 85 fe 3d fb f9 8d bf b3 97 cc be 2d 1f f7 3e
       0.124278404 -1.1091913 -0.39959487 0.48265973
000010 89 ec a2 bf dc 5b 4b be 5e fc e9 be eb eb af 3e
       -1.2728435 -0.1985926 -0.45700353 0.3435968
000020 f7 a0 28 3e 3b 08 66 bf 21 59 2e 3f 9e 0e 00 bf
       0.16467653 -0.8985631 0.6810475 -0.50022304
000030 9d de 2a bf 69 b4 1f 3e 08 bb fd bf ac 34 30 3f
       -0.6674593 0.15596165 -1.9822702 0.6883037
000040 d8 64 0c 3f a2 9f cd be d0 3e 9c 3e ce f1 60 3f
       0.54841375 -0.40160853 0.30516672 0.87868965
000050 66 66 45 be c5 96 f1 3d be bf 0f be 23 df 98 be
       -0.19277343 0.11796335 -0.14037988 -0.2985774
000060 bb ee 0b bf 88 bd 0f bf 49 83 4a 3f 7d 43 c0 be
       -0.5466115 -0.56148577 0.79106575 -0.3755149
000070 3d a1 f7 bd 4e 51 d1 3e cb 33 19 bf 93 f0 bb 3b
       -0.12091301 0.40882343 -0.59844655 0.005735466
000080 24 29 78 3e 2f 67 56 3e 02 16 31 be 8d bd 34 3d
       0.24234444 0.20937799 -0.17293552 0.044126082
000090 f8 6f e6 3e 94 04 c0 be 65 9f 58 bf 18 2c 69 bd
       0.450073 -0.37503493 -0.84618217 -0.056926817
0000a0 bd 78 cc 3e b3 29 4a be b0 b7 aa be df 00 31 bc
       0.39935866 -0.1974247 -0.33343267 -0.01080343
0000b0 67 15 97 3e e2 c8 d7 3e 31 90 89 be bc a6 ed be
       0.29508516 0.4214545 -0.26867822 -0.4641627
0000c0 89 a4 24 bf 60 2d c5 bd df bb 1f 3f 7f e3 5c 3e
       -0.6431356 -0.09627795 0.62396044 0.21571158
0000d0 cc d3 41 3d af 2b b7 be 63 56 90 3e bd 93 5d 3f
       0.047321126 -0.35775515 0.28190908 0.86553556
0000e0 a5 de de 3e f9 34 9d 3c a8 e9 52 3e 12 43 97 3b
       0.4352924 0.019190298 0.20596945 0.0046161497
0000f0 bd 2a 37 be 84 ac 24 be ee f8 15 be 35 88 5f 3d
       -0.17887397 -0.16081434 -0.1464574 0.054573257
000100 46 65 b2 be 3a d9 90 3e c7 86 2c bf f7 5c cb 3d
       -0.3484289 0.2829073 -0.67393154 0.09929841
000110 a5 9f 99 be 24 15 f8 be 91 87 d7 3e 38 15 82 bc
       -0.30004612 -0.4845363 0.42095616 -0.015879259
000120 c9 f5 46 3f 57 e7 2d be 51 ee 0f be 2d d5 13 bf
       0.7771879 -0.1698278 -0.14055754 -0.57747155
000130 c5 2a af be 26 6d b2 3e 79 9a 76 3e b8 13 7d 3e
       -0.34212318 0.348489 0.24082364 0.24714553
000140 b6 33 f6 bd 94 21 24 3e 29 a9 79 be ed b2 de bd
       -0.12021582 0.16028434 -0.24380936 -0.10873971
000150 90 b3 bf 3d f9 7c b5 3f bf 95 cf bd 1b d0 49 3f
       0.09360421 1.4178764 -0.10135984 0.7883317
000160 7d 15 c7 bf bc 2c 18 3f cd 02 92 3e a4 f8 15 be
       -1.5553433 0.5944326 0.28517762 -0.1464563
000170 9d 00 cd 3e 57 18 48 3e 63 1b 02 bf 1e 1f 91 3e
       0.4003953 0.19540535 -0.5082304 0.28344053
000180 06 8c 51 3e 73 83 87 be 58 22 94 bd 98 a6 0f 3a
       0.20463571 -0.26467475 -0.07233113 0.00054798415
000190 c9 88 94 be 49 d5 c0 3e 24 6e 3c bf 7f 57 bf be
       -0.2901061 0.37662724 -0.7360556 -0.37371442
0001a0 d7 18 56 3f 2c 5b 16 3e 2d a8 87 be f6 3b 97 3d
       0.8363165 0.14683217 -0.26495495 0.073844835
0001b0 24 6b 26 3f 31 b4 98 bd 87 44 f8 3d a9 0c ad 3c
       0.65007234 -0.07456244 0.121224456 0.0211242
0001c0 6b 4e 19 3f 29 c3 88 3d 05 a3 05 3f 97 32 a4 be
       0.5988528 0.06677849 0.52201873 -0.32069847
0001d0 4c 82 b7 bd 8e 5a 39 be 07 ac 90 3e 15 d1 01 be
       -0.08960399 -0.1810095 0.28256246 -0.12677415
0001e0 5d d0 ca bb 2f fc 19 be 8e 3e b4 be 2e 40 0d bf
       -0.0061893896 -0.15037607 -0.35203975 -0.55176055
0001f0 50 07 de 3e 7a 55 5c 3f 8b 0e 2b be 56 7f 95 3e
       0.43364954 0.86067927 -0.16704766 0.29198712
000200 21 2d a9 3d 26 e9 98 3d 93 e9 88 be 3f f9 5b 3f
       0.08260561 0.074663445 -0.26740703 0.85927194
000210 db a4 97 be 87 d5 7e 3c 40 a3 86 be 24 3b 70 3f
       -0.29617962 0.015553839 -0.26296425 0.9384024
000220 24 c9 57 3f 2c 9d d3 3e eb 75 96 3e bf 8e cc 3e
       0.8429129 0.4133085 0.2938684 0.39952657
000230 48 6f 2e be 37 4e 80 3f 9b c3 01 3e 60 8e 3c 3f
       -0.17034638 1.0023869 0.12672274 0.73654747
000240 87 98 86 3f 25 7e fe 3e 52 9a 2e be 7b 7b 9c 3e
       1.0515298 0.49705616 -0.17051056 0.30562958
000250 e6 e4 9a be 48 81 b3 3e 1d 33 1d bf 56 3d 81 3e
       -0.3025276 0.3505957 -0.6140612 0.25242108
000260 e2 bc 75 bf de a0 0b 3f eb 9f 79 3f 10 4d bf bf
       -0.9599134 0.5454234 0.9750964 -1.4945393
000270 13 cc 28 3d 56 7d 2b 3f 7f 4e 52 3f 44 f4 00 3f
       0.041210245 0.6698812 0.82151026 0.5037272
000280 41 ab d9 bd 23 02 46 3f 6b 2a 42 3e dc ab f4 3d
       -0.10628367 0.7734701 0.18961494 0.11946842
000290 49 2c 50 3f af 6d 72 3e 60 0b 04 3c 61 de ad bc
       0.81317574 0.23674653 0.008059353 -0.021224203
0002a0 3b 20 79 be df 77 92 3f 5a 85 06 be 4d 82 40 3f
       -0.24328701 1.1442832 -0.13136807 0.75198823
0002b0 ca c3 90 be de 03 5c be ae f4 33 3f b6 96 ff be
       -0.28274375 -0.2148585 0.70295227 -0.4991967
0002c0 55 a7 14 bf 5e 22 4a be 6c 16 1a 3f 56 6f 8c be
       -0.5806783 -0.19739673 0.60190463 -0.27428693
0002d0 da 05 2c 3c 73 27 18 bf 46 79 4b bf 82 94 2b bf
       0.010499442 -0.59435195 -0.79481924 -0.6702348
0002e0 9f 48 41 bf e4 f0 ad 3e 4e e6 a5 bd ea 46 8f be
       -0.75501436 0.33972847 -0.08100568 -0.2798379
0002f0 ef de ac 3e ea 92 54 3f 88 bc 4d bd 06 1d 31 3e
       0.33763835 0.83036673 -0.050228626 0.17296228
000300 e7 8d 39 3e e5 ed 24 be de c3 c2 bd 9b 09 7b 3f
       0.18120538 -0.16106375 -0.09510015 0.9806153
000310 d6 c3 0f be 7b 75 04 be d5 6e 32 3f 7b 54 fa 3d
       -0.14039549 -0.1293544 0.69700366 0.122231446
000320 6d 7f 39 be a0 90 b1 3e cc 36 48 bf 3a 28 8e be
       -0.18115015 0.34680653 -0.78208613 -0.27765065
000330 b6 02 f4 3e a0 03 bc 3e 8f 9a 9f 3e 8d 96 95 3e
       0.47658318 0.36721516 0.31172606 0.29216424
000340 4c f5 5a 3d 41 93 b1 3e ec c2 9b bf 16 ea 1b 3f
       0.05345659 0.34682658 -1.216886 0.6090406
000350 2f df bd be a4 2e 20 3e 59 75 7b be 70 8e 30 bf
       -0.37084338 0.15642792 -0.24556483 -0.6896734
000360 52 f9 cc 3d ad 93 55 3e 90 ee 20 bf 37 49 b4 bc
       0.100084916 0.20857115 -0.6286402 -0.022007568
000370 5c b9 7d 3f de 07 00 be ee cf 53 be cb 0b dd 3e
       0.9911096 -0.12503001 -0.20684788 0.4317306
000380 4d 62 88 3e 1d 0a 00 bd b6 ac 41 be ee 51 59 3e
       0.26637498 -0.031259645 -0.1891354 0.2122266
000390 d1 f7 00 3d 33 83 bc be c0 2b 3d be 9d 87 c8 3d
       0.031486336 -0.36818847 -0.1847372 0.09791491
0003a0 9d a2 b4 bf f0 1e 32 be 96 fd 9f bd e8 01 cb 3d
       -1.4112126 -0.17394614 -0.078120396 0.09912473
0003b0 ab fd a1 be 23 67 ca 3f cf 67 b7 be 5a 44 57 3c
       -0.31638846 1.5812725 -0.35821387 0.013138855
0003c0 7a 62 12 be 86 e5 f7 3d 87 02 87 3e 9a 52 90 bd
       -0.14295378 0.12104325 0.26369116 -0.07047005
0003d0 7d 0e 0b be ab 20 30 be 79 1f ae be 11 2e fd bd
       -0.13579746 -0.17199962 -0.34008387 -0.12362302
0003e0 70 c5 ac be 47 56 0e bf f8 2d 3f 3f 65 56 9e bd
       -0.33744383 -0.556004 0.7467952 -0.07731322
0003f0 76 72 c1 3e 7c 6e 00 3e 0e 0a 8e bc 0a a3 55 be
       0.3778264 0.12542146 -0.017338779 -0.20862976

net.8.bias f4 [20]
000000 f2 e5 ab bd dd bc b8 3d e5 2d 99 3d 22 4d c9 bd
       -0.08393468 0.09020398 0.07479457 -0.09829165
000010 ce 43 9e bd c4 ac 6e 3b 34 61 1b bd c1 0d 08 be
       -0.077277765 0.0036418894 -0.037934497 -0.13286497
000020 47 ab 8a bd c5 ff 09 3e a9 7f ae 3b 15 41 bf bd
       -0.0677095 0.13476475 0.005325277 -0.09338585
000030 39 8e 90 bd fc a7 ba 3d 7e e1 23 3e 22 cd 5b bd
       -0.07058377 0.09114072 0.16003987 -0.053662427
000040 7f d8 96 bd 0c a3 87 3d 4f 0b 6f 3d 20 2f 56 bd
       -0.07365512 0.066228956 0.058360394 -0.052291036

net.10.weight f4 [20, 20]
000000 61 4d 84 3c e4 31 b9 3e aa bf 54 bd 23 85 c0 be
       0.016150178 0.36170876 -0.051940598 -0.37601575
000010 df 6f c5 3e 4b 67 a2 be 57 8e de 3e 80 67 97 3e
       0.38561913 -0.3171943 0.43467972 0.29571152
000020 3f 09 59 3f 69 22 03 bf a6 ff 50 3e 4d d2 71 be
       0.84779733 -0.5122438 0.20410022 -0.2361538
000030 b6 81 b6 3d f0 2b 45 be a4 5b 18 be d1 66 e7 3e
       0.08911459 -0.19255042 -0.14878708 0.4519563
000040 27 ad fb 3e 70 31 02 3f 11 7d 46 3f 7c d1 70 3d
       0.49155542 0.50856686 0.77534586 0.05879353
000050 e5 67 77 3f dc 35 d0 be 39 d3 d6 3f f8 97 c9 be
       0.96642905 -0.4066609 1.678321 -0.39373755
000060 3e ee d6 3e f1 61 4c bf cf e5 80 be 71 98 b7 3d
       0.4197864 -0.79836947 -0.2517533 0.08964623
000070 68 f2 87 bf b5 03 4b be 84 1d 44 bf 54 84 84 3d
       -1.0620852 -0.19825633 -0.7660754 0.06470552
000080 07 70 07 3f d2 fb c7 3e 4d 2b c4 bd d5 f5 4e 3e
       0.52905315 0.3905931 -0.095785715 0.20210965
000090 cb 12 c7 be be 90 aa 3e 69 70 20 3f 07 e5 12 3f
       -0.38881525 0.33313555 0.62671524 0.5738072
0000a0 79 ce a3 3d 42 13 9a 3e 8d f3 c4 3e cb 58 d5 3d
       0.07998366 0.30092818 0.38467064 0.104173265
0000b0 ac e7 92 bd 57 96 0d 3f f1 8c 63 3d 7d 91 18 3f
       -0.07173094 0.55307525 0.055554334 0.59597
0000c0 4e cb 40 bf 69 9c 6d be 76 00 37 3e d5 7d 9f bf
       -0.7531022 -0.23204197 0.1787127 -1.2460276
0000d0 d7 e6 aa be 24 10 97 bd 19 6c ff 3e a4 70 b9 3f
       -0.33379242 -0.073761255 0.4988716 1.44875
0000e0 60 58 8c 3f 0b 4c 42 be c1 2f ed be 5e 4f 88 bf
       1.096447 -0.1897432 -0.46325496 -1.0649221
0000f0 6f 2d 0b 3d 66 d9 3c 3e 6c 85 17 3f bb 7b c0 3d
       0.033978876 0.18442306 0.5918796 0.093986
000100 e0 9b 02 3f a9 98 e5 3d c4 fd b6 bb 85 59 df bd
       0.51019096 0.11210758 -0.0055844504 -0.10905746
000110 cc cc 31 3f 49 26 99 3e da 1f b9 be 5c 6e e6 bb
       0.6945312 0.29912022 -0.36157113 -0.007032199
000120 2f 64 2e bf fe df 3b bf 1c 73 77 3e e4 70 e5 3d
       -0.6812162 -0.7338866 0.24165004 0.11203173
000130 ce a7 61 3d f4 74 e8 3d 84 01 e4 3e e1 01 a5 3e
       0.05509167 0.11350432 0.44532406 0.32227996
000140 da ba dd 3d 43 04 38 3f 72 40 09 3f 60 58 44 3d
       0.10826655 0.718815 0.5361396 0.047935843
000150 a6 5a 0c bf 2f 14 07 3f 38 f4 c7 3e ab 98 98 3e
       -0.5482582 0.5276517 0.39053512 0.29803976
000160 17 37 b0 3e fc 91 e2 3e 65 c6 65 3e 22 01 2e bf
       0.3441703 0.44252002 0.22438963 -0.6797048
000170 4b 7b 23 3e 2d e2 21 3b 04 29 9a bd c5 79 d6 be
       0.15965001 0.0024701462 -0.07527354 -0.41889778
000180 aa 27 00 bf 87 cb 3b 3f d3 6d 80 be cd ef 14 3c
       -0.5006052 0.73357433 -0.2508379 0.009090376
000190 a0 a8 ab bd 06 05 62 3f d1 b7 4b bf f1 55 ea 3e
       -0.08381772 0.88288915 -0.79577357 0.45768693
0001a0 86 d7 14 bf f4 88 02 be 9e 4e de 3e 4c 3d 24 3f
       -0.5814136 -0.12747556 0.43419355 0.6415603
0001b0 12 af 5e 3f a6 b0 1f 3f 49 4d 0a 3e 10 eb 49 bf
       0.86985886 0.6237892 0.13506044 -0.788743
0001c0 f6 80 f2 3e c4 04 00 3d da 2c 32 be 27 58 25 3f
       0.47364014 0.031254545 -0.17399922 0.64587635
0001d0 86 d3 3a 3f 63 22 92 bd 20 ed 45 bd 07 b2 eb be
       0.7297901 -0.07135465 -0.048321843 -0.46034262
0001e0 1c bd e9 be 52 2e c5 be 86 9a f6 be 72 02 ba 3e
       -0.45652092 -0.38511902 -0.48164767 0.3632999
0001f0 1a 6d 9d 3e 5c 13 a6 3f b6 0c 4d 3e 31 b9 04 40
       0.307473 1.2974658 0.2002438 2.0738032
000200 6b 00 d8 3f d6 bb 12 be 3e be 08 3f d9 75 aa be
       1.6875128 -0.14329466 0.53415287 -0.33293036
000210 cf 8c a6 bc 4e 20 fb b9 f3 85 f1 bd 3a c8 59 be
       -0.020330815 -0.0004789852 -0.11793127 -0.21267787
000220 53 27 90 bd e4 0c 02 3d 24 94 26 3f ad 85 e1 3e
       -0.070387505 0.031750575 0.65069795 0.440473
000230 a6 d3 f4 3e 46 24 a1 bf ff 22 98 3c 9b b8 cd 3e
       0.47817725 -1.2589195 0.018571375 0.40179905
000240 bf 2f 51 3f b2 a9 09 3e ec ba 85 3f 5c af 2b 3e
       0.8171348 0.1344364 1.0447669 0.16766113
000250 f3 0f 5f be a9 98 c4 bf 59 96 e7 be f0 ce 87 bd
       -0.21783428 -1.5359088 -0.45231894 -0.06631267
000260 9f 2b cd 3e a7 71 f0 bf ec cc 30 bf 3e c1 ff be
       0.40072343 -1.8784684 -0.69062686 -0.4995212
000270 2b 1c 12 bf 46 fc a5 be 56 68 71 bd 09 a9 88 bf
       -0.5707423 -0.32419032 -0.058937393 -1.0676585
000280 9e 50 36 bf 42 84 5c be 33 1b ef 3d f8 a9 00 bd
       -0.7121676 -0.21534827 0.1167511 -0.031412095
000290 2b c6 a4 be bc 90 99 3f 7d b5 86 3e 6a 5b 04 3f
       -0.3218244 1.1997294 0.2631034 0.51701987
0002a0 06 89 16 3f a1 cc 15 3f 1f 91 86 3e 7f 95 91 3d
       0.5880283 0.58515364 0.26282594 0.07108592
0002b0 dc e7 2f bf 76 f9 e8 be 3e fb aa 3e 71 1f 3d 3e
       -0.68713164 -0.45502824 0.33394808 0.18469025
0002c0 88 2b ff be 6e 50 03 3e 87 e3 46 be 2f 82 58 be
       -0.498379 0.1282365 -0.19422732 -0.21143411
0002d0 f6 f4 2c 3e f8 d9 83 bd 6f 6d 4b 3f 6c 40 05 bf
       0.1689032 -0.064380586 0.7946386 -0.52051425
0002e0 5a 94 00 bf 6c 6b 80 be 72 5e 1f be 2b 48 d9 3e
       -0.50226367 -0.25081956 -0.15563372 0.42437872
0002f0 88 a5 b6 3d 1e 7d fa 3e 29 f8 a8 3c 4d df 2e 3f
       0.08918291 0.48923582 0.020626144 0.6830948
000300 20 9e 24 3d fc 61 02 3e 52 a0 2a 3f 74 1c 26 be
       0.040189862 0.1273269 0.6665088 -0.16221792
000310 1d 5b 5c bd dd 03 f0 3e 6b f5 a7 bd 25 1d 22 bd
       -0.05379783 0.46877947 -0.08201107 -0.039578576
000320 fc 14 b2 3d 26 fd c9 3f 81 44 fe be 22 db 08 bf
       0.08695409 1.578038 -0.4966164 -0.5345937
000330 69 c4 82 3e 99 f5 c7 bd 8e f9 78 3e 9f 52 e2 be
       0.25540474 -0.09763641 0.24313948 -0.4420366
000340 52 1f 12 bf 08 72 8c be 11 4c ed 3d 79 74 83 3e
       -0.5707904 -0.2743075 0.11586774 0.256748
000350 20 57 24 be 81 0d 32 3f 49 2e 3a 3c 8b 0c ee bd
       -0.1604886 0.69551855 0.011363574 -0.11623486
000360 42 bc 7d 3e 71 bc 0e 3c 9e 1e 06 3f b4 4e 06 3f
       0.24778846 0.00871192 0.5239047 0.5246384
000370 ef 77 54 be 8f 84 b7 bd d9 ab 7f 3e 45 63 11 bf
       -0.20748876 -0.089608304 0.24967898 -0.567921
000380 1c 00 fe 3e d5 07 f7 3b 7b 98 13 3f a0 db 73 3e
       0.49609458 0.0075387754 0.5765454 0.23814249
000390 87 e4 62 3e 83 fc ae 3e 8e b8 2e be b9 29 98 3d
       0.22157489 0.34177026 -0.1706259 0.07429833
0003a0 b8 38 c5 3e 37 a8 34 bf 8a 2a 81 3f 41 73 48 3e
       0.38519835 -0.70569175 1.0091107 0.19575216
0003b0 46 4d 9a 3c 84 0a c0 be 79 34 ef 3e f1 e2 1b 3f
       0.018835675 -0.37508023 0.4671972 0.6089316
0003c0 66 2d 9e 3e d2 5f 15 bf 28 18 da be 49 50 6f 3e
       0.3089401 -0.58349335 -0.42596555 0.2337047
0003d0 a1 97 bf bd 0c 5d be 3e 91 0b 1b 3e 51 4d d4 3e
       -0.09355093 0.37180364 0.15141131 0.41465238
0003e0 e0 44 19 3f 5e f3 24 bf c3 d5 1c bf 39 90 2a bf
       0.5987072 -0.6443385 -0.61263674 -0.66626316
0003f0 73 98 23 bf 10 f5 4e be 60 91 29 3f e2 3e 7e 3d
       -0.63904494 -0.20210671 0.6623745 0.06207169

net.10.bias f4 [20]
000000 78 2f 98 3c 0b 16 39 3e a2 99 e0 bd 7f 8f 03 bd
       0.018577322 0.18074815 -0.10966803 -0.03211927
000010 cc 6d 65 3e db a9 54 bd 27 33 96 bd d5 cd ce bd
       0.22405165 -0.0519198 -0.07333975 -0.10097853
000020 a9 db fb 3d 44 64 d1 3e 9d 91 66 3d 5e 59 ec 3d
       0.12297756 0.4089681 0.05629121 0.11540483
000030 4e 0a 95 bd 0d 39 7d bd eb f0 db bb 0b 07 e0 3d
       -0.07277356 -0.061821986 -0.0067120693 0.10938843
000040 f1 7c 59 bd 24 74 6a 3d 53 b0 83 3c be 2b ac bd
       -0.05309767 0.057239667 0.016075289 -0.08406781

net.12.weight f4 [8, 20]
000000 b3 a6 5b 3f b5 cf b2 be a2 3a c1 bd 49 d1 7a be
       0.8580124 -0.34924093 -0.094350114 -0.24493898
000010 2e 9f 8c be 1a 17 af bd 83 e7 32 bd 51 21 f0 3e
       -0.27465194 -0.08549328 -0.043677818 0.46900418
000020 31 1d 63 be 7e 0f 6e be 0d 08 ef bd ce c9 1f bf
       -0.22179104 -0.23248097 -0.116714574 -0.62417305
000030 ec 72 03 bf ce 66 33 3e 14 20 f5 bd 68 cf 06 3e
       -0.5134723 0.17519686 -0.11969009 0.13165057
000040 bc cb c8 3d c6 94 90 3c e4 5b 62 3e cd 37 47 be
       0.09804484 0.017649066 0.22105366 -0.1945488
000050 c1 ae cb be 56 11 3a 3e 7a 48 0c 40 1a d6 c1 be
       -0.39781764 0.18170676 2.1919236 -0.3785866
000060 6c 7e 58 3f c3 af 87 3f 8e 1b ab 3b da 4f 80 bf
       0.84567904 1.0600513 0.0052217906 -1.0024369
000070 62 bc af be 74 0d 25 3f 26 ed e2 3e 57 ce 09 3f
       -0.34323412 0.6447365 0.44321555 0.53830475
000080 6a a2 ff 3d 0e 3c 1a bf fa f1 13 3e 41 6f d9 3e
       0.1248215 -0.60247886 0.14447775 0.42467692
000090 b2 c1 0e 3e c6 01 4a bf b4 4c 2a 3f b4 a0 da 3e
       0.13941076 -0.78908956 0.6652329 0.42700732
0000a0 17 32 60 be 37 b6 ba 3e 37 7a ba 3f 1c 81 1c be
       -0.21894108 0.36467144 1.4568547 -0.15283626
0000b0 13 14 70 be d4 57 60 3f c3 92 1c 3d b7 8c 9c bf
       -0.23445158 0.87634015 0.0382259 -1.2230443
0000c0 46 fc 25 be 87 6b 7b 3e 3f e5 41 3f 4f 78 69 3e
       -0.16209516 0.24552737 0.75740427 0.227998
0000d0 18 84 26 be 22 34 5b bf 6f d3 5f 3f f0 98 3e 3e
       -0.16261327 -0.85626423 0.87432 0.18613029
0000e0 40 99 8c 3e c3 b6 8e bd 4e a0 5b 3f 91 23 69 3f
       0.2746067 -0.06968453 0.8579148 0.91069895
0000f0 6c 62 5f 3e f8 5e 3f 3e 0d c2 3f bf e5 1d 2e bf
       0.21814889 0.18688571 -0.74905473 -0.68014365
000100 69 e1 99 bf 88 17 3b 3f 4d 2a 40 bb e6 b1 a3 bf
       -1.2021915 0.7308278 -0.0029322088 -1.2788665
000110 bd 69 fc be 9f 3b 2c bf 8f ac a7 be 77 be cc bd
       -0.49299422 -0.67278475 -0.3274884 -0.09997266
000120 74 95 53 3f 5f 0d b1 be 32 dc 22 be 47 95 a6 3e
       0.8264992 -0.34580514 -0.1590431 0.32535765
000130 8e c6 35 bd 0d f3 81 3e dd ba 0e be c5 4a a8 3e
       -0.04437881 0.25380746 -0.1393847 0.32869545
000140 8a 85 10 bf 32 85 07 3f 92 92 9c 3f 0e 2d a3 3c
       -0.56453764 0.52937615 1.223223 0.019918945
000150 35 98 49 3e a9 67 ca bc bd 36 03 3e 84 38 7a bf
       0.19686969 -0.024707632 0.1281385 -0.97742486
000160 b9 3b 48 3f 0c 40 b8 bd 51 cf 90 3e a6 c1 be 3e
       0.7821613 -0.08996591 0.2828317 0.37257117
000170 9a 2c bb bd cd 86 2d 3e b7 0a 7b bf 97 07 c9 3f
       -0.091393664 0.16945954 -0.98063225 1.5705441
000180 07 1e c3 3f 5f a7 8f 3e 23 90 b6 3f ee 19 05 bf
       1.5243539 0.28057382 1.4262737 -0.5199269
000190 13 4e b4 3d 36 8b cd be 9b 86 f7 3d e3 6c 78 bf
       0.08803954 -0.40145272 0.12086221 -0.9704115
0001a0 2b 78 3c be 2a 02 9a be c6 b7 cc be bf bc 87 3c
       -0.18405215 -0.30079776 -0.39983958 0.016569493
0001b0 2b bc 09 3f 32 47 25 bd 9a a6 52 3f ca 7a 63 bf
       0.53802747 -0.0403511 0.82285464 -0.88859236
0001c0 1a 07 26 3f 85 a1 1e 3f 4b c4 cb be 3e b2 54 3f
       0.64854586 0.6196521 -0.39798197 0.83084476
0001d0 2d 2e d8 be 76 36 ec be 6c ef 12 3f 9d eb 75 3f
       -0.4222273 -0.461353 0.5739658 0.9606264
0001e0 52 ee bd 3e e5 47 1d 3e 3a 4c a4 be de 90 e0 be
       0.37095886 0.15359457 -0.32089406 -0.43860525
0001f0 77 65 1a 3e 6c 12 70 3f 99 f4 1a bd 52 b2 5d bf
       0.15077768 0.9377811 -0.037830923 -0.8660022
000200 2a 61 d2 be f8 00 cb bf bf 50 a9 3e 9b ec 24 3e
       -0.41089755 -1.5859671 0.33069417 0.16105883
000210 88 2a d1 3e e9 e2 aa be d3 4b 46 3e e3 40 1e 3f
       0.4085276 -0.33376244 0.19364862 0.6181776
000220 49 8a d5 3d 03 86 79 be c3 b5 4d 3f 4a e3 37 3e
       0.104267664 -0.24367528 0.8035547 0.17957798
000230 7b 37 2e bf f2 d2 d6 be 4c 5d 3a 3e 9d 10 44 bd
       -0.68053406 -0.41957814 0.18199652 -0.047867406
000240 5e 85 3a bf 8f 5b 0d 3d 7c 2c 06 bf b1 3d 18 bf
       -0.7285975 0.034511145 -0.5241163 -0.59469134
000250 37 5a 6e 3f bf a4 86 bf 48 c1 a5 3e 80 65 8b bf
       0.93106407 -1.0519027 0.32374024 -1.089035
000260 14 5c c0 3d 30 b0 ae 3e 49 ee 9c bf a6 19 7f 3e
       0.093925625 0.34118795 -1.2260219 0.24912128
000270 e3 a3 0c 3f 2c 75 2d bf 85 f1 9a 3f f7 58 a3 be
       0.5493757 -0.67756915 1.2104956 -0.31903812

net.12.bias f4 [8]
000000 54 c0 f6 be 26 21 84 3f ce b6 e5 3c 98 6e 92 bf
       -0.4819361 1.0322616 0.02804127 -1.144
000010 9a 93 24 be e0 fe 7f bd ea 07 12 bf b2 6d d6 bd
       -0.1607193 -0.062498927 -0.57043326 -0.104701415
