models/epinet_model.pth (torch, 22279 bytes, 12 tensors)

net.0.weight f4 [32, 1]
0	0xbc805e83	-0.015670067
1	0xbd17c4cf	-0.037052926
2	0xbc8b3b0e	-0.016995933
3	0xbf17b3c8	-0.592587
4	0x3fdd68e1	1.7297632
5	0xbf701fe5	-0.9379867
6	0x3d7cf0c3	0.061753046
7	0x3dc68ad4	0.09694448
8	0xbc43f6cc	-0.011960696
9	0xbf013bdf	-0.5048198
10	0x3d9a5ebc	0.075376004
11	0xbf57bde4	-0.84274125
12	0xbb1ec0c7	-0.002422379
13	0x3f075c22	0.5287496
14	0x3d194c5b	0.037426334
15	0x3f7678f2	0.962783
16	0x3f965d7c	1.1747279
17	0xbc58d033	-0.013233232
18	0xbf795150	-0.973897
19	0x3d935f07	0.071958594
20	0x3e330106	0.17480859
21	0x3d8e0998	0.069354236
22	0xbe94c11d	-0.29053584
23	0x3eb76f62	0.35827166
24	0xbb069f6b	-0.0020541798
25	0xbdbd6e05	-0.092495
26	0xbc556fe5	-0.013027166
27	0xbf420d43	-0.75801486
28	0x3b2536e2	0.0025209715
29	0x3b0cfd47	0.002151327
30	0xbe8c87a7	-0.27447245
31	0xbc36c2df	-0.011154859

net.0.bias f4 [32]
0	0x3e0a042a	0.13478151
1	0x3de1cb6c	0.11025128
2	0x3aed499a	0.00181036
3	0x3f020faa	0.5080515
4	0xbecc4b39	-0.3990114
5	0xbe79f4cd	-0.2440979
6	0xbd8a47b4	-0.067519575
7	0x3e76f486	0.24116716
8	0x3eb8fc18	0.36129832
9	0x3d5c135f	0.05372941
10	0xbc7944ba	-0.01521414
11	0x3ec17a5b	0.37788662
12	0x3ed5fbcb	0.41793665
13	0xbf419092	-0.7561122
14	0x3e643f60	0.222898
15	0xbee97842	-0.45599562
16	0x3d989121	0.07449556
17	0x3e74ace5	0.23894079
18	0x3ef05b19	0.46944502
19	0xbe04dcc7	-0.12974845
20	0xbf1f926a	-0.62332785
21	0xbebb8098	-0.36621547
22	0xbd5b92fc	-0.053606972
23	0x3efdf8d9	0.49603918
24	0x3dcecd4c	0.10097751
25	0x3ee9d935	0.45673528
26	0x3f45afbd	0.7722128
27	0x3b790da4	0.0038002515
28	0xbf396d70	-0.72432613
29	0xbd1f41ea	-0.03888122
30	0x3dc3a555	0.09553019
31	0x3ed1e12f	0.40992114

net.2.weight f4 [32, 32]
0	0xbf180f61	-0.59398466
1	0x3e67a8ed	0.22623034
2	0xbe6cfca9	-0.23143257
3	0x3f5ab320	0.85429573
4	0x3d6ff456	0.058582626
5	0x3e493f29	0.19653
6	0x3f2a4cf1	0.66523653
7	0x3d01968d	0.031637717
8	0xbe6c1028	-0.23053038
9	0xbe44e611	-0.19228388
10	0xbe76f25d	-0.24115892
11	0x3e971b6b	0.29513106
12	0xbe035f9c	-0.12829441
13	0xbe220cac	-0.15825146
14	0x3e0570eb	0.13031356
15	0xbe9713f5	-0.29507414
16	0xbeb6962e	-0.35661453
17	0x3d8d69dc	0.06904957
18	0x3e0ac630	0.13552165
19	0xbe980362	-0.2969008
20	0xbec32a69	-0.38118294
21	0xbd91a9fb	-0.07112499
22	0xbcb7ce78	-0.02243732
23	0x3d642f09	0.05570892
24	0xbe17e7bc	-0.14834493
25	0xbda8ede8	-0.08248502
26	0xbeb1e12f	-0.34742114
27	0x3ecc04f4	0.3984753
28	0x3f344fab	0.70434064
29	0x3ed8b149	0.42322758
30	0x3c29402f	0.010330244
31	0x3e17ceaa	0.1482493
32	0x3c245cdc	0.010031905
33	0x3e03eac9	0.12882532
34	0x3c7b7625	0.015347992
35	0x3eca9a7a	0.3957098
36	0x3cc4a32a	0.024003584
37	0x3e6d9fbb	0.23205464
38	0x3ef01351	0.46889737
39	0x3d943d81	0.072382934
40	0xbe01ea31	-0.12686993
41	0x3eacbd7c	0.33738315
42	0xbdd6bf65	-0.10485724
43	0xbc8cd0e1	-0.017189445
44	0xbd0be130	-0.034150302
45	0x3e9636bc	0.29338634
46	0x3eb94a05	0.36189285
47	0xbe013a23	-0.12619834
48	0xbdfccb4d	-0.12343464
49	0xbde2645e	-0.110543
50	0x3ebad0ef	0.3648753
51	0x3d427250	0.0474723
52	0xbed253f3	-0.41079673
53	0xbe31e4c5	-0.17372425
54	0x3d63ada4	0.05558552
55	0xbe2fbcc5	-0.17161854
56	0xbd7ef617	-0.06224641
57	0x3e031aa7	0.12803136
58	0x3da22d79	0.079188295
59	0x3e5123c8	0.20423806
60	0x3e211347	0.1573001
61	0x3e88e91d	0.2674035
62	0xbe35aa8d	-0.17740841
63	0xbc93db70	-0.018048972
64	0xbf284fa8	-0.65746546
65	0xbea060c4	-0.31323826
66	0xbd5a2a79	-0.05326316
67	0xbdde31b2	-0.108493224
68	0xbe7ca289	-0.24671377
69	0x3eec7272	0.46181065
70	0xbd2b3045	-0.04179408
71	0xbdf9d675	-0.121991076
72	0xbc96232e	-0.018327322
73	0xbe1ef4b6	-0.15523037
74	0xbe9d2a1d	-0.30696192
75	0xbec01af8	-0.37520576
76	0x3ecf0446	0.40432948
77	0xbf01575a	-0.5052391
78	0xbc904996	-0.017613214
79	0xbe4c0e7c	-0.199274
80	0x3bc7b8ee	0.0060950434
81	0xbe499ddc	-0.19689125
82	0x3f276158	0.6538291
83	0xbe90259c	-0.28153694
84	0x3e362095	0.17785867
85	0x3dc4c0c5	0.0960708
86	0xbd5b8e43	-0.05360247
87	0x3edc8a15	0.43074098
88	0xbebf24b5	-0.37332693
89	0x3e98a633	0.298143
90	0xbe0e36b6	-0.13888058
91	0xbe427773	-0.18990879
92	0xbf17729b	-0.5915925
93	0xbe065dab	-0.13121669
94	0xbc987a49	-0.018612998
95	0xbde7c5c3	-0.11317017
96	0xbebf7481	-0.37393573
97	0xbeb55b15	-0.35421053
98	0x3e1a412a	0.1506392
99	0x3d29ead6	0.041483723
100	0xbda78a09	-0.08180625
101	0xbea83122	-0.32849985
102	0xbe182d75	-0.1486109
103	0x3e7d344b	0.2472698
104	0x3ec1979b	0.37810978
105	0x3e4914d9	0.19636859
106	0x3ecc3515	0.39884248
107	0x3eaabf73	0.3334919
108	0x3ef05d4e	0.46946186
109	0xbe2d2a59	-0.16910686
110	0xbe600299	-0.21875991
111	0x3d439398	0.04774818
112	0xbd6b6bed	-0.057475973
113	0x3cd081be	0.02545249
114	0x3e2c2ed6	0.16814741
115	0x3eadff20	0.33983707
116	0x3e8a7cf3	0.27048454
117	0xbd7c81df	-0.061647292
118	0xbe926852	-0.28595215
119	0x3edb1284	0.42787564
120	0x3e9307cc	0.28716886
121	0x3e2f3b09	0.17112364
122	0x3de9e5c0	0.114207745
123	0x3ea1f13c	0.3162936
124	0xbe82acc4	-0.25522435
125	0xbf426280	-0.7593155
126	0xbe5a9e0b	-0.21349351
127	0x3d5c4555	0.053777058
128	0xbe2874a4	-0.16450745
129	0x3f35edba	0.71065867
130	0xbe3905d5	-0.18068631
131	0xbdddef6d	-0.108366825
132	0x3d5c0637	0.053716864
133	0x3e40b5d6	0.18819365
134	0x3d8b83bd	0.068122365
135	0xbdf22499	-0.11823387
136	0xbe86dcca	-0.26340324
137	0xbd3c28a5	-0.0459372
138	0x3da94a73	0.08266153
139	0x3d4fe209	0.050752673
140	0x3e5d8b6f	0.21635221
141	0x3e65dd32	0.2244766
142	0xbe8e10d5	-0.27747217
143	0xbe92eed0	-0.28697824
144	0xbecc70b9	-0.3992975
145	0xbecf287b	-0.40460572
146	0x3de8c29f	0.11365246
147	0x3c8d805b	0.017273119
148	0x3eaf7113	0.34265956
149	0x3e21f258	0.15815103
150	0x3e1e3555	0.15450032
151	0x3d8b8f8f	0.06814491
152	0x3deb18bb	0.11479326
153	0xbdfd0027	-0.12353545
154	0xbe21d1f0	-0.15802741
155	0x3e26fa6f	0.1630647
156	0xbf00a032	-0.5024444
157	0xbeb1be11	-0.34715322
158	0xbef9d1bf	-0.48792836
159	0xbd90ab3c	-0.0706391
160	0xbe1b2b22	-0.15153173
161	0x3e69bd65	0.22826155
162	0xbee15882	-0.4401284
163	0xbf02cd04	-0.5109408
164	0xbcfbcce8	-0.030737355
165	0x3f60eab8	0.8785815
166	0x3f5208a8	0.8204446
167	0x3e8b2fd1	0.2718492
168	0xbf1beb30	-0.6090574
169	0xbdb45f91	-0.0880729
170	0xbecef11d	-0.4041833
171	0xbe5af124	-0.2138105
172	0x3f871c1b	1.0555452
173	0xbef786ab	-0.4834493
174	0xbd358738	-0.044318408
175	0xbe9e0f4c	-0.30871046
176	0xbcfc5990	-0.030804425
177	0xbf301346	-0.6877941
178	0x3e22dbf5	0.1590422
179	0xbdaba7e9	-0.08381636
180	0xbe951ecc	-0.2912506
181	0x3ea5c5f6	0.32377595
182	0xbd9d65b5	-0.07685415
183	0xbea78082	-0.3271523
184	0xbda33a0e	-0.079700574
185	0xbdebe895	-0.11518971
186	0x3cd8937c	0.026437514
187	0x3ed33d4f	0.41257712
188	0xbf477191	-0.77907664
189	0xbedafead	-0.42772427
190	0xbe3bd575	-0.18343146
191	0xbe9785a9	-0.29594162
192	0x3e036829	0.12832703
193	0x3eb68dd8	0.35655093
194	0x3d09af68	0.033614546
195	0xbe56efc5	-0.20989902
196	0x3ce13887	0.027492775
197	0x3d8b0bfd	0.06789396
198	0x3e417ec7	0.18896018
199	0xbe789171	-0.24274231
200	0xbe7ae4ca	-0.24501339
201	0x3f02a133	0.5102722
202	0x3eaac5c9	0.33354023
203	0x3cb40a09	0.021977441
204	0xbec4b325	-0.38417926
205	0xbf80437f	-1.0020598
206	0xbea3a670	-0.3196292
207	0xbe2641bf	-0.16236018
208	0xbeed306f	-0.46326014
209	0xbdc00824	-0.09376553
210	0x3e210f38	0.15728462
211	0x3e031d92	0.12804249
212	0x3e95bcad	0.2924551
213	0xbda71c91	-0.081597455
214	0xbd015daf	-0.031583484
215	0xbb80bbfe	-0.0039286604
216	0x3d874006	0.066040084
217	0xbe02b6ff	-0.1276512
218	0xbf85bafc	-1.0447688
219	0xbe920294	-0.28517592
220	0x3e6093ce	0.21931383
221	0x3f14363a	0.57895243
222	0x3ec25e90	0.3796277
223	0xbebcd9ba	-0.36884862
224	0x3e0453a4	0.12922531
225	0xbea87884	-0.32904446
226	0xbe46a281	-0.19397928
227	0x3e9882c2	0.2978726
228	0xbe71cb92	-0.23612812
229	0xbd437616	-0.047720037
230	0x3e9cb2cd	0.30605164
231	0xbe776aca	-0.2416183
232	0x3dbf585f	0.09343027
233	0xbc9ccbc0	-0.019140124
234	0xbeb57523	-0.3544093
235	0xbde99f88	-0.11407381
236	0xbf6bd333	-0.9211914
237	0xbe22059f	-0.15822457
238	0x3e7649bb	0.24051563
239	0x3e72fe84	0.23729903
240	0xbd853851	-0.06504882
241	0x3def81ee	0.11694704
242	0xbde378a5	-0.111069955
243	0xbe2e0bd6	-0.16996703
244	0xbeb5d7a9	-0.35516098
245	0xbeb5c5be	-0.35502428
246	0xbf08e721	-0.53477675
247	0x3c3bc724	0.011461053
248	0xbea38fe7	-0.31945726
249	0x3ec622aa	0.38698322
250	0x3e842a18	0.25813365
251	0xbd143b94	-0.03618963
252	0x3ea9a58f	0.33134124
253	0x3de41dbd	0.111384846
254	0x3a360601	0.00069436437
255	0xbbd4adc1	-0.0064904396

net.2.bias f4 [32]
0	0x3df1c088	0.118043005
1	0xbd2eb7a2	-0.042655595
2	0xbccbe462	-0.024889175
3	0x3cb065cc	0.021532916
4	0xbd095d12	-0.033536024
5	0xbe285afe	-0.16440961
6	0x3e00708c	0.12542933
7	0x3df17a89	0.1179095
8	0x3c1cf840	0.009580672
9	0xbd86d7f9	-0.06584162
10	0x3d79c801	0.060981754
11	0x3dcbac05	0.099449195
12	0x3cf618c7	0.030041112
13	0x3c3d683b	0.011560495
14	0x3cd9dcbe	0.026594516
15	0x3d0b329c	0.03398381
16	0xbb59a863	-0.0033211939
17	0xbd41964e	-0.047262482
18	0x3bf960cc	0.007610416
19	0x3d1557c0	0.036460638
20	0xbd961acd	-0.073293306
21	0x3db9ce62	0.090725675
22	0x3e350f48	0.1768161
23	0xbccde688	-0.02513434
24	0x3d56f575	0.05248018
25	0x3e66c607	0.22536479
26	0x3d186e07	0.037214305
27	0xbc211b60	-0.009833187
28	0xbd3c08b9	-0.045906756
29	0xbce3d5c4	-0.027811892
30	0x3e4bf971	0.19919373
31	0x3d081a95	0.033228476

net.4.weight f4 [32, 32]
0	0x3d4a4541	0.049382452
1	0xbd2ada19	-0.0417119
2	0xbf08d68b	-0.53452367
3	0x3e032f25	0.12810953
4	0xbf25a4c9	-0.6470457
5	0xbf39e9f9	-0.7262264
6	0x3e425644	0.1897822
7	0x3be2b6c3	0.0069187596
8	0x3e9493a9	0.29018906
9	0xbf83da21	-1.0300943
10	0x3d8a281b	0.06745931
11	0xbe4a3d21	-0.19749881
12	0xbe2faf07	-0.17156611
13	0x3e2a4406	0.16627511
14	0xbec01768	-0.37517858
15	0x3eb350b9	0.35022524
16	0xbee0592e	-0.4381804
17	0xbea4f342	-0.3221684
18	0xbda3a3d5	-0.07990233
19	0x3e4bca47	0.19901381
20	0x3da7c35e	0.0819156
21	0x3e9d1adf	0.30684564
22	0xbe146ab2	-0.14493826
23	0xbe5f8b42	-0.21830466
24	0x3e888c78	0.2666967
25	0x3e181e08	0.14855206
26	0x3c44628f	0.011986389
27	0x3dfc6016	0.123230144
28	0xbbd9ba39	-0.006644514
29	0xbed48828	-0.4151013
30	0xbe252dd4	-0.16130763
31	0x3e6454bd	0.2229795
32	0x3e14cae0	0.14530516
33	0xbd3b7d0b	-0.045773547
34	0xbebea7b0	-0.3723731
35	0x3f912192	1.133837
36	0x3e5ef7b2	0.21774176
37	0xbeb2f655	-0.3495356
38	0xbee4ff82	-0.44726187
39	0xbd750593	-0.05981977
40	0xbeba6650	-0.36406183
41	0x3e7db226	0.2477499
42	0xbe53d3d8	-0.2068628
43	0x3bbc6a2b	0.005749961
44	0xbe67a0bd	-0.2261991
45	0x3e61f6c6	0.22066793
46	0x3d25af54	0.04045041
47	0xbb5e0580	-0.003387779
48	0xbf0699f5	-0.5257867
49	0x3d68f146	0.05687072
50	0x3e74e618	0.23915899
51	0xbec84e33	-0.3912216
52	0xbe683257	-0.22675453
53	0xbe3aaec8	-0.18230736
54	0x3e886b08	0.26644158
55	0x3ea75488	0.3268168
56	0xbcabb7bd	-0.020961637
57	0xbe6f4712	-0.23366955
58	0xbe9655aa	-0.29362231
59	0x3f0d58c5	0.55213577
60	0xbe7044b7	-0.23463713
61	0xbe31486e	-0.17312786
62	0x3ecee45c	0.404086
63	0xbe974d38	-0.295511
64	0x3ea0a703	0.3137742
65	0xbd8c1a06	-0.06840901
66	0xbec5f119	-0.38660505
67	0xbf4f421e	-0.8096026
68	0x3d965467	0.07340317
69	0xbe773ff1	-0.24145485
70	0x3d2ddf0f	0.042449053
71	0x3ee59fb0	0.44848394
72	0x3ece8211	0.40333608
73	0x3ea23a79	0.31685236
74	0x3eac11cd	0.3360733
75	0x3e2580a9	0.16162361
76	0x3e89e1cb	0.2693008
77	0xbe409c28	-0.18809569
78	0x3c842166	0.016129207
79	0xbb4d2dfe	-0.003130793
80	0xbf13bac8	-0.5770688
81	0xbf04ed35	-0.5192445
82	0x3e46f9e9	0.1943127
83	0x3ecf328c	0.40468252
84	0xbd26fc7f	-0.040768143
85	0x3e0f80b0	0.14013934
86	0xbe6c7260	-0.23090506
87	0x3df5062f	0.1196407
88	0xbe9ec5a6	-0.3101017
89	0xbf02b560	-0.51058006
90	0xbe4d0a35	-0.20023425
91	0xbe809748	-0.25115418
92	0xbde63cd6	-0.11242072
93	0x3e029f09	0.1275598
94	0x3ea41415	0.3204657
95	0x3e2ab0af	0.16668962
96	0xbcc923fe	-0.024553295
97	0x3f84d2bd	1.0376812
98	0xbddcb4a4	-0.10776642
99	0xbf07a1e6	-0.5298141
100	0xbf61e0bd	-0.8823355
101	0xbeb737e5	-0.35784832
102	0x3ed79bd0	0.42111063
103	0x3aab2cce	0.0013059617
104	0x3f371fa3	0.7153265
105	0xbe1248aa	-0.14285532
106	0xbe1f4df7	-0.15557085
107	0xbd36bc74	-0.044613317
108	0x3ddd2fa9	0.10800106
109	0x3d9ece25	0.07754163
110	0xbd830bc5	-0.06398729
111	0x3e1a3b34	0.15061647
112	0xbe4bdaa4	-0.19907624
113	0x3e80b001	0.2513428
114	0xbcf6b2ee	-0.030114617
115	0x3e2c4d1c	0.1682629
116	0x3eba7c85	0.36423126
117	0x3e546f47	0.20745574
118	0x3e2932a4	0.16523224
119	0x3e71b4e5	0.23604162
120	0x3d8a1101	0.067415245
121	0xbe312f2b	-0.1730315
122	0x3c75e1e4	0.01500747
123	0x3e66fa6a	0.22556463
124	0x3d6ec402	0.058292396
125	0xbca21c90	-0.01978901
126	0xbd27998f	-0.04091793
127	0x3dd033d3	0.10166135
128	0x3f002504	0.5005648
129	0x3f33a67b	0.70175904
130	0xbd7b7096	-0.061386667
131	0x3e9468c7	0.2898619
132	0xbe754e71	-0.23955704
133	0xbda1139f	-0.078650706
134	0xbef33e9a	-0.475087
135	0xbf19333f	-0.5984382
136	0xbeabca21	-0.3355265
137	0x3f6f69ba	0.935207
138	0x3d3e25f1	0.046422902
139	0xbddf2188	-0.108950675
140	0x3ebcefac	0.36901605
141	0x3e1b4ded	0.15166445
142	0x3e3e5e9c	0.18590778
143	0x3ce7b07a	0.028282393
144	0x3e14990a	0.14511505
145	0x3dadfc06	0.08495335
146	0xbd7b024b	-0.061281484
147	0xbd9617eb	-0.07328781
148	0xbee44993	-0.44587383
149	0x3e3d9943	0.18515496
150	0xbec9e47b	-0.3943213
151	0xbd440374	-0.047854856
152	0x3daa68e8	0.083207905
153	0x3c4865c1	0.012231291
154	0xbef5abe4	-0.47982705
155	0xbe21fbd9	-0.15818729
156	0x3d4ec5c4	0.050481573
157	0xbe4260dc	-0.18982261
158	0xbed1b7e4	-0.4096061
159	0x3f836a0c	1.0266738
160	0xbd146e56	-0.036238037
161	0xbe821801	-0.2540894
162	0xbe887ccf	-0.2665772
163	0xbf507f9f	-0.81444734
164	0xbe5a61bc	-0.21326345
165	0xbd526a30	-0.0513708
166	0x3f24eb93	0.6442196
167	0x3e1ceb70	0.15324187
168	0x3e9b6395	0.30349413
169	0xbc93f77a	-0.018062342
170	0xbe364628	-0.178002
171	0xbcc759b7	-0.024334772
172	0xbd3b4042	-0.045715578
173	0xbed48a55	-0.4151179
174	0x3e1a880d	0.15090962
175	0xbe10939a	-0.14118806
176	0xbeb80cf0	-0.3594737
177	0xbf04f04d	-0.5192917
178	0x3eeb9d57	0.46018478
179	0x3e092134	0.13391572
180	0x3e73d384	0.23811156
181	0x3d438460	0.047733665
182	0xbe385c25	-0.180039
183	0xbdc92fe1	-0.09823585
184	0xbea2f3ca	-0.3182662
185	0xbd2b81c1	-0.04187179
186	0x3e535c22	0.20640615
187	0x3d781858	0.06057009
188	0xbe3ee7c3	-0.18643098
189	0xbf117ee0	-0.5683422
190	0xbe58382b	-0.21115176
191	0xbe48f519	-0.19624747
192	0xbd9751f8	-0.07388681
193	0x3ea30696	0.31840962
194	0xbf4470b3	-0.76734465
195	0xbcdea601	-0.027178766
196	0xbf17c2d9	-0.5928169
197	0xbf5ff9c9	-0.87490517
198	0xbf220884	-0.63294244
199	0x3f0bbdea	0.5458666
200	0xbd80392a	-0.06260903
201	0xbf411d70	-0.75435543
202	0xbe925cf2	-0.28586537
203	0x3db65423	0.089027666
204	0xbf01d96f	-0.507224
205	0x3e8d9fa1	0.2766085
206	0x3ec8c0bb	0.39209542
207	0xbe30aeec	-0.17254227
208	0xbe9b1737	-0.3029115
209	0xbe8c6e19	-0.27427748
210	0x3ee07353	0.43837985
211	0x3f040a0e	0.5157784
212	0x3da16f0b	0.07882508
213	0xbedd2acc	-0.43196714
214	0x3d83afa9	0.06429989
215	0xbbac3c3d	-0.0052562044
216	0xbe0bfe59	-0.13671245
217	0x3e972741	0.29522136
218	0x3d0dd8dc	0.03463064
219	0xbfb39349	-1.4029323
220	0xbdc82ed8	-0.0977456
221	0x3eb9f6b6	0.36321038
222	0xbd2ce604	-0.042211547
223	0x3e2d94b4	0.16951257
224	0xbdc81afb	-0.09770771
225	0xbe41729f	-0.1889138
226	0x3ea78333	0.32717285
227	0x3f28ddff	0.6596374
228	0xbdd24303	-0.10266688
229	0x3f19c01c	0.6005876
230	0xbf030077	-0.51172584
231	0x3e570071	0.20996262
232	0xbe53274b	-0.20620458
233	0x3d594870	0.053047597
234	0xbcf2a29f	-0.02961856
235	0xbe1533ac	-0.14570493
236	0x3e6eb038	0.2330941
237	0x3e00e2bc	0.12586492
238	0xbdd7a3b8	-0.10529274
239	0x3e94260c	0.28935277
240	0x3f1b8891	0.6075526
241	0x3f57fe67	0.8437256
242	0x3dc2b618	0.09507388
243	0xbe1b7a82	-0.15183452
244	0xbf5c1b69	-0.85979325
245	0xbe908ea0	-0.28233814
246	0xbe507163	-0.20355754
247	0xbf08e44a	-0.5347334
248	0x3e8bf05a	0.2733181
249	0xbeacdb95	-0.33761278
250	0xbeae3c6e	-0.3403048
251	0x3f7b58b5	0.9818223
252	0xbe99c5d2	-0.30033737
253	0x3e56d8d6	0.20981154
254	0xbde0beda	-0.10973902
255	0x3e1a17ee	0.15048191

net.4.bias f4 [32]
0	0x3d95d177	0.07315343
1	0xbda08f62	-0.07839848
2	0x3d332bbd	0.043742884
3	0xbb05115f	-0.0020304543
4	0xbdad359a	-0.08457489
5	0xbd1b874c	-0.037970826
6	0x3d47e34b	0.048800748
7	0x3b042c61	0.0020168053
8	0x3cb9eb50	0.022695214
9	0x399e759f	0.00030223743
10	0xbd0bbb33	-0.034114074
11	0xbd36c33d	-0.044619787
12	0x3cdbf27c	0.026849024
13	0x3d14a921	0.036294106
14	0x3c0508bc	0.008119758
15	0x3dac3916	0.08409326
16	0x3d9bf674	0.076153666
17	0xbc86f5da	-0.016474653
18	0x3e2aeffb	0.16693108
19	0xbc6c053b	-0.014405544
20	0x3cb9390d	0.022610212
21	0xbb201a9d	-0.0024429925
22	0x3da1a3a6	0.078925416
23	0xbc15ab79	-0.009135121
24	0xbdb51c7c	-0.088433236
25	0xbb10b486	-0.0022080257
26	0x3c75ec1f	0.015009909
27	0x3d10ed2b	0.03538243
28	0xbbd24950	-0.006417431
29	0x3c020cb9	0.007937604
30	0x3d5d3dfc	0.05401419
31	0xbc309ff7	-0.010780326

net.6.weight f4 [32, 32]
0	0xbe838b6a	-0.25692302
1	0xbb94fc07	-0.0045466456
2	0x3e3fc1d9	0.18726291
3	0x3ddcc9dd	0.1078069
4	0xbeaeacc6	-0.3411619
5	0x3e66087c	0.22464174
6	0x3e6a4f62	0.22881845
7	0x3eb68cac	0.356542
8	0xbe85d792	-0.2614103
9	0xbe00a0fd	-0.12561412
10	0xbebbf4f7	-0.3671033
11	0xbeae6b33	-0.34066162
12	0xbeb4e19e	-0.35328382
13	0x3e2e981f	0.17050217
14	0xba9b471a	-0.0011846751
15	0xbe73d37b	-0.23811142
16	0xbde5cb7c	-0.11220452
17	0x3eae93c9	0.34097126
18	0xbeb393d7	-0.3507373
19	0xbf2f4b02	-0.6847383
20	0x3f439911	0.76405436
21	0x3ca58fa7	0.0202101
22	0x3e9031a5	0.28162876
23	0x3e1e2478	0.15443599
24	0xbe1345eb	-0.1438214
25	0x3e5d27ea	0.21597257
26	0xbe3a55bd	-0.18196769
27	0xbe3f5f3e	-0.18688676
28	0xbf00ec17	-0.50360245
29	0x3d47c476	0.048771344
30	0x3eadbbdf	0.33932397
31	0xbd0d9aa2	-0.034571297
32	0x3eba626a	0.3640321
33	0x3e557ee4	0.20849186
34	0xbe93cf2b	-0.28868994
35	0x3e97b753	0.29632053
36	0xbeac03b3	-0.33596572
37	0xbebc135f	-0.3673353
38	0x3f18250b	0.59431523
39	0xbe969329	-0.2940915
40	0xbed43e04	-0.41453564
41	0x3ea7cef1	0.3277507
42	0xbf6f61ef	-0.9350881
43	0x3e76d4b6	0.2410458
44	0x3cd7cca4	0.026342697
45	0xbe4fd576	-0.20296273
46	0xbccc87a2	-0.024967019
47	0x3e7d890e	0.24759313
48	0x3da07866	0.07835464
49	0xbd1cec31	-0.038311187
50	0xbd3dde21	-0.046354417
51	0xbf0bd6a4	-0.5462439
52	0x3c6f916c	0.014622074
53	0x3e059161	0.13043739
54	0x3ea3f7ad	0.320249
55	0xbdbe47d2	-0.092910424
56	0x3e9c44bb	0.30521187
57	0x3e6f8519	0.23390616
58	0x3dc69010	0.096954465
59	0x3e502516	0.20326647
60	0xbf1fdcbf	-0.62446207
61	0xbecb560b	-0.39714083
62	0xbe50930a	-0.20368591
63	0x3f0bb0ed	0.5456684
64	0x3e0f5ad1	0.13999487
65	0x3ece83d5	0.40334955
66	0xbcdfe52d	-0.02733096
67	0x3f02a9d5	0.51040393
68	0xbe09a40f	-0.1344149
69	0xbeb22408	-0.34793115
70	0xbe190a40	-0.14945316
71	0xbe9c07e9	-0.30474785
72	0x3e2d9ddf	0.16954754
73	0xbc9f5567	-0.019449903
74	0x3d1cff2b	0.038329285
75	0x3f426258	0.7593131
76	0xbf2ba440	-0.670475
77	0x3f4a6a0e	0.79068077
78	0xbf36ac0c	-0.7135627
79	0x3eb50959	0.35358694
80	0xbf041810	-0.51599216
81	0xbe048e35	-0.12944873
82	0x3d7576ff	0.059927937
83	0xbe81ed78	-0.25376487
84	0xbdfd3c4e	-0.12365018
85	0xbef31e3b	-0.47484002
86	0x3dc09b9f	0.09404682
87	0x3f021036	0.50805986
88	0x3f3edf2d	0.7455929
89	0x3d9dd560	0.07706714
90	0x3eb86ad4	0.36019003
91	0x3e2a5dd0	0.16637349
92	0x3e9294ac	0.28629053
93	0xbf3267ce	-0.69689643
94	0xbf94fe81	-1.1640168
95	0x3f1ce844	0.6129191
96	0x3c329ab1	0.010901139
97	0x3df04581	0.11732007
98	0x3d737a59	0.05944285
99	0xbe88cd91	-0.26719335
100	0xbe0c5e19	-0.1370777
101	0x3dec3882	0.115342155
102	0x3f03e20c	0.51516795
103	0x3e3c6b0e	0.18400213
104	0x3da502d0	0.08057177
105	0xbe9b2886	-0.30304354
106	0x3e092179	0.13391675
107	0x3d3b4fb5	0.04573031
108	0x3e3bab3f	0.18327044
109	0xbd5c9bbe	-0.053859465
110	0xbf1d8d6b	-0.6154391
111	0x3cfde5b6	0.030993324
112	0xbf686ae4	-0.907881
113	0x3f058a4d	0.52164155
114	0x3d714225	0.05890097
115	0xbee1d802	-0.44110113
116	0x3e2b8a19	0.16751899
117	0x3e5a1c2e	0.21299812
118	0x3f568ac6	0.838055
119	0xbea47334	-0.32119143
120	0xbdfdaeeb	-0.123868786
121	0xbecc0f79	-0.39855555
122	0xbe7ea96a	-0.24869314
123	0x3df4170d	0.11918459
124	0xbec78b76	-0.38973588
125	0xbe793e5d	-0.24340196
126	0x3efc6def	0.49302623
127	0x3db8bca7	0.090203576
128	0xbcd6ddf6	-0.026228886
129	0x3eb18180	0.34669113
130	0xbe589c73	-0.2115343
131	0xbec7d0df	-0.39026543
132	0x3d2e1f33	0.042510223
133	0xbd5478a8	-0.05187288
134	0xbe26c66c	-0.1628663
135	0xbed782b8	-0.42091918
136	0x3ef2c79b	0.47417912
137	0xbe4fae19	-0.20281257
138	0x3c0c72fa	0.008572334
139	0x3ea87194	0.32899153
140	0xbef48943	-0.47760972
141	0x3f0f2d67	0.55928653
142	0xbdfb5f54	-0.12274042
143	0xbb399422	-0.0028317054
144	0x3e5730aa	0.21014658
145	0xbe3ee221	-0.18640949
146	0xbe50774a	-0.20358005
147	0x3eded7a3	0.43523893
148	0x3f1144d8	0.5674567
149	0xbdca8b3c	-0.09889838
150	0xbcef9163	-0.02924413
151	0xbd44bd09	-0.04803184
152	0x3e67ea36	0.22647938
153	0x3e0a4bd0	0.13505483
154	0x3c6067a4	0.013696585
155	0x3e243627	0.16036282
156	0xbda4c041	-0.08044482
157	0xbf2a52c3	-0.66532534
158	0x3db6de25	0.089290895
159	0xbe84e704	-0.259575
160	0xbddf4d83	-0.10903456
161	0x3dab74ea	0.08371909
162	0xbf15a73c	-0.58458304
163	0xbddd9045	-0.10818533
164	0x3dd5edc2	0.10445739
165	0xbe05c27d	-0.13062473
166	0x3f4ab693	0.79184836
167	0xbeba5f06	-0.36400622
168	0x3db15222	0.08658244
169	0x3e2dc3a2	0.16969159
170	0xbdb8afed	-0.0901793
171	0x3ef189f6	0.47175568
172	0x3f37a508	0.7173619
173	0xbe797dec	-0.24364442
174	0x3eaf59cd	0.342482
175	0x3cf0f340	0.029412866
176	0x3ef32fae	0.47497314
177	0xbe443593	-0.19161062
178	0x3bcdf881	0.0062857275
179	0x3eb7d73c	0.35906398
180	0xbe2dfd56	-0.16991171
181	0xbe9a5bee	-0.30148262
182	0xbe812b19	-0.25228193
183	0x3f1e085f	0.61731523
184	0xbefeeeef	-0.49791667
185	0x3e1ed5ed	0.15511294
186	0x3dc9164a	0.098187044
187	0x3e2b9c57	0.16758858
188	0x3e4d9fe1	0.2008052
189	0xbd951365	-0.0727909
190	0xba411f94	-0.0007367071
191	0x3ce8bbe3	0.028409904
192	0xbf593fc7	-0.8486294
193	0xbca69670	-0.020335406
194	0x3eb3d097	0.3512008
195	0x3e624e90	0.22100282
196	0x3e97731c	0.2958001
197	0xbe69c3e5	-0.22828634
198	0xbf285e15	-0.6576856
199	0x3ef4cc83	0.4781228
200	0xbc34da54	-0.011038382
201	0xbd1fa9ef	-0.03898042
202	0x3e25576a	0.16146627
203	0xbe1c4ee2	-0.15264466
204	0xbe62ff1d	-0.2216763
205	0x3db4e7c7	0.088332705
206	0xbe6f40a9	-0.2336451
207	0xbf333688	-0.70005083
208	0xbe851b18	-0.25997233
209	0x3e98e862	0.29864794
210	0x3e633c78	0.22191036
211	0x3f04af0f	0.5182962
212	0x3e9b8493	0.30374584
213	0x3df919b5	0.12163106
214	0xbf17807e	-0.5918044
215	0x3e8234d0	0.25430918
216	0xbee3e56a	-0.44510967
217	0x3da04168	0.07824975
218	0x3f07cd6c	0.53047824
219	0x3eb35107	0.35022756
220	0xbe0ea309	-0.1392938
221	0x3eb0730e	0.3446278
222	0x3e7c2135	0.24622042
223	0xbeda24b8	-0.4260614
224	0x3e9082aa	0.2822469
225	0xbe8bed31	-0.273294
226	0xbb273deb	-0.0025519084
227	0xbe5ed4e0	-0.21760893
228	0xbeeff3ec	-0.46865785
229	0x3beefff2	0.0072936947
230	0x3ef14ce7	0.47128984
231	0x3ea2f5de	0.31828207
232	0x3eea5ace	0.45772403
233	0x3df24ef8	0.11831468
234	0x3edb47ef	0.42828318
235	0xbebda595	-0.37040392
236	0x3f18f4d6	0.5974859
237	0xbe9e577f	-0.3092613
238	0xbddc3bdf	-0.10753607
239	0xbd9535fa	-0.07285686
240	0x3ea3ed31	0.320169
241	0xbe19e876	-0.15030083
242	0xbdeada40	-0.11467409
243	0xbf32bf0f	-0.6982278
244	0xbe9843c8	-0.29739213
245	0x3ea3e50a	0.3201068
246	0xbca45b90	-0.020063192
247	0xbf6ee883	-0.93323535
248	0x3eefdf60	0.4685011
249	0xbd876ce8	-0.06612569
250	0x3e2518bd	0.16122718
251	0xbe8b0e36	-0.2715928
252	0x3e09f814	0.1347354
253	0x3d8eeeea	0.06979163
254	0x3e3a3964	0.18185955
255	0xbe7ed43b	-0.24885647

net.6.bias f4 [32]
0	0xbd9991a6	-0.07498483
1	0x3c83be3d	0.016081924
2	0x3d150083	0.03637744
3	0x3d7d65a8	0.061864525
4	0xbe263b99	-0.16233672
5	0xbc615c22	-0.013754876
6	0xba97b3a0	-0.0011573918
7	0x3dd034fb	0.10166355
8	0xbc6a6d4c	-0.014308285
9	0x3d8a4d00	0.06752968
10	0x3d3ef76b	0.046622675
11	0x3bf6e8a4	0.007535057
12	0x3d5ea299	0.054354284
13	0x3deac58d	0.11463461
14	0xbc059b15	-0.00815465
15	0x3d316a49	0.043314252
16	0x3cd850c9	0.026405709
17	0xbd4c311f	-0.049851533
18	0xbb774a31	-0.003773343
19	0xbd8c5c8c	-0.068535894
20	0xbdab45de	-0.083629355
21	0xbdaae898	-0.08345145
22	0xbd5eacc4	-0.05436398
23	0xbd9f19c9	-0.0776859
24	0xbdcb279f	-0.099196665
25	0x3c525f1d	0.01284006
26	0x3d7b5f18	0.061369985
27	0x3e71eb83	0.23624997
28	0xbd0d3be3	-0.03448094
29	0x3d89cfbf	0.067290775
30	0xbdebc764	-0.1151264
31	0x3c4c9e84	0.012488965

net.8.weight f4 [32, 32]
0	0x3eb0a567	0.34501192
1	0xbf307f92	-0.68944657
2	0xbe379416	-0.17927584
3	0xbeb539f4	-0.35395777
4	0x3dfd4c09	0.12368018
5	0x3f383381	0.7195359
6	0xbe0761d1	-0.13220908
7	0xbecd1b1a	-0.4005974
8	0x3e223657	0.15841042
9	0xbea8d5ed	-0.32975712
10	0xbe812b20	-0.25228214
11	0xbdd9d5d9	-0.10636491
12	0xbebb9b25	-0.36641803
13	0x3df4a859	0.11946172
14	0x3f05f813	0.52331656
15	0xbe3d761f	-0.18502091
16	0xbf043026	-0.5163597
17	0x3ea1ae8b	0.31578478
18	0xbf42105b	-0.75806206
19	0x3f173c17	0.59076065
20	0xbea3ed0a	-0.32016784
21	0xbc6dd557	-0.014516196
22	0x3ccd6410	0.025072128
23	0xbeb248d7	-0.34821197
24	0xbd2b8a22	-0.04187978
25	0x3e6d07d8	0.23147523
26	0xbeb0416e	-0.3442492
27	0x3e19b249	0.15009417
28	0xbe2cea70	-0.16886306
29	0x3e4fe5f4	0.20302564
30	0xbf084034	-0.53222966
31	0xbf390dae	-0.722865
32	0x3dd7e2f9	0.105413385
33	0x3f52329e	0.82108486
34	0xbe55461c	-0.20827526
35	0xbfa851d3	-1.3149971
36	0xbf0ad209	-0.5422674
37	0xbece6598	-0.40311885
38	0xbef919cf	-0.48652503
39	0xbe085f40	-0.13317585
40	0xc0064508	-2.0979633
41	0x400fc662	2.2464833
42	0x3ea29f3c	0.3176211
43	0xbd0b33e0	-0.03398502
44	0x3e97bf0e	0.2963795
45	0x3c7d5de0	0.015464276
46	0xbf99299a	-1.1965821
47	0xbc55a439	-0.013039642
48	0xbe2e94d6	-0.17048964
49	0xc02b7a37	-2.6793344
50	0xbf787048	-0.9704633
51	0x3e0b424a	0.13599506
52	0xbe719bab	-0.23594539
53	0xbe18f823	-0.14938407
54	0xbe97c633	-0.29643402
55	0xbf025b22	-0.5092031
56	0x3e3bddc4	0.18346316
57	0xbe5b91da	-0.21442357
58	0x3f5dc4ea	0.8662859
59	0xbd4c0dab	-0.049817722
60	0x3f1789d8	0.5919471
61	0x3e8e6d54	0.27817786
62	0x3dd18efe	0.10232352
63	0xbc81370f	-0.015773324
64	0x3e691c8a	0.22764793
65	0xbead3f48	-0.33837342
66	0x3e8ee387	0.27907965
67	0x3ee49497	0.44644615
68	0x3e82d053	0.25549564
69	0x3e969a40	0.29414558
70	0xbe474c57	-0.19462715
71	0x3e4720b4	0.19446069
72	0xbe21f720	-0.15816927
73	0xbe6663c4	-0.22498995
74	0xbf2390ac	-0.63892627
75	0x3f201cda	0.62544024
76	0x3dc0d552	0.094156876
77	0xbe6e5ffc	-0.23278803
78	0xbf025d41	-0.50923544
79	0xbee6b42a	-0.4505933
80	0xbf065d58	-0.5248618
81	0x3e63a980	0.22232628
82	0x3d3aee78	0.045637578
83	0x3f2d32e0	0.67655754
84	0x3e5383a0	0.2065568
85	0xbe6843ba	-0.22682086
86	0xbcad07e3	-0.021121925
87	0x3bfdea40	0.007748872
88	0xbfbb3a51	-1.4627172
89	0xbdb53e2b	-0.08849748
90	0xbeb891c9	-0.36048725
91	0xbd8ff0a0	-0.070283175
92	0xbf6ea76a	-0.93224204
93	0x3d967be2	0.073478475
94	0xbf9ba0fe	-1.2158506
95	0xbda86576	-0.08222477
96	0xbe87cbd9	-0.2652271
97	0xbe40c624	-0.18825585
98	0xbe00fe4d	-0.12597008
99	0xbedff6f2	-0.43743092
100	0x3d0ea078	0.034821004
101	0xbe46fa9c	-0.19431537
102	0xbdc515d7	-0.09623306
103	0xbddebed2	-0.1087624
104	0xbf113b3a	-0.56731
105	0x3ef72700	0.48271942
106	0x3e9e1038	0.3087175
107	0xbe1e9d14	-0.15489608
108	0x3dbd80c3	0.09253075
109	0xbe6178b1	-0.22018696
110	0x3dab353e	0.083597645
111	0x3eb0775c	0.34466064
112	0x3db03207	0.08603292
113	0x3b049c57	0.0020234787
114	0xbf148b32	-0.58024895
115	0x3eb7da93	0.35908946
116	0x3e0caa65	0.13736875
117	0x3ca0268b	0.019549629
118	0xbcdab669	-0.026698308
119	0xbedd94b8	-0.43277526
120	0x3e37f31b	0.17963831
121	0x3efc5e16	0.49290532
122	0x3dc37292	0.09543337
123	0x3dc794b3	0.09745159
124	0x3f45203d	0.77002317
125	0xbe745b64	-0.23862988
126	0x3e7227cb	0.23647992
127	0x3c3a4271	0.01136838
128	0x3f07bf83	0.530266
129	0xbeaa5b29	-0.33272675
130	0xbeb53cf7	-0.35398075
131	0x3f677839	0.9041782
132	0xbd8a4425	-0.06751279
133	0x3f82eaa7	1.022786
134	0x3d0a986e	0.033836775
135	0x3f33021a	0.6992508
136	0x3e9ec34e	0.3100838
137	0x3e26baa0	0.1628213
138	0xbe947913	-0.28998622
139	0xbdaab099	-0.083344646
140	0xbcac1b1a	-0.021009017
141	0xbe217f12	-0.1577113
142	0x3f245b48	0.64201784
143	0x3ead9ea0	0.33910084
144	0x3cf0cf9e	0.029395875
145	0x3dfce304	0.12347987
146	0xbf0154a1	-0.5051976
147	0x3e65199b	0.22373049
148	0xbedff92a	-0.43744785
149	0x3e2b7d34	0.1674698
150	0xbe5fb225	-0.218453
151	0xbe397e27	-0.1811453
152	0xbfcd15f3	-1.6022323
153	0x3e28ec1c	0.16496319
154	0xbdd981d4	-0.10620466
155	0x3ec35954	0.3815409
156	0xbf68fae7	-0.91007847
157	0x3e29416d	0.16528864
158	0xbfddd28a	-1.7329876
159	0x3d9c1a8f	0.07622253
160	0x3e56086e	0.20901653
161	0x3ddba893	0.10725512
162	0xbf08df71	-0.53465945
163	0x3f17f9a1	0.5936528
164	0x3e114b14	0.14188796
165	0xbec88a73	-0.39168128
166	0xbe6cf2f9	-0.23139562
167	0xbe013d6b	-0.12621085
168	0x3f341f41	0.7036019
169	0xbed47faa	-0.4150365
170	0x3da73fec	0.08166489
171	0xbe011e22	-0.12609151
172	0xbea267e7	-0.31719896
173	0xbdc8650a	-0.09784897
174	0xbf2e0d0f	-0.67988676
175	0xbe8c36c7	-0.27385542
176	0xbdac42c9	-0.08411176
177	0xbf0813b9	-0.53155094
178	0x3ed0f8c5	0.40814796
179	0xbe376baf	-0.17912172
180	0x3d86d700	0.06583977
181	0xbe549ad1	-0.20762183
182	0xbe047e6e	-0.12938854
183	0x3df13b51	0.11778892
184	0x3d737c25	0.059444565
185	0xbeadcb70	-0.33944273
186	0xbed46815	-0.41485658
187	0x3f0be5d4	0.54647565
188	0x3e86d78a	0.26336318
189	0xbdb4da4a	-0.08830698
190	0xbdee0713	-0.11622443
191	0x3eba15c6	0.36344737
192	0x3f063a16	0.5243238
193	0x3e18ec80	0.14933968
194	0xbe82a8da	-0.2551945
195	0xbf032dea	-0.51241934
196	0xbca97e9a	-0.020690251
197	0xbc23055c	-0.009950008
198	0xbeae495d	-0.34040347
199	0xbc2e5252	-0.010639744
200	0xbf77a98e	-0.96743095
201	0x3f6a2829	0.9146753
202	0xbd18c73e	-0.037299387
203	0x3e435191	0.19074084
204	0x3ed112fb	0.40834793
205	0x3f0009ad	0.50014764
206	0xbe617c16	-0.22019991
207	0x3f0317c5	0.51208144
208	0xbe5761ed	-0.2103345
209	0xbe16a5a1	-0.1471162
210	0xbc8596b1	-0.016307207
211	0x3e4c501b	0.19952433
212	0xbf2a7766	-0.6658844
213	0x3e24ad35	0.16081698
214	0x3ec942e0	0.39308834
215	0x3eb8bcd6	0.3608157
216	0xbf076187	-0.5288319
217	0xbeb3944a	-0.35074073
218	0x3d83b75e	0.06431459
219	0xbecfa274	-0.4055363
220	0x3e81a30b	0.25319704
221	0x3e8aee05	0.2713472
222	0xbe9a6728	-0.30156827
223	0x3e3f5b6d	0.1868722
224	0xbec1e54b	-0.3787025
225	0xbdf8ad24	-0.12142399
226	0xbe48cbb9	-0.19608964
227	0x3f0f546c	0.5598819
228	0xbe39bb6a	-0.18137899
229	0x3f68037c	0.90630317
230	0x3e5ed4f0	0.21760917
231	0x3ebb1677	0.36540577
232	0x3e826cfa	0.25473768
233	0xbdc15c24	-0.094414026
234	0xbd4b68d6	-0.049660526
235	0xbde3c27a	-0.11121078
236	0xbf12b80f	-0.573121
237	0x3e7de771	0.24795319
238	0xbe948f13	-0.29015407
239	0x3e0cf317	0.13764606
240	0xbeca3ea1	-0.39500907
241	0x3eafb08b	0.3431438
242	0xbd62c295	-0.05536135
243	0x3d4d303f	0.05009484
244	0xbeb9f3f7	-0.36318943
245	0xbf16caad	-0.5890301
246	0x3e035521	0.12825443
247	0x3df69713	0.12040534
248	0xbfd02654	-1.6261697
249	0xbd8ab28a	-0.06772335
250	0x3ea1e97c	0.31623447
251	0xbd8943bb	-0.06702372
252	0xbfb3b9a0	-1.4041023
253	0x3f08f4a4	0.5349829
254	0xbfd94144	-1.6973042
255	0x3e8ca50f	0.2746968

net.8.bias f4 [32]
0	0xbd1ae348	-0.03781441
1	0xbc80a718	-0.015704677
2	0xbcb76f6e	-0.022392001
3	0xbd0fac56	-0.03507646
4	0x3e0abb5a	0.13548031
5	0xbba4db5f	-0.005031034
6	0x3e09259e	0.13393256
7	0x3e44d2c4	0.19221026
8	0x3dc79ee3	0.09747102
9	0x3dfd9bc0	0.123832226
10	0xbd4850a7	-0.04890504
11	0x3d938b56	0.072043106
12	0x3c8972c3	0.016778355
13	0x3dd422b3	0.10358181
14	0xbb693988	-0.003558727
15	0xbe915da4	-0.28391755
16	0x3ba8230e	0.005131132
17	0x3c590149	0.013244935
18	0xbde5c906	-0.11219983
19	0x3d19f9fc	0.03759192
20	0x3d80cbb3	0.062888525
21	0xbe0d55d1	-0.13802268
22	0xbdd1a7c9	-0.102370806
23	0xbd45c783	-0.048285972
24	0x3d4b32ab	0.049608868
25	0x3d91983d	0.07109115
26	0x3aa2a2bd	0.0012408119
27	0xbc849735	-0.016185382
28	0x3d22849c	0.039677247
29	0xbd9787a5	-0.07398919
30	0xbd7d33d5	-0.06181701
31	0xbd096aff	-0.033549305

net.10.weight f4 [8, 32]
0	0xbdd0096b	-0.10158046
1	0xbb90b056	-0.004415552
2	0x3f586372	0.8452674
3	0x3e2a579e	0.16634986
4	0x3e58cff3	0.21173076
5	0xbececa9a	-0.40388948
6	0x3efd5bca	0.49484092
7	0x3f32dc43	0.6986734
8	0xbea07b82	-0.3134423
9	0x3f1dbce2	0.6161634
10	0xbf5522a0	-0.8325596
11	0xbd689c63	-0.056789767
12	0xbed8808a	-0.42285568
13	0xbefb41df	-0.49073693
14	0x3d52e3ef	0.051486906
15	0x3ebf1654	0.37321723
16	0x3ef7a81d	0.48370448
17	0x3e037c57	0.128404
18	0xbd6af04d	-0.057358075
19	0xbe3b0a5b	-0.18265669
20	0xbe980251	-0.29689267
21	0xbe95ba1f	-0.29243562
22	0xbed3b6de	-0.41350454
23	0xbf11bc07	-0.5692753
24	0x3e8116fa	0.25212842
25	0xbcc044e7	-0.023470355
26	0xbf27a89a	-0.6549164
27	0x3f226612	0.63436997
28	0xbe62fafa	-0.22166052
29	0xbea9719f	-0.330945
30	0x3eda2090	0.42602968
31	0xbdec56fe	-0.1154003
32	0x3d1e67ca	0.0386732
33	0xbeada87e	-0.33917612
34	0xbbb3cd47	-0.0054871175
35	0xbf13410e	-0.5752114
36	0xc000d66d	-2.0130875
37	0xbdda480d	-0.10658274
38	0x3f642e17	0.8913283
39	0xc0078e83	-2.1180732
40	0x3e632d22	0.22185186
41	0x3f476e60	0.77902794
42	0xbf649e64	-0.89304185
43	0x3eaf97be	0.34295458
44	0xbd3fefdf	-0.04685962
45	0x3f138e7f	0.57639307
46	0x3d9c3c13	0.07628646
47	0xbe5e8f5c	-0.21734375
48	0xbc9f2995	-0.019429008
49	0xbf1f3ab3	-0.6219894
50	0xbec16217	-0.3777015
51	0xbdea4380	-0.11438656
52	0xbea52319	-0.3225334
53	0xbd45f143	-0.04832579
54	0x3e6a5c76	0.22886834
55	0xbe9e8efb	-0.3096846
56	0xbf11bae9	-0.5692583
57	0x3f24bfdd	0.6435526
58	0x3ecdee2b	0.4022077
59	0xbf2e1780	-0.6800461
60	0x3f0775c5	0.5291408
61	0x3eafde1c	0.34349144
62	0x3ec0cee0	0.37657833
63	0xbe4363c4	-0.19081026
64	0xbea348ac	-0.31891382
65	0xbf09fdbe	-0.53902805
66	0x3de98d28	0.114038765
67	0xbf4259e9	-0.7591844
68	0xbf81c6d4	-1.0138803
69	0x3dfa9bb7	0.122367315
70	0x3ef634fa	0.48087293
71	0xbf77ca31	-0.96792895
72	0x3e6a603a	0.2288827
73	0x3e9ab22c	0.3021406
74	0xbf54564a	-0.82944167
75	0x3f0a4a88	0.54019976
76	0xbd504fb1	-0.05085725
77	0x3ef55c7c	0.47922122
78	0x3e825432	0.2545486
79	0x3e9aec4c	0.30258405
80	0xbeeb7898	-0.45990443
81	0xbf39501d	-0.7238787
82	0xbe1f4bb6	-0.15556225
83	0xbd6e980c	-0.058250472
84	0xbdfd4c76	-0.123680994
85	0xbf201bca	-0.625424
86	0xbeded3ba	-0.4352091
87	0x3f36e569	0.714438
88	0xbf17ad82	-0.59249127
89	0x3f4d83ff	0.80279535
90	0x3f0558bb	0.52088517
91	0xbf45f290	-0.77323246
92	0x3f349bc9	0.7055021
93	0x3d8e068d	0.06934843
94	0x3e2becae	0.16789505
95	0xbf04b1ff	-0.518341
96	0xbe2ebf56	-0.17065176
97	0x3d9295b3	0.07157459
98	0x3dedc14a	0.116091326
99	0x3f211a5c	0.62930846
100	0x3f188186	0.5957264
101	0xbc4c2c67	-0.012461758
102	0x3f54f348	0.8318372
103	0x3f2e23ba	0.68023264
104	0xbdb80b07	-0.08986478
105	0xbf29e90b	-0.6637122
106	0x3ebccfed	0.36877385
107	0x3f4fe150	0.81203175
108	0xbd78e686	-0.06076672
109	0xbf401868	-0.7503724
110	0xbe7c73a6	-0.24653491
111	0x3f3906f1	0.72276217
112	0xbf341f2d	-0.7036007
113	0x3f490a47	0.78531307
114	0xbe916e37	-0.284044
115	0xbe4cf760	-0.20016241
116	0xbcaedc9b	-0.021345427
117	0x3f4123cf	0.75445265
118	0xbe021dfe	-0.12706754
119	0x3e7cd649	0.24691118
120	0xbd513ec4	-0.05108525
121	0x3f3a9746	0.72887075
122	0x3f312e45	0.69211227
123	0xbf5271d0	-0.82204914
124	0x3f6e6530	0.9312315
125	0xbe9bac52	-0.30404907
126	0xbf1f7e03	-0.62301654
127	0xbea559c4	-0.32295048
128	0x3d841567	0.06449395
129	0xbe1d5422	-0.15364125
130	0x3f4245ad	0.75887567
131	0x3f195eae	0.59910095
132	0xbf629134	-0.8850281
133	0xbf09c8cc	-0.53822017
134	0x3ea94163	0.330577
135	0xbe26483d	-0.16238494
136	0xbe781eaf	-0.24230455
137	0x3ec7cf79	0.39025477
138	0xbf220b1a	-0.6329819
139	0x3e9b8638	0.30375838
140	0xbeaa60da	-0.33277017
141	0xbed3241e	-0.41238493
142	0xbf152b93	-0.58269614
143	0x3d03bac3	0.03216053
144	0xbdc8fe2a	-0.09814103
145	0xbd9a3b72	-0.075308695
146	0x3ea4fad6	0.32222623
147	0x3f722c3c	0.94598746
148	0xbe8e2757	-0.2776439
149	0x3f2fb4d9	0.68635327
150	0x3ecf2f2a	0.4046567
151	0x3e361d7c	0.17784685
152	0xbf347ce5	-0.70503074
153	0x3f0abad7	0.54191345
154	0x3f6f3f9d	0.9345644
155	0x3f14df5e	0.5815333
156	0x3f0b85fb	0.5450131
157	0x3f780b8f	0.96892637
158	0xbf7a1db9	-0.97701603
159	0xbf45d4ee	-0.7727803
160	0x3fbb75d5	1.4645334
161	0x3e08eec7	0.13372336
162	0x3e9039e1	0.28169158
163	0x3eb70667	0.35747072
164	0xbe7f953b	-0.2495927
165	0xbf50e68f	-0.81601804
166	0x3f0091ee	0.5022267
167	0x3e8c8178	0.27442527
168	0x3ea8511e	0.32874388
169	0xbdf59e6b	-0.119931065
170	0xbec6004f	-0.3867211
171	0x3f11e308	0.5698705
172	0x3f26310f	0.6491861
173	0xbda93fbf	-0.08264112
174	0xbe1556d7	-0.14583908
175	0x3f347e84	0.7050555
176	0xbf1be2d5	-0.60892993
177	0xbded5011	-0.11587537
178	0x3f721a22	0.94571126
179	0x3e7d996a	0.24765554
180	0xbf6ac3be	-0.9170493
181	0x3ec04c91	0.37558416
182	0x3f8b506b	1.0883917
183	0x3eb78439	0.35843065
184	0xbf028887	-0.50989574
185	0xbc6a1f2f	-0.014289661
186	0xbe94cf93	-0.29064617
187	0xbdacb1fa	-0.08432384
188	0xbd8d8404	-0.069099456
189	0x3d8fae9c	0.07015726
190	0xbe95b904	-0.29242718
191	0xbec5d2a5	-0.38637272
192	0xbf5bcd5a	-0.85860217
193	0xbe9f89d0	-0.3115983
194	0x3e4a241a	0.19740334
195	0xbe2615b8	-0.16219223
196	0x3f7d0340	0.98833084
197	0xbd10effd	-0.03538512
198	0x3f3c20e9	0.73487717
199	0xbf83f6f1	-1.0309736
200	0xbc613a97	-0.013746879
201	0xbe8c4ea9	-0.27403763
202	0xbf0c2b39	-0.5475345
203	0x3d7b63e2	0.061374553
204	0xbdd6e9dc	-0.10493824
205	0x3def8c58	0.1169669
206	0x3d95f59a	0.073222354
207	0xbe79bf75	-0.24389441
208	0xbe4b1719	-0.1983303
209	0xbe2cd2a1	-0.16877224
210	0xbe49d2bc	-0.19709295
211	0xbe58c3f9	-0.21168508
212	0xbe82612c	-0.2546476
213	0x3f44b5ab	0.76839703
214	0x3efcc56b	0.49369368
215	0x3f7c2f2f	0.98509496
216	0xbed864ff	-0.42264554
217	0x3f0808bc	0.5313833
218	0x3f80ee61	1.0072747
219	0xbee97ea5	-0.45604435
220	0xbe2dcc4d	-0.16972466
221	0x3e8dad58	0.27671313
222	0x3d8a15df	0.06742453
223	0xbd985b97	-0.074393444
224	0x3eb1edf1	0.34751847
225	0x3de30df4	0.11086646
226	0x3eff7bd1	0.49899152
227	0x3e278f38	0.16363227
228	0x3e98cc8e	0.29843563
229	0xbf63b6cf	-0.8895082
230	0x3d849863	0.06474378
231	0xbcced79d	-0.025249297
232	0x3e984ebf	0.29747579
233	0xbf16e37c	-0.58940864
234	0xbf378025	-0.7167991
235	0x3c755e8b	0.014976154
236	0x3f61eb2b	0.8824946
237	0xbed9926b	-0.4249452
238	0xbeecbe74	-0.46239054
239	0x3ef38159	0.47559622
240	0xbf787d42	-0.9706613
241	0xbf54494a	-0.8292433
242	0x3f65baf6	0.89738405
243	0x3e1a05b7	0.15041243
244	0xbf1212d6	-0.5705999
245	0x3f5c44f5	0.8604272
246	0x3e9cd20b	0.30629
247	0x3f7182ae	0.94340026
248	0xbf70ad28	-0.94014215
249	0x3e18c180	0.14917564
250	0xbd194851	-0.037422482
251	0x3dd1ca15	0.10243622
252	0x3e81ed0d	0.25376168
253	0x3d382c13	0.044963907
254	0x3dac7bf1	0.084220774
255	0xbde96e66	-0.1139801

net.10.bias f4 [8]
0	0x3f34551e	0.7044238
1	0x3fae010b	1.3594068
2	0xbbb5d798	-0.0055493824
3	0xbf945ba0	-1.1590462
4	0xbcfae65a	-0.030627418
5	0xbecda47d	-0.40164557
6	0xbf8a65ce	-1.0812318
7	0xbe2800ee	-0.16406605
