models/epinet_model.pth (torch, 22722 bytes, 12 tensors)

net.0.weight f4 [32, 1]
000000 39 63 bf bc df 45 a8 bc 56 11 85 bd 8b 63 a7 bf
       -0.023362743 -0.02054113 -0.06497447 -1.3077253
000010 49 f4 a7 3f 0f 9e ae bf 1e e4 09 3b c4 9c 99 3e
       1.3121425 -1.3641986 0.002104051 0.30002415
000020 7c 7a cc bb 0c 9d 2a bf 4c d7 47 3c dd ac 8d bf
       -0.006240187 -0.66645885 0.012197327 -1.1068379
000030 9b 91 ce bb bf fc 7c 3f 3b d9 80 3d 6f 14 7a 3f
       -0.0063039786 0.9882316 0.062914334 0.9768743
000040 49 95 86 3f 0e 74 f7 ba 99 8f 84 bf 1f 7c f1 3c
       1.0514308 -0.0018879191 -1.0356323 0.02947813
000050 14 5b 8b 3d 04 19 9d 3e cb 83 f5 bd a0 6d 50 3c
       0.06804481 0.30683148 -0.11988028 0.012721449
000060 0b 03 04 bb 5f 73 eb bd da 12 0d bb cc 85 93 be
       -0.0020143415 -0.11496615 -0.002152613 -0.28813016
000070 7a 5a 01 3b e4 c1 ec 3d 4e 89 4a bd 68 4c 03 bc
       0.0019737766 0.11560419 -0.04944735 -0.008013822

net.0.bias f4 [32]
000000 d0 04 09 3f e0 83 85 3e e1 bd f3 3e 01 ca 96 3f
       0.5352297 0.26077175 0.47605804 1.1780397
000010 86 26 7c 3e 56 11 57 3e 28 e5 90 be 8f 9f 17 3f
       0.2462407 0.21002707 -0.28299832 0.5922784
000020 2f 81 ea 3e 86 c3 3d 3e 7d 73 e9 be 6a 81 85 be
       0.45801684 0.18531618 -0.45595923 -0.26075298
000030 cf b0 87 3e 9a fa 99 3f f6 5c 04 be c2 55 0a bf
       0.26502082 1.2029603 -0.12926087 -0.54037106
000040 3c 8b 54 bf 40 f1 ad 3e f0 00 83 bf 84 7d 24 bf
       -0.83024955 0.33973122 -1.0234661 -0.6425402
000050 61 b0 80 3d 96 b7 28 be 9b 2a 1c bf 27 74 b3 bd
       0.062836416 -0.16476282 -0.6100251 -0.08762389
000060 5b 45 c6 3e 94 7e 1c 3e b2 73 67 3e be b5 9f be
       0.3872479 0.1528266 0.22602728 -0.31193346
000070 a0 84 ae be 1f 45 1a 3e f9 96 01 3e 18 9a f5 3e
       -0.3408556 0.1506543 0.12655248 0.47969127

net.2.weight f4 [32, 32]
000000 6e 81 e4 be d2 15 de 3e 0f 7c 97 3d e9 0a ca 3f
       -0.44629997 0.43376023 0.07396709 1.578458
000010 0f 0b 43 bf 83 11 94 3f 75 09 e1 3e 25 25 a3 be
       -0.7618875 1.1567844 0.43952528 -0.31864277
000020 7c d8 19 3d 78 c8 1e 3f 2a 2e f7 be 1c 81 9f 3f
       0.03755997 0.6202464 -0.48277408 1.2461276
000030 70 e9 9b 3d 76 70 3c bf bc 80 d3 bd b7 86 8b bf
       0.07612884 -0.736091 -0.103272885 -1.0900487
000040 4c da 8c bf f6 6c 99 3e 32 b9 3c 3f 25 1c 17 bf
       -1.1004119 0.29965943 0.73720086 -0.5902732
000050 ea 63 52 bf 56 c9 0f bf dd 31 bf 3e 34 76 8c bd
       -0.82183707 -0.5616659 0.3734273 -0.06858483
000060 64 dd 04 3e 2f 1f 71 3e ce 36 14 be af cc 5c 3f
       0.12975079 0.23547052 -0.14474031 0.8624982
000070 e0 bc cf 3e 71 f2 09 3e 31 80 5f 3e e5 8d e4 3e
       0.40573788 0.1347139 0.21826245 0.44639507
000080 17 59 0a bd 48 d9 b6 3d 35 7f d2 bc 1c da b4 3e
       -0.03377637 0.08928162 -0.025695423 0.35322654
000090 f5 49 8b 3d 65 bc 39 3e 86 8b 2e 3f 6b 47 fa 3d
       0.068012156 0.18138273 0.68181646 0.12220653
0000a0 19 41 3e be 4d 4a 94 3e 1b 8c 80 bd 8b e9 84 bd
       -0.1857952 0.28962937 -0.06276723 -0.06489857
0000b0 16 65 a0 bd 82 e3 ab 3e 0c 9c cf 3e 61 e2 a3 bd
       -0.078317806 0.33572012 0.40548742 -0.08002163
0000c0 82 80 a3 bd 14 71 93 be 60 eb a2 3e 3a 6c b5 3d
       -0.07983495 -0.2879721 0.31820202 0.08858533
0000d0 75 38 bc be 0f de 0e be 71 af 0d 3c 09 3b f8 bd
       -0.36761823 -0.13951896 0.0086477855 -0.12120635
0000e0 55 9d 4f be 36 51 be 3d 56 7b b9 bd a7 45 22 3e
       -0.20274861 0.092928335 -0.090567276 0.15846883
0000f0 11 95 a1 3e 16 3c 7e 3e ba 86 61 be b5 36 a7 bd
       0.3155904 0.24827608 -0.2202405 -0.081647314
000100 6c 6f 2d bf 6b 98 a5 be 57 32 85 bd 32 44 fa bd
       -0.6774814 -0.32342848 -0.06503742 -0.122200385
000110 36 f9 6b be 4d d6 e2 3e 2c 4c 26 3d 2c 61 d3 bd
       -0.23044285 0.44304124 0.040599987 -0.103212684
000120 f1 2e 25 bd be 1d 30 be e8 9c 97 be 21 d2 c8 be
       -0.04032797 -0.17198846 -0.29611897 -0.39222816
000130 45 cc 82 3e 94 21 fc be bf 81 d4 bb 79 8d 3b be
       0.2554647 -0.49244368 -0.0064851935 -0.18315686
000140 fa df a6 3c 40 87 b3 be 30 f5 22 3f 97 5a 89 be
       0.020370472 -0.35064125 0.63655376 -0.26826927
000150 38 c9 43 3e ff 11 cf 3d c3 4e 8d bd 93 4a e5 3e
       0.19119728 0.10110854 -0.06899788 0.44783458
000160 0e d9 0b bf ca 75 93 3e 9c bd 54 be af e1 51 be
       -0.54628074 0.28800803 -0.20775455 -0.20496248
000170 c3 7c 31 be 56 87 b6 bd aa f3 02 bd 23 58 0e be
       -0.17332749 -0.08912532 -0.031970657 -0.13900809
000180 17 46 c8 be a9 93 be be 6f 09 08 3e 9e 46 ca 3c
       -0.39115974 -0.3722203 0.13284849 0.024691876
000190 e5 84 85 bd 4c 7a b0 be 6f 29 ad be 24 e9 84 3e
       -0.06519488 -0.34468305 -0.33820674 0.25959122
0001a0 d4 4c ad 3e a7 32 38 3e 70 50 d5 3e c0 fb a2 3e
       0.33847678 0.17988072 0.4166293 0.31832695
0001b0 ab 20 b4 3e b5 e3 1c be 8b eb 4b be 2d 28 84 3d
       0.35181174 -0.15321238 -0.19914071 0.064529754
0001c0 30 78 20 bd 9e 30 5c 3e 67 eb 1c 3e dc e8 b5 3e
       -0.03917712 0.21502921 0.15324174 0.3552922
0001d0 a8 f3 92 3e d9 3c 22 bd ef 8e 9a be e3 15 e2 3e
       0.2870152 -0.03960881 -0.30187175 0.44157323
0001e0 e2 46 ce 3e c0 99 1d 3e 1e 40 4b 3e 3c 6e 99 3e
       0.40288454 0.15390682 0.19848678 0.29966915
0001f0 ed 41 97 be 97 28 2f bf 8e cc 69 be ce 71 ef 3a
       -0.29542485 -0.6842131 -0.22831938 0.0018268169
000200 83 fa 5f be 7d 6c 2b 3f 71 e9 60 be 1f b0 18 be
       -0.21872906 0.66962415 -0.21964051 -0.14910935
000210 fb a7 c1 3d c7 16 11 3e 4c 00 27 3d 48 f3 96 bd
       0.09455868 0.14168845 0.040771767 -0.07370621
000220 5e e0 9d be f7 b0 ba bd 62 e2 03 3e df cf f4 3b
       -0.3083524 -0.091157846 0.12879327 0.007471069
000230 2e 61 7e 3d 99 d2 86 3e 90 9f 71 be bd 64 79 be
       0.062104397 0.26332548 -0.23596025 -0.24354835
000240 d3 fc b6 be c2 67 ce be f0 e5 90 3d 92 10 77 3d
       -0.35739765 -0.40313536 0.07075107 0.060318537
000250 e1 24 c4 3e d2 18 48 3e 35 31 e5 3d ea 3a ec 3d
       0.38309386 0.19540718 0.11191026 0.115346745
000260 fe b8 63 3d 45 de 23 be 00 4e 12 be 96 11 f7 3d
       0.055596344 -0.16002758 -0.14287567 0.12063901
000270 8c 35 aa be 08 b1 6e be e8 4a 07 bf 66 0d ee bd
       -0.33243978 -0.2330972 -0.5284867 -0.11623649
000280 b4 0a e2 bd f1 37 81 3e 5c b9 c7 be b6 31 e1 be
       -0.11037198 0.25237992 -0.39008605 -0.4398324
000290 d4 5e 30 be a0 42 5d 3f 95 58 3d 3f dd a0 76 3d
       -0.17223674 0.86429787 0.7396329 0.060212005
0002a0 34 65 f1 be cf 9d 25 be 44 dc b3 be 1b 20 7f be
       -0.47147524 -0.1617348 -0.35128987 -0.24914591
0002b0 b4 80 0a 3f a4 e7 26 bf d1 9e 48 bd 51 26 94 be
       0.54102635 -0.65197206 -0.048979584 -0.28935483
0002c0 ca 05 28 3b 68 1a 31 bf 2c 53 41 3e e8 80 c3 bd
       0.0025638216 -0.6918092 0.18879384 -0.09546071
0002d0 8a 05 cc be d8 07 ca 3e e2 a0 3b bc bc d0 98 be
       -0.39847976 0.3945911 -0.011451932 -0.29846752
0002e0 db e2 e1 be 84 95 e6 3d 73 f7 27 3e db 07 ea 3e
       -0.4411839 0.112589866 0.16402988 0.45709118
0002f0 3f bb 7c 3e c3 93 f9 be e5 8b ec 3b d1 88 44 be
       0.24680804 -0.48745546 0.007218825 -0.19192816
000300 cf 7c 7c 3d d4 88 a1 3e 91 6b 0b bb 4f b9 7d be
       0.061642464 0.31549704 -0.0021273831 -0.24777721
000310 66 5f ba 3d a4 71 b8 3c 00 f5 90 3e 98 69 68 be
       0.09100227 0.022515126 0.2831192 -0.22696531
000320 c5 02 db be a7 41 de 3e fb f0 ca 3e d1 1b 54 bd
       -0.4277555 0.43409464 0.39636979 -0.05178434
000330 03 9a cf be 15 cc 74 bf 12 e5 9e be 84 41 01 be
       -0.4054719 -0.95623904 -0.31034142 -0.12622648
000340 f6 8f d9 be 4a d9 93 bc e9 1a e2 3d e3 ee 13 3e
       -0.42492646 -0.018047947 0.11040289 0.14446597
000350 ca 6d a1 3e 44 1b 21 bd c2 d4 28 bd 4e 68 91 bb
       0.31529075 -0.039332643 -0.041218527 -0.004437483
000360 73 87 ad bd 84 b8 53 be c4 b7 88 bf 70 1d 9d be
       -0.084731005 -0.20675856 -1.0681081 -0.30686522
000370 d1 ed 18 3e 8f 75 08 3f a4 59 b3 3e 4b a9 f8 be
       0.1493447 0.5330438 0.35029328 -0.4856666
000380 68 c2 81 3d a7 1b e8 be b5 02 94 be 69 99 3d 3e
       0.06335908 -0.45333597 -0.28908315 0.18515553
000390 09 91 e8 bd 0f 74 f6 bd 20 de 0e 3e dc f3 8a be
       -0.11355788 -0.12033855 0.13951921 -0.27139175
0003a0 38 18 60 3d 9b 8a 17 be 28 d7 9f be 2d 7a 70 be
       0.054710597 -0.14798968 -0.3121884 -0.23484106
0003b0 5b f4 41 bf 87 c4 01 bc 22 43 9f 3e b2 18 8f 3e
       -0.7576348 -0.007920391 0.31105906 0.2794853
0003c0 6c 7c c0 bb 40 a4 99 3e c6 02 3d be 1d d6 17 be
       -0.0058742072 0.30008125 -0.18458089 -0.14827771
0003d0 46 67 a3 be 36 eb 36 be d1 82 00 bf db e3 f7 bd
       -0.3191473 -0.17863163 -0.5019961 -0.12104007
0003e0 30 68 fd bd 1e c7 03 3d c9 a6 85 3d 5e 7c 4c bd
       -0.12373388 0.032172315 0.06525952 -0.049923293
0003f0 ef 58 c5 3e 2c a4 39 3e 7a 54 fa bd 64 ab 87 3d
       0.38544413 0.18129033 -0.12223144 0.06624487

net.2.bias f4 [32]
000000 06 42 96 3e 97 8d 33 3d 6f a4 a5 3c ee 75 cb 3b
       0.29347247 0.043836202 0.02022001 0.0062091267
000010 08 02 b9 3c d3 07 72 be 03 1b 47 3d b0 bf 12 3c
       0.022583976 -0.23635797 0.048609745 0.008956835
000020 4f 6d d5 3b cd 92 db bb 1c 03 35 3e e2 4d de 3d
       0.0065132747 -0.0067008496 0.17676967 0.10854699
000030 1e c6 92 3c ed e6 1f 3c ef cc 10 3c 56 03 3b 3d
       0.017916735 0.009759647 0.0088379225 0.04565748
000040 a3 59 45 3c 36 e7 b3 3d 1f b8 3a bd 60 9c d1 3c
       0.012045297 0.08784334 -0.045585748 0.02558726
000050 2d 9d b6 bd 1a a3 83 3d 74 64 44 3d 96 67 a8 3c
       -0.08916698 0.064275935 0.047947362 0.020557206
000060 d2 15 46 3d 7b be e6 bd c9 6b 10 bd ce 2d 7f 3c
       0.048360653 -0.112668 -0.035259042 0.0155748855
000070 05 24 82 3c 9d 79 05 3b 72 db 80 bb 29 b9 1e 3d
       0.015886316 0.0020366677 -0.00393241 0.0387508

net.4.weight f4 [32, 32]
000000 e3 88 c4 3d 8f f8 86 be 9c e6 d3 be 62 e1 4a 3f
       0.095964216 -0.2636151 -0.41386878 0.79250157
000010 4d 7e 19 bf 75 d2 e8 be 98 fd 54 3d ed e0 14 be
       -0.59958345 -0.45473066 0.05199966 -0.14538927
000020 fa a6 b5 3d 84 44 4d be a3 c4 d7 3d 02 bf 7f be
       0.08869739 -0.20045668 0.10535552 -0.24975207
000030 5a 63 b5 bc 59 49 48 3e ff 2f a4 be c6 10 8f 3e
       -0.022142101 0.1955923 -0.32067868 0.27942485
000040 57 15 75 3e d9 61 ae be 2f d0 02 be 41 5a b4 be
       0.23933922 -0.34059027 -0.12774728 -0.35225108
000050 ba 91 59 bd 24 f4 75 3e 30 90 4f be e9 41 34 be
       -0.05311749 0.24018914 -0.20269847 -0.17603268
000060 81 34 a1 3e 56 d7 1a 3e 13 82 89 bd 14 e0 0c 3f
       0.3148537 0.15121207 -0.06714263 0.55029416
000070 5e 27 4f bd 1e 9c 05 bf 89 7c 4c be 92 f4 45 3e
       -0.050574653 -0.5219134 -0.19969381 0.19331577
000080 f9 0b 02 3d 8a 2b 61 be 20 b5 e7 be 5a a5 66 3f
       0.0317497 -0.21989265 -0.45255375 0.90096056
000090 62 4c b4 3e d2 60 dc be 93 1d 5d be e2 15 08 bc
       0.35214525 -0.43042618 -0.21593313 -0.0083059985
0000a0 89 c4 69 be b2 8a b3 3e 30 33 af be 3e f3 09 3e
       -0.22828878 0.35066754 -0.3421874 0.13471696
0000b0 13 e8 17 be d7 fd ee 3c 55 24 af bd d7 00 e6 3d
       -0.14834623 0.029173775 -0.08551852 0.11230629
0000c0 26 d7 b9 be 07 da 1e bd 3d 3c c2 3e fe 0e a7 be
       -0.36296958 -0.038782146 0.37936583 -0.32628626
0000d0 1b 46 a5 bd 1e 9c d9 bc a0 13 3e be ec 62 54 3e
       -0.08070012 -0.0265637 -0.18562174 0.2074086
0000e0 e4 c4 e7 bd d0 5d e4 bd 38 d9 c6 be 1e f5 29 3f
       -0.11316851 -0.11150706 -0.388376 0.66389644
0000f0 15 ec 9a bd b3 de e6 bd d9 82 10 3e 30 e8 e2 be
       -0.0756456 -0.11272945 0.14112414 -0.4431777
000100 df a8 9c 3e 33 a3 e9 3e b2 6b 08 3e 69 cf cb bf
       0.30597588 0.45632324 0.13322333 -1.5922672
000110 d3 45 74 3e ca 6e aa bd f3 6c 48 3e 8f 98 85 3e
       0.23854761 -0.083219126 0.19572811 0.26092955
000120 8e 96 ca 3e 98 2c 31 3f a8 f1 b7 3e 7b 9b 1f 3e
       0.3956799 0.6920867 0.35926557 0.15586655
000130 62 ba 93 3a b2 b5 09 be 8e 06 da 3c 67 4b 2b 3d
       0.0011270756 -0.13448218 0.026614454 0.041819956
000140 8e 8e 5d bf 79 86 8b be 93 09 41 3e 5a a2 14 3f
       -0.86545646 -0.27251032 0.18851309 0.5806023
000150 2c 42 0e be a0 0c 17 3e bd c0 1d bd b6 e3 02 3e
       -0.1389243 0.1475091 -0.038513888 0.12782177
000160 1d 2e a2 be 59 2b 33 bf 0d 17 88 be b2 a5 69 be
       -0.31675807 -0.6998802 -0.26580086 -0.22817114
000170 0a 5b 08 be e3 df aa 3e 31 be 0a 3f 89 bb 15 3e
       -0.13315979 0.33373937 0.5419646 0.1462232
000180 a7 88 58 bd c0 2d c9 3f 6d 19 6b 3e b4 90 40 bf
       -0.052864697 1.5717087 0.22958918 -0.752208
000190 19 88 31 bf e3 3b 5e be eb d3 e6 3e 30 83 20 be
       -0.69348294 -0.21702532 0.45083556 -0.15675044
0001a0 85 c8 5a 3e b3 0c 23 3e d8 b2 30 be 15 94 11 bd
       0.21365555 0.15922813 -0.17255723 -0.035541613
0001b0 72 fa 9d 3d 26 2f d1 3c fc ad 7a bd 10 87 2d 3e
       0.07713784 0.025535177 -0.06120108 0.16946054
0001c0 47 73 8f bd 0b be b0 3e 71 26 2b bc 8b 19 07 3e
       -0.07004409 0.3451999 -0.010446177 0.13193338
0001d0 73 b8 9a 3e f3 b3 60 3e f7 e2 f3 3d b1 b3 66 3e
       0.3021885 0.21943645 0.119085245 0.22529484
0001e0 c4 34 6c 3d 6a e0 6b be 82 f9 91 bd 5b 99 ee 3e
       0.05766751 -0.23034826 -0.07127668 0.46601376
0001f0 7c 65 8e 3d a8 29 93 3d 2f 90 4d bc 22 b0 a9 bd
       0.0695295 0.0718568 -0.012546583 -0.08285548
000200 56 78 ff 3e f7 22 4f 3f 34 74 83 3d 0e fa d2 3d
       0.49896497 0.8091273 0.06418648 0.103016004
000210 f5 80 98 be d3 cc 1b be 04 35 ad be af e0 0c bf
       -0.29785886 -0.15214853 -0.3382951 -0.5503034
000220 db 16 98 be 61 cf b6 3e 7b 5c 3f 3d 07 ba d4 bd
       -0.29704937 0.35705093 0.046719056 -0.103870444
000230 18 57 82 3e 32 ec f6 3d 78 06 40 3e 1c fc 62 3d
       0.25457072 0.120567694 0.18752468 0.05541621
000240 16 b1 f6 3d 71 dc d0 3d 32 16 75 bd ef dd a7 3e
       0.12045495 0.10198296 -0.05983562 0.3278651
000250 74 a2 c5 be 30 93 3f 3e 9c ed a3 be 06 d1 a7 bc
       -0.38600504 0.18708491 -0.3201722 -0.020485412
000260 64 56 d6 3d a4 d9 37 3d 1e c7 d4 be c4 38 95 be
       0.104656965 0.044885293 -0.41558164 -0.2914487
000270 1a ee 69 3d 6e 04 3d be 32 22 a7 be 25 9c 7b 3f
       0.057111837 -0.18458721 -0.32643276 0.9828513
000280 72 3b 9e 3d f8 2d 85 be 94 73 78 3e ac 4c 82 be
       0.07726182 -0.26011634 0.2426284 -0.2544912
000290 bb fc 95 be 51 27 66 3e 05 43 c3 3c 1c 65 59 3d
       -0.2929438 0.22475936 0.023835668 0.05307494
0002a0 38 6b 5e bd a8 df 1a be 33 91 1f 3d 82 90 16 be
       -0.05430147 -0.1512438 0.038956832 -0.14703563
0002b0 28 f7 54 be af cd 0f bf ab 44 81 3e 9e 13 89 be
       -0.20797408 -0.56173223 0.25247702 -0.2677278
0002c0 8e c3 b1 3e 54 49 4d bf 9b 25 88 3e a3 3f a2 be
       0.3471951 -0.80190015 0.2659119 -0.31689176
0002d0 93 9b 3e be 58 72 fd bd d5 8a d0 3d c6 e5 fe 3c
       -0.18614034 -0.12375325 0.1018273 0.031115424
0002e0 f4 f9 4a be 16 ab 33 3e f2 b9 b7 3e 09 5a 3d bd
       -0.19821912 0.17545733 0.35884053 -0.046228442
0002f0 e3 67 be be 2c 21 32 bf a2 3c 40 3d 59 fb bf be
       -0.37188634 -0.69581866 0.046932824 -0.3749645
000300 ec 73 b9 bd a1 52 7b 3f 86 a2 21 3e 97 b1 2e bf
       -0.090553135 0.98172957 0.15784654 -0.6823973
000310 0b ae 7b be e8 cb db be f7 1b c5 be 86 68 a4 3e
       -0.24578111 -0.42929006 -0.38497898 0.32110995
000320 90 2f 13 be c6 46 f8 3d 23 8f b8 be c9 93 c3 3d
       -0.14373612 0.12122874 -0.36046705 0.09549672
000330 2f 13 57 bf 71 c8 7c 3e 64 86 cd 3e 54 58 39 3d
       -0.84013647 0.24685837 0.40141594 0.045250252
000340 5a 7b 62 be f3 ce d3 3d af 7e ef 3e 3f 2e 1a 3f
       -0.22117367 0.10342207 0.4677634 0.60226816
000350 20 25 5b bd e4 1c df be 5f 0d b7 3e b5 59 a9 bc
       -0.053502202 -0.4357673 0.3575239 -0.020672658
000360 37 fb 19 be 7a 16 8c bb d0 cd 60 be af 27 62 bf
       -0.15037237 -0.0042751404 -0.21953511 -0.883418
000370 39 47 ad bd 84 2e 2c 3f 57 73 9f 3e 10 d5 dc bc
       -0.0846085 0.6725848 0.31142685 -0.026957065
000380 c8 95 b8 bd 5e 10 96 be 18 e0 bb bc be ad c9 3e
       -0.090129435 -0.29309362 -0.022934005 0.39390367
000390 a0 c0 8f be 0c 5e e8 3e 0b 5c ea be 1a a6 75 3e
       -0.2807665 0.45384252 -0.45773348 0.23989144
0003a0 4c 24 a7 be 22 ee 6f be 1a 04 7a 3c 93 10 2c be
       -0.3264488 -0.23430684 0.015259767 -0.16803198
0003b0 7e b4 b1 3d 1b 13 42 3e 63 bb f2 bd 89 4d 94 3e
       0.08677004 0.189526 -0.118521474 0.28965405
0003c0 01 12 00 3e 69 ee 43 3f 41 92 4c 3d 63 16 d5 bc
       0.12506868 0.7653566 0.049944166 -0.026011651
0003d0 b5 1c 55 bf 47 3f 81 be 66 b1 4e be 9a c9 04 bf
       -0.8324693 -0.2524359 -0.2018486 -0.5187012
0003e0 9d 7f 8a 3e fc 0b ab be 06 eb 21 be bc 99 dd 3e
       0.27050486 -0.3340758 -0.1581231 0.43281353
0003f0 e9 59 b2 be d9 4c 84 3e ea 30 d5 bd e8 e2 ad 3e
       -0.3483422 0.2583988 -0.1040972 0.33962178

net.4.bias f4 [32]
000000 47 fe c4 bb 12 7c 81 3d df 98 aa 3d 79 e8 fd 3b
       -0.0060117575 0.06322493 0.08329939 0.00774866
000010 cd 0a 01 bd 18 5d f1 bd 80 9a 4d 3c 31 5c 50 3c
       -0.03150444 -0.11785334 0.012549043 0.012717293
000020 83 d4 2f 3d 19 79 9a 3c 20 f6 f4 bc 20 d7 6d 3d
       0.042927276 0.018856572 -0.029902518 0.058066487
000030 8a c0 25 be 2b 95 1e 3c d3 8c 23 bd e3 6d 3f be
       -0.16186729 0.009679119 -0.039929222 -0.18694262
000040 cd 17 18 bd 93 fe 53 b9 47 c4 26 3d 99 e4 79 3d
       -0.037132073 -0.00020217364 0.04071453 0.061009023
000050 c3 bf d5 bb 0c 7e 45 3d 9f 01 b2 bc 62 b8 9e bd
       -0.006523104 0.04821591 -0.021729289 -0.07750012
000060 3c cb 17 3d e8 10 ec bc d6 86 2d ba f3 d0 59 bb
       0.037059054 -0.028816655 -0.00066195184 -0.0033236116
000070 81 7f 23 3d 0d 78 99 3d 86 8e 95 3d a7 46 d7 3a
       0.03991652 0.07493601 0.07302575 0.0016424254

net.6.weight f4 [32, 32]
000000 80 50 54 3e 73 e3 b2 3c ba 7d 93 bd 39 bf db bd
       0.20733833 0.021836972 -0.07201715 -0.10729832
000010 12 eb ab be 0f f1 c5 3e e3 66 8a bd 23 1a e8 3e
       -0.33577782 0.38660476 -0.06757905 0.4533244
000020 a6 50 26 bf 39 f7 28 be 18 c7 8a bf 59 df c3 be
       -0.6496681 -0.16500558 -1.0842009 -0.38256338
000030 44 1f 34 bf ea 1c cc bd 23 aa 65 3e b7 45 37 be
       -0.7036021 -0.099664524 0.22428183 -0.17897688
000040 f9 9a d5 bf b8 b7 38 3f 05 e9 00 bf 3f c7 40 bf
       -1.6687919 0.7215533 -0.5035556 -0.75304025
000050 69 20 4f 3f 97 29 1b be d8 fc 57 bd 9f 2f 5c 3e
       0.8090883 -0.15152584 -0.052731365 0.21502541
000060 74 bd 47 be 88 03 6c 3f 5d 0c 5f 3d 9c be f2 3c
       -0.19505864 0.9219289 0.05445515 0.029631905
000070 25 85 bb 3e ae 06 99 3e 5f a8 28 3f a6 75 6b 3c
       0.3662502 0.2988791 0.65881914 0.014371311
000080 50 05 a7 3e 08 ac 86 3e be c2 c8 be 01 2b 8f 3e
       0.3262124 0.26303124 -0.39211076 0.27962497
000090 3c d4 a7 be 91 b6 b1 be 1e a3 39 be 99 13 f3 3d
       -0.3277911 -0.347096 -0.1812863 0.11868972
0000a0 4e 7c dc be d8 1c 93 bc f9 0d d2 bf b7 7d 85 3e
       -0.43063587 -0.01795809 -1.6410514 0.26072475
0000b0 14 78 93 be 9a 3d 58 bf 5f d4 4a bc 67 37 fc 3c
       -0.2880255 -0.84468997 -0.012379735 0.030788137
0000c0 fa 51 ab be 55 b5 1c 3f 96 43 ea bc 75 02 e2 be
       -0.3346098 0.6121419 -0.02859668 -0.441425
0000d0 8e 0c bb 3f 5c 28 d4 3d 7b 7c 3f bf 1c a8 95 bd
       1.4613206 0.103592604 -0.7479932 -0.07307455
0000e0 4f c2 95 3e a9 b0 d4 3e c8 59 09 3f 24 4b ab 3f
       0.29249808 0.4154103 0.5365262 1.3382306
0000f0 73 cc a9 be 00 de 67 3f 7e de 73 3e 02 42 0b 3f
       -0.33163795 0.9057312 0.23815343 0.54397595
000100 36 cb 9f 3e fa c1 f5 3e c2 2c fc be 39 0f 17 3f
       0.31209725 0.47999555 -0.49252898 0.590076
000110 8d ad a2 be 9e d2 f0 be 58 9d 03 bf b3 43 0b bf
       -0.31773034 -0.47035688 -0.5141196 -0.54400176
000120 8b a1 31 3e 6d 5a 48 3d 1e 1d 1c be e7 7e 0f 3f
       0.1734678 0.04891436 -0.15245482 0.5605301
000130 c9 cc 00 bf b3 d4 04 3f 7a 12 1a bf d0 ba b5 3d
       -0.5031248 0.51887053 -0.60184443 0.08873522
000140 65 d6 c8 be 31 74 9a bd f8 10 ff 3e 44 d5 a1 bd
       -0.3922607 -0.07541693 0.49817634 -0.07902005
000150 48 db e6 bd 65 e5 92 be 33 ce 33 3e 97 42 b1 3e
       -0.11272293 -0.2869064 0.17559128 0.34621117
000160 a5 00 20 bf 43 db 9f be 63 40 fa 3d b4 98 ce bc
       -0.62500983 -0.3122197 0.12219312 -0.025219299
000170 a9 06 f1 3d 86 1a 70 bf bc a9 31 bf f2 60 ee 3e
       0.117688484 -0.9379047 -0.6939962 0.46558338
000180 0b 31 2c be 0c bc 3d 3d a6 eb 69 bd c3 0a a9 be
       -0.16815583 0.046321914 -0.057109497 -0.33016023
000190 6e 6a f6 bd cf d5 30 3e 41 a6 ae 3e ad 25 5c 3e
       -0.120320186 0.17269062 0.34111217 0.21498747
0001a0 cf fa e0 3d 19 f6 94 be ed c5 98 3e 9a 7c e7 3d
       0.10985338 -0.29094008 0.29838505 0.11303063
0001b0 3f ed 0a 3e ee 03 3f 3e a6 d7 58 bf fd e2 54 be
       0.13567065 0.18653843 -0.84704053 -0.20789714
0001c0 8b 99 48 bf 12 98 26 3f 74 4d cf bc 1f 9a 96 be
       -0.7835929 0.6507579 -0.025305487 -0.2941446
0001d0 34 ef 8a 3c 84 5d 15 3e f5 40 04 3f d6 4d 8b be
       0.016959764 0.14586455 0.51661617 -0.27207822
0001e0 69 a8 24 3c 1c 54 bc be 60 75 6a be a9 73 24 3d
       0.010049918 -0.3678292 -0.22896338 0.040149365
0001f0 15 e1 94 be 8f 29 1f 3c 39 a8 b0 3e 2e 49 21 3d
       -0.29077974 0.009714498 0.34503344 0.03937643
000200 af 65 10 be c9 0f d4 3e d2 54 2b be a3 99 d3 bd
       -0.14101289 0.41418293 -0.16731575 -0.10332038
000210 46 6b 28 3c 12 60 d4 bd a4 32 5a be 84 ff ae be
       0.010279482 -0.103698865 -0.2130838 -0.34179318
000220 24 3f bd 3e 86 54 ad be 5f eb 7a be 78 d5 eb 3d
       0.36962235 -0.3385355 -0.2450385 0.11515325
000230 39 29 a7 be 39 cf fd 3e 2c 2d 05 3d 07 71 e7 bd
       -0.32648638 0.4957216 0.032513782 -0.11300855
000240 25 f3 c7 3c 81 99 44 be 37 27 90 be 68 a5 1c 3f
       0.024407933 -0.19199182 -0.2815492 0.6118989
000250 48 22 63 3f 5d 8a fd bd b2 51 09 be c0 46 c2 bc
       0.88724184 -0.12379906 -0.1341007 -0.023715377
000260 5d 0b 8d 3e f4 84 12 3f 45 94 b8 bc 2b bd 1d 3e
       0.27547732 0.5723412 -0.022531638 0.15404193
000270 23 a3 07 bd 68 07 00 bf ca 6f a4 3d 9a c8 31 be
       -0.033114564 -0.500113 0.080291346 -0.1736168
000280 7b af 1a bf dc 0e 9c bd 57 eb d0 be ca 80 ac 3d
       -0.6042401 -0.07620022 -0.4080455 0.08423002
000290 44 3d 58 bd 9e 04 62 be 95 10 8f 3f 4c a0 ca be
       -0.052792802 -0.22072074 1.1176935 -0.39575422
0002a0 d6 a6 cb 3e b8 96 9f 3e d7 e3 d0 3e 92 01 c9 3e
       0.39775723 0.31169677 0.40798828 0.3925901
0002b0 34 b2 ed 3f 1f cb 3e 3e 90 ef 38 3f c2 4c 85 bc
       1.8570008 0.18632172 0.72240543 -0.016271953
0002c0 1b 08 5b 3f f9 9f 2e bf e3 5a cd 3c c5 5b 74 3e
       0.8555924 -0.6821285 0.025067752 0.23863132
0002d0 8a 88 08 bf f6 1a 0c be d7 e5 87 3e e7 24 06 3f
       -0.5333334 -0.1368216 0.2654254 0.5240006
0002e0 65 65 75 be 57 77 9e bd a6 f2 2d bf 85 f8 b2 bd
       -0.2396446 -0.07737606 -0.6794838 -0.087388076
0002f0 d7 c0 c6 be d3 5d e3 be a9 8f 09 bf 17 a9 9f 3e
       -0.38819 -0.4440752 -0.53734833 0.31183693
000300 33 96 cc be ed cc a4 3d 25 a5 fa 3e d3 6e 60 3e
       -0.39958343 0.08046899 0.4895412 0.21917276
000310 97 13 29 3e 9c d1 05 be f6 9e 8d bd d9 57 ff 3c
       0.16511379 -0.13068241 -0.06915085 0.031169819
000320 33 ca 8d bd 59 7f 42 be c9 79 44 3d 78 15 5f be
       -0.06923332 -0.18993892 0.047967706 -0.21785533
000330 87 c3 7a be 61 50 70 be b7 16 27 bd ae 2e 96 be
       -0.2448865 -0.23468162 -0.040793147 -0.2933249
000340 a0 5e 26 be 9c 75 8e 3e 57 fc 83 3e 79 3a 03 3e
       -0.16247034 0.27824104 0.25778458 0.12815274
000350 f0 7f 7d 3f 9e c6 25 be 5b 7c cf be 30 41 ea 3d
       0.9902334 -0.16189048 -0.40524563 0.11438215
000360 dd 7a a1 be 9b 8a 02 3e 4e 5c 31 3f 86 31 67 3f
       -0.3153905 0.12748186 0.6928147 0.9030994
000370 4d 2b 89 3e 3a 46 1d bc 76 c3 cd 3e 5b b1 9c be
       0.26790848 -0.009599263 0.40188187 -0.3060406
000380 59 21 2a bf 79 bb 0b be 71 d5 15 3f 5b c8 c8 3d
       -0.66457134 -0.13645734 0.5852881 0.0980384
000390 03 a8 d6 be 4a b5 19 be 34 58 a8 3f 54 c9 4c 3e
       -0.41925058 -0.15010563 1.3151917 0.19998676
0003a0 22 cb 90 3f d4 3e 01 3e 4e 76 3c 3f 8d d7 bf be
       1.1311991 0.12621623 0.7361802 -0.3746914
0003b0 95 83 1b 3f 42 1c 05 be 6a 74 1d 3d b8 09 80 be
       0.60747653 -0.12999061 0.0384411 -0.25007415
0003c0 f5 0f 9c 3e 54 54 c2 be eb b0 83 3d f5 3a aa be
       0.30480924 -0.37954962 0.06430229 -0.33248106
0003d0 62 ca 7a be ff 43 10 3f 31 b7 34 bd 94 8d fe be
       -0.24491265 0.56353754 -0.044120017 -0.4971739
0003e0 bf 67 d4 3f c0 40 3e 3e 02 a6 39 3e 78 ba dc be
       1.6594161 0.18579388 0.18129733 -0.43111014
0003f0 d3 1a 00 be 5c fa 1b 3e ea 89 1a 3d 8f 91 4e bd
       -0.12510233 0.15232223 0.03772918 -0.050431784

net.6.bias f4 [32]
000000 9b 1b 4e bd db 4e fb bc 20 28 a8 3d 32 34 9b bb
       -0.050319295 -0.03067725 0.08210778 -0.004736447
000010 ec f9 cc 3c 34 62 53 3c a3 85 5f 3d 09 73 d1 3d
       0.025021516 0.012901831 0.054570805 0.10227019
000020 88 a0 03 bd 36 a7 16 bc 87 af f3 3d 4d bf 24 3d
       -0.032135516 -0.00919514 0.118987136 0.0402215
000030 28 dd 19 3d 0c e5 e1 bb db 16 d3 3c 08 57 76 3d
       0.037564427 -0.0068937596 0.025767734 0.060141593
000040 1c 92 d2 bc 4b 41 ec 3c f4 e5 df 3d 84 4c f2 3d
       -0.025704436 0.028839728 0.10932532 0.118310004
000050 c5 a7 b2 3d 76 8a fc 3d 32 13 f2 bc 24 e7 43 bd
       0.08723406 0.12331097 -0.029550169 -0.047827855
000060 92 69 39 3e 0a 9a a2 3b b6 8e 9a bd ad 4c 02 3c
       0.18106678 0.0049622105 -0.07546751 0.007952851
000070 88 ad 9c 3c c0 e0 a2 bd c9 4c d5 3d 08 36 59 3d
       0.019125715 -0.07953024 0.10415036 0.053030044

net.8.weight f4 [32, 32]
000000 d4 2a 54 3e eb 02 0e bf 68 9c 03 3e bd f5 9d 3c
       0.20719463 -0.554732 0.12852633 0.019282216
000010 27 b5 de 3e 9b 7c 2b 3f 37 fc ab be 81 e3 df be
       0.43497583 0.6698701 -0.33590862 -0.4372826
000020 25 e4 7a be 5a 5a 3a 3e 8f d8 0e bf b0 aa dc be
       -0.24501093 0.18198529 -0.5579919 -0.43098974
000030 33 60 d1 be 3f eb 17 3e 25 6e b3 3d 93 0d 49 be
       -0.40893707 0.14835833 0.08761243 -0.19634084
000040 27 5c e1 be 62 e5 c2 3d bd 7d 96 be 06 82 1f 3f
       -0.4401562 0.095164075 -0.29392806 0.62307775
000050 0d ac 13 bf a4 17 bf bc ab e0 5b be a2 19 f6 be
       -0.57684404 -0.023326702 -0.21472423 -0.4806643
000060 b6 56 d8 bc 0e d5 8a 3e f7 e2 8b be b9 f4 83 bb
       -0.026408534 0.27115673 -0.27321598 -0.004026976
000070 63 58 c5 bd 5a 26 a9 3e ba 12 04 bf 2a f9 ca be
       -0.09635999 0.33037072 -0.51591074 -0.39643222
000080 39 e9 d5 3e 54 7f 23 3f a4 5d 98 be d8 00 7d be
       0.41779497 0.6386616 -0.29758942 -0.24707353
000090 04 8c 88 be 4d 14 0b bf ec 6e cb be 94 ec d8 bd
       -0.26669323 -0.5432785 -0.39733064 -0.10591999
0000a0 62 e3 1e 3f 5e 17 14 bf 51 5e f0 bd cf 61 4c bf
       0.6206571 -0.57848155 -0.117367394 -0.79836744
0000b0 26 97 11 3f 57 4f c7 be bb 0f 53 be 13 05 3d bf
       0.5687126 -0.3892772 -0.2061147 -0.7383587
0000c0 56 66 d9 be 69 30 ec bd 42 39 67 bf 9b c7 39 3e
       -0.4246089 -0.11532671 -0.90321743 0.1814255
0000d0 2a af f3 3d 12 4d 8b bd 0b bc fc be 3c 2c 54 bf
       0.11898644 -0.06801809 -0.49362215 -0.82879996
0000e0 0f 7c 52 be 71 7d ce be bc 64 08 3f 73 1c 6b bd
       -0.20555137 -0.4033008 0.5327871 -0.05740018
0000f0 c2 44 86 3e fe 16 31 3e dd 34 c4 bd 63 0a 1f be
       0.26224333 0.17293927 -0.09580395 -0.15531306
000100 e9 05 15 3e f9 cb 86 be 59 66 44 3e 07 61 21 be
       0.14553036 -0.26327494 0.19179668 -0.15759669
000110 ad 6c 1d 3e c1 1c c9 3d 08 f5 91 be 5e 17 fa 3e
       0.15373488 0.098199375 -0.28507257 0.48845953
000120 61 9b 3d be 1b 1a b8 be 2f 28 d3 3e 8e 56 99 3f
       -0.18516304 -0.35957417 0.41241595 1.1979539
000130 75 1d ce 3d 2e 12 30 be a9 34 af be 8f 8c e6 be
       0.10064212 -0.17194435 -0.34219864 -0.45029113
000140 5b e1 9e be 7b c7 e1 bb 3a 85 f6 3e 67 01 09 3f
       -0.31031308 -0.006890235 0.4814852 0.53517765
000150 a5 58 0b 3e f5 32 9b be 33 67 ce be 48 7d 01 be
       0.13608034 -0.30312315 -0.4031311 -0.12645447
000160 97 a8 34 bf fa 0a 94 3c 4c ec af be 47 48 90 bc
       -0.7056975 0.01807164 -0.34359968 -0.01761259
000170 97 88 97 bd 20 18 bd 3e 34 08 dc be 52 cf 2c 3f
       -0.07399099 0.36932468 -0.42975008 0.67503846
000180 d3 65 98 3e 91 3b b8 be 2b 54 ab be 53 4c d5 bd
       0.29765186 -0.35982946 -0.33462653 -0.10414948
000190 1a 23 23 be bd 5d 4a bf ef 83 13 3c c0 a8 d1 bd
       -0.15931359 -0.79049283 0.009003623 -0.10237265
0001a0 32 65 cf be 06 78 31 3e cc 9d 9a be 0e 10 36 bd
       -0.40506893 0.17330942 -0.30198514 -0.044448905
0001b0 58 b8 ae bc 46 aa a1 be 9a 1f a7 3e c8 20 2a be
       -0.021328136 -0.3157522 0.32641298 -0.16614068
0001c0 c4 d5 c4 3d f3 86 02 3e cb e8 00 bf 62 cc 9b 3e
       0.09611085 0.12746792 -0.50355214 0.3042937
0001d0 e5 b3 dd 3c a1 e2 61 3e ce 18 e4 3d 05 16 9e bd
       0.02706332 0.22059108 0.111375436 -0.07719044
0001e0 a8 bc 1b 3e b5 61 b4 3e 69 78 99 3d 7b db 95 bd
       0.15208685 0.35230795 0.074936695 -0.07317253
0001f0 f0 c2 36 3e 41 e2 d1 bd 1d ea 12 bd 03 4a 17 3e
       0.178478 -0.10248233 -0.0358678 0.14774327
000200 4d db f0 3e 62 07 a4 be e3 18 13 bf 04 c0 32 3f
       0.47042313 -0.32036883 -0.5745985 0.6982424
000210 07 ae 0c 3d d4 63 fe 3e af 07 9a 3d 2c 7b 27 3f
       0.034345653 0.49685538 0.07520997 0.6542232
000220 4a 3c 8a 3e 6d 0b 28 3e c6 43 d5 3d a6 7e 86 be
       0.26999122 0.16410609 0.104133174 -0.262685
000230 d1 26 c8 bc 53 28 06 bc ca 27 34 3f d3 b3 ec 3d
       -0.024432572 -0.008188325 0.70373213 0.11557736
000240 f0 d8 be bd dd 95 cb bc d0 fc 0a bf d7 25 42 3d
       -0.09318721 -0.024851734 -0.5429201 0.047399368
000250 fd 70 e0 be 95 d3 93 3e 09 a7 f0 be 56 18 8a be
       -0.43836203 0.28872362 -0.47002438 -0.26971692
000260 3f dc a6 be 67 64 f3 3b 06 a3 4d be 5f 31 af 3e
       -0.3258991 0.0074277404 -0.2008172 0.34217355
000270 44 ca 11 bd 66 a6 10 3e a2 a7 f1 be 82 43 d2 3c
       -0.035593286 0.14125976 -0.47198206 0.025666956
000280 fa 63 7f 3e 05 70 bc 3d 23 80 0c bf 7f 77 17 3f
       0.24940482 0.092010535 -0.5488302 0.5916671
000290 f5 a2 6a 3e 1c a9 d5 bd 90 e9 86 be 92 bd 0d be
       0.22913726 -0.10432646 -0.2635007 -0.13841847
0002a0 69 10 c0 3e 4c 1f 45 be cf cc 1e 3d fd 6a a7 be
       0.3751252 -0.1925022 0.03876954 -0.32698813
0002b0 62 c4 80 be 95 46 54 3e e8 e3 ac be 31 55 2c 3d
       -0.25149828 0.2073005 -0.3376763 0.042073432
0002c0 08 29 8a be 65 8d c3 be 57 53 14 3e 0b e1 40 be
       -0.2698443 -0.38193813 0.14484917 -0.18835847
0002d0 60 fa 01 3d a9 e2 27 be 7b 51 f0 be 8a 3f 28 be
       0.031732917 -0.16395058 -0.46937165 -0.16430488
0002e0 34 5f f3 3d ab 07 d8 be ed 33 f3 be 65 67 17 3f
       0.11883393 -0.4219335 -0.47500554 0.5914214
0002f0 bc e4 13 3e 74 e0 85 bd 15 c1 da bd 0f 63 4f 3e
       0.14442724 -0.06536952 -0.10681359 0.20252632
000300 64 1c 89 3e a6 fb 2e 3e e3 a0 0c bd 03 c5 45 bf
       0.26779473 0.17088184 -0.03433312 -0.7725374
000310 2a d7 2f 3d 97 74 19 3e e2 d3 a9 be 31 cb 2c be
       0.042929806 0.14985882 -0.33169466 -0.16874386
000320 fb 69 4b be 38 77 e2 3e c2 57 6a 3d ef 91 74 3e
       -0.19864647 0.44231582 0.0572126 0.23883794
000330 92 1d e7 3e e5 8f d1 3e da 73 e8 3d b4 d4 a2 3e
       0.45139748 0.40930095 0.11350222 0.31802905
000340 f7 7c 08 bc 91 87 cc 3e c8 42 2f 3d c3 63 c6 3d
       -0.008330575 0.3994718 0.042788297 0.09686997
000350 0e 47 01 be c1 95 91 3d de 17 03 3f cb 8d 01 3f
       -0.12624761 0.071086414 0.51208293 0.50606984
000360 27 8f 77 be e9 95 fd bd be 0f 1e 3f 2c dd 93 be
       -0.24175702 -0.12382109 0.6174277 -0.28879678
000370 77 98 1a 3f e0 72 a1 3e d7 73 26 bd ea 54 97 3d
       0.6038889 0.31532955 -0.040637817 0.07389243
000380 7b ad 30 bf 4d 1e d5 bd 56 4e c2 be 40 dc 6c be
       -0.6901471 -0.1040617 -0.3795039 -0.23130894
000390 ec 55 14 be c6 04 19 3f 71 75 60 3e 50 10 b1 3f
       -0.14485902 0.5977291 0.219198 1.3833103
0003a0 3c 40 a8 bd 97 d6 a4 be e2 a6 3a 3f 63 a0 af 3e
       -0.08215377 -0.3219497 0.7291089 0.34302053
0003b0 3d f7 64 bf a4 57 6a 3e ee 52 01 bf 39 7a 09 3e
       -0.89439756 0.22884995 -0.50517166 0.1342553
0003c0 2b f4 f3 be 41 8f 11 be 1e a9 de 3d 75 ed 28 3e
       -0.47647223 -0.14214803 0.108721 0.16496833
0003d0 78 e9 8f be 96 97 0d bf 1e 0b f8 be 4e 63 a2 bd
       -0.2810781 -0.55309427 -0.48445982 -0.07929097
0003e0 df 4e 06 bf dd f5 e9 bc 03 4b d1 3d 7e 6c 89 be
       -0.524641 -0.02855962 0.102193855 -0.26840585
0003f0 42 ac f9 be 9f 04 85 3f 22 d8 2e bf b9 a4 b5 3f
       -0.48764235 1.0392035 -0.6829854 1.4190894

net.8.bias f4 [32]
000000 58 d9 20 bd 43 67 de bd 4a a9 a7 bc 1f 8e a4 bd
       -0.039269775 -0.10859539 -0.020466466 -0.0803492
000010 36 13 0c 3b 8e 07 b6 3d 7b 1a 38 bd 16 56 85 3d
       0.0021373755 0.0888816 -0.04494713 0.0651056
000020 f0 2f 70 be a1 dd bc 3c 9c 22 83 3d fb f1 34 3d
       -0.23455787 0.0230549 0.064030856 0.044176083
000030 9e 3a 52 be 20 92 cb bd 35 cb bc 3b 3a 90 38 3e
       -0.20530173 -0.099399805 0.005761529 0.18023768
000040 7c 18 26 3e 4d 37 51 be 4b b4 d1 bd a1 26 91 3c
       0.16220278 -0.20431252 -0.10239466 0.017718615
000050 61 1f 32 3d 66 17 06 3e e8 0f 6f bc 18 c0 8c bd
       0.043486957 0.13094863 -0.014591195 -0.068725765
000060 73 5e 95 bb 73 ea bc bd 0e 81 e1 3d bd ef 49 bd
       -0.0045583784 -0.09224405 0.11010943 -0.049300898
000070 8c b2 4a 3e 2f 5b 06 bd 64 e0 f9 3c 02 e9 df 3c
       0.19794673 -0.032801803 0.030502506 0.027332786

net.10.weight f4 [8, 32]
000000 82 40 e6 3c 99 03 08 3d ce 63 88 bd 79 cd 54 3e
       0.028106932 0.033206556 -0.06659661 0.20781507
000010 03 95 1a 3f d7 c5 c1 be ed 4a 1d 3f d9 d0 11 bf
       0.60383624 -0.37846252 0.6144245 -0.569593
000020 fd f7 4b 3d 2c b9 b8 3e b2 ff 69 3c 59 b6 00 bb
       0.049797047 0.36078775 0.014282154 -0.0019639938
000030 8c 82 95 be df 2c 1a be 31 8f aa bb b6 0c 2d be
       -0.29201162 -0.1505618 -0.005205058 -0.1689938
000040 7e 0d 09 3d bb ed 28 3e 23 67 fd bd c1 e7 a0 bd
       0.033460133 0.16496937 -0.123731874 -0.078567035
000050 4a 14 0d bf bd e5 18 39 02 c2 de be 21 b2 1e be
       -0.55109084 0.00014581434 -0.4350739 -0.15497638
000060 80 23 47 3c be ca ba bd 28 23 d5 bd a7 99 a2 3d
       0.01215446 -0.09120701 -0.10407096 0.07939463
000070 9f 89 bb 3d 09 e6 95 3c ac 54 7f 3b 4a 6d 8b be
       0.091571085 0.018298166 0.003896038 -0.27231818
000080 92 fe 07 bf 2f 43 91 be 6d fb 63 3e 1a 96 68 be
       -0.5312282 -0.2837157 0.2226388 -0.22713509
000090 98 05 7b bf bd bd 88 be ac 1b 09 be 93 1f 0b bf
       -0.9805541 -0.2670726 -0.13389462 -0.54345053
0000a0 80 d9 e1 bd 58 cd fa 3e 3b 01 51 bf 6d c4 25 3f
       -0.11027813 0.4898479 -0.816425 0.64752847
0000b0 5a 79 c6 be 22 78 a5 3f 98 4c d7 3d 9f f8 56 be
       -0.3876446 1.2927287 0.10512656 -0.20993279
0000c0 39 90 d1 3e d6 25 29 bf 3d f4 0e 3f 42 8a 83 bd
       0.40930346 -0.6607336 0.5584143 -0.06422855
0000d0 7b 18 c1 be 95 dd a5 bf 60 15 15 be 73 83 98 3e
       -0.3771399 -1.2958246 -0.14558935 0.29787788
0000e0 d8 32 97 3d 87 b7 9c 3f 76 82 fe 3e a0 b1 5d 3e
       0.073827446 1.2243508 0.4970891 0.2164979
0000f0 47 a1 25 3f 12 e5 24 be 63 cf 91 3e 65 20 d9 3e
       0.64699215 -0.16103008 0.28478536 0.42407528
000100 d6 c0 6a bf 56 34 a0 be 83 76 c5 3e f3 5c c6 be
       -0.91700494 -0.3128993 0.3856698 -0.3874279
000110 0a e3 73 bf 59 20 39 3d c7 be f2 3e 6d f6 c3 be
       -0.9526831 0.045196865 0.47411177 -0.38273945
000120 6a bf 9f bd ea 61 3a 3e 53 e4 46 bf 30 cf bf 3e
       -0.07800181 0.18201414 -0.77692145 0.3746276
000130 f8 2f 2a be 1e 21 36 3f 23 12 2d 3e 68 7e 10 3e
       -0.16619861 0.7114428 0.1690145 0.1411072
000140 06 d7 d3 be 2d c3 5c bf b2 56 d3 3e a0 b4 6f bc
       -0.41374987 -0.86235315 0.4127708 -0.014630467
000150 34 c6 60 be f5 9c 80 bf 11 b0 c4 be e1 dc 2a 3f
       -0.21950608 -1.00479 -0.38415578 0.66743284
000160 c8 68 d8 be dd f6 64 3f 1c 8b 13 3f eb 12 20 bf
       -0.42267442 0.89439183 0.5763414 -0.62528867
000170 c2 50 0f 3f e7 32 45 3d 70 04 5a 3e 18 14 9c be
       0.559826 0.048144247 0.21290755 -0.3048408
000180 4e 37 8a 3d e6 8a 38 bf ec 87 0a be 7c 3e 88 3f
       0.0674883 -0.7208694 -0.13528413 1.0644069
000190 31 15 73 3f 13 61 3f bf 0e 3c 85 3e d8 69 81 3c
       0.9495421 -0.747575 0.2602238 0.01579754
0001a0 3a a6 c9 3e b0 f7 0f bf 50 fd 02 be b3 72 63 3f
       0.39384633 -0.56237316 -0.12791944 0.8884689
0001b0 af 5a fc 3e e3 aa 54 3f 70 af 8a bd b1 ee e2 3e
       0.49287936 0.8307325 -0.06771743 0.44322732
0001c0 7b ca 9a bf ef cf 88 bd a4 24 32 3f f3 85 24 3e
       -1.2093042 -0.06680285 0.6958716 0.16066723
0001d0 7d 22 6a 3d 7e 82 96 3d 72 bd 7a bf f0 d4 12 3d
       0.057161797 0.07349108 -0.9794532 0.035847604
0001e0 ac 12 1b be 03 b4 4e bf 81 94 90 3f 1c fe 12 3f
       -0.15143842 -0.80743426 1.129532 0.5741899
0001f0 48 29 fd 3e 00 ad 89 bd 7a 3b 52 3e 5a f5 73 bf
       0.49445558 -0.0672245 0.20530501 -0.9529625
000200 ac 0e b3 be 5c 31 fd be 17 44 8d 3f 2e 2f 8b 3e
       -0.3497213 -0.4945172 1.1036404 0.27184433
000210 50 f5 3f bf 70 57 0e bf 37 30 0a 3f 87 9b 95 bd
       -0.7498369 -0.5560217 0.5397982 -0.07305055
000220 5d b8 0e bf 55 bf 19 3f 2d 13 2c bf 32 7f 55 3e
       -0.55750066 0.60057575 -0.6721676 0.20849302
000230 c0 62 20 be 6b 24 0e be fc a3 d3 be 82 13 8c bd
       -0.1566267 -0.1388108 -0.41336048 -0.06839658
000240 fe dd b2 3d 1b cb cd be ac 09 fb 3e 0f 47 85 3f
       0.08733748 -0.4019402 0.49030817 1.041231
000250 e2 af 8d be 9d 11 94 be 96 6f 24 3f 51 54 8c 3d
       -0.2767325 -0.28919688 0.64232767 0.068520196
000260 8b 0f fa be f9 a5 72 3f 68 bf 75 3f 43 29 ff 3e
       -0.48839983 0.94784504 0.9599519 0.49836168
000270 bf bc f0 3e 9e 59 94 3f 6d 9e 29 bf 70 83 07 be
       0.47019002 1.1589849 -0.66257364 -0.13233733
000280 bb 70 6c 3f d6 5b be be 25 f1 90 3e 02 21 2e be
       0.92359513 -0.3717944 0.2830898 -0.17004779
000290 07 48 3e be 0a c5 ed be b8 28 1b 3f de 70 ed 3e
       -0.18582164 -0.4643939 0.60609007 0.46375173
0002a0 b1 11 e8 3e 47 1a 76 3d bf 4a 73 be 4a 13 0a 3f
       0.45325997 0.060083654 -0.23758982 0.5393568
0002b0 9d 7f dd 3e 69 b6 74 be b3 2e d3 be 47 89 31 3f
       0.43261424 -0.23897709 -0.41246566 0.69350094
0002c0 fb 42 fa be b7 ec 67 3e b9 f4 89 3f a1 de 08 3f
       -0.48879227 0.22648893 1.0777808 0.53464705
0002d0 9b 7d 90 bf c0 9b 03 3e f3 d5 95 3f c3 5f 56 be
       -1.1288332 0.12852383 1.1705917 -0.20934968
0002e0 62 bb c2 be 12 68 13 3e 23 7e a0 3e 2c 27 58 bc
       -0.38033587 0.14395168 0.31346235 -0.013192933
0002f0 36 10 24 3e c7 76 82 3e 93 7a 00 bf 64 8b 03 bf
       0.16021809 0.25481245 -0.50187033 -0.5138457
000300 2b 6b 03 bf 28 5f 39 be 79 ad c8 3d bd c6 3b be
       -0.513354 -0.18102705 0.09798712 -0.18337531
000310 28 9f 22 3e 2e ba 6a bf a4 fb 61 3e 6a 3b df be
       0.15881026 -0.9169034 0.2206865 -0.43600017
000320 78 89 77 3e ef 86 ca be 6d ae 6f 3d 48 55 2d bf
       0.24173534 -0.3955607 0.058515955 -0.67708254
000330 16 22 3c bc ec f3 67 3f 9c 9d 9e bc 92 60 68 be
       -0.011482736 0.9060657 -0.019362263 -0.22693089
000340 61 2f e0 be 07 8c ae be 1b 85 3c 3e 0f b2 0c be
       -0.43786147 -0.34091207 0.1841015 -0.13739799
000350 a4 98 a9 be 76 2b 31 3e 50 9b 71 3e 12 50 3e 3d
       -0.33124268 0.17301735 0.23594403 0.04646308
000360 9f 50 a3 3e 40 65 e0 3d 0e 0a 46 3f f8 80 88 3e
       0.31897447 0.10956812 0.7735909 0.26660895
000370 34 b0 28 3f 35 9a c5 bc 3e 1c 6d 3e f5 9d e1 bd
       0.65893865 -0.024121383 0.23155305 -0.11016456
000380 47 59 1d 3f 7d e0 1f bf 99 40 bd 3d fb f8 12 3f
       0.6146435 -0.62451917 0.09240837 0.57411164
000390 88 52 bf be 80 85 05 3f 87 90 31 bf f0 e5 97 3d
       -0.37367654 0.5215683 -0.69361156 0.07416904
0003a0 5e b5 43 3e 2b 64 2a bf d4 d8 c9 3e 32 d0 a5 3c
       0.19112155 -0.66559094 0.3942324 0.020240877
0003b0 60 d2 61 bc 43 cb 5b 3f f3 0b 77 3e 69 38 1e 3f
       -0.013783067 0.8585703 0.24125652 0.61804825
0003c0 e3 25 32 bf a0 b8 12 bd 14 8e bb 3e 71 1a 79 be
       -0.6958906 -0.035820603 0.36631835 -0.24326493
0003d0 ca 43 05 3e 38 b1 99 be 5f 71 91 be c1 be cc be
       0.1301414 -0.3001802 -0.28406808 -0.39989284
0003e0 bc 1c d9 3e 24 b8 6b be 45 34 ef be a2 61 c8 3e
       0.42404735 -0.23019463 -0.46719566 0.39136988
0003f0 30 8c 53 be 55 85 55 be ba 0b b8 3d b9 b2 c0 3e
       -0.20658946 -0.20851643 0.08986612 0.37636355

net.10.bias f4 [8]
000000 51 0d 4a 3e 91 a0 67 3f 9e f8 33 3c 01 55 af bf
       0.19731642 0.9047938 0.010984568 -1.3697816
000010 5d 6b 20 3e 83 8f 65 be a1 66 98 bf 5b 9f 1d 3f
       0.15665956 -0.22418027 -1.190632 0.6157128
