models/epinet_model3.pth (torch, 51897 bytes, 24 tensors)

net.0.weight f4 [32, 1]
000000 ea 9a 86 3e 4c 40 06 be be ce 9d be a0 41 80 3b
       0.26290065 -0.13110465 -0.30821794 0.003914073
000010 48 33 68 3f b2 50 10 3f ec e3 a8 be 5e f2 c0 3e
       0.9070325 0.5637313 -0.3298639 0.3768491
000020 0c 34 42 3b 20 9f 9e be af 94 03 bf 94 8c 0b bb
       0.0029633073 -0.30980778 -0.5139875 -0.0021293508
000030 21 ea fd 3e 2e 59 0b 3b e3 f4 44 3f 67 b8 41 be
       0.4959269 0.0021262872 0.7693617 -0.18918
000040 7b 1b bd 3d 06 5e 98 bc 9d 58 64 be 50 5c 01 3f
       0.09233757 -0.018599521 -0.22299428 0.5053148
000050 02 11 99 be cf 12 43 3d 51 4d 12 3f 32 bd 05 3f
       -0.29895788 0.04762536 0.57149225 0.52241814
000060 1c 03 16 3e ea 08 4f be 07 8f 7f 3c 9a bf eb bd
       0.14649624 -0.20218244 0.015598065 -0.115111545
000070 99 5b b3 be 99 a4 36 bc ff e3 5e be 61 f9 bc be
       -0.3503082 -0.011147642 -0.21766661 -0.3690901

net.0.bias f4 [32]
000000 3b f4 79 ba 07 22 ca 3b 1a 6f 7d 3c 90 5f 1d 3b
       -0.00095349894 0.006168607 0.015468383 0.0024013259
000010 23 17 24 3c 3d 0c d0 3c c8 ef fa 3b 3f 94 95 3c
       0.010015282 0.02539646 0.0076579787 0.018259166
000020 ad db 0c bb d7 3a d1 bb 95 51 86 3d 56 b5 93 3c
       -0.0021493242 -0.006385188 0.06558529 0.018030804
000030 3f a8 36 bd 63 69 1a 3b aa b8 41 bb 79 99 0b 3d
       -0.044594046 0.002356135 -0.0029559531 0.03408191
000040 c9 2a 60 bc d3 31 a2 3c f4 67 34 3c 5f a8 a5 bc
       -0.013682076 0.019799149 0.0110111125 -0.020221887
000050 9a 71 83 bb 24 31 d6 3c d6 5c 72 3d b4 98 6a 3d
       -0.004011345 0.026146479 0.059170566 0.057274535
000060 bb 7d 0c bc 2e ef 71 3d 88 66 4e 3c b8 6a ee 3b
       -0.008574898 0.05906599 0.012597688 0.0072759055
000070 26 3d 13 3b ed 84 18 3d 58 a5 75 3c d4 5c 8f 3b
       0.0022466867 0.037236143 0.014993034 0.0043750796

net.2.layer.0.weight f4 [32, 32]
000000 22 3c 82 be d3 eb 28 be ae c7 0e 3f 74 42 74 3e
       -0.25436503 -0.1649621 0.5577344 0.23853475
000010 7d 4a b5 be b7 14 4e 3e d1 2a dd bd a1 db 06 3e
       -0.35408393 0.2012509 -0.10799182 0.1316972
000020 73 b2 54 3e 99 1b 05 3f 5b d7 16 be c2 2c 49 be
       0.20771198 0.51995236 -0.14730589 -0.1964598
000030 74 64 a2 3e 35 5f e1 be 26 6a 02 3e 94 cd fc 3d
       0.31717265 -0.4401795 0.12735805 0.123438984
000040 68 09 d7 3d ee 70 a9 3b 1c 5f 65 be 34 bc bd 3d
       0.10499841 0.005170933 -0.22399563 0.092644125
000050 96 b3 5b 3f 91 7e 2e be d0 d5 11 3d 3c 82 63 be
       0.858209 -0.17040469 0.035604298 -0.22217649
000060 cd 60 9d 3d 27 ee e9 bd 3a f6 34 be b1 dd 08 3f
       0.07684479 -0.11422377 -0.17672053 0.53463274
000070 47 46 22 bd a4 51 92 3e 51 03 c4 3d fd 8b ce be
       -0.039617803 0.28577912 0.09570945 -0.40341178
000080 9f c7 5a 3d bf de cf be 87 1c d4 bd 9c d8 39 be
       0.05341303 -0.4059963 -0.10357004 -0.18149036
000090 87 e7 97 be 54 04 80 3e 0f 85 c0 bd a0 20 9a be
       -0.2966883 0.25003302 -0.09400379 -0.30103016
0000a0 3e 89 d2 be e8 f6 fa be e0 a1 97 3d 1b 96 b6 be
       -0.41120332 -0.490165 0.07403922 -0.35661396
0000b0 17 9f 1a be 74 9f da bd e3 c1 df 3e 82 07 fa bd
       -0.1509975 -0.106749445 0.4370261 -0.12208463
0000c0 1f d0 bb be c0 13 c6 3e 4f 36 74 3c 93 31 ce bd
       -0.3668222 0.38686943 0.014905526 -0.10068049
0000d0 92 3e 86 3e b7 c8 33 3d f2 e5 08 3f be 0d b5 3e
       0.26219612 0.04389259 0.5347587 0.35362047
0000e0 26 ee 08 3d b9 c1 bb be 10 15 a7 be e0 c9 ba be
       0.03343024 -0.36671236 -0.32633257 -0.36482143
0000f0 47 c5 97 3d f8 cc ad 3e 9c 3c 83 be 6d 60 6c 3e
       0.074106745 0.3394544 -0.2563218 0.23083659
000100 35 f3 7a be 8b 69 cb bd 7a 47 a5 be 53 a2 a8 be
       -0.24506839 -0.0993224 -0.32281095 -0.32936344
000110 b7 4a 38 3d e3 39 39 3d 6c 1f 4e 3f d6 82 e4 bc
       0.04499313 0.04522122 0.80516696 -0.027894419
000120 51 ef 5b 3c c5 c6 c9 bd 8c 4c 60 be bb 5e a7 3e
       0.013423757 -0.098523654 -0.219042 0.3268946
000130 82 65 1b bb 66 49 ec bd ef 26 83 be 88 c6 7b 3e
       -0.0023711626 -0.11537437 -0.2561564 0.24587452
000140 13 5f 8d be f1 5d 96 be 1c cb 54 3e 43 bc 9a be
       -0.27611598 -0.29368547 0.20780605 -0.30221757
000150 69 d0 4a 3e 3e 6c 14 be 5f b3 c3 3e 97 98 7e be
       0.19806065 -0.14494416 0.38222787 -0.24862896
000160 7e 4c 24 3e d3 79 03 be f0 88 85 bd ca ce 5e be
       0.16044804 -0.12839441 -0.065202594 -0.21758571
000170 5e f8 91 bd 76 ee a1 3d d1 57 e2 3e 86 69 a8 3d
       -0.071274504 0.07906811 0.44207624 0.08223252
000180 27 75 07 3e fb 2b 13 be 5e a1 b8 be 35 a1 a7 be
       0.13228284 -0.14372246 -0.36060613 -0.3274018
000190 2f b0 21 be b6 ff 9d bd 46 14 d1 be fc 9f 11 be
       -0.15789865 -0.077147886 -0.4083578 -0.14221185
0001a0 47 24 91 bd e5 a6 6e 3e 73 38 8e 3d 75 78 53 bd
       -0.070869975 0.23305853 0.069443606 -0.05162855
0001b0 9b 38 24 bf c4 af 19 bf 0b 03 7f be dd d9 f8 be
       -0.64148873 -0.6003382 -0.24903505 -0.48603716
0001c0 4a db 5a be 33 3c a0 3c 93 01 23 3e 76 b8 87 be
       -0.21372715 0.019559955 0.1591857 -0.2650792
0001d0 73 76 94 bd 2a c5 a3 be 9d b6 81 3e fb 8c 2c bd
       -0.07249155 -0.31986362 0.25334635 -0.042126637
0001e0 50 aa 9b 3e 10 0a 5b 3b f0 a1 5f 3e 7b 72 b2 3d
       0.30403376 0.0033422746 0.21839118 0.08713242
0001f0 b1 4a a6 3d 12 83 04 3f b7 b2 9c 3e 88 dc 8c 3e
       0.08119715 0.517625 0.306051 0.27512002
000200 b9 55 71 3d 74 1d 2b be 3c 64 00 bf a1 8c 74 be
       0.058919642 -0.16710454 -0.50152946 -0.2388177
000210 b0 48 27 be 9c 51 ae bd 55 a9 b6 be 22 f2 9d be
       -0.16336322 -0.085116595 -0.35676065 -0.30848795
000220 29 48 8e 3e a2 b4 0a be 66 8e a0 bc e0 9d 0c bd
       0.2778943 -0.13545468 -0.01959915 -0.03433025
000230 e6 6c 64 be 73 24 6a be 15 20 7c 3e c7 32 2e 3e
       -0.22307166 -0.22865467 0.24621613 0.17011558
000240 56 66 93 3e ed 43 ed be b6 9f 01 bf 20 66 3b 3f
       0.28789014 -0.46340886 -0.50634325 0.73202705
000250 e1 be b0 3e 19 5e 8b be 6a 34 a0 3e 69 2a 08 3e
       0.3452063 -0.27220228 0.3128999 0.13297428
000260 79 5f 3c bd fb 1d 0b 3f 2d b7 1e 3e 5c 64 f8 bd
       -0.045989487 0.5434262 0.15499564 -0.12128517
000270 33 96 dc 3e 90 87 10 3e a1 52 45 be 5f 9f 9d bd
       0.43083343 0.14114213 -0.19269802 -0.07696413
000280 10 09 1a be 13 94 b2 3e 5d 79 ac 3e 04 b7 7c bd
       -0.1504252 0.34878597 0.33686343 -0.061697975
000290 14 fa 2d be bf c0 2e be b5 12 a9 bd b1 87 b6 bd
       -0.16989928 -0.17065714 -0.08255521 -0.089126
0002a0 f5 55 11 bf 03 90 1c be 56 c2 84 ba 81 c7 95 3d
       -0.56771785 -0.15289311 -0.0010128717 0.07313443
0002b0 01 db c1 3e 8e ee 24 be 8f c6 85 be 3a f0 9b bd
       0.378624 -0.16106626 -0.2612805 -0.07614179
0002c0 68 3c 0e 3e f6 73 1c 3f a3 1b 9b 3d f4 d1 b8 3d
       0.1389023 0.6111444 0.07573631 0.090244204
0002d0 eb e2 7f 3e bb 79 db 3d 0c 0c 7b be 3c 8c c1 3d
       0.24988906 0.107165776 -0.24516314 0.09450576
0002e0 05 f7 95 3e 6e 62 c7 be 7e bf 50 3e 58 31 50 be
       0.29290023 -0.38942283 0.20385548 -0.20331323
0002f0 a1 6d d7 3d dd 59 54 3d 84 51 b0 bc 7d 6e 30 3d
       0.10518957 0.051843513 -0.021523245 0.04307412
000300 ae 7b 3e 3e 2b ff 7e bd 06 b1 cc be 6f d5 7a 3e
       0.18601868 -0.062255066 -0.39978808 0.24495481
000310 cd a3 8e be 10 2c 01 bd 40 d3 3b be da 20 54 3b
       -0.27859345 -0.031536162 -0.18342304 0.0032368214
000320 96 98 b7 3e de b8 64 3e b9 4e 2e 3e 8a 8d 65 bd
       0.358586 0.22336146 0.17022218 -0.056043185
000330 97 43 9e 3e 3f 89 9c be b6 1a ba bd 05 7d 79 bc
       0.30910942 -0.3057346 -0.09087126 -0.015227561
000340 ac e1 36 be f1 54 ef be 65 fd b1 3d 5d 00 e6 ba
       -0.17859524 -0.46744493 0.08690909 -0.0017547716
000350 84 42 b4 be fa 9b 40 be 1b df 46 be 17 3a 20 3e
       -0.35206997 -0.188095 -0.19421045 0.1564716
000360 ef a2 cb 3e 01 74 2c 3e 03 33 31 bd 95 2d 90 bb
       0.39772746 0.16841127 -0.04326154 -0.004399965
000370 d1 de 35 bd 64 4d 60 be e9 27 06 3d 7e 8f e6 3e
       -0.044401947 -0.21904522 0.032752905 0.4503135
000380 2f 76 11 be 5e b5 9c 3c 36 6b 8a 3e c3 ac 9f be
       -0.1420524 0.019129451 0.2703492 -0.31186494
000390 ff 86 00 3f 2a 2f 67 bd 52 a7 85 3c ea 16 34 be
       0.5020599 -0.056441464 0.016315136 -0.17586866
0003a0 a3 40 ea bc 17 a8 e3 3c 57 f9 a9 3d 83 bf 7a 3e
       -0.028595274 0.027790112 0.08299511 0.24487118
0003b0 48 2c 5c be 48 c5 d7 be 70 b8 ce be 8b 2e 78 be
       -0.21501267 -0.421427 -0.4037509 -0.24236505
0003c0 68 ae 62 be 6a 11 1b be 7e 15 8e 3d e9 67 80 be
       -0.22136843 -0.15143362 0.06937693 -0.25079277
0003d0 98 df 1e bf 41 e5 c6 3d 36 3a 68 3d 11 f4 07 be
       -0.62059927 0.097116955 0.05669614 -0.13276698
0003e0 5c 8c 9b 3b 67 70 90 be 03 49 5d 3e 17 89 fb be
       0.0047469568 -0.28210756 0.21609883 -0.4912803
0003f0 9a 66 74 3e ba f1 a9 be b8 32 50 3d 12 f7 c8 bd
       0.23867264 -0.33192235 0.05082962 -0.0981275

net.2.layer.0.bias f4 [32]
000000 30 ca 33 3c 11 cc 35 3c 8c 9f 29 3c 75 50 23 3c
       0.010973498 0.0110960165 0.01035298 0.009967913
000010 89 bc 99 3b c0 80 05 3c ed 40 40 3c 83 bc 78 3c
       0.0046916646 0.008148372 0.0117342295 0.015181663
000020 25 f8 35 3c 4a ba 3c 3c 2f 1d 0c 3c cf 79 2b 3c
       0.011106526 0.011519024 0.00855188 0.010466053
000030 fb 98 61 3c 7c 65 18 3c 86 93 49 3c db a1 61 3c
       0.013769384 0.0093015395 0.012303239 0.0137714995
000040 99 f6 20 3c 73 fa a3 3b 8b 8f 3f 3c 41 89 9b 3c
       0.009824418 0.005004221 0.011691938 0.018986346
000050 88 53 00 3c d3 dc 1e 3c 8d 65 03 3c 9e fb 3e 3d
       0.007832415 0.009696203 0.008019817 0.04662668
000060 2e 96 cb 3b e0 f8 14 3c ef 5f 1b 3c 50 78 4d 3c
       0.006212971 0.00909254 0.009483322 0.012540892
000070 13 5f 07 3c f0 5f 45 3c 19 32 0e 3c 77 eb a3 3b
       0.008262414 0.012046799 0.008678936 0.005002435

net.2.layer.2.weight f4 [32, 32]
000000 aa bb 8a 3d c8 06 c0 3e 83 bf 6a be 29 52 f9 bd
       0.06774075 0.37505174 -0.22924618 -0.12173874
000010 61 66 dc bd 7f 58 3f 3e d2 2c 90 bc e0 33 a9 be
       -0.10761715 0.18686102 -0.017599497 -0.3304739
000020 cf 10 d0 bc 7c 4a 64 3e 7a d3 4f be ec 87 cc bd
       -0.02539864 0.22294039 -0.20295516 -0.099868625
000030 ac b2 0a be 49 f5 10 3f 26 50 ec bd b4 61 f1 bd
       -0.1354472 0.56624275 -0.115387246 -0.117862135
000040 11 76 f7 3e 45 e4 7c 3e 69 38 0a be 13 b5 23 bd
       0.48332265 0.24696453 -0.13498081 -0.039967608
000050 85 d5 60 be 57 85 f8 be 6b d3 96 3e e6 ed 06 3f
       -0.21956451 -0.4853923 0.29458174 0.52706754
000060 82 1e 97 3d 46 dc 70 3e 9a 4b 90 be f9 5f 89 3c
       0.07378866 0.23521528 -0.2818268 0.016769396
000070 62 19 e4 3e 6d a5 92 bd 16 88 58 3c 69 ce 02 3e
       0.44550616 -0.07160459 0.013216039 0.12774052
000080 4a 4b ca be c1 ae c4 bd 70 12 01 3d b3 2e 1b bc
       -0.39510566 -0.09603644 0.031511724 -0.009471583
000090 04 38 dc bd 06 07 f6 3d 27 30 29 3e c8 36 3d 3f
       -0.10752872 0.12013058 0.16522275 0.73911715
0000a0 a5 04 3e 3d 6e 34 3a 3c 17 36 1b bf 1c 71 c0 3e
       0.046391148 0.011365039 -0.6062941 0.37586296
0000b0 a4 39 a2 be 1d d2 f4 bd 6d c1 1f 3d c2 32 ea be
       -0.316846 -0.119541384 0.039002825 -0.4574185
0000c0 ac 04 8f be 97 58 b8 3d 95 96 8e be f6 d4 e2 be
       -0.27933252 0.09001272 -0.2784926 -0.443031
0000d0 4a bd d5 bd 5b 1c 14 3f d8 d5 e0 3e 94 5e 10 bc
       -0.10436495 0.57855767 0.4391315 -0.008811612
0000e0 3a 96 bc be c0 7d 24 3f bd 59 81 3e e8 b9 15 be
       -0.36833364 0.6425438 0.25263777 -0.14621699
0000f0 b1 9b 5b bc b4 e4 93 3e f7 cd 22 be 0f 4b 0a 3e
       -0.013403819 0.28885424 -0.15898882 0.13505195
000100 7a ac 69 3e 00 a4 9c 3d cc a0 3e be ef 83 35 bf
       0.22819701 0.07648468 -0.18616027 -0.7090444
000110 42 b4 f3 3c 27 fe e3 3e 74 10 fe 3d 5b a8 c4 3e
       0.02974904 0.4452984 0.12405482 0.38409695
000120 43 ac 67 3e 5c 9d 20 3e 6b 78 e7 39 20 fd 0a 3f
       0.22624306 0.15685028 0.00044149472 0.5429249
000130 5d 08 8a be 80 cb a4 be e7 f9 e7 3e 18 90 f8 3e
       -0.26959506 -0.32186508 0.45307848 0.48547435
000140 16 f4 c7 be 2b 05 52 bf b9 12 17 3d 8b 03 b5 bc
       -0.3905341 -0.82039136 0.03688309 -0.022096416
000150 dc 25 a5 3e 7a b5 6a 3d 39 dc 59 3e 65 89 a4 3d
       0.32255447 0.057301976 0.21275415 0.080340184
000160 78 3d 98 bc bb cf 71 bd 9b cc 82 3d 60 f6 70 3e
       -0.018583998 -0.059035998 0.06386682 0.23531485
000170 b9 17 98 3d 3a 63 ff 3c d9 61 0e bf f3 80 7d 3e
       0.074264 0.031175245 -0.55618054 0.24756221
000180 99 37 f9 ba 8c 7e e8 3d 5d d5 a6 be d9 5f 5a be
       -0.0019013762 0.11352262 -0.32584658 -0.21325625
000190 91 d3 02 bf 7c 95 d3 3c 79 a5 86 be 66 d4 3d bc
       -0.51104075 0.025828116 -0.2629812 -0.011586284
0001a0 9b 0e cf 3d d3 62 08 3c dd 8f ec 3e 2d 98 cb 3c
       0.10110208 0.008324343 0.4620351 0.024852837
0001b0 f3 2e 89 3d a7 f6 30 be 02 c2 07 3f 83 29 80 3e
       0.06698408 -0.1728159 0.5303041 0.2503167
0001c0 d2 0a 60 3e db df 25 3e 8a 29 05 be 7d f2 85 3f
       0.21879128 0.16198675 -0.13004127 1.0464627
0001d0 f2 19 ad bd 8e d0 9b be b6 d2 a4 be 0c bb 4f 3d
       -0.08452214 -0.30432552 -0.3219201 0.05071549
0001e0 3f a1 11 be 46 77 41 bd 37 8d 79 bd 8d e8 5d 3e
       -0.14221667 -0.04723289 -0.06092569 0.21670742
0001f0 a1 f6 83 be 32 41 0c be cd 2c 6c bc b4 a6 10 bf
       -0.257741 -0.13696745 -0.014414978 -0.5650437
000200 49 0e 5c 3d ef e4 5f 3e 0b 1f a3 3e 6a 78 ab 3c
       0.05372456 0.21864675 0.3185962 0.020931441
000210 5a e6 8e 3e 76 4f 87 bd c4 2f 26 3f 22 a2 a0 be
       0.2791012 -0.06606953 0.64916635 -0.31373698
000220 4c b6 19 bf 8d a4 1f bc 6a 2f 5d 3e 7a 25 0f be
       -0.6004379 -0.009743822 0.21600118 -0.1397914
000230 bd 3a 1c bd f0 3a 22 3d 2f 1a 13 be 74 f4 5f bd
       -0.038141955 0.03960699 -0.14365457 -0.054676488
000240 25 da 5a 3d 7d cd bf 3e 2a 44 a5 3e 18 05 a9 3e
       0.053430695 0.37461463 0.32278568 0.330117
000250 35 0c db 3e 8a e2 9f 3e 2d b3 2f be b6 3c a5 bb
       0.4278275 0.31227523 -0.17158194 -0.0050426377
000260 4e 2a 17 bd e5 1f ee be 01 50 92 3e 0e 44 5c 3e
       -0.03690558 -0.4650871 0.28576663 0.21510336
000270 d9 f1 d7 be 23 d0 b8 3d ac cd 2e 3e 1b 01 1c 3e
       -0.42176703 0.09024074 0.17070645 0.15234797
000280 ca 26 80 3e e7 19 20 3e 59 49 17 be a1 1c 02 3f
       0.25029594 0.15634881 -0.14774074 0.50824934
000290 b8 72 f1 be 93 1d fc 3e 6c 4d ce 3b 18 2b 9a 3e
       -0.47157836 0.49241313 0.0062958505 0.30111003
0002a0 14 ed 27 3d 25 e7 4c 3d 9e 69 99 3e 62 5f 7e 3d
       0.04099758 0.050025124 0.29963392 0.062102683
0002b0 54 68 67 3e 3e 4c 8a bd fc 1d 5e be 1b c1 67 be
       0.22598392 -0.06752823 -0.21691126 -0.22632258
0002c0 8b 78 a4 bd 4d e5 84 3e af 1f 37 3e 59 0f 8b bd
       -0.08030804 0.25956193 0.1788318 -0.06790037
0002d0 c2 47 02 3f dd 0c 38 be 34 00 b2 be eb 8d b1 bd
       0.50890744 -0.17973657 -0.3476578 -0.08669647
0002e0 dd ce b7 be ef 18 b0 be a3 42 dc be af 9c eb be
       -0.35900012 -0.34394023 -0.4301959 -0.46017978
0002f0 e7 9f 0d be c2 7f a2 be 8b d5 9a 3e 06 d3 00 3e
       -0.13830529 -0.31738096 0.30241045 0.12580499
000300 1a bb 6b be 3d 3d a0 3b 1f 2d 78 be 07 05 9a be
       -0.23020592 0.0048901127 -0.24235962 -0.3008196
000310 26 ad 21 3e 76 08 83 3e ea 40 00 be 4d 15 e1 3d
       0.15788707 0.25592393 -0.12524763 0.10990391
000320 0d 30 75 bd a2 87 f4 3c 7e 09 06 bd ba 6e 3a bc
       -0.059860278 0.029849831 -0.032723896 -0.011378938
000330 c4 17 86 be a2 6a 92 bc f2 f3 2a be b1 65 ab be
       -0.26190007 -0.017873112 -0.1669462 -0.33476022
000340 60 3e 3a be 2d 2c ca bc 8e 8f a3 3d 56 98 82 3e
       -0.18187857 -0.024679268 0.07986365 0.25506848
000350 49 25 b7 bd 56 19 3b 3c 40 2b 2c bf 79 4b f5 be
       -0.089426585 0.011419615 -0.67253494 -0.47909144
000360 8a 8d ae bd 1d b2 b6 3e bc 95 01 bf 44 1e 6f be
       -0.0852309 0.35682765 -0.506191 -0.23351389
000370 31 cd b5 be d4 8a 12 be 9b ac 11 be d9 97 61 be
       -0.3550811 -0.14310771 -0.14226 -0.22030582
000380 ad 48 ff 3e 03 6a 7e 3e 18 b9 06 3f 6b d5 47 3d
       0.49860135 0.24845128 0.5262618 0.048787516
000390 ee 3c 5b 3d 91 e0 44 be 3b 9f 5e 3d 81 f4 f1 be
       0.053524904 -0.1922629 0.054351073 -0.47256854
0003a0 05 8b bf 3d 56 07 96 3c d4 27 d3 be 9d f8 86 bd
       0.09352688 0.018314045 -0.41241324 -0.06590388
0003b0 00 b7 8e 3d bd e3 45 be 95 49 fa bd a5 93 de be
       0.06968498 -0.19325157 -0.12221066 -0.4347202
0003c0 68 57 13 3f b5 fe ee 3d 64 65 68 3c 13 f5 42 3e
       0.57555246 0.11669675 0.01418433 0.19038801
0003d0 3c 23 18 be 39 ac 88 3e dc 9a 78 bc e0 67 9c 3e
       -0.14857191 0.26693895 -0.01517364 0.30548
0003e0 ca ef e3 be e5 29 75 bd 00 e2 12 bd 05 62 4b be
       -0.44518882 -0.059854407 -0.03586006 -0.1986161
0003f0 fd 5a 0a 3e 94 20 fe 3d 25 8b 38 3e e5 26 db 3c
       0.13511272 0.124085575 0.1802183 0.026751945

net.2.layer.2.bias f4 [32]
000000 63 e0 30 3c 59 47 d3 3b 37 0f 4f 3c de ca 5b 3c
       0.010795685 0.0064477143 0.012637905 0.0134150665
000010 1c 2e 47 3c d6 59 27 3c 3c d7 f0 3a ff bb 3e 3c
       0.012156989 0.01021429 0.0018374692 0.011641501
000020 a7 62 e1 3b 25 d4 53 3c 2a 8f 4f 3c 67 ea 39 3c
       0.0068782154 0.012928997 0.01266841 0.01134739
000030 53 9a 50 3b fa 75 07 3c c4 6a 23 3c 8a 17 20 3c
       0.0031830266 0.008267874 0.009974185 0.009771237
000040 17 75 bc 3b 66 27 73 3b 4f 16 1a 3c f0 7d 03 3c
       0.005751263 0.003710234 0.009404733 0.008025631
000050 5b 8d 45 3b 89 d3 37 3c ef 32 07 3c 13 37 07 3c
       0.003014407 0.0112198675 0.00825189 0.008252877
000060 dc 2e 91 3c 6c 0b 03 3c 27 61 5e 3c 2b 29 24 3c
       0.01772254 0.007998329 0.013572968 0.010019581
000070 aa 23 b3 3a c9 ad a2 3b 8f f7 18 3c 9d 05 36 3c
       0.0013667245 0.0049645645 0.009336366 0.011109737

net.3.layer.0.weight f4 [32, 32]
000000 f8 18 0e 3f 86 f5 a8 be 31 8e 94 3e 6e 4b c2 be
       0.5550685 -0.3299982 0.29014733 -0.37948173
000010 98 b5 e4 be b9 86 bd bb 0f a3 13 3e 9b 4a 56 b8
       -0.44669795 -0.0057838825 0.1441767 -5.1091058e-05
000020 73 57 bc bd fb 95 09 3f 2b 25 d4 be a6 95 13 3e
       -0.09196367 0.5374448 -0.41434607 0.14412555
000030 8b 9b c8 bd 6b ad ce be f6 99 2f 3d 98 1a 1f 3e
       -0.097952925 -0.40366682 0.042871438 0.15537488
000040 30 a7 1c be b1 00 7c be 09 d6 d3 bd 41 4c cf be
       -0.15298152 -0.24609639 -0.10343558 -0.40487865
000050 09 dd 81 3e 15 92 bb 3e 0d 4a 0e bd 51 e0 10 be
       0.2536395 0.3663489 -0.03473859 -0.1414807
000060 42 c7 81 3d 73 f9 04 bf f7 4e fd 3c 1f 3b a0 3e
       0.063368335 -0.5194313 0.030921442 0.31295106
000070 1a 59 be be aa e0 5a be a9 64 12 bf 50 41 f8 3e
       -0.37177354 -0.21374765 -0.57184845 0.4848733
000080 62 a9 bd 3e 18 af 6c 3e fb 3f db bd 95 30 ab bd
       0.3704329 0.23113668 -0.10705563 -0.08358876
000090 2d b7 02 3e 5d f7 bb bd ad 74 86 3e f9 42 12 bd
       0.12765189 -0.0917804 0.26260892 -0.0357084
0000a0 43 f6 b0 3c 77 88 52 be 15 ad be 3e 45 f1 4a 3d
       0.021601802 -0.2055987 0.37241426 0.0495465
0000b0 22 80 e4 3e 4d b7 08 3e 15 39 8c 3d 47 10 68 3e
       0.44629008 0.13351174 0.06846825 0.2266246
0000c0 cc a9 d6 3d f3 8b ea bd 1e f0 d6 3e 8f dd ae bb
       0.10481605 -0.114524744 0.4198007 -0.0053364704
0000d0 ae bc 5d 3e 68 73 48 bc 08 68 f8 be 43 df 87 be
       0.21654007 -0.012234546 -0.4851687 -0.26537523
0000e0 bd ed 46 3d d7 d4 de 3d 95 51 23 be 1f 75 67 be
       0.04856657 0.1088044 -0.1594909 -0.22603272
0000f0 2c 90 5e bd a6 76 4e 3e 58 31 fe 3d ba fd 24 bd
       -0.05433671 0.20162448 0.12411755 -0.040281035
000100 bc 99 01 3d f9 8b bf 3e 68 31 eb 3e 36 51 a8 be
       0.031640753 0.37411478 0.4593613 -0.3287446
000110 20 33 0c be d4 c7 86 3d 82 c2 11 3f 48 06 83 bf
       -0.13691378 0.06581083 0.5693742 -1.0236292
000120 fa 02 85 3e 7d 5e 16 3f 54 ae a4 3e 9b 20 60 be
       0.25978833 0.5873793 0.32164252 -0.21887438
000130 fa da 07 bf b5 23 81 be 11 96 68 3d 57 4b f4 bd
       -0.53068507 -0.25222555 0.05678374 -0.119284324
000140 ec b6 6b be 40 40 50 be 6a 5b fc bd c4 44 d6 3c
       -0.23018998 -0.2033701 -0.12322123 0.026155837
000150 3f 2b 3e be b0 00 c0 bd 1c 6c af bd a0 c5 3c 3e
       -0.18571185 -0.09375131 -0.08565542 0.18434763
000160 66 2b af 3d 53 e5 a6 3c c5 81 25 be eb fb b2 3e
       0.085531995 0.020373022 -0.16162784 0.34957823
000170 09 96 af 3d 26 45 06 bf 2d 58 8f be 66 52 8a 3c
       0.08573539 -0.5244926 -0.2799696 0.016884994
000180 6a ab 3f bd 23 04 a5 3e 88 0c ea 3d ed e1 ee bd
       -0.046794333 0.3222972 0.114281714 -0.11664186
000190 88 4b e9 3d 5e df 2a 3e 9c 65 99 3e 2b 52 0f be
       0.113913596 0.1668677 0.29960334 -0.13996188
0001a0 ba da d4 3e 1b ab 48 bd 29 7e 2e 3f 64 f5 f3 be
       0.41573125 -0.048991304 0.68161255 -0.47648156
0001b0 34 60 3b 3f 20 09 e5 3e da d5 d5 3e 1d a9 c6 bc
       0.7319367 0.44733524 0.41764718 -0.024250561
0001c0 c4 4e 6d 3e b5 52 45 3e e1 51 c9 3e f6 62 de be
       0.23174578 0.19269831 0.3932028 -0.43434876
0001d0 1a 68 9e 3e 96 b4 97 be f7 a6 83 bd d9 c6 3a 3d
       0.30938798 -0.29629964 -0.064283304 0.045599792
0001e0 44 25 2e 3e f6 4f b3 3e b4 49 a5 3d 42 51 14 3e
       0.17006403 0.35021943 0.080706984 0.14484122
0001f0 54 03 8b 3e 73 6a b4 be 36 a8 93 bd ac de 8a bd
       0.27150977 -0.35237464 -0.07209818 -0.067807525
000200 0b 64 4d 3e 50 76 e0 3d 64 ac cf 3e 09 9a 3b 3e
       0.20057695 0.10960066 0.4056121 0.18320478
000210 81 1a f5 bc bb 6e a5 3e 07 8d 19 3d 22 01 1b 3f
       -0.029919865 0.32311043 0.03748801 0.60548604
000220 0b fd 41 be d3 1d 0e 3e 60 9d d9 3e c5 0a 09 3e
       -0.18944184 0.13878565 0.4250288 0.13383015
000230 87 72 14 be a5 48 a0 be 6b ee d8 bd 07 dd a4 bd
       -0.14496814 -0.31305423 -0.105923496 -0.0804997
000240 ed 30 6c 3d c6 01 aa 3e 0f d3 4b bf d1 49 57 3e
       0.057663847 0.33204478 -0.79618925 0.21024252
000250 ac cc 8e 3e c8 42 11 3d fc 23 24 bd 85 8c 0a be
       0.27890527 0.03546408 -0.04007338 -0.13530166
000260 90 fb 40 be 61 4c 8e be 19 ef 09 bd 67 32 31 3e
       -0.18845963 -0.27792647 -0.033675287 0.17304383
000270 5f 3c ca 3d 91 02 bc be de ef e4 3e 1e 58 27 3f
       0.09874796 -0.36720708 0.44714254 0.6536883
000280 ef 18 d8 bd e5 17 3c be 20 f0 a7 be f3 7a 20 3e
       -0.10551631 -0.1836849 -0.32800388 0.15671901
000290 fa 18 d4 3d 8c b5 e5 bd 9a dc 38 3e 5a c6 be bd
       0.103563264 -0.11216268 0.18052903 -0.09315176
0002a0 3e 7f 55 bf 30 26 11 bf 55 00 71 be 44 42 10 bf
       -0.8339728 -0.56698895 -0.23535283 -0.56351113
0002b0 ea ab ce be e6 9c d1 3d ee 7a a5 3e e0 4a 47 3e
       -0.40365535 0.10235004 0.3232035 0.19462156
0002c0 15 aa 07 3d 64 81 4d 3e c1 e8 af bd 30 13 52 be
       0.033121187 0.2006889 -0.08589316 -0.20515132
0002d0 08 96 66 3e 99 81 80 bc 04 a3 b4 3e 81 95 14 3e
       0.2251817 -0.015686797 0.3528062 0.14510156
0002e0 02 38 ca bd cc 96 6d bd 52 bb 20 bd 6a ae 8f be
       -0.09873964 -0.05800514 -0.039241143 -0.28062755
0002f0 d7 4d 82 3d 5a 06 a3 3e f9 e9 40 3e 95 6c 07 3e
       0.06362503 0.31840783 0.18839253 0.13225015
000300 fc d0 41 be 51 be f6 3e 63 b8 69 3e c9 8b c2 3e
       -0.18927377 0.48192075 0.22824244 0.37997273
000310 84 89 d3 be 6f 3d e3 be 3a 90 5d 3e 89 3f c4 3d
       -0.41315854 -0.44382808 0.2163705 0.09582431
000320 80 44 6b be 65 67 f8 3d d2 57 ba 3d 81 cf 6d 3e
       -0.2297535 0.12129096 0.09098782 0.23223688
000330 89 4e 9a 3e 18 e5 0d 3f 9b 16 d2 3e b1 d4 d1 3e
       0.30138043 0.55427694 0.41032872 0.40982583
000340 0b 3d d1 bd e1 db 0d be 1d a2 88 bd 90 5b db 3e
       -0.10216721 -0.13853408 -0.06671546 0.42843294
000350 93 ea 92 3e 77 7a 29 3e 46 22 a5 3c b2 b9 80 3d
       0.2869459 0.16550623 0.020157944 0.062854186
000360 2c 6a 0b 3d 82 d3 15 be 6a d3 a5 bd 7b d9 a7 3e
       0.0340368 -0.14631465 -0.08096965 0.32783112
000370 3d 41 ab be 62 c5 f5 3d 9f c2 b6 bd bf 47 ca bb
       -0.3344821 0.120005384 -0.0892384 -0.0061731036
000380 f8 c5 9c 3e 4a 1b 5c be c0 c3 9a 3c 0b 77 6a be
       0.30619788 -0.21494785 0.018892169 -0.22896974
000390 88 03 1b 3e f0 cc 88 bb d0 22 ce 3d 8b e9 55 bd
       0.15138066 -0.004174821 0.10065234 -0.052224677
0003a0 c5 a5 0f 3c 66 52 2a be 2a bb 6a 3d 03 9b 31 3e
       0.00876755 -0.16632995 0.0573074 0.17344289
0003b0 46 1c 8d 3e ea dd f5 bd 91 3a 00 be e6 b3 8c be
       0.27560633 -0.120052174 -0.12522341 -0.27481002
0003c0 6f 30 fc 3e 48 9e 08 be 3b 39 9e be db dc 5c 3e
       0.49255702 -0.1334163 -0.30903038 0.21568625
0003d0 14 89 aa 3e a0 ed 77 be d7 9a 86 3e 42 39 f0 3d
       0.33307707 -0.2421174 0.26290008 0.11729671
0003e0 bf f8 b5 3e 78 f2 1f be da 8c a3 3e 4f 74 0f bf
       0.3554134 -0.15619838 0.319434 -0.5603685
0003f0 30 b5 00 3f 22 1b 8b be 93 7e 71 3e 26 59 8c 3e
       0.5027647 -0.27169138 0.2358344 0.27411765

net.3.layer.0.bias f4 [32]
000000 c3 5f 1b 3c 9f af 01 3c 96 c3 4a 3c ad 5a 27 3c
       0.009483281 0.0079154065 0.012375733 0.01021449
000010 d4 96 28 3c 93 17 23 3c 11 dc 94 3c 1e 4e 9e 3b
       0.0102898665 0.009954351 0.018171342 0.0048310896
000020 29 aa 88 3b c4 96 fe 3b 48 ea 8d 3c 52 7b 28 3c
       0.0041706753 0.0077694375 0.017323628 0.010283308
000030 f2 50 bb 3b 5b 70 95 bc bd 95 3e 3c 72 a3 d5 3b
       0.0057164365 -0.018242052 0.01163238 0.0065197283
000040 d2 43 7d 3b 08 19 2f 3c 1b cc 3c 3c ab 4f cb 3c
       0.003864516 0.01068712 0.011523272 0.024818262
000050 90 f2 fb 3b 42 01 d3 3b f1 c9 0a 3c a4 1a 0a 3c
       0.007688828 0.006439359 0.008470998 0.008429203
000060 8b fc 23 3c 4f 9d 2b 3c a5 dc 4f 3c a7 0b 71 3b
       0.010008941 0.010474517 0.012686883 0.0036780627
000070 16 44 28 3c de 7b 17 3c 30 0d 3b 3c 8e 16 47 3c
       0.010270139 0.009245841 0.011416718 0.012151374

net.3.layer.2.weight f4 [32, 32]
000000 81 67 81 3e 76 9f 28 3d 1d 35 95 be ce 0f 6a bd
       0.2527428 0.0411677 -0.29142085 -0.05714398
000010 d8 d2 95 3e db 21 84 3e d6 a6 e7 3d b4 f0 cd be
       0.29262424 0.2580708 0.11311118 -0.40222704
000020 14 84 a6 bd 08 48 13 3e 58 ab 54 be dc 2f 3b 3c
       -0.08130661 0.14382946 -0.20768487 0.011424985
000030 82 de a9 bd db de 83 3e 5b cc 0e 3f ce 04 4d be
       -0.08294393 0.25755963 0.5578057 -0.20021364
000040 e5 3d 02 bf ac a9 ca bd 4c 06 12 3f 45 e4 21 bf
       -0.50875694 -0.098956436 0.5704086 -0.63238937
000050 5f eb b1 3e 0d 05 29 be ac 6d f3 bd 3e d4 9b bc
       0.34749886 -0.16505833 -0.118861526 -0.019022103
000060 ab b5 a8 3c 64 17 ae 3e 58 de 80 be a9 ba ab 3d
       0.020594439 0.3400222 -0.25169635 0.08385212
000070 a2 ca b3 3e ba 82 2a 3e 5a 6a a7 be fe 04 7e bc
       0.35115534 0.1665143 -0.32698327 -0.01550412
000080 95 ae 80 3e 5d a8 2d 3e 4e 76 dc 3e b8 79 70 3e
       0.25133196 0.16958757 0.4305901 0.23483932
000090 8b d7 71 be d2 dc 83 be 75 c0 a1 be 4a 6c 1c bc
       -0.2361738 -0.2575441 -0.31592146 -0.0095473025
0000a0 12 2c 8c 3e 06 e3 21 3e 70 dd d2 bc 4c 15 c6 bd
       0.27377373 0.15809259 -0.025740355 -0.09672031
0000b0 ec 07 58 be e0 8f 91 be 77 e8 e3 bd e3 8c fd 3d
       -0.21096772 -0.2843008 -0.111283235 0.12380388
0000c0 09 f6 07 be 64 80 e2 3e 25 4f 2c 3c 34 8f 29 bf
       -0.13277449 0.4423858 0.010516916 -0.66234136
0000d0 6c 6d 37 bd dc 94 6b be d7 3e 11 3e e1 23 61 bd
       -0.044782087 -0.23006004 0.14184128 -0.054965857
0000e0 ff 11 1d 3e b8 34 91 3e 95 0f 71 be fe db 6a be
       0.15338896 0.28360534 -0.235411 -0.22935483
0000f0 21 ed 48 3e 47 53 39 3e 28 52 b6 be a7 31 a8 3e
       0.19621707 0.18098174 -0.35609555 0.32850382
000100 a8 84 34 be 61 06 19 3e 90 0d f8 3d df a6 c2 3e
       -0.1762873 0.1494384 0.12111962 0.38017938
000110 68 75 07 3f ef 57 d9 be de 5e 02 3f 3a e7 14 bd
       0.5291352 -0.424499 0.50926006 -0.036353327
000120 47 68 03 bc bb fd 63 3d 4a bf 3e 3f 5d d8 92 3e
       -0.008020467 0.055661898 0.74510634 0.28680697
000130 71 5e ee bc d0 9f a5 3a 45 b9 ea be f2 10 ae bd
       -0.029097768 0.0012636129 -0.45844474 -0.08499326
000140 23 ab 7e 3e 45 b1 86 be 58 f7 9c 3e aa f0 8d bc
       0.24869971 -0.2630712 0.30657458 -0.017326672
000150 2d 6b 72 be 02 0c ce 3d c8 d5 ce 3e 6e 71 0a 3f
       -0.23673697 0.10060884 0.40397477 0.5407933
000160 31 3d 1e 3e 72 9b 80 be fb 20 af 3e 4a 9e 8e be
       0.1545303 -0.25118595 0.3420485 -0.2785514
000170 b1 1f 2d bd 53 d6 56 be 5f 21 57 3e c5 25 ac bd
       -0.04226655 -0.20980196 0.21008824 -0.084056415
000180 ea f2 75 3f 66 8f 12 bf 69 d7 03 3f 46 94 a9 3e
       0.9607378 -0.5725006 0.51500565 0.33120936
000190 aa 10 7f bd 79 c3 89 3e ff 5d 15 3d 03 21 7f 3d
       -0.06227175 0.26906946 0.036466595 0.06228734
0001a0 c6 6d f1 bd 19 a7 a9 3d b7 a5 6e bd 1e 48 25 3b
       -0.11788516 0.082838245 -0.058263507 0.0025219987
0001b0 a4 76 48 3e 15 0a cf 3b 70 7f 0f 3d 17 a8 b6 3d
       0.19576508 0.0063183405 0.035033643 0.08918779
0001c0 51 0e 6e bf a1 03 98 3e 26 9f 3a 3e 7d 4b 35 be
       -0.92990595 0.2969027 0.18224773 -0.17704578
0001d0 b1 e1 00 bf e2 27 d2 be 0a d6 65 3e 96 63 c7 3e
       -0.5034438 -0.41046053 0.2244493 0.38943166
0001e0 e8 35 a5 3e 60 44 38 3e b7 1a 5e be 58 6f db 3d
       0.3226769 0.17994833 -0.21689878 0.107145965
0001f0 19 b7 c1 be 31 aa 99 be c5 24 69 bf ad c3 18 3e
       -0.37835005 -0.30012658 -0.9107173 0.14918394
000200 c7 a4 88 be bd 57 7e be bc 98 2c 3f d7 a1 49 3e
       -0.26688215 -0.24838157 0.67420554 0.19690643
000210 10 d3 51 be 5e 12 f2 3d 4e 6d 9b 3e 2e 75 74 3e
       -0.2049067 0.118199095 0.3035683 0.23872826
000220 f1 f8 d3 3c ab a2 09 3e 20 58 14 3e 7e c9 2a be
       0.02587554 0.13440959 0.14486742 -0.16678426
000230 71 3b 05 be 12 06 c4 3e eb 5a 9e 3e 28 77 af 3c
       -0.13010956 0.3828588 0.3092874 0.021419123
000240 f6 0d 45 3e 2e 69 9f 3e 1c 5f 9d be 34 66 5c bf
       0.19243607 0.31134933 -0.30736625 -0.8609345
000250 c6 12 cf 3e 13 70 14 3d 0b c4 0c 3e b1 86 00 be
       0.4044401 0.036239695 0.1374666 -0.1255138
000260 e9 dc 1b 3e 05 8e ea be 86 93 21 be ef 60 82 be
       0.1522099 -0.45811477 -0.15778932 -0.2546458
000270 d0 83 fe bd d6 7b a6 be fb 46 48 bd 82 b8 04 be
       -0.12427485 -0.32516354 -0.048895817 -0.12961009
000280 74 39 72 bc ee 49 2e 3e 6b 3b c9 3e 85 d3 a1 3e
       -0.014784206 0.1702039 0.39303145 0.3160669
000290 04 3a a7 be fb 3d a6 bb 93 3d 36 3d 91 97 60 3e
       -0.3266145 -0.0050733066 0.044492316 0.21932818
0002a0 83 41 c3 bd 93 2d ce bd e8 8f 93 be 89 f7 fd bd
       -0.0953398 -0.10067286 -0.2882073 -0.12400729
0002b0 54 43 18 be 06 58 f1 be 5a 7e 20 bc a4 e3 68 be
       -0.14869434 -0.4713747 -0.00979575 -0.22743088
0002c0 1b 14 b9 3e b8 3d 09 be 03 66 a6 bb 1b 78 eb 3e
       0.36148152 -0.1340245 -0.0050780787 0.4599007
0002d0 49 68 b5 bd 12 00 d6 be 0d 7f d7 3d 43 df 7b 3e
       -0.088577814 -0.4179693 0.1052228 0.24596886
0002e0 01 da 41 be 17 12 54 be 34 88 8f be 62 97 69 3e
       -0.18930818 -0.20710026 -0.28033602 0.22811654
0002f0 80 a6 8f be 42 94 0d 3d 8c b4 74 3e 82 2f 9d 3c
       -0.28056717 0.034565218 0.23896998 0.019187693
000300 16 f1 ed be 83 e2 15 be 74 e0 c6 3e 31 f7 c1 3c
       -0.46472996 -0.14637189 0.3884312 0.02367744
000310 77 e2 d8 bd 34 d9 ef 3d 1f ca 75 3e 38 5e ba be
       -0.1059007 0.1171135 0.24002884 -0.36400008
000320 8b a6 0a 3f e6 35 e9 3e 0f cb a7 3e 87 2d 12 be
       0.54160374 0.45548934 0.3277211 -0.1427518
000330 df dc 8a 3e ca fb 9d be 04 e0 36 3e 04 67 ac be
       0.27121636 -0.30856162 0.17858893 -0.33672345
000340 75 53 43 3e e0 a7 eb be e1 7c d6 bd 1e 75 56 be
       0.19074805 -0.46026516 -0.104730375 -0.20943114
000350 51 30 e4 3e 81 e0 7e be 71 5a 46 3e b2 ea 8e 3e
       0.44568112 -0.24890329 0.19370438 0.27913433
000360 97 be 93 be 25 fb 5b 3e d1 46 07 bf da 6d d2 bd
       -0.28856346 0.21482523 -0.5284243 -0.10274859
000370 a8 bc 08 be e6 40 57 3d a5 f8 96 3e 12 73 3a be
       -0.13353217 0.052552126 0.29486576 -0.18207958
000380 91 19 ca bc 9b 26 10 3e d0 3c eb be 2c dc a3 be
       -0.024670394 0.14077227 -0.45944834 -0.32003915
000390 05 29 ae bd a5 05 ab 3e 19 c7 34 bd 15 5c a3 be
       -0.085039176 0.33402744 -0.044135187 -0.3190619
0003a0 a2 14 7e 3d fb f0 a9 be 4d 24 0b bd 97 35 39 3f
       0.062031396 -0.33191666 -0.033970166 0.72347397
0003b0 26 91 e5 3d fc 01 43 be 14 f1 3f 3e 4f 52 38 be
       0.112093255 -0.19043726 0.18744308 -0.18000148
0003c0 44 c3 69 be 85 47 0c 3c 69 ff 91 3b c9 01 0f bd
       -0.22828394 0.008561973 0.004455496 -0.03491381
0003d0 3d 12 ba 3d 38 39 fe 3d 90 2c ef be d6 0e 79 3e
       0.0908551 0.12413257 -0.46713686 0.24322066
0003e0 ec ba 2e be 64 0f 96 3d e6 06 f7 3c 47 6a 09 3f
       -0.17063493 0.07327154 0.030154657 0.5367779
0003f0 76 bb 12 3e aa 08 78 3e 3f 03 c5 be 59 9d da 3b
       0.14329323 0.24222055 -0.3847904 0.0066715893

net.3.layer.2.bias f4 [32]
000000 8f 3c 6c 3c a0 21 47 bc e3 73 63 3c 0f fe 3c 3c
       0.014418735 -0.012154013 0.01388261 0.011535182
000010 79 5b cf 3b cf 9f 90 3c 0b c8 76 3a 69 92 61 3c
       0.006328043 0.017654328 0.0009413964 0.013767817
000020 d9 34 e4 3b b1 5b 75 3c e6 61 0c 3c cd 56 01 bc
       0.0069643077 0.014975474 0.008568263 -0.00789423
000030 40 0e 8d 3c ac cd 29 3c cd a4 cc 3b f9 d0 49 3c
       0.017218709 0.010363977 0.0062452317 0.012317889
000040 1b 29 cc 3b c2 fa da ba b7 db 64 3b f6 ba 8d 3b
       0.006230486 -0.0016706812 0.0034921 0.004325266
000050 6f 0a 4c 3c c7 b2 e0 3b 04 62 7a 3b bf ed 3b 3c
       0.012453659 0.0068572494 0.0038205395 0.011470257
000060 54 e9 14 3c 2d 3f 17 3c aa f7 ae 3c b9 f7 8a 3b
       0.009088833 0.009231371 0.02135833 0.0042409566
000070 60 34 ff 3b 41 81 d8 bc a9 2c 67 3c 1b 3a 1e 3c
       0.007788226 -0.02642882 0.014109769 0.009657408

net.4.layer.0.weight f4 [32, 32]
000000 f8 cd 2a 3f 40 0a 84 bd fe 30 23 3e 54 ab 01 3f
       0.66720533 -0.064472675 0.15936658 0.5065205
000010 8a 99 85 3e 3a 68 cd 3e 0f a8 98 3e 94 5a 49 bd
       0.26093704 0.4011858 0.2981572 -0.049158648
000020 d4 b4 c1 3d 83 7f 17 3e ba 92 34 3e 86 96 80 3d
       0.09458318 0.14794736 0.17634097 0.0627871
000030 7e 79 c1 be 1e 39 b1 3e d8 26 94 bd 75 16 45 3e
       -0.37788004 0.3461389 -0.07233971 0.19246848
000040 d9 1d e9 3d d7 df be be ad 05 03 3e df 95 62 3e
       0.11382646 -0.3728015 0.12795134 0.22127484
000050 72 20 99 3d bf 8b 33 3c c8 97 a8 3d fc d2 b3 bd
       0.074768916 0.010958611 0.08232075 -0.087804765
000060 df dd 75 be 1c 28 28 bd 91 b7 b5 be 22 f6 2c bd
       -0.24010418 -0.041053876 -0.35491613 -0.042226918
000070 41 c4 0b 3f bd ff 20 3d f0 ba f2 3d cc 97 b1 bd
       0.54596335 0.03930639 0.11852062 -0.08671531
000080 2a 9c 3f bc 5e 5f 0d 3f 0c 45 26 be 20 52 99 3d
       -0.011694947 0.55223644 -0.16237277 0.07486367
000090 60 04 cf 3e c4 46 16 3f 04 6b 94 be 16 15 9d 3e
       0.40433025 0.5870173 -0.28987896 0.3068015
0000a0 32 69 f1 bc c4 30 00 3f 66 d5 cc 3d d3 d6 b6 3d
       -0.029469106 0.5007441 0.1000164 0.08927693
0000b0 61 91 ed bd 22 28 fd bc 91 5d 2a be 28 53 5b bd
       -0.115999945 -0.030902926 -0.16637255 -0.0535461
0000c0 98 85 64 be c6 1f 93 be fc 6c 89 be 84 08 fe bd
       -0.22316587 -0.2873518 -0.2684096 -0.12403968
0000d0 17 11 29 3a 07 64 cd bd 00 15 81 3d 46 ca d2 3d
       0.0006449385 -0.10028844 0.063028336 0.10292487
0000e0 17 e9 e2 bc 34 21 8b be 80 42 a6 be 6b 26 6f 3e
       -0.027699037 -0.2717377 -0.3247261 0.23354499
0000f0 fa df 8d 3e ec f3 ab be b8 d6 33 bd 4d cd 1f bd
       0.27709943 -0.33584535 -0.043905944 -0.03901415
000100 41 b8 16 3e a2 76 ba 3d 6e ef c1 bd 38 95 48 bd
       0.14718725 0.09104659 -0.09469496 -0.04897043
000110 d7 0d f5 3e 24 a5 64 3e 66 0f c7 be af 66 1c be
       0.4786212 0.22328621 -0.38878936 -0.15273546
000120 24 b6 af 3e 36 d3 9f be 2b 03 ca be 26 0c 98 3e
       0.3431865 -0.3121583 -0.39455542 0.2969677
000130 38 71 1e bf b2 20 2e 3e 47 ed 8d be 99 3c 12 be
       -0.6189151 0.1700466 -0.2772009 -0.14280929
000140 bb 25 f2 3d 16 7d c3 3e 3f 81 04 bf 0b 3f 83 3e
       0.11823603 0.3818137 -0.51759714 0.25634035
000150 cc 33 0c bf d7 34 2b be 8e da 31 bf f6 25 61 3d
       -0.54766536 -0.16719376 -0.69474113 0.054967843
000160 d7 62 21 bf 37 0d 84 3e 63 65 92 3d ea 54 8d bd
       -0.6304144 0.25791332 0.07148244 -0.06900962
000170 94 e4 a9 3c 89 b2 bf 3e 92 9b a9 bd 47 b7 40 3e
       0.020738877 0.374409 -0.08281626 0.18819915
000180 0b fe be bc b6 9d ce be 90 db 82 3c b4 c7 59 3e
       -0.023314497 -0.403547 0.015973836 0.21267587
000190 91 43 ba bd 92 7b f1 bd b7 6d 93 be 03 5e 2d 3e
       -0.090949185 -0.11791147 -0.28794643 0.16930394
0001a0 a9 cd 4b 39 85 45 f8 be ca 38 d5 bd e6 d2 a5 be
       0.00019436203 -0.4849054 -0.10411222 -0.32387465
0001b0 4d 16 a4 3d ac b0 c0 3a 9a ef a1 be a5 12 01 be
       0.08012066 0.001470109 -0.31628114 -0.12604769
0001c0 14 2e b7 be 1d 0d c2 bd a1 37 2c 3f b3 3c 0b 3e
       -0.35777342 -0.094751574 0.6727238 0.13597374
0001d0 57 1e a3 be 6c 73 2b 3f 57 78 23 3e f8 a5 11 3d
       -0.31859085 0.66972995 0.15963875 0.03555867
0001e0 97 46 ff 3e a8 bf 94 3e 77 ab 0a bc 81 3a fc bd
       0.49858543 0.29052472 -0.008463732 -0.12315846
0001f0 de c5 fd 3e 43 36 ea 3e b2 12 d2 3d 4b 3d bc bd
       0.49565023 0.45744523 0.10257472 -0.09191378
000200 86 93 90 3e 95 0b 07 bf 47 05 3b 3e 8c 5b d9 3e
       0.2823755 -0.5275205 0.18263732 0.42452657
000210 e5 54 4c 3e 65 4a fa 3c 75 d2 86 3e 64 1f 68 bc
       0.1995426 0.030553052 0.2633244 -0.01416764
000220 3b bb 25 3e 63 74 49 3d c4 58 f5 be c3 ad 44 bc
       0.16184704 0.04918326 -0.47919285 -0.012004319
000230 0f 89 9a be 7e 42 83 be cd 2b 06 bf c5 98 6e 3d
       -0.30182692 -0.25636667 -0.52410585 0.05825116
000240 58 75 8b be 55 2e 1b be 34 06 c1 be c4 63 a3 be
       -0.27237964 -0.15154393 -0.37700045 -0.31912053
000250 38 36 4e 3f e5 fc ea 3e fc 62 b4 be c2 30 ef 3d
       0.8055148 0.45896068 -0.3523177 0.11679222
000260 f2 1f 88 3e cb 42 14 bf a6 08 0a 3f ee cf 07 3f
       0.26586872 -0.5791442 0.53919446 0.5305165
000270 b9 d2 2e 3e ce d5 f8 be 40 c6 b0 3d 47 85 a0 be
       0.17072572 -0.4860062 0.08631563 -0.31351683
000280 0f 16 aa be 53 29 a7 3e 86 d3 ed 3e 15 56 4f 3c
       -0.33219954 0.32648715 0.46450442 0.012654801
000290 ad bf dd bb 86 17 3e bd f1 48 50 3e 5c 07 ec bd
       -0.0067672343 -0.046409152 0.20340325 -0.11524841
0002a0 ae 80 8d 3d 07 a7 92 bd 35 06 2e bf ad a8 1b be
       0.06909309 -0.07160764 -0.6797822 -0.15201063
0002b0 8f 2e 1d be 31 e0 e3 be a2 31 79 bd 35 94 9a be
       -0.15349792 -0.44506982 -0.06083835 -0.30191198
0002c0 25 68 60 be 08 78 0c 3e 83 d0 b0 bd e2 ff d1 3e
       -0.21914728 0.13717663 -0.086335205 0.41015536
0002d0 b0 1b d9 bd 68 d2 b8 3e eb 1e 83 bd 33 b7 3b bd
       -0.10600984 0.36098027 -0.064023815 -0.04582901
0002e0 66 c0 28 be 36 eb 62 be e1 8c 78 3e 63 68 ba bd
       -0.16479644 -0.22160038 0.24272491 -0.091019414
0002f0 6e 48 9d 3e ae c3 9d be 55 ae 8b 3e 62 bf aa 3d
       0.30719322 -0.30813354 0.27281442 0.083372846
000300 9f 7e 0b 3e f4 bb 28 be cc a4 7f 3f 99 3a 83 3d
       0.13622521 -0.16477948 0.99860835 0.06407661
000310 97 fe a1 3e 31 63 40 3f 54 ed e1 be 60 2e 8e 3e
       0.3163955 0.75151354 -0.4412638 0.27769756
000320 22 cd 4d 3e 13 67 44 3d 93 f6 6d be 50 1b e5 be
       0.20097783 0.04794986 -0.23238592 -0.447474
000330 6b 5f 9f bc da 96 60 be 5c 52 67 be ba ec 1b be
       -0.019454679 -0.21932545 -0.22590011 -0.15227023
000340 a4 e6 13 3f 7b 6e d0 bd c5 9b 17 bd 71 2c bd 3c
       0.57773805 -0.101773225 -0.037013788 0.02309248
000350 7a 3e c9 be f0 f9 19 bd cf 42 f0 3e 94 da 0e be
       -0.39305478 -0.037591875 0.4692597 -0.13950568
000360 bb ee da 3e 10 ef bb bd 23 8c 43 bd 86 76 48 be
       0.42760262 -0.09176457 -0.047741067 -0.19576463
000370 e2 a1 bc be 55 28 18 3e 1c cd 2d bd b7 97 14 3e
       -0.36842257 0.14859135 -0.042431936 0.14511
000380 ca ea 13 3e b9 36 52 3e 93 d3 97 be 6b 11 0e 3e
       0.14445034 0.20528688 -0.29653606 0.13873832
000390 90 15 eb 3d 9e 44 13 3e ab 24 7e be 76 b8 89 bd
       0.11478722 0.14381644 -0.24818675 -0.06724636
0003a0 22 7d dc be 79 98 2f 3d 5d 32 84 3e f4 83 f6 3e
       -0.4306422 0.04287002 0.25819674 0.48147547
0003b0 85 99 07 3e fc 7c 05 3f 75 76 19 3e 9b 24 34 3e
       0.13242157 0.52143836 0.14986594 0.17592089
0003c0 f1 95 68 3e d1 c6 dc 3c d7 1f f4 be ab 9f 80 3e
       0.22713448 0.026950272 -0.47680542 0.25121817
0003d0 ba 52 73 bd dc 56 c3 be 4c be bc 3e e8 7d 81 3e
       -0.059405066 -0.38152206 0.36863935 0.2529137
0003e0 62 81 64 3e 51 36 61 3d d2 4d 42 3e 36 83 4d 3e
       0.2231498 0.05498344 0.18974999 0.20069584
0003f0 9e 0b 74 be 86 3f b3 3e a4 3a 8d 3c 15 4a 1a 3e
       -0.23832557 0.35009402 0.017239876 0.15067323

net.4.layer.0.bias f4 [32]
000000 3a 8c 84 3c 6f 8a c5 3b c4 ca 27 3c 15 55 4d 3c
       0.016180146 0.0060284655 0.010241214 0.012532492
000010 9f 52 1e 3c f6 3c 96 3b 51 75 72 3c d6 ad 49 3b
       0.009663253 0.004584904 0.014798478 0.003077378
000020 fd d5 6e 3c ce c7 90 3c 61 ca 69 3c e2 54 9c 3c
       0.014577386 0.0176734 0.014269442 0.019083444
000030 02 a5 5a 3c 95 52 68 3c 3d 90 b8 3b 82 10 8f bb
       0.013345005 0.014179845 0.005632429 -0.0043659816
000040 f2 b5 83 3b 33 82 6e 3b e5 7c 72 39 c7 40 e5 3b
       0.0040194923 0.0036393523 0.00023125445 0.0069962475
000050 3b 39 4d 3a 6e 39 f6 3b 11 15 09 3c 4d 79 8e 3c
       0.00078286574 0.0075141704 0.008366839 0.017391825
000060 f5 7d 21 3c 22 f6 87 bc b6 38 9a 3c 74 b1 6a bb
       0.009856691 -0.016596857 0.01882587 -0.0035811337
000070 96 0a 5d 3a 2f 39 a4 bb 9f 09 96 3c ba 70 9b 3c
       0.00084320584 -0.0050116996 0.018315135 0.01897465

net.4.layer.2.weight f4 [32, 32]
000000 b0 05 27 be f1 9d 57 3c db f7 81 3e f2 98 c3 bd
       -0.16310763 0.013160215 0.2538441 -0.095506564
000010 01 d5 bc 3c e8 7e ce 3d da 22 3f be c3 a6 b4 3e
       0.023050787 0.10082799 -0.18665639 0.3528348
000020 e2 f2 18 bd c6 a4 5a bd fe 3c 2c 3f a9 b2 6f bd
       -0.037341006 -0.053379796 0.67280567 -0.058519993
000030 80 e7 08 3e fe 01 c6 3d d5 8c 80 3e ae 54 ac be
       0.1336956 0.09668349 0.25107446 -0.33658355
000040 a5 e6 35 bc 26 ce bb 3d 79 28 a1 3e 79 50 10 be
       -0.011102353 0.09170179 0.3147619 -0.14093198
000050 83 2c 79 bd 4e 3e 99 be 73 3f e0 3d aa dc ec 3e
       -0.060833465 -0.29930347 0.10949602 0.46262103
000060 a5 83 d9 be 1a 90 33 3e 5f 36 b1 be 85 2e be bd
       -0.4248325 0.17535439 -0.34611794 -0.09286217
000070 46 66 85 bd 46 e8 0f bd 46 aa ec 3d e6 9f 04 be
       -0.06513648 -0.035133623 0.115559146 -0.12951621
000080 99 92 9e bd aa cf 3e be b3 db 3e bf 65 c2 21 bf
       -0.07742805 -0.18633905 -0.74553984 -0.6318725
000090 f4 9c 5a 3c b8 3c 24 bc 95 0f 88 3d c3 08 db bd
       0.013343085 -0.010024242 0.06643597 -0.106950305
0000a0 3e 93 11 bd 30 c7 13 3e 74 76 83 3e d7 2f e0 be
       -0.03554081 0.14431453 0.2567631 -0.437865
0000b0 e3 bb 8a 3e 35 b8 8f 3d d5 fd 00 3f cf f5 73 bc
       0.2709647 0.070175566 0.50387317 -0.014890148
0000c0 9a 4b 50 bd 90 2a 9f 3e 73 fb 67 bf ad 84 98 3e
       -0.05085335 0.3108716 -0.90618056 0.29788724
0000d0 84 dd 7b be 9d 5b 65 bf 5d 59 ae 3d 7a c1 90 3e
       -0.2459622 -0.89592916 0.085131384 0.2827261
0000e0 65 6c 21 bf b9 24 84 be 46 b0 4e 3d ef 75 b6 3d
       -0.6305602 -0.25809267 0.050461076 0.08909213
0000f0 ad 80 df be 26 43 1c 3d 04 99 90 be 15 c0 66 3e
       -0.4365286 0.038149975 -0.28241742 0.22534211
000100 cd 21 98 3e 21 4f 91 3e f4 23 fa 3e 99 c4 8e be
       0.29713288 0.28380683 0.48855555 -0.27884367
000110 e7 c4 15 3f c0 29 44 3e 4c 79 49 3f ae d7 f5 bb
       0.58503574 0.19156551 0.7870071 -0.0075025177
000120 02 32 9e 3e f2 35 1c 3f 00 ec dc bd 9f 18 0c 3e
       0.30897528 0.61019814 -0.10787201 0.13681267
000130 8f bb f7 be 0b 1b 71 3e 02 13 bb be 32 42 eb 3d
       -0.48385283 0.23545472 -0.3653794 0.11487235
000140 6f 91 11 3e 7e 9b b3 3e 28 e5 57 bf c0 ba 58 3d
       0.14215635 0.3507957 -0.8433404 0.052912474
000150 ff ee 2f 3f 0a 3a 02 be 09 21 22 3f a1 ec 01 bf
       0.68724054 -0.12717453 0.6333166 -0.5075169
000160 ee 87 8f be cb b7 63 be c4 4d 7b be dc b2 96 3e
       -0.28033394 -0.2223808 -0.24541384 0.29433334
000170 d0 26 2e 3f 38 c5 a3 bc 4c 49 19 bd 73 4d 39 bf
       0.68027973 -0.019991502 -0.037423417 -0.72383803
000180 4f 60 50 bd 46 ed af bd 89 f0 27 be 04 ed 9c bb
       -0.050873097 -0.08590178 -0.1640035 -0.0047889967
000190 3f af d3 3e 95 04 a8 be 70 b2 06 3e b0 93 92 3e
       0.4134464 -0.32815996 0.13154006 0.28628302
0001a0 9a 5d 7e 3e cd 1e 76 3e cf 30 e6 bd 4f d5 d5 3e
       0.24840394 0.24035187 -0.11239778 0.41764304
0001b0 31 11 d1 3d df 6c ca 3d 41 c1 16 be a8 28 32 3e
       0.10208357 0.09884047 -0.14722158 0.17398322
0001c0 cb 41 74 be e9 ca 36 3e e6 ec 5f 3e 2a 81 11 3d
       -0.23853223 0.17850842 0.21867713 0.03552357
0001d0 d3 2c 64 3e 69 96 06 3f 53 b5 b3 3e 0c 8c 7b 3d
       0.22282724 0.5257326 0.35099277 0.061412856
0001e0 90 96 b3 3e 95 7a 89 3e cd 22 f2 bd 10 45 d7 3e
       0.35075808 0.26851335 -0.11823044 0.42044878
0001f0 cd 52 6f 3e e6 3b a1 3e 4b 23 10 ba d6 65 37 3d
       0.2337143 0.3149101 -0.0005498423 0.044774853
000200 76 0a c5 be c6 f5 1b bd 61 a6 60 be 26 cc ba 3e
       -0.38484544 -0.038076185 -0.21938469 0.36483878
000210 69 90 19 bf a9 8a 01 3e 2a 58 f4 be 94 1e 70 3e
       -0.5998598 0.12650551 -0.47723514 0.23449165
000220 22 ae 96 3e e5 77 12 3f 71 d0 97 bd 02 d1 39 3e
       0.29429728 0.57214195 -0.07412804 0.18146136
000230 3b 47 89 be 0e a7 be 3d fc f6 63 bd 7d e1 4b bd
       -0.26812157 0.09309207 -0.055655465 -0.04977559
000240 f4 2a 7b 3d e9 51 87 be fb 3c 32 bf 50 06 a6 3e
       0.06132026 -0.2642968 -0.696243 0.3242669
000250 57 a1 1a bf 1a 10 fb 3d 55 39 63 be 1f bc 96 3e
       -0.60402435 0.122589305 -0.22189839 0.294404
000260 80 e8 ff 3e c3 04 89 3d 70 c9 be 3c 2a 32 06 3f
       0.4998207 0.06690361 0.023289412 0.52420294
000270 e3 b9 a4 3e a5 ee 6c be 53 e7 3e 3d b9 0c 1a bf
       0.3217307 -0.2313791 0.046607327 -0.60175663
000280 55 89 31 3e c0 66 6f 3e f4 82 15 bd 4d 9b 80 3e
       0.17337544 0.2337904 -0.03650184 0.25118485
000290 89 a9 9f 3e ce 4c 7a bf 7a 2b 4f 3e 18 4b 47 3f
       0.31184033 -0.97773445 0.20231429 0.7784896
0002a0 00 0d da 3b 34 50 aa 3e 59 1b 63 bd 48 48 a6 bc
       0.0066543818 0.33264315 -0.055446003 -0.020298138
0002b0 12 ad 85 be 8f 36 f6 3e 4d c5 e3 3d 64 81 f8 3d
       -0.26108605 0.480885 0.111216165 0.12134054
0002c0 65 3f 2a 3d d9 23 df bd 95 3c 0b 3e d8 2c 0c 3d
       0.041564364 -0.10895509 0.13597329 0.034222454
0002d0 c4 82 51 bd a6 45 4f bf 5a 50 92 bc 58 55 e7 3c
       -0.0511501 -0.8096565 -0.01786058 0.028238937
0002e0 f5 2d f4 bd f5 32 a0 be 91 3e 7b be eb 67 59 be
       -0.11922828 -0.31288877 -0.24535586 -0.21231048
0002f0 ec d6 9e 3e 53 12 85 be a0 51 c4 3e fa e2 b7 3e
       0.31023347 -0.25990543 0.38343525 0.35915357
000300 73 2d ef bd 0b 39 b6 bd 47 b5 c9 bc e2 14 a7 3e
       -0.116785906 -0.08897599 -0.024622573 0.3263312
000310 7b 79 98 bd fb 15 4a be 4a 11 88 3e 8b b9 1b be
       -0.074450456 -0.19734947 0.2657569 -0.15207498
000320 68 ce d3 3e b9 3d 4b bc 9a 1b ac bc 05 3a 04 bd
       0.41368413 -0.012404853 -0.021009255 -0.032281894
000330 ff e0 82 be 97 a5 9b 3d 4b 12 b2 be 1f db 85 3d
       -0.25562283 0.07599943 -0.3477958 0.06535935
000340 ec e3 ca 3e c6 07 15 bf c1 97 67 3d e8 29 9a be
       0.39627016 -0.58214986 0.05654121 -0.30110097
000350 8b 25 98 3c 9d 00 dc be ac 3f 2b be b8 44 47 be
       0.01857259 -0.42969218 -0.16723508 -0.19459808
000360 25 19 3b 3d 4d d9 b6 be 38 71 79 bd f2 fe 12 bf
       0.045678277 -0.35712662 -0.06089899 -0.57420266
000370 68 ee b3 3d 35 c1 99 3e 88 1e 8d bb 9f b0 83 bd
       0.08785707 0.30030218 -0.004306618 -0.06430172
000380 76 bc 91 3e 31 f7 3f be 8c 1c 1f 3e af e4 3a 3f
       0.28464097 -0.1874664 0.15538234 0.73005193
000390 dd b9 0b 3d 28 45 ba bb ce 2e 47 3f b4 ab c9 3c
       0.0341128 -0.0056845136 0.77805793 0.024618007
0003a0 10 b0 96 3e 0c ba 3d be 7f 72 c1 3d 4d d0 75 bd
       0.294312 -0.18528003 0.094456665 -0.060013104
0003b0 fe 09 cb 3e 0e 45 35 be c1 ce 67 bd a7 c5 76 3e
       0.3965606 -0.17702124 -0.05659366 0.24098836
0003c0 24 4c bf bd 16 57 71 3d 28 f6 27 3c ad ad bc 3d
       -0.093406945 0.058920942 0.010251559 0.092128135
0003d0 53 2d 84 3e ac 8a 0a be 96 9e 9a be df 10 b6 bd
       0.2581583 -0.13529462 -0.30199116 -0.08889937
0003e0 33 41 84 be 53 e5 ff bd e5 a4 bd be eb 03 3b be
       -0.25830993 -0.12494912 -0.37039867 -0.18263213
0003f0 75 b9 62 be 1a 41 92 be 99 d2 a8 be 45 07 de be
       -0.22141059 -0.28565294 -0.32973173 -0.4336492

net.4.layer.2.bias f4 [32]
000000 60 75 0e 3c 67 90 86 3c 83 7f 13 bd 79 2c 4d 3b
       0.008694977 0.016426278 -0.036010277 0.0031307025
000010 f6 73 7c 3c 25 5c a0 3c 07 aa 06 3d b4 d7 08 3d
       0.015408507 0.019575188 0.032876994 0.033408836
000020 73 28 cc 3a 01 df 85 3c ed 96 61 3c 3b 42 4b 3d
       0.001557602 0.016341688 0.013768894 0.04962371
000030 04 ce 18 3c 18 2e c9 3b c9 db 77 3c f8 65 d5 3b
       0.009326462 0.006139528 0.015128084 0.0065123998
000040 24 49 86 3c f3 b7 2a 3c d6 97 35 3c 8c 3e 85 3b
       0.016392298 0.0104198335 0.011083564 0.004066294
000050 81 b5 0b 3c 13 19 e1 3c b0 78 d7 bb 3f 57 92 3c
       0.008527161 0.027477777 -0.0065756664 0.017863868
000060 21 a6 9d 3b 8d 55 da 3c b3 66 d0 3c c7 1c d6 3c
       0.004811064 0.026652122 0.025439596 0.026136769
000070 b6 81 ea bc e4 e0 38 3b 48 05 65 3c 95 fa da 3c
       -0.028626304 0.0028210217 0.01397831 0.026730815
