models/epinet_model.pth (torch, 32049 bytes, 28 tensors)

net.0.weight f4 [20, 1]
00000000: b3d5 263c f14e 123f af49 533f 2629 9c3e
00000010: beb7 b53e 6173 013e 3218 19be 5067 84bd
00000020: 8ab6 01bf 6369 1a3f ba4d 853f fa99 16bf
00000030: b49e 113f a719 14bb a40b 87bd fdb4 df3e
00000040: 9b08 2abf 4135 51bd ff3a 6cbf b993 483f
0.010182786 0.57151705 0.8253431 0.30500144 0.35491747 0.1264167 -0.14950636 -0.06465018
-0.5066916 0.6031706 1.0414345 -0.588287 0.56882787 -0.0022598298 -0.06594017 0.4369277
-0.6641938 -0.051076178 -0.9227752 0.78350407

net.0.bias f4 [20]
00000000: a999 a8bc 0ad7 233c 0ad7 233c 0ad7 233c
00000010: 0ad7 233c 72f2 ac3c bacd 533d e62e ac3c
00000020: 0ad7 233c 0ad7 233c 0ad7 233c 0ad7 233c
00000030: 0ad7 233c a6b0 b83d 75a8 9f3e 0ad7 233c
00000040: 0ad7 233c 5589 323e 0ad7 233c 0ad7 233c
-0.020581083 0.01 0.01 0.01 0.01 0.0211117 0.051709868 0.021018457
0.01 0.01 0.01 0.01 0.01 0.09018068 0.3118321 0.01
0.01 0.174352 0.01 0.01

net.2.layer.0.weight f4 [20, 20]
00000000: f266 53bd c569 46bf 1a5a 0b3f e007 5abf
00000010: d502 fa3d 8570 a2be 0f82 883e a303 c0be
00000020: 827d ac3e e2ec 3d3c 1b9f a23e 45eb 78be
00000030: b867 993e 5872 d9bc 8e91 e6be 8658 0d3e
00000040: 2dc1 54bf a3e0 3bbf 0550 95bb cfa0 3cbf
00000050: 217b 0cbf 288b d0bc 7fe1 7e3e ce55 c1bd
00000060: 1fc6 313f e768 203f bbb9 623d 51e3 333f
00000070: e88f 03bf 4a2a 993c 7a8f 98bd 452d c53e
00000080: d7dc 56bf c3e3 de3e 96c0 bb3e d138 67bd
00000090: 700a f63d c0ba cebd 93a2 ef3e f6ed 51be
000000a0: d9f9 fd3e d2b4 90bd 9deb 613c 81dd ef3e
000000b0: 523e 8c3e 93e5 c3be 7fed 4abe 1200 c53d
000000c0: fef2 a4be 187d bcbe 4c1b 83be 1301 89bf
000000d0: b401 2dbe 6534 f93d 32e8 4abd 2ae5 05bf
000000e0: 548c 18bf 7a18 b93e 1124 a6ba ab1b 4ebe
000000f0: 5b69 42be db64 a8bd e49c 9a3e e0d0 513d
00000100: 58b7 1a3d 3bc9 0b3f 6591 f5be c6d2 ecbd
00000110: 6b71 b33e 0191 413e b7fe 303f 89cb a03d
00000120: 01b2 093f 7ae6 0dbd 81e7 643f a8c7 a7bd
00000130: 921a 993e 716e 21bf dfdd debe 5d47 e5be
00000140: 44d9 b03e 0505 253f c568 76bd 356d 16bf
00000150: 1e8c febe e746 14bf 659a 97be 31c5 a7be
00000160: fc12 c2bc b7aa 00be ef14 37bd 00bc 83be
00000170: a78e 0c3f 3b8d 7cbe 7aa3 5e3b 5238 a3be
00000180: ea95 4f3d 0f20 7b3e 7c1b 56be 499b 7ebe
00000190: b453 613d 0862 d03d 5386 993d 9997 543e
000001a0: 546d 8fbd 3b75 5c3e 5c4d 8ebe c8a7 02be
000001b0: d131 3ebd 4b45 063f 807a 3fbe 9586 eabe
000001c0: 1233 4c3d 8201 103f 5b31 2e3f 3107 65be
000001d0: 8bfb 3fbe 5c73 86be 4aa1 133f ee83 03bf
000001e0: f071 19be 4e36 bc3c a89a 0ebe 9faf 0cbf
000001f0: 20db fe3d 65b0 2c3f 4542 153f f00c 20bf
00000200: 6d20 26bf cc9f 923e 1375 173e acdc 2fbe
00000210: 5200 80bd 4026 c3be 8bb9 3f3e a6ef 793e
00000220: 740b 0b3f 3add f6bd 404e efbc 724c db3e
00000230: 8bda 01bf d1e9 1e3f f936 073f b488 b13d
00000240: 9cd9 033d a402 68be 1ab6 f7be bc30 223f
00000250: 746b 9c3e 3251 a43e 1e46 93be a895 34be
00000260: 2af8 1e3f 8092 b63e 75df 953d b87c 2d3f
00000270: d7e0 303d 62ee 743e 1f96 8ebe f588 91bd
00000280: df83 11bd 9d5f c63e 39dc cebe 3a93 94be
00000290: 4b4d 6e3e bf24 133e 6288 78be f0c7 163f
000002a0: 8ee2 e23d 48b8 923e b8e4 91be cf4a 1b3e
000002b0: 1f66 f43c b0e4 b6be c8d4 223e fb01 0c3f
000002c0: db3c f03d 2666 083d a834 ac3e b2a5 6bbd
000002d0: 0385 86be 219b ca3e 326a f53d 61ea 713e
000002e0: 9ed4 293e 2cc3 95bd 913e 49bf 41ad 9dbe
000002f0: e0f3 5b3e 416e d7bd 9e6a aebe 2b5e f43e
00000300: b901 23bf 2d81 323f b9fb 0abe 950f 23be
00000310: 37be 8fbc 7e1e 373e f891 99be 06d4 9b3e
00000320: 1254 c03e 1184 e93d 48cd 1e3f 24fc 03bf
00000330: a757 b63d d264 cd3e 9d89 c8bc 009d 0dbe
00000340: 27d9 54be 130a 4cbf f039 1d3f b0e4 423e
00000350: d0ef e83e a7e3 3f3e 8d5e bbbe ccd3 46be
00000360: 7d5e b6be 12b9 df3e 0b62 afbd 97b0 e33e
00000370: 3f3f bebe 2f25 12bd b255 f03e a7eb 223f
00000380: 383f bf3e 235e 0ebe 15dd cbbe 69b1 be3e
00000390: b6aa ccbe ad5d d53d af23 d13e 3aec 6bbd
000003a0: d970 8dbe 052b 28bd 52e3 943e 9ec8 783e
000003b0: b303 9e3e 4bf4 ba3e 8e34 94be 0b0e c43e
000003c0: 0630 48be 3a86 51bb 2fe9 00be 2097 f6be
000003d0: 81f6 ca3b 7cf9 e5be c4af c8be 112f f93d
000003e0: 52c9 e8be b2c0 28bf 8b99 c63e 2004 813e
000003f0: 6e4d d9be df4a bbbe 2ce2 df3e 680f 693d
-0.05161185 -0.7750514 0.5443436 -0.85168266 0.122075714 -0.3172647 0.26661727 -0.37502775
0.33689505 0.011592122 0.31762013 -0.24308498 0.29961944 -0.026543781 -0.45032924 0.138033
-0.8310726 -0.73389643 -0.004556658 -0.73682874 -0.5487538 -0.02545698 0.24890707 -0.09440194
0.69442934 0.6266007 0.055352908 0.7026873 -0.5139146 0.018696923 -0.07449241 0.385111
-0.83930725 0.43533143 0.3667037 -0.05645067 0.120137095 -0.100942135 0.46803722 -0.20500931
0.4960468 -0.07065739 0.013789085 0.46848682 0.27391297 -0.3826109 -0.1981716 0.09619154
-0.32216638 -0.3681419 -0.25606763 -1.0703453 -0.16895181 0.121681966 -0.049537845 -0.523028
-0.59589124 0.36151487 -0.0012675544 -0.20127742 -0.18985502 -0.08222362 0.30197823 0.05122459
0.037772506 0.5460393 -0.4796249 -0.11563639 0.3504747 0.18902971 0.69138664 0.07851321
0.5378724 -0.034643628 0.89415747 -0.08192378 0.29903084 -0.63059145 -0.4352865 -0.44781008
0.3454076 0.64460784 -0.06015851 -0.58760387 -0.49716276 -0.5792069 -0.2960998 -0.32767633
-0.023690693 -0.12565123 -0.0446977 -0.2572937 0.5490517 -0.2466325 0.0033971951 -0.31878906
0.05068008 0.24523948 -0.20908922 -0.24863924 0.055011466 0.10174948 0.074963234 0.20760955
-0.070032746 0.21529095 -0.27793396 -0.12759316 -0.046434227 0.5244948 -0.18699074 -0.45805803
0.049853392 0.562523 0.6804406 -0.22366025 -0.187483 -0.26259887 0.5766798 -0.51373184
-0.1498487 0.022975113 -0.13926184 -0.54955477 0.124441385 0.67456657 0.58304244 -0.6251974
-0.6489323 0.2863754 0.14790754 -0.17174023 -0.06250061 -0.3811512 0.18723123 0.24407825
0.5431435 -0.12053914 -0.029212117 0.4283176 -0.50724095 0.62075526 0.52818257 0.08668652
0.03218995 -0.22657257 -0.4838112 0.6335561 0.3055073 0.32093197 -0.28764433 -0.17635214
0.6209742 0.35658646 0.07318012 0.6776843 0.043183174 0.23919061 -0.27848908 -0.071062006
-0.035526153 0.38744822 -0.40402392 -0.29018575 0.23271672 0.14369486 -0.24270776 0.5889883
0.11078368 0.2865622 -0.2849481 0.15165256 0.029833851 -0.3572135 0.15901482 0.5469052
0.11730357 0.03330054 0.33633924 -0.057531066 -0.26273355 0.3957148 0.11983146 0.23624565
0.16585013 -0.07312617 -0.78611094 -0.30796245 0.2147975 -0.10519076 -0.34065717 0.47728094
-0.63674504 0.69728357 -0.13572587 -0.15923913 -0.017546756 0.17882726 -0.29994178 0.304352
0.3756414 0.11402143 0.62031984 -0.5155661 0.08903437 0.40115982 -0.024479682 -0.13829422
-0.20785962 -0.7970287 0.6141653 0.1903255 0.45495462 0.18739186 -0.36595574 -0.19416732
-0.35618964 0.43695885 -0.08563622 0.44470665 -0.37157628 -0.035679992 0.4694038 0.63640827
0.3735292 -0.13903098 -0.3981711 0.37244728 -0.39973992 0.10418258 0.40847537 -0.05759833
-0.27625158 -0.04105665 0.29079682 0.2429528 0.30862197 0.36514506 -0.28946346 0.38291964
-0.1954957 -0.0031970874 -0.12588952 -0.48162174 0.0061939363 -0.44916904 -0.391966 0.1216718
-0.45466095 -0.6591903 0.3878902 0.2519846 -0.42441887 -0.3658056 0.43727243 0.05689946

net.2.layer.0.bias f4 [20]
00000000: 6087 073c 6d27 bd3c e81c 243c 0fbd 133c
00000010: 94f7 cb3b 458b 4f3c d78f 3e3b 4b93 de3c
00000020: 856d 763b ed84 1c3d d20a 1fbc 28c6 373c
00000030: 467e 6d3d 9810 db3b ea6f be3c 7133 853a
00000040: 6bf4 c53b e779 233c 8090 eb3b a388 cc3b
0.008272022 0.023090089 0.010016657 0.009017243 0.006224582 0.012667482 0.0029077434 0.027169844
0.00376019 0.038212705 -0.00970717 0.011216678 0.05798175 0.0066853277 0.023246724 0.0010162425
0.0060411 0.009977794 0.0071888566 0.0062418743

net.2.layer.2.weight f4 [20, 20]
00000000: 41df 1fbf 4c2e 543e e1a1 173e 1026 63be
00000010: 13de 443e 74fe d1be 7e6a 413e 4e1c f23e
00000020: 20bb 2abf b58f acbe 5bc2 9bbe 9343 3fbe
00000030: f37a 023e 73dd e33e 3eab 2e3e d1da fa3d
00000040: 4dd8 a53f 5314 a23d c91b eebe 8140 6cbf
00000050: 77ed 8cbe 0f1a f03e 9583 42be df6f 8c3e
00000060: 33f9 04bd a862 15be 8731 14bd 239d 1c3e
00000070: 8e76 3f3c b6e5 70bd 0aad 533e 91ff 6e3e
00000080: 35f0 963e 99e0 d6bc e869 dfbd ccf9 b53e
00000090: 61a2 833e ce03 c43d 3dc0 913e a32f f73d
000000a0: 1011 55be 24e5 a2bd 9372 013f 9444 ac3d
000000b0: 6a23 babc d962 0abd e7ae d4bd 72f0 adbd
000000c0: 3fe7 543f febd 0dbe 9551 023f 7280 c1be
000000d0: a2f9 83be 1f8e efbe 4ca2 29bf 5bbe 213f
000000e0: 8815 be3e 9da7 ad3c 4232 83bd e264 d23e
000000f0: 86de 023e 9ad4 493e ec6e d83d 5a58 ce3e
00000100: b728 c4bc 6f62 fd3d 159c 4ebe f9e9 f4be
00000110: 2a90 8b3e 78ff cebe 47bd bdbd dd39 133e
00000120: 42ff 133e 2922 0dbf e0b0 05bf b4d7 c13d
00000130: 85a8 94be 6154 19bf cec4 a83f 098c 093e
00000140: 43f1 c7be 12b6 05bc 4ebc f3be 5106 97be
00000150: e234 043e 310a a63e 6949 693e b078 acbe
00000160: 7892 893d b87c 23be 5a59 c3ba c41a b0bd
00000170: ae66 09bf 35d8 313e 2e09 01be 9084 a53d
00000180: cb7f 2cbf 95d6 163f f245 95be 9cd5 f23b
00000190: 3d4b 973d 46c3 79be a372 f6bd a971 e43d
000001a0: 3f8e e33c 9f88 453e c07e 753e 89ec 79be
000001b0: b4bc 3cbf 8b34 98be fbb9 a9be 595b 283f
000001c0: aaaa f13e b369 82be a75d 863d 4062 eebe
000001d0: 625c e9be a131 28bf e3aa b73e 0e64 15bf
000001e0: aeb4 a0be b6d3 b2be d40d 803d 049b 06bf
000001f0: 0506 a43e e98b 0f3f ce2c 6cbe 97f3 5dbc
00000200: 0813 9bbe 007e 043f 4782 173e 6782 f0bd
00000210: 4ef1 14bf a686 9e3d 7fb3 903b 1995 373e
00000220: 50ec ac3e 83c7 4dbe 057d 70bf 6fee 2fbe
00000230: 688a df3e b876 43bb 49d7 9bbd 1442 613f
00000240: e584 90be 71fc 23bd 063a db3e e84a 95be
00000250: 9592 0e3f c7bc f5be fbc7 b63e c6fb e2be
00000260: a789 93be eee2 bfbd c3aa 27be 9a41 563e
00000270: 96c2 1c3e b967 38be 288b c43e 2ff2 923e
00000280: b089 803f c102 293e 515a b3bd d9c9 7abf
00000290: 5214 45be b9f3 cebe a1d9 3cbf 0987 46be
000002a0: 3dbd b6be 9601 b5be 25f9 393f 77e5 babe
000002b0: 9d58 ab3e 8ff3 2abe 440b 8b3e e19a bcbd
000002c0: 589a 3ebe 7253 41be ba3c 0cbe 11cd ac3e
000002d0: 40f8 af3e 5528 06bd ef3c d8be 4a05 b8bd
000002e0: 33ce db3e d2b7 a63e 8552 b9bd 5247 b6be
000002f0: 7002 543e 7263 54bd e732 9ebc 690e 1cbe
00000300: 1a95 dd3e dcea 773e 237b 863e 5892 403f
00000310: a139 4ebe df7b c83e 6dec 3abd 23d2 a9be
00000320: 66d5 f0be 0e1d a03d 9cdc 013f 6965 873d
00000330: 7bef 13be a265 8bbe 41d4 6f3e feb7 13bf
00000340: 7eb2 2dbe 3f70 d13e e6d7 90bd efd6 09bd
00000350: ddc2 b03c 58c3 8dbe 6091 d5be cdf8 0cbf
00000360: a2df b23d cca3 8bbe 4464 b0be fd59 1fbf
00000370: 927d 5bbe aa01 0d3d dd6e 4ebe 3a60 df3d
00000380: 5c9f a73d 41fd 48be a2c0 7ebd d93f 85bc
00000390: c779 0abc 0aed 5dbe 4475 0c3f 0031 fc3e
000003a0: 3163 92bd 7d91 7d3f 3842 3d3d da90 b33e
000003b0: 8bc9 d03d 9ff0 833d d4b8 debd cbfc 6c3e
000003c0: e563 a73e a150 b93e 9f1d 413d f687 6cbd
000003d0: 6c9a f6be 32e1 1a3e 5e56 97be 04cb 1b3e
000003e0: b15c 033f eb61 a23e 3b1e fd3d 230f e4be
000003f0: 64d3 8d3e 28b8 abbe 932d 05be f886 ebbe
-0.62450033 0.20720786 0.14807846 -0.22182488 0.1922534 -0.41014445 0.1888828 0.4728722
-0.6669178 -0.3370339 -0.3042172 -0.18678121 0.12742214 0.4450489 0.17057511 0.12248767
1.2956635 0.07914033 -0.46505573 -0.92285925 -0.2752492 0.4689488 -0.18995507 0.274291
-0.032464217 -0.14588416 -0.036180045 0.15294318 0.0116859805 -0.05881282 0.20671478 0.23339678
0.29480138 -0.026230143 -0.10908872 0.35542142 0.25709823 0.09571038 0.2846698 0.12069633
-0.2080729 -0.07953861 0.5056545 0.08411518 -0.022721965 -0.033785675 -0.103849225 -0.08493127
0.83165354 -0.13842008 0.50905734 -0.37793308 -0.25776392 -0.46788117 -0.6626327 0.63181084
0.37125802 0.021198088 -0.0640607 0.41092592 0.12780198 0.19710007 0.10568032 0.40301782
-0.023945196 0.1237229 -0.20176728 -0.47834757 0.27258426 -0.40429282 -0.092646174 0.14377542
0.14452842 -0.5513025 -0.52223015 0.0946497 -0.2903482 -0.59894377 1.318506 0.13432325
-0.39051256 -0.008161085 -0.47604603 -0.29497007 0.12910798 0.3242965 0.2278191 -0.33685827
0.0671739 -0.15965545 -0.0014903948 -0.08598855 -0.536723 0.17367633 -0.12601158 0.08081925
-0.67382497 0.58921176 -0.29154927 0.007410718 0.073873974 -0.24390897 -0.12033584 0.111544915
0.02777779 0.19290398 0.23974133 -0.24406637 -0.7372544 -0.29727587 -0.33149704 0.65764385
0.4720052 -0.25471267 0.065608315 -0.46559334 -0.45578295 -0.6570073 0.35872564 -0.58355796
-0.31387848 -0.34927148 0.062526375 -0.52580285 0.32035843 0.5607286 -0.23063967 -0.013546846
-0.30287957 0.5175476 0.1479579 -0.11743622 -0.581807 0.07740526 0.004415929 0.1792797
0.33774042 -0.20095639 -0.93940765 -0.17180799 0.43660283 -0.00298254 -0.07609422 0.8799145
-0.2822639 -0.04003567 0.42817706 -0.2915871 0.55692416 -0.47995588 0.35699448 -0.44332713
-0.28815958 -0.09369455 -0.16373734 0.20923463 0.15308604 -0.18008317 0.38387418 0.28700396
1.0042019 0.16504957 -0.08757461 -0.97964245 -0.19246033 -0.4042032 -0.73769575 -0.1938745
-0.35691252 -0.35352772 0.7264579 -0.36503193 0.33466044 -0.16694473 0.27157032 -0.09209228
-0.18613565 -0.18879488 -0.1369504 0.33750203 0.34369087 -0.032753307 -0.4223399 -0.08985384
0.42930755 0.3256212 -0.090489425 -0.35601288 0.20704055 -0.05185265 -0.019311382 -0.15239872
0.43277818 0.24210685 0.2626582 0.752233 -0.20139171 0.39157006 -0.04563563 -0.33168134
-0.4703781 0.07818042 0.5072725 0.06611139 -0.14446823 -0.27225977 0.23420812 -0.57702625
-0.1696262 0.4090595 -0.07072429 -0.033652242 0.021577293 -0.27688098 -0.41712475 -0.5506714
0.08734061 -0.27273405 -0.34451497 -0.62246686 -0.2143462 0.034425415 -0.20159478 0.10907026
0.08184692 -0.19627859 -0.062195428 -0.016265796 -0.008451886 -0.21672454 0.54866433 0.49256134
-0.071478255 0.9905012 0.04620573 0.3507145 0.10194691 0.06442379 -0.10875097 0.23143308
0.326934 0.36194327 0.04714739 -0.05774685 -0.4816469 0.15124968 -0.2955808 0.15214163
0.5131331 0.3171533 0.12359282 -0.44542798 0.2770034 -0.33538938 -0.13005666 -0.4600141

net.2.layer.2.bias f4 [20]
00000000: 4147 de3b e3fc 6e3c 5a5a a03b 0bad 56bc
00000010: 295b f13b 2384 983c dc06 d93a 4873 083b
00000020: b552 08bc d495 ff3b 8397 f53c 1945 dfbb
00000030: dbc3 3f3c 1029 733c 684e 893c cd85 4ebb
00000040: e4a2 423c fb91 253c ffcb e83c ccb1 f63b
0.0067833965 0.01458666 0.0048935832 -0.01310278 0.0073656035 0.018617695 0.001655783 0.0020820666
-0.0083205 0.0077998433 0.029979473 -0.006813657 0.01170441 0.014841333 0.01676102 -0.0031512857
0.011879656 0.010105605 0.028417585 0.0075285193

net.3.layer.0.weight f4 [20, 20]
00000000: 6d2e 17bf 0e3f 0bbf 1dc7 be3d 1749 fabe
00000010: 81a8 fbbe 245f 543d 3784 bbbe 6a05 02bf
00000020: d57b 20bf 9f16 e13e ec95 debe 6d31 b43e
00000030: 3932 7abd 2a6c babe 4944 7a3f 8472 023f
00000040: baf9 47be 63d3 5e3f 45bb c2be e9d9 ae3e
00000050: b6a7 b4be bdad e4be 3646 0f3f 1b1d 803f
00000060: 107a d8bd 165d 65bd 7b4a cb3e b110 30bf
00000070: 563b 62be 89b7 9e3e 5f8b 05be 0cb1 7f3e
00000080: 470f e2bd 8c4c f03e 8461 afbe 0dc5 d2be
00000090: 32ea e6be 090f 703e d6c0 3abe 700f 6a3f
000000a0: dfd2 a7bb 161b 0f3f d0cc b83e 187a 7dbe
000000b0: 74c0 69be 7b78 bcbe b4b1 333e f61b 1c3f
000000c0: 5064 033c 49e5 c9be 07fd 8b3e 2716 043e
000000d0: 6abc 913f 832c 8abe ea1d d23d 900d 27bf
000000e0: 27bc 0fbe 8bd5 c1bd a0f9 8c3c 49f0 b0be
000000f0: f6b0 963e c286 9c3d 1b08 653e 2e60 a93e
00000100: 5b34 80bd 8363 c33e 5fd3 37be 08af e23e
00000110: 9665 133e 022d 20be aff2 97bd 78d9 98be
00000120: cceb f8bd 123a 1ebe 9950 b9be 47eb 8f3f
00000130: 47d1 ea3e 4074 c3bd 3f57 f03c 8272 133e
00000140: c90b 0f3e 4b20 133d 34d1 37bd 79bd 283e
00000150: 0820 90be df2f a9bc 4e1d 4dbd 70df 2a3e
00000160: 29c2 bfbe 183a ed3e 1089 97be 2006 553e
00000170: a518 c13d 6314 29bf 5e9c 1cbf f8a2 03be
00000180: 3e0c fc3e 9ce5 d03d c6b9 1a3d 458d 96be
00000190: 3b51 323e 9fbf 8e3e ab27 25bc 1274 80be
000001a0: 8af7 b53e dd93 223f 3f73 393e 9056 563f
000001b0: 5f58 393f fe77 3c3e c5ea 383c 4b76 04be
000001c0: c4e3 ac3d 3498 84bd c481 edbe 197e 313e
000001d0: b1ed e93e 9484 a63e 743e efbe f0e7 50be
000001e0: ed7e c6bd 38ac a5be bf20 9dbe 96cb 5ebf
000001f0: 22ae bfbd 0d78 c83e 6e13 98be eeb4 3fbe
00000200: 10fe c93e b9eb 1a3f 3fe3 c7bd 67a3 cdbe
00000210: 79da e9bd d20d ddbe 6170 bfbe 9f70 4abe
00000220: 8e2d 013f 4352 cabe 4c51 903d 7d16 b8be
00000230: 9a8e 893e b6de abbe 4feb 0c3f 49a6 c83e
00000240: 5ba8 c43e 5c67 073e 76ac 64bf 565f 853e
00000250: 24dd 813e 0e25 9ebd ff6f 40be d4d1 c23d
00000260: f235 413d 03e3 a43e d4e4 e4be 6914 d0be
00000270: ed47 febe 131f aa3e 8f0a 24be 79af 753d
00000280: 25e8 df3e b0af e7bd 47e8 6b3d ee8f 86be
00000290: 60df ac3d 621b f1bc 8b8e 1abd bddc 003f
000002a0: 6fdb 8abe b54c a5be 9dbf f3bd d3c7 0a3f
000002b0: e3f3 99be a215 05bf c448 efbe 5507 a0be
000002c0: 25d2 803e fad9 7abe 4808 b53e 7d7c 453e
000002d0: 7c96 a53e f90c 4cbc bcc2 54be e02e c1bf
000002e0: 8b4c 7fbe 2638 1e3d fed5 3d3f 10bf f33e
000002f0: ebda 33be e325 dfbd 40d2 cebe 8e60 75be
00000300: e18f 343f 8283 f43d 3329 0bbf bce4 aabe
00000310: 4aae 353e c384 8fbe f57d 333f 5961 073f
00000320: 7a8a c4bd 30eb 8e3e 6511 ecbe d519 75be
00000330: 15fa 38bf 29fe 88bd 582d 1ebf 556c 16be
00000340: ed70 b53e a862 423e ec7a b3bd 82b3 863d
00000350: dfc7 c63e f535 223e 31b6 bd3e 1c90 003f
00000360: 09d5 493e 682c 91bd 0137 b9be e800 38be
00000370: 571a 773e f6d9 ddbe d8bc c83d 79f6 613d
00000380: 060d bcbe cf08 bd3d a16a d5bd ec7f 2bbe
00000390: 1dea 22be 1da7 dd3d efb2 0c3f 6862 d43e
000003a0: f749 a83d 1b89 10be 8adf 1fbe b806 69be
000003b0: 329d 16be 2868 303f 5932 2b3e 2f34 18bf
000003c0: 1185 8f3d df20 2cbe 6702 923d c22d 46be
000003d0: e511 0a3f 0cd9 3d3e 3b29 0f3f 71e3 0c3f
000003e0: 0b3f 693e 6542 c93e d400 31bc 16cc a6be
000003f0: cee7 debe c819 173f f649 d9be 3666 4c3d
-0.59055215 -0.5439309 0.093153216 -0.48883888 -0.49151996 0.051848546 -0.3662431 -0.5078951
-0.6268895 0.4396257 -0.43473756 0.3519396 -0.061083052 -0.36410648 0.97760445 0.50955987
-0.19528857 0.870413 -0.380335 0.34150627 -0.35284203 -0.44663802 0.5596651 1.0008882
-0.105701566 -0.055996977 0.39705262 -0.6877547 -0.22092947 0.309994 -0.13041447 0.24969882
-0.1103807 0.469334 -0.34254086 -0.41165963 -0.45100552 0.23443235 -0.18237624 0.91429806
-0.0051215733 0.55900705 0.3609376 -0.24753606 -0.22827321 -0.3681067 0.17548257 0.60980165
0.008019522 -0.39432743 0.27341482 0.12899075 1.1385624 -0.26987085 0.10259612 -0.6525507
-0.14036618 -0.09464558 0.017208874 -0.34558323 0.29431885 0.076428905 0.22366373 0.33081192
-0.06259986 0.3816186 -0.17951725 0.44274163 0.1439422 -0.15642169 -0.07419335 -0.29853415
-0.1215435 -0.1545184 -0.36194304 1.1243676 0.4586279 -0.09543657 0.029338477 0.1439915
0.1396934 0.03591947 -0.044877246 0.16478528 -0.28149438 -0.02065271 -0.050076775 0.16686797
-0.3745282 0.46333385 -0.29596758 0.20803118 0.09428529 -0.6604673 -0.611761 -0.12855136
0.4922809 0.102000445 0.037774824 -0.29404655 0.174138 0.2788057 -0.010080258 -0.25088555
0.3554042 0.6350687 0.18110369 0.83725834 0.7240047 0.18405148 0.011286442 -0.1293575
0.0844188 -0.06474343 -0.46388066 0.17333259 0.45689157 0.32523024 -0.46727335 -0.20400977
-0.09692178 -0.32357955 -0.30689046 -0.870294 -0.09359385 0.3915409 -0.29702324 -0.18721363
0.39451647 0.60515934 -0.09760141 -0.4016373 -0.114186235 -0.43174607 -0.37390426 -0.19769524
0.50460136 -0.39515886 0.07046756 -0.35954657 0.2686661 -0.33568352 0.5504655 0.39189366
0.38409695 0.13223022 -0.89325655 0.26049298 0.2536403 -0.07721911 -0.18792723 0.09512678
0.047170587 0.32204446 -0.44705832 -0.40640572 -0.4966425 0.33226833 -0.16019653 0.059981797
0.437318 -0.113128066 0.057594564 -0.26281685 0.08441043 -0.029432002 -0.037733596 0.5033682
-0.2712054 -0.32285085 -0.11901782 0.5421116 -0.30068883 -0.51986134 -0.46735203 -0.31255594
0.25160328 -0.24497214 0.3535788 0.1928577 0.32341373 -0.012454265 -0.2077741 -1.509243
-0.24931543 0.038627766 0.7415465 0.47606707 -0.1756398 -0.10895898 -0.40394783 -0.23962614
0.7053204 0.119391456 -0.5435974 -0.33377635 0.17742267 -0.28030977 0.7011407 0.52882916
-0.09596725 0.2791381 -0.4610702 -0.23935635 -0.72256595 -0.06689102 -0.6178794 -0.14689763
0.35437718 0.18982947 -0.0876368 0.06577207 0.38824365 0.15840895 0.37053064 0.50219893
0.19710173 -0.07088548 -0.36174777 -0.17969096 0.24131142 -0.43330353 0.09801644 0.055166695
-0.36728686 0.09230196 -0.104207285 -0.16748017 -0.1590962 0.1082289 0.5496053 0.41481328
0.08217233 -0.14114802 -0.15612617 -0.22756469 -0.14708403 0.6890893 0.16718425 -0.59454626
0.07007802 -0.16809414 0.071293645 -0.19353393 0.53933555 0.18539828 0.5592229 0.5503455
0.22777955 0.39308468 -0.01080342 -0.3257758 -0.43536228 0.59023714 -0.4243924 0.049902163

net.3.layer.0.bias f4 [20]
00000000: fa0b f33c 5ef0 92bc 3272 823c ad6c e93c
00000010: 5cca 98bc 001d a0bc f84b ce3c 7aa9 5c3b
00000020: cc51 75bc 8db4 8b3c 67ac bebb b0e2 cabb
00000030: fc2f 00bc 5ab2 843c 51c8 193d d22e 673c
00000040: 9697 a03b ddee 193c ebea 8b3b 0df6 b13a
0.029668797 -0.017936882 0.015923593 0.028494203 -0.01865118 -0.019545078 0.02518271 0.0033670352
-0.014973115 0.017053867 -0.005818892 -0.006191574 -0.00782394 0.016198326 0.037544552 0.014110284
0.004900883 0.009395328 0.0042699478 0.0013577357

net.3.layer.2.weight f4 [20, 20]
00000000: e5e6 023f 160d 9ebe 3a06 853d b9f1 0b3e
00000010: c86a 563e e458 49bc 1a39 e2be b7d0 1f3d
00000020: 75dc 403e 5bf3 f2bd ded7 2cbf 219f 0d3e
00000030: 7ade 05bf 7dd8 5fbe 0d41 ca3d 6a82 17be
00000040: 3cee 14bf dab2 2fbe 985f 3dbb 92f0 25bf
00000050: e948 33bf 8c3d ab3d 0c11 013d e2db e4bd
00000060: 7b2b 98bd 7462 603e e7f7 043d 1ecb 253f
00000070: 61aa 0dbf 3751 d53e b308 563e 2f53 513e
00000080: da83 9b3e 6f2e ffbd 91ff 8e3b 07b2 9f3d
00000090: abe0 1a3e 2c32 18be 8feb 07bd 1473 0d3e
000000a0: 3684 e83d ca20 1f3e d629 6e3e 00ac 8d3e
000000b0: a7f7 263e 67cc 5b3e a06b b43e 2d72 90be
000000c0: ba1a 763d 7c51 2abe fc4c cbbe 32ff d53d
000000d0: 1b72 9dbc 0f4f 7f3f 5c08 a23e 4536 253f
000000e0: 573b 033f a36a 243f e313 373d 91db 1ebf
000000f0: 415a a0be bad4 b33e 6ee3 d5bc 8058 81bc
00000100: be53 28be 451e 68bf 19f7 b3be 1325 41bd
00000110: 3066 693e c380 dcbe caa6 9f3d 823c 053e
00000120: 16d1 16bf 0e21 4abf 888e d03e ceaf bfbe
00000130: b5c5 96be 6566 79be 14b5 b2be 9bd0 85bf
00000140: fa4a 13bf 126d 063f ba70 a73e fb83 0f3e
00000150: 84b1 d13e cfd8 4d3e 2459 20bf c234 723e
00000160: 1455 3fbe 8e40 e53e fdb8 1a3e 2afa 2bbf
00000170: d7c3 22be 139d b4bd 1a1e 0d3f 18f7 c33e
00000180: 232c 36be 3aca 87bd 0550 15bf 96d6 c93e
00000190: 684a 673e 080c 163e 59f5 e8bd c384 963d
000001a0: 6e33 a53b 0dba 5f3e b1ea ffbe 6633 8bbd
000001b0: c4f9 9a3d 601a 36bf 3e63 f9be 8fdc 003f
000001c0: 86cb 703e 4896 313e b95a e23d dbad f2bc
000001d0: 46d5 0cbf 3e65 3f3f 21cb c4bc 3670 acbe
000001e0: a737 f63e e6ed ca3c 3d76 a3be 5ff8 763e
000001f0: 6c14 ff3e 9af9 bd3e cdae 953e f31f f23d
00000200: 5840 933e eafd b03e 95ef ad3e 2b26 f23e
00000210: 1662 3bbf 6640 b8be 4a1c 173c 5460 4bbe
00000220: 5ea8 f7be 2063 733e e077 343f 4603 9dbe
00000230: 3a34 5e3e 8572 88be 40f3 d73e 9e9a fbbe
00000240: fbc0 c1bc eacb 0c3e 6ce8 a03d 05da ddbe
00000250: 5a3a 853e fad4 aa3e 5b06 ff3e 235e 073f
00000260: 5066 27be 9226 16bf 99bb febe 0ae0 b6be
00000270: ca19 843e bc23 0d3d fed1 b3be 65bb 813e
00000280: 2a91 bb3e b74f 25bf d3c2 39bf 8320 373f
00000290: bdc1 a4bd 43fb b03e 51d9 8c3e 7dc1 bdbe
000002a0: 51d2 093f 6b53 80be a2ca 82be 04ce efbe
000002b0: 850a f13d 6c24 d23e 087a 033e 9391 dcbe
000002c0: 678c 503e a23f b8be 0be4 a13e 2402 b6be
000002d0: 4c48 e2be a162 2cbd 8350 cf3d 8bfd 0ebf
000002e0: 14c2 cc3e 5112 95bf 6015 a13e 4856 943b
000002f0: c828 86be d941 2dbe 9c2d 5f3d 5eb7 e43e
00000300: 33c7 0b3d eb67 b1bd e61d 9ebe 8fe0 243e
00000310: 6824 e43d 62b7 833e 358a 43be 2aab 51be
00000320: d99e 803e f9f5 003e 1fdc 893e f13e 56bf
00000330: cb5d ad3d a620 79be bd62 2a3f 2896 283e
00000340: 7f96 183f 0bef 1fbd 80d8 fe3d e5de 7fbe
00000350: 616e e2be e942 823e bd6f afbe c3e5 763d
00000360: 26fc 473e 17be 20bd edf3 863f a0d6 36bf
00000370: 1a89 913e c2dc 3abf 2350 083f cfe9 42bd
00000380: a6f5 b3be d2b5 f4bc ede4 34be 6155 80be
00000390: 3694 b3be 89d3 1ebd f78f 183f 3bf8 a63e
000003a0: 56de 84be b134 003e 5417 813e cfc2 fc3d
000003b0: 43e5 49bf 0ac7 06bf 5be4 1cbb bea0 a93e
000003c0: 8eab 153e f72a 313e 4fcd 28bd 326a d0bd
000003d0: f7eb ba3d 21d6 e03e cdf2 0d3e 8e9f b83e
000003e0: eaec b8be 96ba 793e 5014 f13d 5da9 373e
000003f0: 326f d73d be61 5dbf 36ba 03be 89c4 d1bd
0.5113357 -0.3086936 0.06495328 0.13666429 0.20939171 -0.01228926 -0.4418419 0.039017405
0.18834098 -0.118628226 -0.6751689 0.13830234 -0.522926 -0.21859927 0.09875689 -0.14795843
-0.58176017 -0.1715807 -0.002889609 -0.64820206 -0.7003313 0.083613485 0.031510398 -0.11174752
-0.07430168 0.21912557 0.03246298 0.6476306 -0.553381 0.41663525 0.20901756 0.20441888
0.30374032 -0.124600284 0.004363962 0.07797628 0.15124767 -0.14862889 -0.03318363 0.1381343
0.11353342 0.15539852 0.23258147 0.27670288 0.1630541 0.21464692 0.3523836 -0.2821211
0.060084082 -0.16632646 -0.39707172 0.10449065 -0.019219449 0.9973001 0.31647003 0.64535934
0.5126242 0.64225215 0.0446967 -0.6205378 -0.31318858 0.35123235 -0.026109423 -0.01578927
-0.16438195 -0.9067119 -0.35149458 -0.047154497 0.22792888 -0.43066987 0.07795484 0.13011363
-0.5891279 -0.7895669 0.40733743 -0.37438816 -0.29447713 -0.24355467 -0.34903777 -1.0454286
-0.5753628 0.5251018 0.3270319 0.1401519 0.40955746 0.20102237 -0.6263602 0.23652938
-0.18684798 0.44775814 0.1510963 -0.67178595 -0.1589502 -0.08819022 0.55124056 0.38274455
-0.17790274 -0.066303685 -0.58325225 0.3942153 0.22586977 0.14653027 -0.11374921 0.07349541
0.0050415313 0.21848316 -0.49983743 -0.06796913 0.0756717 -0.71133995 -0.48708528 0.50336546
0.23515138 0.17342484 0.1105246 -0.029623916 -0.5501293 0.7476386 -0.02402264 -0.3367936
0.48089334 0.024771642 -0.31926146 0.24118184 0.49820268 0.37104493 0.29234925 0.118225
0.28760028 0.3456872 0.3397185 0.47294745 -0.7319654 -0.35986632 0.009223053 -0.19860965
-0.4837064 0.23768282 0.70495415 -0.3066656 0.2169961 -0.2664987 0.42177773 -0.491414
-0.02365159 0.13749662 0.07856831 -0.43330398 0.2602108 0.33365613 0.49809536 0.52878016
-0.16347623 -0.58652604 -0.497525 -0.35717803 0.25800925 0.034457907 -0.3512115 0.25338283
0.3663419 -0.6457476 -0.72562903 0.71533984 -0.08044765 0.34566697 0.2750955 -0.37061682
0.5383654 -0.25063643 -0.25545222 -0.46836865 0.117695846 0.41043413 0.1283952 -0.43079814
0.20366059 -0.35986048 0.31619295 -0.35548508 -0.44195783 -0.042086247 0.10122778 -0.55855626
0.3999182 -1.1646215 0.3146162 0.004526887 -0.2620299 -0.1691965 0.054486856 0.44671148
0.034125518 -0.08662399 -0.30882186 0.16101287 0.111397564 0.25725847 -0.1909569 -0.2047545
0.2512119 0.12593831 0.26925752 -0.8368979 0.08465155 -0.2432886 0.6655691 0.1646353
0.5960464 -0.03904633 0.12443638 -0.24987371 -0.44224837 0.25441673 -0.34264937 0.06027771
0.19529781 -0.039243784 1.054319 -0.7142124 0.28424913 -0.729931 0.5324728 -0.04758626
-0.35148352 -0.029871855 -0.17665453 -0.2506514 -0.35074013 -0.038775954 0.5959467 0.3261126
-0.2595088 0.125201 0.2521311 0.12341844 -0.7886545 -0.5264746 -0.0023939821 0.3313045
0.14616224 0.17301546 -0.041211423 -0.10176505 0.09127038 0.43913367 0.13862152 0.3605923
-0.3611825 0.24387583 0.117714524 0.179357 0.10519256 -0.8647727 -0.12864003 -0.10242564

net.3.layer.2.bias f4 [20]
00000000: db29 d53c caea 53bc ef96 b438 3c2b aa3a
00000010: 4e00 b1bc da98 f13c 09f2 d73d 1325 a5b9
00000020: df34 09bd 9572 6fbc 68e7 b03c a2ed 0d3c
00000030: e32f 6a3c b9b2 df3c a512 0bbd 5885 883c
00000040: f644 f03b d397 653c d773 e83c efcb bd3c
0.026020935 -0.012934396 8.6111824e-05 0.0012982856 -0.02160659 0.02949183 0.105442114 -0.00031498875
-0.033497687 -0.014614721 0.021594718 0.008662613 0.014293644 0.027306901 -0.033953328 0.016665146
0.0073324395 0.0140132485 0.02837555 0.023168532

net.4.layer.0.weight f4 [20, 20]
00000000: e2e9 4bbd b01d 19bf 78a7 debe 43cd 073e
00000010: 610f 18be 537d 863e 0f23 06be 8b29 24bf
00000020: ed58 a13e d435 9c3e 3aab 08be 2b37 253e
00000030: 69bd 2dbe be3a c9be 30af 99bc 0e06 3a3f
00000040: c0c0 35be 3d55 d0be 8b40 273e 8462 89be
00000050: a43d cfbd 2d25 90be 8efb b33c 7c68 373f
00000060: 89d6 073e 28ef 0bbf 3d4f 0f3f 3a80 acbe
00000070: d80e eb3d a145 79bd cc64 fdbe e617 c5be
00000080: 796d 45be c1c7 c3be d764 073f 81c0 b6be
00000090: ea29 19bf 2547 febe b8cf ad3d 68a3 f33e
000000a0: 2a4f 07be 5288 0f3f cc02 2fbf 2f69 31bf
000000b0: 09fe ee3e 6741 5b3e cb49 26be 1eaf 053f
000000c0: d4d2 f9bc fc18 e43e 9429 26bf 8bb5 e6be
000000d0: 717e 893e 27f6 cabd 7a49 013e 702e 123e
000000e0: c977 fabe 04df bd3e 4b04 32be 4d93 92be
000000f0: 3659 8fbc af87 f1bd 0a37 cbbc 2a3f f4be
00000100: b31d 1d3f bf4c a1be c59c 8a3e 07d8 9ebe
00000110: e63b 95bd 3b25 a53d 23d9 fb3e 1781 b6be
00000120: c006 9ebe cf62 1eba 1856 05be 521e 42be
00000130: ca40 f63c e163 a9bd 4f23 cabd 5fa3 34bd
00000140: 3df2 19bd 5158 6e3d d48d 47bd 7459 e4bd
00000150: e466 d0be 9667 c53d f196 063e d74c 97bd
00000160: 7046 d1bc ff1b b6be 34d4 c2bd 9d3a 1f3e
00000170: 0b31 e93e ea74 153d 8c9e 5f3e 11c3 df3d
00000180: ba6a 89be c822 a33e 3e3b 493f 35e1 58be
00000190: 6e89 dfbe 3cc7 8c3e 8779 bc3e b21b aebe
000001a0: f282 c5be c81e 19bf 7777 17bf d845 063e
000001b0: b4e8 9cbe 5629 853d 8360 743d ccef 3fbe
000001c0: e251 80be 31c7 523d 8354 7f3e 73f1 acbd
000001d0: 4a70 0e3e a65b 8fbc 1e66 eebe 6279 ce3d
000001e0: 65b9 dcbd 31d5 56be ba45 76be 1cb6 283e
000001f0: 9119 213e 51ae 06be 561f a53d dbec 393e
00000200: 7c73 1bbe d730 cdbe 605e 05bf 9a6e 153f
00000210: 90c0 023d e793 b93e 556b 34be 8552 e73c
00000220: 59f5 99bd 98ce f5bd 4876 083f fd92 bfbe
00000230: be87 f9bd f3d0 713e cc37 d1be 62af 7b3f
00000240: 6cfc a83d 8ef7 f03e 32a6 ac3e 9234 d03e
00000250: 8399 f03d 48ca 113f bf08 5abe c2be cebe
00000260: 33ca 083f 07ca d43d 900a c03e cced 8b3e
00000270: 5b8c 9cbe 7a10 453f 1cdb 8fbe 6c6e 253e
00000280: 7ad7 42bf 2733 ba3e f9aa a7be 00f3 32be
00000290: fa62 a43e fa05 643c 92bc febd a565 823d
000002a0: e93a 133f df62 dd3e a5e9 17be 88db d73e
000002b0: 1c46 5cbe 9b26 3d3e ba90 853e f9b3 d3bd
000002c0: b4d1 a63e f1e5 be3e 003e 0ebf ae73 08bf
000002d0: 7c0a f7be 3b2b 833f e936 ba3d a56f 323f
000002e0: c93b 123f 617e d53e f521 08bf 424c 22bf
000002f0: f8b2 0abf 8b38 023e dbe2 35be 8aae 583f
00000300: 7725 4f3f 1e72 1bbe e414 b7bd f81b e43e
00000310: 39da 463f 629a 9c3e 2946 523e 3bbf 013f
00000320: a955 04be 446d f5be 8e18 053e 4b40 92bb
00000330: 9993 3fbf 4e26 9d39 d973 a63d ddbf 963d
00000340: 2b57 243f eada 5dbe 5f01 4f3f 4cee 83be
00000350: 671a e03e ce8e 31bf 73e3 16bf d3bd 9c3d
00000360: 1ce1 5539 8fcc 323e b95f 1d3d 39f3 af3c
00000370: 0b33 173e db4f 08bf 7288 23be 504e 67bd
00000380: 82d2 2d3e ed2a 95be 5563 df3e b929 0fbf
00000390: 54b8 3ebe 5817 d4bd 86aa 18bf ab4b 1ebe
000003a0: f6f7 febe 3e55 8c3d edf8 12be e5ed 333e
000003b0: 2cc9 9ebe c52b 7d3e 3a08 9b3e 62a1 6fbd
000003c0: 9091 0d3e cca9 033f 04bf 903d 4335 973e
000003d0: 456a 4f3d 11f5 1b3f 439c d13d 4a25 6fbe
000003e0: 4e16 463d e95a 59bf a7b4 08bf 0449 8d3d
000003f0: 0177 0bbf 3003 a5be 32ff 603e 8881 2b3f
-0.049783595 -0.59810925 -0.43487144 0.13261895 -0.14849617 0.2626749 -0.13099311 -0.6412589
0.31513157 0.30509818 -0.13346568 0.16134326 -0.16966785 -0.3930263 -0.018760294 0.7266549
-0.1774931 -0.40690032 0.16333215 -0.26832974 -0.10119179 -0.28153363 0.021970537 0.71643806
0.13265432 -0.546618 0.55980283 -0.3369158 0.114774406 -0.06085742 -0.49490964 -0.38494796
-0.19280042 -0.38238338 0.52888244 -0.35693744 -0.5982958 -0.49663654 0.08486885 0.47585607
-0.13213792 0.56067383 -0.6836364 -0.6930112 0.46678188 0.21411668 -0.16239087 0.5222033
-0.030496038 0.44550312 -0.64907193 -0.4506038 0.2685428 -0.09910231 0.12625685 0.14275527
-0.48919514 0.3708421 -0.1738445 -0.28628007 -0.017498594 -0.11793458 -0.024806518 -0.4770444
0.6137344 -0.31503865 0.2707273 -0.3102419 -0.07286815 0.08063742 0.491891 -0.35645363
-0.30864525 -0.00060419453 -0.13021123 -0.18956879 0.03006019 -0.082710035 -0.09870016 -0.044101115
-0.037584532 0.058189694 -0.048719242 -0.11149874 -0.407035 0.09638898 0.13143517 -0.07387703
-0.025546283 -0.35568234 -0.09513131 0.15549703 0.4554523 0.03648845 0.21837825 0.10925878
-0.26839238 0.31862473 0.7860602 -0.2117966 -0.43659538 0.27495754 0.36811468 -0.34005505
-0.38576466 -0.59812593 -0.59166664 0.13112581 -0.30646288 0.06502025 0.059662353 -0.18743819
-0.25062472 0.051459495 0.24934582 -0.0844449 0.13910022 -0.017499756 -0.46562284 0.10081746
-0.10777549 -0.20979764 -0.24050036 0.16475719 0.15732409 -0.13152434 0.080626175 0.1815676
-0.15180773 -0.40076324 -0.5209713 0.5837189 0.031921923 0.36245653 -0.17619069 0.02823759
-0.075174995 -0.12002295 0.5330548 -0.3741683 -0.12184094 0.23614864 -0.40862882 0.9831449
0.08251271 0.4706387 0.33720547 0.40665108 0.1174803 0.5694928 -0.21292399 -0.40379912
0.5343353 0.10390096 0.3750806 0.27329862 -0.30575833 0.76978266 -0.28096855 0.16155404
-0.7611004 0.3636715 -0.3274763 -0.1747551 0.32106763 0.013917441 -0.12438311 0.063670434
0.57511765 0.43239495 -0.14835222 0.42159677 -0.2151112 0.18471758 0.2608698 -0.103370614
0.32581866 0.37284806 -0.55563354 -0.53301513 -0.48250186 1.0247568 0.090925045 0.69701606
0.57122475 0.41697982 -0.53176814 -0.6339761 -0.54179335 0.12716882 -0.1776232 0.84641325
0.8091654 -0.15180251 -0.089395314 0.44552588 0.7767673 0.30586535 0.20534576 0.5068242
-0.12923302 -0.47934926 0.12997648 -0.0044632307 -0.7483459 0.00029973913 0.08127565 0.07360814
0.6419551 -0.2166554 0.8086147 -0.25767744 0.43770143 -0.6935853 -0.5894081 0.076533936
0.00020397123 0.17460845 0.038421366 0.021478282 0.14765565 -0.5324685 -0.15970019 -0.05647117
0.16974834 -0.29134312 0.43630472 -0.5592304 -0.18625003 -0.10356015 -0.596352 -0.15458553
-0.49798554 0.06852196 -0.1435277 0.17571218 -0.31012857 0.24723728 0.30279714 -0.058503516
0.13825059 0.51430964 0.07067683 0.29532823 0.050638456 0.60920817 0.10234883 -0.23354068
0.048361115 -0.8490434 -0.53400654 0.06898692 -0.5447846 -0.32228994 0.2197235 0.66994524

net.4.layer.0.bias f4 [20]
00000000: cde9 cb3c 1f5a 383c 0d81 f43a d568 bf3c
00000010: 6ce6 0f3c bfb7 b4bc fde5 d83c 127b 853b
00000020: 3076 283c eeb1 73bc 4458 003d 8417 f3bb
00000030: ac4f b53c 9cbc 923c 836d 02bb fd7d bd3c
00000040: 9e2b 603b 45de 663c 567e 6bbc 813e ecbb
0.024891758 0.011251955 0.0018654183 0.023365417 0.008782964 -0.022060273 0.026476854 0.004073509
0.010282084 -0.014873965 0.031334177 -0.0074185748 0.022132717 0.017912202 -0.00199017 0.023131365
0.0034205685 0.014091079 -0.014373383 -0.0072095995

net.4.layer.2.weight f4 [20, 20]
00000000: aa42 f93d cfaa 433d f650 57bf 0f8a 383f
00000010: a169 6d3e 7f3a d8be 1aee f5be d020 29bf
00000020: a59f 69bd 577a b9be 1650 de3e c40f aebe
00000030: f906 1f3f c2c2 543f 4b00 683c 9d04 81be
00000040: a71c 353f 6a8d 9bbd 472b 763e 8175 abbe
00000050: b11e 923e aaab 7ebd 3633 bebe 6309 29bf
00000060: e369 e33e f833 a23d 823d 603f 220b 72be
00000070: 46a1 bf3e 3c3c 1ebe 24b1 d4be 1630 5ebe
00000080: 2756 b83d 57b0 14be aadd b13d 1961 93bd
00000090: 88f2 a2bc ebdf a43e 4eca 9ebe b566 67bf
000000a0: 8e28 3bbf 36de 01bd 85a3 abbe 306d dabe
000000b0: 5cf2 663e 0c66 92be 60cc debe 7c54 1a3e
000000c0: c64e 33be 5872 22be a65e b7be 001c 85be
000000d0: 34cf 0ebf 45ba debe 9b9a 0b3e 0aa5 2f3f
000000e0: e8ab b73d ea4e a33d 8188 dfbe 54ff 143f
000000f0: dd87 963e 8178 003f 89a6 463d 474a fa3e
00000100: 5d1d 593e 1a1d 2a3e 4b21 b03e f393 53be
00000110: e8d9 f2be a990 3ebf c818 5dbe a69f 1bbf
00000120: b69c 053e b48b 663e a3f9 4fbe 7b9d 233f
00000130: ac1b 53be 110a b0bb 9ad5 403e 5e1b ff3d
00000140: 93c7 363e 844e 2dbf 6fe4 d33e ffe8 b8bd
00000150: 2cf6 36bd ac77 d9bd b553 97be 6a1f 2abf
00000160: 4221 a9be 6676 70bf b467 f83e 260a d6bc
00000170: 6928 efbe 5a2c 7abe cfbe cbbe 2956 09bf
00000180: 53fe cf3e cf60 08bf f6ce c83d 1cfd 993c
00000190: e97f 833e 8c24 403e d843 873d 6f59 e0be
000001a0: c9b7 a13d 2f87 273e 09e4 bf3e db46 ae3e
000001b0: ded8 273f e1cc d43e e6c9 25bf 1877 0f3f
000001c0: d6c6 d43e 77c4 cabc 1201 0b3f 4d1c 6d3e
000001d0: ab1f 9fbe 4e88 c73e 33e4 04bf 4a2e 5a3e
000001e0: 5ada b53e 6b65 fa3e 8b55 36bf 1b9a cb3d
000001f0: 91a1 b93e eaba f53d 3949 e5be 3584 cbbe
00000200: 87d1 bd3e 1bcd 8dbe 6eaa 163f 9854 1f3c
00000210: f01c e73d 4919 ee3e 99f3 9ebd 80db a6be
00000220: 4fed f83e 9180 e0be cd02 e8be 0013 6a3d
00000230: 35a2 41be 807e 8d3e 0636 c23e 27e4 20be
00000240: 2328 59bb a6ad adbd 4157 2fbe c80d b6be
00000250: e5ab 743e 77db 443f f4d9 1bbf 1581 97be
00000260: fd31 583f 9be1 403f 9a01 ad3e 7e76 b83d
00000270: acf1 76be 2f79 8abd 46f3 043f 9537 3dbf
00000280: 817e 4fbe c098 763d 925e adbe 4e1e c6be
00000290: ebc7 f03d 194f a7be 4b52 103f 741b a03e
000002a0: 2447 863e 707e 5dbd 2b14 39bf 6d30 073e
000002b0: 9584 cc3d bad5 ab3d 872c 41bd 54d7 76be
000002c0: db6d b9be 28e1 803d 8751 2cbe f0cc 973e
000002d0: 11af 31bf 5c5f 52be cb65 a2be 111e c73d
000002e0: 1cd2 6ebf c823 073e c8d9 9f3e 4dcd 503e
000002f0: bcc9 51be 5e41 5a3f 4398 c4bd 98ad fc3e
00000300: 8639 28be 12b3 2a3d 1750 4cbe 8d34 f6be
00000310: 657f 313e 0140 443e 448e 673e acf0 163f
00000320: 7540 23be 2e98 b1be b2b1 413f 90b5 f6be
00000330: 906d b83e c76c a23e ccab 033f 3732 3f3d
00000340: 7cee c2bd f36e e8bd 5584 cbbe 40c9 2dbe
00000350: 34a5 b23d 8d92 20bf 513e 02be 87c7 343d
00000360: 7e25 f83e 581d 1dbe b9df 8c3e d89d 26bf
00000370: 5ca7 003f 3be7 7f3e 87b2 983e 6561 d0bd
00000380: 1ee8 0fbe ccd8 1dbe cfe7 efbe 558b d2bd
00000390: 2a90 18bd c920 7ebe 8d36 bfbe 522b 17bf
000003a0: d7e1 fa3c 516e 9d3d a42f 7c3e 3487 4bbe
000003b0: a324 bbbe 92ca c1be 80a1 61be b20b 623e
000003c0: f0ff 24bf c207 13bf da37 c33d 0c62 c1be
000003d0: c846 ef3e 9dc5 61be 7952 09be fda4 013c
000003e0: 5c5a 153e df9b a13e c002 663e 9c59 4fbf
000003f0: 5e30 f53d 8f75 a0be 14de e23e ee68 a8be
0.12170918 0.047770318 -0.8410791 0.7208566 0.23184825 -0.4223213 -0.4803322 -0.6606569
-0.057037015 -0.3622615 0.43420476 -0.33996403 0.62120014 0.83109677 0.014160226 -0.25198832
0.70746845 -0.07595332 0.24039946 -0.33488086 0.2853904 -0.06217543 -0.37148446 -0.6602995
0.44416723 0.079200685 0.87593853 -0.2363706 0.3742773 -0.15452665 -0.41541398 -0.21698031
0.09000807 -0.14520393 0.08684857 -0.07196254 -0.019891039 0.32202086 -0.3101372 -0.90391093
-0.73108757 -0.031706057 -0.33523193 -0.42661428 0.2255339 -0.2859348 -0.435153 0.1507129
-0.17510518 -0.15863931 -0.358144 -0.25997925 -0.55784917 -0.43501487 0.13633196 0.68611205
0.089683354 0.07974036 -0.43658832 0.582021 0.2940053 0.50183874 0.048498664 0.48884794
0.21202607 0.16612664 0.344004 -0.20661907 -0.47431874 -0.74439484 -0.21591485 -0.6079048
0.13048062 0.2251423 -0.20310073 0.6391217 -0.20616025 -0.0053722938 0.18831483 0.12456392
0.17849569 -0.6769793 0.41385219 -0.090288155 -0.04466836 -0.10618529 -0.2955605 -0.66454184
-0.33033186 -0.9393066 0.4851662 -0.026127886 -0.46710518 -0.24430981 -0.39794013 -0.53647095
0.4062372 -0.5327272 0.098051 0.01879745 0.25683525 0.18763942 0.06604737 -0.43818232
0.07896382 0.16360162 0.37478665 0.34038433 0.6556529 0.4156256 -0.647612 0.560411
0.4155795 -0.024751885 0.5429851 0.23155327 -0.31078848 0.3897118 -0.51910704 0.2130672
0.35518152 0.489055 -0.7122428 0.09941503 0.36256078 0.11998542 -0.44782427 -0.39749303
0.3707392 -0.27695546 0.58853805 0.009724759 0.11284816 0.46503666 -0.07761306 -0.3258934
0.48618552 -0.43848088 -0.45314637 0.057147026 -0.18909533 0.27635574 0.37931842 -0.15712033
-0.0033135496 -0.084803864 -0.17123128 -0.3555739 0.23893698 0.76897377 -0.60879445 -0.2959067
0.84451276 0.75344247 0.33790284 0.090069756 -0.24115628 -0.06761395 0.51933706 -0.73912936
-0.20263101 0.060204268 -0.33861214 -0.38694996 0.11756881 -0.32677534 0.5637557 0.31270945
0.2622615 -0.05407566 -0.722964 0.13202067 0.099862255 0.083903745 -0.047161605 -0.24105579
-0.36216626 0.06292945 -0.16827975 0.29648542 -0.69407755 -0.20544189 -0.31718287 0.097225316
-0.9328935 0.13197243 0.3122084 0.20390816 -0.20487112 0.8525599 -0.09599354 0.49351192
-0.16428193 0.04167468 -0.19952427 -0.48086968 0.17333753 0.1916504 0.22612864 0.58960986
-0.15942557 -0.34686416 0.75661767 -0.48185396 0.3602109 0.31723616 0.51434016 0.046678748
-0.095181435 -0.11349287 -0.397494 -0.16971302 0.08722916 -0.6272362 -0.12719084 0.044135597
0.48466104 -0.15343225 0.27514437 -0.650846 0.5025537 0.24990551 0.29823706 -0.101748265
-0.1405339 -0.15414733 -0.46856543 -0.10280482 -0.03724686 -0.24817194 -0.37346306 -0.59050477
0.030625267 0.07687057 0.24627548 -0.19875795 -0.3655139 -0.3784986 -0.22034264 0.22074774
-0.6445303 -0.5743371 0.09532137 -0.37770116 0.4673369 -0.2204804 -0.13410367 0.007912871
0.1458525 0.31564233 0.22461987 -0.8099611 0.11972116 -0.3133969 0.44310057 -0.32892555

net.4.layer.2.bias f4 [20]
00000000: 99fa d73c eb20 2dbc af30 f23a 5859 213c
00000010: 56cb a43c 2051 d23c dca5 7d3d 03f1 313d
00000020: 9406 d9bc cf24 18bc b30b fcbc 51f4 5f3c
00000030: 57d2 c83c 6066 ac3b ea2c 11bb 258e 743d
00000040: 5dcf b63c 5f79 643c c689 033d 6815 873c
0.026364611 -0.01056693 0.0018477644 0.009847961 0.02011649 0.025673449 0.061925754 0.043442737
-0.026492395 -0.00928612 -0.030767297 0.013669089 0.02451436 0.0052612275 -0.0022152015 0.059705872
0.022315675 0.013944953 0.032113813 0.0164897

net.5.layer.0.weight f4 [20, 20]
00000000: d321 193f 4388 46be 75da 42bf ef52 71be
00000010: 9334 73be 58b4 cbbe ea51 89be 99ad c9bd
00000020: 062d f0be 252b d43d 3732 cabe 21cb 333e
00000030: c094 d2be 433b 39be 13d8 29bf f934 7cbe
00000040: b5a9 acbe 7bce 5fbf a5ba 7c3e 3044 d6bd
00000050: 6460 0bbe bbc3 723b 05be f2bd 6034 8fbe
00000060: f57f 25bf 4508 833f 48a4 abbe 8e25 383e
00000070: b8cb 713e e982 17bd 29bf 03be 793b e73e
00000080: 5ee4 6ebe a365 e73e 1ec1 193e 2218 323e
00000090: e4ef 123d ed2a d7be 99c4 9c3e 68b2 623f
000000a0: 1804 82be 6128 f93c 06e6 7c3f 1b29 6e3e
000000b0: 882c a4be 9427 a2be 8b3c ffbe e3be 48be
000000c0: 0c86 1c3e e62e 9f3e b762 3f3f c43a 8e3e
000000d0: 9d46 c6be 0517 72be 87e9 b8bd ed53 10bf
000000e0: 7712 93bd aa48 dabe 566a 0fbd 75cc f3bd
000000f0: 8787 693e 780f 16bf 878b 2c3e f9ca 25be
00000100: 06fc b6be 4e59 4dbe 346e 8a3d a47f 853c
00000110: 6e2d 09bf 200f 0a3e de23 16be fe33 743e
00000120: 6963 b23e ea2c b1be ae6d 39be 75e6 76bc
00000130: 5548 09bf b636 0f3e 5312 98bd 904a ff3e
00000140: b632 d93d 2b53 12bf 7e65 113f af3d 1c3e
00000150: 0807 b23d 6b5e 023e b235 c7be cd53 0abe
00000160: 7db0 a53e 4ecc 553d d29a afbd 15a9 efbd
00000170: 6131 59be 6898 443e 74c6 193d 7d86 9cbe
00000180: a0b7 e2be a110 7cbe b5ff f23e ccb4 4e3d
00000190: 9821 243f ec6f 013e ffb2 5b3f 67e3 12be
000001a0: 610f 783e 30d3 4b3e 8401 9bbe 6436 d93c
000001b0: bd5d 76be f3fb 733f a0f2 463e 956c fb3d
000001c0: e44b 1bbd d134 26bf c831 9e3e 6cda f7be
000001d0: 7860 9e3e 6270 9dbe 58f0 77be 3420 b6be
000001e0: 93a4 923d 9222 27be f3fc c93e 7f26 2b3d
000001f0: 2fa4 073e f61c 14bf e40b 54bd 9d23 debe
00000200: d40a 353e e43f 3cbf 4be0 aa3e 607b 423e
00000210: f313 c9bd 4efa a9be 49bd 62be 9962 3d3e
00000220: 1f1a 2cbe a9e2 19bd f637 5fbe 876a b0be
00000230: 6165 a93e ff10 a0be f444 aabd 7055 003e
00000240: 210d eebe fb98 1a3e afb7 5cbe 2437 ff3c
00000250: 0a8d 4bbe 1dd2 5ebe 718b ea3d e10e b1be
00000260: 3d70 d9be cc1d 16bf 89ef 303f 0d77 e93e
00000270: 04a2 2fbe 891b 45be 1c73 323e 0efc 8b3e
00000280: 6215 533d f271 29bd cf33 0cbf 796f 8e3e
00000290: 4e71 aa3d ef98 97be 1cab 8cbd 7769 08bf
000002a0: 41e0 053f b8f2 663c 44ec 3b3e 5476 2c3f
000002b0: f319 a73e f533 72bd 8d19 b83e 131a 2e3f
000002c0: 2c85 0d3f 5e06 5bbb 272f 8e3e 8a2f 44bc
000002d0: d890 ed3d 2f0f a53e bf99 cc3e cc58 983e
000002e0: fe9a a9be edb6 323e 50c0 8dbe 5818 083f
000002f0: a228 ef3e b312 0cbd 8196 ea3d 0b6f ebbe
00000300: 425b a1bd 867b c8bc b38a 743c 50c5 37be
00000310: 301f 0c3f 7a98 eb3e 3dc3 983e 9db6 dc3e
00000320: fecb 8e3e 9920 f93e 1c69 eabe f7f0 53bf
00000330: 013e e83e 632b 1cbf 3b45 8dbb 66fa 34be
00000340: 01d4 36bc a575 abbe 3860 1f3e 1635 cbbe
00000350: 9a2e 2bbf 3c55 683d d6b3 773e 8964 153f
00000360: 6712 fcbd 1a3f db3e 21de 05be e6c3 16bf
00000370: f5f5 0c3f 5f65 49bf 25fb 363e 4c67 c5bd
00000380: 91fd c1be cac5 113e c293 5e3d e876 233f
00000390: 6db7 613c e761 dabd d0ed d7be 5f7c 043f
000003a0: f9b4 d23d ee13 043f d588 d83c 1b2b 843e
000003b0: 71b9 003e a88b 90bd 6ac6 f33e 46bf 153a
000003c0: 99f3 ccbe f9d2 353e ace3 9b3d 8fb5 f0be
000003d0: f159 ed3e 7b1d ed3e 3754 1a3f 2ded 9dbe
000003e0: e917 bb3d bc78 a2be e186 fc3d e504 a6be
000003f0: e380 c5be e4cd e6be 0566 a43e 02aa 853e
0.59817237 -0.19387917 -0.7611459 -0.23566793 -0.23750524 -0.3978603 -0.26820308 -0.09847564
-0.4690935 0.10359792 -0.39491436 0.17557956 -0.41129112 -0.18089013 -0.6634533 -0.24629582
-0.33723226 -0.8742444 0.24680574 -0.104622245 -0.13610989 0.0037042934 -0.118526496 -0.27969646
-0.6464837 1.0236899 -0.33523774 0.17983076 0.23612869 -0.03699008 -0.1286589 0.45162562
-0.23329303 0.4519473 0.15015075 0.17392018 0.03587331 -0.42024937 0.30618742 0.88553476
-0.25393748 0.030414762 0.9878849 0.23257868 -0.32065225 -0.3167082 -0.49850878 -0.19604068
0.1528551 0.31090468 0.7476 0.2777921 -0.3872575 -0.23641594 -0.09028917 -0.5637806
-0.07181256 -0.42633563 -0.03501352 -0.119042315 0.22805606 -0.58617353 0.168501 -0.16190709
-0.35739154 -0.20053598 0.06759301 0.016296215 -0.53584945 0.13482332 -0.1466212 0.23847958
0.3484147 -0.3460458 -0.18108246 -0.015069594 -0.53625995 0.13985714 -0.0742537 0.49861574
0.106053755 -0.57158154 0.5679549 0.15257905 0.08692747 0.1273133 -0.38908154 -0.1350853
0.32361212 0.052196793 -0.085744515 -0.11702172 -0.21210243 0.19198763 0.037542775 -0.30571356
-0.4428072 -0.24615718 0.47460714 0.05046539 0.6411376 0.12640351 0.8582 -0.1434456
0.24224617 0.1990478 -0.30274594 0.026515193 -0.24059196 0.9530632 0.19428492 0.1227657
-0.03791417 -0.6492434 0.30897355 -0.4840883 0.30932975 -0.30749804 -0.24212778 -0.35571444
0.07160296 -0.16321781 0.39450797 0.04178476 0.13246225 -0.5785669 -0.051769152 -0.43386546
0.17679912 -0.7353499 0.33374247 0.18992376 -0.09818258 -0.3319878 -0.22142519 0.18494643
-0.1680684 -0.037569676 -0.21798691 -0.34456274 0.33085158 -0.31262967 -0.08313933 0.12532592
-0.46494392 0.1509742 -0.21554445 0.031154223 -0.19878021 -0.2175984 0.114523776 -0.34581664
-0.42468444 -0.58639216 0.691155 0.4559864 -0.17151648 -0.19248785 0.17426723 0.2734074
0.051534064 -0.041368432 -0.54766554 0.27819422 0.083223924 -0.29608867 -0.06868574 -0.53285927
0.5229531 0.014095955 0.18351847 0.67368054 0.32636985 -0.05913158 0.35956994 0.68008536
0.5528133 -0.0033420543 0.2777035 -0.011974225 0.115998924 0.32238147 0.3996105 0.29755247
-0.33126062 0.17452593 -0.27685785 0.53162146 0.46710688 -0.03419752 0.114544876 -0.45983157
-0.07878734 -0.024472963 0.014925647 -0.17946362 0.5473509 0.46014768 0.29836455 0.43108073
0.2789001 0.48657683 -0.45783317 -0.8278956 0.45359805 -0.610037 -0.0043112314 -0.17673644
-0.011158944 -0.33488193 0.15564048 -0.3968894 -0.66867983 0.05672191 0.24189696 0.5835653
-0.123081975 0.4282158 -0.13073017 -0.5889267 0.550628 -0.78670305 0.17869242 -0.09638843
-0.37888768 0.14235607 0.05434013 0.6385331 0.013776642 -0.10663205 -0.42173624 0.51752275
0.10288424 0.5159291 0.026432434 0.25814137 0.1257074 -0.07057887 0.47612315 0.0005712401
-0.400296 0.17756261 0.07611784 -0.47013518 0.46357682 0.46311554 0.6028475 -0.30845013
0.0913542 -0.31732738 0.123304136 -0.3242561 -0.38574895 -0.45078957 0.32109085 0.26106268

net.5.layer.0.bias f4 [20]
00000000: 04c8 ea3c e40f 333a 61cd 263c 4dc2 5c3b
00000010: cad8 b83c 7729 383d 8272 cbbc 9fab 583d
00000020: 5fa4 9cbd 3b4b b7bc c153 b2bc 6493 113d
00000030: 953b 333c f596 563c f919 153c 6aa1 723c
00000040: d387 e4bc 277b fb3c 9d89 163b 5a39 143d
0.028659828 0.0006830676 0.010180802 0.0033685148 0.02256431 0.04496142 -0.024834875 0.052898046
-0.07648539 -0.02237474 -0.021768453 0.035540953 0.010939498 0.013097514 0.009100431 0.014808992
-0.027896797 0.030698372 0.0022970208 0.036187507
