models/epinet_model.pth (torch, 27305 bytes, 24 tensors)

net.0.weight f4 [20, 1]
0	0x3eac6374	0.33669627
1	0xbf05856b	-0.52156705
2	0xbb0b3917	-0.0021243745
3	0xbeb52916	-0.3538291
4	0x3d828d0b	0.06374558
5	0xbc153589	-0.009107002
6	0x3eb891d2	0.36048752
7	0xbfae5699	-1.3620178
8	0x3f62eef1	0.88645846
9	0xbf3db92a	-0.7411066
10	0x3c67acaa	0.014140287
11	0x3ec56b48	0.38558412
12	0x3d5a7454	0.053333595
13	0xbd8a2050	-0.06744444
14	0x3fb8c0d1	1.4433843
15	0x3f086e79	0.5329357
16	0x3f4b9712	0.7952739
17	0xbea5891f	-0.32331178
18	0xbed9f9a1	-0.42573264
19	0x3b1cb218	0.0023909863

net.0.bias f4 [20]
0	0x3c23d70a	0.01
1	0x3c23d70a	0.01
2	0x3df7f937	0.12108081
3	0x3c23d70a	0.01
4	0xbdb50acc	-0.0883995
5	0x3d2181ad	0.03943031
6	0x3c23d70a	0.01
7	0x3c23d70a	0.01
8	0x3c23d70a	0.01
9	0x3c23d70a	0.01
10	0x3cad4b84	0.021154173
11	0x3c23d70a	0.01
12	0xbe363160	-0.17792273
13	0x3df03dc3	0.1173053
14	0x3c23d70a	0.01
15	0x3c23d70a	0.01
16	0x3c23d70a	0.01
17	0x3c23d70a	0.01
18	0x3c23d70a	0.01
19	0xbd2f89f7	-0.042856183

net.2.layer.0.weight f4 [20, 20]
0	0xbf322acd	-0.6959656
1	0x3f76024b	0.9609725
2	0x3e8a9a9e	0.2707109
3	0x3e3b4fa0	0.18292093
4	0x3ec3941b	0.38198933
5	0xbe50567d	-0.20345493
6	0xbe251469	-0.16121067
7	0x3ec115ff	0.37712094
8	0xbe79c290	-0.24390626
9	0x3e5ff542	0.21870902
10	0xbe89a9f3	-0.26887473
11	0xbe479be5	-0.19493063
12	0xbe1194ec	-0.14216965
13	0xbddd72b8	-0.108128965
14	0xbef1f281	-0.47255328
15	0x3dd81598	0.10550994
16	0x3b6982b0	0.0035630874
17	0xbf0afa52	-0.5428821
18	0x3f210f6f	0.62914175
19	0xbe4a1c45	-0.19737346
20	0xbe3e05c4	-0.18556887
21	0x3f166673	0.58750075
22	0x3b350e29	0.0027626848
23	0xbe426f76	-0.18987831
24	0xbc8afca9	-0.01696618
25	0x3e750e72	0.23931292
26	0x3f0016ca	0.50034773
27	0xbe88d8c6	-0.26727885
28	0x3e83e079	0.25757197
29	0x3e9bd106	0.3043291
30	0xbd2b89d3	-0.041879486
31	0x3e73814e	0.23779795
32	0xbe6fb4c4	-0.234088
33	0x3e8cb550	0.2748208
34	0xbf1cbbc5	-0.61224014
35	0x3ea2f78c	0.31829488
36	0x3f18da7b	0.59708375
37	0xbdce8dfa	-0.10085674
38	0xbc0c9da3	-0.008582505
39	0xbef4350b	-0.4769672
40	0x3eab6944	0.3347875
41	0xbe81ce6c	-0.253528
42	0x3f0dfaac	0.5546062
43	0xbf1218a7	-0.57068866
44	0xbecbf41f	-0.39834687
45	0x3d3726a9	0.044714604
46	0xbdd7d90d	-0.10539446
47	0xbd2c0916	-0.042000853
48	0xbe386dac	-0.18010587
49	0x3de6cbed	0.112693645
50	0xbf0331b6	-0.5124773
51	0xbd9dc877	-0.07704251
52	0xbef75c94	-0.4831282
53	0xbe94126f	-0.28920314
54	0xbecfb0a1	-0.40564445
55	0xbea58d6e	-0.32334465
56	0xbe159d02	-0.14610675
57	0xbf175c1a	-0.5912491
58	0xbb8e9516	-0.0043512685
59	0x3d97322f	0.07382619
60	0xbd9ec370	-0.077521205
61	0xbc9aff53	-0.018920576
62	0x3ec6e0e7	0.38843462
63	0x3eecb029	0.4622815
64	0x3dda32b3	0.10654201
65	0xbd762699	-0.060095403
66	0x3ed3b014	0.41345274
67	0x3e053d48	0.13011658
68	0xbe204f93	-0.15655355
69	0x3f435b45	0.7631114
70	0x3ce26f31	0.02764091
71	0x3dba2126	0.09088354
72	0x3e456cf8	0.1927985
73	0x3f12824e	0.5723008
74	0x3ee3d9a3	0.4450198
75	0x3eba24c9	0.3635619
76	0x3f2dc4d8	0.67878485
77	0xbe3d7cd3	-0.18504648
78	0x3e699e75	0.22814353
79	0x3ec852a2	0.39125544
80	0x3db53a2b	0.08848985
81	0xbe680bec	-0.22660798
82	0xbcc3314a	-0.023827214
83	0x3ca56366	0.020188998
84	0xbf750649	-0.95712715
85	0xbd408dbb	-0.047010165
86	0x3ebd2e48	0.36949372
87	0xbe53acc4	-0.20671374
88	0x3d69649f	0.056980725
89	0x3f21bc62	0.63178074
90	0xbb289657	-0.0025724375
91	0x3ccd6aa4	0.025075264
92	0xbf184ce9	-0.59492356
93	0x3ec202ff	0.3789291
94	0xbe259bce	-0.16172716
95	0xbf328273	-0.697303
96	0x3ee02141	0.4377537
97	0xbe9ca6d9	-0.30596045
98	0x3e698109	0.2280313
99	0xbe1cb16d	-0.15302058
100	0xbe39c6b7	-0.1814221
101	0x3e6c5956	0.23080954
102	0xbeb1184f	-0.34588858
103	0xbe220ce9	-0.15825237
104	0xbe701452	-0.23445252
105	0x3f1bc024	0.6084006
106	0xbe2f7c1f	-0.17137192
107	0x3f120171	0.5703345
108	0xbf62ef1c	-0.886461
109	0x3c809c79	0.015699612
110	0xbd57b3ae	-0.05266159
111	0xbddca437	-0.10773509
112	0x3f0b5146	0.5442089
113	0xbebb3c67	-0.3656952
114	0x3bd6deee	0.006557337
115	0x3f452811	0.7701426
116	0x3d0cabdf	0.034343597
117	0x3d9a01a3	0.075198434
118	0x3d8d8481	0.06910039
119	0x3ec87bb0	0.39156866
120	0x3e8e77df	0.2782583
121	0xbe1e7608	-0.15474713
122	0x3f11fa37	0.5702242
123	0x3edfa9f8	0.43684363
124	0x3ee2357c	0.4418143
125	0x3e2096fa	0.15682593
126	0x3e72a7ca	0.23696819
127	0xbdc494ff	-0.09598731
128	0xbf0ddaa3	-0.5541174
129	0xbef0f140	-0.4705906
130	0x3f330b2c	0.6993892
131	0x3e14c9d1	0.14530112
132	0xbdf50320	-0.11963487
133	0x3e821684	0.25407803
134	0xbf92f10a	-1.1479809
135	0xbf1fd054	-0.6242726
136	0xbde80469	-0.11328966
137	0xbdabd01e	-0.083893046
138	0xbd3b76d1	-0.04576761
139	0x3d035236	0.032060824
140	0x3da5f72d	0.08103786
141	0xbec977d5	-0.39349237
142	0x3ec57799	0.38567808
143	0xbe25db4b	-0.16196935
144	0x3ef7d9b7	0.4840829
145	0xbee37c54	-0.44430792
146	0x3d956a45	0.0729566
147	0x3de556e0	0.11198211
148	0xbf398e82	-0.72483075
149	0x3d898d70	0.0671643
150	0xbe47b7a0	-0.19503641
151	0xbf012aed	-0.50456125
152	0x3f22164f	0.6331529
153	0x3eb31d37	0.34983227
154	0xbdc48443	-0.095955394
155	0xbd311c89	-0.043240104
156	0xbe1e7ab5	-0.15476497
157	0x3cefe5a2	0.029284302
158	0x3f15bef7	0.58494514
159	0xbddbcaed	-0.107320644
160	0xbc92e1ff	-0.017930029
161	0x3f30c4cb	0.6905028
162	0xbe98eebb	-0.29869637
163	0x3eacf010	0.33776903
164	0xbe97df83	-0.29662713
165	0x3e462eec	0.19353837
166	0x3e661d57	0.2247213
167	0xbce42f83	-0.027854687
168	0x3c6f7fe6	0.014617896
169	0x3e18311d	0.14862485
170	0xbddc3c6f	-0.10753714
171	0x3d837623	0.06419017
172	0xbde3708c	-0.11105451
173	0xbe20199c	-0.15634769
174	0x3e418d77	0.18901621
175	0xbe3d9a79	-0.18515958
176	0x3e0e7874	0.13913137
177	0xbf1d1bc3	-0.61370486
178	0x3ec55b0b	0.38546023
179	0xbf1fb484	-0.6238482
180	0xbe07b752	-0.13253525
181	0x3d03725d	0.032091487
182	0x3f1c3c35	0.6102937
183	0xbe067ccb	-0.13133542
184	0x3e5ec69d	0.21755452
185	0x3ceb6e0e	0.028739002
186	0x3f7e12aa	0.9924723
187	0xbf01e00c	-0.50732493
188	0x3e34d31a	0.17658654
189	0x3e2934f4	0.16524106
190	0x3f04db32	0.51896966
191	0xbcbeedf8	-0.023306832
192	0xbeac4216	-0.3364417
193	0xbd8ba2e8	-0.06818181
194	0xbe1a4cbc	-0.15068334
195	0xbecc7ac1	-0.39937404
196	0x3e9924a2	0.2991076
197	0x3f21e874	0.6324532
198	0x3df4c950	0.1195246
199	0xbf672a31	-0.90298754
200	0xbe1af919	-0.15134086
201	0x3d7091ab	0.05873267
202	0xbe3d1929	-0.18466629
203	0x3cb89a91	0.02253464
204	0xbe3f9827	-0.18710385
205	0x3d0fef1d	0.035140146
206	0x3ee4711e	0.44617552
207	0xbca5e89b	-0.020252516
208	0xbeff35a1	-0.49845603
209	0x3f0057f4	0.50134206
210	0xbf14c356	-0.5811056
211	0xbeb846b0	-0.3599143
212	0x3f14a292	0.5806056
213	0x3ed48d4f	0.4151406
214	0xbdd9fb81	-0.10643674
215	0x3ce3f409	0.027826326
216	0x3c1100da	0.008850301
217	0xbe9db472	-0.3080173
218	0x3dbf3b18	0.09337443
219	0x3c4beaa8	0.012446083
220	0x3ef39e86	0.4758188
221	0x3dcacd92	0.09902491
222	0xbf0f8edb	-0.56077355
223	0xbf181fc0	-0.59423447
224	0xbe710d85	-0.23540314
225	0xbf0dc1df	-0.5537395
226	0xbef1ef49	-0.47252873
227	0xbf3df750	-0.74205494
228	0xbf3d8614	-0.7403271
229	0xbde8cf4d	-0.113676645
230	0xbee56f60	-0.44811535
231	0xbef1ab93	-0.47201213
232	0xbe611a1f	-0.2198262
233	0xbf54e3f1	-0.8316031
234	0x3e2bd887	0.16781817
235	0xbd1657e8	-0.036704928
236	0xbe891887	-0.26776525
237	0x3eed8609	0.46391323
238	0x3f4f0b20	0.8087635
239	0x3ee50acd	0.44734803
240	0x3e7f1402	0.24909976
241	0x3e27e2d1	0.16395117
242	0xbd3dd7aa	-0.04634825
243	0xbe69e534	-0.2284134
244	0x3ee0ea76	0.4392888
245	0xbefc96f8	-0.4933393
246	0xbd6cd88b	-0.0578237
247	0xbd47542c	-0.048664257
248	0x3e942de8	0.28941274
249	0x3e4ca0fa	0.19983283
250	0xbe8a01ff	-0.26954648
251	0x3e3a6259	0.18201579
252	0xbe4b79f6	-0.19870743
253	0xbe25ea7d	-0.16202731
254	0xbdc40d90	-0.09572899
255	0x3e7ed822	0.24887136

net.2.layer.0.bias f4 [20]
0	0xbb9a3c4c	-0.004706895
1	0xbafaa904	-0.0019123857
2	0x3c6bc8b4	0.014391113
3	0xbc038354	-0.0080269165
4	0xbbaf548c	-0.005350655
5	0x3d05b0ed	0.032639433
6	0x3d10321f	0.03520405
7	0x3b40a850	0.0029397197
8	0x3c9ce7b2	0.01915345
9	0x3c8b3a6f	0.016995637
10	0x3a3e8975	0.00072684075
11	0x3cd3d7cb	0.025859734
12	0x3b1a0e67	0.002350712
13	0x3d1a12b5	0.037615497
14	0x3c1b2efe	0.009471653
15	0xbba74e80	-0.0051057935
16	0xbc8a4028	-0.016876295
17	0xbba16b77	-0.004926141
18	0xbc218e33	-0.009860563
19	0x3d7e2a8f	0.062052306

net.2.layer.2.weight f4 [20, 20]
0	0xbde08006	-0.109619185
1	0x3e9a1054	0.30090582
2	0x3cdbd521	0.026835026
3	0xbea8212f	-0.32837817
4	0xbe05a708	-0.13051999
5	0xbec5f671	-0.38664582
6	0xbee044ac	-0.43802392
7	0xbda7e0d5	-0.0819718
8	0x3eeb45fd	0.45951834
9	0xbe5083eb	-0.20362823
10	0x3e684290	0.22681642
11	0x3ebada12	0.364945
12	0x3e9171ad	0.2840704
13	0x3ea829f0	0.32844496
14	0xbe87447a	-0.2641943
15	0xbec39cf9	-0.38205698
16	0x3d9d4d77	0.07680791
17	0xbe845dad	-0.2585272
18	0x3d253b14	0.040339544
19	0xbeb87ff8	-0.36035132
20	0x3ddfac73	0.10921564
21	0xbf610551	-0.8789874
22	0x3e23bd1c	0.15990108
23	0xbe6af57a	-0.22945204
24	0x3e36859d	0.17824407
25	0xbf4c11ca	-0.79714644
26	0x3d87d3a2	0.06632163
27	0xbd052774	-0.03250833
28	0x3d471824	0.048607007
29	0xbf310ed6	-0.6916326
30	0x3ee0185a	0.4376858
31	0x3ed99f17	0.42504188
32	0xbeacffb1	-0.33788827
33	0x3eb8fe37	0.3613145
34	0xbecfadb4	-0.40562212
35	0xbe2b71b2	-0.1674259
36	0x3f3f73bd	0.7478598
37	0xbf4823b1	-0.7817946
38	0xbf6887ea	-0.9083239
39	0x3e2e56a0	0.17025232
40	0x3f83bd87	1.0292214
41	0xbe8ccbc0	-0.274992
42	0xbe51f1b2	-0.20502356
43	0x3e33fb36	0.17576298
44	0x3c87f6d2	0.016597185
45	0xbe2314b1	-0.15925862
46	0x3b0d3856	0.0021548471
47	0xbda8230d	-0.082098104
48	0x3f109ab4	0.5648606
49	0x3f347583	0.7049181
50	0xbe901cf3	-0.28147087
51	0x3f109b4b	0.5648696
52	0x3e116012	0.14196804
53	0x3e438dfc	0.19097131
54	0xbea8d4d9	-0.3297489
55	0x3e0cf921	0.1376691
56	0xbec86982	-0.39142996
57	0x3e3c9926	0.18417796
58	0x3e491ab2	0.1963909
59	0xbe1be306	-0.15223321
60	0xbe73bbf4	-0.23802167
61	0xbecbdc90	-0.39816713
62	0xbe8b65b8	-0.27226043
63	0x3e56cdc2	0.20976928
64	0xbdca5f78	-0.098814905
65	0x3f695520	0.91145515
66	0x3e633255	0.22187169
67	0x3c890776	0.01672719
68	0xbe8e78e2	-0.278266
69	0xbee50ccf	-0.44736335
70	0x3d080ffc	0.03321837
71	0x3f676c9c	0.904001
72	0x3df6effb	0.120574914
73	0x3e3e98b6	0.18612942
74	0xbea2f2a5	-0.31825748
75	0xbe9dc63a	-0.30815297
76	0xbe9deb80	-0.30843735
77	0xbead8d9a	-0.33897096
78	0xbe504392	-0.20338276
79	0x3ea735da	0.32658273
80	0xbd887403	-0.066627525
81	0xbe92ae29	-0.286485
82	0xbe932bfd	-0.28744498
83	0xbeb472a7	-0.35243723
84	0xbf15099f	-0.58217806
85	0x3d8c0446	0.068367526
86	0x3bd5ccee	0.0065246737
87	0x3ea51ecc	0.3225006
88	0xbe850a22	-0.25984293
89	0x3e32bc8c	0.17454737
90	0x3e844a9d	0.25838175
91	0x3da0c7f4	0.07850638
92	0xbdbf3272	-0.093357936
93	0x3ea7a941	0.32746318
94	0xbd9e7537	-0.07737201
95	0x3e16fceb	0.14744918
96	0xbe34805e	-0.17627093
97	0x3df5f57f	0.12009715
98	0x3ebc8ac0	0.36824608
99	0x3c896906	0.016773712
100	0xbdba8ee3	-0.09109285
101	0x3f881652	1.0631812
102	0x3e8dcae3	0.27693853
103	0x3d6cd20d	0.057817508
104	0x3dabef0f	0.08395206
105	0xbe86590e	-0.26239818
106	0xbea1d046	-0.31604213
107	0xbe64ede1	-0.22356369
108	0x3e2c44e9	0.16823162
109	0x3f0ce090	0.55030155
110	0xbec494eb	-0.38394865
111	0xbf1099af	-0.564845
112	0xbedc5819	-0.43035963
113	0x3e873b9d	0.2641267
114	0xbe71be08	-0.23607647
115	0x3f803ec9	1.001916
116	0x3e2c6874	0.1683672
117	0xbe8f0658	-0.27934527
118	0x3eb9bc69	0.36276558
119	0xbe01e028	-0.12683165
120	0x3f1a91f1	0.6037894
121	0x3e92d5ed	0.28678837
122	0x3f0912d2	0.5354434
123	0xbedabe19	-0.42723158
124	0xbdc850e9	-0.097810574
125	0xbdbd77be	-0.09251355
126	0x3f4a2ed1	0.78977686
127	0xbf198d28	-0.5998101
128	0x3d107cf2	0.035275407
129	0x3e1b72e7	0.1518055
130	0x3eebfb1a	0.46090013
131	0xbf09ad28	-0.5377984
132	0xbf0a660f	-0.5406198
133	0x3d24e89a	0.04026089
134	0x3eb1dfab	0.34740958
135	0xbde017fb	-0.10942074
136	0xbdea7fa9	-0.114501305
137	0x3e012a7b	0.12613861
138	0xbec98e6d	-0.39366475
139	0x3e00600f	0.12536643
140	0xbf04baf7	-0.51847786
141	0x3ea23c69	0.31686714
142	0xbd66993c	-0.05629848
143	0x3eafe3dd	0.34353533
144	0xbd459dc5	-0.048246164
145	0xbea9994e	-0.33124775
146	0xbb96df15	-0.00460423
147	0x3f2f68f7	0.6851954
148	0xbafafee9	-0.0019149455
149	0xbe653853	-0.22384767
150	0x3f432a38	0.76236296
151	0x3f282692	0.65683854
152	0x3e12108e	0.14264128
153	0x3e5b2b25	0.21403177
154	0x3efe1b67	0.4963028
155	0xbcc07267	-0.023492051
156	0x3dbe54d5	0.09293524
157	0x3d945a60	0.072438
158	0xbd940148	-0.07226807
159	0x3ed95972	0.42451054
160	0x3f2b154d	0.6682938
161	0xbd302329	-0.04300228
162	0x3eb993a6	0.3624546
163	0xbe1ec22a	-0.15503755
164	0x3e938858	0.2881496
165	0x3e07d92b	0.13266437
166	0x3e4fa712	0.20278576
167	0x3dfea161	0.12433124
168	0xbdac6f26	-0.084196374
169	0xbc692a98	-0.014231347
170	0xbe1d063f	-0.15334414
171	0xbdb65cf2	-0.08904447
172	0x3d10eca5	0.03538193
173	0x3dbda0ca	0.09259184
174	0x3f1e8fdd	0.6193827
175	0xbe095fc8	-0.13415444
176	0x3f880883	1.0627598
177	0x3d0961f2	0.033540674
178	0xbe233ae1	-0.1594043
179	0xbe2c33b0	-0.16816592
180	0x3f1ea876	0.619758
181	0x3dddc339	0.108282514
182	0xbdc6edca	-0.097133234
183	0x3ee16503	0.44022378
184	0xbe9452bd	-0.28969374
185	0xbe2b403b	-0.1672372
186	0xbe976b9c	-0.29574287
187	0xbe641776	-0.22274575
188	0x3ea2fd63	0.31833944
189	0xbdf528c9	-0.1197067
190	0xbe0e777d	-0.13912769
191	0xbe9930bb	-0.2991999
192	0xbf45b581	-0.7723008
193	0x3b2a22d9	0.0025960712
194	0xbe3d2a5c	-0.1847319
195	0xbcb98f5c	-0.022651367
196	0x3f013ae4	0.50480485
197	0xbe19c7bb	-0.15017597
198	0xbe9322a0	-0.28737354
199	0x3e0d7b5d	0.1381659
200	0xbefc96e6	-0.49333876
201	0x3e8f268a	0.2795909
202	0xbd826823	-0.06367519
203	0x3e79bac9	0.24387659
204	0x3f1a2c9b	0.6022431
205	0x3f484f28	0.7824578
206	0x3ecd521d	0.4010171
207	0x3f0159f6	0.50527894
208	0x3dbe335a	0.09287138
209	0xbed14a90	-0.408772
210	0x3f80d805	1.0065924
211	0xbe1d714a	-0.15375248
212	0x3ea46e19	0.32115248
213	0xbe805ff4	-0.25073206
214	0x3db2d0bf	0.087312214
215	0x3e550a0d	0.20804615
216	0x3deb445e	0.114876494
217	0xbe2819ad	-0.16416045
218	0xbdf77dd9	-0.120845504
219	0xbe87d1cc	-0.2652725
220	0xbf0de8d2	-0.5543338
221	0xbecf34d4	-0.40469992
222	0xbf0318d0	-0.51209736
223	0x3e68b3e9	0.2272488
224	0x3f06425f	0.52445024
225	0x3dae09d0	0.08497965
226	0xbec72c06	-0.38900775
227	0xbdad988f	-0.08476364
228	0xbea2e2d1	-0.31813672
229	0x3e471483	0.19441418
230	0xbcfe2e93	-0.031028068
231	0xbf4d5e93	-0.80222434
232	0x3ed2ad7f	0.41147992
233	0x3da31a55	0.07964007
234	0xbefe3011	-0.49646047
235	0xbf1a009f	-0.601572
236	0xbe597d7d	-0.21239276
237	0xbe5d6bc3	-0.21623139
238	0x3d2851e0	0.041093707
239	0xbea4b0d2	-0.32166153
240	0x3d8fd0b4	0.07022229
241	0xbddde975	-0.10835544
242	0xbda5f77d	-0.08103845
243	0xbe839a17	-0.257035
244	0xbecfdd69	-0.4059861
245	0x3ed605a7	0.41801187
246	0xbe810786	-0.25201052
247	0xbe03e338	-0.12879646
248	0x3e95fc11	0.29293874
249	0xbed54761	-0.4165602
250	0xbedaf55a	-0.42765313
251	0x3f051a19	0.51992947
252	0x3da5d9a1	0.0809815
253	0x3cc4b676	0.024012785
254	0xbe4ee480	-0.20204353
255	0xbe49511f	-0.19659851

net.2.layer.2.bias f4 [20]
0	0xbc67eb2f	-0.014155193
1	0x3d7bef42	0.06150747
2	0x3c7ea8ba	0.015543157
3	0x3d2da3a7	0.0423924
4	0x3c88b654	0.016688503
5	0x3d38e20f	0.04513746
6	0x3d199795	0.037498076
7	0xbc61d6d2	-0.013784127
8	0xbcac6501	-0.021044256
9	0x3c4a0e11	0.012332455
10	0xbb998e86	-0.0046861796
11	0xbc8801f5	-0.016602496
12	0x3b8d6f6d	0.0043162615
13	0x3c9a76d3	0.018855488
14	0x3c883fbf	0.016631959
15	0xbdb582e6	-0.088628575
16	0xbcce0948	-0.02515091
17	0x3d8f15d3	0.069865845
18	0x3c992174	0.01869271
19	0x3d9f7a6c	0.07787022

net.3.layer.0.weight f4 [20, 20]
0	0xbc80af3c	-0.015708558
1	0xbd09867e	-0.033575527
2	0x3e794f08	0.24346554
3	0xbe0351ed	-0.12824221
4	0x3e0cd5d2	0.13753441
5	0x3edba29d	0.42897502
6	0x3f195743	0.59898776
7	0x3e6fdb62	0.23423532
8	0x3e42753e	0.18990037
9	0xbe0c1a10	-0.13681817
10	0x3ea83e13	0.3285986
11	0xbde11131	-0.10989607
12	0x3e319680	0.17342567
13	0xbe5b1fce	-0.21398851
14	0xbe4f9960	-0.20273352
15	0x3d1cfd02	0.038327225
16	0xbef1f1d3	-0.4725481
17	0x3f1259b9	0.57168156
18	0x3e39f736	0.1816071
19	0xbe625475	-0.2210253
20	0xbd61689a	-0.055031396
21	0xbe9e73cb	-0.30947718
22	0x3e0c4b2c	0.13700551
23	0x3e2c5b1c	0.1683163
24	0xbe6ba514	-0.23012191
25	0x3da6bbea	0.081413105
26	0x3f1120ff	0.56690973
27	0x3f0c9075	0.54907924
28	0xbefdc0d5	-0.49561182
29	0xbd3f106e	-0.046646528
30	0xbccb1322	-0.024789397
31	0xbeae3898	-0.34027553
32	0xbdee09ac	-0.116229385
33	0x3f5fbe55	0.873998
34	0x3d3a38ef	0.045464452
35	0x3e8fa188	0.28052926
36	0xbe66493a	-0.22488871
37	0xbeb8f3bf	-0.36123464
38	0xbf141c8e	-0.5785607
39	0xbea4d18b	-0.3219112
40	0x3e1f7f44	0.15575892
41	0xbf486b7a	-0.78288996
42	0xbefaca29	-0.4898236
43	0xbe13dbaf	-0.14439271
44	0x3eea4648	0.45756745
45	0x3f6631fc	0.8992002
46	0xbf08fb74	-0.53508687
47	0x3e22f6ba	0.15914431
48	0x3e9db841	0.30804637
49	0x3ee9ecb6	0.4568841
50	0x3e412da9	0.18865074
51	0x3edcc593	0.43119487
52	0x3e0c2aaf	0.13688157
53	0x3eddee16	0.43345708
54	0x3e2f968d	0.17147274
55	0xbed61b01	-0.41817477
56	0x3aede1e7	0.0018148989
57	0xbdbbb21c	-0.09164831
58	0xbc96bc54	-0.018400349
59	0xbdc8b170	-0.097994685
60	0xbe4b7366	-0.1986824
61	0x3cd963ab	0.026536783
62	0x3f34eb79	0.706718
63	0x3d142659	0.036169384
64	0x3eae5d73	0.3405567
65	0xbea06098	-0.31323695
66	0xbe4f8ae7	-0.20267831
67	0xbea68117	-0.32520363
68	0xbd26778f	-0.040641364
69	0xbeb410b1	-0.35168985
70	0xbf1ef529	-0.62092835
71	0x3dd1bb91	0.102408536
72	0xbdc87930	-0.0978874
73	0xbd3f1751	-0.046653096
74	0x3e12fb8a	0.14353767
75	0xbe0a5755	-0.13509877
76	0x3f06002d	0.5234402
77	0x3de802e8	0.11328679
78	0xbf3481ca	-0.7051054
79	0x3e843336	0.2582032
80	0x3e0b7c97	0.13621746
81	0xbf3fa53b	-0.74861497
82	0x3c69cd9e	0.014270214
83	0x3e94c0b8	0.29053283
84	0x3d7b541a	0.061359502
85	0x3f13801a	0.5761734
86	0xbe422d90	-0.18962693
87	0xbe8b2218	-0.2717445
88	0xbead0073	-0.33789405
89	0xbf2b72e0	-0.6697216
90	0x3d23a5df	0.03995311
91	0xbce36af1	-0.027760955
92	0x3e63c72d	0.22243948
93	0x3e35414f	0.17700695
94	0x3f5a2106	0.8520664
95	0xbe94f041	-0.2908955
96	0xbea638fc	-0.3246535
97	0xbe523a66	-0.2053009
98	0x3ed9a8a2	0.4251147
99	0x3ed38a12	0.41316277
100	0xbf035ac8	-0.51310396
101	0x3e44dec3	0.19225602
102	0x3e801fed	0.25024357
103	0xbedf1aac	-0.43575037
104	0xbee27bee	-0.44235176
105	0xbea67684	-0.32512295
106	0xbda6bbd2	-0.08141293
107	0x3e427f59	0.18993892
108	0xbdae293a	-0.08503957
109	0xbf402389	-0.7505422
110	0xbe29be85	-0.16576584
111	0xbd68c56d	-0.056828905
112	0xbe27ab1b	-0.16373865
113	0x3e87dbbb	0.2653483
114	0x3eabf388	0.33584237
115	0x3d90e531	0.07074965
116	0x3de2b8a3	0.11070373
117	0xbd24088c	-0.040047213
118	0xbe1d0948	-0.15335572
119	0xbf2113ae	-0.62920654
120	0x3e3d7822	0.18502858
121	0xbf8053c0	-1.0025558
122	0x3d82615e	0.063662276
123	0xbef0f8f3	-0.47064933
124	0xbe31c2c8	-0.1735946
125	0xbf0e53c8	-0.5559659
126	0x3f641981	0.89101416
127	0xbdab7e2b	-0.08373674
128	0x3f876cb8	1.0580053
129	0xbeabc92c	-0.3355192
130	0xbe8bd9d3	-0.27314624
131	0x3ba35708	0.00498474
132	0x3ea5cea8	0.3238423
133	0xbe962f84	-0.29333127
134	0x3e81e964	0.25373375
135	0xbeeda23f	-0.46412846
136	0x3e5d1b55	0.21592458
137	0x3f76e9b6	0.96450365
138	0x3ede4f90	0.43420076
139	0x3ee3f78c	0.445248
140	0x3cac7096	0.021049779
141	0xbeb0b600	-0.34513855
142	0x3eb1244a	0.34598
143	0xbe854611	-0.2603002
144	0x3f1b78e7	0.6073136
145	0xbde31339	-0.11087651
146	0x3e83cb32	0.25740963
147	0xbdbf1ee5	-0.093320645
148	0x3ebc1a0a	0.36738616
149	0x3e35c1a8	0.17749655
150	0x3f16d135	0.58912975
151	0x3f0f6f50	0.56029224
152	0x3ea766d1	0.3269563
153	0xbdeb60c4	-0.11493066
154	0xbefd9f1a	-0.49535447
155	0xbefbcf12	-0.4918142
156	0x3f335c68	0.70062876
157	0xbe3297df	-0.17440747
158	0xbeac3999	-0.33637694
159	0xbec8bbb2	-0.392057
160	0x3f160369	0.58598953
161	0xbc8c4622	-0.017123286
162	0x3f5bf01e	0.85913265
163	0xbf160a25	-0.5860923
164	0xbe828ec4	-0.25499547
165	0x3e135c5c	0.14390701
166	0xbdc760a0	-0.09735227
167	0x3deddd15	0.11614434
168	0xbe4617a1	-0.19344951
169	0x3d67eefe	0.056624405
170	0x3f045fac	0.51708484
171	0xbe391e6d	-0.18078013
172	0xbe952a4c	-0.29133832
173	0xbeeb5d1b	-0.4596947
174	0xbe2805bb	-0.16408436
175	0x3f04f469	0.5193544
176	0xbd2e2318	-0.042513937
177	0xbf94755e	-1.1598318
178	0xbf87fe5e	-1.0624502
179	0x3e9a8985	0.30183044
180	0xbe8091d5	-0.2511126
181	0xbe9fe9c6	-0.31233042
182	0xbe769636	-0.24080738
183	0x3dcae0a3	0.09906127
184	0xbeb4d696	-0.35319966
185	0xbe678bae	-0.22611877
186	0xbeb5376a	-0.3539384
187	0xbdd4c369	-0.10388834
188	0x3efa7c57	0.4892299
189	0x3df20bed	0.11818681
190	0x3da026f8	0.07819933
191	0x3dab0760	0.08351016
192	0x3e92a1f9	0.286392
193	0xbe84dab7	-0.25948116
194	0xbebb3703	-0.36565408
195	0xbd6b0565	-0.05737819
196	0x3cb7cb06	0.022435676
197	0xbe189f48	-0.14904511
198	0xbc8246af	-0.015902845
199	0x3ed58109	0.4170001
200	0x3d9ba9f8	0.07600778
201	0xbe302106	-0.17200097
202	0xbe395d47	-0.18101989
203	0x3e14e6ea	0.14541212
204	0x3dc0209b	0.09381219
205	0x3d0b2cd7	0.03397831
206	0x3f038408	0.5137334
207	0xbe996bff	-0.29965207
208	0x3ea0623a	0.3132494
209	0x3e28c1f1	0.16480233
210	0x3ed82c26	0.42221183
211	0xbb6f399d	-0.0036502846
212	0xbd8c786d	-0.06858907
213	0xbf2f610e	-0.6850747
214	0xbea00d25	-0.31260028
215	0xbdc0df26	-0.09417562
216	0x3e3be8e1	0.18350555
217	0xbd7cc6b2	-0.061712928
218	0xbeab5406	-0.33462542
219	0x3ec893b9	0.39175203
220	0x3d4ca056	0.049957596
221	0x3e9bca89	0.3042796
222	0x3e5c03df	0.21485852
223	0xbe4b3ac2	-0.19846633
224	0x3e215455	0.15754826
225	0x3e99145c	0.29898345
226	0x3e0b46dd	0.13601251
227	0xbecce4bc	-0.4001826
228	0x3ec870a7	0.39148447
229	0xbf5c4832	-0.8604766
230	0x3d23a168	0.03994885
231	0xbda1dac2	-0.07903053
232	0xbe0c04c8	-0.13673699
233	0xbf2546ab	-0.64560956
234	0xbf2abc2a	-0.66693366
235	0xbee27a1c	-0.44233787
236	0x3db9c392	0.09070505
237	0xbe9d7a87	-0.30757543
238	0x3f1abf7b	0.60448426
239	0x3e69c1b5	0.228278
240	0xbec2e84a	-0.38067847
241	0x3da305a8	0.07960063
242	0x3d35658c	0.044286296
243	0xbf010516	-0.50398386
244	0xbce9a17b	-0.028519383
245	0x3e62e0b3	0.22156028
246	0xbccc4848	-0.02493681
247	0x3e44bb1f	0.19212006
248	0x3ab5a8c0	0.0013859496
249	0xbd2ce7c5	-0.04221322
250	0xbe9bee11	-0.30455068
251	0xbe930a3a	-0.2871874
252	0xbe88c669	-0.26713875
253	0x3da8b16e	0.08236967
254	0xbee4f030	-0.447145
255	0xbf4bf614	-0.7967236

net.3.layer.0.bias f4 [20]
0	0x3a5d1402	0.00084334624
1	0x3c46d700	0.012136221
2	0xbcb10cec	-0.021612607
3	0xbc3493e3	-0.011021587
4	0x3c091aa1	0.008368165
5	0x3c77b6c7	0.015119261
6	0xbca5a650	-0.020220906
7	0xbbede116	-0.0072594984
8	0x3b61b30c	0.0034438996
9	0x3cb2c6d0	0.021823317
10	0x3c83cdb9	0.016089307
11	0x3c7a83fe	0.015290258
12	0x3c8646e1	0.01639122
13	0x3c4be7b5	0.01244538
14	0x398fa790	0.0002739993
15	0x3c541d30	0.012946412
16	0xbbacf96a	-0.005278756
17	0xbd8c7cee	-0.06859766
18	0x3c63fdc7	0.013915486
19	0x3d7326c1	0.05936313

net.3.layer.2.weight f4 [20, 20]
0	0x3e833627	0.25627252
1	0xbd9b96ff	-0.075971596
2	0x38f2353c	0.00011549375
3	0x3e8bc734	0.27300417
4	0x3ea515dc	0.3224324
5	0xbeb225bb	-0.3479441
6	0xbdee5724	-0.116377145
7	0xbf2286e7	-0.63487095
8	0x3e64f2bb	0.2235822
9	0xbf05d387	-0.5227589
10	0xbc8c2af6	-0.01711033
11	0x3f421b84	0.75823236
12	0x3e75e4c3	0.24013047
13	0xbe8e5a54	-0.2780329
14	0xbea324fb	-0.3186415
15	0xbdcbb306	-0.099462554
16	0xbf2a66cb	-0.665631
17	0xbeaba19c	-0.33521736
18	0x3e8c2dd6	0.2737872
19	0xbefc0bd9	-0.4922779
20	0x3ea54c48	0.3228476
21	0x3e681438	0.22663963
22	0xbdedb21c	-0.11606237
23	0x3ed4f646	0.41594142
24	0xbe9d5432	-0.30728298
25	0xbf2a53ab	-0.6653392
26	0xbe7a73d2	-0.24458244
27	0x3ddabb5f	0.106802694
28	0x3ed7356c	0.42032945
29	0x3d242d0e	0.04008203
30	0x3f3ae8c3	0.73011416
31	0x3ea8b014	0.32946837
32	0x3e983ec3	0.29735383
33	0xbe8022a9	-0.25026444
34	0xbe6b35da	-0.22969761
35	0xba79be89	-0.0009526988
36	0x3ee679d2	0.45014817
37	0xbe0ca57f	-0.13735007
38	0x3e53cef2	0.20684412
39	0xbf142e35	-0.57883006
40	0xbdc3d3cf	-0.09561884
41	0x3e70f5fc	0.23531336
42	0x3eba9d1a	0.36447984
43	0x3e7b1e22	0.24523214
44	0x3eca0d74	0.3946339
45	0xbde69901	-0.11259652
46	0x3f7f1d1d	0.996538
47	0xbed0824f	-0.40724418
48	0x3f0d015a	0.5508019
49	0x3ed7c4b0	0.42142248
50	0xbf2f2fb3	-0.6843216
51	0x3ef3aa23	0.47590742
52	0x3a715171	0.0009205556
53	0xbda8e997	-0.08247679
54	0x3d0b7a6f	0.03405231
55	0xbe6bc651	-0.2302487
56	0x3cb894d2	0.0225319
57	0x3f21fd40	0.63277054
58	0xbdf30be6	-0.11867504
59	0xbe49d18c	-0.19708842
60	0x3e595575	0.21224006
61	0xbddd3ccb	-0.10802611
62	0x3e2aa24c	0.16663474
63	0x3d69f444	0.057117715
64	0xbf781013	-0.9689953
65	0x3f2ae73f	0.66759104
66	0xbeadbfd5	-0.3393542
67	0xbe8d830b	-0.2763904
68	0x3d877557	0.06614178
69	0x3f698595	0.91219455
70	0xbcda9671	-0.026683064
71	0x3e4e0a0b	0.20121019
72	0x3f78765c	0.970556
73	0x3dd509f3	0.10402288
74	0xbe9e5c98	-0.30930018
75	0x3e8f7b1c	0.28023612
76	0x3edf693d	0.43634978
77	0x3eb5e46a	0.3552583
78	0x3ec6babf	0.3881435
79	0x3db11702	0.086469665
80	0x3f43d356	0.7649435
81	0x3efe052e	0.49613327
82	0xbe589b24	-0.21152931
83	0xbd265430	-0.04060763
84	0xbe813e5f	-0.25242898
85	0xbf302230	-0.68802166
86	0x3e967fca	0.2939437
87	0x3f06bb3c	0.52629447
88	0xbe8c647d	-0.27420416
89	0x3e93a186	0.2883417
90	0xbe6bd380	-0.230299
91	0xbdc43ea2	-0.09582259
92	0x3fa15c6f	1.2606333
93	0xbef7381a	-0.4828499
94	0xbf627194	-0.88454556
95	0xbf081f1e	-0.5317248
96	0x3ddb2323	0.10700061
97	0xbe21d1d5	-0.15802701
98	0xbf161883	-0.5863115
99	0xbeab2468	-0.33426213
100	0xbe919892	-0.28436714
101	0x3e6453e7	0.22297631
102	0x3ed1c9e1	0.40974334
103	0x3dc958b1	0.0983137
104	0x3d36e192	0.044648714
105	0xbec67c8f	-0.38766906
106	0xbf5b3e35	-0.85641795
107	0xbde445e5	-0.11146144
108	0x3e828c1b	0.25497517
109	0xbeabf4e5	-0.33585277
110	0x393af6d2	0.0001783029
111	0x3e0554ae	0.13020584
112	0xbe59a34a	-0.21253696
113	0x3f0625b3	0.52401274
114	0xbf08de3f	-0.5346412
115	0xbd85d0d1	-0.06533969
116	0xbec9c5f8	-0.3940885
117	0xbf0555cb	-0.52084035
118	0x3d705012	0.05867011
119	0xbd9d46a3	-0.076794885
120	0x3d276595	0.04086836
121	0x3e5803cc	0.21095198
122	0xbe0416cc	-0.12899321
123	0x3ef827cb	0.4846786
124	0xbf1c14cd	-0.6096924
125	0xbcbc94fd	-0.023020262
126	0x3eaeb04d	0.34118882
127	0x3dba9627	0.091106705
128	0x3e95607d	0.29175177
129	0x3d64ba1e	0.055841558
130	0xbe82625c	-0.25465667
131	0x3da48a78	0.08034223
132	0x3eb788ba	0.35846502
133	0x3dae9c6a	0.08525927
134	0xbf1b36a9	-0.6063028
135	0xbdb34cfc	-0.08754918
136	0xbea09f37	-0.3137147
137	0xbf024e6b	-0.50900906
138	0x3e86b7c4	0.26312077
139	0x3eb8415a	0.3598736
140	0xbee898f1	-0.45429185
141	0x3e0ecc63	0.13945155
142	0x3f0bd69c	0.5462434
143	0xbee4d84d	-0.44696274
144	0xbe5947f0	-0.21218848
145	0xbde5eb6d	-0.112265445
146	0x3ea9d981	0.33173755
147	0x3e9e88e4	0.30963814
148	0xbec199fa	-0.37812787
149	0x3ed6ad46	0.41929072
150	0xbf19052c	-0.59773517
151	0xbd6ca2d1	-0.05777246
152	0xbebc8b32	-0.36824948
153	0xbd9cc6d5	-0.07655112
154	0xbc5a8b1d	-0.013338831
155	0xbf059472	-0.52179635
156	0xbf33cc23	-0.7023336
157	0xbea1f8d4	-0.31635153
158	0x3d9adfc0	0.07562208
159	0xbe57506a	-0.2102677
160	0xbf623adc	-0.8837106
161	0xbea6fb73	-0.32613716
162	0x3e9519e6	0.2912132
163	0x3ee07dcd	0.43845978
164	0x3eab187f	0.33417127
165	0x3e80e772	0.2517658
166	0x3f68a3c4	0.90874887
167	0x3e9e82e6	0.30959243
168	0xbe959d16	-0.2922141
169	0xbefc930f	-0.49330947
170	0xbe229958	-0.15878808
171	0x3e98b874	0.29828227
172	0xbec6f09a	-0.3885544
173	0x3d24d0de	0.040238254
174	0xbdd70986	-0.10499863
175	0xbd9415bc	-0.07230708
176	0xbef460a4	-0.4772998
177	0x3f33ca9a	0.7023102
178	0xbf3b7cf7	-0.73237556
179	0xbedfcb67	-0.4370987
180	0xbe3d6056	-0.1849378
181	0xbf588d30	-0.84590435
182	0xbecb6b9f	-0.39730546
183	0xbe1a1ec8	-0.15050805
184	0x3dc63093	0.096772335
185	0x3e007746	0.12545499
186	0xbdcc3e21	-0.09972788
187	0x3ea4630d	0.3210682
188	0xbeea28a9	-0.45734146
189	0xbf30b302	-0.69023144
190	0xbf1b7c41	-0.6073647
191	0xbe7b2507	-0.24525844
192	0x3eee9304	0.4659654
193	0xbef6c260	-0.4819517
194	0x3ef7d3ee	0.48403877
195	0x3f41301c	0.75464034
196	0xbe70470e	-0.23464605
197	0xbeb3e0cf	-0.35132453
198	0x3da1bc99	0.078973
199	0x3e8a41d5	0.2700335
200	0xbaba79fa	-0.0014227026
201	0x3f2a52dc	0.66532683
202	0xbf379bfe	-0.717224
203	0xbde00ff8	-0.10940546
204	0xbc671c57	-0.014105878
205	0x3ee9dfee	0.45678657
206	0xbe2f0ec3	-0.17095475
207	0x3e9ddcf1	0.30832627
208	0xbf4484d0	-0.76765156
209	0xbf303426	-0.6882957
210	0x3ea1cd22	0.31601816
211	0xbe90bf1c	-0.28270805
212	0xbe8dc7bf	-0.27691457
213	0x3edc17c2	0.42986876
214	0xbeb6786e	-0.35638756
215	0x3ee8cf3f	0.45470616
216	0xbe5de517	-0.21669422
217	0xbe1741a0	-0.14771128
218	0x3e2053ce	0.15656969
219	0xbe8b5384	-0.27212155
220	0x3e152b8b	0.14567392
221	0x3ceea887	0.029133094
222	0x3d7dba29	0.061945114
223	0x3e9505b7	0.29105923
224	0x3d8f08ae	0.069840774
225	0x3dbed6d2	0.093183175
226	0xbe7acc6e	-0.24492046
227	0x3f0c6dc4	0.5485499
228	0xbde76a2e	-0.11299549
229	0xbef11921	-0.47089484
230	0x3e8e62f4	0.2780987
231	0x3e275dd8	0.16344392
232	0xbea22717	-0.31670448
233	0x3ef682a1	0.48146537
234	0xbeee152e	-0.46500534
235	0xbf331756	-0.6995748
236	0x3ddf5bbc	0.10906169
237	0x3e023237	0.12714468
238	0x3ec4c472	0.38431126
239	0xbf093e01	-0.53610235
240	0x3f02bc82	0.5106889
241	0x3d97c31c	0.07410261
242	0xbd0e3eeb	-0.034727972
243	0xbd2fe8a7	-0.042946484
244	0x3ea054b7	0.31314632
245	0x3e800223	0.2500163
246	0xbeaf230a	-0.3420642
247	0xbbd40a98	-0.0064709894
248	0x3f564994	0.8370602
249	0xbd7e8622	-0.062139638
250	0x3eac12e5	0.33608165
251	0x3a860899	0.0010225951
252	0x3ee5e003	0.4489747
253	0x3f5d7f4c	0.86522365
254	0x3e3fc4c8	0.1872741
255	0xbf212873	-0.62952346

net.3.layer.2.bias f4 [20]
0	0xbcbcff6c	-0.023071013
1	0xba66f852	-0.00088108063
2	0x3ca4af06	0.020102989
3	0xbc6dff91	-0.014526264
4	0x3ca461bc	0.020066135
5	0x3b323024	0.0027189339
6	0x3d9abbfd	0.07555387
7	0xbcfefe60	-0.031127155
8	0x3dcc8d30	0.09987867
9	0x3d433550	0.047658265
10	0xbd1ef38b	-0.03880648
11	0xb96731f7	-0.0002204849
12	0xbcc71b0f	-0.024304895
13	0x3c917442	0.017755631
14	0x3c7a59df	0.015280216
15	0xbd8e53e9	-0.06949598
16	0xbb78dfe3	-0.0037975244
17	0x3cb52d0f	0.022116212
18	0x3b933343	0.004492195
19	0x3a54e0fe	0.00081206847

net.4.layer.0.weight f4 [20, 20]
0	0xbef9889e	-0.48737043
1	0xbe9ed3b5	-0.31020895
2	0x3f12164e	0.57065284
3	0xbea705ff	-0.32621762
4	0x3eaf574e	0.34246296
5	0x3dc0e321	0.094183214
6	0x3f55fad6	0.8358587
7	0xbf48cd70	-0.7843847
8	0x3d93f6ef	0.07224833
9	0x3ec8196a	0.3908189
10	0x3ec193d8	0.37808108
11	0xbe43012c	-0.19043416
12	0x3e60b3a2	0.21943524
13	0x3d89d619	0.06730289
14	0x3ebf8db1	0.3741279
15	0xbe0ca950	-0.13736463
16	0xbea66c5c	-0.32504547
17	0x3e71d96a	0.23618093
18	0xbccdd765	-0.025127122
19	0x3ea20011	0.31640676
20	0x3c5f003c	0.013610896
21	0xbe9e0794	-0.30865157
22	0xbe8d27c0	-0.2756939
23	0xbf02af6e	-0.51048934
24	0xbe2f18ed	-0.17099352
25	0xbe807c21	-0.25094703
26	0xbd8d44d2	-0.06897892
27	0x3e656281	0.22400858
28	0xbe85d4f0	-0.2613902
29	0x3f163b55	0.58684283
30	0x3ed9f258	0.42567706
31	0x3e7d1daf	0.24718355
32	0x3f973cf8	1.1815481
33	0x3c3db595	0.011578937
34	0xbf0dd12b	-0.5539729
35	0xbd3d0777	-0.046149697
36	0xbe70f333	-0.23530273
37	0x3ceb680a	0.028736133
38	0x3f41f055	0.7575734
39	0x3e9dfe24	0.30857956
40	0xbec0e34b	-0.3767341
41	0xbe272738	-0.16323555
42	0xbf0075f1	-0.50179964
43	0xbf2a5b38	-0.6654544
44	0xbe0a106c	-0.13482827
45	0x3f0fc1a5	0.56154853
46	0xbdd351f0	-0.10318363
47	0xbeed37aa	-0.4633153
48	0x3e5c4905	0.2151223
49	0x3edba75f	0.42901132
50	0xbf009e14	-0.5024121
51	0x3e621f5d	0.22082277
52	0xbebc1f46	-0.3674261
53	0xbedca47c	-0.43094242
54	0xbd291319	-0.04127798
55	0x3ec2913b	0.38001427
56	0x3eeba5eb	0.46025023
57	0xbe0e32b9	-0.13886537
58	0xbea9b2db	-0.33144268
59	0xbe8e0491	-0.2773786
60	0x3e377611	0.17916133
61	0xbec96580	-0.3933525
62	0xbea28cfb	-0.31748185
63	0xbd007abe	-0.031367056
64	0x3eb3414b	0.35010752
65	0x3ea8d422	0.32974344
66	0xbe82672f	-0.25469348
67	0xbf3de0a2	-0.7417089
68	0xbef5ba80	-0.4799385
69	0xbeb69b43	-0.3566533
70	0x3d271be8	0.040798098
71	0x3db16bc6	0.08663134
72	0x3eb5c332	0.35500485
73	0xbfa2d970	-1.2722607
74	0xbe806a43	-0.2508107
75	0xbe8c7363	-0.27431783
76	0xbe500503	-0.20314412
77	0x3db2ea53	0.087361
78	0x3f9303ba	1.1485512
79	0xbce83480	-0.028345346
80	0x3ecc68a9	0.399236
81	0xbe540508	-0.20705044
82	0x3e316a26	0.17325649
83	0xbed1fbe2	-0.41012484
84	0x3f056754	0.5211079
85	0x3e4386d4	0.19094402
86	0x3e331068	0.17486727
87	0x3dd2b9ce	0.10289346
88	0x3e67ac2f	0.22624277
89	0xbc014042	-0.007888855
90	0x3ea191a9	0.31556442
91	0x3e8bf9dc	0.27339065
92	0xb96931d3	-0.00022239173
93	0x3f26c24e	0.65140235
94	0x3ea539f3	0.32270774
95	0xbdfba1b2	-0.122867
96	0x3cf710ba	0.030159343
97	0xbed5e3bc	-0.4177531
98	0xbd2b6ecc	-0.04185371
99	0x3f2b2e90	0.66867924
100	0xbdb7f80a	-0.089828566
101	0x3eb50330	0.35353994
102	0x3e3ac421	0.1823888
103	0xbd8bbfa2	-0.068236604
104	0x3f2fcc8c	0.6867149
105	0xbcf7e227	-0.030259205
106	0x3cf5b88b	0.029995224
107	0x3bd4b8d3	0.0064917593
108	0xbca19d32	-0.019728277
109	0x3e53afb5	0.20672496
110	0x3e07c5f4	0.13259107
111	0x3ecb1c6d	0.39670125
112	0xbf198b58	-0.59978247
113	0xbf452a76	-0.77017915
114	0x3e284326	0.16431865
115	0x3d7f9c50	0.06240493
116	0xbd4cd940	-0.050011873
117	0xbd85a736	-0.065260336
118	0xb9b57788	-0.00034612068
119	0x3e89c26f	0.26906154
120	0x3daa22fd	0.08307455
121	0x3e442e1f	0.19158219
122	0x3ef9573a	0.4869936
123	0x3e9c0009	0.30468777
124	0x3ea34f19	0.31896284
125	0xbf1390eb	-0.57643
126	0xbeb1221a	-0.3459633
127	0x3ea4e4c4	0.32205784
128	0xbe06d54b	-0.13167302
129	0x3c39fb16	0.011351367
130	0x3f116e29	0.56808716
131	0x3e5f9221	0.21833088
132	0x3e2ed8fb	0.17074959
133	0xbe990288	-0.29884744
134	0x3f0bb182	0.5456773
135	0xbdfed6da	-0.124433234
136	0xbf162b89	-0.5866018
137	0xbe5a4c88	-0.21318257
138	0x3d714bf7	0.058910336
139	0xbdfde807	-0.12397771
140	0xbea742e4	-0.3266822
141	0x3f025d70	0.50923824
142	0x3bfd9161	0.007738278
143	0x3f514022	0.81738484
144	0x3dde1e3b	0.1084561
145	0xbe18df56	-0.14928946
146	0xbd62efed	-0.055404592
147	0x3e92d2e6	0.28676528
148	0xbe7d29e5	-0.24723013
149	0xbe01417e	-0.1262264
150	0xbdb0deff	-0.08636283
151	0xbcde43d3	-0.02713195
152	0x3e1ee5eb	0.15517394
153	0x3e7e016c	0.2480523
154	0xbe8e7d87	-0.27830145
155	0xbded82ac	-0.11597189
156	0xbdb4b106	-0.08822827
157	0xbd95b29b	-0.07309457
158	0xbe3ac2da	-0.18238392
159	0x3efa30cf	0.48865363
160	0x3d11afcf	0.035568055
161	0x3ddb5f4c	0.10711536
162	0x3e8fbd28	0.28074002
163	0xbeb8e427	-0.36111566
164	0x3ead1558	0.33805346
165	0xbe65cefd	-0.22442241
166	0x3df6cf38	0.120512426
167	0xbf06c56f	-0.5264501
168	0xbf359ef5	-0.70945674
169	0xbf1ed7b3	-0.6204788
170	0x3ed13df7	0.40867588
171	0xbf093f53	-0.5361225
172	0x3f6adcdd	0.9174326
173	0xbd4d60e8	-0.050141245
174	0xbee87fdb	-0.45410046
175	0xbe319526	-0.17342052
176	0xbe564d27	-0.20927869
177	0xbf452776	-0.7701334
178	0x3ed121e5	0.40846172
179	0xbed7c87d	-0.42145148
180	0xbe364661	-0.17800285
181	0xbed3864d	-0.413134
182	0x3e1820d9	0.1485628
183	0x3ea9991b	0.33124623
184	0xbcd36db1	-0.02580914
185	0x3e8eab5b	0.2786511
186	0xbd83f79e	-0.064437136
187	0xbe93e2cd	-0.28883973
188	0xbe7ad5d3	-0.2449563
189	0x3e908f63	0.28234395
190	0x3e9f2479	0.31082514
191	0x3de02f98	0.10946578
192	0xbd5d2789	-0.05399278
193	0xbe9b478e	-0.3032803
194	0x3eefd187	0.46839544
195	0xbeb2135f	-0.34780404
196	0x3ee2eb0b	0.4431995
197	0xbe9387fb	-0.28814682
198	0xbf0226ea	-0.5084063
199	0xbd464419	-0.048404787
200	0x3c15b9af	0.009138509
201	0x3d1241d7	0.03570732
202	0x3de385c0	0.11109495
203	0xbf30d56f	-0.69075674
204	0x3f05b838	0.5223422
205	0x3de366d2	0.11103596
206	0xbea39d6e	-0.31956047
207	0xbdd7c3cb	-0.105353914
208	0xbf025021	-0.50903517
209	0x3e6365fb	0.22206871
210	0x3f2f0c4f	0.68378156
211	0xbe887fe5	-0.26660076
212	0xbf232674	-0.6373055
213	0x3f55d6a9	0.8353067
214	0xbf0ab44c	-0.5418136
215	0x3f636423	0.8882467
216	0x3f08aa4e	0.53384864
217	0x3f0a35f0	0.5398855
218	0x3b023d4a	0.0019872957
219	0xbe405de9	-0.18785824
220	0x3ed7110e	0.420052
221	0x3dbceb10	0.09224522
222	0x3bd1c6f0	0.006401889
223	0x3c9dbe1f	0.019255696
224	0x3ea31f87	0.3185999
225	0xbd96f1a2	-0.073703066
226	0x3e04eed8	0.12981737
227	0xbe796db2	-0.24358252
228	0x3ef35f88	0.47533822
229	0xbc39bd01	-0.011336566
230	0x3f112431	0.5669585
231	0xbea6dc82	-0.3259011
232	0xbf368796	-0.7130064
233	0x3f0bd3bd	0.5461996
234	0xbe68837d	-0.22706409
235	0x3d603ef8	0.05474755
236	0xbf29b156	-0.6628622
237	0x3f1b966e	0.6077641
238	0x3c69ea3a	0.014277035
239	0xbec3274f	-0.38115928
240	0xbf87ef23	-1.0619854
241	0x3dbe8ac2	0.0930381
242	0xbed21ea4	-0.41039002
243	0x3ecb15bb	0.39665017
244	0xbf272fb2	-0.6530715
245	0xbf02da08	-0.5111394
246	0xbf20198b	-0.62538975
247	0xbf25c719	-0.64756924
248	0x3ec5e59e	0.38651747
249	0x3e6f6ca8	0.23381293
250	0x3e934a4b	0.2876762
251	0x3e922757	0.2854564
252	0x3e82915c	0.25501525
253	0x3d2ddfdf	0.04244983
254	0x3f00d4ec	0.50324893
255	0xbf3bd7b7	-0.7337603

net.4.layer.0.bias f4 [20]
0	0x3bfc486f	0.0076990644
1	0x3cb33138	0.021874055
2	0x3d11eb6b	0.035624903
3	0xbc02b862	-0.007978531
4	0x3badef77	0.0053080874
5	0x3c72156e	0.014775617
6	0xbd67a72c	-0.056555912
7	0x3b73ff01	0.0037230852
8	0x3cc6539f	0.024209796
9	0x3b053829	0.0020327664
10	0x3d834699	0.0640995
11	0xbc1fccd2	-0.009753423
12	0x3cb86f88	0.02251412
13	0x3cdf1ddc	0.027235918
14	0x3d49610f	0.049164828
15	0x3dbc1189	0.09183032
16	0x3c6e9e3b	0.014564092
17	0x3b95ef71	0.004575663
18	0xbc0010b3	-0.007816481
19	0x3ccd5a52	0.025067482

net.4.layer.2.weight f4 [20, 20]
0	0x3ed033ef	0.40664622
1	0x3e9f5648	0.31120515
2	0xbf5936df	-0.8484935
3	0xbeb36e50	-0.350451
4	0x3d7133da	0.05888734
5	0x3dc5ae76	0.096524164
6	0xbe1f6b1f	-0.15568207
7	0x3ed9b4aa	0.42520648
8	0xbe84b782	-0.25921255
9	0x3f79724f	0.97440046
10	0x3e480f2e	0.1953704
11	0xbf14fbb0	-0.58196545
12	0xbe5cba64	-0.21555477
13	0xbd954968	-0.07289392
14	0x3d016f61	0.03160036
15	0xbd745fa1	-0.05966151
16	0x3f4aabb7	0.79168266
17	0x3e2d2f8a	0.16912666
18	0xbe74636c	-0.23866051
19	0x3f0f4089	0.5595785
20	0x3da732b7	0.0816397
21	0x3ef60c5c	0.48056304
22	0xbe297cf3	-0.1655157
23	0xbc8d676f	-0.017261235
24	0x3e91e0d8	0.28491855
25	0x3f28c530	0.65925884
26	0x3f588eb3	0.8459274
27	0xbe4c61e5	-0.19959219
28	0x3ef66313	0.48122463
29	0xbdb50347	-0.08838516
30	0xbec70f55	-0.38878885
31	0x3db1e5c0	0.086863995
32	0xbe857335	-0.26064458
33	0xbdfbebe6	-0.123008534
34	0x3d396901	0.045266155
35	0x3e0c9ccb	0.13731687
36	0xbe16598c	-0.14682597
37	0x3d56f8d8	0.05248341
38	0xbe1f200f	-0.15539573
39	0x3eb85432	0.36001736
40	0xbea576be	-0.32317156
41	0x3ed715bd	0.42008772
42	0xbe4b3bc0	-0.19847012
43	0x3dcd75b2	0.10032214
44	0xbef8c306	-0.4858629
45	0x3e4a1d29	0.19737686
46	0xbd6daefd	-0.05802821
47	0x3e926f98	0.28600764
48	0xbd6e7f82	-0.05822707
49	0xbc8a4242	-0.016877297
50	0x3f23e857	0.640264
51	0x3e5d6789	0.21621527
52	0x3f23311e	0.6374682
53	0xbf1aec5e	-0.6051692
54	0x3ea37878	0.31927848
55	0x3ecd6c33	0.40121612
56	0xbe36eff9	-0.1786498
57	0x3ee3bf6e	0.44481987
58	0x3e3a790a	0.18210235
59	0xbe5f5bca	-0.21812358
60	0xbe07ef9e	-0.13275
61	0x3d8e1671	0.06937874
62	0x3ed926a6	0.424123
63	0x3f35f4b8	0.71076536
64	0xbe8b51bc	-0.27210796
65	0x3ed48a24	0.41511643
66	0x3d8d714a	0.06906374
67	0xbe013ad9	-0.12620105
68	0x3ecb529f	0.39711472
69	0x3dc28d32	0.09499587
70	0xbe414293	-0.18873052
71	0xbd00ffd4	-0.031493977
72	0x3f1579e0	0.5838909
73	0x3e9a8452	0.30179077
74	0x3eace49d	0.33768168
75	0x3eb1c851	0.34723142
76	0x3f224448	0.6338544
77	0x3eac45d9	0.3364704
78	0x3e4f96ac	0.2027232
79	0x3e6b66dd	0.22988458
80	0xbd951cfd	-0.0728092
81	0x39963d04	0.0002865569
82	0xbe8d3f4a	-0.27587348
83	0xbd529e46	-0.051420473
84	0xbdd9242a	-0.10602601
85	0x3eba04f0	0.36331892
86	0xbddf83fb	-0.10913845
87	0x3dd08396	0.10181348
88	0xbe2a0ab4	-0.16605645
89	0xbe98a40c	-0.29812658
90	0x3e427707	0.18990718
91	0xbd762d2f	-0.060101684
92	0x3e2979a5	0.1655031
93	0xbd999fa2	-0.07501151
94	0x3e3ce744	0.18447596
95	0xbf24ab45	-0.64323837
96	0xbe0df744	-0.13863856
97	0x3ea05dc4	0.31321537
98	0xbec21941	-0.37909892
99	0x3be5a987	0.0070087346
100	0xbf126dfd	-0.5719908
101	0xbd5e4a53	-0.0542701
102	0x3d86bb86	0.06578736
103	0x3fad5b4d	1.3543488
104	0xbe82145b	-0.25406155
105	0xbcd99aa3	-0.026562994
106	0xbe8c3f04	-0.27391827
107	0x3f1d3ec4	0.614239
108	0x3e5b6b65	0.21427687
109	0xbd9f2109	-0.07769973
110	0x3f8b0506	1.0860908
111	0xbe0d6316	-0.1380733
112	0xbd39f395	-0.045398314
113	0xbe784c18	-0.24247777
114	0xbe156bc9	-0.14591898
115	0x3e98cc61	0.2984343
116	0xbf2868c0	-0.65784836
117	0x3e11ffbd	0.14257713
118	0x3ee3137a	0.44350797
119	0xbee826c3	-0.45342073
120	0xbf27a76d	-0.65489846
121	0xbf044140	-0.51662064
122	0x3eafb61b	0.34318623
123	0xbf170180	-0.58986664
124	0xbe9de436	-0.30838174
125	0x3f02f664	0.5115721
126	0xbeeb8fe1	-0.46008208
127	0xbf01c281	-0.50687414
128	0x3ea93b8e	0.3305325
129	0x3d7ba42b	0.06143586
130	0xbc910589	-0.017702835
131	0xbeed93d9	-0.4640186
132	0x3d95c424	0.073128015
133	0xba0b8fad	-0.00053238386
134	0xbe95f563	-0.29288778
135	0xbe574085	-0.21020706
136	0x3e514b15	0.20438798
137	0x3e0c61fc	0.13709253
138	0xbdc126be	-0.094312176
139	0x3f17a4f9	0.59236103
140	0x3f7a7408	0.978333
141	0xbceadbf2	-0.028669331
142	0xbe19a849	-0.15005602
143	0xbdf0701d	-0.11740134
144	0xbd04c36e	-0.03241294
145	0xbe414c8b	-0.18876855
146	0xbd7d09f9	-0.06177709
147	0x3f5fd575	0.87435085
148	0x3dc36da2	0.09542395
149	0x3f0b5689	0.5442892
150	0x3e603d33	0.21898346
151	0xbd88f5f8	-0.0668754
152	0xbeb575d5	-0.3544146
153	0x3e9dd539	0.30826738
154	0x3f0217ef	0.5081777
155	0x3ee8c431	0.45462182
156	0xbe3f74b1	-0.18696858
157	0xbeab886d	-0.33502522
158	0x3f14e30f	0.58158964
159	0x3c9a2824	0.018817969
160	0x3cf129b3	0.029438829
161	0xbe650505	-0.22365196
162	0x3d925ad3	0.071462296
163	0xbe42971e	-0.19002959
164	0x3ebc5bad	0.36788693
165	0x3d5f8c48	0.054577142
166	0xbe81adaf	-0.25327823
167	0xbe35335f	-0.17695378
168	0xbe9b02ce	-0.30275577
169	0xbdc48517	-0.095956974
170	0xbf2ca848	-0.67444277
171	0xbe7b48f7	-0.24539553
172	0xbe4c2474	-0.19935781
173	0xbe168e84	-0.14702803
174	0xbceffacf	-0.0292944
175	0xbecd46ce	-0.40093082
176	0x3f19d301	0.6008759
177	0xbe098022	-0.13427785
178	0xbe169dfd	-0.14708705
179	0xbf006b85	-0.5016406
180	0xbeb4046f	-0.35159633
181	0xbe8d34fe	-0.27579492
182	0xbe1c2ee6	-0.15252265
183	0xbe1efd04	-0.15526205
184	0x3ea09bca	0.31368858
185	0xbe37fb6e	-0.17967007
186	0xbe128bd2	-0.1431115
187	0xbf455b5e	-0.7709254
188	0x3e5922f3	0.21204738
189	0x3ecf096a	0.4043687
190	0xbe495161	-0.1965995
191	0xbf02ce0a	-0.5109564
192	0x3e6ae4b4	0.22938806
193	0x3e23fa99	0.16013564
194	0x3f131265	0.5744994
195	0x3efce23b	0.4939135
196	0x3e1ba70e	0.15200445
197	0xbd01fb64	-0.031733885
198	0x3ed1d927	0.40985987
199	0xbe2a350f	-0.16621803
200	0xbf1fe940	-0.62465286
201	0xbf251a9c	-0.6449373
202	0xbe9fd0b2	-0.3121391
203	0xbe8f7801	-0.28021243
204	0x3db9138c	0.090369314
205	0xbd430b97	-0.047618475
206	0x3f3e7806	0.7440189
207	0xbd5e7046	-0.05430629
208	0xbe9410a1	-0.28918937
209	0x3ef914dd	0.4864873
210	0xbef64a4d	-0.48103562
211	0xbf527cdd	-0.82221776
212	0xbebd1489	-0.3692973
213	0x3e343b80	0.17600822
214	0x3db962a8	0.0905202
215	0x3e6da8c2	0.23208907
216	0xbdf0790c	-0.11741838
217	0x3cb8eacc	0.022572897
218	0xbe07ac11	-0.13249232
219	0x3e57534d	0.2102787
220	0xbe80edeb	-0.25181517
221	0x3d8adf45	0.067808665
222	0x3e25b94e	0.1618397
223	0xbebed8d9	-0.37274817
224	0x3d802ad1	0.062581666
225	0x3f2ededb	0.683088
226	0xbe2cf71d	-0.16891141
227	0x3eb355c0	0.3502636
228	0x3ef15c94	0.47140944
229	0xbeb17dd8	-0.34666324
230	0x3dfd774a	0.12376268
231	0x3e05c468	0.13063204
232	0x3e4587bd	0.19290061
233	0x3e79f191	0.24408557
234	0x3c3189c3	0.010836068
235	0xbe6521a0	-0.22376108
236	0x3e9332b4	0.2874962
237	0x3eec62d0	0.46169138
238	0xbe0153d1	-0.1262963
239	0x3ec5b2b2	0.38612896
240	0xbe049f4e	-0.12951395
241	0x3edf44e8	0.4360726
242	0x3e916a54	0.28401434
243	0x3ee68e65	0.45030513
244	0xbd987871	-0.074448474
245	0x3ef4483a	0.47711354
246	0x3d9c711f	0.07638764
247	0x3ec41fbd	0.38305464
248	0xbe6c98ee	-0.23105213
249	0x3c75b08d	0.014995706
250	0xbe258654	-0.16164523
251	0xbf19510b	-0.59889287
252	0xbdf44899	-0.119279094
253	0xbee149d5	-0.44001642
254	0xbe91ab7e	-0.2845115
255	0x3d34a7f9	0.044105504

net.4.layer.2.bias f4 [20]
0	0x3b8715e0	0.0041224808
1	0x3c5e5b6d	0.013571602
2	0x3c7a46d8	0.0152756795
3	0xbaf7699f	-0.0018876082
4	0xbcc74d5b	-0.024328878
5	0x3cc2bd8d	0.023772025
6	0x3d6c040b	0.057621043
7	0xbc886ef7	-0.016654475
8	0x3d02437d	0.031802643
9	0x3bcf3d36	0.0063244356
10	0xbc333d99	-0.010939979
11	0x3d4a9910	0.049462378
12	0x3b77be97	0.003780281
13	0x3c453132	0.012035655
14	0xbd266c79	-0.04063079
15	0xbd21b62e	-0.03948038
16	0x3c47f75a	0.012204969
17	0x3d27bddf	0.04095256
18	0x3c7726f3	0.01508497
19	0x3c8c96a8	0.017161682
