models/epinet_model3.pth (torch, 25785 bytes, 24 tensors)

net.0.weight f4 [20, 1]
0	0xbeb92f23	-0.36168775
1	0x3f79312a	0.97340643
2	0x3da0a432	0.07843818
3	0xbe57ce14	-0.21074706
4	0x3ed1375a	0.40862542
5	0x3e080b50	0.13285565
6	0xbdbd2ee3	-0.092374586
7	0xbf0649a4	-0.52456117
8	0x3b265591	0.0025380591
9	0x3d0ce9ba	0.034402587
10	0xbdfff4eb	-0.12497886
11	0x3ec6060e	0.38676494
12	0xbb42fdaf	-0.0029753258
13	0xbb283bc6	-0.0025670393
14	0xbfa0461e	-1.2521398
15	0x3f8f6711	1.1203328
16	0x3ec1135b	0.3771008
17	0x3e19c4cc	0.15016478
18	0xbe52acdc	-0.20573753
19	0x3fb49d4c	1.4110503

net.0.bias f4 [20]
0	0x3d22b32c	0.039721653
1	0x3c208b6e	0.009798868
2	0x3d17daa5	0.03707375
3	0x3dc594b8	0.096475065
4	0xbcf26066	-0.029586982
5	0x3c46ea44	0.012140814
6	0x3d170a70	0.03687519
7	0x3e236d1f	0.15959595
8	0x3bbccad7	0.005761485
9	0xbc0d8419	-0.008637452
10	0xbd33cdd8	-0.04389748
11	0x3c78d8ca	0.015188405
12	0x3c8768ec	0.016529523
13	0x3c7da62e	0.015481515
14	0x3d99ab95	0.0750343
15	0x3d967ea4	0.073483735
16	0x3ce309e2	0.027714673
17	0xbe0607cb	-0.1308891
18	0x3c71bcc0	0.014754474
19	0x3cf3f4dc	0.029779844

net.2.layer.0.weight f4 [20, 20]
0	0x3db915da	0.09037371
1	0xbe2d0630	-0.16896892
2	0x3e0e0086	0.13867387
3	0xbf2211ae	-0.6330823
4	0x3c811e8c	0.015761636
5	0xbf250a8f	-0.64469236
6	0x3f65fe0d	0.89840776
7	0x3e6995b4	0.22811013
8	0x3ee49deb	0.44651732
9	0x3dab34fe	0.08359717
10	0x3ed99587	0.42496893
11	0xbe679013	-0.22613554
12	0xbd30f19d	-0.04319917
13	0xbe9045c6	-0.28178233
14	0x3e385179	0.1799983
15	0xbe7c6487	-0.24647723
16	0xbeba6541	-0.36405376
17	0xbe95a905	-0.29230514
18	0x3d137267	0.035997774
19	0x3f14bce5	0.5810073
20	0xbd6f7f99	-0.058471296
21	0x3d2c50d1	0.04206926
22	0xbf085fa5	-0.5327094
23	0x3f19ada9	0.6003061
24	0x3f2a6d4d	0.6657303
25	0x3f5f66f6	0.8726648
26	0xbefe41a3	-0.49659452
27	0x3d1f5aed	0.038905073
28	0x3e1154a5	0.14192446
29	0x3ca367a3	0.019946879
30	0x3e53cc0f	0.20683311
31	0x3f08875b	0.53331536
32	0x3de09dfe	0.109676346
33	0x3e4226e8	0.18960154
34	0x3dfb5388	0.12271792
35	0x3efd7299	0.49501494
36	0xbea116f7	-0.31462833
37	0xbe4f5229	-0.20246185
38	0x3e7e9603	0.24861912
39	0xbf12c9cb	-0.5733916
40	0xbf10de13	-0.5658886
41	0xbe70b21b	-0.23505442
42	0x3db86150	0.09002936
43	0x3dcad01a	0.099029735
44	0x3e0c9e96	0.1373237
45	0x3ebcc80b	0.3687137
46	0xbe91417b	-0.2837027
47	0x3ef6cdd2	0.48203903
48	0x3f1f13d6	0.6213964
49	0xbf2a717f	-0.6657943
50	0xbd53d087	-0.05171254
51	0xbeac0099	-0.33594206
52	0xbe863007	-0.26208517
53	0xbe629ded	-0.22130556
54	0x3d8d5940	0.06901789
55	0xbef71f0c	-0.48265874
56	0x3ec2079b	0.37896428
57	0xbeb6dfe4	-0.3571769
58	0x3ebd1f4e	0.36937946
59	0xbedc5a88	-0.4303782
60	0xbeb43dff	-0.3520355
61	0xbe3a0a86	-0.18168077
62	0xbf1e907a	-0.61939204
63	0x3d0cf3f9	0.034412358
64	0xbeb0bca2	-0.34518915
65	0x3e4eedd4	0.20207912
66	0x3ebd59e2	0.36982638
67	0x3e7b8a35	0.2456444
68	0xbed77997	-0.42084953
69	0x3dbff967	0.093737416
70	0xbd3f2993	-0.046670508
71	0x3ecb5a96	0.3971755
72	0x3e2f87a9	0.17141594
73	0xbeb3ec26	-0.35141104
74	0xbe8aa42e	-0.27078384
75	0x3e8de1f9	0.27711466
76	0xbd497f03	-0.049193393
77	0x3e3649f4	0.17801648
78	0x3f16b7ee	0.58874404
79	0x3edf7d65	0.43650356
80	0x3e87c96e	0.26520866
81	0x3e90d582	0.28287894
82	0xbf38f369	-0.72246414
83	0xbe773a59	-0.24143352
84	0x3dfcdfde	0.12347387
85	0x3db98bf7	0.09059899
86	0xbe6e2174	-0.23254949
87	0xbd56f355	-0.052478153
88	0xbccd5fc8	-0.025070086
89	0xbd0f704f	-0.035019215
90	0x3f1ea861	0.61975676
91	0x3d514689	0.05109266
92	0xbe4b057b	-0.1982631
93	0x3db1d4bd	0.08683155
94	0x3f21a742	0.6314584
95	0xbb822c61	-0.0039725755
96	0xbd5b00e8	-0.05346766
97	0x3eee43f4	0.4653622
98	0x3da664d3	0.081246994
99	0xbe9f75cf	-0.31144568
100	0x3edbd2d9	0.42934301
101	0x3eda53a6	0.42641944
102	0xbe9e055c	-0.30863464
103	0x3e581687	0.21102343
104	0xbe891dbe	-0.26780504
105	0xbdff7da4	-0.12475136
106	0x3e93faa8	0.28902173
107	0x3f58e734	0.8472779
108	0x3ecac8e1	0.39606383
109	0xbe77b228	-0.24189055
110	0x3f1fa488	0.6236043
111	0xbe483b4b	-0.19553868
112	0x3e8d5a27	0.27607843
113	0xbf14aaf2	-0.5807334
114	0x3d88cab3	0.06679287
115	0x3e261c36	0.16221699
116	0xbebc884c	-0.36822736
117	0x3f0889a3	0.53335017
118	0xbeb0809b	-0.34473118
119	0xbd937780	-0.07200527
120	0xbdd92306	-0.10602383
121	0x3df2f94a	0.11863954
122	0x3d95d051	0.07315124
123	0x3ed4d311	0.4156728
124	0x3ebd4cb0	0.3697257
125	0x3e80fdd8	0.25193667
126	0xbe004f09	-0.1253015
127	0x3f1894cf	0.59602064
128	0x3e19f245	0.15033825
129	0x3e6cd6b5	0.23128779
130	0xbe52c5a9	-0.20583214
131	0x3e6f35c0	0.23360348
132	0x3e9d992c	0.30780923
133	0xbf16c6fc	-0.58897376
134	0xbed8acff	-0.42319486
135	0x3f25f1d0	0.648221
136	0x3d31602c	0.043304607
137	0x3e2497a6	0.16073474
138	0xbdd2de0d	-0.10296259
139	0xbd008ca5	-0.03138413
140	0xbf77cdf5	-0.9679864
141	0xbddf85b0	-0.10914171
142	0xbcac81d7	-0.021058006
143	0xbd7a2f35	-0.061080176
144	0x3d77913d	0.060441244
145	0x3e8cde8b	0.27513537
146	0x3f2dd212	0.67898667
147	0xbd9d131e	-0.07669662
148	0xbeacaa09	-0.33723477
149	0x3f075d68	0.528769
150	0xbef7327d	-0.48280707
151	0x3deee5ba	0.116649106
152	0xbd2efa85	-0.042719383
153	0xbeb5aafa	-0.35482007
154	0x3d03c9f5	0.032175023
155	0xbec5d059	-0.3863552
156	0xbe656868	-0.22403109
157	0x3f2d82f9	0.67777973
158	0x3e9b725b	0.30360684
159	0xbd8bc05a	-0.068237975
160	0xbf102e6b	-0.5632083
161	0xbe518a1f	-0.20462845
162	0x3d313eda	0.04327283
163	0x3c4208c1	0.011842907
164	0x3e9cb8c5	0.30609718
165	0xbd06db78	-0.032924145
166	0x3f34b29f	0.70585054
167	0xbea87ad6	-0.32906216
168	0x3f3af9f0	0.73037624
169	0x3ed35bce	0.4128098
170	0x3dfa7844	0.1222997
171	0x3e9e3b2d	0.30904523
172	0x3ea3ec35	0.3201615
173	0x3b69dbfa	0.0035684095
174	0x3e2660f0	0.16247916
175	0xbdefc3af	-0.117072456
176	0x3d611a43	0.054956686
177	0x3e8139d5	0.25239435
178	0x3f2154ee	0.6302022
179	0x3e01def9	0.12682714
180	0x3f0d9241	0.5530129
181	0x3e105034	0.14093095
182	0xbf193304	-0.5984347
183	0x3ec4af8f	0.3841519
184	0xbd39a83a	-0.04532645
185	0x3ed37f6f	0.41308162
186	0x3ef65441	0.48111156
187	0xbe110b2f	-0.14164422
188	0x3e8af06c	0.27136552
189	0x3e5f8431	0.21827771
190	0x3cbef82d	0.023311699
191	0x3f7f9fa7	0.99852985
192	0xbefeb567	-0.49747774
193	0xbe542a25	-0.20719202
194	0x3ca9b586	0.02071644
195	0xbe2ba39b	-0.1676163
196	0x3edd3c12	0.43209893
197	0xbeab30d3	-0.33435687
198	0xbd9199c0	-0.071094036
199	0xbe194109	-0.14966215
200	0x3e182349	0.1485721
201	0x3e9c5e7a	0.3054083
202	0xbe71fa30	-0.23630595
203	0xbd9beadd	-0.07613156
204	0xbe36f163	-0.17865519
205	0xbdf3826d	-0.11890111
206	0x3d07f4b1	0.03319234
207	0xbe48bda9	-0.196036
208	0xbea5eb22	-0.32405955
209	0x3f12f816	0.574098
210	0xbd43b3d9	-0.047778938
211	0xbdd746ff	-0.10511588
212	0xbe1604fa	-0.14650336
213	0xbf01285e	-0.5045222
214	0x3ef453f4	0.477203
215	0xbf103d88	-0.5634389
216	0x3eb1dd00	0.34738922
217	0xbf15e3cd	-0.5855072
218	0xbc19cfed	-0.009387952
219	0xbe5b512a	-0.2141768
220	0xbedd0e8b	-0.43175158
221	0x3cf38ec9	0.029731171
222	0xbea007f6	-0.31256074
223	0x3d9f7db0	0.07787645
224	0x3e86051e	0.2617578
225	0x3e19d75b	0.15023558
226	0xbdd842ca	-0.10559614
227	0x3f1154c1	0.5676995
228	0x3e0e8a04	0.13919836
229	0xbe7ea520	-0.24867678
230	0xbf078e92	-0.5295192
231	0xbef5dd9d	-0.4802064
232	0xbeb2cddd	-0.34922686
233	0xbdd9a7f4	-0.10627738
234	0xbd86f9c4	-0.06590608
235	0xbe094a16	-0.13407168
236	0xbf1c4d63	-0.6105558
237	0xbe6dffbe	-0.23242089
238	0xbf5268a7	-0.82190937
239	0x3e29bf92	0.16576985
240	0xbd6e4af0	-0.058176935
241	0xbee8bba8	-0.4545567
242	0xbe3ab653	-0.18233614
243	0x3eb5b9f6	0.3549344
244	0x3d45a15f	0.0482496
245	0x3e713c5a	0.23558179
246	0x3e3d37f3	0.18478374
247	0xbd279f50	-0.040923417
248	0x3ed9394f	0.42426535
249	0xbe6693f7	-0.22517382
250	0xbe6a1a24	-0.22861534
251	0x3d5fb6b9	0.054617617
252	0x3ecae96a	0.39631206
253	0x3eaa4ea9	0.33263138
254	0x3e6702f0	0.22559714
255	0xbe93d7d5	-0.28875604

net.2.layer.0.bias f4 [20]
0	0x3bd81918	0.0065947883
1	0x3c8cf949	0.017208712
2	0x3c8aa3b7	0.016923768
3	0x3bcf28dc	0.0063220095
4	0x3c3ff0f1	0.01171516
5	0x3c8321a5	0.016007254
6	0x3c90180e	0.017589595
7	0x3c4bec61	0.012446494
8	0x3c42b6a8	0.011884369
9	0x3c6e683e	0.01455122
10	0x3bde8b65	0.0067915195
11	0x3b9f227f	0.004856407
12	0x3b44ba3e	0.0030018236
13	0x3b7c5e91	0.0038508514
14	0x3c499d06	0.012305504
15	0x3ba3a0ff	0.0049935575
16	0x3b5d8e84	0.003380687
17	0x3b97e4dc	0.0046354365
18	0xbb8e9fca	-0.0043525444
19	0x3b872a68	0.0041249283

net.2.layer.2.weight f4 [20, 20]
0	0xbea1fa14	-0.31636107
1	0xbead04de	-0.33792776
2	0xbe854eaf	-0.26036593
3	0xbdbee244	-0.093205005
4	0xbf16b28a	-0.5886618
5	0xbe021a46	-0.12705335
6	0x3e6ca3ed	0.23109408
7	0xbcb9f07d	-0.022697682
8	0xbd9c1187	-0.076205306
9	0x3eda12f6	0.4259259
10	0xbe9d5316	-0.30727452
11	0xbde767c9	-0.11299092
12	0x3e335548	0.17513001
13	0x3ee14b2d	0.44002667
14	0xbe235c0a	-0.15953079
15	0x3e756d42	0.2396746
16	0xbe41e140	-0.18933582
17	0x3e667ec2	0.22509292
18	0x3ebdc992	0.37067848
19	0xbeabbb2b	-0.33541235
20	0x3e8a17fb	0.2697142
21	0x3e067cbb	0.13133518
22	0xbe4b33cd	-0.19843979
23	0x3d6ceb3e	0.057841532
24	0x3ea34776	0.31890458
25	0x3e80aff1	0.25134233
26	0xbdbea235	-0.09308282
27	0xbedc03e1	-0.4297171
28	0x3f0c0d7f	0.54708093
29	0x3e6323d7	0.2218164
30	0xbf434e0d	-0.7629097
31	0x3df433b8	0.11923927
32	0x3e926342	0.28591353
33	0x3e26c7b5	0.1628712
34	0x3ef8db8c	0.48605
35	0x3e2fe185	0.17175873
36	0x3eb8538d	0.36001244
37	0xbed50a3c	-0.4160937
38	0x3e9f3882	0.310978
39	0xbec7099e	-0.38874525
40	0x3eaaa50b	0.33329043
41	0xbdade233	-0.0849041
42	0xbe6601ef	-0.22461675
43	0xbe71084b	-0.2353832
44	0x3e5bc126	0.21460399
45	0x3f82b36e	1.0211008
46	0xbea2eb85	-0.31820312
47	0xbe0e09ac	-0.13870877
48	0x3e22467f	0.15847205
49	0x3d40dd40	0.047086
50	0xbec616db	-0.38689312
51	0xbed489c5	-0.4151136
52	0x3e7bd737	0.24593817
53	0x3f04d82a	0.5189234
54	0x3ef9d954	0.4879862
55	0xbe8514f4	-0.25992548
56	0xbe9d13fc	-0.3067931
57	0x3cb7588a	0.022381086
58	0x3e455f10	0.19274545
59	0x3cfefadc	0.031125478
60	0x3f3c5430	0.7356596
61	0xbef468d6	-0.47736233
62	0x3e4d9cde	0.20079371
63	0x3ceeefbe	0.029167052
64	0x3cb40eb0	0.02197966
65	0xbf1f055e	-0.62117565
66	0xbf31b326	-0.69413984
67	0x3f0597d8	0.5218482
68	0x3e49741d	0.196732
69	0xbd996cde	-0.07491468
70	0x3f740ac8	0.9532895
71	0x3e863787	0.2621424
72	0x3f747a56	0.9549917
73	0x3ebe036b	0.37111983
74	0xbe6b2a6c	-0.22965401
75	0x3e2f4f10	0.17120004
76	0xbd950cf5	-0.07277862
77	0x3dd66695	0.10468785
78	0x3e22b09f	0.15887688
79	0xbe956de9	-0.29185417
80	0xbede55a8	-0.43424726
81	0xbe1b331a	-0.15156212
82	0xbe95592f	-0.29169604
83	0x3f4011ae	0.7502698
84	0xbd637238	-0.05552885
85	0xbd199971	-0.03749985
86	0xbe965d66	-0.29368132
87	0xbeb01c8d	-0.34396783
88	0x3ed0f343	0.40810594
89	0xbf0a3c0a	-0.5399786
90	0x3ef1b9ac	0.4721197
91	0x3d50762f	0.05089396
92	0x3d975fc0	0.0739131
93	0xbe47f421	-0.19526722
94	0x3e8e6cce	0.27817386
95	0x3e959653	0.2921625
96	0x3e7203de	0.23634288
97	0x3e8e444c	0.2778648
98	0x3e8b26a7	0.27177927
99	0xbf1e74e8	-0.61897135
100	0xbda4de70	-0.08050239
101	0xbe2f2fa5	-0.17108019
102	0x3e011596	0.1260589
103	0x3ed1bb7b	0.4096335
104	0x3ea51a98	0.32246852
105	0x3ec6b274	0.38808024
106	0xbcb2d6fe	-0.021831032
107	0xbe68598c	-0.2269041
108	0xbdfc48b2	-0.12318553
109	0x3dc4b9f9	0.09605784
110	0xbe4e6915	-0.20157273
111	0xbe93cc08	-0.288666
112	0x3f208bc1	0.6271325
113	0x3e951658	0.2911861
114	0xbd1f38a1	-0.038872365
115	0x3f32d679	0.6985851
116	0xbe181b91	-0.14854266
117	0xbee37c17	-0.4443061
118	0x3ea8ba99	0.32954863
119	0xbe5b8c8b	-0.21440332
120	0xbdb465f6	-0.0880851
121	0x3e1c87bc	0.15286154
122	0x3de8d877	0.113694124
123	0xbeb44609	-0.35209683
124	0xbf232f1b	-0.6374375
125	0x3f1866eb	0.5953204
126	0x3e8bc768	0.27300572
127	0x3f1b2b09	0.6061254
128	0xbf25aa41	-0.6471291
129	0x3f37400d	0.7158211
130	0xbeaf6bbf	-0.3426189
131	0xbe450428	-0.19239867
132	0xbeda2887	-0.42609045
133	0x3c3dfade	0.011595456
134	0x3d4e6cc4	0.050396696
135	0x3ef61490	0.48062563
136	0xbeeb4e08	-0.4595797
137	0xbf11698d	-0.5680168
138	0x3ea599b8	0.3234384
139	0x3df2b51d	0.11850951
140	0x3ebc5a76	0.36787766
141	0xbe182312	-0.14857128
142	0x3db23014	0.087005764
143	0xbecf2986	-0.40461367
144	0x3dd9bf8f	0.1063224
145	0x3ef55fd8	0.47924685
146	0x3e1acd60	0.15117407
147	0x3f235c0a	0.63812315
148	0x3e57ed1a	0.21086541
149	0xbda21dde	-0.07915853
150	0xbeb44657	-0.35209915
151	0xbcb753fe	-0.022378918
152	0xbeddf5de	-0.43351644
153	0x3e309bbf	0.17246912
154	0x3e50adb9	0.2037877
155	0xbf444daf	-0.76681036
156	0xbe50a70a	-0.2037622
157	0x3e3c98f1	0.18417718
158	0x3e3fa887	0.18716632
159	0x3efc703d	0.4930438
160	0x3f750e50	0.95724964
161	0x3d89641f	0.0670855
162	0x3eb97508	0.362221
163	0xbcd2d401	-0.025735857
164	0x3daf583e	0.08561753
165	0x3f1a4845	0.60266525
166	0xbd6957ff	-0.056968685
167	0x3ebe148c	0.3712505
168	0x3f0d2548	0.5513501
169	0x3eae06d2	0.33989578
170	0x3d4cb9a8	0.049981743
171	0xbc86f45c	-0.016473942
172	0x3e0b2d56	0.13591513
173	0xbe1d71d2	-0.1537545
174	0xbda8309b	-0.08212396
175	0xbe52992b	-0.20566241
176	0x3e235890	0.15951753
177	0x3b080612	0.0020755571
178	0x3d70bfb5	0.058776576
179	0x3e589457	0.21150337
180	0xbeef33c8	-0.46719193
181	0x3f86f0be	1.0542219
182	0x3d576d78	0.052594632
183	0xbe355201	-0.17707063
184	0x3eff5920	0.49872684
185	0xbdd083f3	-0.10181417
186	0x3d6b59eb	0.0574588
187	0x3e1cabcb	0.15299909
188	0xbf07b677	-0.53012794
189	0xbe95cad0	-0.29256296
190	0xbe2f1fb7	-0.17101942
191	0xbe8d0b94	-0.27547896
192	0x3d46d043	0.048538458
193	0x3dd496ab	0.103803
194	0x3f192cd1	0.5983401
195	0xbf074f46	-0.52855337
196	0xbf18acd0	-0.5963869
197	0xbf42b7fc	-0.7606199
198	0x3858d740	5.169888e-05
199	0xbe1e97be	-0.15487573
200	0x3f0c7c65	0.5487731
201	0xbe1b1557	-0.15144859
202	0xbf088300	-0.5332489
203	0xbe57116b	-0.21002738
204	0xbf07f1fc	-0.53103614
205	0xbf019dba	-0.50631297
206	0x3e8e4ba0	0.27792072
207	0xbd782d28	-0.06058994
208	0xbe1401bf	-0.14453791
209	0x3dc7a806	0.09748845
210	0xbda09d6d	-0.078425266
211	0xbe089bdb	-0.13340704
212	0xbe1800e5	-0.14844091
213	0x3d951361	0.07279087
214	0xbeb4ccdd	-0.35312548
215	0x3f808d10	1.0043049
216	0x3e6b3dbf	0.22972773
217	0xbe710e7d	-0.23540683
218	0xbea819e8	-0.32832265
219	0xbea0868b	-0.31352648
220	0x3e6be023	0.2303472
221	0x3e1a6f9e	0.15081641
222	0xbe2d1699	-0.16903152
223	0xbd95c99d	-0.07313845
224	0x3d659ec5	0.056059618
225	0xbf2da43f	-0.67828745
226	0x3eb74ae0	0.35799313
227	0x3f296dc7	0.6618313
228	0x3e40e483	0.1883717
229	0x3f027f0b	0.509751
230	0x3d46ff41	0.048583273
231	0xbed50b3e	-0.4161014
232	0xbf06b2d8	-0.52616644
233	0x3e3b0050	0.18261838
234	0x3ec75e99	0.3893936
235	0x3d012c21	0.031536225
236	0xbdaefabf	-0.0854392
237	0x3edb4399	0.4282501
238	0x3dba5131	0.09097517
239	0xbf033379	-0.51250416
240	0xbda07f30	-0.07836759
241	0xbeeb9b8c	-0.4601711
242	0xbf20cfb8	-0.62816954
243	0xbe6e2975	-0.23258002
244	0x3e5aea6f	0.21378492
245	0x3db2b1ce	0.0872532
246	0xbe1f15e0	-0.15535688
247	0xbddd5b9f	-0.10808491
248	0xbf1bd6a8	-0.60874414
249	0x3d7d8636	0.06189557
250	0x3e560fe4	0.209045
251	0x3ed11ced	0.4084238
252	0x3ef52129	0.47876862
253	0x3e9b875d	0.3037671
254	0xbf07a95e	-0.5299281
255	0xbec7a3a2	-0.3899203

net.2.layer.2.bias f4 [20]
0	0x3b7da579	0.0038703366
1	0x3b2b45fb	0.002613424
2	0x3c4413c9	0.011967608
3	0x3a56ea9c	0.00081984117
4	0x3bbe871d	0.0058144466
5	0x3bbb05c0	0.0057074726
6	0x3c4a82e9	0.012360313
7	0x3bff81df	0.0077974643
8	0x3c66cc72	0.0140868295
9	0x3c95f48a	0.018305082
10	0x3c35b04b	0.011089395
11	0x3c8d83b3	0.017274713
12	0xb9d9cb2e	-0.00041540846
13	0x3c2fe37b	0.010735388
14	0x3c89b17d	0.016808266
15	0x3b34747b	0.0027535248
16	0x3c6d5e29	0.014487782
17	0x3b2a4849	0.0025983027
18	0x3bf3e187	0.0074426564
19	0x3ba416c3	0.005007596

net.3.layer.0.weight f4 [20, 20]
0	0x3e921a92	0.28535897
1	0x3e833669	0.2562745
2	0xbec7f0eb	-0.39050993
3	0x3cf6724a	0.030083794
4	0x3e1467ca	0.14492717
5	0xbc3f1f3c	-0.011665162
6	0xbd4336b7	-0.047659602
7	0x3e745737	0.23861395
8	0x3eb2f8d5	0.3495547
9	0x3ef5f865	0.48041072
10	0xbe3c5f0d	-0.18395634
11	0xbeafac41	-0.34311107
12	0x3e97b516	0.29630345
13	0x3e4e311b	0.2013592
14	0xbe0acbab	-0.13554256
15	0x3e9fd881	0.31219867
16	0xbdba4e0e	-0.09096919
17	0xbe29a00d	-0.16564961
18	0xbe4562a6	-0.19275913
19	0x3f5685fa	0.8379818
20	0xbdd83277	-0.105565004
21	0xbf03a048	-0.51416445
22	0x3f0ed7f5	0.55798274
23	0x3ded60b2	0.11590709
24	0xbeda536d	-0.42641774
25	0xbe053726	-0.13009319
26	0x3f49aca4	0.78779054
27	0x3eb0fce6	0.34567946
28	0x3cb82cf6	0.022482377
29	0xbe6862e2	-0.22693971
30	0x3c7444db	0.014908995
31	0x3f1a1908	0.60194445
32	0xbde4e7aa	-0.11176999
33	0xbed7e3b2	-0.42165905
34	0x3ecdff30	0.40233755
35	0x3f4c700a	0.7985846
36	0xbed1f906	-0.41010302
37	0xbe2e973e	-0.17049882
38	0x3f613350	0.8796892
39	0x3d970c5a	0.07375403
40	0x3ea53a7b	0.3227118
41	0xbf087f16	-0.5331892
42	0xbdd099b5	-0.10185567
43	0xbf241644	-0.64096475
44	0x3f07e35c	0.530813
45	0x3e48d5fe	0.19612882
46	0xbf4ab524	-0.7918265
47	0xbefb864a	-0.49125892
48	0xbf6784cd	-0.9043701
49	0x3de1d46e	0.11026846
50	0xbe9740b4	-0.29541552
51	0x3e59c63e	0.2126703
52	0xbe92260b	-0.2854465
53	0x3ead2966	0.33820647
54	0x3ee917e9	0.45526055
55	0x3e51dbb6	0.2049397
56	0xbe85ea0c	-0.26155126
57	0x3e940971	0.28913453
58	0xbc5b51bd	-0.013386187
59	0xbef555d6	-0.4791705
60	0x3e0aadb8	0.13542831
61	0xbd03163f	-0.032003637
62	0xbdecacde	-0.11556409
63	0xbc2d6f3b	-0.010585601
64	0xbf4030d1	-0.7507449
65	0xbf13cf58	-0.57738256
66	0xbdaca696	-0.08430211
67	0x3e639b4f	0.22227214
68	0xbdce9bec	-0.100883335
69	0x3ec37b02	0.38179785
70	0xbede46b3	-0.43413314
71	0xbe5aed4b	-0.21379583
72	0x3f2d07de	0.6759013
73	0xbf0693de	-0.5256938
74	0xbc9d7a68	-0.019223407
75	0xbda14137	-0.07873767
76	0x3ed852bc	0.4225062
77	0xbdac58c6	-0.0841537
78	0x3a95de1d	0.0011433993
79	0x3e3fe120	0.18738222
80	0xbbe0704f	-0.0068493257
81	0x3daa78c6	0.08323817
82	0xbd4fb163	-0.05070628
83	0x3f034471	0.5127631
84	0xbe4953b8	-0.19660842
85	0x3e2683a7	0.16261159
86	0xbf392a2f	-0.7232999
87	0x3d84bfca	0.06481893
88	0x3ec37fd6	0.3818347
89	0x3e64adc6	0.22331914
90	0xbebb9a55	-0.36641183
91	0xbe70865f	-0.23488759
92	0x3e13d023	0.14434867
93	0xbea70d05	-0.3262712
94	0xbf246430	-0.64215374
95	0x3db91d70	0.09038818
96	0xbf8d1eef	-1.1025065
97	0xbe0ddf31	-0.13854672
98	0x3df2d718	0.11857432
99	0xbda41014	-0.08010879
100	0xbf0cefb0	-0.55053234
101	0xbeb5ee87	-0.35533544
102	0xbe41b166	-0.18915328
103	0x3ee24a0f	0.44197127
104	0xbe4a0895	-0.19729836
105	0xbe46078d	-0.19338818
106	0xbdae2db1	-0.08504809
107	0x3e9bd9f7	0.3043973
108	0xbbf0c6f4	-0.007347936
109	0xbee84759	-0.45366934
110	0xbe9f8ba3	-0.31161222
111	0xbd8f571c	-0.06999037
112	0xbdc24653	-0.094860695
113	0x3eb43077	0.35193226
114	0x3e43bf79	0.1911601
115	0x3f349812	0.7054454
116	0x3d92cfb8	0.071685255
117	0xbe4e4007	-0.20141612
118	0x3e8fd311	0.28090718
119	0x3ea906ea	0.33013088
120	0xbd56681d	-0.052345384
121	0x3e7468d3	0.23868112
122	0xbf1d3bf8	-0.6141963
123	0xbed0b1e3	-0.40760717
124	0xbef49548	-0.47770143
125	0x3e5eb214	0.21747619
126	0xbf81897a	-1.012008
127	0x3d80aa5d	0.06282494
128	0xbf19a4da	-0.6001717
129	0xbf048856	-0.5177053
130	0xbf101feb	-0.562987
131	0xbeae52b0	-0.3404746
132	0xbe934221	-0.2876139
133	0x3f8ee968	1.116498
134	0xbeb0f983	-0.34565362
135	0xbe911f26	-0.28344077
136	0xbe9417ce	-0.28924412
137	0x3f16841e	0.58795345
138	0xbe471c27	-0.19444333
139	0xbc8f9458	-0.01752679
140	0xbea50147	-0.32227537
141	0x3e2cd599	0.16878356
142	0x3f6bd13a	0.9211613
143	0x3eca9edd	0.39574328
144	0xbe79d911	-0.2439921
145	0x3d669fc3	0.056304704
146	0x3dd43535	0.10361711
147	0x3da4b819	0.08042926
148	0x3e4ad3f5	0.19807418
149	0x3f2236f6	0.63365114
150	0xbe195a2e	-0.14975807
151	0x3e849fa4	0.25903046
152	0xbe237f00	-0.15966415
153	0xbd3e54b8	-0.046467513
154	0x3f05b60c	0.52230906
155	0xbe258b55	-0.16166432
156	0xbee6152b	-0.44938025
157	0x3e9eb53e	0.30997652
158	0xbe0f4eeb	-0.13994949
159	0xbefadcd9	-0.48996618
160	0xbe62f618	-0.2216419
161	0xbe9332c6	-0.28749675
162	0xbe7146fe	-0.23562238
163	0x3f160669	0.5860353
164	0xbf0847f1	-0.53234774
165	0x3f1c7614	0.6111767
166	0x3b48fc3a	0.0030667917
167	0x3f63e94a	0.89027846
168	0xbf324fb9	-0.696529
169	0x3dce61cf	0.10077249
170	0x3f2ca479	0.67438465
171	0x3f0cd414	0.55011106
172	0xbf0dd544	-0.5540354
173	0xbe92b13f	-0.28650853
174	0x3d37ac41	0.04484201
175	0x3f14e82f	0.58166784
176	0xbe4314e4	-0.19050938
177	0xbe0e7b8b	-0.13914315
178	0xbea1bb4e	-0.31588215
179	0x3e33c6f7	0.17556368
180	0x3e88515c	0.26624572
181	0xbd32b68b	-0.043631118
182	0xbf5b1571	-0.8557959
183	0xbf695631	-0.9114714
184	0x3ed4726c	0.41493547
185	0xbf04c761	-0.5186673
186	0x3f18e708	0.59727526
187	0x3f01e014	0.5073254
188	0x3e10336d	0.14082117
189	0xbebb29c5	-0.36555305
190	0xbe63e0ba	-0.22253695
191	0xbea564ae	-0.32303375
192	0x3f1ea4c1	0.61970145
193	0x3e9f2f0c	0.3109058
194	0x3e95959f	0.29215714
195	0xbe9b642d	-0.30349866
196	0xbe169586	-0.14705476
197	0x3e8621e1	0.26197723
198	0xbe9ce933	-0.30646667
199	0xbebbd9a4	-0.36689484
200	0x3f260cf1	0.64863497
201	0x3ce0a70c	0.027423404
202	0x3e8ce536	0.27518624
203	0xbe5d1be6	-0.21592674
204	0xbdfc4b39	-0.12319035
205	0x3dda1b38	0.10649723
206	0xbe0cd6c0	-0.13753796
207	0xbe4166fa	-0.18886939
208	0xbe48dfca	-0.19616619
209	0x3e6ac5ae	0.22926971
210	0x3e3e05cf	0.18556903
211	0xbe886f61	-0.26647475
212	0x3f0ef5dd	0.5584391
213	0x3e89fc14	0.26950133
214	0x3e5a345a	0.21309033
215	0x3ea719f6	0.32636994
216	0x3dfb6f7e	0.12277125
217	0x3e0388e7	0.12845193
218	0xbeb71183	-0.35755548
219	0x3dd4a9c4	0.10383943
220	0x3f0e777e	0.5565108
221	0x3e33a220	0.17542315
222	0x3ce631bf	0.028099893
223	0xbe8fed94	-0.28110945
224	0xbd8c4050	-0.06848204
225	0xbe9f1be5	-0.3107597
226	0x3ebabb67	0.36471102
227	0x3dc1120a	0.09427269
228	0x3e61c827	0.22049008
229	0x3e229c2b	0.15879886
230	0x3e8123ba	0.2522257
231	0x3e24d9cb	0.16098706
232	0xbeaf1c0c	-0.34201086
233	0x3e62189a	0.22079697
234	0xbe20bb35	-0.15696414
235	0xbece67d9	-0.40313604
236	0x3f074f0d	0.52854997
237	0xbe286a8b	-0.16446893
238	0xbf1d0366	-0.6133331
239	0xbf26d3de	-0.65167034
240	0xbe290dd5	-0.16509183
241	0xbcce6102	-0.025192741
242	0x3e4fa69d	0.20278402
243	0xbe94d8c6	-0.29071635
244	0x3e7fa4fc	0.2496528
245	0xbecf4a83	-0.40486535
246	0x3dba2c6f	0.09090506
247	0x3d7c86ad	0.061651874
248	0xbf00ebe6	-0.5035995
249	0x3dd524e9	0.10407431
250	0x3ec1ff0f	0.37889907
251	0xbd136f10	-0.03599459
252	0xbe4d5bac	-0.20054501
253	0xbc47bef4	-0.012191523
254	0xbd50c512	-0.05096919
255	0xbe87805b	-0.26465115

net.3.layer.0.bias f4 [20]
0	0x3b766fb7	0.0037603208
1	0x3c8f494e	0.01749101
2	0x3c4dcab0	0.0125605315
3	0x3cec8a24	0.028874464
4	0xbc1e3677	-0.00965654
5	0x3bae3b46	0.0053171245
6	0x3c2098e7	0.00980208
7	0x3c842b74	0.016134001
8	0x3c581220	0.013187915
9	0x3cf31590	0.029673368
10	0x3ad44283	0.0016194138
11	0x3c829516	0.01594023
12	0x3c78da0a	0.015188703
13	0x3bad3336	0.005285646
14	0xbb22c476	-0.0024836338
15	0xbb7d2159	-0.0038624613
16	0x3bdbb4a9	0.006704886
17	0xbbe58517	-0.007004391
18	0xba82bd2f	-0.0009974594
19	0x3ca2868e	0.019839551

net.3.layer.2.weight f4 [20, 20]
0	0x3ec92e79	0.39293268
1	0xbeef0765	-0.4668533
2	0xbeacb8a5	-0.33734623
3	0xbdc79868	-0.09745866
4	0x3e90cbd4	0.2828051
5	0x3e0e9e2f	0.1392753
6	0xbdeb31ec	-0.11484131
7	0x3d0c65f8	0.034276932
8	0xbeddc353	-0.43313083
9	0x3e0ebe29	0.13939728
10	0xbd23f85a	-0.04003177
11	0x3dbc5218	0.09195346
12	0xbf1b39ab	-0.6063487
13	0x3e407cb3	0.18797569
14	0xbf0468db	-0.51722497
15	0xbcf044b1	-0.02932963
16	0xbe1e9908	-0.15488064
17	0xbd908b6f	-0.07057845
18	0x3e825802	0.2545777
19	0x3ea15a43	0.31514177
20	0xbe975804	-0.29559338
21	0xbefc33f0	-0.49258375
22	0xbeda04c1	-0.42581752
23	0x3e366e06	0.17815408
24	0xbdad8477	-0.08472531
25	0xbe38d676	-0.1805056
26	0x3ed1bde5	0.4096519
27	0xbee9c27a	-0.45656186
28	0xbf1207d6	-0.57043207
29	0xbe845b40	-0.25850868
30	0xbf1cabd4	-0.6119969
31	0xbe80137b	-0.25014862
32	0x3e4aa786	0.19790468
33	0xbd6e82b1	-0.058230106
34	0x3d41133f	0.047137495
35	0x3eb494a3	0.3526965
36	0x3dc80b15	0.09767739
37	0x3ebef639	0.37297228
38	0xbe94937b	-0.2901877
39	0xbe715e3c	-0.23571104
40	0x3ebffa6d	0.37495747
41	0xbe5f7450	-0.21821713
42	0x3c15597b	0.009115572
43	0xbca9d751	-0.020732554
44	0xbe32ae53	-0.17449312
45	0xbe2ffff3	-0.1718748
46	0x3e5ff727	0.21871625
47	0x3eb12b59	0.34603384
48	0xbe698d48	-0.22807801
49	0x3dfc5215	0.123203434
50	0xbe9b9576	-0.30387467
51	0x3e588752	0.2114537
52	0x3ef39fc0	0.47582817
53	0x3efb7947	0.49115965
54	0x3ed2beb6	0.41161126
55	0xbf3399e8	-0.7015672
56	0xbe47fbce	-0.1952965
57	0x3de831ce	0.113376245
58	0x3edd596f	0.43232295
59	0x3e3f5974	0.18686467
60	0x3d9f888d	0.07789717
61	0x3ce2098e	0.027592447
62	0x3f0b2589	0.5435415
63	0xbe2bd1e2	-0.16779283
64	0xbf56a58d	-0.8384636
65	0xbe8954d6	-0.26822537
66	0x3efe69d9	0.4969013
67	0xbe21adbf	-0.15788935
68	0x3e6975fc	0.22798914
69	0xbf789475	-0.9710153
70	0x3f1c799e	0.61123073
71	0xbeab7b6f	-0.3349261
72	0x3e7686a9	0.24074806
73	0xbd1619a9	-0.036645565
74	0xbe0aa576	-0.13539681
75	0x3e4e4622	0.20143941
76	0x3e892802	0.26788336
77	0x3f74325d	0.9538935
78	0x3d8cb457	0.068703346
79	0xbeb9dc06	-0.36300677
80	0x3ebf2262	0.3733092
81	0x3e9034c4	0.28165257
82	0x3e284ef8	0.16436374
83	0x3ea0ef31	0.3143249
84	0x3d6d4b67	0.057933237
85	0x3f71da82	0.9447404
86	0x3f06d069	0.5266176
87	0xbe5e4838	-0.21707237
88	0x3edf53a6	0.43618506
89	0x3cbff3ad	0.023431623
90	0xbd45ef65	-0.048324008
91	0xbdf12735	-0.11775056
92	0xbda2f425	-0.07956723
93	0xbdeadce6	-0.11467914
94	0x3eae7170	0.3407092
95	0xbe466615	-0.19374879
96	0xbeb6d204	-0.35707104
97	0xbe8095c1	-0.25114253
98	0xbee52eb7	-0.44762203
99	0xbf23417f	-0.63771814
100	0x3f2e885a	0.68176806
101	0x3db1b410	0.08676922
102	0xbddd9c57	-0.10820835
103	0xbefb01ed	-0.49024907
104	0x3ec32efb	0.3812178
105	0x3e37a0cd	0.17932434
106	0x3e418ae1	0.18900634
107	0x3d9b2f67	0.07577401
108	0x3ee3db2b	0.4450315
109	0x3df55b95	0.119803585
110	0xbebccaa8	-0.36873364
111	0xbf5f8584	-0.87313104
112	0xbf1a4e35	-0.60275584
113	0x3eaae4d3	0.33377704
114	0xbe9c743d	-0.30557433
115	0xbd0dee58	-0.03465113
116	0x3dda208c	0.10650739
117	0xbe41a3ac	-0.18910092
118	0x3f150de7	0.5822434
119	0xbf04d07a	-0.5188061
120	0x3dae9970	0.0852536
121	0xbe442a3d	-0.19156738
122	0xbf160c28	-0.586123
123	0x3f98588a	1.190202
124	0x3de8e848	0.11372429
125	0x3db4d6b1	0.08830012
126	0x3e822956	0.25422162
127	0xbe224b98	-0.15849149
128	0xbe985c19	-0.29757765
129	0x3dc7066b	0.09718021
130	0x3eb508cc	0.35358274
131	0x3e684aae	0.22684738
132	0xbe9369c4	-0.2879163
133	0x3c5a2cf4	0.013316382
134	0xbda600a8	-0.08105594
135	0xbeb23f81	-0.34814075
136	0xbd5e86e6	-0.054327868
137	0xbf0769d3	-0.5289585
138	0x3e459f59	0.19299068
139	0xbe1bd4dd	-0.1521792
140	0x3dada679	0.08479018
141	0xbecb28fe	-0.39679712
142	0xbf23d5c1	-0.6399804
143	0x3e896c18	0.2684028
144	0x3d8800e7	0.06640797
145	0x3cbf7cdf	0.023374973
146	0xbe69b27f	-0.22821997
147	0xbe0a6fe6	-0.13519248
148	0x3c979ecc	0.018508337
149	0xbe3ecc47	-0.18632613
150	0xbe343bcd	-0.17600937
151	0x3ec6bb56	0.388148
152	0xbe81824e	-0.25294727
153	0xbf514704	-0.81748986
154	0xbe8a9e4a	-0.2707389
155	0xbebcfe60	-0.36912823
156	0x3f22377b	0.63365906
157	0xbed6f3a9	-0.41982773
158	0xbd0970a1	-0.033554677
159	0x3d809936	0.06279223
160	0xbee86230	-0.4538741
161	0xbefd1f04	-0.49437726
162	0xbf34575b	-0.70445794
163	0x3eb20780	0.34771347
164	0xbf12a4ab	-0.57282513
165	0xbf5ea967	-0.8697724
166	0xbe7a45f4	-0.24440747
167	0x3e3c0c01	0.18363954
168	0xbf13f6a7	-0.57798237
169	0x3e94b1da	0.2904194
170	0x3f0aaa07	0.5416569
171	0xbe369b7b	-0.17832749
172	0xbcbb515d	-0.022865945
173	0xbe34fff1	-0.17675759
174	0xbef3e729	-0.476373
175	0xbda26de8	-0.07931119
176	0xbe057be3	-0.1303554
177	0xbf1e5ff5	-0.6186517
178	0x3d1d6da9	0.03843466
179	0x3d19097b	0.037362557
180	0x3e159426	0.14607295
181	0xbe9953f9	-0.2994688
182	0x3f5c23e3	0.8599226
183	0xbf2bf056	-0.671636
184	0xbe1bee14	-0.15227538
185	0x3f0be84c	0.5465133
186	0x3be96689	0.007122819
187	0xbcd8ae97	-0.026450438
188	0x3f77b408	0.9675908
189	0x3d9ae993	0.07564082
190	0x3e74f0b2	0.23919943
191	0xbe3cb213	-0.18427305
192	0xbe83ed77	-0.2576711
193	0x3f145904	0.5794833
194	0xbf01977b	-0.50621766
195	0x3edcd0e2	0.43128115
196	0xbec4056c	-0.38285387
197	0x3f11a2e3	0.5688917
198	0xbde0f6be	-0.10984562
199	0x3f10f68a	0.5662619
200	0x3e56dd3c	0.20982832
201	0x3e1e5ccc	0.15465087
202	0xbe693526	-0.22774181
203	0x3ebd6faa	0.36999255
204	0x3ea2292c	0.31672037
205	0xbdf7a0ca	-0.12091215
206	0x3f1ccac4	0.61246896
207	0xbf2a3330	-0.66484356
208	0xbf86d6b4	-1.0534272
209	0xbe6eeb79	-0.23332013
210	0xbe99c603	-0.30033883
211	0xbf2e20e4	-0.6801894
212	0xbe221d4f	-0.15831493
213	0xbf61de16	-0.882295
214	0xbf2b2c3e	-0.66864383
215	0x3e66a230	0.22522807
216	0xbeb48902	-0.3526078
217	0x3ea55bdf	0.32296655
218	0xbe56f893	-0.20993261
219	0x3e95a604	0.29228222
220	0xbe164453	-0.14674501
221	0xbe692d8a	-0.22771278
222	0xbe9e4081	-0.30908588
223	0xbd9261a7	-0.07147532
224	0x3f159a1e	0.5843829
225	0x3eaca4fc	0.33719623
226	0xbd280060	-0.041015983
227	0xbeb90fce	-0.3614487
228	0xbecb719a	-0.3973511
229	0x3e0023c6	0.12513646
230	0x3e1cc41b	0.15309183
231	0xbeb99aee	-0.36251014
232	0xbeaa026c	-0.33204973
233	0x3e1f4f93	0.15557699
234	0xbdbde2f7	-0.09271806
235	0x3d673c52	0.05645401
236	0xbdd85cbd	-0.105645634
237	0xbe7d209a	-0.24719468
238	0x3ea2dd33	0.31809387
239	0xbf052572	-0.5201026
240	0x3f3e41c3	0.74319094
241	0xbe4fca61	-0.20292045
242	0x3ecbd138	0.3980806
243	0xbc9bcfe8	-0.019020036
244	0xbeaa44bd	-0.33255568
245	0x3f14e798	0.58165884
246	0x3d18e63e	0.03732895
247	0x3b66be68	0.0035208706
248	0x3e1e44bf	0.15455912
249	0xbe849b21	-0.25899604
250	0xbe1a9016	-0.15094027
251	0x3e2efa5b	0.1708769
252	0xbf11a6fd	-0.5689543
253	0x3f296c1f	0.66180605
254	0xbe0518a6	-0.12997684
255	0x3e84191c	0.25800407

net.3.layer.2.bias f4 [20]
0	0x3b873175	0.004125769
1	0xbba1c261	-0.004936502
2	0x3c920435	0.017824272
3	0xbcd3a1e8	-0.025834039
4	0x3cd576a0	0.026057541
5	0x3d154e47	0.036451604
6	0x3b3169b3	0.0027071058
7	0x3bcfda0e	0.006343133
8	0x3cc1da1d	0.023663575
9	0x3ad2fdbd	0.0016097348
10	0x3bd3c9ee	0.006463281
11	0xbd0ddbb2	-0.034633346
12	0x3c1894cc	0.00931282
13	0x3c5241f7	0.01283311
14	0x3c2d917b	0.010593767
15	0x3c838083	0.01605249
16	0x3cafb868	0.021450236
17	0x3b94705d	0.0045299963
18	0xbc3052a6	-0.010761892
19	0x3ce692eb	0.028146228

net.4.layer.0.weight f4 [20, 20]
0	0xbe81285f	-0.25226113
1	0xbed39b8d	-0.41329613
2	0x3f0133e4	0.50469804
3	0x3e89b5f1	0.26896623
4	0x3ed6dd85	0.4196588
5	0xbf13abb8	-0.57683897
6	0xbe2373f8	-0.15962207
7	0x3f336890	0.70081425
8	0x3eaf656b	0.34257063
9	0x3e8afa1b	0.2714394
10	0x3e20f83e	0.15719697
11	0xbe71f0f3	-0.23627071
12	0xbf1d892b	-0.61537427
13	0xbad1dd85	-0.0016011453
14	0x3ea75317	0.3268058
15	0x3efc39e4	0.49262917
16	0xbf32ccb2	-0.6984359
17	0xbdf62e57	-0.120205574
18	0xbcf62797	-0.030048175
19	0xbc0bdaf9	-0.008536094
20	0xbe5af0a9	-0.21380867
21	0xbeb53f8c	-0.35400045
22	0xbda0aa3f	-0.07844972
23	0xbcfe54e9	-0.031046348
24	0x3df41756	0.119185135
25	0x3df89ac9	0.12138898
26	0xbe587f25	-0.21142252
27	0xbe040fa1	-0.12896587
28	0xbef33e73	-0.47508582
29	0xbddaaf15	-0.106779255
30	0xbe8a5150	-0.27015162
31	0xbc23519e	-0.0099681895
32	0x3de6a33f	0.112616055
33	0xbe264644	-0.16237742
34	0xbe0da4b6	-0.13832363
35	0x3e25055d	0.16115327
36	0xbe8445ce	-0.25834507
37	0x3f8b34de	1.0875509
38	0x3d40ff69	0.047118578
39	0xbf0f64cf	-0.56013197
40	0xbdf3c86d	-0.119034626
41	0x3f1930f5	0.5984033
42	0xbe9b10e0	-0.30286312
43	0xbeaa5b1e	-0.33272642
44	0xbece5dfb	-0.40306076
45	0xbed9269d	-0.42412272
46	0xbe12a54c	-0.14320868
47	0xbf0075e1	-0.5017987
48	0xbefa9668	-0.48942876
49	0xbefb4f45	-0.49083915
50	0x3c8e2cb2	0.017355297
51	0xbea3f9db	-0.32026562
52	0xbf152b57	-0.58269256
53	0x3e3cdaf3	0.18442897
54	0x3ebbeffc	0.3670653
55	0xbefdf851	-0.49603513
56	0x3eac2a85	0.3362619
57	0x3d4d2364	0.05008258
58	0xbe87e0c0	-0.26538658
59	0x3f7b8b75	0.9825967
60	0x3f0f34d4	0.55939984
61	0x3f0ca3c4	0.54937387
62	0xbe31179e	-0.17294165
63	0xbee015d9	-0.43766668
64	0x3ea3778a	0.3192714
65	0xbeb4a523	-0.3528224
66	0xbebe3f05	-0.37157455
67	0x3f22d4ca	0.6360594
68	0x3f8657fb	1.04956
69	0x3ea5bdf1	0.32371476
70	0x3ea8643a	0.32888967
71	0xbe9347cc	-0.28765714
72	0xbf3201f6	-0.6953424
73	0xbe89024b	-0.26759562
74	0x3e660ae3	0.2246509
75	0xbd5d4657	-0.05402216
76	0x3e1cb635	0.15303881
77	0x3e84ab3d	0.25911894
78	0xbf952f6d	-1.1655098
79	0xbe7f4004	-0.24926764
80	0xbed464b2	-0.41483074
81	0xbeffc4bf	-0.49954793
82	0x3e41b760	0.18917608
83	0xbe4282c6	-0.18995199
84	0x3f6fdecd	0.9369934
85	0x3ed27469	0.4110444
86	0xbe81b959	-0.25336722
87	0x3e06bbae	0.13157532
88	0xbef108e4	-0.47077096
89	0xbe216145	-0.15759762
90	0xbed0ae5c	-0.40758026
91	0x3e582626	0.21108302
92	0x3f4abbf2	0.7919303
93	0x3e830ac6	0.25594157
94	0xbb21e08f	-0.0024700498
95	0x3e9a0fee	0.30090278
96	0x3e503742	0.20333579
97	0x3f94848f	1.1602954
98	0xbe5890fb	-0.21149056
99	0x3dc46818	0.09590167
100	0xbf367fce	-0.71288764
101	0xbcdae862	-0.026722137
102	0xbebd112b	-0.3692716
103	0xbd0f3e80	-0.034971714
104	0xbe72b3ca	-0.23701397
105	0x3eafff8c	0.34374654
106	0x3d200593	0.039067816
107	0x3e30a569	0.17250599
108	0x3e7bcfbf	0.24590968
109	0x3f3bcaf4	0.73356557
110	0xbe0a2ad1	-0.13492896
111	0xbbe4c6b3	-0.0069816946
112	0x3f073d8c	0.5282829
113	0x3e3dc7fe	0.18533322
114	0xbdc1a0db	-0.09454509
115	0xbdb4fdbd	-0.08837459
116	0xbe5c0f2b	-0.21490161
117	0xbef8c76e	-0.48589653
118	0xbf3fa4a2	-0.74860585
119	0x3e12afee	0.14324924
120	0x3f944b5c	1.1585498
121	0x3f0820a5	0.5317481
122	0xbdf75d0b	-0.120782934
123	0x3d2416ff	0.040060993
124	0x3dfd041b	0.12354299
125	0x3e23261d	0.15932508
126	0x3e3f6e5b	0.18694441
127	0x3f16116d	0.5862034
128	0x3e8bbe29	0.27293518
129	0xbe9d04b2	-0.30667645
130	0x3cbf6aab	0.023366293
131	0xbe18a552	-0.14906815
132	0x3de8e60f	0.11372005
133	0xbd9cfa10	-0.07664883
134	0x3d916252	0.07098831
135	0x3f0258c5	0.509167
136	0x3dc5b2ca	0.09653242
137	0x3e197e1f	0.14989518
138	0xbf1f4c05	-0.6222537
139	0xbf22e0fe	-0.6362456
140	0xbe2b3abd	-0.16721626
141	0xbf116af5	-0.5680383
142	0xbe0f2f2a	-0.13982835
143	0x3e9ce8fb	0.306465
144	0xbe7a666f	-0.24453138
145	0x3e0d2bf6	0.13786301
146	0x3e9638da	0.2934025
147	0xbc65b29a	-0.014019633
148	0xbe8a1d66	-0.26975554
149	0x3e09e14c	0.1346485
150	0xbe293b0d	-0.16526432
151	0xbdca3e53	-0.09875169
152	0x3f5d7226	0.865023
153	0x3f30edab	0.6911265
154	0x3da76858	0.08174199
155	0x3cc72a7e	0.024312254
156	0xbd9c1db0	-0.0762285
157	0x3d95077a	0.07276817
158	0x3e65fc73	0.22459583
159	0xbe189fb9	-0.1490468
160	0x3e1acb58	0.15116632
161	0x3ecacba6	0.39608496
162	0x3ee6a89c	0.45050514
163	0xbeea51ec	-0.45765626
164	0xbe908fa6	-0.28234595
165	0x3dc0ea91	0.0941974
166	0x3e05787f	0.13034247
167	0x3eb32465	0.34988704
168	0xbf603bb7	-0.8759112
169	0xbe2285e8	-0.15871394
170	0x3eb31587	0.34977362
171	0xbee125cd	-0.43974152
172	0xbea41265	-0.32045284
173	0xbf395800	-0.723999
174	0xbf1a8894	-0.6036465
175	0x3eb96018	0.36206126
176	0xbef3eb8b	-0.47640643
177	0xbc88bf52	-0.016692791
178	0xbe41bbb3	-0.18919258
179	0xbecb6b9f	-0.39730546
180	0xbe41ffb0	-0.18945193
181	0xbe219072	-0.15777758
182	0xbf47871b	-0.7794053
183	0x3ebc652c	0.36795938
184	0xbed6d8c5	-0.41962257
185	0x3e5150f9	0.20441045
186	0xbea14227	-0.31495783
187	0x3f1375b5	0.5760148
188	0x3eec085c	0.46100128
189	0x3c52e689	0.012872347
190	0x3ebb0c5c	0.36532867
191	0xbd1892df	-0.037249442
192	0x3e70e357	0.23524223
193	0x3e5ea577	0.21742807
194	0xbe2eeeab	-0.17083232
195	0xbe37fc35	-0.17967303
196	0x3d915b46	0.07097487
197	0xbe2dd6bb	-0.16976444
198	0xbe81c762	-0.2534743
199	0x3f066aef	0.5250692
200	0xbee3908d	-0.4444622
201	0xbf00aa0f	-0.5025949
202	0x3ecdb35e	0.4017591
203	0xbe4b6258	-0.19861734
204	0x3e2c72b5	0.16840632
205	0xbd9c3501	-0.07627297
206	0x3df465bc	0.11933467
207	0x3dcb5caa	0.09929784
208	0xbe87605d	-0.26440707
209	0x3e005ea5	0.12536104
210	0xbd91d761	-0.071211584
211	0xbd65e885	-0.05612995
212	0x3f0c3a35	0.54776317
213	0xbf11ce22	-0.5695516
214	0x3df6ba2f	0.120472305
215	0x3f43f543	0.76546115
216	0x3f05fa6e	0.5233525
217	0xbe55405f	-0.20825337
218	0xbecbabef	-0.39779612
219	0xbef1818b	-0.47169146
220	0xbe9b511f	-0.30335328
221	0x3f044132	0.5166198
222	0x3f1cd0d1	0.6125613
223	0xbef72841	-0.482729
224	0x3e56dce5	0.20982702
225	0x3ea60cd5	0.32431665
226	0xba32e306	-0.000682399
227	0xbe89ea43	-0.2693654
228	0xbfd65692	-1.6745169
229	0x3ebad7c3	0.36492738
230	0xbe324858	-0.1741041
231	0x3de3f19c	0.11130068
232	0x3f1e5f4e	0.61864173
233	0xbe268cf9	-0.16264714
234	0xbdda7316	-0.10666482
235	0xbeb1e340	-0.3474369
236	0xbe225c65	-0.15855558
237	0xbf233a7d	-0.6376112
238	0x3eed3df1	0.4633632
239	0xbe6381d6	-0.22217497
240	0xbeb3c858	-0.35113788
241	0x3e365032	0.1780403
242	0xbe73faf5	-0.23826201
243	0x3f34dca4	0.7064917
244	0x3f3e8a1d	0.74429494
245	0xbf86f3a7	-1.0543107
246	0x3e0485ad	0.12941618
247	0xbed3987c	-0.41327274
248	0xbe7094c5	-0.23494251
249	0xbf33e077	-0.7026438
250	0xbdc194c0	-0.094522
251	0xbf275e55	-0.65378314
252	0xbdb2fee7	-0.08740025
253	0x3ebf9ee3	0.37425908
254	0x3e56e21a	0.20984688
255	0x3eb67921	0.3563929

net.4.layer.0.bias f4 [20]
0	0x3d4ba7cc	0.04972057
1	0x3cc6ecaa	0.024282772
2	0x3c81bf18	0.01583819
3	0xbc45f43c	-0.012082156
4	0xbb84eca2	-0.004056529
5	0x3c469158	0.012119614
6	0x3c5c8694	0.01345982
7	0x3cae2542	0.021258
8	0xbd0dee24	-0.034650937
9	0x3c6cfc1a	0.014464403
10	0x3cb9111b	0.022591164
11	0x3ccc27e3	0.024921363
12	0x3c5eb61f	0.013593226
13	0x3d01b110	0.031663
14	0x3a8a3d4a	0.001054683
15	0xbc169eaf	-0.009193107
16	0x3c34229c	0.01099458
17	0xbc343e13	-0.011001128
18	0x3b621cf3	0.0034502118
19	0x3b77eecf	0.003783155

net.4.layer.2.weight f4 [20, 20]
0	0x3d206052	0.03915436
1	0x3e55f63b	0.2089471
2	0x3e9cf6a9	0.30656937
3	0x3f25d2c7	0.64774746
4	0xbe35a00f	-0.17736839
5	0x3ede4300	0.43410492
6	0x3f0f7980	0.5604477
7	0xbf5db6cc	-0.8660705
8	0xbe25493c	-0.16141218
9	0x3e8f5f73	0.2800251
10	0x3e91643b	0.28396782
11	0x3ecb7398	0.3973663
12	0x3df46b17	0.11934488
13	0xbe8d30e2	-0.27576357
14	0x3f6cc3ec	0.92486453
15	0x3e820889	0.25397137
16	0xbf0d9271	-0.55301577
17	0xbed33ba4	-0.4125644
18	0xbf00faee	-0.5038289
19	0xbed75b2a	-0.4206174
20	0x3f81dc69	1.0145389
21	0x3f3b923d	0.73270017
22	0x3e1b03a6	0.1513811
23	0xbe6828b0	-0.22671771
24	0xbe9132cc	-0.28359067
25	0xbefd48f1	-0.49469712
26	0xbed239bd	-0.41059676
27	0x3c4313ef	0.011906608
28	0x3e2206f6	0.15822968
29	0x3e86166c	0.26188982
30	0x3f18f65a	0.597509
31	0x3f785603	0.97006243
32	0x3f10e44a	0.5659834
33	0xbe30c9b8	-0.1726445
34	0x3ec23dd1	0.37937787
35	0x3ee258a4	0.44208252
36	0xbe4acf97	-0.19805752
37	0xbe58404d	-0.21118279
38	0xbda747fd	-0.081680275
39	0x3d0c7f8c	0.034301326
40	0x3f4cd9b6	0.800197
41	0xbe8928ce	-0.26788944
42	0x3f767409	0.96270806
43	0x3eecbcff	0.46237943
44	0xbe63e2fc	-0.22254556
45	0xbeb2dae6	-0.3493263
46	0x3f56e053	0.8393604
47	0xbe7cbb45	-0.24680813
48	0x3e204e95	0.15654977
49	0x3e4baa58	0.198892
50	0xbd6ea208	-0.058259994
51	0xbef90c9c	-0.48642433
52	0xbc543b42	-0.012953581
53	0xbd185e5a	-0.037199356
54	0xbd752cb6	-0.059857093
55	0x3f086588	0.53279924
56	0x3d6300c7	0.055420663
57	0xbf4f51fd	-0.8098448
58	0xbe85bedf	-0.26122186
59	0x3dea17a9	0.11430294
60	0xbe77051d	-0.24123044
61	0xbdaf313b	-0.08554312
62	0x3ef6dbf4	0.48214686
63	0x3e3f0880	0.18655586
64	0xbf16da91	-0.58927256
65	0xbf36a97c	-0.7135236
66	0xbd13fc28	-0.036129147
67	0x3cd82291	0.02638367
68	0xbdc3fbaf	-0.09569489
69	0xbe850a16	-0.25984257
70	0x3e847568	0.25870824
71	0x3e13b425	0.14424188
72	0x3f2dfefe	0.6796721
73	0xbf080436	-0.53131425
74	0x3ed3edae	0.41392273
75	0x3e489ccb	0.19591062
76	0x3e49e3d0	0.1971581
77	0x3ec26645	0.3796865
78	0x3e8244ba	0.2544306
79	0x3eb22773	0.34795722
80	0x3e0e8e47	0.13921462
81	0x3e5938e3	0.21213107
82	0xbe4a56a2	-0.1975961
83	0x3df21281	0.118199356
84	0x3e22bfd5	0.1589349
85	0x3c872b03	0.016500002
86	0x3d05973b	0.032614928
87	0xbe8efa9a	-0.2792557
88	0x3e908395	0.2822539
89	0x3da19a5c	0.0789077
90	0x3ef23fc7	0.47314283
91	0x3ebed219	0.37269667
92	0xbe42f3b9	-0.19038285
93	0xbe1035f6	-0.14083084
94	0xbe941c94	-0.28928053
95	0x3dc99bbb	0.09844156
96	0x3de812f5	0.11331741
97	0xbabeb448	-0.0014549578
98	0x3f6250a4	0.884043
99	0x3e9d3fa6	0.30712622
100	0x3f3542f9	0.7080532
101	0xbdff6392	-0.124701634
102	0x3eb57f72	0.35448796
103	0xbe80b740	-0.2513981
104	0xbf538f79	-0.82640797
105	0xbeae52a9	-0.3404744
106	0x3eeec10a	0.46631652
107	0xbd8c2b57	-0.06844204
108	0x3d090e00	0.033460617
109	0xbe81fc0f	-0.25387618
110	0xbd3939cd	-0.04522114
111	0xbeea57e8	-0.45770192
112	0xbd20609b	-0.03915463
113	0x3ebeb306	0.3724596
114	0xbef93761	-0.48675063
115	0x3cf05c95	0.029341022
116	0x3dca884e	0.09889279
117	0xbda641cc	-0.081180185
118	0xbe79efb3	-0.24407844
119	0xbe3bf9a2	-0.18356946
120	0xbe685209	-0.22687544
121	0xbe971634	-0.29509127
122	0xbe6850d2	-0.2268708
123	0xbe76dff3	-0.24108867
124	0xbfaeb792	-1.3649771
125	0xbf20b0d6	-0.6276983
126	0xbe9ba5c6	-0.30399913
127	0x3e9702cc	0.2949432
128	0x3e398410	0.18116784
129	0x3f06f181	0.52712256
130	0x3e443be8	0.19163477
131	0xbf27c988	-0.6554189
132	0x3e96a85d	0.29425326
133	0x3f0de079	0.55420643
134	0x3d98f5c2	0.074687496
135	0x3c836299	0.016038226
136	0xbf3c6c63	-0.73602885
137	0xbe51580e	-0.20443746
138	0x3ce5b176	0.028038722
139	0x3efaf2d1	0.4901338
140	0x3f0316d3	0.512067
141	0x3dc273c5	0.094947375
142	0x3db7c07a	0.08972259
143	0xbe0fe2c5	-0.1405135
144	0x3e6a688e	0.22891447
145	0x3e8cd22f	0.27504107
146	0x3e4863e6	0.19569358
147	0xbdacf259	-0.08444662
148	0x3d73596e	0.05941146
149	0x3aa83ccb	0.00128355
150	0xbe2e6389	-0.17030157
151	0xbd2b8c0e	-0.041881613
152	0xbe25f6d3	-0.16207437
153	0x3ca48044	0.020080693
154	0xbf355e9c	-0.7084749
155	0xbef124cc	-0.47098386
156	0x3f114fad	0.567622
157	0xbecdc1ca	-0.40186912
158	0x3e8d55bd	0.27604476
159	0x3f071245	0.5276225
160	0xbd4222c8	-0.04739645
161	0xbf1018ea	-0.56288016
162	0x3f463f0f	0.7743997
163	0x3dc39254	0.09549394
164	0xbe991c9f	-0.2990465
165	0x3d7388c8	0.059456617
166	0xbd7f429a	-0.062319376
167	0xbcaa891c	-0.020817332
168	0x3e402e2d	0.18767615
169	0x3e8f67da	0.2800892
170	0x3e9a7ac6	0.30171794
171	0x3e886e0e	0.26646465
172	0x3c62a5a3	0.013833436
173	0xbe7c7f8d	-0.24658032
174	0xbdcd02e8	-0.1001032
175	0xbf3c7671	-0.7361823
176	0x3ef4c95e	0.4780988
177	0xbf51e60d	-0.81991655
178	0xbefc0c5e	-0.49228185
179	0x3e1b1585	0.15144928
180	0xbe7d470f	-0.24734138
181	0x3f065f72	0.5248939
182	0xbe390274	-0.18067342
183	0xbdf266bd	-0.11836002
184	0xbe9ca29b	-0.30592808
185	0x3e47155a	0.19441739
186	0xbe7f776b	-0.24947898
187	0x3ec23381	0.3792992
188	0xbf0336d0	-0.5125551
189	0x3eb4ee0c	0.35337865
190	0xbe457913	-0.19284467
191	0xbe32d65c	-0.17464584
192	0xbf2de33c	-0.6792486
193	0x3e4d92fd	0.20075603
194	0x3eb5f110	0.3553548
195	0x3ee53601	0.44767764
196	0x3f3f65b5	0.7476457
197	0x3e34fc60	0.17674398
198	0x3e38c379	0.18043317
199	0x3f1e1e28	0.61764765
200	0xbeda17f9	-0.42596415
201	0x3ea1caec	0.3160013
202	0xbc73cf08	-0.014880903
203	0xbe88379b	-0.26604924
204	0x3f01b79c	0.5067079
205	0xbf075e9b	-0.5287873
206	0xbf9299bf	-1.145317
207	0xbe805a77	-0.2506902
208	0x3f3c4bd1	0.73553187
209	0xbd8b0150	-0.0678736
210	0x3ee830c9	0.4534972
211	0x3ea41143	0.3204442
212	0xbeb3a108	-0.35083795
213	0xbed7e7c1	-0.42169002
214	0x3f095fa5	0.53661567
215	0xbedb99f1	-0.42890885
216	0xbee4e89c	-0.44708717
217	0x3f037446	0.51349294
218	0x3ec0b0b5	0.37634817
219	0x3d6efd93	0.058347296
220	0xbed37a93	-0.41304454
221	0xbd90684d	-0.07051144
222	0xbd645bdc	-0.055751666
223	0xbdeca406	-0.115547225
224	0xbedf77c6	-0.43646067
225	0xbef35d44	-0.47532094
226	0xbd0619a1	-0.032739285
227	0x3e01cf2c	0.12676686
228	0xbf13494d	-0.57533723
229	0x3b47dc85	0.003049643
230	0x3f092a35	0.5358003
231	0xbe31160d	-0.17293568
232	0xbc9adf38	-0.018905267
233	0xbe958d08	-0.2920916
234	0xbe0fd676	-0.14046654
235	0x3d35d1ce	0.04438954
236	0x3eee3b3f	0.46529576
237	0x3e846266	0.25856322
238	0x3ea5734c	0.32314527
239	0x3d352bea	0.044231333
240	0x3e4924cf	0.19642948
241	0x3d83e921	0.0644095
242	0x3e8a85ba	0.2705515
243	0xbc6e09b1	-0.014528678
244	0xbe8f62e2	-0.2800513
245	0xbdf5767f	-0.11985492
246	0x3ec067da	0.37579232
247	0x3e94d32c	0.2906736
248	0xbf51797f	-0.81826013
249	0x3d5467cc	0.0518568
250	0xbe70b570	-0.23506713
251	0x3f296220	0.6616535
252	0x3e21c424	0.15797478
253	0xbe377a58	-0.17917764
254	0xbd0a6e1b	-0.03379641
255	0xbe3d22eb	-0.18470351

net.4.layer.2.bias f4 [20]
0	0x3c705898	0.01466956
1	0x3cf013f6	0.029306393
2	0x3d16c440	0.036808252
3	0x3a9f7cce	0.0012167932
4	0x3ba89f80	0.005145967
5	0x3cfc6348	0.03080906
6	0x3c6eee2b	0.014583151
7	0x3c94141a	0.018075991
8	0x3d1c7c57	0.038204517
9	0xbc2e864c	-0.010652136
10	0xba8bc28a	-0.0010662836
11	0x3b58bd6b	0.0033071886
12	0x3d0a088f	0.03369957
13	0x3cbd2243	0.023087626
14	0x3c0b2b22	0.00849417
15	0xbbf3fe29	-0.0074460697
16	0xbcbae082	-0.022812132
17	0xbb5bf4b8	-0.0033562612
18	0x3cb052db	0.021523884
19	0x3c8ebb6e	0.017423358
