models/parameter_net3.pth (torch, 8103 bytes, 8 tensors)

net.0.weight f4 [20, 1]
-0.03663692 1.2195898 0.04448242 -0.0023174912 -0.15622883 -0.90080774 -0.5095489 0.0017998515
0.0063020056 -0.69812477 -0.0061385236 -0.85397243 0.013303102 -0.30853754 0.010891256 1.2785851
-0.12322017 -0.039856575 0.8331208 -0.0021559887
00000000: 9810 16bd 851b 9c3f 3333 363d 0de1 17bb
00000010: 73fa 1fbe 569b 66bf cc71 02bf ffe8 eb3a
00000020: 0e81 ce3b 4eb8 32bf ab25 c9bb f09d 5abf
00000030: 41f5 593c a2f8 9dbe 3d71 323c ada8 a33f
00000040: db5a fcbd a640 23bd 6847 553f 7d4b 0dbb

net.0.bias f4 [20]
1.2633307 0.7119677 -0.751939 0.6688724 0.58589196 -0.3993993 0.46045768 -0.31358245
-0.6550832 -0.13498773 1.042833 0.040639576 0.057866808 0.73406386 -1.7593441 -0.3931659
0.54189974 1.359118 -0.26515535 0.71570283
00000000: d2b4 a13f 8443 363f 137f 40bf 393b 2b3f
00000010: 04fd 153f 117e ccbe 1cc1 eb3e e18d a0be
00000020: 88b3 27bf 393a 0abe 8d7b 853f af75 263d
00000030: bf05 6d3d 9ceb 3b3f 3032 e1bf 0a4d c9be
00000040: f1b9 0a3f 94f7 ad3f 71c2 87be 4d38 373f

net.2.weight f4 [20, 20]
0.28256723 -0.5127612 -0.0515325 0.42659914 0.28998575 0.18421793 -0.49107087 -0.43139002
0.14261554 0.67771137 -0.61514086 0.43607137 -0.5860129 -0.21745129 0.0008078037 -0.18604945
0.06620553 0.010394292 -0.24214634 -0.32827947 0.13450779 0.25557116 0.21660145 0.04281519
-0.00853246 -0.056538623 -0.16228731 -0.037472475 0.19372328 -0.24172169 0.07324118 0.084789656
0.40505537 -0.1009179 -0.2652411 -0.19975068 -0.3519012 -0.07176553 -0.25838012 -0.040815804
-0.31414366 0.12619938 -0.12040984 0.12986419 0.22909105 0.008102012 0.56902695 0.8326308
0.27105263 0.2751513 -0.32675844 -0.015620139 0.0720156 0.35645226 0.18681784 -0.20178206
0.13187183 -0.5943564 0.5547273 0.40520343 -0.033638183 0.31440642 0.23279376 -0.4226975
0.19509783 0.009905323 -0.10988672 0.37381047 -0.12615347 -0.15440272 -0.2336685 -0.49116474
-0.06826141 0.36488545 0.38452563 -0.37184778 -0.34387046 0.23280653 -0.002128934 0.08456961
0.10761713 0.41634157 -0.61851585 -0.85741675 -0.43759024 -0.42442545 -0.14313312 0.19510724
-0.34006488 0.6803748 -1.0786185 -0.07531185 0.31616026 0.20685957 0.09938457 -0.26728305
0.51353633 -0.12853578 0.029072383 -0.57941794 0.4174016 -0.026938006 -0.28072166 -0.658865
-0.11907876 -0.17747383 0.19057481 0.12130396 0.24292316 0.22915393 -0.95469123 -0.04146635
0.57180333 0.11980755 -0.54588 0.75673306 -0.5770739 -0.15792905 -0.7735741 -0.2647675
-0.5148433 -0.28421578 -0.16525172 0.68698585 -0.26052842 -0.35123187 -0.030152924 0.12781253
-0.25573558 0.03764642 -0.39467973 -0.30670837 -0.7610419 -0.021127095 0.28947097 -0.08825359
-0.10181126 0.019009233 0.334812 0.93386906 0.21908452 -0.18284541 0.16769646 -0.27747306
-0.3561939 0.16294894 -0.17394587 0.60971445 -0.7012228 -0.61124027 0.19918893 -0.3718384
0.20562167 0.46728784 -0.12041076 -0.5972426 0.25632256 -0.1545102 -0.097712755 -0.56179804
0.07808845 -0.7064558 -0.51333225 -0.037063465 0.41285208 -0.75250006 -0.04060833 0.05158851
0.01378706 -0.41680396 -0.3139639 -0.31014988 -0.7411099 -0.22316544 0.4556177 0.15598719
-0.37811542 -0.4502943 0.11772186 0.5193439 -0.70658463 -0.22603217 0.07840449 0.053864863
0.17924117 -0.2954194 -0.106837526 -0.08579369 0.077079 0.18981442 -0.15650329 0.4275252
0.12164213 0.008789021 0.16855964 -0.4117391 -0.116365895 0.060891747 -0.4730062 -0.3049925
-0.2209626 -0.9414144 0.16380595 -0.9297556 0.2134954 -0.37727225 0.5694453 -0.11025355
0.11349097 -0.20657647 0.21741273 0.009544775 -0.09546502 0.4180084 0.06459895 0.1816932
-0.15407653 -0.40995768 -0.22876304 -0.46215755 0.58877206 -0.22927897 0.24983445 0.021396052
0.31311464 0.098494925 -0.18915701 0.07474842 -0.19215882 0.02586617 -0.4894276 0.080508396
-0.33769804 0.47944275 0.029192364 0.175483 -0.03337787 -0.19270122 -0.16116945 -0.32663727
0.5038163 0.33732796 0.034883473 -1.6361741 0.0180482 -0.4133671 -0.34940383 0.71753556
0.28184834 0.53298503 -1.0769863 0.025153726 -0.38997817 -0.29271892 0.42060876 0.36616552
00000000: a7ac 903e 5144 03bf be13 53bd 346b da3e
00000010: 0379 943e a0a3 3c3e a46d fbbe 27df dcbe
00000020: cf09 123e 7e7e 2d3f df79 1dbf bf44 df3e
00000030: f104 16bf 8dab 5ebe cac2 533a bf83 3ebe
00000040: c496 873d d24c 2a3c 36f5 77be 3f14 a8be
00000050: 69bc 093e 39da 823e c5cc 5d3e fb5e 2f3d
00000060: bbcb 0bbc 0b95 67bd a52e 26be bd7c 19bd
00000070: 655f 463e e485 77be 79ff 953d 33a6 ad3d
00000080: 6b63 cf3e 0bae cebd aecd 87be 718b 4cbe
00000090: 652c b4be cef9 92bd 664a 84be 792e 27bd
000000a0: 70d7 a0be 693a 013e 6f99 f6bd 1efb 043e
000000b0: d896 6a3e 4dbe 043c c0ab 113f 4b27 553f
000000c0: 69c7 8a3e a2e0 8c3e e24c a7be 9deb 7fbc
000000d0: ea7c 933d e980 b63e 2d4d 3f3e f59f 4ebe
000000e0: 6909 073e be27 18bf 9c02 0e3f d376 cf3e
000000f0: 31c8 09bd e1f9 a03e 7d61 6e3e cf6b d8be
00000100: bac7 473e f049 223c 4a0c e1bd 1664 bf3e
00000110: 602e 01be bf1b 1ebe cc46 6fbe f279 fbbe
00000120: a3cc 8bbd 44d2 ba3e 8be0 c43e d562 bebe
00000130: ca0f b0be d664 6e3e 9685 0bbb d532 ad3d
00000140: 5f66 dc3d b92a d53e 0e57 1ebf aa7f 5bbf
00000150: d40b e0be 4b4e d9be 7d91 12be 31ca 473e
00000160: fc1c aebe 0b2d 2e3f 2c10 8abf 193d 9abd
00000170: c2df a13e ffd2 533e 238a cb3d 53d9 88be
00000180: 1e77 033f e29e 03be 3529 ee3c bc54 14bf
00000190: aab5 d53e 18ad dcbc c0ba 8fbe 60ab 28bf
000001a0: 91df f3bd b3bb 35be 0b26 433e 366e f83d
000001b0: d9c0 783e 54a7 6a3e a566 74bf 9fd8 29bd
000001c0: b461 123f a95d f53d cbbe 0bbf 42b9 413f
000001d0: 1dbb 13bf 27b8 21be f408 46bf 9b8f 87be
000001e0: c5cc 03bf bb84 91be bf37 29be 4ede 2f3f
000001f0: fb63 85be aad4 b3be 4403 f7bc 4ae1 023e
00000200: c6ef 82be 2233 1a3d 7613 cabe e108 9dbe
00000210: a4d3 42bf bb12 adbc 8a35 943e 4cbe b4bd
00000220: 6c82 d0bd 40b9 9b3c 7a6c ab3e 0b12 6f3f
00000230: b157 603e d43b 3bbe 9fb8 2b3e f310 8ebe
00000240: 0c5f b6be 16dc 263e de1e 32be 3f16 1c3f
00000250: 5683 33bf 3e7a 1cbf 2ff8 4b3e 9a61 bebe
00000260: 7d8e 523e 5a40 ef3e eb99 f6bd e4e4 18bf
00000270: b63c 833e ec37 1ebe a01d c8bd ffd1 0fbf
00000280: d6ec 9f3d 4ada 34bf be69 03bf dccf 17bd
00000290: 5961 d33e d8a3 40bf ec54 26bd 794e 533d
000002a0: 1fe3 613c 5467 d5be e0bf a0be f7cb 9ebe
000002b0: 61b9 3dbf 7b85 64be b946 e93e 1bbb 1f3e
000002c0: 5898 c1be f98c e6be 2918 f13d b9f3 043f
000002d0: bbe2 34bf fa74 67be 8992 a03d 67a1 5c3d
000002e0: ff8a 373e 3641 97be a2cd dabd 9ab4 afbd
000002f0: 98db 9d3d b65e 423e 6642 20be 95e4 da3e
00000300: 821f f93d d3ff 0f3c e69a 2c3e 78cf d2be
00000310: 3e51 eebd a069 793d de2d f2be fa27 9cbe
00000320: 0544 62be 8900 71bf bfbc 273e 7704 6ebf
00000330: 8a9e 5a3e d429 c1be 2bc7 113f 9dcc e1bd
00000340: f46d e83d c888 53be 71a1 5e3e b061 1c3c
00000350: 2a83 c3bd 3205 d63e 744c 843d c80d 3a3e
00000360: 3dc6 1dbe f9e5 d1be dc40 6abe ea9f ecbe
00000370: c4b9 163f 1bc8 6abe 9ad4 7f3e c646 af3c
00000380: 9050 a03e b5b7 c93d 60b2 41be b315 993d
00000390: 48c5 44be 4ae5 d33c 4196 fabe 96e1 a43d
000003a0: c2e6 acbe 8579 f53e d324 ef3c d1b1 333e
000003b0: 3cb7 08bd 7853 45be 9b09 25be 003d a7be
000003c0: 1bfa 003f 40b6 ac3e f9e1 0e3d 276e d1bf
000003d0: d2d9 933c daa4 d3be 0fe5 b2be 69b0 373f
000003e0: 6d4e 903e b571 083f b0da 89bf 300f ce3c
000003f0: 38ab c7be 41df 95be 085a d73e 0c7a bb3e

net.2.bias f4 [20]
-0.3182885 0.063216455 -0.029471904 0.081638604 0.118151575 0.09708855 -0.08613898 0.024180269
0.0034769839 0.066537485 -0.014672192 -0.01833829 0.022194797 -0.13111289 0.12138165 0.11197147
-0.008864623 0.09586116 -0.027948089 0.07466733
00000000: b6f6 a2be a177 813d 106f f1bc 2432 a73d
00000010: 74f9 f13d 5dd6 c63d a269 b0bd b315 c63c
00000020: 1cde 633b ce44 883d a263 70bc 2e3a 96bc
00000030: ddd1 b53c 7542 06be f196 f83d 4c51 e53d
00000040: ec3c 11bc db52 c43d 64f3 e4bc 2feb 983d

net.4.weight f4 [20, 20]
0.011138722 -0.07487263 -0.23099928 0.3926075 -0.43954846 -0.04336574 0.28069177 -0.9211084
-0.38162464 -0.4343701 -0.038143866 0.35398722 0.14092599 0.44766802 0.53562623 -0.935931
0.6217379 0.3065373 0.29373583 0.16378431 -0.31159854 -0.2950732 -0.033817634 0.29019725
-0.97338307 0.66021127 -0.28484628 1.5915793 -0.49717775 -0.082449816 0.63487583 -0.20239176
-0.13948251 0.8574134 -0.3100796 -0.29333773 1.0175757 -0.49411067 1.4480337 0.7257713
0.2283889 -0.08960124 0.2321698 -0.23867846 0.32377654 0.052997764 0.13606721 0.6557929
-0.3531715 0.11392146 0.08295371 0.07635998 0.5189344 -0.7036797 -0.14296326 -0.18720482
-0.44357723 -0.7195855 0.16411877 0.284641 -0.36116314 -0.027824862 0.5485398 0.24726512
0.5929246 0.5564986 -0.28662106 -0.08525355 -0.2957797 -0.16067994 0.19094166 0.19661598
0.77131164 0.6791499 -0.20974787 0.4264013 -0.8982073 -0.064078785 -0.016409967 -0.08570296
0.4808575 -0.15400352 0.2458937 0.22874585 -0.06819685 -0.50697476 -0.40070722 1.6658179
0.38932803 -0.011707533 0.85087556 0.15661529 -0.34346646 0.5769049 -0.066752166 0.41875914
0.40509546 -1.0040488 0.113505915 -0.29599497 0.2210393 -0.12728946 -0.6589848 0.109565966
-0.1717799 -0.64520377 0.5410129 0.09526501 0.16688204 -0.618798 -0.20610112 0.26659364
-1.3969706 0.09506007 0.6399649 -0.39912787 0.1985809 0.33130378 0.57579094 -0.088438086
0.04371851 -0.7345661 0.29220933 0.00038561854 -0.047276158 1.449641 -0.2882841 0.27586627
-0.01598739 -0.31263763 0.22183014 -0.26663217 0.67056346 1.6864347 -0.37504983 0.3924649
0.56152236 -0.3942477 -0.13061012 0.29430136 0.39406526 0.34160882 -0.34322685 -0.73214984
-0.329112 0.05307078 0.16623677 -0.11206576 -0.23185483 0.35830212 0.22502 0.5242431
-0.10666471 0.15244474 0.21998705 0.21660341 -0.11779022 0.25103644 0.27492312 -0.37867212
-0.028630447 -0.28729782 0.5787957 -0.006848343 0.024660138 -0.03226224 0.20066728 0.4525846
0.28369784 0.023862071 -0.11975609 0.09260649 0.25668705 -0.30909666 -0.05077236 -0.4310148
0.40513703 -0.5618594 0.76650774 -0.21784766 0.08060484 0.2746265 0.8349638 0.48968992
1.347874 0.6255676 -0.7688968 0.82036066 -0.57088876 0.070571065 0.45231745 -0.027887931
1.6366634 1.215392 -0.06852307 1.3246917 0.43647066 -0.007547561 0.72065467 -0.23597519
-0.70279396 0.22623104 0.12699454 0.09031912 -0.37035406 0.14277111 0.40128547 0.746159
-0.13016865 0.43826634 0.0046863845 -0.4660369 0.659775 0.17715554 -0.2720862 -0.2534486
-0.46678954 0.21632932 -0.010695349 -0.3764872 0.27726236 0.108050875 0.1427543 0.10349283
-0.53629285 -0.01582785 0.68608093 -0.8938065 0.19484645 0.5305163 -0.6303681 -0.86109823
-0.05662965 -0.2562893 -0.27527618 -0.1055951 0.09724819 0.7215474 0.0069800206 0.40564713
-0.07141818 0.936084 -0.7533922 0.2932552 -0.34004653 0.08571722 0.004524915 -0.4529329
-0.13462943 0.05093757 -0.31583625 0.35417077 0.27533814 -0.06997926 -0.10930495 0.14333643
00000000: 307f 363c d256 99bd 138b 6cbe da03 c93e
00000010: 7f0c e1be 46a0 31bd d5b6 8f3e c3cd 6bbf
00000020: 4e64 c3be c265 debe be3c 1cbd d03d b53e
00000030: e74e 103e be34 e53e cd1e 093f 2d99 6fbf
00000040: 372a 1f3f 75f2 9c3e 8b64 963e 13b7 273e
00000050: d889 9fbe d613 97be 5c84 0abd bc94 943e
00000060: a22f 79bf 9b03 293f 5fd7 91be dfb8 cb3f
00000070: 158e febe 73db a8bd 3987 223f c93f 4fbe
00000080: 81d4 0ebe 727f 5b3f c1c2 9ebe 5d30 96be
00000090: ec3f 823f 13fc fcbe 2b59 b93f 26cc 393f
000000a0: c8de 693e db80 b7bd ecbd 6d3e 2068 74be
000000b0: 0ac6 a53e 2f14 593d 3455 0b3e 0be2 273f
000000c0: e5d2 b4be a84f e93d a2e3 a93d 9f62 9c3d
000000d0: e3d8 043f 5a24 34bf f664 12be 9fb2 3fbe
000000e0: 8e1c e3be c136 38bf c00e 283e 77bc 913e
000000f0: 60ea b8be f7f0 e3bc 1b6d 0c3f 1133 7d3e
00000100: e8c9 173f b176 0e3f ffbf 92be 6a99 aebd
00000110: 7070 97be 4889 24be 3686 433e b355 493e
00000120: ae74 453f c5dc 2d3f 25c8 56be 4551 da3e
00000130: eaf0 65bf bd3b 83bd 326e 86bc 0985 afbd
00000140: f432 f63e 19b3 1dbe 8fcb 7b3e 5a3c 6a3e
00000150: caaa 8bbd 19c9 01bf 7f29 cdbe 8539 d53f
00000160: 0156 c73e f4d0 3fbc fbd2 593f c25f 203e
00000170: d6da afbe 0ab0 133f 5cb5 88bd 9967 d63e
00000180: ac68 cf3e ac84 80bf ca75 e83d a78c 97be
00000190: 2058 623e 2b58 02be 3ab3 28bf 1f64 e03d
000001a0: 12e7 2fbe 132c 25bf d27f 0a3f 4d1a c33d
000001b0: 20e3 2a3e 8c69 1ebf 2c0c 53be f67e 883e
000001c0: efcf b2bf dbae c23d bdd4 233f 7d5a ccbe
000001d0: cb58 4b3e a6a0 a93e 0967 133f 071f b5bd
000001e0: 2e12 333d 860c 3cbf 769c 953e d82c ca39
000001f0: a5a4 41bd d68d b93f f999 93be 583e 8d3e
00000200: fdf7 82bc 0a12 a0be 7127 633e 0384 88be
00000210: 0caa 2b3f 18dd d73f 8806 c0be 29f1 c83e
00000220: eebf 0f3f d6da c9be a9be 05be abae 963e
00000230: ecc2 c93e 5ae7 ae3e 6ebb afbe 2c6e 3bbf
00000240: 5e81 a8be bf60 593d f939 2a3e bc82 e5bd
00000250: 5a6b 6dbe 6073 b73e a56b 663e cc34 063f
00000260: 0773 dabd 791a 1c3e 4944 613e 49cd 5d3e
00000270: 003c f1bd d987 803e b9c2 8c3e 50e1 c1be
00000280: 668a eabc b318 93be f42b 143f 1168 e0bb
00000290: 0f04 ca3c 6925 04bd b97b 4d3e 2bb9 e73e
000002a0: d840 913e 647a c33c ae42 f5bd 79a8 bd3d
000002b0: 7c6c 833e eb41 9ebe aef6 4fbd f9ad dcbe
000002c0: 1f6e cf3e 05d6 0fbf da39 443f 7513 5fbe
000002d0: 2614 a53d d89b 8c3e 30c0 553f a3b8 fa3e
000002e0: 2387 ac3f 3325 203f 6cd6 44bf 2803 523f
000002f0: c425 12bf 9087 903d 2796 e73e 3b75 e4bc
00000300: 307e d13f f791 9b3f d355 8cbd 7f8f a93f
00000310: 1579 df3e 8851 f7bb d37c 383f 7ba3 71be
00000320: 4eea 33bf 1ca9 673e db0a 023e 3bf9 b83d
00000330: 0c9f bdbe 9732 123e 4a75 cd3e 4704 3f3f
00000340: ee4a 05be 7264 e03e 3e90 993b 639c eebe
00000350: 04e7 283f 4368 353e e24e 8bbe 04c4 81be
00000360: 0aff eebe 6f85 5d3e 8c3b 2fbc eec2 c0be
00000370: 55f5 8d3e c749 dd3d 2f2e 123e 0df4 d33d
00000380: 7d4a 09bf 68a9 81bc 00a3 2f3f 81d0 64bf
00000390: d485 473e ebcf 073f ce5f 21bf ef70 5cbf
000003a0: 7ef4 67bd 5a38 83be 00f1 8cbe 3e42 d8bd
000003b0: 0f2a c73d 55b7 383f a8b8 e43b fbb0 cf3e
000003c0: b243 92bd 33a3 6f3f 50de 40bf 8c25 963e
000003d0: 941a aebe 838c af3d bd45 943b d2e6 e7be
000003e0: 4cdc 09be eaa3 503d 4ab5 a1be df55 b53e
000003f0: 1ff9 8c3e 4951 8fbd 46db dfbd c9c6 123e

net.4.bias f4 [20]
0.077996954 0.0058171926 -0.055473436 0.024787147 0.13840158 -0.05717267 -0.104220815 -0.16531214
0.046540216 0.121830896 0.054100618 0.026436709 0.076380074 0.008920122 -0.07243339 0.028279161
-0.067969345 -0.10715203 0.02804806 -0.22352251
00000000: debc 9f3d 269e be3b 1d38 63bd 6a0e cb3c
00000010: 25b9 0d3e e42d 6abd b971 d5bd 9647 29be
00000020: f4a0 3e3d 7a82 f93d 9c98 5d3d cc91 d83c
00000030: 286d 9c3d b425 123c f557 94bd b3a9 e73c
00000040: 8333 8bbd 8672 dbbd 0cc5 e53c 16e3 64be

net.6.weight f4 [6, 20]
-0.16068028 0.11140127 0.5939282 -0.75095314 0.061465956 -0.36312774 -0.48722684 0.56216276
0.041678835 0.5183691 -0.8899215 0.58053625 -0.40083426 0.083903715 0.86753213 1.0532058
-0.2628726 0.38000003 0.26918277 -0.0054472303 0.27467972 -0.11375585 0.2896251 0.6249133
0.4499087 0.21605328 0.07865948 0.31651384 -0.13685817 1.4934258 0.03939101 -1.1154852
-0.2869453 -0.6692011 0.31484073 -1.0501047 0.43127522 0.5043605 -0.079575256 0.46454823
0.17365393 -0.40345213 0.44346204 0.20150265 1.2237717 0.3437226 1.5226408 0.43975434
0.19916978 0.5688608 -0.5450976 -0.526846 0.1537246 -0.59530264 0.011513058 -1.4441636
0.4435305 0.53766805 0.20320994 0.31951407 -0.61024696 -0.653417 0.9386406 0.43798703
0.75132465 0.057273865 -0.6953875 -0.044434868 -0.45375338 0.32633317 0.4415709 -0.4721346
0.22037712 -0.06967147 -0.1472213 -0.0822764 -0.8661971 0.16227975 -0.8451432 -0.30887762
0.64667374 -0.7686197 -0.202097 0.03508035 0.19900803 0.12111474 0.7476864 0.70508105
-0.36843833 0.68386734 0.1202001 -0.63004166 -0.93435645 -1.1220552 1.2549537 -0.5948417
0.7027878 1.1282656 -1.7622315 1.2560728 -0.62749386 0.19625215 -1.6462266 -1.1960257
-0.892787 0.20690355 -1.0870001 -0.6289422 -1.1103309 -1.5974847 -0.56773907 0.5670318
0.52162373 -0.625803 0.20694521 0.96508706 -0.9726779 0.30149674 0.4654523 -0.7661229
00000000: 5f89 24be 5926 e43d ae0b 183f 773e 40bf
00000010: bac3 7b3d e1eb b9be cc75 f9be e6e9 0f3f
00000020: 6db7 2a3d d6b3 043f e5d1 63bf 069e 143f
00000030: 263a cdbe b6d5 ab3d 9616 5e3f 73cf 863f
00000040: 3d97 86be 5d8f c23e 53d2 893e ae7e b2bb
00000050: d2a2 8c3e d4f8 e8bd be49 943e 51fa 1f3f
00000060: 6f5a e63e 123d 5d3e 3918 a13d 1a0e a23e
00000070: 8c24 0cbe 9428 bf3f 7858 213d 38c8 8ebf
00000080: 7fea 92be c350 2bbf ce32 a13e d569 86bf
00000090: 1bd0 dc3e c51d 013f 5af8 a2bd 44d9 ed3e
000000a0: 56d2 313e 4791 cebe 750d e33e b656 4e3e
000000b0: 8da4 9c3f 69fc af3e e5e5 c23f 7b27 e13e
000000c0: 2af3 4b3e dda0 113f 848b 0bbf 61df 06bf
000000d0: fb69 1d3e c165 18bf 44a1 3c3c 5ada b8bf
000000e0: 6e16 e33e 9da4 093f 4416 503e 5997 a33e
000000f0: 2539 1cbf 5646 27bf c04a 703f d63f e03e
00000100: d056 403f 0098 6a3d ea04 32bf 5601 36bd
00000110: 5d52 e8be 2415 a73e 9515 e23e a0bb f1be
00000120: 8aaa 613e eaaf 8ebd 2ec1 16be 8780 a8bd
00000130: 18bf 5dbf aa2c 263e 4e5b 58bf 3525 9ebe
00000140: 698c 253f 43c4 44bf 84f2 4ebe 6ab0 0f3d
00000150: c3c8 4b3e 010b f83d 6068 3f3f 3180 343f
00000160: f3a3 bcbe ee11 2f3f 782b f63d 694a 21bf
00000170: fc31 6fbf 819f 8fbf 53a2 a03f 8c47 18bf
00000180: e7e9 333f 026b 903f cd90 e1bf fec6 a03f
00000190: 70a3 20bf 53f6 483e 8eb7 d2bf 5f17 99bf
000001a0: b08d 64bf 86de 533e d222 8bbf 5b02 21bf
000001b0: 531f 8ebf 617a ccbf 5957 11bf ff28 113f
000001c0: 2289 053f a034 20bf 72e9 533e f20f 773f
000001d0: 6b01 79bf c85d 9a3e c44f ee3e a120 44bf

net.6.bias f4 [6]
-0.026314052 -0.38426605 -0.35698918 0.12671646 -0.83154964 0.13295533
00000000: 9190 d7bc 85be c4be 49c7 b6be f6c1 013e
00000010: 70e0 54bf 7125 083e
