models/parameter_net3.pth (torch, 8863 bytes, 6 tensors)

net.0.weight f4 [32, 1]
00000000: 28b0 493f 8701 0b3f 185d 01bc 00ae c43a
00000010: dce2 393f 1825 babf 5917 693f 81de 8cbf
00000020: 691c b7be 186c a53f 176c c93c 7ec8 0cbe
00000030: e15a 353c b1bd adbf dafd 4a3f 139c b83c
00000040: 0a96 ce3b 6efc e13f b1d1 a23b d241 7cbf
00000050: 5fa5 023f 81dc a0bf 817e 073e c06f f13e
00000060: 6e38 773f fb47 e73e efa2 c4bb 7684 ecbc
00000070: e55a 98bd 252e 9fbb bc3f 993f 46cf 283e
0.7878442 0.54299206 -0.00789573 0.0015005469 0.72611785 -1.454257 0.9105125 -1.1005403
-0.35763863 1.2923613 0.024587674 -0.13748357 0.0110690305 -1.3573514 0.79293597 0.02253536
0.006304507 1.765516 0.004968845 -0.98537934 0.51033586 -1.2567292 0.13231851 0.4715557
0.9657048 0.45172104 -0.0060008685 -0.028871756 -0.07439212 -0.004857796 1.1972575 0.16485319

net.0.bias f4 [32]
00000000: 194f 9cbc 8fa1 933e 18e9 fa3f 7f62 b2be
00000010: 530f 7b3e 3ff3 2b3f f471 09be f34f 9ebc
00000020: 0768 60be a017 21bf 7f0e dabf 6b6b 933e
00000030: d22a b0bf 2800 ffbe d33a bbbd c5e7 a33d
00000040: 0769 b6bf bea9 59bf ecc0 a6bf cdac cfbe
00000050: ac5b 1b3f 9d7f f93e d60e 7a3e bb32 403f
00000060: db5b a7be f07d a43e 8005 a93f d7c1 1040
00000070: 3bf9 423f 80b4 7f3f 542a 573f b6ef e7be
-0.019080685 0.28834197 1.9602385 -0.34840772 0.24517564 0.6716804 -0.13422376 -0.019325232
-0.21914683 -0.62926674 -1.7035674 0.2879289 -1.3763068 -0.49804807 -0.09142079 0.08003191
-1.4250802 -0.8502463 -1.3027625 -0.40561524 0.60686755 0.48730174 0.24419722 0.7507741
-0.32687268 0.32127333 1.3204803 2.261831 0.76161546 0.99884796 0.8404896 -0.45300072

net.2.weight f4 [32, 32]
00000000: 81e6 94be bf8b 4b3d 0b0d e53d cd0f 1f3d
00000010: d7e7 1bbf f876 7c3e 4fe7 0b3e a877 da3e
00000020: 7803 693d f83f 78bd 4feb 28bc bc41 6f3c
00000030: ec24 7ebd 02a6 823e ddcf d8bd 3133 6dbd
00000040: de32 10bf 79ec a3be 7e63 413e 6d14 d03e
00000050: eae2 17be 9c1b 0ebd 9b15 14bf bcfd dabd
00000060: 0b54 febd 6592 323e 9b78 3abd 3653 7f3e
00000070: 6cf0 6cbe f952 d73e 4354 5cbe ce4f 49be
00000080: 0467 ecbd 7883 f2be 13cd 163e 648f 4fbe
00000090: 24d9 a53d 0117 583d 006c 30be 7769 94be
000000a0: 35b9 bf3e 7d11 8c3e 526c 9d3e 847e cc3d
000000b0: eee9 e6bd 212b c03e 1edb a2be 74d9 e83d
000000c0: b300 dcbe dbbb 06bf eef2 2d3e 90a7 b43e
000000d0: 1ad9 0ebf 2acb 7b3d 2a3c f0be 34b7 673d
000000e0: 2618 a03d 8474 25bf a643 d5be 2da6 133e
000000f0: 6587 5b3e 7daf 013e 0aff fbbe cde1 a93e
00000100: f814 c93e f077 6fbc 09ba ea3f 44cb cbbe
00000110: 0d13 893c 0e94 363f 5c7d b83e 67d3 1fbf
00000120: b01b c5bd c488 46bc 916b d63d b4dc f33d
00000130: ea8b 963e 8f61 69be ce60 2e3f a2bf dbbe
00000140: 6fcf a6bf fa44 aabe 85b2 d0bf cb9a d3be
00000150: 7595 0bbf a64a cabe bee3 70be c864 f4bc
00000160: e0a5 89be d871 703c 6766 973f adc8 00bf
00000170: ccfa 2bbf 6f99 223d 4784 a6bd 870f 89bd
00000180: b614 69be 14fa 58be 9fac c63e 0da6 0cbf
00000190: 523a f83e d2c1 133d b449 5d3e a19d 243e
000001a0: 6cd7 87bd 4665 163f 6514 033f 4eb7 11bf
000001b0: 35bb d53b b439 ddbe e4e4 353e 09ba 5ebb
000001c0: a5cf 71be 42d1 88be f3e1 b5be c796 4e3e
000001d0: eaf8 b03e 8d04 febd 5e49 4dbf 7e8f 45be
000001e0: 1012 abbe 1f26 713c 6d7b ca3e 10be 6bbe
000001f0: 232a a73e 3e86 16be caf5 eebd 6669 bc3d
00000200: c103 8b3e e01e 0ebe d4ef 0d40 bdc1 893e
00000210: 4b35 48be 2b39 10bf 41be 343e 4884 98be
00000220: 0fc6 313e 481a 003e 98d3 243e 997b 8d3e
00000230: 6e6d de3d b9f5 2fbf df34 8e3e 6500 9b3e
00000240: fd1c e2be dd16 c1be f187 e5bf b62e b2be
00000250: 2b54 9b3e 130d 1dbe 5bbd 343e e3d5 753e
00000260: 9b8b 6fbe 5486 c73b fef3 8f3f 9271 1b3e
00000270: fe7c 8e3e e63f b4be 1bf8 7f3e 3df9 bf3d
00000280: 89b0 7abe 72af 1bbe fb9f 7ebc e011 f53d
00000290: 5325 a73d af5f 07be 0984 593e e894 283e
000002a0: e5fa 15bf 5728 c5bc d1f0 9a3d 6522 abbd
000002b0: 1569 fcbd 8749 d53d bc53 a73e 070d 7b3e
000002c0: 8c15 3a3c 7d2f dfbe da06 8fbd b83b 093f
000002d0: bb20 ba3d a201 533e cb69 1e3f dd56 68be
000002e0: b4dd d0be a5e0 f73d c205 fc3b 6faa 683d
000002f0: 074b 90bd 2aab ad3e 2460 06bf 451c 7cbc
00000300: 7133 8f3e a4ce ed3d c6f1 34be 345b b13e
00000310: 70e0 9e3d e6f2 1b3e 7e8e 713e 922d a7be
00000320: 1762 553d 4262 babe de25 68be 0330 a83c
00000330: 390c 25bc d855 01bf 6bac e3bd b980 023f
00000340: 55e2 1dbe 9244 913e 800d ca3c d3ce 53be
00000350: e08c 003f 97bf 443e aa6e 7a3e 26fe b33e
00000360: c49d b539 b1c3 9a3e 8424 813b 4570 f83d
00000370: 8720 7ebe a11f c1be b65b ad3e 01d6 88be
00000380: b84f a43e 2454 093f 4c18 64bf 4f27 04bf
00000390: 1cce 7cbe 6594 d43e b213 f23d fcbc d4bd
000003a0: 43a5 8c3e 8f44 fb3e 73ac d4be 3d1a e2be
000003b0: 49c3 87be d438 2b3d bed4 023e d893 233e
000003c0: e789 703e 9079 543e 3815 ab3d 0676 c33e
000003d0: 58bc 8dbd fab2 95be 5bf1 38be f069 a13d
000003e0: a37b 7abc 1f46 213e 6176 61be 9480 e4bc
000003f0: 9a33 e03e 6566 d53e 4889 1ebe 8c77 143e
-0.2908211 0.04969382 0.111841284 0.03883343 -0.60900635 0.24654758 0.13662456 0.42669415
0.056888074 -0.06060788 -0.010310008 0.014603075 -0.06204693 0.2551728 -0.10586522 -0.057910148
-0.5632762 -0.32016352 0.1888561 0.40640584 -0.14832655 -0.0346943 -0.5784547 -0.10692927
-0.12418374 0.17438658 -0.045525175 0.24934086 -0.23138589 0.4205549 -0.21516518 -0.1965935
-0.11543086 -0.47365928 0.14726667 -0.20269543 0.08098057 0.052756313 -0.17228699 -0.28986713
0.3744599 0.27357092 0.30746704 0.099850684 -0.11275087 0.37532905 -0.31807798 0.11369601
-0.42969283 -0.52630395 0.16987202 0.3528409 -0.5580002 0.06147305 -0.46920902 0.0565712
0.07817106 -0.64630914 -0.41653174 0.1441886 0.21438368 0.126646 -0.49218017 0.33180085
0.3927381 -0.014615998 1.8338023 -0.39803517 0.016732717 0.71319664 0.36033142 -0.6243195
-0.096244216 -0.012117568 0.104697354 0.1190733 0.2940362 -0.22791122 0.6811646 -0.42919642
-1.3032054 -0.3325575 -1.630448 -0.41329035 -0.5452493 -0.39510077 -0.23524377 -0.029833212
-0.26884365 0.01467558 1.1828126 -0.50306207 -0.6717956 0.039697107 -0.08130699 -0.06692415
-0.22761807 -0.21189147 0.38803574 -0.54940873 0.48481995 0.036073513 0.21610147 0.16075756
-0.06632885 0.5874828 0.51202995 -0.56920326 0.006522561 -0.43208086 0.17763096 -0.0033985397
-0.23614366 -0.2672215 -0.35523948 0.20174704 0.34564906 -0.12403212 -0.80190074 -0.19293019
-0.33412218 0.014718561 0.3954729 -0.23021722 0.32649335 -0.14699647 -0.11667974 0.09199791
0.27151302 -0.13878965 2.217763 0.26905623 -0.1955158 -0.5633723 0.17650701 -0.29788423
0.1736071 0.12510026 0.16096342 0.2763336 0.10860716 -0.6873432 0.27774712 0.30273739
-0.4416274 -0.37712756 -1.7932111 -0.34801263 0.30337653 -0.15337019 0.17650358 0.24007373
-0.23393099 0.006089011 1.1246336 0.15180042 0.27829736 -0.35205 0.24996988 0.0937371
-0.24481405 -0.15203646 -0.015541072 0.119663 0.08161416 -0.13220094 0.21241774 0.16463053
-0.5858596 -0.024067087 0.07565463 -0.083561696 -0.1232473 0.10414415 0.32681072 0.24516688
0.011357676 -0.43590918 -0.06983729 0.5360675 0.09088274 0.20606092 0.6188018 -0.22689386
-0.40794146 0.121033944 0.007691116 0.056803163 -0.0704556 0.3391965 -0.5249045 -0.015387599
0.27968934 0.11611679 -0.17670354 0.34639895 0.07757652 0.15229377 0.23589513 -0.32651955
0.0520955 -0.3640309 -0.22670695 0.020530706 -0.010073715 -0.5052161 -0.111168705 0.50977665
-0.1541837 0.28372627 0.02466464 -0.20684366 0.5021496 0.1921371 0.24456277 0.35154837
0.00034640555 0.30227426 0.0039411206 0.12130789 -0.24817096 -0.37719443 0.33859032 -0.26725772
0.3209207 0.53644013 -0.89099574 -0.5162248 -0.24688 0.41519466 0.11820163 -0.103876084
0.27469835 0.49075744 -0.41537818 -0.44160643 -0.26516178 0.041802242 0.12776467 0.15974367
0.23490106 0.20749497 0.083536565 0.38175982 -0.06920689 -0.2923811 -0.1806082 0.07881534
-0.015288266 0.15749405 -0.22017814 -0.027893342 0.4378937 0.41679683 -0.15482056 0.14498729

net.2.bias f4 [32]
00000000: 32e4 a8bd 6b74 81be 76ff eebc 16ef 813b
00000010: 5a4a c93d 2a31 3d3c 2677 923e 9271 a4be
00000020: 2631 dc3b ed64 09bc f1c8 7abc b5f5 52bd
00000030: f18d 35bd e2d6 33bd 2b2e 58be c750 0c3e
00000040: e9c6 5f3c 1c3c edbd 735f 553d 1add 003d
00000050: e1d1 363e 650d 1ebd e2cd 023e 0a93 6dbd
00000060: 3f61 efbd e0e8 c13d d968 16be e999 2bbd
00000070: a561 e1bd 33a4 e1bc 5e85 2cbe 98a8 82bc
-0.0824665 -0.25284132 -0.029174548 0.003965269 0.098286346 0.011547366 0.28606528 -0.32117897
0.006719726 -0.008385879 -0.015306697 -0.051503856 -0.04432482 -0.0439061 -0.21111362 0.13702689
0.013658264 -0.115837306 0.05209298 0.03146086 0.178535 -0.038586993 0.1277385 -0.058001556
-0.1168847 0.094682455 -0.14688434 -0.041894827 -0.11004952 -0.027544117 -0.1684775 -0.015949532

net.4.weight f4 [6, 32]
00000000: 1b97 a3bd 0751 a53e e8ca b2be 2078 903d
00000010: 0477 ad3e c7d9 283f e346 ec3d 2622 8e3e
00000020: a91e 153f 6e02 263e 74ac e03e 78a4 f83e
00000030: 2e7c 39bd 5442 8cbe 4ff1 ea3d e24c 473d
00000040: d570 3dbf f4b3 92bd b6b5 293f 92b8 db3e
00000050: 728f 40be b65a 27be 8342 383f 9939 033e
00000060: 6478 14be 672d d93b 0062 973e e92d 8bbe
00000070: 9c36 bb3e 125f 9fbd d60c 9b3d 055a 043f
00000080: f076 a93f 5db5 d03e 9f90 123f 5298 3a3e
00000090: 0754 203c c5cf 71bf fcf1 a8bf f3bb 72bf
000000a0: ecf4 38bf 71d6 a6be 9799 8ebf 78dd 5bbf
000000b0: 1c09 09bf 6da9 05bf 3cdd f63e 42de 57bf
000000c0: 25cc 76bf 0c2e 4e3f f507 963e beca 34bf
000000d0: ef5c 20be 4268 fa3e dcd7 93be 167c 75bf
000000e0: 709d ed3e f31b d6be 23f8 203f 017c a13f
000000f0: 1db5 7c3f f8e9 c73f b116 693f 5821 9e3f
00000100: 6ac5 dd3e 9e8a 0e3f 57b8 2a3f 0b7c 03bf
00000110: 2330 0bbf 40ed 68be e2c3 56bf 3ccf 3dbf
00000120: 9920 f4be 127b b93e dbc3 d3be 0e92 c9bf
00000130: eb05 9c3f 1ed4 2d3f 24b6 de3e 3122 56bf
00000140: f57f 60bf b2b4 5e3f 569d a43f 1f11 51bf
00000150: f4b2 22bf ab60 913f e484 66bf 5892 66be
00000160: 973e 553f b31c 67be 5a99 fe3e d23f 423e
00000170: 15cd 3fbe dc35 613e 0ebb 773e f25e 9c3e
00000180: 6118 b0be 16e1 0abf be47 d43d 681e 91be
00000190: 47e3 7c3e 470a e13e 5c2f 4a3f dc24 70be
000001a0: 9783 09be 72f6 bcbe 486b cd3e 88ab 01bf
000001b0: a870 353f 08be d0bc 8a41 c1be 1e07 443f
000001c0: 037a 263f e511 95be 455e 89be 01d6 a33e
000001d0: 9d71 cbbe 3ff4 1d3e ee4a ea3e 16ea 023c
000001e0: 3bf9 113f cc09 dbbd 4745 bdbe 771d 17bf
000001f0: 7a6b 0bc0 3e07 0ebf 5b69 9abe 349c 10bf
00000200: bef7 7c3f 706f 8a3f efb3 e33d 7b3e 56bf
00000210: da82 36bf cbcd 87be bfbe aabf 9f6b 91bd
00000220: 1343 a8be 764f b1be 9b7e f2be b785 5dbe
00000230: a6d0 e9be ba89 95bd 6eda a03f b53a 95bf
00000240: a638 57bf 42c5 733f 403e 2abe 6120 89be
00000250: 332c 09bf a811 cf3f ff5d acbf 09d1 6fbf
00000260: b229 e03d aa42 063f 416f 863f c7e2 333f
00000270: 41d1 8d3f 2859 c03f 0784 013f c06f 4e3f
00000280: a019 613e 5638 133e 8711 6dbf e6b5 05be
00000290: 445c 933f d62e 033f a9c8 80be 534d 1a3f
000002a0: 598f 293f d733 65bf 7831 a23f 737e 403f
000002b0: a117 22bf 912c c2bf acb3 2b3e d0b8 a93d
000002c0: 2ea3 df3e 1a26 10bd 2cd2 86bf 671e 193f
000002d0: 7825 a43f b3f4 95be 8129 17be 78b3 3abf
000002e0: c492 c0bf a8f7 873f a36a 99be fab9 38be
000002f0: 4865 38bf 7e4a 80bf dc0f 9b3e 2096 13c0
-0.079878055 0.3228838 -0.3492043 0.07054162 0.33879864 0.659573 0.11536958 0.27760428
0.5824991 0.16211864 0.4388157 0.4856298 -0.045284443 -0.27394354 0.11471807 0.048657306
-0.74000293 -0.071632296 0.66292894 0.42914253 -0.1880472 -0.16343197 0.7197649 0.1281494
-0.1449905 0.006627727 0.29566956 -0.27183464 0.365651 -0.07781805 0.07570808 0.5169986
1.3239422 0.4076337 0.57251924 0.18222168 0.009785659 -0.94457656 -1.3198848 -0.9481804
-0.7224872 -0.3258548 -1.1140622 -0.8588481 -0.53529525 -0.5221165 0.48215663 -0.84323514
-0.9640525 0.8053901 0.29302946 -0.7062186 -0.15660451 0.48907667 -0.28875625 -0.95892465
0.46409178 -0.418182 0.62878627 1.2615968 0.98713857 1.5618277 0.9105025 1.2353926
0.43314677 0.55680263 0.6668753 -0.5136115 -0.54370326 -0.22746754 -0.83892643 -0.7414434
-0.4768112 0.36226708 -0.41360363 -1.5747697 1.2189306 0.6790179 0.43498337 -0.8364592
-0.87695247 0.8699447 1.2860515 -0.8166675 -0.6355431 1.1357626 -0.90046525 -0.22516763
0.8329863 -0.22569542 0.49726373 0.18969658 -0.18730576 0.21993202 0.2419245 0.30541188
-0.343936 -0.54249704 0.10365246 -0.2834351 0.24696074 0.43953153 0.78978515 -0.2345156
-0.13429104 -0.36906773 0.40120912 -0.5065236 0.70875025 -0.025481239 -0.37745315 0.7657336
0.65029925 -0.29115215 -0.26829734 0.3199921 -0.39735118 0.15425204 0.45760292 0.007990381
0.5702092 -0.10695228 -0.36966917 -0.59029335 -2.1784348 -0.554798 -0.30158505 -0.5648835
0.98815525 1.0815258 0.11118304 -0.8368909 -0.71293414 -0.26524195 -1.3339461 -0.07100605
-0.32863674 -0.34630936 -0.47362217 -0.2163304 -0.45667 -0.0730166 1.256666 -1.1658541
-0.84070814 0.95222867 -0.16625309 -0.26782516 -0.5358307 1.6177263 -1.3466185 -0.9367834
0.10945453 0.5244547 1.0502702 0.7026791 1.1079484 1.5027208 0.5059208 0.80639267
0.21982431 0.14376959 -0.9260487 -0.1305767 1.1512532 0.5124334 -0.25153092 0.6027424
0.66234356 -0.89532226 1.2671347 0.75192946 -0.63317305 -1.516985 0.16767758 0.08287203
0.43679184 -0.035192586 -1.0532889 0.59812015 1.2823935 -0.29288253 -0.14761926 -0.729301
-1.5044789 1.0622454 -0.2996417 -0.18039694 -0.7202954 -1.0022733 0.30285537 -2.306038

net.4.bias f4 [6]
00000000: 6e3f 0dbd 603e e2be 08d6 c2be 99ba d63e
00000010: b3e3 41bf 9ab8 263d
-0.03448432 -0.44188213 -0.38053918 0.41939238 -0.75738066 0.040703394
