models/parameter_net.pth (torch, 12427 bytes, 8 tensors)

net.0.weight f4 [32, 1]
00000000: 3dff 3cbb 940f 943d f9f8 02bf 5ea2 453f
00000010: ad8f 153f 69eb 933f e696 453f 3636 993c
00000020: c0e3 193e 74c7 523b 47ea c63e 7edd 593e
00000030: d6e2 17bd 79c5 98bc 80d9 613c b0f9 d83e
00000040: 7ae0 b6be 0797 fabe ea17 0c3f 074b e73e
00000050: c767 20bb 3026 1bbf 5b29 763f b441 4b3e
00000060: a1d0 103b a885 59bd cbbd 593e 930a 0cbf
00000070: 76c2 3b3e a60e 0a3b 873f 6abb 6040 163f
-0.0028838657 0.07229534 -0.5116115 0.7720088 0.58422357 1.1556216 0.7718338 0.018702608
0.15028286 0.003216234 0.38850614 0.21275899 -0.037081562 -0.01864885 0.013784766 0.42377996
-0.35718137 -0.4894335 0.5472399 0.4517443 -0.0024475919 -0.60605145 0.96156853 0.19849283
0.0022097009 -0.05310598 0.21263807 -0.54703635 0.183359 0.002106586 -0.0035743432 0.5869198

net.0.bias f4 [32]
00000000: 0cd1 283f 508f adbf c899 1ebf 8c85 f83d
00000010: cd3b 473f 57de ec3e 736e 6c3e 1c00 97bf
00000020: 610c 06bf 5a0a 40bf 26e0 8ebd 8066 2bbf
00000030: 9ccd 363f 60f1 d73f 03ab 84bf 7dc7 ea3e
00000040: f195 7a3f 6336 1ebf c195 4bbe a5d9 1b3f
00000050: e4d1 2d3f 1ce8 d1be b15b f83c fee1 6dbf
00000060: f9cb e0be ce8a 0a3f 0bc7 49be 2876 2f3f
00000070: 2b9c a63e 029c b3be 4505 df3e b640 8b3e
0.6594398 -1.355936 -0.619534 0.12134847 0.77825624 0.46263382 0.23089008 -1.1796908
-0.5236264 -0.75015795 -0.06976347 -0.6695328 0.71407485 1.6870537 -1.0364689 0.45855322
0.9788504 -0.6180174 -0.19881345 0.60878974 0.6789839 -0.40997398 0.03031716 -0.9292296
-0.4390562 0.5411805 -0.19704835 0.6853967 0.32541022 -0.35079962 0.43558708 0.27197808

net.2.weight f4 [32, 32]
00000000: fddd 843f 1824 4bbd 2468 963e 0d64 e23e
00000010: 817a d73e 037a 8ebe c041 efbe 0ad2 143d
00000020: 1cca 7a3d a20f 9ebf 9702 93bd 3dd0 71be
00000030: aa99 54be 23e5 6ebd 36d5 f13b 2ec3 663e
00000040: 8ea8 f8bd 749e 6c3d 8e0a e33e 68e5 d0bd
00000050: 65e6 b03f 3095 6abe 8b5d f63d 6fac 91be
00000060: 58aa fcbe d62d bbbd b566 cf3d dd4b 953e
00000070: bdfa 1f3e fa64 debe 92eb 293f 5e6c 0a3e
00000080: 8ce1 133e 86bd 7c3e 0455 93be 8405 a7bd
00000090: 61d7 f73d 6002 633d da2d 5bbe 441a 093c
000000a0: 0d74 413e 6c8b 5abd a930 673e 2a77 39bf
000000b0: 6e3b c63d 6e01 25bf 65b8 a93e 7aeb 91be
000000c0: 4f5e cabe 3c6b 753e 5666 2e3e 02a6 07be
000000d0: 0b87 9c3e 89c5 103e ce28 d2be 91f6 9e3e
000000e0: 1a88 bd3c d7c4 2cbe 3ea8 4b3e e3b7 83be
000000f0: cb21 97be 84aa 16bf bfc1 bcbd e329 d2be
00000100: c4f9 a0be 392f 13be 5eb1 353e a2cd 19be
00000110: f8bc 363e c326 223d 7fdf 923e 0035 f5be
00000120: b5e8 d7bd f270 ae3e cb5f 4b3c 5b7d d53c
00000130: 8db7 b53e df07 9abd ce99 bc3c 6f19 db3d
00000140: 94b1 3b3e 579a 813b 7490 25bc 0de0 9d3d
00000150: 78d5 31bf 83df 823e 2769 033d 4f06 15be
00000160: 2bda fe3e 20ef d4bd 7fdc 97bd a7cd d7bd
00000170: c1ab 14bf 5a62 453e 106d 55be 1963 15bd
00000180: 8b63 87bf 20ae 693e 924d b13d 73e8 a1be
00000190: 302e 34be d8f8 933e 2f08 4cbe 4fca 7c3e
000001a0: 8f66 053e 4de0 703f 0f0b b93c 42db 9bbd
000001b0: f527 28be 7fec 713c 27f4 9d3e d83b f1be
000001c0: ea92 b4bd 084b 0f3d ebee cdbc 2968 92bd
000001d0: f7e3 b6bf 94d5 0c3f 7f8d 0fbf dc0a 4cbe
000001e0: 2876 ef3d be91 9f3e 9100 7a3e 8fda c93c
000001f0: 5472 bc3e 16c8 623f 9d0d 03bf f540 683e
00000200: e551 563f 3247 913e 7aa2 c8be f707 ec3c
00000210: fb3f 363f 4f7a fa3e 58c7 87bd f803 8c3e
00000220: 2e34 c83e b887 96bf d190 353f 920a e93e
00000230: 92cc b1be 08be ebbe 0a3d 893e 1267 c43d
00000240: f185 133e 6207 a6bd 5b33 d33c be62 c63e
00000250: 6abe aa3f 464a 3fbe 17db 543d 255c f4be
00000260: 2d24 8abf 0453 d93e 5ea0 bfbd 2351 eebd
00000270: bf9a 9dbe 2e51 4dbf 0f65 d23e d234 5dbf
00000280: d9e6 50be 361c 903a b851 253f 4c3e bdbe
00000290: 6a38 11bf a95d a7be b2d1 d63e d633 693e
000002a0: bbf7 2f3e 3651 29bf ef30 42be d37d 4c3e
000002b0: cb84 93bc d87e 84be ae0d b63e 58d9 f5bd
000002c0: 1eb6 96be 2a68 f93e 6dbb ae3d 832a b3be
000002d0: 7ca5 a13d 1550 1a3e 0be7 75bd 6a9b b43d
000002e0: a952 173e a285 e5bd 08da 8fbe 8856 1d3f
000002f0: d2cb 193f 7b95 813d 9d35 8e3e 8855 9cbe
00000300: 7c8f 7ebf bfc4 22be 695b fe3d 81df 103f
00000310: 5d8a a73e dece 66be 533f 423e a7c1 e7bb
00000320: 2dd2 77bd 8b5e 8b3f e586 06be 9e43 eb3d
00000330: 59d4 9abd c3bd ac3e 5599 ad3d 8ccd b23e
00000340: 1df7 c5be 1b2a 9b3e 8cc0 9bbe f6e8 393e
00000350: 37d5 7abf 956c e43d d079 bdbe b219 90bd
00000360: 35bc 623f 4316 663e 9531 983d 1300 933e
00000370: a465 71bd 5feb 2f3e ce5a e7be 13c8 b53d
00000380: d17f b63c fd53 4bbe 81cb 243d ae62 ecbe
00000390: 2032 f93d 6eb9 3e3e 3ebc 9ebe 7e67 d5bd
000003a0: 99c4 a3be 5c20 35be ee6f cd3d 9eb6 d13e
000003b0: cbbc 5c3e 552d 7e3e 9054 5cbe f3f6 d0be
000003c0: cd44 2dbf f464 cdbc 867b 2bbe 32f7 59bf
000003d0: 2999 3d3d 7dce a7be 561b 523e 9d53 b83c
000003e0: 7f0d 963e 3331 123e dc0a 033e e5fb cd3e
000003f0: 4397 d0be d623 483e de2d 423f c22e 0ebe
1.0380245 -0.04959497 0.29376328 0.44216958 0.4208565 -0.27827463 -0.4672985 0.03633312
0.061227903 -1.2348521 -0.07178228 -0.23614593 -0.20761743 -0.05832399 0.007380153 0.22535393
-0.12141524 0.0577683 0.4434399 -0.10200006 1.3820311 -0.22908473 0.12029561 -0.2845187
-0.49348712 -0.09139602 0.10127012 0.29159442 0.15622993 -0.43436414 0.66375077 0.13517901
0.14441508 0.24681672 -0.287758 -0.08155349 0.12101627 0.055422187 -0.2140421 0.008368079
0.18891926 -0.05335562 0.22577156 -0.72447455 0.09679304 -0.64455307 0.33148494 -0.28499967
-0.39525077 0.23966688 0.17031226 -0.1324692 0.3057178 0.14137854 -0.41046757 0.3104749
0.023136187 -0.16871963 0.19888398 -0.25726232 -0.2951797 -0.58853936 -0.09216642 -0.41047582
-0.31440556 -0.14373483 0.17743441 -0.15019849 0.17845523 0.039587747 0.2868614 -0.47891998
-0.10542432 0.34070545 0.012412976 0.02606075 0.354916 -0.075210325 0.023022559 0.106982104
0.1832946 0.0039551663 -0.010105241 0.0770875 -0.6946635 0.2556115 0.032082703 -0.14553188
0.49775824 -0.10397172 -0.07415103 -0.10537272 -0.58074576 0.192758 -0.20842385 -0.03647146
-1.0577253 0.2282033 0.086573735 -0.31622657 -0.17595744 0.2890079 -0.19924997 0.2468655
0.13027404 0.94092256 0.022588281 -0.076101795 -0.16421492 0.014765858 0.30850336 -0.4711597
-0.08817084 0.034983665 -0.025138339 -0.07148773 -1.4288319 0.55013394 -0.5607528 -0.19926018
0.116924584 0.3116588 0.24414279 0.02464035 0.36805975 0.88586557 -0.5119265 0.22681029
0.8371871 0.2837463 -0.3918646 0.028812392 0.71191376 0.4892144 -0.06629819 0.27346778
0.3910231 -1.1760168 0.709241 0.45515877 -0.34726387 -0.4604342 0.26804382 0.095899716
0.14406563 -0.08106877 0.025781324 0.3874721 1.333936 -0.18680677 0.051966753 -0.4772655
-1.079229 0.42446148 -0.093567595 -0.11636569 -0.30782124 -0.80201995 0.41092727 -0.8640872
-0.20400561 0.0010994736 0.6457782 -0.3696159 -0.56726706 -0.32688645 0.4195686 0.2277368
0.17184345 -0.66139543 -0.18963979 0.19969873 -0.018007657 -0.25878024 0.35557312 -0.12004346
-0.2943582 0.48712283 0.085318424 -0.3499337 0.07892892 0.15069611 -0.060034793 0.088187054
0.14777626 -0.11207129 -0.28096032 0.6146016 0.6007663 0.06327339 0.2777528 -0.30534005
-0.9943769 -0.15895365 0.12419779 0.5659104 0.3272275 -0.22539851 0.18969469 -0.0070726457
-0.060503174 1.0888227 -0.13137396 0.11487506 -0.07560033 0.33738527 0.084765114 0.34922445
-0.38665095 0.3030556 -0.3042034 0.18155274 -0.9798159 0.11153523 -0.37006998 -0.07036151
0.8856843 0.2246943 0.07431332 0.28710994 -0.058934823 0.1717963 -0.45186466 0.08876052
0.022277744 -0.19856258 0.04023314 -0.46169037 0.12167764 0.18625423 -0.31002992 -0.1042013
-0.3198593 -0.17688125 0.100311145 0.40959638 0.21556394 0.2482198 -0.21516633 -0.40813407
-0.67683107 -0.025072552 -0.16746339 -0.85142815 0.046288643 -0.32774726 0.2051824 0.022500807
0.29307172 0.1427658 0.12797111 0.40231243 -0.40740404 0.1954492 0.7585124 -0.13885024

net.2.bias f4 [32]
00000000: cf22 6b3d 31c2 613d ba51 693d 1910 b6bb
00000010: 1bd3 233e e747 e23b 0d25 463d 94ae debd
00000020: 8619 213e deea 1f3c 4525 ec3b 8887 d03d
00000030: 5926 c8bc c1fc 043e 0248 3cbd 8d5d 22bd
00000040: ff0b 9d3d e449 463d 3f85 533d 2c58 fb3d
00000050: 4383 b03d 4f4d 3e3d 4099 953d fd60 7a3d
00000060: ddef 0c3e b4af 953b a365 b8bc 93fc 933d
00000070: 4e87 bc3d 2706 acbc ed41 bb3d e844 8bbd
0.057406243 0.055116836 0.056962706 -0.005556118 0.15998499 0.006905544 0.048375178 -0.10873142
0.15732393 0.009760587 0.0072065913 0.101821005 -0.024432348 0.12987043 -0.04596711 -0.03964
0.07668304 0.04841031 0.051640745 0.12272677 0.08618786 0.046460446 0.07304621 0.06112765
0.13763376 0.0045680646 -0.022509402 0.07225909 0.09205495 -0.020999027 0.09143434 -0.06800252

net.4.weight f4 [32, 32]
00000000: 1357 09bf 66ff 3d3f 5166 eebe 1cc9 19bf
00000010: 8e6c 853e 2ee8 163f c9a4 053f 50fe a23e
00000020: b769 f5bd 8a5f 613e 44e8 17bf e04d fdbd
00000030: 8bab 2c3e 7af7 58be 168c 643c fc18 c63e
00000040: b753 43bf 5310 5b3e 3d0e 3ebd bba3 eebd
00000050: 66bc 10be f96f 003f 669c 093e e417 4d3f
00000060: 58ce 0dbe e965 96bd b154 29be 0509 28be
00000070: 1184 de3e 1a5a 323f bf86 15bf a139 d93e
00000080: 9155 1e3e 7981 5f3f d56b 5cbf c540 d83d
00000090: 45f9 df3d 0d56 cfbe 4c5a e03d 46fe 09bf
000000a0: 249b a53c da9e ffbd fed4 25be 1785 fd3e
000000b0: e671 cebe 5877 8c3e 2755 493c 75c5 453f
000000c0: 5c7f cdbe f5e9 963e 8b78 8fbe d958 8f3e
000000d0: eab1 44be 145b bc3e 980b 9f3e 35be 09be
000000e0: db65 d7bd 316d 123e 1aab 68be cd84 813e
000000f0: f196 b83e 15b5 d33e c052 a7be 1a4c 673b
00000100: 7525 dc3e 5fd4 ce3e 8095 1f3e 1ac4 72be
00000110: 7b81 4cbd c143 2dbd 24b7 d53d 3e75 14bc
00000120: 4c1b 09bf 10ec a83e 3c98 9b3e ea54 bdbe
00000130: c981 193f 62c3 773d 9d0e 0f3d 915c 24bf
00000140: b119 5d3c 8a0d ed3d 592a d93e ee38 a93d
00000150: bd94 d23e 8d73 e23e bdf4 43be 38cb 98bd
00000160: c1c3 493e 8690 9fbe e7fe 18be 25f0 a9bc
00000170: c3d9 fdbe ea0f 18bd fa7c 283f cfb2 1f3c
00000180: 95d2 e5be f032 923e 7186 f23d 7b85 65be
00000190: d710 c0bd 18c1 ecbd 49ed 50bd 9da3 653c
000001a0: 5f77 d7be 342e 4bbd 9150 6f3e 9f49 8b3c
000001b0: a81f d83e b4b3 df3d 1e3a eb3e 2acb f43d
000001c0: bbc3 153b 9173 aabe f17c bf3d 12a6 d6be
000001d0: 9e43 10bf 8382 c33e 94fb 0bbf 093d 00be
000001e0: 75ad 2cbe 5bc3 4e3f 3d1a f23d b4f5 a9be
000001f0: 2e6a da3e 3b25 a8be 52e4 43bf b946 4fbd
00000200: 97b3 8d3d 0e56 6bbf d3fb bd3f 1c30 babd
00000210: 9bd3 82bf 625d ee3e 6218 2fbd 0745 893c
00000220: 219f ae3e 6c10 5b3f e2fa 2dbf 620b a3be
00000230: 0e6a 093f 3610 23bd 0d00 6dbe 4585 55bf
00000240: 176a a73e a13d 5fbe bb8f 833f 2b66 b0bd
00000250: abcc 203d 9b14 babd c8f3 a63e dadd bebe
00000260: a0c9 0e3f fad2 5abe 2c26 193f fabd f4bc
00000270: b4c1 1dbf 3acb 4abf 9422 9fbc 1884 3e3d
00000280: 042d b9be 7e35 84be ea98 01bf 8ce7 aabd
00000290: ebb1 d83e feae 533e b492 903d 087f 15be
000002a0: 9ecf e5bd cb58 02bf ad2b c03e f447 173e
000002b0: d604 d23d 2824 263d c637 6fbe 2b99 b8bc
000002c0: d02b fbbe c23b 453f 49cd 44be aca4 943e
000002d0: 6bf7 0abf 2aca 2d3d e21f ebbd f0ad d9be
000002e0: 4ddf 03bf ab78 a43e ddd8 ec3e 82a1 f5be
000002f0: 2402 0ebe c1e0 d2be b685 48be b07c 5e3e
00000300: 616d 3abf 97dc c9bd 218b 4abd 810d 943f
00000310: 9fd9 4cbe fa53 81be 1517 6b3f 9e57 163e
00000320: 2d4c 33be 491c be3e 800c 90bf a284 ca3e
00000330: 4dd2 703f 7fc7 05be cb3f 0fbf 4505 f83d
00000340: 3938 043f 493a 95bc 19f9 ba3d 1923 7fbc
00000350: 1e6a 943e 6601 65bf c827 51bf 190b 573f
00000360: bead 12be ffe5 7a3b a71c 383f bf41 893d
00000370: 98bf 08be 7f4c 93be e674 5d3f b7e3 90bf
00000380: d41e 273f 7808 dc3e 7216 ce3e 6413 f4be
00000390: f98c f83d 5ee5 8e3e 800f e2be 4d7b c93d
000003a0: aaa6 b23e cbcd 74ba 76da 693f fc30 84be
000003b0: 9d8b 7ebf d704 1bbf 4fcd 863f 0153 c33e
000003c0: 7a86 803e 8931 343e 5e5f 2b3d 485d 6cbd
000003d0: 41a4 6bbe 3c48 ac3f eb5b 653e 2930 4ebe
000003e0: e404 2abc 63c5 b03d 1e0e d83e e391 873e
000003f0: f3fd b83e 15e5 bf3e d217 48be b115 4a3f
-0.5364849 0.7421783 -0.46562436 -0.60072494 0.26059383 0.5894803 0.5220457 0.3183465
-0.11983054 0.22009102 -0.59338784 -0.12368369 0.16862313 -0.21188155 0.013949415 0.38690937
-0.76299614 0.21392946 -0.046400297 -0.11652323 -0.14134368 0.50170857 0.13438568 0.8011458
-0.13848245 -0.073436566 -0.16536213 -0.1640969 0.43460134 0.69668734 -0.5840873 0.4242678
0.15462328 0.87306935 -0.8610204 0.10559229 0.10936216 -0.4049534 0.10954723 -0.53903615
0.020215578 -0.124814704 -0.16194531 0.49515602 -0.40321273 0.27434802 0.012288368 0.7725442
-0.4013623 0.2947537 -0.28021654 0.27997473 -0.19208494 0.36788237 0.31063533 -0.13451464
-0.10517474 0.14299466 -0.2272152 0.2529663 0.3605266 0.41349092 -0.3268032 0.0035293163
0.42997327 0.403964 0.15584373 -0.2370762 -0.04992817 -0.042300943 0.10435322 -0.009061156
-0.53557277 0.329926 0.30389583 -0.36978847 0.5996366 0.060489066 0.034926046 -0.64203745
0.013494895 0.11574848 0.4241512 0.082628116 0.41129103 0.44228783 -0.19136329 -0.07460636
0.1970358 -0.3116495 -0.14940988 -0.020744393 -0.49580202 -0.03712455 0.658157 0.009747221
-0.44887224 0.28554487 0.11842049 -0.224142 -0.09378212 -0.11560267 -0.051007543 0.014016059
-0.4208326 -0.04960461 0.23370577 0.017002879 0.42211652 0.109229475 0.45942777 0.11952813
0.002285226 -0.33291295 0.093500026 -0.41923577 -0.56353176 0.3818551 -0.5468075 -0.12523283
-0.16863044 0.8076684 0.11821411 -0.3319527 0.42659134 -0.32840905 -0.76520264 -0.050604556
0.0691902 -0.91928184 1.4842476 -0.090912074 -1.0220827 0.4655562 -0.042747863 0.016756548
0.3410578 0.8557193 -0.6796094 -0.31844622 0.5367745 -0.03981038 -0.2314455 -0.8340648
0.32698128 -0.21800853 1.0278238 -0.08613237 0.039257687 -0.090859614 0.32607865 -0.37278634
0.55776405 -0.21369544 0.5982387 -0.029875744 -0.6162369 -0.7921635 -0.019425668 0.046512693
-0.36167157 -0.2582206 -0.50623953 -0.08344945 0.4232324 0.20672223 0.070592314 -0.1459924
-0.112212405 -0.5091674 0.37533322 0.14773542 0.10254829 0.040561825 -0.2336112 -0.022533974
-0.49056864 0.7704431 -0.19218935 0.29031885 -0.5428378 0.042429127 -0.114806905 -0.42515516
-0.51512605 0.32123312 0.46259204 -0.47974783 -0.13868004 -0.411871 -0.19582257 0.21727252
-0.7282315 -0.09856527 -0.04944909 1.1566621 -0.20004891 -0.25259382 0.91832095 0.14681861
-0.17509528 0.37130955 -1.1253815 0.39554316 0.94070894 -0.13064383 -0.55956715 0.1211038
0.5164829 -0.01821627 0.09129543 -0.015572333 0.2898721 -0.8945526 -0.81701326 0.8400131
-0.1432409 0.003828406 0.7191872 0.06701993 -0.13354337 -0.287693 0.865065 -1.1319493
0.65281415 0.4297521 0.402515 -0.47671044 0.121362634 0.27909368 -0.4415245 0.09837971
0.3489278 -0.0009338527 0.9134897 -0.25818622 -0.9943178 -0.6055426 1.0531405 0.38149264
0.25102597 0.17597021 0.041838996 -0.057706147 -0.23011877 1.3459544 0.22398345 -0.20135559
-0.010377143 0.086313985 0.4219827 0.2647849 0.36131248 0.37479463 -0.19540337 0.7893935

net.4.bias f4 [32]
00000000: 0dbb 3dbc 2005 2b3d 0417 ba3d 243a 16be
00000010: 8610 0c3e 90be 31bd 23f2 db3d 42e6 ebbd
00000020: d1d0 3f3d e97f 083e 7425 d6bd 1885 51bc
00000030: 1d4f 0a3e d97f 093d 49c1 6cbd 00c7 0a3d
00000040: 1027 363d 9e79 e8ba e60d 563e 8e09 3dbe
00000050: 3ece 33bc 3214 563e ff72 b63d cddd b3bc
00000060: cd6e 41bd af8b 83bd 6b56 bd3d 41e5 883d
00000070: c0e6 8a3e cdfd c5bc 8b1c 3fbc 5eb8 8b3c
-0.011580241 0.041752934 0.09086421 -0.14670616 0.13678178 -0.043394625 0.10739543 -0.115185276
0.046830002 0.13330044 -0.10456362 -0.01278808 0.13506742 0.03356919 -0.05780152 0.033881187
0.044470847 -0.001773644 0.2090374 -0.18460676 -0.010974465 0.20906141 0.089086525 -0.021956349
-0.04722481 -0.06423127 0.092449985 0.06684352 0.27129173 -0.024168873 -0.01166452 0.017055687

net.6.weight f4 [6, 32]
00000000: 6c37 63be 3023 cdbd b3d4 ad3e ecd0 053f
00000010: 500a 63bd 9189 2d3f 246d e0be c2f8 e6be
00000020: 1e84 0ebe 2bb9 f9be 85fd 3f3e 7c14 dabb
00000030: a72d 44be c02c 06bf 6fba 2f3f cdc4 803f
00000040: 16fc 153f 3c56 923c 6dea c9be 7b52 77bf
00000050: 5cbd 93be 0cb8 c93e 5584 3cbc ea9c 353d
00000060: acf7 bb3e fd67 c83c 0682 753e 0e23 dd3e
00000070: db6b a13e 78cb 8cbd ef25 17bf d0cf afbe
00000080: 9e7d c03d 2521 86bd 8f85 64bf 2b11 fa3e
00000090: 4fdf 46bf 7f3d 093e 0cd4 4c3f b7b8 48bf
000000a0: da56 05bf 48fc 1cbf be07 023f dd24 67be
000000b0: 695a cfbf b44f e03e 10b8 4f3f 92a1 2ebf
000000c0: dc25 90bf ad7f 91bf c205 23bf 706a 4a3f
000000d0: 6f80 3bbf 51a5 5e3e ba8e 01bf 7f31 183f
000000e0: 9b68 b43e 92f1 b23e b3a8 643c 4725 853f
000000f0: 584f 91bf f30d e0be 3814 653f cfdd edbd
00000100: 725e b43f dd68 1abf e784 46bf a22e 6b3f
00000110: 6fab 11be 0e1a 973f 09d8 143e 6553 df3e
00000120: a92a 67bf c354 e43d 5f7f 983f 0b61 323e
00000130: 7fdb 0abf 1b4d ac3e 742d 4b3f 7d8b 64bf
00000140: 1e9b 9b3d d6ee 983e 2d94 43bf 3866 4ebd
00000150: 7dcf e63e aa7b 3cbf 5de3 25bf d3df 833f
00000160: 7f0b 933f 4483 7b3d 066d b7bf ba6c 563e
00000170: 0213 42bf 6d4a 3e3f 5f59 a03d 927e e5be
00000180: 27ca 953e 2777 44be a61a 88bc ce70 d4be
00000190: 687d 73be 4cdd 61be d09c f43e e770 5abf
000001a0: 0b2f b63e 9c89 343d 9378 a3bf 6e90 90bf
000001b0: 2af0 d03e 653f 83bf cb49 71be 0b88 6c3e
000001c0: 9017 edbc dc5d 753d 2aa3 c23f b6e8 3bbe
000001d0: c0dc 26bf c7b3 7d3e 7171 923e 31c3 0a3e
000001e0: 36f9 8d3d 6d8f a23d 59e1 833d 46b4 44be
000001f0: a246 d1be b6b5 b4be c7fd 833e 6bdf 7d3f
00000200: f5e9 043f a93b 28c0 b4bb 72bf 71a5 2b3f
00000210: 67c3 893e 95b5 c53f 818f 3c3d 5e2a ec3e
00000220: f0ec 34bf ecc6 263e 0da4 703e d68c cabe
00000230: 5a0a 3bbf 6731 003f 7119 ae3e c42d babf
00000240: a1fe 043f 4b56 ebbd 9c23 53bf 8931 c03e
00000250: 8a3f 443e ef0b dabf 4783 04c0 ffa7 513f
00000260: 8227 613f 864f 923f 9a9b b3be d80c ec3d
00000270: ef75 10bf 835f 973f e7f5 193d 2c30 b43e
00000280: 46cf a13e ad3e c93e bcfe fd3d 5fc3 dd3d
00000290: 2667 143f 2199 eb3e 8a9e 36bf 7cc9 853f
000002a0: a2f6 2c3e 488e aa3f 187d 79bf 06bd 4c3f
000002b0: 09a0 bb3f 9d32 60bf 8914 bdbd 77f0 893f
000002c0: d6b8 173f 16f1 db3f f950 0d3f 5e0d c9bf
000002d0: 9e70 ab3f 8a34 093f 61a0 07bf 0c17 56bf
000002e0: 3add 393e 7728 1c3f 8061 c93a e7ba 01bf
000002f0: 9e7a a53f a177 e73e f2e4 f6be e322 6c3e
-0.2218911 -0.10016477 0.3395134 0.52271914 -0.055429757 0.67788035 -0.43833268 -0.45111662
-0.13917586 -0.48774084 0.18749054 -0.006655274 -0.1915804 -0.52412033 0.6864385 1.0060059
0.5858778 0.017863385 -0.39436665 -0.9661023 -0.28855407 0.3939823 -0.01150616 0.044339098
0.36712396 0.024463648 0.23975381 0.43190807 0.315276 -0.06874746 -0.5904226 -0.34338236
0.093989596 -0.065492906 -0.89266294 0.48841223 -0.7768449 0.13402365 0.8001106 -0.7840685
-0.5208565 -0.6132245 0.50793064 -0.22572656 -1.6199466 0.4381081 0.8114023 -0.68215287
-1.1261554 -1.1367089 -0.6368066 0.7906866 -0.7324285 0.2174275 -0.5060841 0.59450525
0.35236058 0.3494993 0.013956237 1.0402001 -1.1352339 -0.43760642 0.89483976 -0.11614572
1.4091322 -0.6031626 -0.7754654 0.9186803 -0.14225553 1.1804826 0.14535536 0.43618312
-0.9029947 0.111489795 1.191387 0.17419831 -0.54241174 0.33652577 0.7936623 -0.8927534
0.07597946 0.29869717 -0.76397973 -0.050390452 0.45080176 -0.73626196 -0.64800054 1.0302681
1.1487883 0.06140448 -1.4330146 0.20939913 -0.75810254 0.74332315 0.07829546 -0.44823128
0.29255792 -0.19186078 -0.01661427 -0.41492313 -0.23778307 -0.22057074 0.47775888 -0.85328525
0.35582766 0.044076547 -1.2771171 -1.1294076 0.4080823 -1.0253721 -0.23563306 0.23098771
-0.0289419 0.059903964 1.5206044 -0.18350491 -0.6518059 0.24775611 0.28602174 0.13551022
0.06932299 0.079375125 0.06439466 -0.19209394 -0.408742 -0.35294884 0.25779554 0.99169034
0.5191949 -2.6286414 -0.9481766 0.6704932 0.26906893 1.544604 0.046035293 0.46126074
-0.7067404 0.1628682 0.2350008 -0.39560574 -0.7306267 0.5007538 0.34003785 -1.4545217
0.5195103 -0.114910685 -0.8247621 0.37537792 0.19164863 -1.7034892 -2.0705125 0.81896967
0.8795091 1.1430519 -0.35079652 0.11525887 -0.5642995 1.1826023 0.037588026 0.35193002
0.3160345 0.3930563 0.12402102 0.1082828 0.5796989 0.46015266 -0.7133566 1.0452113
0.16890958 1.3324671 -0.974565 0.79975927 1.4658214 -0.8757723 -0.092324324 1.0776509
0.5926641 1.7182949 0.5520168 -1.5707204 1.3393743 0.53595793 -0.52979094 -0.83628917
0.18150797 0.60999244 0.001536414 -0.50675815 1.2928045 0.45208457 -0.48221546 0.23060183

net.6.bias f4 [6]
00000000: 51c8 efbb f07a d6be ccf9 39bf 58d0 143e
00000010: c575 8bbe 2329 123d
-0.0073175807 -0.4189067 -0.72646785 0.14532602 -0.2723829 0.035683762
