models/parameter_net.pth (torch, 2627 bytes, 4 tensors)

net.0.weight f4 [32, 1]
000000 08 10 dd 3f c1 19 6f bd b6 c7 4d bb 48 83 03 40
       1.7270517 -0.05837417 -0.0031399555 2.0548878
000010 52 96 4f bf bb 87 ad bf 6a c9 de be c6 4a 8b bf
       -0.81088746 -1.3557047 -0.43513042 -1.0882194
000020 b0 20 09 be e2 4a 33 3f 1f 3e fc bc c3 87 96 3f
       -0.13391376 0.7003614 -0.03079134 1.1760181
000030 00 57 de bf 92 8d 5e 3c 33 5b d4 be ba d9 f2 bc
       -1.73703 0.013583558 -0.4147583 -0.029644836
000040 5b 5f a3 3b fe 3a 4c bf 91 56 c4 3c 76 ce 09 bd
       0.0049857325 -0.79777515 0.02396706 -0.033644162
000050 90 cd 4d bf 84 1c 7c 3f 4c df 50 bd ca b2 59 3f
       -0.8039179 0.9848101 -0.050994202 0.85038435
000060 35 96 c1 bf 95 50 5b bd 56 39 23 bf 2e 66 2e bd
       -1.5123965 -0.053543646 -0.6375936 -0.042577915
000070 30 b6 1c 3a 67 88 83 bf dd 87 55 3b 84 0d 1b 3f
       0.0005978076 -1.0276002 0.0032582202 0.605675

net.0.bias f4 [32]
000000 31 fd bf be 22 42 8b bf c2 b9 8a bc f3 d6 62 bf
       -0.37497857 -1.0879557 -0.01693428 -0.88609236
000010 a4 ea a5 bf dc b5 01 3f fe 6d ab be a1 ba c3 bf
       -1.2962232 0.5066812 -0.33482355 -1.529133
000020 0a da ed 3f 1e b5 4d bf ab 89 f9 3f 05 95 d0 3e
       1.8582165 -0.8035449 1.9495138 0.40738693
000030 a2 52 48 3f e2 ad 24 3d 92 c7 a1 bf 78 c9 6c 40
       0.7825109 0.04020489 -1.2639029 3.6997967
000040 5b 7f 24 c0 68 36 89 3f 4a c7 82 bf 65 9b 35 bf
       -2.5702732 1.0719728 -1.0217068 -0.7094024
000050 1b ea 1c bf 77 4b ae bf dc 8e c0 3f 60 f0 a0 3f
       -0.61294717 -1.361678 1.5043597 1.2573357
000060 9f 36 af bf d0 98 a6 3e 7e f7 d7 3e 95 8e 9a be
       -1.3688544 0.32538462 0.4218101 -0.30186906
000070 32 73 1e bf b2 f3 e3 3b 22 4e 49 bf 69 19 ab 3f
       -0.61894524 0.006956541 -0.78634846 1.336713

net.2.weight f4 [5, 32]
000000 03 73 88 3e fd 30 92 bd 06 18 aa be f6 45 dd 3e
       0.26650247 -0.0713825 -0.33221453 0.43217438
000010 62 89 b4 3d d4 d8 b3 be de b8 f2 3c f5 56 51 3e
       0.08815266 -0.35126364 0.029629167 0.20443328
000020 29 a6 8d 3e ae b7 b4 3c dd 21 a0 3e e8 ac 76 3e
       0.27665833 0.022060242 0.31275836 0.24089396
000030 df 22 0f bf fe ce 18 bf e1 e9 a3 3e 63 e3 c5 3e
       -0.55912584 -0.59690845 0.32014373 0.38650045
000040 71 e7 3f be 46 42 16 be ca 37 73 be f6 88 28 be
       -0.18740632 -0.14673719 -0.2375175 -0.16458496
000050 56 d9 59 be 48 b6 2a 3e e5 f8 99 3e db 0f b5 bc
       -0.21274313 0.16671097 0.30072704 -0.022102287
000060 a6 d2 6e 3e 92 b2 8f 3e e0 d1 f9 3c 2c b6 31 3e
       0.23322544 0.28065926 0.030495584 0.1735465
000070 c5 6a 12 bf ba c4 da bd 76 69 ba be 5a 9a 4e be
       -0.5719417 -0.10682054 -0.36408585 -0.20176068
000080 27 ca 30 be c2 06 e5 3d 79 8e ec 3e a2 e9 0d be
       -0.17264615 0.111829296 0.46202448 -0.13858655
000090 65 02 7b 3e 6d 73 cc 3d fc 5b 8f 3f 4f ea d2 bd
       0.24512632 0.09982953 1.1199946 -0.10298597
0000a0 d0 87 99 bf e0 c5 05 3a ca a3 52 be ca 01 2c 3f
       -1.1994572 0.0005103033 -0.20570293 0.6719023
0000b0 da 9f 78 3e 8a 9d 0f be 9e 5a d6 3e 5d 31 19 be
       0.24279729 -0.1402494 0.4186601 -0.14960237
0000c0 fc f0 bd 3f 4a 68 1b 3e e1 7e 19 3f 72 27 86 be
       1.4839168 0.15176502 0.59959227 -0.2620197
0000d0 8b bc de bd 97 94 9e be d2 66 57 3e ed 66 83 bd
       -0.108758055 -0.3097274 0.21035317 -0.06416116
0000e0 71 ab de 3e 8e ab 31 3e a8 d3 2c 3f 66 e4 20 3f
       0.43490174 0.17350599 0.6751046 0.6284851
0000f0 cf 50 a4 bd d1 82 21 3e 5a 9a ed be c2 c8 8e be
       -0.080232255 0.15772559 -0.46406823 -0.2788754
000100 e1 81 e8 be 20 86 c4 3e e5 68 6d 3f a4 ca c6 be
       -0.4541159 0.3838358 0.9273818 -0.38826478
000110 00 ed 8f 3f 20 48 bb 3e 9a 4e 25 be 68 5c d9 3e
       1.1244202 0.36578465 -0.16143265 0.42453313
000120 1d 9d 06 3f 65 1a d6 bd 42 83 ae be d5 46 48 bf
       0.52583486 -0.10454253 -0.34084517 -0.7823308
000130 12 b0 20 bd f9 38 15 be 2d 17 d4 3e f5 10 9a bf
       -0.039230414 -0.14572515 0.41423932 -1.2036425
000140 f8 c4 18 c0 c4 35 32 bd f7 ae 8d be 74 fd f3 3e
       -2.387022 -0.043508306 -0.2767255 0.47654307
000150 88 47 85 3f 00 5c 0d 3f a0 a0 22 bf f7 da f4 be
       1.0412455 0.55218506 -0.63526344 -0.47823307
000160 e5 d0 fc 3e d0 3b 63 3e 12 c1 c2 3e ec 27 29 3f
       0.49378124 0.22190785 0.38037926 0.6607654
000170 c4 65 d6 bf 2a 08 cc be 66 f3 fa bf 86 b4 98 be
       -1.6749806 -0.3984998 -1.9605529 -0.29825228
000180 fc 96 50 be fa 13 b3 3d 8a ae 39 3e 16 c1 f5 bb
       -0.20370096 0.087440446 0.18132988 -0.0074998243
000190 16 5e d4 be 13 3b 24 be d4 9f 13 be 85 06 21 3e
       -0.41478032 -0.1603816 -0.14416438 0.15725143
0001a0 94 5d f8 3c 88 17 0e 3f 4e 56 0d 3f f2 82 67 bc
       0.030318059 0.55504656 0.55209816 -0.014130341
0001b0 f1 42 d0 3e 92 e6 33 3e 1e ca ef be 38 02 19 3d
       0.40676072 0.17568424 -0.4683389 0.03735563
0001c0 30 e8 11 3c e0 2b 1c bf 8b a7 60 be 76 df 3d 3e
       0.0089054555 -0.6100445 -0.21938913 0.18542275
0001d0 22 26 dd bd ef fa a5 3e 79 99 09 3f a5 10 a8 be
       -0.10798289 0.3241801 0.53749806 -0.328252
0001e0 b6 50 ab 3d 45 35 b5 be c1 b8 84 bf 71 37 33 3e
       0.08365004 -0.35392204 -1.0368882 0.17501618
0001f0 be 94 a1 be b7 0d 13 3f f2 0f 8a 3f ec 1e 12 be
       -0.31558794 0.574428 1.0786116 -0.14269608
000200 19 64 ad be 6f ae 82 3f eb 24 65 3e b0 c2 c0 be
       -0.3386543 1.0209483 0.22377364 -0.37648535
000210 89 0b 97 3d 87 8b 05 3f 62 04 f4 3e 04 3c 03 3f
       0.07375247 0.52166027 0.47659594 0.5126345
000220 10 4d b1 3e e7 09 53 bf ae 07 24 bd 3a 1e 83 bf
       0.34629107 -0.82436985 -0.040046386 -1.02436
000230 22 50 62 3f 23 59 bf be ea 33 5d 3f 71 a1 0e bf
       0.8840352 -0.37372693 0.8640734 -0.5571509
000240 19 5d 29 3f 23 9b 04 3f 8e a4 08 bf dc 0d 63 3f
       0.6615768 0.5179922 -0.5337609 0.8869302
000250 49 56 83 bd 01 69 1d 3f 50 b9 23 3e ea e6 bf be
       -0.06412942 0.6148835 0.1598866 -0.3748086
000260 d1 a5 68 3f f8 53 c0 be b6 1d c2 3f 2b 84 56 3f
       0.90878016 -0.37564063 1.5165317 0.8379542
000270 a8 4b 16 3f 2b 2e 4b 3f 05 c6 5d 3f 0c 5b 40 bf
       0.5870919 0.7936732 0.8663028 -0.75138927

net.2.bias f4 [5]
000000 46 68 8f 3c 98 d5 48 be 0d 9b 81 be 54 1b 69 3c
       0.017505776 -0.1961273 -0.25313607 0.014227707
000010 bd 0b f1 be
       -0.47079268
