models/parameter_net.pth (torch, 22482 bytes, 12 tensors)

net.0.weight f4 [32, 1]
000000 b2 00 76 bc 3a 5a 6d bb e3 69 24 bf 90 63 73 3e
       -0.015014814 -0.003621711 -0.6422407 0.23768449
000010 26 6f 2d bb 6d 52 99 bd 36 6d 8a 3e 6c ad 04 bf
       -0.0026463955 -0.074864246 0.27036446 -0.5182712
000020 e1 37 3f 3e 53 d0 c9 bc b5 18 30 bb a8 7d 09 3f
       0.1867366 -0.02463547 -0.0026870195 0.5370736
000030 72 d6 40 bf 6f a1 72 bd a6 c6 c4 3e d0 cf ad bd
       -0.7532722 -0.059235986 0.38432807 -0.08486903
000040 c1 8d 6b bc dc 57 a9 be 1a c2 00 bf 37 b2 b3 3c
       -0.0143770585 -0.33074844 -0.50296175 0.021935565
000050 a4 4e d2 be 8e 31 42 3b 29 c5 67 bc 14 53 90 3d
       -0.41075623 0.0029631588 -0.014146128 0.07047096
000060 77 5d c2 bb 4b 76 80 3c f0 c9 5f 3f 6c 1a 3a 3f
       -0.005931552 0.015681406 0.8741751 0.72696567
000070 86 c4 93 bd 45 3a a0 be bd e9 84 3e cb 91 2f be
       -0.07215218 -0.31294456 0.25959578 -0.1714546

net.0.bias f4 [32]
000000 1d fb 07 3f 54 51 f1 bd 7c ac 54 be c9 8a 50 3e
       0.53117543 -0.1178309 -0.20768923 0.20365442
000010 e6 19 f8 3e c4 03 51 be c6 3e 12 be 30 30 47 be
       0.4845726 -0.20411593 -0.14281759 -0.19451976
000020 c1 23 8e 3e e3 ab 2d 3e b7 f2 dd 3e 45 48 09 bd
       0.27761653 0.16960101 0.4334924 -0.033516187
000030 b9 25 b8 3d 19 ff 0f 3f 4a 2c a2 3d 54 02 01 3f
       0.0899157 0.56248623 0.07918604 0.5039418
000040 1d 74 33 3e 0c ee b6 be 7d 17 c2 3d 13 ec 1a be
       0.17524762 -0.3572849 0.09477136 -0.15129118
000050 08 ce aa bb 91 8a 1f be e8 26 a7 3f 42 06 b5 be
       -0.005212549 -0.15580203 1.3058748 -0.35356337
000060 da e7 3e 3d 50 4b 78 bf 94 b7 fb 3d a5 be 50 bd
       0.04660783 -0.9698992 0.12290874 -0.050963063
000070 3b d6 ee bc 27 9f 07 be 59 6d d7 3e c4 bd 65 3e
       -0.029154887 -0.13244306 0.42075613 0.22435671

net.2.weight f4 [32, 32]
000000 3e db 1d 3f ba 10 4c 3d d1 d7 97 3d 0b 93 37 3e
       0.6166266 0.04982064 0.074142106 0.17927186
000010 f0 60 76 3d 48 1a 0e 3e 32 c0 5c 3e f8 8a 6a 3e
       0.06015104 0.13877213 0.21557692 0.22904575
000020 9b 52 20 be c4 1e 37 3e 6a b5 ac 3e e9 e9 9b 3d
       -0.15656511 0.1788283 0.33732158 0.07612974
000030 80 0b 72 be 4d 42 05 3c 26 45 ae 3c 7b 12 16 bd
       -0.236372 0.008133483 0.021273207 -0.036638718
000040 07 49 77 bd ae a4 96 3e 9d be 4b be ab d2 9c bd
       -0.06037238 0.29422516 -0.19896932 -0.07657369
000050 71 cd e9 3d 3f 5f 3a bd 16 71 bf 3c 7b a1 c9 3e
       0.11416138 -0.04550099 0.023369353 0.39381012
000060 5e 16 9d 3e df 39 16 be e8 62 07 bf c2 00 af bd
       0.30681127 -0.14670514 -0.52885294 -0.085450664
000070 ab e5 74 be 86 e5 a4 3e 06 06 50 be 3f 5a fa bd
       -0.23915736 0.32206362 -0.20314798 -0.12224244
000080 5e 84 6b 3e 87 0f 59 be 15 12 8c bd 15 0f 70 be
       0.22999713 -0.2119733 -0.068393864 -0.23443253
000090 de 40 c8 be 92 c4 e3 bd 68 58 3a 3e 42 df d4 be
       -0.3911199 -0.11121477 0.18197787 -0.41576582
0000a0 51 88 a8 bb c8 47 ce bc 56 84 88 be 58 db 2a bf
       -0.0051432033 -0.025180712 -0.26663464 -0.6674094
0000b0 dd 89 5a 3e 13 a2 0d bf 99 97 04 be fe af 12 3e
       0.21341653 -0.5532543 -0.12948455 0.14324948
0000c0 b4 04 ee 3d 38 5c e4 3d 75 39 a2 3e ea b4 6e bd
       0.11621991 0.11150402 0.3168446 -0.058278
0000d0 71 86 ab be 6a 2f c7 3d 82 3f 13 3e e1 4d 11 3e
       -0.33501008 0.097258404 0.14379695 0.14189865
0000e0 d5 9b 3f 3e 17 48 14 3e 10 50 c1 bd 85 89 1a be
       0.18711789 0.14480625 -0.09439099 -0.15091522
0000f0 39 f6 05 b9 ae be 32 be 28 d2 1b 3a 96 d7 2a 3e
       -0.00012775593 -0.17455551 0.00059440965 0.16683802
000100 8c ae 75 3e 07 50 69 bf 39 67 ff be ca 70 92 3e
       0.23992366 -0.9113774 -0.4988344 0.28601676
000110 88 ea 98 be 84 d9 6d 3f 5f ae 83 3b f3 93 4d 3e
       -0.29866433 0.9291003 0.0040185894 0.2007597
000120 56 dd ab be 95 56 95 3e fd 27 5e be d8 ee 63 be
       -0.33567303 0.2916762 -0.21694942 -0.2225908
000130 0e 4d 9c be a1 a4 a2 3e a8 42 13 bc a8 03 62 be
       -0.30527538 0.31766227 -0.00898806 -0.22071707
000140 34 f9 81 3d 56 26 0a be ad 3d c1 be 66 98 17 3e
       0.0634636 -0.13491186 -0.37742367 0.14804229
000150 14 20 35 3e 4f 7b c5 be 0c ee da be d9 1e 35 be
       0.17688018 -0.3857064 -0.4275974 -0.17687549
000160 e9 57 00 3d 4b 73 e2 3e b6 b8 6f bd 1c 5d 30 bc
       0.031333838 0.44228587 -0.058525763 -0.0107643865
000170 a9 80 6b be c7 a0 ec 3e 38 2d 0a 3f 9b bd ae 3e
       -0.22998299 0.46216413 0.5397525 0.34129032
000180 32 9d 3a 3e 7f 24 5b 3e 28 ac cf 3c 91 02 8c 3d
       0.18224028 0.21400641 0.025350645 0.06836427
000190 c1 f6 aa 3d 5d 3b d2 3e d0 ab 00 3c 4a c9 7f 3e
       0.08347846 0.41060916 0.007853463 0.2497913
0001a0 7d 80 1e be ac 61 31 3e 7f 31 85 bd 08 75 8c 3e
       -0.15478702 0.17322415 -0.06503581 0.27433038
0001b0 1f a2 18 bd 41 7b c0 bc e2 b7 b9 bd 81 a8 ac 3e
       -0.037263986 -0.023496272 -0.09068276 0.33722308
0001c0 50 88 89 3d 15 93 fb 3e 17 98 90 bd 4e 7a 28 be
       0.06715453 0.49135652 -0.07060259 -0.16452906
0001d0 ad 76 c7 3e dc 1f 47 3c b5 04 c2 be d9 c7 35 be
       0.3895773 0.012153592 -0.37894216 -0.17752017
0001e0 64 06 35 3e 45 b4 c3 3e 72 4a 85 bd 78 95 7c 3d
       0.17678219 0.38223472 -0.0650834 0.061665982
0001f0 b6 64 9a 3d 8b 1c 53 3e 18 4c ab 3d 8b 57 8c 3e
       0.0753874 0.20616357 0.08364123 0.2741054
000200 06 c3 fa 3e 82 cd a4 3d 40 a3 32 bf 76 f7 9f be
       0.48976916 0.0804701 -0.6978035 -0.31243485
000210 c1 45 a5 bd 51 06 1b be 98 a7 52 be 78 90 d6 3e
       -0.08069945 -0.15139128 -0.20571744 0.41907096
000220 d5 90 15 3d 79 1b ad 3e da 2e 96 bc c1 07 23 be
       0.036515076 0.33810022 -0.018332887 -0.15920927
000230 d6 7b 9a be c1 81 d8 be 95 65 8f 3e 66 d3 01 bf
       -0.30172604 -0.42286494 0.28007188 -0.50713193
000240 8c d8 9a 3e ef 93 c2 bd f5 1d 2c 3c 40 7f 37 be
       0.30243337 -0.09500872 0.010505189 -0.17919636
000250 d0 71 1c 3f 2e 39 79 be 7a 46 44 3e 83 e4 12 3e
       0.61111164 -0.24338219 0.1916751 0.14344983
000260 82 29 95 3d 55 06 d8 be b0 19 e1 be 16 93 97 3e
       0.072833076 -0.4219233 -0.4396491 0.29604405
000270 c2 36 22 be 24 ca 72 be 80 9e 7e be c7 f8 c5 bd
       -0.15841201 -0.23709923 -0.2486515 -0.09666591
000280 14 51 a3 bd 89 2b be be e4 8c c5 be 56 f4 bb be
       -0.07974449 -0.3714259 -0.38584054 -0.3670985
000290 d2 d6 1a 3e 13 96 f9 3c 1d 3f 8d bd 91 f1 ae be
       0.1512101 0.030467069 -0.068968035 -0.34168676
0002a0 ee c0 c1 3e 70 a7 26 3f bf 42 b1 3e 93 4d 3c 3e
       0.37842506 0.6509924 0.34621236 0.18388967
0002b0 22 5a d1 3e ed 79 a6 3e 4f 19 b1 3e 22 aa 1e be
       0.40889078 0.32514897 0.3458962 -0.15494588
0002c0 bb 01 d5 be 16 69 23 bd 59 75 32 bd 35 9e 88 bc
       -0.41602883 -0.03989514 -0.043568943 -0.016677001
0002d0 a2 a8 20 3e 06 f6 b3 3e f8 e4 8e 3e 61 88 51 bd
       0.15689328 0.35148638 0.27909064 -0.05115545
0002e0 54 e9 0b be 3b 80 87 bd c1 3c 50 3e 47 89 23 3e
       -0.13663226 -0.06616255 0.20335676 0.15970336
0002f0 18 58 33 3d d8 e8 9b 3e 19 75 a9 bd ea 5c 30 bf
       0.043785185 0.30451083 -0.08274288 -0.68891776
000300 54 02 1b be f3 c0 eb be c2 e3 3c be f5 1b 28 3f
       -0.15137607 -0.46045646 -0.18446258 0.6566766
000310 f0 7a dc be f1 8b 03 be cb e5 98 3d 94 b5 24 3e
       -0.43062544 -0.12846352 0.074657045 0.16084892
000320 0f 94 ae 3e 79 8b 83 3f a5 88 f1 be be 89 d7 bd
       0.34097335 1.0276939 -0.47174564 -0.10524319
000330 00 12 0c 3e b6 5d ea 3c 41 2f 52 3d 91 81 8e 3e
       0.13678741 0.028609138 0.051314596 0.27833226
000340 b4 0e 5f 3e 1e 88 b7 3e 92 bb af be e8 31 e6 be
       0.21782953 0.35846037 -0.34322792 -0.4495995
000350 20 14 b9 3d d1 73 86 3d b4 cd cd 3e 6f cb 32 3e
       0.09037042 0.06565059 0.40196002 0.17460416
000360 6a d4 f6 be b1 b6 95 3e 9a 5d 27 bd ef 0f 31 be
       -0.48208934 0.29240945 -0.04086075 -0.17291234
000370 91 10 28 be e1 a0 10 3e 02 3a 8c be f7 76 60 be
       -0.1641257 0.1412387 -0.27388006 -0.21920381
000380 30 20 33 bd 20 25 cb be a6 54 75 bb c8 9f a1 3e
       -0.04373187 -0.39676762 -0.0037434488 0.31567216
000390 b9 f5 2b bf 61 6e cc be a1 e5 ff bd 7d 62 60 3f
       -0.6717182 -0.39927962 -0.1249497 0.8765028
0003a0 f7 e3 16 bf 12 53 b3 be 49 ed 09 bf fd 67 65 be
       -0.58941597 -0.35024315 -0.53877693 -0.2240295
0003b0 65 9f ee be ed 95 74 be c6 7a d7 3e c9 fa 01 bf
       -0.46605983 -0.23885317 0.42085856 -0.5077329
0003c0 c3 07 47 3f 69 c0 cf be 91 cf 4a b9 14 02 b4 be
       0.7774622 -0.40576485 -0.00019341546 -0.35157835
0003d0 77 21 37 3e 7c de 1a be 98 a8 bb be a2 e5 06 3e
       0.1788386 -0.15123934 -0.36652064 0.13173535
0003e0 8c d2 88 3e 8c d0 ae 3e 2e bf 0a be 34 49 aa 3c
       0.26723135 0.34143484 -0.13549492 0.02078686
0003f0 f5 6e d9 3e 04 2c 02 3f 89 3d 02 be 14 af d6 be
       0.42467466 0.5084841 -0.12718786 -0.4193045

net.2.bias f4 [32]
000000 d8 2c 30 bc 85 b8 07 bd 07 82 36 3b e8 4d bc bd
       -0.010752879 -0.033134956 0.0027848498 -0.09194547
000010 1a 29 f0 3c 98 59 65 3c 87 b2 04 bb 6a a2 b7 bd
       0.029316474 0.013998412 -0.0020248012 -0.08966525
000020 b8 4e 08 bd 08 12 34 bc 1c 1d a3 3c a5 64 8c bd
       -0.033278197 -0.010990627 0.019911341 -0.06855134
000030 86 3e 84 3d bc 6e e1 3c e6 b2 a2 bc 75 cf ea 3c
       0.06457238 0.027518623 -0.019860696 0.028663376
000040 50 b1 34 3d 84 99 d6 3b 00 06 0f 3d 5f fa e3 bc
       0.04411441 0.006549062 0.03491783 -0.027829347
000050 4b a6 85 bd e7 e8 ab 3c 76 87 3f 3d 66 f0 85 3b
       -0.065258585 0.02098508 0.046760045 0.0040874956
000060 8e 62 6b 3d 04 91 a4 bc 58 b9 ba 3c b4 da be 3c
       0.057467036 -0.02008868 0.022793457 0.023297645
000070 22 e6 69 bb 28 a1 1d 3c 73 48 95 3d aa 2c 62 3d
       -0.0035690148 0.009620942 0.07289209 0.055218376

net.4.weight f4 [32, 32]
000000 2e 10 a3 3e 4d ff 0d 3f fa a2 0e bd 44 43 25 3e
       0.31848282 0.55467683 -0.034823395 0.16138941
000010 a3 0d c7 3e 34 92 0a 3f c5 8c d0 3e a7 ee 8e be
       0.38877591 0.5412934 0.407324 -0.27916452
000020 9f 9c 76 3e e1 1b 72 3e 98 8e e0 3e 82 5d d7 bd
       0.24083184 0.23643447 0.4385879 -0.10515882
000030 c8 70 31 be 81 d8 02 3f 7e e8 11 3f ef 22 3d be
       -0.17328179 0.5111161 0.5699538 -0.18470357
000040 61 d5 fe 3d a0 55 b4 be cd f0 a0 be 69 d1 7f bf
       0.124430425 -0.35221577 -0.31433716 -0.9992891
000050 77 d6 96 bc 44 1a b1 3d 16 18 ae be 81 37 25 be
       -0.018412812 0.08647588 -0.3400275 -0.16134454
000060 e5 70 49 be 17 3e 5c bd c5 cd 1e be d4 a3 e8 be
       -0.19671972 -0.05377015 -0.15508182 -0.4543749
000070 25 0b 55 bf 16 60 b2 3e 28 5e 12 bf 08 a0 e1 3e
       -0.8322013 0.34838933 -0.5717492 0.44067407
000080 85 cd c3 bd 34 b2 2c bd 0c 0d 7a 3e 57 ec 97 3d
       -0.09560684 -0.042162135 0.2441904 0.07418125
000090 c7 37 92 bc 2e a7 2e be 2d 67 91 3d 7b e8 81 be
       -0.017848862 -0.17055961 0.07099757 -0.2537268
0000a0 f8 31 09 3e 6b 1a ac 3d ec e1 05 3f 27 98 6d 3e
       0.13397968 0.08403476 0.52297854 0.23202573
0000b0 0b 36 1d bf 58 3d 13 be 7e f1 b6 bd 2e cd 80 be
       -0.6141059 -0.1437887 -0.0893278 -0.2515654
0000c0 59 70 32 3b 97 69 19 bd 8b b4 94 be 65 f6 df 3e
       0.002722761 -0.037454214 -0.29043993 0.43742672
0000d0 83 e5 87 be 7e c4 bb 3e e9 cb 20 3f fd 2d 73 be
       -0.2654229 0.3667335 0.6281114 -0.23748012
0000e0 f0 03 f3 bd 14 94 ab be 3f 56 9a 3e 0c 6b 52 be
       -0.118659854 -0.33511412 0.30143926 -0.20548648
0000f0 e3 97 5a be ea e5 be 3d 58 f1 db 3e b5 ad fb bd
       -0.21347003 0.093211964 0.42957568 -0.12288991
000100 7d e4 18 bf 48 f1 ad be a3 64 80 3d 01 81 84 bc
       -0.59723645 -0.33973145 0.06269195 -0.016174795
000110 17 15 6e be c2 47 cd 3e b3 d6 1b bf ed 46 03 bf
       -0.23250233 0.4009381 -0.6087448 -0.512801
000120 7e c0 26 bd 14 5c 85 bc 99 84 80 3d b6 26 8d bd
       -0.04071092 -0.016279258 0.06275291 -0.06892149
000130 f0 19 c2 3d db a3 61 be 9e 8a 12 be c3 b9 7b 3e
       0.094776034 -0.22035162 -0.14310691 0.24582581
000140 6e 9d 42 3e f4 38 e1 ba d9 ff 49 3a 44 2d 31 be
       0.19005367 -0.0017183111 0.0007705666 -0.17302424
000150 0c 6f ea bd f8 97 c2 bd 22 d0 0a bd 82 96 73 3e
       -0.11446962 -0.09501642 -0.033889897 0.23787883
000160 6c 47 00 3f 09 36 9a 3e 86 04 d8 3e 82 85 ca 3d
       0.5010898 0.3011935 0.4219095 0.09888746
000170 42 64 ab 3d 0c e7 06 3f 38 d3 21 3d 2b 96 d9 be
       0.08368732 0.526963 0.039508075 -0.42497382
000180 4c d6 3e be 11 ab 71 3e d4 cf 0c 3e 0f 0a 2a be
       -0.18636435 0.23600413 0.13751155 -0.166054
000190 a4 81 f5 be ec c3 4c 3f 3e ff 80 3e b5 f2 a6 be
       -0.4795047 0.79986453 0.25194734 -0.32607046
0001a0 db 0e a8 3e c2 f8 12 3d 0f a0 a8 be a8 d8 cf 3e
       0.32823834 0.035881765 -0.32934615 0.40594983
0001b0 bd fd 7b be 3b 7d ba bb a3 23 a2 be c4 8d 68 3e
       -0.24608512 -0.005691198 -0.31667814 0.2271033
0001c0 d8 9f 82 be ce ed 6f 3d 1c f5 fe be 5e 89 8c bb
       -0.25512576 0.058576398 -0.4979638 -0.0042888364
0001d0 cb b6 9a 3e a7 14 5a be 40 f2 32 be 07 29 31 be
       0.30217585 -0.2129694 -0.17475224 -0.17300807
0001e0 92 d4 0b be 57 a8 9d bd 43 87 d5 3d 98 db 3d be
       -0.13655308 -0.07698124 0.1042619 -0.185408
0001f0 6c 46 c3 be 72 f8 0a 3f 70 ac 89 bd 68 be 81 bd
       -0.38139665 0.5428535 -0.06722343 -0.06335145
000200 26 4b 52 3e 67 d7 97 3e e7 f7 ab 3e 8e bc 95 bc
       0.2053648 0.29656526 0.33587572 -0.018278386
000210 73 d8 5f be 19 5f 23 bf c0 f4 9b 3e 09 fc 4d 3c
       -0.21859913 -0.6381698 0.30460167 0.012572297
000220 84 38 d0 3c bf 2b 28 3f 85 f3 1e 3f 7c 9b bf 3e
       0.025417574 0.6569175 0.6209033 0.37423313
000230 22 b1 a5 3e b1 dc 1c 3e 42 d4 ad 3e 9d 1f d7 be
       0.32361704 0.15318562 0.33951002 -0.42016307
000240 4a a5 0a be 81 15 f0 bd 93 d8 01 bf d3 2d 7a bf
       -0.13539615 -0.117228515 -0.5072109 -0.9772617
000250 72 3e e1 3d c9 be c0 3d cf 1f 04 be ad 58 2d 3e
       0.109982386 0.094113894 -0.12902759 0.16928358
000260 f9 aa 0b be 03 a3 0d 3f 24 e2 11 bf df a6 00 bf
       -0.1363944 0.5532686 -0.5698569 -0.50254625
000270 87 df 2f bf b0 54 8c be 31 79 ef be 49 df 78 3d
       -0.6870045 -0.2740836 -0.4677215 0.060759816
000280 f5 b4 74 be 20 97 94 bd 78 93 91 bd 8d a4 81 3f
       -0.23897155 -0.07255387 -0.071082056 1.0128342
000290 f4 c5 01 3d e7 b8 bc be bb e3 77 bf 3c ef 99 be
       0.031682923 -0.3685982 -0.96831864 -0.30065334
0002a0 e1 00 a5 bd 5f 17 ee 3d 7e 73 df bd ec 54 11 bd
       -0.08056808 0.116255514 -0.109107 -0.03548138
0002b0 40 c1 32 be d0 0f c0 bc 34 ff 01 3e 97 13 51 3e
       -0.17456532 -0.02344504 0.12695009 0.20417629
0002c0 c7 20 3a 3f 82 76 b8 3e 53 7d 00 3e 40 71 a3 3e
       0.72706264 0.36027914 0.12547807 0.3192234
0002d0 99 67 7f bc 00 03 c8 bd 65 47 93 3e 4b 29 5c 3e
       -0.015588664 -0.09766197 0.28765407 0.21500127
0002e0 42 e3 8d 3e e1 08 11 3f f7 12 e6 3d 97 f8 1c be
       0.27712446 0.56654173 0.11234086 -0.15329204
0002f0 c3 56 6c 3d fe 71 c7 3e f0 e6 33 3e 79 2c 26 bc
       0.05769993 0.38954157 0.17568564 -0.010142439
000300 01 cf 00 bf 22 56 20 3e 3b 44 ed 3e 7d c1 2f 3f
       -0.5031586 0.15657857 0.46341118 0.68654615
000310 de 28 e6 bd b3 ba c0 3e 89 ff d2 be 0f 7c 6e be
       -0.112382635 0.3764244 -0.41210583 -0.23289512
000320 2f c3 b7 be 77 fc 26 bf 80 98 13 bf 51 1e 90 3e
       -0.358911 -0.6522898 -0.5765457 0.2814813
000330 3e 28 64 3b 84 3f 8e bd 5f ab b3 3e 72 e4 a4 3e
       0.0034814025 -0.069457084 0.35091683 0.3220554
000340 e5 fc 14 3e 14 7c f3 3e 75 04 7d 3d 9b d2 16 3e
       0.14549597 0.47555602 0.06177183 0.14728777
000350 06 59 13 bd e7 ee 29 be 98 99 b1 be 30 51 7f 3e
       -0.03597357 -0.1659504 -0.34687495 0.24933314
000360 ee 9f 90 be cf 27 54 3e 34 13 6b 3e 74 88 fb 3d
       -0.28247017 0.20718311 0.22956544 0.12281886
000370 bd d2 a6 be 7b e7 db be b4 af 88 3e c2 0a 52 be
       -0.32582656 -0.42950043 0.2669655 -0.20511916
000380 c4 cd d7 be 1a ff dc 3d 15 3e 53 bd 74 b4 9e be
       -0.42149174 0.10790844 -0.051572878 -0.3099705
000390 f6 1b 89 bc 87 8c c0 be 32 f8 36 be c5 2a fe 3d
       -0.016736966 -0.37607214 -0.17868116 0.124105014
0003a0 d0 a1 30 bd 0e e2 63 3e 62 b6 85 3e 9d ed 67 3d
       -0.043123066 0.22254202 0.2611571 0.05662309
0003b0 7a e8 e4 bd d5 46 9c bc 29 a8 87 bd a2 16 fb be
       -0.11177154 -0.019076744 -0.06623871 -0.49040705
0003c0 83 2b 85 bd 27 7f 10 bf be db a4 3d 37 9a 3d bf
       -0.0650244 -0.5644402 0.08049725 -0.7406344
0003d0 5b b0 d9 3e b2 39 61 be 09 b4 7f 3c 19 70 7d 3d
       0.4251736 -0.21994665 0.015606889 0.061874483
0003e0 58 e6 b2 3d cd 26 c2 3e dc 9c a6 be 9d 0f 87 bb
       0.08735341 0.37920228 -0.3254155 -0.0041217343
0003f0 37 b4 f2 bc 77 f3 42 3e 48 4f 8f be f8 5f 13 bf
       -0.029626949 0.19038187 -0.27990174 -0.5756831

net.4.bias f4 [32]
000000 bd d7 a8 bc ed ac 8e 3b 70 1a 9f 3c 68 9e 1a 3d
       -0.020610685 0.0043541105 0.019421786 0.037748724
000010 29 f0 fb bc 7a 73 d6 38 f7 6f 93 bc 3d 2f 42 3c
       -0.030754166 0.000102258244 -0.017997725 0.011852083
000020 f7 c2 0c bd 5d 83 78 3d 4d d6 c1 bc 4b c8 0a 3d
       -0.03436562 0.060672153 -0.023661757 0.03388242
000030 5a be 8d 3c 77 5c 68 bc c1 ff 16 3d 7a ea a8 3c
       0.01730268 -0.014182202 0.036865 0.02061962
000040 0b 00 b2 bd 06 bf e0 bc 00 64 aa 3b d5 c0 90 bd
       -0.086914144 -0.027434837 0.005199909 -0.0706803
000050 78 6e 8d 3c 97 81 13 3d 9f b7 d6 bb 2b e8 bd bc
       0.01726459 0.03601226 -0.006552651 -0.023181995
000060 3a c4 fb bb 2f e8 92 bc b4 23 a3 3b 03 23 18 bc
       -0.007683304 -0.01793298 0.0049786214 -0.009285691
000070 3a 9a e3 3c 12 bf 20 3d 8e c7 b7 bc ea c6 bd bc
       0.027783502 0.03924472 -0.022434022 -0.023166139

net.6.weight f4 [32, 32]
000000 42 5c 0d 3d 47 69 a3 3e 00 69 a3 be 81 d3 e9 be
       0.034511812 0.31916258 -0.31916046 -0.45669177
000010 bc 66 7c 3e fd a1 81 3e d2 a0 af 3e f4 72 96 3e
       0.24648565 0.253189 0.34302384 0.29384577
000020 25 59 cf 3e b6 5e b9 be 6b bb 9b be 21 eb 18 3d
       0.404977 -0.3620507 -0.30416426 0.03733361
000030 e0 70 fc 3e 7d 3a cc 3d 69 35 22 bf 28 41 6b bd
       0.49304867 0.09972093 -0.6336275 -0.057435185
000040 a9 99 60 3e 09 4f a9 be 69 d9 89 bd d2 1a 0f be
       0.21933617 -0.33068112 -0.06730921 -0.13975075
000050 4b fb cc bd b2 64 c3 be d3 5a c9 3e 06 46 37 3e
       -0.10008868 -0.38162762 0.39327106 0.17897806
000060 c4 6c f8 bd 4e 2d 68 3d 29 04 9b bd 83 22 9f 3e
       -0.121301204 0.05668383 -0.07569153 0.31081018
000070 4a e0 45 3e 90 2a e9 be 96 2d b1 3c 5a 55 0e 3e
       0.1932384 -0.45540285 0.021628182 0.13899747
000080 a1 e0 da 3e c5 f3 00 3e 7d 9f b8 3d fc 4b 56 3e
       0.42749503 0.1259299 0.09014795 0.20927423
000090 b2 1d 86 3e 84 b7 16 3e de fe b5 bb da 6c e6 be
       0.2619453 0.14718443 -0.005554064 -0.45004922
0000a0 d8 c8 89 be ef 4b ef 3e 11 86 87 3e 8b 42 fa 3e
       -0.26911044 0.4673762 0.26469472 0.48878893
0000b0 ef 17 23 3e 93 9e 65 be d5 ba bd 3d 11 dc b8 3e
       0.15927099 -0.22423773 0.09264151 0.36105397
0000c0 ce 41 56 bc bd 58 3c be 54 76 cb bd 82 69 91 3d
       -0.0130772125 -0.18393226 -0.09934679 0.07100202
0000d0 8a f3 85 3d 5e d6 b3 3e d3 b9 e5 3e 1a 3f 2d bf
       0.06540592 0.35124487 0.44868335 -0.6767441
0000e0 93 df 05 be 4e 58 6a 3d 0d 17 ab be f3 0e 00 bf
       -0.13073568 0.05721312 -0.33416024 -0.5002281
0000f0 4c 3b 9b 3e ad ed 9f 3e 19 48 9f bd eb 59 37 3e
       0.30318677 0.3123602 -0.077774234 0.17905395
000100 27 b3 81 be 8e 10 c2 bd 7d 41 3a be 17 72 df bc
       -0.25331995 -0.09475814 -0.18189044 -0.027276082
000110 e1 5f cb 3d 54 f3 f6 3d b5 c5 7c be 9f 50 2f 3e
       0.09930397 0.1205813 -0.24684794 0.17120598
000120 53 31 c0 3e 7b a1 2e be 55 5e cf be ab c2 c4 bd
       0.3753763 -0.17053787 -0.40501657 -0.096074425
000130 4a e6 a7 be 86 a3 ed be 5f d6 90 be 61 d3 42 3e
       -0.32792884 -0.4641382 -0.28288552 0.19025947
000140 d3 99 05 3d 4d 59 a9 3e 67 a0 20 bd a7 ed 89 3e
       0.0326174 0.33075944 -0.03921547 0.26939127
000150 66 dc e1 be 2c 81 1b bf ee 94 1c 3f 58 a3 52 bc
       -0.44113463 -0.60743976 0.6116475 -0.012856327
000160 a9 4b 29 bc a8 6c 2b 3f 9c 86 d8 bc cd cc 0c 3f
       -0.01033298 0.6696267 -0.026431374 0.55
000170 af b3 81 be 71 70 96 be 0d a5 af be 1e 3e d5 3d
       -0.253324 -0.2938266 -0.3430561 0.104122385
000180 16 f5 1b 3e 44 73 30 3d 13 b3 36 3e a2 9b 74 3e
       0.15230212 0.043078676 0.17841749 0.23887494
000190 d4 11 b7 be 1f 35 07 3e 99 95 e4 be e3 e0 c4 be
       -0.3575579 0.13203858 -0.44645384 -0.38452825
0001a0 06 9d 73 bc dd 84 6c 3d 32 f2 c5 be 85 74 8f 3e
       -0.01486898 0.057743896 -0.38661343 0.28018585
0001b0 08 9e 9e bf 10 7f a0 3e ff 85 a7 3d ad 74 0e be
       -1.2391977 0.3134694 0.081798546 -0.13911696
0001c0 d9 27 ff be 8b 20 78 3d ae a8 0e bd 1e a1 97 3c
       -0.4983509 0.06057791 -0.034828834 0.018509444
0001d0 93 81 bc bd b5 a8 9e be 3d be ec 3d a1 69 67 3d
       -0.09204402 -0.30988088 0.115597226 0.05649722
0001e0 7b 4c bf 3e 30 c6 dd be 25 3e 80 3e a6 f7 9e 3d
       0.37363037 -0.43315268 0.25047413 0.07762079
0001f0 d6 83 10 3e fd 3e 98 3e 16 eb 32 bf 6c 86 11 bd
       0.14112791 0.29735556 -0.6988996 -0.035528585
000200 5e d1 cb 3e 63 3a 2c 3d 49 0e 07 3f 10 6e f4 3e
       0.39808172 0.04204787 0.5275617 0.4774022
000210 9b 8b a9 bd d0 69 67 3e f0 a4 4c be c1 cd d8 be
       -0.08278581 0.22598958 -0.19984794 -0.42344478
000220 80 b2 8b be fc cc 39 be 67 ab 6a 3e 5b d2 60 3e
       -0.27284622 -0.18144602 0.22916947 0.21955244
000230 72 ed 98 3d c7 19 15 3f 85 fb 2f bf 13 cc c8 3e
       0.07467164 0.5824246 -0.68743163 0.39218196
000240 87 0e a7 be 54 3b 27 be 44 6b bf be c1 9c bc be
       -0.3262827 -0.16331226 -0.37386525 -0.36838344
000250 48 25 96 be 2d df 78 bd 49 e7 f5 bd 20 a8 ab be
       -0.29325318 -0.060759712 -0.12007005 -0.33526707
000260 86 31 08 bf 71 7d 2b be 4c bb e4 bd aa 3c 57 be
       -0.53200567 -0.16747071 -0.111685365 -0.21019235
000270 51 6d 5d 3e c4 be 63 3e cc 03 22 3e 85 e2 02 bf
       0.21623732 0.2224074 0.15821761 -0.5112689
000280 e3 99 09 3f 5b 26 b7 bb bd ce 27 be 53 c9 f0 3d
       0.5375044 -0.005589289 -0.16387458 0.117571495
000290 6e a2 ee bc 03 32 3e bd e0 b2 37 be 18 a2 32 3e
       -0.029130187 -0.046434414 -0.17939329 0.17444646
0002a0 92 9d 7e be ba 7e 8e 3d a2 8d ac 3d 36 5b bd be
       -0.24864796 0.06957765 0.08425452 -0.3698365
0002b0 6b 1c 8d 3d 01 17 e3 3d d4 0a 23 3e 37 94 7d 3d
       0.06890186 0.11088372 0.159221 0.061908927
0002c0 27 dc 8d 3d 6d 49 1f bf b1 89 4a bf 46 ef 0d 3f
       0.06926756 -0.62221414 -0.7911635 0.5544323
0002d0 dd 90 3a 3e ef fe 83 be be e1 e6 bd 5f 2c 37 3e
       0.18219323 -0.25780436 -0.11273526 0.1788802
0002e0 24 90 0b bf 05 74 7c 3e 4e 56 03 bd 0c 31 d0 be
       -0.54516816 0.24653633 -0.03206473 -0.4066242
0002f0 ee 17 57 be 90 43 f2 3d 2a 85 bb be 6e b4 2e bc
       -0.21005222 0.11829293 -0.36625034 -0.010663135
000300 8f 49 2d be fa 55 89 be c8 af a9 3d a0 f9 e3 3e
       -0.16922592 -0.26823407 0.08285481 0.44526386
000310 12 35 c6 be 91 ab c2 be bd ac 46 3d 84 fb e7 bd
       -0.38712364 -0.3802152 0.04850458 -0.1132727
000320 b4 6b d9 bd c3 c1 a3 3e 23 a3 cd 3e 65 aa 85 be
       -0.10616246 0.31983766 0.40163526 -0.26106563
000330 c6 e0 9f bd c0 c2 7c 3e af 25 04 bf 35 4e 32 3f
       -0.07806544 0.24683666 -0.5162 0.69650584
000340 ab 2e 91 3e 43 b9 6f be e5 f3 cf 3d dc db a9 be
       0.28355917 -0.23410515 0.10153941 -0.33175552
000350 b1 46 21 bf ad e8 d3 3e b6 82 34 3f 29 88 95 be
       -0.6299849 0.41388455 0.7051195 -0.29205444
000360 03 30 8f 3d 9d 1c 78 3e 81 a6 1a 3e a4 5d b7 3e
       0.069915794 0.24229665 0.15102579 0.3581363
000370 03 b9 28 3d 97 db 68 be 9e c0 0f bd 98 09 d6 be
       0.041192066 -0.22740017 -0.035095803 -0.41804194
000380 0b aa c8 3e 27 5e a3 be 74 ad 18 be 50 2b 05 3d
       0.39192232 -0.3190777 -0.14909917 0.03251201
000390 41 ab 0c bf 8d 66 3d be 42 b7 34 be fc c4 f4 bc
       -0.5494881 -0.18496151 -0.17648032 -0.029879086
0003a0 0b 00 85 be e9 06 cd 3e b1 37 c2 3c 4d 73 ae 3d
       -0.25976595 0.40044335 0.023708196 0.08518086
0003b0 f2 3c 8a be c3 5e 1a 3f 34 8c 6c 3f c6 5d 33 be
       -0.26999623 0.60300845 0.92401433 -0.1751624
0003c0 ac 8d 05 be bf 5b 82 3e 9e da 8f 3e 18 6d 16 be
       -0.13042325 0.25460622 0.2809648 -0.14690053
0003d0 b7 5c b0 bd a4 49 48 3b ec ca 28 be b5 77 9e be
       -0.08611434 0.0030561471 -0.16483659 -0.30950704
0003e0 a8 38 10 3e 38 a2 23 bf e2 f0 ae be fc bf 94 bd
       0.14084113 -0.639194 -0.34168154 -0.072631806
0003f0 02 47 9b 3d 35 d7 dd 3e a9 2e 4f 3e 91 da 14 be
       0.07581903 0.43328252 0.20232643 -0.14536501

net.6.bias f4 [32]
000000 c6 06 36 3d ae 29 1d 3d d9 e7 9e bb 39 12 2d 3d
       0.044440053 0.038369827 -0.0048494157 0.042253707
000010 85 37 9d 3d 15 b7 f7 b9 f4 89 ce 3d 46 1f bf 3c
       0.07676605 -0.00047247918 0.10084906 0.023330342
000020 39 36 a8 bc e5 f3 ab 3c 97 5d fb 3d 84 ba 27 bd
       -0.020533668 0.020990321 0.1227371 -0.04094936
000030 29 f1 93 bd a5 76 23 be e5 32 b6 bc bd cb ea 3b
       -0.07223732 -0.15963228 -0.022241065 0.007165401
000040 f8 3b b3 bc 59 9a 31 3c 60 81 27 3d a4 b3 74 3d
       -0.021879181 0.010840022 0.040894866 0.05974163
000050 b4 b2 2b 3d 0e 3b 36 bd 91 d7 2d bd 33 d0 62 3d
       0.04191847 -0.044489913 -0.04244191 0.055374335
000060 62 bf 4f 3d 41 66 24 bc 25 1b dc 3c 9e 08 b9 ba
       0.050719626 -0.010034145 0.026868412 -0.0014116948
000070 14 7f c4 3c f1 fb b7 3c 7c 7d 00 bd cd d5 b9 bc
       0.023986377 0.022459002 -0.03136967 -0.022684956

net.8.weight f4 [32, 32]
000000 b8 ed 08 3f 03 47 9a 3e 56 20 8e be 6a 7f 85 3c
       0.5348773 0.30132303 -0.27759045 0.016296107
000010 ed 0b 11 be 48 65 c8 be 94 99 f3 3e cf 5b da 3d
       -0.14164706 -0.3913977 0.47578108 0.10662042
000020 8e 6d 90 3e 09 f8 62 be 22 e0 e4 be 19 86 16 bf
       0.28208584 -0.2216493 -0.4470225 -0.58798367
000030 22 3d f4 3d 88 cb 88 be 3b 6d f7 3e 10 7a 0a 3d
       0.11925723 -0.26717782 0.48325524 0.033807814
000040 a9 a9 1d 3d 25 5a 94 be 00 96 1c 3f 5a e8 53 3e
       0.03849188 -0.28975025 0.6116638 0.20694104
000050 14 38 43 be 65 13 05 be f0 13 f8 be 11 23 8b be
       -0.19064361 -0.1299568 -0.4845271 -0.2717519
000060 3f 66 ff 3e 51 06 2e bf 38 7d dc bd 99 3d ed bd
       0.49882695 -0.6797839 -0.10766071 -0.115840144
000070 6d 66 b7 be f5 70 20 bd 90 56 9c bd c9 07 db 3b
       -0.35820332 -0.039170224 -0.07633698 0.0066842777
000080 76 ed e3 3d 71 fe 11 bd be 17 1c 3d 9b 7b 1d be
       0.111292765 -0.035643045 0.03810858 -0.15379183
000090 38 df 6a 3e 6e 2a bc 3e 3a c1 1b 3c e7 af 26 be
       0.22936714 0.3675112 0.009506518 -0.16278039
0000a0 74 06 f1 3e cf 77 59 be dc ff cf 3d 51 89 f0 bd
       0.47075236 -0.2123711 0.10156223 -0.11744941
0000b0 4e 19 86 be ae 33 b5 be 4f 97 be 3d bc 60 8b 3e
       -0.2619118 -0.3539099 0.093062036 0.2722224
0000c0 d0 83 7b bd 30 ac 29 be 5e 66 93 3e 3f d0 8e bd
       -0.061405003 -0.1656959 0.28789037 -0.069733135
0000d0 d3 b1 2d 3c f1 27 34 3c 64 0c 8c be 48 1c 5f 3d
       0.010601479 0.010995851 -0.27353203 0.05447033
0000e0 95 56 0a 3d c5 a8 84 bc fa 96 73 3e 4f 4e 56 3e
       0.033773977 -0.016193757 0.23788062 0.2092831
0000f0 50 95 e1 be f9 3c d2 3e 4c 73 44 be 9e 55 48 be
       -0.4405923 0.41062143 -0.19184607 -0.1956391
000100 05 86 80 bd c1 8c c4 bd d2 4d 99 3e e2 40 fe be
       -0.06275562 -0.09597159 0.29942185 -0.49658877
000110 a6 3b 2d be 2f db 4d bd 6f ed de 3e 34 bd e1 3e
       -0.16917285 -0.050257858 0.43540522 0.44089663
000120 9b 51 2a 3f 79 aa 8d be 1f d5 39 3d f8 a8 a3 3e
       0.6653077 -0.27669123 0.045369264 0.3196485
000130 fc 8d be be da c5 6d be 25 7c 4f be ec 1b 5a bd
       -0.372177 -0.23220006 -0.20262201 -0.053249285
000140 19 f2 01 be 86 b4 fc bd 53 49 cb be 92 6e 61 3e
       -0.12690009 -0.123391196 -0.3970438 0.22014835
000150 b8 bb 83 be 6c 94 1b 3f 43 4c 8b be a7 3c e8 bd
       -0.25729156 0.6077335 -0.2720662 -0.113396935
000160 b9 0f 7f be c3 8b b2 be 99 00 5b bd 7b 06 0c bc
       -0.24908341 -0.34872255 -0.053467367 -0.008546467
000170 60 a7 8c be 33 f0 ff 3d b1 88 5a be ce 13 97 3e
       -0.27471447 0.12496986 -0.21341206 0.29507297
000180 71 67 28 bf 16 51 de 3e f7 17 06 bd 60 10 ae 3e
       -0.6578284 0.4342124 -0.0327377 0.33996868
000190 e3 99 80 3d 73 9f 3b bf 57 a2 89 3e a5 a5 a3 bd
       0.062793516 -0.73290175 0.26881668 -0.079905786
0001a0 25 0f ad be f4 b8 49 be 20 dd f4 3e c4 0b 44 bf
       -0.33800617 -0.1969946 0.47824955 -0.7658045
0001b0 61 0a b9 3d 70 25 fb be 52 1d 86 3e 56 e3 c2 be
       0.09035183 -0.49052 0.26194245 -0.3806407
0001c0 a6 ef 11 3e 07 cf 44 bd 18 a9 ba be 4c 0f 08 3a
       0.14251575 -0.048049 -0.36457133 0.00051902677
0001d0 f8 2f fc be b8 a7 24 3e c4 b5 0c 3e ac 9c c9 3d
       -0.49255347 0.16079605 0.13741213 0.09844336
0001e0 9e 83 8b 3e c3 6c f1 3e cb c8 a4 bd 50 39 6a bf
       0.27248853 0.4715329 -0.08046111 -0.914937
0001f0 56 f7 2e 3f 1f 30 76 3c a9 ab fd 3e b8 49 ce 3d
       0.68346155 0.015026121 0.4954503 0.100726545
000200 dc 95 92 be 8a a9 30 be 95 11 86 3e 04 d6 83 be
       -0.2862996 -0.17252174 0.2618529 -0.25749218
000210 76 f1 a0 3e 39 b7 17 3e e4 8c 69 3d 8f a5 9b bd
       0.3143422 0.14815988 0.05701913 -0.07599937
000220 35 52 7c bd 79 4f b7 be 29 4f aa bd 58 e1 18 be
       -0.061601836 -0.3580282 -0.0831588 -0.14929712
000230 af fb 84 3d 32 26 3b 3f f9 c1 19 3e 28 4e 85 be
       0.06493317 0.73105156 0.15015401 -0.2603619
000240 44 ba 02 bd 7f 53 03 3f 07 4c 0c bf e9 d0 87 bc
       -0.031915918 0.5129928 -0.5480351 -0.016579108
000250 1c c7 2a 3e d1 47 0c 3f 44 03 9b 3e cb 7a a1 be
       0.16677517 0.54797083 0.3027593 -0.31538996
000260 e9 6e 05 bf ed 5b a5 3e 3f 50 1c bf 27 9f 6d bd
       -0.5212236 0.32296696 -0.61059946 -0.058013108
000270 bd 78 77 be 86 e7 6a bd 59 47 24 be 36 d8 15 3e
       -0.24167152 -0.057349704 -0.16042842 0.14633259
000280 5b f6 b6 3e c9 8e 86 3e a3 dd 6e be 55 f7 5c be
       0.3573483 0.2628081 -0.23326735 -0.21578725
000290 f2 c3 03 be ad e8 96 3d 3c 5d ef 3c bb 63 df be
       -0.12867716 0.07368598 0.029219262 -0.43630776
0002a0 ba d0 7f 3e 3c 1f 99 3d 6c 32 ab be 28 68 8b 3e
       0.24981967 0.074766606 -0.33436906 0.27227902
0002b0 d6 4e b4 be 0f f0 c2 be dc 9d 7e 3d d7 48 02 bf
       -0.35216397 -0.38073775 0.062162265 -0.50892395
0002c0 6f 76 c6 3d 48 e2 9b be 51 df 10 be 00 e8 1b 3e
       0.09690558 -0.30446076 -0.14147688 0.1522522
0002d0 86 8e e3 be 16 ce e5 3e 8d f9 2d 3e ef b0 4a 3e
       -0.44444674 0.44883794 0.16989727 0.19794057
0002e0 39 31 ac 3d 1a c3 89 3e 65 ae 54 3e 45 49 65 3e
       0.08407826 0.26906663 0.20769651 0.22391231
0002f0 b7 71 80 bc fa dc 80 bb ad 2a 82 bd 66 56 6b be
       -0.015679223 -0.0039325925 -0.06355796 -0.22982177
000300 b4 44 06 3e 8c e4 aa 3e c8 7d be 3e fc f4 00 bf
       0.13112146 0.33377492 0.37205338 -0.50373816
000310 b7 70 e9 bd de a8 c1 3e ac 34 90 3d 47 ee 17 3f
       -0.11398452 0.37824148 0.07041296 0.5934796
000320 54 00 e1 bd bf 35 2c be 48 fe 5f 3e 25 80 c9 3d
       -0.10986391 -0.16817378 0.21874344 0.09838895
000330 db 3a b3 3e 9b 4f d9 bd ba f2 20 be d1 bd 28 be
       0.3500584 -0.10610887 -0.15717593 -0.16478659
000340 cb 6d 94 3c b3 36 33 3c 23 76 db 3d 60 2e 33 bd
       0.01811876 0.010938334 0.10715892 -0.0437454
000350 c7 43 10 bf 63 33 8f 3e 40 89 8f be 42 64 9f 3e
       -0.5635342 0.27968892 -0.280344 0.31131178
000360 b6 37 0b bd 3f 90 00 be bf 38 ce be de ef 82 3d
       -0.033988677 -0.12555026 -0.4027767 0.06393407
000370 53 92 5f be 41 75 b5 3e fb 85 3f 3d c9 31 e6 3d
       -0.21833162 0.3544102 0.046758633 0.112399645
000380 63 7a c6 be 19 84 46 3e 87 f7 99 3e 91 a5 a7 3b
       -0.3876525 0.19386329 0.3007166 0.0051161726
000390 10 21 16 bf e4 97 28 3e bf fa 20 3e 0b 54 c9 bd
       -0.586442 0.16464192 0.15720652 -0.09830483
0003a0 80 52 96 3c c3 8b a8 3e 2c 78 91 3e 08 b8 61 be
       0.018349886 0.3291913 0.28411996 -0.22042859
0003b0 c5 72 0f 3d cb 36 1d be 2e 28 bd be 85 ea a1 3e
       0.035021562 -0.15352933 -0.36944717 0.31624237
0003c0 02 f0 01 3e 74 3a 6b 3e 0e 74 3f be 69 77 b6 be
       0.12689212 0.22971517 -0.18696615 -0.35637978
0003d0 1c 9a 5b 3d 4c e4 56 be 89 5b 7b 3b 55 61 54 be
       0.053613767 -0.20985526 0.003835412 -0.20740254
0003e0 96 d7 d3 3e 71 9d 85 3e 58 21 83 3e 87 57 52 be
       0.41375417 0.2609668 0.25611377 -0.20541202
0003f0 d2 c7 de be ea 4e 0f 3f 5c f8 b8 3e c5 a7 3a be
       -0.43511826 0.5597979 0.36126983 -0.18228061

net.8.bias f4 [32]
000000 43 be 80 3d af 1a 24 3a f5 45 99 3c 8b ad 39 3e
       0.062862895 0.00062600797 0.018710116 0.18132608
000010 63 ec 0e bd 7b 45 2f 3d 21 1c 97 3d fb 8a 5c bc
       -0.034893405 0.04279087 0.07378412 -0.01346087
000020 f0 30 ab bc 05 d8 9d bd af ee ec 3d b6 01 58 bc
       -0.020897359 -0.07707218 0.11568963 -0.013184002
000030 8b 65 a6 3d ad 6c fd bd b4 05 a4 3d 35 7d 49 be
       0.081248365 -0.12374244 0.080089 -0.19676669
000040 9d f6 40 be 6e d0 01 3e 82 80 b0 3d 1a 22 83 3d
       -0.18844076 0.12677166 0.08618261 0.06402989
000050 7f 75 21 3d b6 19 38 bd 17 ba 52 3d 75 ad 0c 3d
       0.039418694 -0.044946395 0.051447 0.03434511
000060 47 71 07 3c 68 08 2d 3c e5 28 01 3d 0a 63 e0 ba
       0.0082667535 0.010561086 0.03153314 -0.001711936
000070 55 3b 81 bc 48 27 e9 3d 03 43 20 3d fb c5 36 bd
       -0.015775362 0.113844454 0.039126407 -0.044622403

net.10.weight f4 [6, 32]
000000 82 75 0c bf fb 52 0c 3e 59 c4 e2 3e ea 55 11 3b
       -0.548668 0.1370353 0.44290426 0.0022176453
000010 c5 3d 21 bf f0 17 90 be 5a 2e 9c 3d dd cc e5 be
       -0.6298488 -0.28143263 0.07626028 -0.4488286
000020 e4 13 4a 3f 9d 6e 49 be 91 5b 32 bf 0c e8 9c be
       0.789366 -0.19671102 -0.6967097 -0.30645788
000030 8a e4 36 3f 27 a3 1e be 00 aa dd bd 75 42 ae bd
       0.7144247 -0.15491925 -0.108234406 -0.085087694
000040 33 46 42 bf 04 bc 21 3e 8b 8e 39 3e ba 27 de 3d
       -0.75888366 0.15794379 0.18120782 0.10847421
000050 50 0b ee bd 07 7a 2a bf 68 d3 c2 3c 82 c6 d2 bd
       -0.116232514 -0.6659245 0.023782447 -0.102917686
000060 37 c7 35 3e 64 7d 48 bf 1a eb 53 3f 2d 4e cf be
       0.17751776 -0.7831633 0.8278061 -0.4048933
000070 82 69 41 be ea 0e 3a 3e 5f 7d 82 bf bf 59 00 3f
       -0.18887904 0.18169752 -1.019451 0.5013694
000080 94 7d 11 3f 15 60 d7 be 61 e4 89 3e 83 a7 15 bf
       0.5683224 -0.42065492 0.26932052 -0.5845873
000090 b1 a0 64 3e 2d 70 7a 3d 8c f7 6c 3e 2b d9 2f bf
       0.22326924 0.061142135 0.23141307 -0.6869075
0000a0 db a1 df 3f f0 3c 70 bf 73 4f 14 3f 23 86 27 be
       1.7471269 -0.93842983 0.5793373 -0.16359763
0000b0 f8 fe 80 3d 14 22 88 3e ea 49 60 3f c8 ae d5 bc
       0.062986314 0.265885 0.87612784 -0.026084319
0000c0 c3 c9 87 3e b0 ab 1f 3f f9 9c 78 bf ad 23 a1 3f
       0.2652112 0.6237135 -0.9711452 1.2589012
0000d0 71 6e 94 3f 94 4b 37 bd 75 37 a0 3e a3 b7 21 3f
       1.1596204 -0.04474981 0.3129231 0.6317083
0000e0 4a 23 bd bf 18 0b 98 bf 86 de d2 be f7 c4 81 bf
       -1.4776394 -1.1878386 -0.41185397 -1.0138234
0000f0 07 35 2f 3d 4d 24 70 be fa e3 21 3e bb 13 6f bd
       0.04277518 -0.23451348 0.15809622 -0.058368426
000100 ec c2 b7 bf 70 2d cb bd 78 d0 fc 3d b3 d8 0c bf
       -1.435636 -0.09920776 0.1234445 -0.55018157
000110 f9 be f7 3e 71 84 03 3f 4d 8e 8d 3e e0 21 b1 be
       0.48387888 0.51373965 0.2764763 -0.34596157
000120 ad 00 15 bf c1 eb 1b be fc 51 e7 be 84 64 29 3f
       -0.58204156 -0.15226652 -0.45179737 0.66169
000130 70 b2 e1 be 3c e7 79 3f d2 66 e2 3a 6b fc da bd
       -0.4408145 0.9761846 0.0017273074 -0.10692676
000140 c6 45 80 3e 41 94 28 bf 43 06 f7 3e 36 ae 16 be
       0.25053233 -0.6585122 0.48246965 -0.14714894
000150 2d 86 19 bf 11 64 d9 3e 93 6b d1 bf c9 cc bf be
       -0.5997036 0.42459157 -1.6360954 -0.37460926
000160 13 87 ab be 05 67 20 3f b0 ed 05 bc 4c 87 68 3f
       -0.3350149 0.62657195 -0.008174345 0.90831447
000170 59 97 cf 3e fd 78 78 bf 7e ad 68 bf bc cb 07 be
       0.40545157 -0.97059613 -0.9088973 -0.13261312
000180 f1 de 9b be da cb ca be 2f 07 74 3f b5 c0 08 be
       -0.30443528 -0.3960865 0.9532346 -0.13354762
000190 f6 26 34 3f 7f d9 4c 3f d5 2a 81 bc 27 5e 59 bf
       0.7037195 0.8001937 -0.015767494 -0.8490929
0001a0 65 32 88 be 12 ee 16 be b6 04 96 bf 83 5e 0a 3f
       -0.26600948 -0.14739254 -1.1720188 0.54050463
0001b0 52 b8 c4 3d 4f a9 6e 3f 1b b3 b4 be b3 47 57 3f
       0.09605469 0.93227094 -0.35292897 0.8409378
0001c0 78 df 6f 3f 1a b7 d7 be 4d 07 4a 3f 1c de 2a 3e
       0.9370036 -0.42131883 0.7891739 0.1668629
0001d0 b8 d4 00 bf 31 3c 7d bd ba c5 78 be 1d a8 2c bf
       -0.50324583 -0.06182498 -0.24294177 -0.6744402
0001e0 cd 17 24 be 39 6b 6f 3f 9b fc 9a 3d 1e dc e2 3e
       -0.16024704 0.93522984 0.07567712 0.4430856
0001f0 0b ce 02 3e 37 e5 71 be 69 db 23 bf af 1d 98 3e
       0.12773912 -0.23622595 -0.6400667 0.29710147
000200 b7 43 0a bf aa 43 d4 be 5d 72 90 be 22 14 29 ba
       -0.54009575 -0.41457874 -0.28212252 -0.00064498384
000210 aa c3 cf bd 2e f3 10 3f 6d 1f 91 bf af 29 a6 3e
       -0.10144742 0.5662106 -1.1337715 0.32453677
000220 02 33 8d bd d6 99 b9 3d 8f 54 6d bf d5 0b b1 3e
       -0.068944946 0.09062545 -0.9270715 0.3457934
000230 02 af 8f be ae a3 38 3f 0e 6d e3 be 5f ce 4c 3f
       -0.28063208 0.72124755 -0.4441914 0.800024
000240 3b a7 a0 3d eb 9c 8a bd cd ea 8f 3c 6f 9a af bf
       0.07844397 -0.06768211 0.017568016 -1.3719004
000250 32 cf 45 bf ae f7 20 3d ab 43 ad be 8d 47 60 bf
       -0.7726928 0.039298706 -0.3384069 -0.8760918
000260 08 7b fa 3e eb a2 97 3e 02 8b 94 be 67 d5 88 3f
       0.4892199 0.29616484 -0.29012305 1.0690125
000270 f9 0f d6 3e f3 4c 98 bf 54 ad 08 3f 57 1f b5 3c
       0.4180906 -1.1898483 0.5338948 0.02210967
000280 ce 2c 96 3e f1 e9 98 3f 6c 1e e8 3e 22 9c f7 3e
       0.29331058 1.1946393 0.4533571 0.48361307
000290 02 78 9e be f1 a6 97 3f e3 2f 77 be 2d 1d a0 bd
       -0.30950934 1.1847821 -0.24139361 -0.07818065
0002a0 a7 56 31 3f 60 cc a4 3e 66 66 0d 3e a9 6d 98 be
       0.69272846 0.32187176 0.13808593 -0.29771164
0002b0 6b 62 37 3e 12 b8 f1 3d de 21 27 be eb 1f 80 be
       0.17908637 0.11802687 -0.16321513 -0.2502435
0002c0 b7 07 03 be ac ec dc be dd 40 af be b0 d4 23 3f
       -0.12795912 -0.43149316 -0.34229174 0.6399641
0002d0 78 fe 0c 3e 90 c3 bc 3e 70 0f 0c be 51 67 a1 3d
       0.13768947 0.36867952 -0.13677764 0.07881034
0002e0 6c f7 fa be e2 27 a7 3e ca b1 d5 be 24 a8 ad 3c
       -0.49016893 0.32647616 -0.41737205 0.02119834
0002f0 e0 4e b5 3e 3b 5a c1 3e b6 71 50 3e b7 10 f5 be
       0.3541174 0.37764153 0.20355877 -0.47864315

net.10.bias f4 [6]
000000 01 15 28 3d 75 5f bd 3b a4 44 16 be d8 ec 74 be
       0.041035656 0.0057792016 -0.14674622 -0.23918474
000010 f3 0d 29 be 60 dd 39 3d
       -0.16509227 0.045377135
