models/parameter_net.pth (torch, 6859 bytes, 8 tensors)

net.0.weight f4 [20, 1]
-0.43602931 1.0175039 0.52908146 -0.69603294 -0.23355801 -0.47646168 -0.26744038 0.20938694
0.9323288 -0.79717314 -0.005391906 -0.29605132 0.5991434 0.00243331 0.6705217 0.7981821
-0.01917927 -0.46808586 0.27840683 -0.02077986
00000000: 3c3f dfbe 913d 823f e271 073f 372f 32bf
00000010: d529 6fbe c9f2 f3be f2ed 88be 8869 563e
00000020: 1aad 6e3f 8a13 4cbf 96ae b0bb 0a94 97be
00000030: 7661 193f 2b78 1f3b 4fa7 2b3f a955 4c3f
00000040: d81d 9dbc f3a8 efbe 578b 8e3e 863a aabc

net.0.bias f4 [20]
0.01 0.01 0.01 0.01 -0.0014063423 0.01 0.009511085 0.0794371
0.01 0.01 1.3406926 0.009948891 0.01 -0.6666068 0.01 0.01
2.2404568 0.01 0.010000657 2.5469232
00000000: 0ad7 233c 0ad7 233c 0ad7 233c 0ad7 233c
00000010: 0455 b8ba 0ad7 233c 62d4 1b3c ebaf a23d
00000020: 0ad7 233c 0ad7 233c d19b ab3f ac00 233c
00000030: 0ad7 233c bea6 2abf 0ad7 233c 0ad7 233c
00000040: a563 0f40 0ad7 233c ccd9 233c ca00 2340

net.2.weight f4 [20, 20]
0.32222775 -0.379576 -0.07389868 0.70001966 0.3420688 0.06726645 -0.5291535 -0.5552219
0.08994959 0.64280003 -0.4312372 0.38798594 -0.51143193 -0.40130827 -0.14020981 -0.19545372
-0.016675863 0.05103794 -0.22113328 -0.07197627 0.20453951 0.1976901 0.16051415 -0.024964543
0.056084793 0.010833265 -0.10639275 -0.043246828 0.13672888 -0.18476218 0.5324416 0.15860145
0.3558831 -0.44617164 -0.36039504 -0.2792466 -0.36811033 -0.011201407 -0.33989045 -0.1869082
-0.28663117 0.14947517 -0.113489754 0.28261217 0.22871368 -0.00950176 0.58136344 0.7520239
0.26638013 0.27219146 -1.7328817 -0.033491768 0.08787964 1.3084397 0.19243123 -0.19206354
0.47524047 -0.5639722 0.60279006 0.97646236 0.041155778 0.22990154 0.15059182 -0.43821365
0.30039182 0.11069792 -0.020702658 0.3279118 -0.22130321 -0.062322367 -0.3057973 -0.4172048
-0.17402688 0.5940547 0.24103665 -0.49000633 -0.5389132 0.29933652 -0.100804284 -0.22241174
0.1303971 0.414913 -0.67990625 -0.40082374 -0.4389857 -0.42270717 -0.13024117 0.0097237015
-0.46228638 0.7396611 -2.9825518 -0.05654483 0.31063727 2.1221497 0.03414756 -0.30718768
0.5904692 -0.11427621 0.008234449 -0.08713497 0.5130016 -0.07094591 -0.34135437 -0.41062486
-0.081812695 -0.14585824 0.2396021 -0.08028637 0.15862444 0.28120348 -2.0380843 -0.004294651
0.55275583 1.1399772 -0.5425628 0.7602763 -0.5752489 -0.09773265 -0.8508679 -0.03330534
-0.37699184 -0.46316743 -0.35574046 0.51923287 -0.10500413 -0.19999361 0.1418189 0.2694605
-0.44527462 0.20473823 -0.36039975 -0.15864733 -0.96875614 0.14437267 0.05182042 -0.26374793
-0.0027512123 0.19071493 0.18181802 0.60294884 0.13060804 -0.096575245 0.27581745 -0.17640208
-0.47308096 0.07556623 -0.28104183 0.49765867 -0.63119906 -0.73896366 0.2551629 -0.48661095
0.31325608 0.38386387 -0.018214915 -0.5327181 0.29187664 -0.26150644 -0.0071532293 -0.21348973
-0.0014085297 -0.71590906 -0.5031662 -0.05936094 0.40167448 -0.8195693 -0.07466493 0.029355694
0.037825327 -0.46535242 0.17169999 -0.3541017 -0.75274664 -0.8224813 0.46967778 0.19142409
-0.46195066 -0.5644597 0.1525788 0.52469087 -0.7726978 -0.2159132 0.10808496 -0.114011966
0.16412331 -0.3330699 -0.13564144 -0.08784465 0.09341192 0.17735903 0.2750527 0.42818817
0.14831007 -0.1631983 0.07012789 -0.4075791 -0.22719397 0.036567535 -0.47238937 -0.5751353
-0.1848665 -1.0272334 0.12927057 -0.68303365 0.2659198 -0.3596531 0.6420425 -0.46258906
0.08683144 -0.18038829 0.05485707 0.04776462 -0.1374518 0.66257197 0.038071692 0.15439124
-0.16474752 -0.386748 -0.27979362 -0.16608721 0.5959669 -0.21065004 0.2851114 0.0730945
0.3042035 0.07368579 -0.22484909 -0.026455022 -0.18847084 -0.0011636872 -0.9726592 0.05631701
-0.3264842 0.9098024 0.04345718 0.21216358 -0.06488324 -0.2262694 -0.14269726 -0.25297305
0.5448554 0.33822933 0.02098367 -0.7594 0.03495624 -0.41831207 -0.35233977 0.266448
0.13548191 0.57694644 -1.6161044 0.042754572 -0.42593327 0.35806984 0.34719327 0.36838955
00000000: 09fb a43e c957 c2be 3158 97bd 7d34 333f
00000010: a423 af3e fec2 893d 9b76 07bf 0623 0ebf
00000020: 7e37 b83d 8b8e 243f 1fcb dcbe 18a6 c63e
00000030: 34ed 02bf 4778 cdbe 2993 0fbe 0525 48be
00000040: d29b 88bc 290d 513d c370 62be 4b68 93bd
00000050: ce72 513e 466f 4a3e d25d 243e 7182 ccbc
00000060: 2bb9 653d 027e 313c 71e4 d9bd 9623 31bd
00000070: a802 0c3e 4c32 3dbe 184e 083f 6b68 223e
00000080: 4f36 b63e 9c70 e4be b385 b8be 69f9 8ebe
00000090: f578 bcbe 1b86 37bc 1f06 aebe dd64 3fbe
000000a0: 52c1 92be 0510 193e 516d e8bd 8bb2 903e
000000b0: eb33 6a3e 45ad 1bbc 3cd4 143f a384 403f
000000c0: fa62 883e ae5c 8b3e 11cf ddbf aa2e 09bd
000000d0: 3efa b33d f47a a73f b10c 453e 4eac 44be
000000e0: b852 f33e 7b60 10bf 7350 1a3f 70f9 793f
000000f0: f692 283d 4f6b 6b3e be34 1a3e 8a5d e0be
00000100: f5cc 993e 97b5 e23d 9f98 a9bc 0ee4 a73e
00000110: 4f9d 62be bd45 7fbd 7791 9cbe de9b d5be
00000120: 1a34 32be f813 183f 50d2 763e 1ce2 fabe
00000130: 37f6 09bf a342 993e 7a72 cebd e7bf 63be
00000140: d186 053e 7a6f d43e 560e 2ebf c538 cdbe
00000150: bcc2 e0be 136d d8be f15d 05be 2950 1f3c
00000160: cdb0 ecbe 6e5a 3d3f 21e2 3ec0 8d9b 67bd
00000170: d90b 9f3e 4dd1 0740 50de 0b3d b447 9dbe
00000180: fd28 173f a509 eabd c8e9 063c d273 b2bd
00000190: 1354 033f 174c 91bd 00c6 aebe 6c3d d2be
000001a0: 6a8d a7bd dd5b 15be 415a 753e 2e6d a4bd
000001b0: 726e 223e e7f9 8f3e f96f 02c0 25ba 8cbb
000001c0: 6881 0d3f c6ea 913f 65e5 0abf 78a1 423f
000001d0: 8343 13bf 0e28 c8bd 7bd2 59bf 2e6b 08bd
000001e0: 1305 c1be 4824 edbe 9d23 b6be 72ec 043f
000001f0: 680c d7bd 20cb 4cbe f938 113e baf6 893e
00000200: 09fb e3be e6a6 513e 5186 b8be 7274 22be
00000210: 6700 78bf 6ed6 133e a641 543d f809 87be
00000220: af4d 34bb c64a 433e 812e 3a3e db5a 1a3f
00000230: 1dbe 053e 3ec9 c5bd f237 8d3e bfa2 34be
00000240: ab37 f2be 78c2 9a3d b7e4 8fbe 1ecd fe3e
00000250: 4396 21bf b92c 3dbf b6a4 823e 1225 f9be
00000260: 1a63 a03e ce89 c43e 7237 95bc 3760 08bf
00000270: db70 953e 2ce4 85be a365 eabb 0d9d 5abe
00000280: 6a9e b8ba d145 37bf 80cf 00bf 7524 73bd
00000290: 47a8 cd3e 4bcf 51bf ede9 98bd 5a7b f03c
000002a0: bbee 1a3d ac42 eebe 1fd2 2f3e d14c b5be
000002b0: 01b4 40bf 228e 52bf 9b79 f03e ad04 443e
000002c0: cc84 ecbe 6e80 10bf 9e3d 1c3e 2452 063f
000002d0: 86cf 45bf 5a18 5dbe a65b dd3d 1b7f e9bd
000002e0: f10f 283e 2388 aabe 97e5 0abe e5e7 b3bd
000002f0: c04e bf3d 9b9d 353e b5d3 8c3e 7b3b db3e
00000300: 98de 173e 751d 27be 369f 8f3d 35ae d0be
00000310: 89a5 68be d7c7 153d 05dd f1be 113c 13bf
00000320: a54d 3dbe 627c 83bf 815f 043e 4bdb 2ebf
00000330: a426 883e 7324 b8be e65c 243f 79d8 ecbe
00000340: afd4 b13d b5b7 38be cfb1 603d d6a4 433d
00000350: 2ac0 0cbe 519e 293f 10f1 1b3d bd18 1e3e
00000360: 93b3 28be d503 c6be 1c41 8fbe c412 2abe
00000370: 4991 183f a5b4 57be 1ffa 913e 92b2 953d
00000380: 90c0 9b3e 93e8 963d d73e 66be 34b8 d8bc
00000390: 80fe 40be dd86 98ba 3100 79bf aaac 663d
000003a0: f028 a7be cfe8 683f 2800 323d 6941 593e
000003b0: 81e1 84bd 2ab3 67be 3b1f 12be af85 81be
000003c0: a57b 0b3f 652c ad3e f2e5 ab3c 0a68 42bf
000003d0: 462e 0f3d 002d d6be e165 b4be df6b 883e
000003e0: c5bb 0a3e c3b2 133f 82dc cebf 6b1f 2f3d
000003f0: ed13 dabe ee54 b73e 51c3 b13e 8e9d bc3e

net.2.bias f4 [20]
-0.06637168 -0.0066189896 -0.018601699 -0.016943064 0.1044893 0.054579157 -0.25064373 0.1207598
0.030551346 0.08938885 -0.051852603 0.013219677 0.0042266366 -0.09672457 0.058002632 0.116853766
0.010761109 0.028868267 -0.015073676 -0.08014373
00000000: e0ed 87bd 1ce4 d8bb 9762 98bc 2ecc 8abc
00000010: 7cfe d53d 658e 5f3d 6054 80be ea50 f73d
00000020: d146 fa3c 8011 b73d 6563 54bd 5897 583c
00000030: 997f 8a3b 8817 c6bd 2b94 6d3d 0751 ef3d
00000040: 5d4f 303c 257d ec3c 94f7 76bc 6522 a4bd

net.4.weight f4 [20, 20]
0.17436442 -0.34528652 -0.34199566 0.2652972 -0.21978275 -0.10876125 0.18835518 -0.8183602
-0.93157643 -0.44006926 0.7936246 0.6459057 -0.03534616 1.1031238 1.6764525 -0.6741521
0.3068465 0.12457644 0.033163704 -0.28486383 -0.34300038 0.27065262 -0.48796886 0.30311534
-1.6698769 -0.08781479 -0.13895606 1.1637422 0.35112715 0.90631 -0.37998477 -1.25739
-0.75241804 -0.80345523 -0.9036952 -0.24780636 0.194703 -0.29107198 1.2048391 1.9577179
-0.09988608 -0.7566665 1.2363586 0.102184534 0.77766067 0.8519764 -0.010345997 0.7534382
-0.12414259 -0.34932998 -0.09715358 0.23916678 1.2383133 -0.5029365 -0.23122823 -0.5792121
0.3076146 -0.9394439 0.3772032 0.4471859 -0.11051619 -0.54147077 1.0153588 0.13080503
0.8217025 1.1098609 0.07038106 -0.2860989 -0.9845341 -0.74973875 1.4261765 1.3428655
0.42649892 1.7745092 0.8726487 -0.12710701 -0.8012186 0.2985335 -0.3256779 -1.3953795
0.6062062 -0.5637036 0.7879361 -0.2277928 -0.060607374 -0.6065315 0.07760869 0.8727107
0.30950305 -1.1478189 -0.34472603 0.25395924 0.018481147 0.77684426 0.46413216 -0.84158385
0.8898398 -0.5255162 -0.5974021 -1.0443568 0.43275514 0.54395384 -1.3952073 -0.010351345
0.07229671 -1.1042483 0.72977966 -0.35134125 0.4344135 -0.31091884 -0.32730207 -0.045735776
-1.4516253 0.19427148 0.57232213 0.0056189396 -0.8917762 0.64433205 0.12159638 -0.07399912
0.4202688 -1.0999924 -0.103121914 -0.7958966 -0.0011748823 0.51760274 0.27296263 -0.5019555
0.02748155 -0.16201656 -0.3708999 -0.34492916 0.05879244 0.60053486 -0.2654245 -0.15325695
0.2793672 -0.14084394 -0.26624316 0.18642975 0.3553769 0.3577999 -0.31261033 -0.7332785
-0.2959105 0.20025818 0.26410052 -0.38627854 -0.40279844 0.18677755 0.29084992 0.5489905
-0.23404379 0.32595116 0.907491 0.13271052 -0.05181707 0.48015702 -0.1404455 -0.5621862
-0.05776517 -1.753779 2.1176276 0.022880755 2.166709 1.7469741 0.09820093 0.31754765
-0.1318565 -0.7497752 1.0836134 1.7126423 1.512356 0.6834403 0.36820963 -0.07670677
0.42374194 -0.64506996 0.46450967 -1.1024497 0.28551453 -0.85145515 2.264735 -0.07083916
1.3477086 0.055355374 -0.16743569 0.56345063 -0.625573 -0.93788964 -0.39085203 0.2712031
1.7948328 0.8603591 0.24377503 0.16504537 0.53891903 0.01196893 0.65600896 -0.58236945
-0.54599655 -0.04902473 -0.010557827 -0.06939602 -0.3420644 0.32613754 0.5552397 0.62645525
-0.29613608 0.60744566 0.5801279 -0.38883176 0.61882883 0.33268872 0.17913468 -0.06329447
-0.6402318 0.4626999 -0.2178486 -0.5462185 0.16969194 1.4372911 -1.2489866 0.03606186
-1.9748758 -1.4390126 0.4749972 -0.37456045 0.7049934 1.5786252 -1.8204911 -2.769744
-0.9153905 -1.4799458 -1.3037801 -0.1974444 -0.025069209 -0.07010267 0.74150646 1.8226445
-0.08591106 1.3700913 -1.6870203 0.25238463 -1.5454526 -1.0711457 -0.053033724 -0.35740045
0.074013874 0.77205867 -1.1679285 -0.80357593 -0.3087933 -1.1587225 -0.6444994 0.09347331
00000000: 968c 323e 65c9 b0be 0e1a afbe 09d5 873e
00000010: bb0e 61be 38be debd 2ee0 403e 0e80 51bf
00000020: cb7b 6ebf c250 e1be fb2a 4b3f 135a 253f
00000030: 23c7 10bd 2933 8d3f ff95 d63f 3b95 2cbf
00000040: fc1a 9d3e ef21 ff3d aad6 073d acd9 91be
00000050: bf9d afbe fb92 8a3e 0ed7 f9be ef31 9b3e
00000060: 87be d5bf 3ed8 b3bd 7f4a 0ebe 81f5 943f
00000070: f0c6 b33e ef03 683f 5d8d c2be 28f2 a0bf
00000080: 789e 40bf 3eaf 4dbf 9258 67bf f3c0 7dbe
00000090: 3960 473e 6307 95be 2b38 9a3f 8096 fa3f
000000a0: 1391 ccbd e5b4 41bf 0041 9e3f 2046 d13d
000000b0: c514 473f 201b 5a3f 4282 29bc 53e1 403f
000000c0: 783e febd 61db b2be 75f8 c6bd 23e8 743e
000000d0: 0d81 9e3f 72c0 00bf 18c7 6cbe 3f47 14bf
000000e0: a97f 9d3e 657f 70bf c720 c13e 8df5 e43e
000000f0: 5056 e2bd d49d 0abf 47f7 813f c1f1 053e
00000100: 185b 523f ec0f 8e3f f223 903d 8e7b 92be
00000110: 6d0a 7cbf e1ee 3fbf f48c b63f 04e3 ab3f
00000120: 115e da3e 1e23 e33f e865 5f3f 5728 02be
00000130: aa1c 4dbf 62d9 983e 41bf a6be cc9b b2bf
00000140: 5430 1b3f e14e 10bf 2eb6 493f 8442 69be
00000150: 703f 78bd a645 1bbf 4ef1 9e3d f869 5f3f
00000160: 2f77 9e3e bbeb 92bf ee7f b0be f206 823e
00000170: c665 973c 44df 463f bba2 ed3e 0a72 57bf
00000180: 8bcc 633f 3b88 06bf 58ef 18bf 7cad 85bf
00000190: 1592 dd3e 8f40 0b3f 2796 b2bf b098 29bc
000001a0: 4c10 943d 0258 8dbf d7d2 3a3f 00e3 b3be
000001b0: 726b de3e c130 9fbe 2394 a7be 7055 3bbd
000001c0: dcce b9bf 1aef 463e b483 123f 151f b83b
000001d0: 724b 64bf f2f2 243f 8607 f93d da8c 97bd
000001e0: 792d d73e 8dcc 8cbf 9531 d3bd e1bf 4bbf
000001f0: 82fe 99ba 9d81 043f c2c1 8b3e 2880 00bf
00000200: fd20 e13c abe7 25be 97e6 bdbe 8e9a b0be
00000210: 57d0 703d a7bc 193f b8e5 87be 64ef 1cbe
00000220: 3809 8f3e 6539 10be 0651 88be 71e7 3e3e
00000230: f6f3 b53e 8c31 b73e 760e a0be 24b8 3bbf
00000240: 9581 97be 7b10 4d3e 2f38 873e 4dc6 c5be
00000250: 993b cebe 9d42 3f3e 48ea 943e a48a 0c3f
00000260: 2da9 6fbe 12e3 a63e 5551 683f 44e5 073e
00000270: 233e 54bd 24d7 f53e f2d0 0fbe 6feb 0fbf
00000280: 2c9b 6cbd d57b e0bf 3687 0740 6c70 bb3c
00000290: 5cab 0a40 d99c df3f 921d c93d 9b95 a23e
000002a0: 6405 07be 44f1 3fbf d8b3 8a3f dd37 db3f
000002b0: e294 c13f f2f5 2e3f f985 bc3e 7018 9dbd
000002c0: b4f4 d83e 4e23 25bf 36d4 ed3e 121d 8dbf
000002d0: f62e 923e f7f8 59bf 6bf1 1040 1f14 91bd
000002e0: b781 ac3f 51bc 623d 4374 2bbe 4d3e 103f
000002f0: 8d25 20bf 8919 70bf c21d c8be 22db 8a3e
00000300: 15bd e53f 7e40 5c3f 29a0 793e a701 293e
00000310: 99f6 093f 5519 443c 34f0 273f 2a16 15bf
00000320: 6ec6 0bbf 28ce 48bd bcfa 2cbc 801f 8ebd
00000330: 1123 afbe 80fb a63e 3024 0e3f 5f5f 203f
00000340: 269f 97be 8f81 1b3f 4383 143f f514 c7be
00000350: 916b 1e3f 2d56 aa3e 156f 373e 88a0 81bd
00000360: 3be6 23bf 00e7 ec3e b413 5fbe fad4 0bbf
00000370: b9c3 2d3e 28f9 b73f cbde 9fbf 9ab5 133d
00000380: bbc8 fcbf 9131 b8bf d532 f33e 63c6 bfbe
00000390: 737a 343f 6410 ca3f da05 e9bf 7c43 31c0
000003a0: 0857 6abf dd6e bdbf 44e2 a6bf dd2e 4abe
000003b0: f15d cdbc fd91 8fbd 5ed3 3d3f 6a4c e93f
000003c0: 23f2 afbd 275f af3f 48f0 d7bf 8f38 813e
000003d0: 64d1 c5bf 4d1b 89bf e439 59bd 31fd b6be
000003e0: 9694 973d a3a5 453f ae7e 95bf 27b7 4dbf
000003f0: 281a 9ebe 0551 94bf eafd 24bf ef6e bf3d

net.4.bias f4 [20]
-0.07882745 0.029553749 0.279564 -0.24421185 0.054112878 -0.25775865 -0.44395927 -0.10804604
0.087288976 -0.07207514 -0.13702871 0.1467807 0.08557668 0.025789788 -0.1352482 -0.007197376
-0.12566414 -0.1763437 -0.305786 -0.14831823
00000000: 4970 a1bd b41a f23c 0323 8f3e ac12 7abe
00000010: 77a5 5d3d f1f8 83be a14e e3be 3e47 ddbd
00000020: 90c4 b23d 229c 93bd 4151 0cbe ae4d 163e
00000030: d442 af3d 1b45 d33c 817e 0abe f7d7 ebbb
00000040: 1aae 00be 7193 34be fc8f 9cbe bce0 17be

net.6.weight f4 [6, 20]
0.11221485 0.08206868 0.5026615 -0.6853082 -0.055780925 -0.20391735 -0.23934752 0.6442935
0.05582608 0.30689394 -0.7218504 0.6437252 -0.4675147 0.0126494905 1.0371405 1.2002991
-0.19821462 0.5472264 0.21483004 0.12764692 0.39095846 -0.4838345 -0.84265673 0.711576
-0.60412055 0.8074092 -0.0070543857 0.35536185 -0.6403129 -1.2787762 -0.17753777 -1.0371473
-0.51566494 -1.0055405 0.3332763 -1.6819714 0.31395206 0.25618604 -0.2663072 0.3323983
0.7314508 0.47620064 -0.71214724 1.28014 0.49971196 1.1156766 1.4664546 1.0213826
0.9004644 -0.67703366 -0.18437193 -1.1341004 -0.50220555 -0.4114771 0.8459698 -2.1102674
0.6942417 1.0085058 -0.30920333 0.6473638 -0.29211116 -0.38540706 0.6313034 0.34336692
0.36380878 0.13091365 -0.776581 -0.008015645 -0.6159441 0.47110033 0.5270594 -0.15383576
0.26886648 -0.005194791 0.12218394 0.10572217 -0.6406573 0.24843524 -0.77715963 -0.19770046
0.98398364 -0.8355099 -0.7816388 -0.1379997 -1.0227268 0.94921094 1.0784826 0.6928115
-1.3547009 0.03827457 1.1694156 -0.07005849 -0.23597248 -2.1491535 0.7203364 -1.6375382
0.65581053 0.38877395 -1.4332002 1.2299654 -1.2234348 -0.47686467 -0.31103194 -1.7377161
0.10004975 0.05531118 -0.2735677 -0.76212335 -0.4731428 -0.17926097 -0.6391809 0.4918551
0.8016393 -0.484513 -0.7774531 0.78531986 -1.2092797 0.30127576 0.77326685 -0.9180468
00000000: e6d0 e53d a013 a83d 6dae 003f 5c70 2fbf
00000010: 8a7a 64bd b6cf 50be 8417 75be 6bf0 243f
00000020: e3a9 643d 3421 9d3e 30cb 38bf 2dcb 243f
00000030: 165e efbe cf3f 4f3c 05c1 843f 67a3 993f
00000040: c6f8 4abe 0817 0c3f 68fc 5b3e e0b5 023e
00000050: b52b c83e 28b9 f7be 5ab8 57bf d829 363f
00000060: a5a7 1abf 5fb2 4e3f 7a28 e7bb fdf1 b53e
00000070: 8ceb 23bf f0ae a3bf 76cc 35be 3ec1 84bf
00000080: 9e02 04bf 8db5 80bf 31a3 aa3e d74a d7bf
00000090: 53be a03e d12a 833e 6b59 88be 1c30 aa3e
000000a0: 5c40 3b3f 92d0 f33e 484f 36bf a1db a33f
000000b0: 3fda ff3e 7ece 8e3f c9b4 bb3f aabc 823f
000000c0: d684 663f 1452 2dbf ffcb 3cbe 342a 91bf
000000d0: 8b90 00bf 20ad d2be 7a91 583f 9f0e 07c0
000000e0: d3b9 313f b816 813f e64f 9ebe a2b9 253f
000000f0: 988f 95be 1354 c5be 1a9d 213f cacd af3e
00000100: 2545 ba3e 3a0e 063e 03ce 46bf 0d54 03bc
00000110: 83ae 1dbf 1034 f13e 5ded 063f 1f87 1dbe
00000120: dea8 893e 1139 aabb 933b fa3d dd84 d83d
00000130: 1e02 24bf cf65 7e3e eff3 46bf fd71 4abe
00000140: 5ae6 7b3f fae3 55bf 7b19 48bf cb4f 0dbe
00000150: b6e8 82bf 7dff 723f b80b 8a3f 185c 313f
00000160: d766 adbf ccc5 1c3d 69af 953f d37a 8fbd
00000170: c5a2 71be bb8b 09c0 f767 383f da9a d1bf
00000180: 33e3 273f 610d c73e 1b73 b7bf 826f 9d3f
00000190: 8399 9cbf 9b27 f4be 943f 9fbe 7b6d debf
000001a0: e2e6 cc3d fa8d 623d 1111 8cbe 841a 43bf
000001b0: c63f f2be 3090 37be 5ca1 23bf 6fd4 fb3e
000001c0: 3c38 4d3f 1712 f8be 2b07 47bf b90a 493f
000001d0: adc9 9abf d140 9a3e d1f4 453f 1d05 6bbf

net.6.bias f4 [6]
-0.07488961 -0.38017684 -0.89443725 0.09143068 -0.80313003 0.20377721
00000000: b95f 99bd 8aa6 c2be d7f9 64bf 0240 bb3d
00000010: ee99 4dbf f9aa 503e
