models/parameter_net3.pth (torch, 3608 bytes, 4 tensors)

net.0.weight f4 [20, 1]
0	0x3f9d9a1a	1.2312653
1	0x3ac3db45	0.0014942667
2	0x3f624303	0.883835
3	0x3f2f5f71	0.6850501
4	0xbcb2c898	-0.021824166
5	0xbedb65a0	-0.4285097
6	0x3f70c6af	0.9405317
7	0xbf424ac4	-0.75895333
8	0xbf809020	-1.0043983
9	0x3cabcc69	0.020971494
10	0xbbffb499	-0.0078035113
11	0xbb89741b	-0.004194749
12	0x3d32f344	0.043689027
13	0x3f2d43e2	0.67681706
14	0x400594dd	2.087211
15	0x3f13c0c3	0.57716006
16	0x3fa8f26f	1.3198985
17	0xbcd43b30	-0.025907129
18	0x3f50f923	0.8163015
19	0xbf281b70	-0.65666866

net.0.bias f4 [20]
0	0xbee34a44	-0.44392598
1	0x3f417425	0.7556785
2	0x3f06c115	0.5263837
3	0x3f226145	0.6342967
4	0x3fd0070e	1.6252153
5	0x3d2135af	0.039357837
6	0x3f0c110c	0.5471351
7	0xbf339af0	-0.7015829
8	0xbf0c9a6e	-0.5492314
9	0xc01c1042	-2.4384923
10	0x3faff23b	1.3745798
11	0x3fe46f6e	1.7846506
12	0xbf023c06	-0.5087284
13	0x3ed0920f	0.40736434
14	0x3eb54625	0.3540508
15	0x3f29cd80	0.66329193
16	0x3eb575bc	0.35441387
17	0x3f9ce7f2	1.2258284
18	0xbc83902c	-0.016059957
19	0xbf0dfdd2	-0.55465424

net.2.weight f4 [6, 20]
0	0x3eb6319b	0.3558472
1	0xbe9b230a	-0.3030017
2	0x3d928cf6	0.071557924
3	0x3e2b9c68	0.16758883
4	0x3bb5bf0e	0.005546457
5	0x3f912e23	1.1342205
6	0x3eca1c45	0.39474693
7	0xbe0a7d15	-0.13524278
8	0x3ed63890	0.4184003
9	0xbf413027	-0.754641
10	0xbe3f83af	-0.18702577
11	0xbf719b9e	-0.9437808
12	0x3dee6156	0.11639659
13	0x3e123ba7	0.14280568
14	0xbe794727	-0.24343549
15	0xbed4e57a	-0.41581327
16	0x3ea3e79a	0.32012635
17	0x3d14d469	0.036335383
18	0x3f4ce485	0.80036193
19	0x3dff8422	0.12476374
20	0xbf7a1085	-0.97681457
21	0x3e984955	0.29743448
22	0xbf994d79	-1.1976768
23	0xbfaa4418	-1.330203
24	0x3f822ff1	1.017088
25	0x3ed5ea2b	0.41780218
26	0xbf571fde	-0.84033
27	0x3f7ebc87	0.9950642
28	0x3f92d834	1.147223
29	0x3e34e375	0.17664893
30	0xbf4121eb	-0.7544238
31	0xbd8f4606	-0.06995778
32	0xbe8216a6	-0.25407904
33	0xbf7168b2	-0.9430038
34	0xbfc0bf65	-1.5058409
35	0xbf5916b4	-0.8480027
36	0xbf8ce51c	-1.1007419
37	0x3ee9a71b	0.45635304
38	0xbf389177	-0.7209696
39	0x3e935146	0.28772944
40	0x3eb210f1	0.3477855
41	0xbf3d0170	-0.7383032
42	0xbf758390	-0.95903873
43	0xbe53bb6c	-0.20676965
44	0xbee3ff94	-0.44530928
45	0x3ed7fb3e	0.4218387
46	0xbe0e82a9	-0.1391703
47	0x3edb6467	0.42850038
48	0x3fca87fc	1.5822749
49	0x3fd9336f	1.6968821
50	0x3f92f795	1.1481806
51	0xbf97616c	-1.1826606
52	0x3ce391b2	0.027779434
53	0xbf1e3918	-0.6180587
54	0xbee50687	-0.44731542
55	0xbee26f00	-0.4422531
56	0xbf008961	-0.50209624
57	0xbe07e9c6	-0.13272771
58	0x3bec956e	0.007219962
59	0x3f50bd5b	0.81538934
60	0x3a382d21	0.00070257677
61	0x3f3fb189	0.7488027
62	0xbe3d49e8	-0.18485224
63	0xbee34917	-0.443917
64	0xbe2f04e4	-0.1709171
65	0x3e38cad4	0.18046123
66	0x3dd5cd88	0.104395926
67	0x3e5caffc	0.21551508
68	0x3e316f9b	0.1732773
69	0x3c15f60a	0.009152899
70	0xbce6a0c9	-0.02815284
71	0x3e0e5b1a	0.1390194
72	0xbf34924e	-0.70535743
73	0x3e74740c	0.23872393
74	0x3dab3939	0.08360524
75	0x3d8b0469	0.067879505
76	0x3ebd5241	0.36976817
77	0x3f189040	0.5959511
78	0x3ca962ff	0.020677088
79	0xbedcffc8	-0.43163896
80	0xbf580a28	-0.843905
81	0xbe9264f5	-0.2859265
82	0xbf885a4a	-1.0652554
83	0xbf6861a5	-0.90773994
84	0x3f34e04b	0.70654744
85	0x3f92ac18	1.1458769
86	0xbf24543d	-0.6419104
87	0x3fdb95ba	1.7155068
88	0x3f6d4ffc	0.9270017
89	0xbf2296cd	-0.63511354
90	0xbf2cb346	-0.6746105
91	0xbf4a1844	-0.78943276
92	0x3e6e1bc2	0.23252776
93	0xbf074f18	-0.5285506
94	0xbfa06aa1	-1.253254
95	0xbf74e450	-0.9566088
96	0xbf91ed32	-1.1400511
97	0x3fc5bb2e	1.5447748
98	0xbfae6cbe	-1.3626935
99	0x3f9f2511	1.2433187
100	0xbe47dc1b	-0.19517557
101	0x3f8e411c	1.111362
102	0xbd2a5748	-0.041587144
103	0xbe1c1f0c	-0.15246218
104	0x3f4efd6c	0.8085544
105	0x3d7af8c2	0.06127239
106	0x3f0c04de	0.54694927
107	0xbddb69e1	-0.10713554
108	0x3ee603b6	0.44924706
109	0xbf9c76db	-1.2223772
110	0xbf744891	-0.9542323
111	0x402210b2	2.532269
112	0x3f7231dc	0.9460733
113	0xbdb1dd58	-0.08684796
114	0x3ee37c90	0.4443097
115	0x3f14f33c	0.58183646
116	0xbe423449	-0.18965258
117	0x3f3db550	0.74104786
118	0xbf56f26b	-0.8396365
119	0x3db10d90	0.08645165

net.2.bias f4 [6]
0	0xbe470f2a	-0.19439378
1	0xbf645710	-0.89195347
2	0xbe3fa957	-0.18716942
3	0xbdf2fe6c	-0.11864933
4	0xbf83774d	-1.0270783
5	0xbe2fe2c8	-0.17176354
