models/SIHCRDNet.pt (torch, 74073 bytes, 36 tensors)

net.0.weight f4 [32, 1]
000000 ee 17 0b 3f 20 01 17 3f 0b 0b e5 bc c6 1f 27 3f
       0.5433339 0.5898609 -0.027959367 0.6528286
000010 29 4b db bc cc 01 02 3d f8 25 b1 be b0 b0 d5 3e
       -0.026769238 0.031739995 -0.3459928 0.41736364
000020 56 61 20 3f 4c 78 05 bf 4c 22 1e 3f 93 18 c3 3d
       0.6264852 -0.52136683 0.6177108 0.095261715
000030 96 69 06 3f 8d ef 5e 3e 40 73 af 3e 40 1a f0 bc
       0.5250486 0.21771069 0.34267616 -0.029309392
000040 8c 3f 0c 3f ed 03 82 3d 95 dd a9 be e0 09 37 3d
       0.54784465 0.06348405 -0.33176866 0.044687152
000050 12 a5 a7 be 53 e0 e3 bc 08 cb 99 be 38 60 f1 3e
       -0.32743126 -0.027816927 -0.30037713 0.47143722
000060 72 9c 0f bf 91 be a7 be 00 ff 93 be d1 c7 da be
       -0.5609809 -0.32762578 -0.28905487 -0.42730573
000070 75 3d 80 3c 92 b0 33 bf c4 4d 24 3f 7a 8b 1a bf
       0.015654305 -0.701913 0.6418116 -0.60369074

net.0.bias f4 [32]
000000 00 00 00 00 00 00 00 00 f5 88 39 3e 00 00 00 00
       0.0 0.0 0.18118651 0.0
000010 67 aa 80 3d b4 9d 35 be 00 00 00 00 00 00 00 00
       0.06282502 -0.1773594 0.0 0.0
000020 00 00 00 00 00 00 00 00 00 00 00 00 bf 9c e3 3c
       0.0 0.0 0.0 0.027784703
000030 00 00 00 00 a3 f9 08 3e 00 00 00 00 df 8f 82 3d
       0.0 0.13376479 0.0 0.063750975
000040 00 00 00 00 d6 53 04 bf 00 00 00 00 81 5b 4e be
       0.0 -0.51690423 0.0 -0.20152093
000050 00 00 00 00 be d1 5e 3e 2b 75 35 ba 00 00 00 00
       0.0 0.21759698 -0.00069220614 0.0
000060 00 00 00 00 00 00 00 00 91 34 4d bd 00 00 00 00
       0.0 0.0 -0.05009896 0.0
000070 5d 9a cb bd 00 00 00 00 00 00 00 00 00 00 00 00
       -0.09941552 0.0 0.0 0.0

net.2.weight f4 [32, 32]
000000 21 b4 c8 3e 63 e2 a9 3d a4 6a 26 be 49 72 a0 3e
       0.39199927 0.08295133 -0.16251618 0.31337193
000010 96 99 a8 3d b1 b9 d1 3e d3 96 6c 3d 4e d2 26 be
       0.08232419 0.40961984 0.057761025 -0.16291162
000020 ca 61 0a 3e a8 af 0b be d2 e6 59 3e 22 49 e8 3e
       0.13513866 -0.13641226 0.21279457 0.45368296
000030 1f 06 96 3e 32 45 66 be f5 d0 95 3e ce b1 bf 3d
       0.29301545 -0.22487333 0.29260984 0.093600854
000040 fd ac 83 3e 4f 0a a0 be 21 d1 00 bf 48 56 4a be
       0.25717917 -0.31257865 -0.50319105 -0.19759476
000050 63 65 c7 be 93 07 d8 3e a6 88 18 3e 02 6e 56 3e
       -0.3894454 0.4219328 0.14895877 0.20940402
000060 1a 49 27 3e 35 35 e2 bb 63 7d cd 3e a1 a1 b8 be
       0.1633648 -0.0069033154 0.40134725 -0.36060813
000070 79 02 63 3d 8f 52 b1 be 66 1c 1f 3e 5a f0 31 be
       0.05542228 -0.346333 0.15538177 -0.17376843
000080 e1 19 1b 3e cc c7 e3 bd e6 2b da 3e 8f 5e 9d be
       0.15146591 -0.111220926 0.42611617 -0.30736205
000090 31 00 9a be 65 e0 9c be a9 83 ed 3e b1 1f 29 3e
       -0.3007827 -0.3063995 0.4638951 0.16515996
0000a0 2d e8 f8 3e 50 1e d5 be b2 d5 02 bf 4a eb ce be
       0.48614636 -0.4162469 -0.51107323 -0.40413886
0000b0 b1 44 b2 be 79 8f 4e 3e a1 18 36 3e 29 6c da 3e
       -0.34818032 0.20171918 0.17782833 0.42660645
0000c0 9f 70 89 be ee cf b3 be 43 23 8d 3e 31 17 56 be
       -0.26843736 -0.35119575 0.27565965 -0.20907284
0000d0 d3 15 a1 3e 29 74 f3 bd ef f8 97 3e a3 83 cd be
       0.31461963 -0.1188739 0.2968211 -0.40139493
0000e0 71 58 81 be af 55 24 3e 2a fc e6 3d 27 36 00 be
       -0.25262788 0.1604831 0.11278565 -0.12520657
0000f0 bd 3a 95 3e f1 20 b4 3e 3b fb bf be c9 fa 88 be
       0.29146376 0.35181382 -0.3749636 -0.26753834
000100 fa b5 ed 3e ca 64 33 be 97 10 3e be 27 58 fe be
       0.464279 -0.17518917 -0.18561016 -0.4967663
000110 26 f0 97 be 64 02 04 3e db d0 83 bd e4 30 bf be
       -0.29675406 0.12891537 -0.064363204 -0.37341988
000120 61 12 13 3c 48 f1 b0 be 50 33 df be bc 6f 91 be
       0.00897655 -0.34559083 -0.43593836 -0.2840556
000130 ec 34 e6 be 4c f1 a7 be 15 d2 01 3f 1b 56 c2 3d
       -0.4496225 -0.32801282 0.50711185 0.094890796
000140 2c f7 1d 3e e2 55 f6 be a0 11 aa be 35 59 32 be
       0.1542632 -0.48112398 -0.33216572 -0.17416842
000150 e5 8e a9 3d a8 e4 e7 be 20 17 5e be a6 f3 9d be
       0.08279208 -0.45291638 -0.21688509 -0.30849952
000160 ac 6f 90 3b 34 61 3f be 30 95 04 bd a0 84 af be
       0.0044078436 -0.18689424 -0.03236884 -0.34280872
000170 23 f2 ad be f6 e5 96 be 9a ef 35 be ae b0 cc be
       -0.33973798 -0.2947232 -0.17767182 -0.39978546
000180 0d 85 db 3e bd a2 cd bd 93 84 dd 3e f8 b5 23 3e
       0.42874947 -0.100408055 0.4326521 0.15987384
000190 00 7d e0 be 47 b8 b8 3e 96 ab 10 be 3a 6b 47 be
       -0.43845367 0.36078092 -0.14127955 -0.19474497
0001a0 47 6f d8 be 3f 19 02 bf 88 66 16 3e 8a 65 e2 bd
       -0.42272398 -0.5081977 0.1468755 -0.11054523
0001b0 c4 55 4c 3e 7a e0 d5 be 23 6d c2 3e 75 4f c3 be
       0.19954592 -0.41772825 0.3797389 -0.38146558
0001c0 75 ae b2 bd 05 39 e1 3d c3 70 86 3e 26 65 d6 3e
       -0.08724681 0.10997204 0.26257905 0.41874045
0001d0 b7 91 ed 3e a9 21 d3 be 85 9e 02 3e e0 df 5f be
       0.46400234 -0.41236618 0.12755783 -0.21862745
0001e0 3f 9f 68 bd 89 02 c4 be f5 8a ed 3e 05 36 c0 be
       -0.056792494 -0.38283184 0.46395078 -0.37541214
0001f0 9b 07 90 3e a0 c1 36 3e 10 b3 2a 3e 66 b4 8d be
       0.28130803 0.178473 0.1666987 -0.27676696
000200 aa 6d 03 3f b8 91 25 3e 3b 11 ef 3c a7 e2 cc be
       0.5133921 0.16168869 0.02918302 -0.40016672
000210 d0 0f 37 3e c5 2e 11 bd ef 10 91 be e4 ca f9 3e
       0.17877126 -0.035444994 -0.28333232 0.48787606
000220 95 3d 27 3e 68 ed a9 be f1 bf 55 be ad 42 ce 3c
       0.16332085 -0.3318894 -0.20874001 0.025178278
000230 86 41 ab 3e 1f ad a5 bd d9 6b 77 be e0 be 5d be
       0.33448428 -0.08089661 -0.24162234 -0.21654844
000240 b4 d3 a9 be ca 84 6d 3e 5a df b0 3e fc ee dd be
       -0.3316933 0.23195186 0.34545404 -0.43346393
000250 6e 41 8d 3d 0f 09 65 3e e3 12 30 3d d4 5b 07 be
       0.06897245 0.22366737 0.04298676 -0.13218623
000260 0b 02 5e 3e c3 df 5f 3e 5c a9 10 3e be 8f 0e be
       0.21680467 0.21862702 0.14127105 -0.13922021
000270 59 d5 35 be 62 58 a5 3b 2b 4d 26 bd b4 75 4e be
       -0.17757167 0.0050459364 -0.040600937 -0.20162088
000280 bd 24 9c 3e db ac d5 3e ae 92 f3 bc 5b bb 0a be
       0.3049678 0.4173344 -0.029733028 -0.13548033
000290 6c ea f1 3c e5 5f 47 bd 97 5c 13 3e 57 69 f9 3d
       0.029530726 -0.048675437 0.14390789 0.12178295
0002a0 14 2d f8 be 51 1c 2b be b5 29 d1 3e 6e e6 35 3e
       -0.48471892 -0.1671002 0.40852132 0.17763683
0002b0 69 e4 3e bd 24 59 a8 be 32 b8 aa be e3 6c e0 be
       -0.046604548 -0.3288051 -0.33343655 -0.43833074
0002c0 31 11 40 be 5c fc 1c 3e ff 76 b1 3e 0d 9a 5f 3e
       -0.18756558 0.15330642 0.346611 0.2183611
0002d0 93 16 dc be 4c 82 93 be 5a f1 72 bd 59 e1 f1 3e
       -0.42985973 -0.28810346 -0.059312202 0.4724224
0002e0 3c a6 c2 3d 43 30 e3 bd 4b ec 6d 3e b7 4c 31 be
       0.09504363 -0.110931896 0.2323467 -0.1731442
0002f0 d0 e8 b7 be 67 92 c9 3e da ab 81 be a0 0b a6 bd
       -0.3591981 0.3936951 -0.25326425 -0.08107686
000300 f0 43 03 bf a9 41 ac 3e 53 73 c7 3e c1 39 39 3e
       -0.5127554 0.33643845 0.38955173 0.18088438
000310 d2 dc b4 be a0 c6 01 bf 6d 98 d1 be d5 39 c0 3e
       -0.35324723 -0.506937 -0.40936604 0.37544122
000320 d1 a9 75 3e 29 7a de 3e 2d 44 86 3e d0 0f fe 3d
       0.23990561 0.43452576 0.2622389 0.1240536
000330 fb 61 25 bc 07 59 c9 be 60 77 e2 be a9 78 f2 be
       -0.010094161 -0.39325735 -0.442317 -0.4735768
000340 15 b2 50 3e f7 c0 82 be e7 e4 c7 bd b7 e3 98 be
       0.20380433 -0.25537845 -0.097604565 -0.29861233
000350 b3 01 b4 bd aa 20 b6 be 29 1d a8 be 51 1e 28 3e
       -0.087893866 -0.35571796 -0.32834747 0.16417815
000360 27 15 16 be 97 e8 a3 3e e0 6b 22 be 4b 0e bd be
       -0.14656506 0.3201339 -0.15861464 -0.36924967
000370 30 9b c7 bd c1 16 78 be 81 17 25 be 65 20 f6 be
       -0.097463965 -0.2422743 -0.16122247 -0.4807159
000380 e7 a6 96 3e 4d 6f b1 be 2e 22 84 3e 65 10 76 3e
       0.2942421 -0.34655228 0.25807327 0.24029692
000390 54 3c bb 3e 16 22 c7 be 31 71 b7 3e bf 1a 6e be
       0.36569464 -0.38893193 0.35828546 -0.2325239
0003a0 35 d7 4a 3e ed e6 f0 3e 54 85 81 bd ed fe 9c 3b
       0.19808657 0.47051182 -0.063242584 0.0047911317
0003b0 68 be de bd ce aa d5 be 3a db 81 3e 9d 50 02 bf
       -0.10876161 -0.41731876 0.2536257 -0.50904256
0003c0 b3 ab a6 3e 08 b3 c7 3e d3 9f f2 3e 14 90 e6 bd
       0.3255287 0.39003778 0.4738756 -0.112579495
0003d0 81 25 db be 14 ec ec 3d 69 de 8b 3e b1 95 ff be
       -0.4280205 0.11568466 0.27318123 -0.49918893
0003e0 14 19 ff bd 07 18 a1 be 3e 91 5a bd a7 12 85 be
       -0.12455955 -0.31463644 -0.05336117 -0.25990793
0003f0 c6 92 5a be 7f d3 2e be 5a d3 f3 be 9b e9 d1 3e
       -0.21345052 -0.17072867 -0.47622186 0.4099854

net.2.bias f4 [32]
000000 e3 5e 01 bb e4 a1 a0 bb 53 31 44 bb de 22 64 3a
       -0.0019740395 -0.0049021114 -0.0029936626 0.00087027054
000010 58 f2 4a 3d a9 db ad bc 5a 03 a7 bb e5 fc 0e 3c
       0.049547523 -0.021222906 -0.005096835 0.008727287
000020 fd 3f 6c 3b d4 d2 b5 3b 16 08 b8 ba d9 fd 00 3d
       0.0036048882 0.0055488143 -0.0014040496 0.031492088
000030 83 a2 8a bc 34 ef 20 3b 71 b3 3f bc 52 7b 8b bc
       -0.016923195 0.0024556639 -0.011700497 -0.017026577
000040 2c 2e b7 3b 8a 5c 43 bb a4 1e 79 bc 5f 45 a6 bc
       0.005590221 -0.0029809796 -0.015205059 -0.02029675
000050 00 66 65 ba 7b 70 71 3b 89 52 83 3a 2f 96 33 3d
       -0.0008750856 0.0036840725 0.0010019104 0.043844398
000060 60 6c da ba bd ec 00 3c c3 5e 41 bc 61 51 98 3c
       -0.0016664378 0.007868943 -0.011802378 0.018593492
000070 d5 3a 1e 3c f3 60 1f 3b 99 65 f4 bc 1a 33 d0 bb
       0.009657581 0.002431926 -0.029833602 -0.006353748

net.4.weight f4 [32, 32]
000000 af 06 8d bd aa dc 59 be 1c d4 0d be 67 5f dc be
       -0.068860404 -0.21275583 -0.13850445 -0.43041536
000010 e3 6b ce be 56 ea 97 3e 6f 9c df 3e d8 20 f9 3e
       -0.40316686 0.29670972 0.43674037 0.4865787
000020 27 e0 bc be 55 4c 8c 3e d2 a3 a1 be d6 15 9c 3e
       -0.36889765 0.27401987 -0.31570297 0.3048541
000030 a3 e7 ba 3e 02 f7 c9 3e 95 26 bc 3e 22 47 a3 3e
       0.3650485 0.39446265 0.36748186 0.31890208
000040 44 c3 29 3c ed a5 6c 3e dc b4 3a be e4 96 62 3e
       0.010361496 0.2311017 -0.18233055 0.22127873
000050 13 f5 27 be 43 b4 09 bc c6 d8 d9 be f1 6e 04 be
       -0.16402082 -0.008404794 -0.42548198 -0.12932946
000060 75 33 89 be 53 02 36 be 50 16 a3 be 19 0a eb be
       -0.2679707 -0.17774324 -0.3185296 -0.4590614
000070 bd 1a 07 3d 61 7f a9 3e e3 c2 ed 3e 98 27 98 3e
       0.032984484 0.33104995 0.4643775 0.29717708
000080 bb 57 8b be bf 7d fe be 26 28 41 3e 17 7c 8d 3e
       -0.2721537 -0.49705312 0.18862972 0.27633736
000090 10 d0 da be da 19 35 3e af 69 d9 3e 97 ce 20 3d
       -0.42736864 0.17685643 0.42463443 0.03925952
0000a0 50 0f 9a be 72 46 df 3e 64 17 56 3e ac de a8 3e
       -0.30089808 0.43608433 0.2090736 0.32982385
0000b0 09 8f ba be d5 6c 9c 3e d5 62 b6 be 12 5f 03 3f
       -0.36437252 0.30551782 -0.35622278 0.5131694
0000c0 06 2d 65 be 91 dc ac 3e 08 ac ca 3d 25 b1 07 3e
       -0.22380456 0.3376203 0.098960936 0.13251169
0000d0 cb 6c ba bd 9e 37 4f 3e 6e cb 2b be ca d5 ec be
       -0.09102782 0.2023606 -0.16776821 -0.46256858
0000e0 94 a0 50 be b5 91 bf 3e 5a e6 05 be 87 9a 2b 3e
       -0.20373756 0.37415853 -0.13076153 0.16758166
0000f0 1f 8e 38 be cb 98 bf 3e a5 66 a0 3e f7 4d 43 3e
       -0.18022965 0.3742126 0.31328312 0.1907271
000100 08 5d 84 be 67 b3 d6 be 93 ca 0f 3d 91 21 98 be
       -0.25852227 -0.41933748 0.0351053 -0.2971311
000110 67 80 d5 3e a5 0a f9 be bb 03 6c 3e c8 a1 01 3f
       0.41699526 -0.48640934 0.23048298 0.50637484
000120 8e 63 81 3e bb 0f 35 3e 37 41 fa be 3f 78 fc 3e
       0.25271267 0.17681782 -0.4887788 0.4931049
000130 bf 4d b3 bd 30 3d f5 be 1f 98 01 3f a4 f6 56 be
       -0.08755063 -0.47898245 0.50622743 -0.20992523
000140 d2 31 0a bd e2 09 f0 3e 54 e0 b2 be 4d 9b b9 be
       -0.03373892 0.4688254 -0.34936774 -0.36251298
000150 4b be ac 3d d7 43 86 bd d9 17 fb 3d bc 51 de be
       0.08434733 -0.06555908 0.12260408 -0.43421733
000160 f2 fe 8f 3c 1b 67 62 be 09 29 81 be a2 98 f0 be
       0.017577622 -0.22109644 -0.2522662 -0.4699145
000170 42 62 89 3e ca e4 cd 3d 9d 12 de be b4 74 d2 3e
       0.26832777 0.10053404 -0.43373576 0.41104662
000180 b7 8e 22 3e 5a 17 b8 3d d9 75 af be 26 36 a7 3d
       0.15874754 0.08988829 -0.34269598 0.08164625
000190 ca c3 ff 3e b8 8a b2 3e b7 31 c9 be 49 8a ec 3e
       0.49954063 0.3487146 -0.39295742 0.46199253
0001a0 04 30 0d 3d 82 11 80 3e 59 ee cc 3e 6d 0e e1 3e
       0.03446962 0.25013357 0.40025595 0.43956318
0001b0 f4 bb d1 be a0 dc e1 3e 61 5a af be cb 44 0a 3d
       -0.4096371 0.44113636 -0.3424864 0.033757012
0001c0 d5 08 b4 be 20 4d b9 bd 95 74 c1 bc e0 fe 34 bd
       -0.35162988 -0.090479136 -0.023615161 -0.04418838
0001d0 96 07 a5 bd 49 fb 36 3d 66 64 0e 3f b5 a1 9f 3e
       -0.080580875 0.044673238 0.55621946 0.3117806
0001e0 4c a3 94 3e e8 dc 34 3e 46 6e de 3e 4d 34 e1 bc
       0.29030836 0.17662394 0.43443507 -0.02749076
0001f0 62 6f 15 3d 32 ab e0 3d a5 45 e6 be f9 06 ca be
       0.036483176 0.10970153 -0.4497501 -0.39458445
000200 fe 9a 6e 3d 2f 1b 48 be 95 06 5f bd c7 55 f0 bd
       0.05825328 -0.1954162 -0.054449636 -0.11735111
000210 b3 18 b3 3d 35 9d a9 3e 5c 8f 32 be c3 bd d3 3e
       0.087449454 0.33127752 -0.174375 0.41355714
000220 fe 51 d0 3e e0 dc c2 be 14 71 cb be 6b 7c d5 be
       0.40687555 -0.3805914 -0.3973471 -0.41696486
000230 20 dd 90 be 72 97 47 be 3a 0e 2e bd 0d 5a f6 bd
       -0.28293705 -0.19491366 -0.042494036 -0.120288946
000240 63 2d 86 be 66 68 2d be e8 9a 41 be c9 92 ff 3e
       -0.26206502 -0.16934356 -0.18906748 0.49916676
000250 87 99 45 be 0d f2 bc be 42 88 90 3e 8a f0 ab bc
       -0.19296847 -0.3690342 0.28228956 -0.020988721
000260 71 d8 c5 3e a5 f5 a0 3e 11 c9 fb 3e 22 fa bc be
       0.38641694 0.31437412 0.4917684 -0.36909586
000270 36 d9 a9 3e 7d 50 da 3e 16 bf 7d be 79 29 f5 3e
       0.3317353 0.42639533 -0.24779925 0.47883204
000280 1d 8f c5 3e 24 4a 16 3b ab a0 6f 3e 10 68 32 be
       0.3858575 0.0022932375 0.23401134 -0.17422509
000290 c2 02 e6 be 8c 9c 05 3e 2a c5 1e 3e 50 89 ac be
       -0.4492398 0.13047999 0.155049 -0.3369851
0002a0 28 d0 7a 3e da 05 e4 be 72 cc e2 3e 63 cf fe 3e
       0.24493468 -0.44535714 0.44296604 0.49767599
0002b0 7a 40 17 3e 1f dc a5 be 3a c7 80 3e a1 f8 aa 3d
       0.1477069 -0.32394502 0.25151998 0.083482035
0002c0 40 73 11 3e 28 3d 1d 3e 9e 07 c7 3e a2 7b 5a be
       0.1420412 0.1535536 0.38873 -0.21336225
0002d0 3f b0 df bd df 7b 11 3e aa 6c 16 3d 6f 7a d0 3e
       -0.10922288 0.1420741 0.036724724 0.4071841
0002e0 f9 87 87 be 6c 29 4d bc 10 37 d0 3d de b2 0d be
       -0.26470926 -0.012522083 0.10166752 -0.13837764
0002f0 6f 44 b0 3e f3 ec 73 3d b6 37 f3 be cb 0b 72 bd
       0.3442721 0.059552144 -0.47503442 -0.059093278
000300 8a 62 6a be 8c ad 40 3d 6b 71 90 bd fe d7 00 bf
       -0.22889152 0.047040507 -0.07052883 -0.5032958
000310 4a 6d c6 bd df 6c 45 bd d0 80 17 be 9b b8 ee 3e
       -0.09688814 -0.04819953 -0.14795232 0.46625218
000320 ae 6a e7 bd 8f 31 a4 3e 29 3e 04 3e 67 34 db be
       -0.112996444 0.3206906 0.12914337 -0.42813417
000330 da 7f 02 3e 9e 11 d7 3e e7 9c a9 be ca 3a aa be
       0.12744084 0.42005628 -0.3312752 -0.33247977
000340 d2 84 00 3f f5 ae cd 3e b9 45 92 be ce 38 a1 3e
       0.5020267 0.40172544 -0.2856882 0.3148865
000350 5e bc 7b bd 5e 3e 00 bf c1 2e 24 3c cf bb 24 3e
       -0.061458938 -0.50095165 0.010020913 0.16087268
000360 8d 1a 1a be 13 d8 39 3e 70 11 de be b1 f8 b3 3e
       -0.15049191 0.18148832 -0.4337268 0.35150674
000370 c2 61 dd 3e 93 7b 91 3e 70 cc ab 3d d9 8f 28 3e
       0.43238646 0.28414592 0.08388603 0.16461124
000380 ec e7 ca be ac 3d ce bd 47 b3 85 bc e7 19 99 be
       -0.39630067 -0.10070357 -0.016320838 -0.29902574
000390 4a 99 cb be e5 59 b0 3e f5 00 a3 3e e6 be e0 be
       -0.39765388 0.34443584 0.31836668 -0.43895644
0003a0 98 19 44 3e 05 21 6a 3e f8 fc ec 3e 7f c4 89 3e
       0.19150388 0.22864158 0.4628675 0.26907727
0003b0 03 23 05 3f 85 f1 10 be d1 58 aa 3e ac 6e e1 3e
       0.5200655 -0.14154632 0.33270887 0.44029748
0003c0 12 50 02 bf 19 00 fa be 22 d6 a5 3d 6f b4 60 3e
       -0.5090343 -0.488282 0.08097483 0.2194383
0003d0 f0 40 8a be f0 65 fc 3c 44 66 03 be f3 73 8b bc
       -0.27002668 0.030810326 -0.1283198 -0.017023062
0003e0 65 25 9a be 31 82 ab 3e ca 19 89 3e 6e 3a a8 be
       -0.30106655 0.33497766 0.26777488 -0.32857078
0003f0 5a 19 e8 3c 55 f9 a1 bc d1 fa 42 3e b7 d2 e1 3e
       0.028332401 -0.019772211 0.19040991 0.44106075

net.4.bias f4 [32]
000000 ea a1 d2 39 e5 3c fa bb 34 d2 18 3b 83 95 9e 3b
       0.00040174957 -0.0076366537 0.002331865 0.0048396005
000010 51 e3 8c bb 70 a3 58 3b d9 19 28 3b 88 07 dd bc
       -0.004299559 0.00330564 0.0025650172 -0.02698113
000020 b5 dc ba bc 83 75 a4 bb 3c 83 08 bc 1a 43 7b 3b
       -0.02281032 -0.0050188913 -0.00833207 0.0038339556
000030 a1 48 fe bb 47 00 3b bb d9 02 fd bb 98 a8 10 3c
       -0.007760123 -0.00285341 -0.0077212867 0.008829258
000040 d3 35 50 bb 79 6e a6 bb 56 27 42 bc 29 ee 2b bb
       -0.0031770363 -0.0050790873 -0.011850199 -0.0026234484
000050 cc 3d 46 3b ac ba 04 3c 87 b5 15 3d ab 74 77 bb
       0.0030249236 0.008101147 0.03655007 -0.0037758749
000060 84 90 1c bb f2 f0 86 3a 6f 3c 50 bc 11 64 6c bb
       -0.002388985 0.0010295196 -0.012709721 -0.0036070386
000070 13 4a 90 3c 4b f1 19 3d 5e 1b 19 bb e8 32 c0 3a
       0.017613446 0.03758363 -0.002336226 0.0014663609

net.6.weight f4 [32, 32]
000000 19 70 d2 be 12 8a aa 3e 55 1e 53 bd 24 b5 d9 bd
       -0.4110115 0.33308464 -0.0515426 -0.10630253
000010 2c 4e 18 3e 50 08 cb 3e 3b af 8c be e8 70 b2 be
       0.1487357 0.3965478 -0.2747744 -0.34851766
000020 2e 07 a7 3e 4b 92 95 be 86 5c 24 3e 3e 9b 74 bd
       0.32622665 -0.29213175 0.1605092 -0.059718363
000030 16 49 44 3e 16 b0 c8 3e 8e c6 85 be 77 ce 7f be
       0.19168505 0.39196843 -0.26128048 -0.24981104
000040 36 54 82 3e 90 76 c2 3d ca c2 53 bd 7f 4f e8 be
       0.25454873 0.0949527 -0.051699437 -0.4537315
000050 f4 d2 dc 3e c7 7e d5 3c ab 93 da bd 28 13 50 be
       0.43129694 0.026061429 -0.10672697 -0.20319808
000060 28 7d cf bd b1 8e 80 3e 3a 52 e6 bc a4 c9 e2 3e
       -0.101312935 0.25108865 -0.02811538 0.44294465
000070 87 fd d8 bc 5b 70 90 bd ff 60 96 3e b8 46 2a bc
       -0.026488079 -0.0705268 0.29370877 -0.010392837
000080 91 c0 ca bd f4 2c 21 3e 06 a0 c8 3e 11 91 09 3e
       -0.099000104 0.15739805 0.39184588 0.13434245
000090 c1 46 ba 3e 4e 82 a6 3e c7 52 19 3e 06 53 30 3e
       0.36382106 0.3252129 0.14972983 0.17219171
0000a0 82 77 21 3e 01 dc d3 3d 61 4a db 3e 7a e5 ec 3e
       0.15768245 0.10344697 0.42830184 0.46268827
0000b0 f2 9b 28 3e 0a 37 a4 bc fb 0e e8 3e ac fe ce be
       0.16465738 -0.020045776 0.4532393 -0.40428674
0000c0 4a f0 ba 3e 9a 9b 31 3e 1f d9 a8 3e 3a d1 33 bd
       0.3651145 0.17344514 0.3297815 -0.043900706
0000d0 ea 77 cb be 2a 13 c4 3e 8b bd 25 be f1 7e 0a 3e
       -0.39739925 0.3829587 -0.16185586 0.13524987
0000e0 a7 5b 8f 3e f0 f8 ef be b0 d0 f2 3c ea a7 39 be
       0.27999613 -0.46869612 0.029640526 -0.1813046
0000f0 2f 27 bc 3e 3c 69 a3 be 2c c1 9f 3e fc 12 a5 3e
       0.36748645 -0.31916225 0.31202066 0.32241046
000100 f8 42 87 3e 99 ed f0 3e a2 41 d1 3d 40 8a e5 be
       0.2641828 0.47056273 0.102175966 -0.4483204
000110 89 41 ce 3e c3 0d ca 3c 64 f4 03 3d 66 0c 02 bf
       0.40284374 0.024664765 0.03221549 -0.5080017
000120 25 07 04 be 16 d0 90 be 70 c8 f4 3e 5c 90 ca 3e
       -0.1289335 -0.28283757 0.47809172 0.39563262
000130 6a 0d e0 3e 37 36 be 3e 0f 3e ad be a1 93 76 be
       0.43760234 0.37150738 -0.3383641 -0.24079753
000140 71 9e 60 be 84 b2 13 be 49 c4 c0 3e 20 a4 19 3e
       -0.2193544 -0.14423567 0.37649754 0.15004015
000150 50 ca c8 3e 16 a4 ea bd 88 93 e0 be 83 98 fd bd
       0.39216852 -0.11457078 -0.43862557 -0.12382605
000160 05 32 ad 3e fd 75 a9 3e 5d 14 11 3e 47 23 00 be
       0.33827224 0.3309783 0.14167924 -0.12513457
000170 b6 9c e8 be 51 23 81 be 99 f9 93 3e 68 56 3c be
       -0.4543206 -0.25222257 0.28901365 -0.18392336
000180 e6 2f 6c 3e 0d ce 14 3e 6e 43 45 be 4a 33 a3 3e
       0.23065147 0.14531727 -0.19264004 0.31875068
000190 17 6f d4 bd a7 70 bc 3b 02 7b 5e be d2 fd ec be
       -0.10372751 0.005750734 -0.21726611 -0.462874
0001a0 84 8a e1 3d aa 3b 16 3e 7d 06 73 be 72 8c 96 3e
       0.11012748 0.14671198 -0.23732944 0.29404026
0001b0 45 af fe be fa c8 03 bf 52 c8 94 be 84 c8 1e be
       -0.49743095 -0.5147854 -0.29059082 -0.15506178
0001c0 5e 9f e1 bc 8a a2 b2 bd 07 b9 86 3e 03 ea da be
       -0.027541813 -0.08722408 0.2631304 -0.42756662
0001d0 f1 75 9b 3d 85 f8 83 3d 67 df 11 3e 32 d1 f8 3e
       0.07590855 0.06443886 0.14245377 0.48597103
0001e0 31 bb a9 3e a0 c2 97 be 09 73 d7 be 93 f7 17 be
       0.33150628 -0.29640675 -0.42079952 -0.14840536
0001f0 8b 2c 8e be d5 17 20 3e 62 d7 81 bc f1 20 c6 3e
       -0.2776836 0.15634091 -0.015849773 0.38697007
000200 ff dd 50 3e ee a0 b6 bd 42 be 0c 3d e2 61 d9 3d
       0.20397185 -0.08917414 0.03436113 0.10614373
000210 1f c0 4a bd 61 a2 d4 3e f9 14 ce be d4 e4 80 3e
       -0.049499627 0.41530135 -0.40250376 0.25174582
000220 e0 b3 a6 be 07 a2 fc be 1e e4 cf bd 92 03 82 3e
       -0.3255911 -0.49342367 -0.10150932 0.2539335
000230 34 3f ad 3e c5 05 ff 3d 5c 60 29 bd 47 6d cb bc
       0.33837283 0.12452272 -0.04135166 -0.024832381
000240 86 a5 4d be dc 24 24 3c 54 a4 25 bd 0f 9b df 3e
       -0.20082673 0.010018554 -0.04043992 0.43672988
000250 b5 d7 9b 3e 0f 9d ee be 52 c7 95 3b 25 10 a3 be
       0.3043801 -0.466042 0.00457088 -0.31848255
000260 62 37 9c bd 80 3b d1 be 28 78 14 3e 81 1e bd be
       -0.07627751 -0.40865707 0.14498961 -0.36937335
000270 39 33 00 3f 15 7f c3 3e 9c a9 b4 be 7e 2e f7 be
       0.5007816 0.38182893 -0.35285652 -0.48277658
000280 1e 63 13 bb b2 83 12 be b2 05 36 3e 8d b3 b4 be
       -0.0022489498 -0.1430805 0.1777561 -0.35293236
000290 3a 74 3c 3e 38 7a e1 be 4c 20 8a be 92 4d 88 be
       0.18403712 -0.44038558 -0.26977766 -0.2662168
0002a0 05 de 70 3e 05 03 38 bd 19 ec fa be 14 ef 82 be
       0.23522194 -0.044924755 -0.49008253 -0.25573027
0002b0 5c d3 8f be 6f a7 f2 be db d4 83 3d b8 53 3a 3e
       -0.28090942 -0.47393367 0.06437083 0.18195999
0002c0 2b 69 b6 bd 06 d8 2b be 90 c5 cc 3a 93 2b cf be
       -0.08906778 -0.16781625 0.0015622843 -0.40462932
0002d0 1c 69 9e be c8 51 f3 bc 9a 87 eb 3e 69 4c 1d be
       -0.30939567 -0.029702082 0.46001893 -0.1536118
0002e0 09 b7 81 3e 36 00 4e be 21 0a 07 be c0 80 f7 be
       0.25334957 -0.20117268 -0.13187458 -0.48340416
0002f0 c1 62 d8 3e 6d 79 fe 3e 05 3d 0d bc 84 a7 a6 3e
       0.42262843 0.49702016 -0.008620505 0.3254968
000300 20 48 db 3e 39 c0 7f 3e 6c 1a 80 3e 53 29 ff be
       0.42828465 0.24975671 0.25020158 -0.49836215
000310 f7 3e f5 be cd 67 c8 be fe 39 23 3e f5 1b e4 be
       -0.478996 -0.39141694 0.15940091 -0.4455258
000320 c7 1c c3 be f8 2d 6c be 85 83 ef be 6e 2b 8d bc
       -0.38107893 -0.2306441 -0.4678003 -0.017232623
000330 1e 2a b2 3d 65 08 99 be bd 87 ab 3e 38 65 47 be
       0.086994395 -0.29889217 0.33501998 -0.19472206
000340 27 43 16 be da 84 b9 3e 9a 8b dc 3e 9b 45 74 bd
       -0.14674054 0.3623417 0.43075258 -0.059636693
000350 27 b9 be be 94 98 8d be 8c 72 ab 3d be 63 9b 3e
       -0.37250635 -0.2765547 0.083714575 0.30349535
000360 d1 b6 81 3e 00 a9 65 be cd 89 f1 be ab 98 e5 be
       0.2533479 -0.2242775 -0.47175446 -0.4484304
000370 da 95 26 be bc 21 d4 3b 64 b3 6b be 53 45 cf be
       -0.16268101 0.006473748 -0.23017651 -0.40482578
000380 ce 82 c3 3d 4d a9 e0 be 78 08 e0 be 62 f6 d3 be
       0.095464334 -0.43879166 -0.4375646 -0.41398913
000390 61 5c 2d be 0b 29 d8 3e 60 6a 69 3e fd a9 b3 bd
       -0.16929771 0.42218813 0.22794485 -0.08772657
0003a0 f9 32 86 3d 21 51 94 3e ab 3d bc bc 02 17 f1 be
       0.06552691 0.28968146 -0.022978624 -0.47087866
0003b0 46 74 a5 be cb d6 a2 be 65 43 22 bd f9 44 ff be
       -0.32315272 -0.318045 -0.039615054 -0.4985731
0003c0 17 6c 0c be f2 b3 89 be 25 62 f0 3e 1f ce c8 3e
       -0.13713108 -0.268951 0.46949878 0.39219758
0003d0 92 10 83 3e 80 78 f4 bb df 41 e6 bd 33 fd 21 3e
       0.2559858 -0.007460654 -0.11243033 0.15819244
0003e0 fc 64 c6 be 89 24 3f be e3 c3 ac bd e5 cc e1 bd
       -0.3874892 -0.18666281 -0.084358 -0.11025409
0003f0 fa 8f e9 be 59 47 6d 3e 2a a7 e1 3e 7d d7 82 be
       -0.45617658 0.23171748 0.4407285 -0.2555503

net.6.bias f4 [32]
000000 3c 24 2c bb 6c 29 b0 bb 0f 06 b5 bc 8a de bb 3c
       -0.0026266715 -0.0053760316 -0.022097616 0.022933263
000010 12 83 66 3b 62 ca de 39 c3 c7 92 39 75 08 e9 bc
       0.003517334 0.00042493927 0.00027996124 -0.028446415
000020 f7 3b 22 3b b8 60 0b 3c 62 c9 52 3c 7a ac d8 3b
       0.002475498 0.008506946 0.012865396 0.0066123577
000030 b0 c8 04 3c 20 10 29 bc 74 86 cb bb 81 74 fc b9
       0.008104488 -0.010318786 -0.0062110964 -0.00048151988
000040 4b d1 f6 b9 52 7c 50 bb 21 48 e5 3b 7f 4b 74 3c
       -0.00047076712 -0.0031812382 0.006997124 0.014910578
000050 cf f7 fc 3b fb 45 52 3b 26 b5 80 bc 14 74 98 3a
       0.007719971 0.0032085169 -0.015711378 0.0011631274
000060 db da 80 bc 8d 91 14 3c 2d 18 2d bc 47 9c 90 bb
       -0.015729358 0.009067905 -0.010564846 -0.004413161
000070 a9 c9 53 bc 77 6c cf bb 15 39 09 3c bf f8 00 3b
       -0.0129264975 -0.0063300687 0.008375426 0.0019679514

net.8.weight f4 [32, 32]
000000 f5 c9 67 3e 22 e8 c4 3e a1 b8 22 be 4a a9 ef 3e
       0.22635634 0.38458353 -0.15890743 0.46808845
000010 e0 44 fb bd 9c d5 98 be 37 57 6e be 6c 78 86 3c
       -0.12268996 -0.2985047 -0.23275457 0.016414843
000020 18 a1 99 bd 4f a6 80 3e 1e a8 8b be 3b 86 13 be
       -0.07501429 0.25126883 -0.272767 -0.14406674
000030 b6 a6 fe be 8a f8 da 3e e9 9d a6 bd e4 ea d7 be
       -0.49736565 0.42767745 -0.08135588 -0.42171395
000040 0c 71 0a bd 91 06 9b 3c ae f8 03 3e 80 87 43 bd
       -0.033799216 0.01892403 0.12887833 -0.047736645
000050 9c b8 aa 3e 53 5a 26 be f2 e2 24 be fc 03 01 be
       0.3334397 -0.16245393 -0.16102198 -0.12599176
000060 28 c7 9b 3d bf c3 d7 3e 6e e5 f4 bc fb da c2 3e
       0.076063454 0.4214153 -0.029894557 0.38057694
000070 0f d2 e2 3e 02 a8 8c be ce c2 6a bd ff 30 5d be
       0.44300887 -0.2747193 -0.057314686 -0.21600722
000080 cf 5c 2c 3e 7d f1 39 be 03 cb 1e 3e 6d 89 aa 3c
       0.16832279 -0.18158527 0.1550713 0.020817483
000090 84 5d a5 be 13 b7 b1 be aa 19 fc be f0 41 64 be
       -0.3229791 -0.34709987 -0.4923833 -0.22290778
0000a0 c0 53 dc 3d c7 04 c7 bd 4a 7c be 3e 62 9d fa be
       0.107581615 -0.09717708 0.372042 -0.489482
0000b0 a1 5a e7 bc 41 21 f4 be e9 1d eb 3c 89 21 77 3e
       -0.028241457 -0.4768162 0.028700786 0.24133886
0000c0 de ce e4 be 52 b6 e2 3e 43 69 04 be 01 99 e0 3e
       -0.44689077 0.44279724 -0.12930779 0.43866733
0000d0 04 7b eb bd 96 c0 ac 3e 21 04 f0 3e ed a7 7d be
       -0.11498073 0.3374068 0.4687815 -0.2477109
0000e0 b7 40 7d be aa 80 7d 3e 88 1e de be f8 05 a6 3e
       -0.24731718 0.24756113 -0.43382668 0.3242643
0000f0 09 ea ad be af 91 00 3f 33 85 a7 be 0d ac 46 be
       -0.33967617 0.50222296 -0.3271881 -0.1940157
000100 48 cf d2 3e d4 aa 5b be da b7 db 3e 29 a9 bc 3e
       0.41173768 -0.21451885 0.42913705 0.3684781
000110 cd 5a ed 3e 19 06 fc be b8 d4 69 3a 42 54 35 be
       0.46358338 -0.49223402 0.0008919942 -0.17707923
000120 fd c7 15 3e 48 7c be be 4e 46 59 3e 53 55 b7 bc
       0.1462707 -0.37204194 0.21218225 -0.022379553
000130 ab 82 74 be 18 44 e5 be fd 79 74 3e 10 c2 73 be
       -0.23877971 -0.44778514 0.2387466 -0.23804498
000140 46 63 bf 3e 51 13 f1 3d 6e 87 01 3e fd 21 99 bd
       0.37380427 0.117712624 0.12649319 -0.07477186
000150 c9 af 44 bd cd c8 53 be e7 00 e3 be 17 0e ab 3e
       -0.048019204 -0.20682068 -0.44336626 0.33409187
000160 14 a1 b6 be fb 37 a0 3e a7 55 2c be b6 36 9e 3e
       -0.35669768 0.3129271 -0.16829549 0.30901116
000170 ce ff f0 3e 5e 2d a9 be 10 38 d5 3e a1 e6 29 3d
       0.47070163 -0.33042425 0.41644335 0.04147971
000180 d9 21 d4 be 54 bd 47 3e 85 84 90 3e cb f6 e4 3e
       -0.41432074 0.19505817 0.28226104 0.44719538
000190 8a c0 fb be 87 9a f0 3e 5b 0d c3 3e ee 4f 03 3f
       -0.49170333 0.46992895 0.38096127 0.5129384
0001a0 c7 a8 8b 3e fc b1 91 be 87 05 c9 3e 75 9d e9 3e
       0.27277204 -0.28456104 0.3926203 0.45627943
0001b0 92 a3 40 be 8f 80 a7 bd 82 ff da 3e a6 9b e6 3e
       -0.18812397 -0.081788175 0.42773062 0.45040625
0001c0 f4 3a a9 3e fd 29 ba 3e a8 0a 85 be 24 4c a6 bd
       0.3305279 0.3636016 -0.25984693 -0.081199914
0001d0 e0 36 5b be 95 67 97 3e b9 00 f4 3d 9a dd b8 be
       -0.21407652 0.29571214 0.119142 -0.3610657
0001e0 9a a5 41 bd bb c8 d4 be f4 79 fb be 82 3d ee 3e
       -0.04727707 -0.41559395 -0.4911648 0.46531302
0001f0 21 24 9e be 4a 72 6d 3e 9b 7a fd bd 12 97 d2 bd
       -0.3088694 0.23188129 -0.12376901 -0.102827206
000200 c0 27 aa bb 20 96 d0 3e 1b 75 86 bd 55 d9 df 3e
       -0.005192727 0.40739536 -0.06565305 0.437205
000210 94 05 9d 3e b7 ae ae 3e ca ec e9 be a7 e3 73 be
       0.30668318 0.34117672 -0.45688468 -0.23817311
000220 3a e0 d7 be 59 6d 27 be c5 0e e9 bd dd a9 e4 3d
       -0.4216326 -0.16350307 -0.1137977 0.11165211
000230 64 49 e4 3e 37 50 60 3e c8 18 c0 be 06 9f a8 be
       0.44587243 0.219056 -0.37518907 -0.32933825
000240 7e cc c9 3e bd 1b 6a 3d 3a 5a 19 3e 17 78 8e be
       0.39413828 0.05715536 0.14975825 -0.27825996
000250 57 d7 82 bd 12 b8 0d 3e 4c 86 a6 be 39 ad 9b 3e
       -0.06388729 0.13839749 -0.32524335 0.30405596
000260 d3 e3 51 3e 97 d5 9b be ec fd 4a be e1 02 e7 bd
       0.20497064 -0.30436394 -0.19823426 -0.11279846
000270 ed 43 bd 3d 53 47 34 be 1b 13 ff 3e eb 89 fa be
       0.092414714 -0.17605333 0.49819264 -0.48933348
000280 1b fd 8b be a8 fc a2 be 95 ca 04 3e 61 da a6 3d
       -0.27341542 -0.31833386 0.12967904 0.08147121
000290 aa 62 20 be bf e0 e3 3e 26 9a e6 be 0b 67 21 3e
       -0.15662637 0.44507405 -0.4503948 0.15761964
0002a0 52 15 89 be e6 62 bc bd 92 f0 f5 be c9 43 c1 be
       -0.2677408 -0.09198551 -0.48035103 -0.37747028
0002b0 c2 06 d8 be 11 2b 6f 3e 70 a7 39 be 9c ce 85 3e
       -0.42192656 0.23356272 -0.18130279 0.26134193
0002c0 0d 17 93 be 9a 0e 0e be 66 29 45 3d 38 8f e0 3e
       -0.28728524 -0.13872758 0.048135184 0.43859267
0002d0 8e fb ff bd 64 27 9a 3e 90 8c 06 3e c8 aa ac 3e
       -0.12499152 0.30108178 0.13139558 0.33724046
0002e0 de fc b8 3e d2 5f 5f 3e ba 4b 27 be 9a d1 1e be
       0.36130422 0.21813896 -0.16337481 -0.15509644
0002f0 7e ac 42 3e 75 04 88 3e 69 00 1b bd 11 bd 83 3e
       0.19011113 0.265659 -0.037842188 0.25730184
000300 8d 54 9c be 2e 9f 97 3e 37 da 67 bd 87 29 b9 be
       -0.30533257 0.29613632 -0.05660459 -0.36164495
000310 e6 55 77 be 25 d1 ca be 9e e4 e2 3d 8a ac 89 be
       -0.24153861 -0.3961269 0.110787615 -0.2688945
000320 71 ab 1c be d0 41 aa bd 54 14 a3 be 35 de 6c 3b
       -0.15299775 -0.08313334 -0.31851447 0.0036143188
000330 a3 bb 95 bd 3c 7a 1b 3e 20 ec b2 3e a2 4a a5 be
       -0.073111795 0.15183347 0.34945774 -0.32283503
000340 43 95 92 3e 86 69 e5 bb 16 c3 93 be 1f 92 75 be
       0.28629503 -0.0070011048 -0.28859776 -0.23981522
000350 50 d3 02 3e 0d 4f be 3d 7a 41 1d bc 9c 0e 87 be
       0.12775922 0.092924215 -0.00959813 -0.26378334
000360 e5 c3 5d 3e ab ca 8f 3d 62 96 f9 be c0 2a ac bd
       0.21656759 0.07021078 -0.48747545 -0.084065914
000370 f5 e0 14 be 82 90 58 be 85 47 8d be 5d 85 d1 be
       -0.1453894 -0.21148875 -0.27593628 -0.4092206
000380 2d b2 fd 3e 7b a2 f5 be 0a c9 ee 3e 35 34 c9 be
       0.4955 -0.47975525 0.46637756 -0.39297643
000390 09 c9 07 be d5 69 4a be 0e e5 8d be a6 b3 32 3e
       -0.13260283 -0.19766934 -0.27713817 0.17451343
0003a0 06 3d 97 3e f4 7a ab be 3a 69 6a be 22 3e 80 3e
       0.29538745 -0.33492243 -0.22891703 0.25047404
0003b0 f2 38 53 bd a1 a2 02 3e b2 da 99 3e 86 d7 28 be
       -0.05156798 0.1275735 0.30049664 -0.16488466
0003c0 a6 13 96 be 2d 51 39 3e 98 e3 37 be 81 e9 a8 be
       -0.29311866 0.18097372 -0.17957914 -0.3299065
0003d0 c7 36 83 be 92 e7 52 be 2c 05 ff 3e e7 40 e7 3d
       -0.2562773 -0.2059615 0.49808633 0.11291676
0003e0 ac 97 5a 3e fe 7b 9e 3d 03 db b5 be 43 7c b9 3e
       0.2134692 0.077384934 -0.35518655 0.36227617
0003f0 27 4a c0 bd fc b3 07 be eb bd cd 3e 03 5e 7d be
       -0.093891434 -0.13252252 0.40183958 -0.24742894

net.8.bias f4 [32]
000000 42 8f 07 bc 10 ef 5a 3c 49 b8 1e bb 7f be e5 bb
       -0.008273901 0.013362661 -0.002421873 -0.0070112343
000010 5e 75 3b 3c 60 8f 33 bc eb 02 0b 3c 2a b6 22 bc
       0.011441557 -0.010959476 0.008484582 -0.009931127
000020 d0 19 8f 3c 8b 89 1e 3c c0 19 01 bc 85 2a e3 bb
       0.017468363 0.0096763475 -0.007879674 -0.006932559
000030 bc 7e 79 3b c8 6e 3e bc 49 14 bd 3b e0 d7 79 bb
       0.0038069924 -0.011623092 0.0057702404 -0.0038123056
000040 fd 4a 68 bb 32 c1 84 39 1f 0c 52 bb 4f f0 30 3c
       -0.0035445087 0.00025320944 -0.0032050682 0.0107994815
000050 d8 c1 99 3b ff 00 34 bc 22 7d 7a 39 06 9a 20 3b
       0.0046922974 -0.010986566 0.00023888474 0.0024505868
000060 ac 9a 0e 3b 51 4f 7b 3b 1d a3 77 bb e7 42 d1 3b
       0.0021759672 0.0038346837 -0.0037786432 0.006386149
000070 8f 17 c2 ba c8 55 c2 3b 74 d2 23 3c ec 09 89 bb
       -0.0014808046 0.005930636 0.009998906 -0.004182091

net.10.weight f4 [6, 32]
000000 7f 74 ac be bf 37 a9 be aa 49 8c be d7 b2 70 be
       -0.3368263 -0.33050343 -0.2739995 -0.23505722
000010 54 d6 08 3e 0a 87 1e 3f cc b0 b8 be 73 ab 94 be
       0.1336301 0.61924803 -0.36072385 -0.29037055
000020 e9 9c e7 be 58 69 1c bd c1 5a 2e 3d fa 05 04 bf
       -0.452369 -0.0381864 0.04256702 -0.5157162
000030 39 a9 9d 3e a7 ee 16 bf 77 af 1f 3f 16 c5 1d 3e
       0.3079317 -0.58957905 0.62377113 0.15407214
000040 60 8c a5 bd c3 a9 84 be 84 02 97 3e 21 f6 00 3f
       -0.08083415 -0.25910768 0.29494107 0.5037556
000050 d7 ac dd be e3 cd 13 be f0 7e 00 3f ee fd e1 bd
       -0.4329593 -0.14434008 0.5019369 -0.11034761
000060 56 4a f8 be f0 aa 82 be 49 35 b0 b9 41 38 05 be
       -0.48494214 -0.2552104 -0.00033609036 -0.1300974
000070 49 dc f9 be 3c a3 d5 be f5 19 0b 3e 9a bd de 3e
       -0.48800877 -0.417261 0.1358412 0.4350403
000080 69 7f 27 3f ba 64 96 bd e0 f8 81 3e 3b cd 08 bf
       0.6542879 -0.07343431 0.2538519 -0.53438157
000090 63 f6 cb 3e b5 12 22 3f 50 75 aa 3e e8 51 8c be
       0.39836416 0.63309795 0.33292627 -0.2740624
0000a0 a9 2a 0b 3f dc 0d 24 bf cb ed 8c bd ee 84 46 be
       0.5436197 -0.6408365 -0.06881293 -0.19386646
0000b0 e3 c6 25 bf 5f f5 c4 be a5 d1 f0 be 42 9b 46 3e
       -0.647566 -0.38468453 -0.47034946 0.19395164
0000c0 69 97 55 bd 7b 16 b5 3e 2e 75 1d be 86 f3 08 3f
       -0.05214635 0.35368714 -0.15376732 0.5349659
0000d0 92 70 79 3d e1 1d 0b 3f 77 9a 09 3f cc 64 14 bf
       0.06089837 0.54342467 0.5375132 -0.57966304
0000e0 39 34 e0 be 6e 84 de 3e 45 ac 1d 3f a9 16 11 bf
       -0.43789843 0.4346041 0.6159099 -0.566752
0000f0 f4 25 8f 3c 78 b2 86 be 9a 28 21 3f a9 90 08 3f
       0.017474152 -0.26308036 0.6295258 0.53345734
000100 b0 21 f9 3e 0e 05 b8 3e 21 1b 8b bd 9e be 20 3f
       0.48658514 0.35941356 -0.06792284 0.6279086
000110 8e 63 91 be 3e d4 14 3d 20 fb 34 be 32 f5 f7 be
       -0.28396267 0.036335222 -0.17673922 -0.48429257
000120 63 a1 9f be 45 0f 2d 3e 19 30 80 bd 51 2e e0 be
       -0.31177816 0.16900356 -0.06259174 -0.43785337
000130 e4 1f a9 bd 8e 31 e3 3d e3 d4 e7 be 59 88 cd 3e
       -0.08258036 0.11093436 -0.45279607 0.40143088
000140 26 dd 0f bf a7 57 0d bc 14 68 0c bf 2b ef 17 bf
       -0.5619682 -0.008626855 -0.5484631 -0.59349316
000150 ef 64 c4 bd 69 33 15 3f b5 d6 1c 3f fd 0e 80 3e
       -0.09589564 0.5828157 0.61265117 0.25011435
000160 a6 0b 04 3f fa 4c bf be 55 ac bd 3e f2 70 d2 3e
       0.51580274 -0.37363416 0.3704554 0.41101795
000170 91 63 22 bf 07 11 00 bf 99 22 8c 3e 61 60 88 3d
       -0.63433176 -0.5002598 0.27370146 0.06659008
000180 08 64 ca be 10 1b 09 bf 03 b0 f9 3e 4b 73 83 3d
       -0.39529443 -0.5355692 0.487671 0.06418475
000190 56 6d 04 3d 27 06 27 bf 69 1e 14 3f 13 4e e1 be
       0.032330833 -0.6524376 0.578589 -0.44004878
0001a0 7a 27 90 3e b5 6d d3 bd 73 a1 f7 3a f2 22 ae 3e
       0.28155118 -0.10323659 0.001889272 0.34011036
0001b0 c4 54 32 be 3e ef 29 be 66 90 02 3f e5 d0 f5 be
       -0.17415148 -0.1659517 0.51001585 -0.48010936
0001c0 4b ad 8d 3e 1a c2 53 be 76 d3 4d be 54 49 ef 3e
       0.27671275 -0.20679513 -0.20100197 0.46735632
0001d0 7b 54 08 3e a4 ef 20 bf 7f 15 19 3f d1 70 af be
       0.13313477 -0.6286566 0.59798425 -0.3426576
0001e0 84 25 10 3f 96 48 41 be ee 80 27 3f ee f0 3a 3e
       0.56307244 -0.18875346 0.65431106 0.1825597
0001f0 44 ab 38 bd dc c5 7b 3e 16 d0 47 3b f8 e8 b1 be
       -0.045085207 0.24587196 0.003048902 -0.34748054
000200 99 02 98 3e 79 0b d5 3e da 17 95 bd 2d 09 28 3f
       0.29689482 0.41610315 -0.0727994 0.65639
000210 4f 86 0b bd f8 3d b9 be ef 95 b9 be ba 89 e3 3e
       -0.034063634 -0.3618009 -0.36247203 0.44441015
000220 4a 73 95 be 1e fc ce 3e b4 31 2c bf 33 4d bd 3d
       -0.2918952 0.40426725 -0.6726334 0.0924324
000230 08 2b f4 be 17 1a 84 3e 64 92 04 3f 29 80 82 3e
       -0.4768908 0.25801155 0.51785874 0.25488403
000240 1e 17 80 be 78 2e 2f bf b1 b5 93 be df 65 be be
       -0.25017637 -0.6843028 -0.28849557 -0.37187096
000250 51 1c 2e 3f 5b a3 c8 be a8 c0 72 3e f2 a9 03 3f
       0.6801196 -0.3918713 0.23706305 0.5143119
000260 e6 4b 68 3e 37 46 00 bf 62 d1 bd bd 82 0a 66 be
       0.22685203 -0.5010714 -0.09268452 -0.22464946
000270 85 0d db 3e d1 24 94 bd 58 ae f9 3b 90 09 18 3f
       0.42783752 -0.07233585 0.0076196603 0.5938959
000280 ce 46 21 3e 8d e7 9a 3e 05 c7 50 be c5 04 dd 3e
       0.15749666 0.30254784 -0.2038842 0.431677
000290 4d 07 9b 3d db 98 0a be a3 48 0a 3e a4 a5 04 bf
       0.07569752 -0.13534872 0.13504271 -0.5181525
0002a0 fb ed 8a 3c 93 2a 97 3e 67 62 21 bf 1c 9f a6 be
       0.016959181 0.2952467 -0.63040775 -0.32543266
0002b0 aa 32 d1 3e d9 13 a3 3c b8 5e dc bc b0 29 91 3d
       0.40858966 0.019906925 -0.026900634 0.070880294
0002c0 7d 3d 9a be de 48 0d 3f 7b fe 69 bd 10 36 78 be
       -0.30125037 0.5518931 -0.057127457 -0.24239373
0002d0 74 bd b7 3e 9c fb 0e bf 8c 60 01 be d0 70 3d 3d
       0.3588673 -0.55852675 -0.12634486 0.046250165
0002e0 80 0d 53 be 39 fa b4 3e cc b3 14 bf 92 25 50 be
       -0.20610619 0.35347155 -0.5808685 -0.20326832
0002f0 e9 c1 8a be 1d 6e 1a 3f 4a ed 82 3e 6c fd fb be
       -0.27101067 0.6032427 0.25571662 -0.49216783

net.10.bias f4 [6]
000000 6d c5 05 3c 91 25 8a b9 d7 e6 a6 bb 13 48 3e 3c
       0.008164746 -0.000263494 -0.005093436 0.0116138635
000010 a4 27 ae 3c bf 92 16 3c
       0.021259136 0.00919026

exp_avg f4 [32, 1]
000000 00 00 00 00 00 00 00 00 9c d4 91 3a 00 00 00 00
       0.0 0.0 0.0011125985 0.0
000010 a7 26 70 3a 9a c4 94 3a 00 00 00 00 00 00 00 00
       0.0009161033 0.0011350096 0.0 0.0
000020 00 00 00 00 00 00 00 00 00 00 00 00 0c a2 2c 37
       0.0 0.0 0.0 1.0289728e-05
000030 00 00 00 00 77 2e 96 b2 00 00 00 00 b6 f8 15 ba
       0.0 -1.7483428e-08 0.0 -0.000572096
000040 00 00 00 00 ba 5c 41 b8 00 00 00 00 f5 7e 1d ba
       0.0 -4.6101144e-05 0.0 -0.0006007993
000050 00 00 00 00 57 17 94 ba 04 00 00 00 00 00 00 00
       0.0 -0.001129846 6e-45 0.0
000060 00 00 00 00 00 00 00 00 27 7a 43 ad 00 00 00 00
       0.0 0.0 -1.111159e-11 0.0
000070 21 0b 22 bc 00 00 00 00 00 00 00 00 00 00 00 00
       -0.009890349 0.0 0.0 0.0

exp_avg_sq f4 [32, 1]
000000 00 00 00 00 00 00 00 00 03 15 87 39 00 00 00 00
       0.0 0.0 0.00025764861 0.0
000010 ff 56 3b 39 c6 ef 76 39 00 00 00 00 00 00 00 00
       0.00017866118 0.00023549711 0.0 0.0
000020 00 00 00 00 00 00 00 00 00 00 00 00 72 cc 88 30
       0.0 0.0 0.0 9.953409e-10
000030 00 00 00 00 cd c9 0b 29 00 00 00 00 be 26 86 38
       0.0 3.1039234e-14 0.0 6.396834e-05
000040 00 00 00 00 69 c6 ca 34 00 00 00 00 ab 83 93 38
       0.0 3.7769794e-07 0.0 7.034031e-05
000050 00 00 00 00 7f 52 ae 39 db 44 b4 18 00 00 00 00
       0.0 0.0003324933 4.6598436e-24 0.0
000060 00 00 00 00 00 00 00 00 a3 c8 34 20 00 00 00 00
       0.0 0.0 1.5312978e-19 0.0
000070 91 f8 a1 3c 00 00 00 00 00 00 00 00 00 00 00 00
       0.019771846 0.0 0.0 0.0

exp_avg f4 [32]
000000 00 00 00 00 00 00 00 00 e8 b8 6a 37 00 00 00 00
       0.0 0.0 1.3990539e-05 0.0
000010 c3 19 a4 37 a9 a3 e0 37 00 00 00 00 00 00 00 00
       1.956232e-05 2.6779091e-05 0.0 0.0
000020 00 00 00 00 00 00 00 00 00 00 00 00 bd fc a0 34
       0.0 0.0 0.0 2.9986214e-07
000030 00 00 00 00 df 8a 35 b0 00 00 00 00 38 70 67 b7
       0.0 -6.6044764e-10 0.0 -1.3794801e-05
000040 00 00 00 00 30 d8 36 36 00 00 00 00 4e 7d 44 b7
       0.0 2.724595e-06 0.0 -1.1711685e-05
000050 00 00 00 00 59 af 1f b8 04 00 00 00 00 00 00 00
       0.0 -3.807186e-05 6e-45 0.0
000060 00 00 00 00 00 00 00 00 a9 bf 30 2d 00 00 00 00
       0.0 0.0 1.0046999e-11 0.0
000070 7b 67 43 b9 00 00 00 00 00 00 00 00 00 00 00 00
       -0.00018635199 0.0 0.0 0.0

exp_avg_sq f4 [32]
000000 00 00 00 00 00 00 00 00 4a dd cd 33 00 00 00 00
       0.0 0.0 9.5863086e-08 0.0
000010 4c 79 b1 33 b0 78 f1 33 00 00 00 00 00 00 00 00
       8.2642686e-08 1.124439e-07 0.0 0.0
000020 00 00 00 00 00 00 00 00 00 00 00 00 10 6b 5d 2b
       0.0 0.0 0.0 7.866355e-13
000030 00 00 00 00 4c d4 05 24 00 00 00 00 9f 89 d9 32
       0.0 2.90196e-17 0.0 2.5324708e-08
000040 00 00 00 00 ae 84 8c 2f 00 00 00 00 56 dd 35 33
       0.0 2.5560126e-10 0.0 4.234365e-08
000050 00 00 00 00 4d 5a 57 34 4d 4d dd 13 00 00 00 00
       0.0 2.0056287e-07 5.5864468e-27 0.0
000060 00 00 00 00 00 00 00 00 52 b8 8d 1b 00 00 00 00
       0.0 0.0 2.3445607e-22 0.0
000070 34 c6 e7 36 00 00 00 00 00 00 00 00 00 00 00 00
       6.9074104e-06 0.0 0.0 0.0

exp_avg f4 [32, 32]
000000 eb c1 d2 b5 eb c1 d2 b5 42 8f b2 35 eb c1 d2 b5
       -1.5702657e-06 -1.5702657e-06 1.3303727e-06 -1.5702657e-06
000010 18 1a b6 35 f8 1c bc b5 eb c1 d2 35 eb c1 d2 b5
       1.3567651e-06 -1.4015523e-06 1.5702657e-06 -1.5702657e-06
000020 eb c1 d2 b5 eb c1 d2 35 eb c1 d2 b5 e4 e4 d2 b5
       -1.5702657e-06 1.5702657e-06 -1.5702657e-06 -1.5712835e-06
000030 eb c1 d2 b5 35 c2 d2 b5 eb c1 d2 b5 75 32 bc 35
       -1.5702657e-06 -1.5702741e-06 -1.5702657e-06 1.4021776e-06
000040 eb c1 d2 b5 86 45 d0 b5 eb c1 d2 35 b6 f4 ca b5
       -1.5702657e-06 -1.5517442e-06 1.5702657e-06 -1.5121393e-06
000050 eb c1 d2 35 13 df b0 35 eb c1 d2 35 eb c1 d2 b5
       1.5702657e-06 1.3177945e-06 1.5702657e-06 -1.5702657e-06
000060 eb c1 d2 35 eb c1 d2 35 e9 c1 d2 35 eb c1 d2 35
       1.5702657e-06 1.5702657e-06 1.5702655e-06 1.5702657e-06
000070 ee bc 8b b5 eb c1 d2 35 eb c1 d2 b5 eb c1 d2 35
       -1.0411293e-06 1.5702657e-06 -1.5702657e-06 1.5702657e-06
000080 7b 94 9c 34 7b 94 9c 34 37 f4 84 b4 7b 94 9c 34
       2.9165298e-07 2.9165298e-07 -2.4764606e-07 2.9165298e-07
000090 06 8c 87 b4 32 71 8a 34 7b 94 9c b4 7b 94 9c 34
       -2.524759e-07 2.5786863e-07 -2.9165298e-07 2.9165298e-07
0000a0 7b 94 9c 34 7b 94 9c b4 7b 94 9c 34 0f ed 9b 34
       2.9165298e-07 -2.9165298e-07 2.9165298e-07 2.9043483e-07
0000b0 7b 94 9c 34 45 94 9c 34 7b 94 9c 34 05 20 8b b4
       2.9165298e-07 2.9165145e-07 2.9165298e-07 -2.5914065e-07
0000c0 7b 94 9c 34 25 f9 94 34 7b 94 9c b4 ed d9 92 34
       2.9165298e-07 2.7748425e-07 -2.9165298e-07 2.735318e-07
0000d0 7b 94 9c b4 9c ed 83 b4 7b 94 9c b4 7b 94 9c 34
       -2.9165298e-07 -2.4573535e-07 -2.9165298e-07 2.9165298e-07
0000e0 7b 94 9c b4 7b 94 9c b4 7b 94 9c b4 7b 94 9c b4
       -2.9165298e-07 -2.9165298e-07 -2.9165298e-07 -2.9165298e-07
0000f0 5f 28 57 34 7b 94 9c b4 7b 94 9c 34 7b 94 9c b4
       2.0038122e-07 -2.9165298e-07 2.9165298e-07 -2.9165298e-07
000100 1d b8 59 38 1d b8 59 38 46 a1 23 b8 1d b8 59 38
       5.19083e-05 5.19083e-05 -3.9012426e-05 5.19083e-05
000110 0a 39 2a b8 5d 7d 31 38 1d b8 59 b8 1d b8 59 38
       -4.058428e-05 4.2316842e-05 -5.19083e-05 5.19083e-05
000120 1d b8 59 38 1d b8 59 b8 1d b8 59 38 03 f5 5a 38
       5.19083e-05 -5.19083e-05 5.19083e-05 5.2203435e-05
000130 1d b8 59 38 4f b9 59 38 1d b8 59 38 3e e1 32 b8
       5.19083e-05 5.1909414e-05 5.19083e-05 -4.264828e-05
000140 1d b8 59 38 45 ea 58 38 1d b8 59 b8 ab 60 4b 38
       5.19083e-05 5.1716594e-05 -5.19083e-05 4.8489e-05
000150 1d b8 59 b8 c8 ae 20 b8 1d b8 59 b8 1d b8 59 38
       -5.19083e-05 -3.830975e-05 -5.19083e-05 5.19083e-05
000160 1d b8 59 b8 1d b8 59 b8 0e b8 59 b8 1d b8 59 b8
       -5.19083e-05 -5.19083e-05 -5.1908246e-05 -5.19083e-05
000170 f8 b8 e8 37 1d b8 59 b8 1d b8 59 38 1d b8 59 b8
       2.7742688e-05 -5.19083e-05 5.19083e-05 -5.19083e-05
000180 82 bd 6a b7 82 bd 6a b7 52 f2 3e 37 82 bd 6a b7
       -1.399161e-05 -1.399161e-05 1.1381302e-05 -1.399161e-05
000190 8b 01 44 37 00 0e 4c b7 82 bd 6a 37 82 bd 6a b7
       1.168287e-05 -1.2162607e-05 1.399161e-05 -1.399161e-05
0001a0 82 bd 6a b7 82 bd 6a 37 82 bd 6a b7 17 d9 6b b7
       -1.399161e-05 1.399161e-05 -1.399161e-05 -1.4057637e-05
0001b0 82 bd 6a b7 57 be 6a b7 82 bd 6a b7 28 4e 4c 37
       -1.399161e-05 -1.3991804e-05 -1.399161e-05 1.2177545e-05
0001c0 82 bd 6a b7 07 e5 6c b7 82 bd 6a 37 8d 40 62 b7
       -1.399161e-05 -1.4120021e-05 1.399161e-05 -1.3485679e-05
0001d0 82 bd 6a 37 40 84 3c 37 82 bd 6a 37 82 bd 6a b7
       1.399161e-05 1.1236465e-05 1.399161e-05 -1.399161e-05
0001e0 82 bd 6a 37 82 bd 6a 37 7a bd 6a 37 82 bd 6a 37
       1.399161e-05 1.399161e-05 1.3991603e-05 1.399161e-05
0001f0 5a 5b 0b b7 82 bd 6a 37 82 bd 6a b7 82 bd 6a 37
       -8.306315e-06 1.399161e-05 -1.399161e-05 1.399161e-05
000200 6a b6 2d 38 6a b6 2d 38 d8 3c 24 b8 6a b6 2d 38
       4.14163e-05 4.14163e-05 -3.9157312e-05 4.14163e-05
000210 86 7a 24 b8 f0 df 2c 38 6a b6 2d b8 6a b6 2d 38
       -3.9214756e-05 4.1216554e-05 -4.14163e-05 4.14163e-05
000220 6a b6 2d 38 6a b6 2d b8 6a b6 2d 38 34 e8 2d 38
       4.14163e-05 -4.14163e-05 4.14163e-05 4.146267e-05
000230 6a b6 2d 38 5a b6 2d 38 6a b6 2d 38 71 1c 2a b8
       4.14163e-05 4.1416242e-05 4.14163e-05 -4.0557647e-05
000240 6a b6 2d 38 57 38 34 38 6a b6 2d b8 4b df 34 38
       4.14163e-05 4.2967815e-05 -4.14163e-05 4.3123302e-05
000250 6a b6 2d b8 45 89 23 b8 6a b6 2d b8 6a b6 2d 38
       -4.14163e-05 -3.899007e-05 -4.14163e-05 4.14163e-05
000260 6a b6 2d b8 6a b6 2d b8 76 b6 2d b8 6a b6 2d b8
       -4.14163e-05 -4.14163e-05 -4.1416344e-05 -4.14163e-05
000270 d3 c9 f4 37 6a b6 2d b8 6a b6 2d 38 6a b6 2d b8
       2.9181048e-05 -4.14163e-05 4.14163e-05 -4.14163e-05
000280 b4 62 16 b8 b4 62 16 b8 ed 06 ef 37 b4 62 16 b8
       -3.585471e-05 -3.585471e-05 2.8494245e-05 -3.585471e-05
000290 96 ea f5 37 f6 a6 01 b8 b4 62 16 38 b4 62 16 b8
       2.9315514e-05 -3.091149e-05 3.585471e-05 -3.585471e-05
0002a0 b4 62 16 b8 b4 62 16 38 b4 62 16 b8 92 c1 17 b8
       -3.585471e-05 3.585471e-05 -3.585471e-05 -3.6181482e-05
0002b0 b4 62 16 b8 b9 63 16 b8 b4 62 16 b8 26 70 01 38
       -3.585471e-05 -3.585566e-05 -3.585471e-05 3.0860443e-05
0002c0 b4 62 16 b8 c7 c5 1a b8 b4 62 16 38 5a 2b 12 b8
       -3.585471e-05 -3.6900656e-05 3.585471e-05 -3.4849487e-05
0002d0 b4 62 16 38 b6 76 eb 37 b4 62 16 38 b4 62 16 b8
       3.585471e-05 2.8069462e-05 3.585471e-05 -3.585471e-05
0002e0 b4 62 16 38 b4 62 16 38 ab 62 16 38 b4 62 16 38
       3.585471e-05 3.585471e-05 3.585468e-05 3.585471e-05
0002f0 d5 df 9a b7 b4 62 16 38 b4 62 16 b8 b4 62 16 38
       -1.846246e-05 3.585471e-05 -3.585471e-05 3.585471e-05
000300 b0 1d b4 37 b0 1d b4 37 95 45 91 b7 b0 1d b4 37
       2.1471496e-05 2.1471496e-05 -1.7317749e-05 2.1471496e-05
000310 bb 22 95 b7 91 1d 9a 37 b0 1d b4 b7 b0 1d b4 37
       -1.7778357e-05 1.8371999e-05 -2.1471496e-05 2.1471496e-05
000320 b0 1d b4 37 b0 1d b4 b7 b0 1d b4 37 16 bb b3 37
       2.1471496e-05 -2.1471496e-05 2.1471496e-05 2.1425582e-05
000330 b0 1d b4 37 af 1d b4 37 b0 1d b4 37 61 da 9a b7
       2.1471496e-05 2.1471495e-05 2.1471496e-05 -1.8459921e-05
000340 b0 1d b4 37 0c de ac 37 b0 1d b4 b7 0e 0e a8 37
       2.1471496e-05 2.0607396e-05 -2.1471496e-05 2.0033705e-05
000350 b0 1d b4 b7 f6 9f 8f b7 b0 1d b4 b7 b0 1d b4 37
       -2.1471496e-05 -1.7121416e-05 -2.1471496e-05 2.1471496e-05
000360 b0 1d b4 b7 b0 1d b4 b7 ac 1d b4 b7 b0 1d b4 b7
       -2.1471496e-05 -2.1471496e-05 -2.147149e-05 -2.1471496e-05
000370 4f d1 55 37 b0 1d b4 b7 b0 1d b4 37 b0 1d b4 b7
       1.2744523e-05 -2.1471496e-05 2.1471496e-05 -2.1471496e-05
000380 97 9d d0 b6 97 9d d0 b6 94 aa 9e 36 97 9d d0 b6
       -6.217229e-06 -6.217229e-06 4.728625e-06 -6.217229e-06
000390 31 63 a4 36 e6 3e ab b6 97 9d d0 36 97 9d d0 b6
       4.8991283e-06 -5.1035195e-06 6.217229e-06 -6.217229e-06
0003a0 97 9d d0 b6 97 9d d0 36 97 9d d0 b6 ee 68 d0 b6
       -6.217229e-06 6.217229e-06 -6.217229e-06 -6.2110985e-06
0003b0 97 9d d0 b6 d7 9d d0 b6 97 9d d0 b6 61 65 ac 36
       -6.217229e-06 -6.217258e-06 -6.217229e-06 5.1378015e-06
0003c0 97 9d d0 b6 c1 fe c7 b6 97 9d d0 36 be 0d c0 b6
       -6.217229e-06 -5.9603194e-06 6.217229e-06 -5.7236457e-06
0003d0 97 9d d0 36 cd 30 9c 36 97 9d d0 36 97 9d d0 b6
       6.217229e-06 4.6548435e-06 6.217229e-06 -6.217229e-06
0003e0 97 9d d0 36 97 9d d0 36 92 9d d0 36 97 9d d0 36
       6.217229e-06 6.217229e-06 6.2172267e-06 6.217229e-06
0003f0 d1 2b 5d b6 97 9d d0 36 97 9d d0 b6 97 9d d0 36
       -3.295707e-06 6.217229e-06 -6.217229e-06 6.217229e-06
