models/SIHCRDNet.pt (torch, 74073 bytes, 36 tensors)

net.0.weight f4 [32, 1]
000000 60 3c 04 3f 17 00 27 3f 70 66 31 be e8 63 27 3f
       0.51654625 0.6523451 -0.17324233 0.6538682
000010 67 bc 03 be 38 91 f9 3d 58 a4 d0 be 90 eb da 3e
       -0.12864839 0.121859014 -0.40750384 0.42757845
000020 e5 b0 27 3f 7d 94 0b bf 4d 3e 1c 3f 04 e6 03 3e
       0.65504295 -0.5452345 0.61032563 0.12880713
000030 f7 28 02 3f 2c e6 b9 3d 5e e7 aa 3e ae 7d 11 bd
       0.5084376 0.09077105 0.33379644 -0.035520248
000040 9c e6 07 3f 72 a4 61 3d da 15 a5 be 2f e4 63 3e
       0.53086257 0.055088468 -0.32243234 0.22255014
000050 d8 d9 ae be 37 f7 5d bd 88 55 a4 be e2 55 ed 3e
       -0.34150577 -0.05419084 -0.32096505 0.46354586
000060 2e 57 10 bf 9c 8c aa be 98 d4 37 be d2 46 da be
       -0.56383026 -0.333104 -0.17952192 -0.42632157
000070 5b 68 08 3c 32 4f 2e bf 87 b5 25 3f 4e 5e 1b bf
       0.0083256615 -0.6808959 0.64730114 -0.6069077

net.0.bias f4 [32]
000000 db 8d 9b 3c d3 2a 1c 3d 47 45 83 bc 94 1e fa bb
       0.01898854 0.038126778 -0.016024245 -0.0076330397
000010 0d 2f f6 bc 78 90 2a 3d de 02 09 3c af 3d d6 3c
       -0.030051732 0.041641682 0.0083625 0.02615246
000020 9d 91 b0 3a 46 75 61 bc 76 f3 b4 3c d1 1a bb 3b
       0.001347113 -0.01376087 0.022088747 0.005709984
000030 34 e1 0d bd d9 4b e5 bb f4 a9 dd 3d 84 f8 d8 3d
       -0.0346386 -0.006997567 0.108234316 0.105942756
000040 fd 82 f6 3a 9f 7b 2f bd 5a 12 b6 bc 48 f4 1b bb
       0.0018807348 -0.042842504 -0.022225548 -0.0023796726
000050 37 80 1a bc 0a 14 dd 3d 1d 22 80 bd 02 23 1d bb
       -0.009429983 0.10794838 -0.062565066 -0.0023977165
000060 bb ef 9f bc e4 f1 5f 3d ab d3 dd 3c 78 6d 6c bd
       -0.019523492 0.054674044 0.02707847 -0.057721585
000070 63 bc 93 bd 7d 33 a3 3c 21 8f 47 3c 4c b4 71 bc
       -0.07213666 0.019922012 0.012180121 -0.014752459

net.2.weight f4 [32, 32]
000000 bb 5c c5 3e ef 40 9d 3d b6 6d 20 be b5 0e 9d 3e
       0.3854731 0.07678401 -0.15666851 0.30675283
000010 0b 60 b3 3d 28 b4 cf 3e c4 93 85 3d 7a 54 2d be
       0.08758553 0.40567136 0.06522325 -0.16926757
000020 92 8b 03 3e f8 31 05 be bb 7c 53 3e 06 e9 e4 3e
       0.1284621 -0.13007343 0.2065305 0.44709033
000030 c2 7a 92 3e 0c 9c 6e be 2f ff 92 3e ba fb d4 3d
       0.28609282 -0.23301715 0.28710315 0.103995755
000040 72 3f 80 3e 26 96 a5 be a7 42 fe be 53 bd 52 be
       0.25048405 -0.32341117 -0.49660227 -0.20580034
000050 8f 15 c4 be e6 2d de 3e da 42 1e 3e 54 cc 4f 3e
       -0.38297698 0.43394393 0.1545519 0.20292789
000060 07 b0 2d 3e 22 85 8d 3a 43 83 d1 3e 4a a3 b5 be
       0.1696168 0.0010797123 0.40920457 -0.35476142
000070 d9 fc a8 3c c0 df ad be 54 9b 18 3e b9 82 2b be
       0.02062838 -0.3395977 0.14903003 -0.16749085
000080 08 ef 33 3e b8 89 af bd 2c 0a cf 3e bd 93 90 be
       0.17571652 -0.0857119 0.40437448 -0.28237715
000090 bd 8c a5 be 32 07 92 be 55 5c e1 3e 66 ab 42 3e
       -0.32333937 -0.28521115 0.44015756 0.19010696
0000a0 38 df 02 3f b0 33 e2 be b3 e6 f8 be 12 3b c2 be
       0.51121855 -0.4418006 -0.4861351 -0.37935692
0000b0 03 ab a5 be 35 6e 68 3e 77 3e 4e 3e 19 6b d2 3e
       -0.32357034 0.2269829 0.20141016 0.41097334
0000c0 93 ba 79 be b9 3c a6 be 56 09 81 3e c1 94 3e be
       -0.24387579 -0.32468203 0.25202435 -0.18611433
0000d0 42 92 94 3e 20 f4 0e be 7a 2e 8b 3e 7b c8 c0 be
       0.29017836 -0.13960314 0.27183896 -0.37652954
0000e0 1a 23 8e be 9d 43 0c 3e d9 31 b5 3d 41 62 19 be
       -0.27761155 0.13697667 0.08847398 -0.14978887
0000f0 a3 fc a3 3e e3 87 a7 3e ec 39 b3 be 47 cb 95 be
       0.32028684 0.3272086 -0.35005128 -0.2925665
000100 d4 21 ec 3e 44 3c 35 be cc 9d 13 be 76 59 ff be
       0.4611956 -0.17698771 -0.14415663 -0.4987294
000110 d4 75 87 be 99 bd e0 3d 40 8b 38 bd b5 c6 c3 be
       -0.26457083 0.10973663 -0.045054674 -0.3823754
000120 a8 0c e5 3b eb 98 af be a6 3a e0 be fd 6d 98 be
       0.006990034 -0.34296355 -0.43794745 -0.29771414
000130 7e 49 e8 be ef 45 a9 be e1 d5 f8 3e 31 48 c8 3d
       -0.4536857 -0.33061168 0.48600677 0.097793944
000140 90 b5 1a 3e 56 2b fe be 52 80 9c be 3e 0a 5b be
       0.15108323 -0.49642438 -0.3056665 -0.21390626
000150 32 3a df 3d e1 b0 fb be ee c5 3b be 6d 2f a1 be
       0.10899772 -0.49158385 -0.18337223 -0.31481495
000160 c4 37 e6 3b 4d a2 1e be d6 d1 8d 3c 82 2c ab be
       0.0070256907 -0.154916 0.017311972 -0.33432394
000170 29 cb d5 be 81 e9 95 be 39 dd 37 be da 9d cb be
       -0.4175656 -0.29279712 -0.17955483 -0.3976887
000180 77 bf d6 3e c4 ad dd bd 7b 5b dc 3e 99 5c 1c 3e
       0.4194295 -0.10824159 0.43038544 0.15269698
000190 f8 9b e7 be c3 0e c2 3e c8 15 03 be 35 3f 54 be
       -0.45236182 0.37901887 -0.12801278 -0.20727237
0001a0 88 32 dc be 3e a6 ff be 45 4d 0e 3e 05 4b 9c bd
       -0.43007302 -0.4993152 0.13896663 -0.07631496
0001b0 6c 8e 42 3e c6 2d c1 be d5 6b bb 3e db b3 c6 be
       0.18999642 -0.37730235 0.36605707 -0.38809094
0001c0 43 43 c5 bd cc 3c 07 3e 16 2b 8d 3e 11 d9 d1 3e
       -0.0963197 0.13206786 0.27571934 0.4098592
0001d0 b4 93 f4 3e 14 5f f3 be 29 cf 10 3e 06 75 6b be
       0.4776894 -0.47533476 0.14141525 -0.2299386
0001e0 54 76 44 bd 9e 8e bd be 60 96 f0 3e 7b b8 b9 be
       -0.04796441 -0.3702287 0.46989727 -0.3627356
0001f0 c3 ac 93 3e a5 eb 3d 3e 95 ea 22 3e 68 98 89 be
       0.28842744 0.18546923 0.15909798 -0.2687409
000200 99 3e f1 3e d6 a7 f1 3d 33 e4 3c 3d 58 39 e3 be
       0.4711807 0.1179959 0.046116065 -0.44379687
000210 8f de 43 3e b1 ac 58 bd ba 87 7a be c1 18 e5 3e
       0.19127868 -0.052899066 -0.24465838 0.44745448
000220 41 94 f5 3d 28 e9 93 be 3b 11 81 be 0c 54 a7 3a
       0.11991168 -0.28888822 -0.25208458 0.0012766137
000230 92 b0 95 3e 7e e6 cc bd 17 54 8f be 86 b1 4b be
       0.29236275 -0.100049004 -0.27993843 -0.19891939
000240 ce 7c bf be e0 d3 56 3e f7 67 c4 3e a4 cc ed be
       -0.37399906 0.20979261 0.3836057 -0.4644519
000250 af 44 dc 3d 59 80 76 3e 59 e4 a5 3d 67 b2 31 be
       0.10755288 0.24072398 0.081001945 -0.17353211
000260 08 eb 84 3e 11 52 83 3e 96 24 33 3e af 03 ca bd
       0.25960565 0.2564855 0.17494425 -0.09863984
000270 ab 6f 24 be 4b 0c 47 3d 76 38 ac bd 03 26 22 be
       -0.16058223 0.048595708 -0.084092066 -0.15834813
000280 71 2e a3 3e fd fd df 3e 6d b0 01 bd 8d 58 ec bd
       0.3187137 0.43748465 -0.031662393 -0.11540327
000290 43 fc f1 3c 49 2e 60 bd e4 8b 18 3e d7 62 05 3e
       0.029539233 -0.05473164 0.14897114 0.13025986
0002a0 3d 6d ee be 29 b8 3b be f8 23 db 3e 12 41 30 3e
       -0.46567717 -0.1833197 0.4280088 0.17212322
0002b0 cd 32 0c bd ab 79 ae be 82 2d a8 be 5e ef cb be
       -0.034228135 -0.340772 -0.3284722 -0.3983106
0002c0 3b c5 31 be 37 7b 11 3e c9 b3 b0 3e a3 63 61 3e
       -0.17360394 0.14207159 0.34512165 0.22010665
0002d0 d4 25 de be 10 34 7a be a2 91 82 bd e5 bd f7 3e
       -0.43388236 -0.24433923 -0.063754335 0.48387066
0002e0 9d da 9f 3d 11 25 de bd c0 5f 69 3e 60 6b 3c be
       0.07805369 -0.108469136 0.22790432 -0.18400335
0002f0 97 ae e5 be 2a 01 bf 3e 5e c5 6e be f9 e5 cc bd
       -0.44859764 0.37305576 -0.23317477 -0.10004801
000300 3f bb 03 bf c2 95 ab 3e 31 ee ce 3e a1 0d 38 3e
       -0.5145759 0.33512694 0.404161 0.17973949
000310 ac 36 ae be 09 cb 04 bf 9e b2 cf be ac a2 be 3e
       -0.34026086 -0.5187231 -0.40565962 0.37233484
000320 9a 68 74 3e b1 5e df 3e 14 8b 85 3e 65 c3 ea 3d
       0.23868027 0.4362693 0.2608267 0.1146305
000330 65 a5 43 bc b1 e0 cc be cb 24 e5 be da bd f3 be
       -0.011941289 -0.40015176 -0.44754633 -0.47605783
000340 6a d5 4e 3e 7e 32 84 be 96 a1 bc bd ca 0b 9f be
       0.20198599 -0.25819772 -0.092105076 -0.31063682
000350 77 4f a9 bd 0a 12 b4 be 75 c7 a4 be 73 93 25 3e
       -0.0826711 -0.35170013 -0.32183424 0.16169529
000360 47 4d 14 be 1e ca a6 3e b5 6d 15 be d6 78 bb be
       -0.14482604 0.32576078 -0.14592631 -0.36615628
000370 f2 36 95 bd b7 19 77 be d0 64 26 be 58 61 f5 be
       -0.072858706 -0.24130903 -0.16249394 -0.4792583
000380 7f b7 92 3e 51 01 b6 be 03 a0 7f 3e fe 59 6d 3e
       0.2865562 -0.3554788 0.24963383 0.2317886
000390 99 4d b7 3e a0 eb c4 be 21 c8 ba 3e d3 bb 75 be
       0.3580139 -0.38461018 0.3648081 -0.2399743
0003a0 98 24 42 3e cb 4e f5 3e 33 a6 92 bd 75 91 53 3b
       0.18959272 0.47911677 -0.07160606 0.0032282744
0003b0 5d 93 ee bd fe 2e d5 be cf 3f 7d 3e 01 2c 08 bf
       -0.11649201 -0.41637415 0.24731372 -0.53192145
0003c0 fc ae a2 3e 32 84 c7 3e de d2 f5 3e ce 29 ed bd
       0.31774127 0.38968045 0.4801244 -0.11580239
0003d0 b7 d2 d7 be 16 30 c4 3d 47 1c 8f 3e f0 bb 01 bf
       -0.4215295 0.09579484 0.2795126 -0.50677395
0003e0 f8 4c ee bd ac 20 9e be d7 22 4f bd b6 48 81 be
       -0.116357744 -0.30884302 -0.050570335 -0.25250787
0003f0 9b a8 29 be 36 42 26 be 85 2a f8 be ce 37 d6 3e
       -0.16568224 -0.16236195 -0.4846994 0.4183945

net.2.bias f4 [32]
000000 ec 3d 50 3d ab 27 47 3d 12 73 a7 3c 2e 68 a7 3b
       0.050840303 0.048621815 0.020440612 0.0051088547
000010 f6 cf 29 bb fd 09 1b 3d 98 56 85 3a 8c 3b 6a bc
       -0.0025911308 0.037851322 0.0010172902 -0.014296424
000020 13 ba 96 3c 7b 97 85 3c 66 40 2d 3d ea 42 08 3d
       0.018399274 0.016307583 0.042297743 0.03326694
000030 67 c2 52 bc 20 12 02 3d af f0 60 3c 49 ce ad ba
       -0.012863732 0.031755567 0.013729258 -0.001326033
000040 45 ee e2 bc f9 f1 31 bc d0 9c 5c 3a 37 dc e3 bc
       -0.027701506 -0.010860913 0.0008415701 -0.027814968
000050 0a 68 54 bb 83 70 4e bc a4 02 38 3c f4 fb 95 3b
       -0.0032410645 -0.012600067 0.011231098 0.0045771543
000060 ec ba 17 3d 9a f3 9c 3a a5 76 80 bc 32 ac ef bb
       0.037043497 0.0011974454 -0.015681574 -0.0073142285
000070 9f 2e ce bb fd 6e e8 3d 7a 3d 1e bc a2 bf fe bb
       -0.0062921788 0.11349294 -0.009658212 -0.0077743093

net.4.weight f4 [32, 32]
000000 dc e0 9f bd c8 64 52 be 50 b1 2e be a5 b7 dd be
       -0.078065604 -0.20546257 -0.17059827 -0.43304172
000010 db 4e cd be 6e 38 95 3e 06 d3 dc 3e 88 98 fc 3e
       -0.40099224 0.29144615 0.43129748 0.49335122
000020 1d e8 b7 be 75 ee 8f 3e 8d 10 a4 be 96 d2 98 3e
       -0.35919276 0.28111616 -0.32043877 0.29848164
000030 65 fd c4 3e f6 7d cd 3e 5b f7 b8 3e b6 e1 a6 3e
       0.38474575 0.40135163 0.36126217 0.3259408
000040 e8 bb 0c 3a 4e 26 5a 3e 6b cd 51 be ab 4f 5b 3e
       0.00053685764 0.21303675 -0.20488517 0.2141711
000050 ba 3c 2c be 21 fb 87 bc f6 82 18 bf 21 49 06 be
       -0.1682004 -0.01659924 -0.5957483 -0.13113834
000060 6c d4 8d be b5 0e 32 be 3b 4b b1 be f5 49 e7 be
       -0.27701128 -0.17388423 -0.3462771 -0.45173612
000070 b7 3f 22 3d b8 0f a7 3e 87 83 f1 3e 9b 9e 8f 3e
       0.039611544 0.3262918 0.4717066 0.28050694
000080 e2 76 8a be f6 9d fc be 09 d6 7b 3e 12 57 89 3e
       -0.27043825 -0.49339265 0.24593367 0.26824242
000090 65 0d d4 be a3 69 20 3e d2 03 d7 3e 5f d0 31 3d
       -0.4141647 0.15665297 0.41995102 0.04341161
0000a0 77 27 98 be b8 09 e2 3e 92 03 4c 3e 7d 8f a4 3e
       -0.2971761 0.4414804 0.19923237 0.32140723
0000b0 7e a3 ce be a2 70 9f 3e 83 2b ba be 67 dc 04 3f
       -0.4035911 0.3114062 -0.36361322 0.5189881
0000c0 69 6a 65 be 59 8a b9 3e 75 b1 df 3d 46 cc 04 3e
       -0.22403874 0.36238363 0.10922519 0.12968549
0000d0 c2 7c ea bd 06 bb 4a 3e ee 0a 42 be 34 0e da be
       -0.11449577 0.19797906 -0.18949482 -0.4258896
0000e0 66 1c 50 be b1 42 c2 3e 87 5b 07 be 46 00 30 3e
       -0.20323333 0.37941507 -0.13218509 0.17187604
0000f0 42 91 32 be 16 fb b8 3e 17 01 a3 3e e8 1d 32 3e
       -0.17438224 0.36129063 0.3183677 0.17394221
000100 3d b7 70 be 3c a9 de be d3 a3 66 bd aa 3f 8f be
       -0.235074 -0.4348849 -0.05630858 -0.2797826
000110 95 cf cc 3e 69 d3 f5 be 84 03 77 3e 6f b7 fa 3e
       0.40002123 -0.48012856 0.24122435 0.48968074
000120 47 16 70 3e 29 58 10 3e d9 35 f2 be 46 8c 02 3f
       0.23445998 0.1409613 -0.47306708 0.5099529
000130 17 7b b6 bd d0 0d fe be eb de 05 3f 1f 98 68 be
       -0.08910196 -0.49619913 0.5229327 -0.2271428
000140 06 0b 4b bc 97 36 ec 3e e2 1f af be 3a c8 b2 be
       -0.012392765 0.461354 -0.34204012 -0.34918386
000150 f5 fc d9 3d a8 8a 46 bd ae 4f 0b 3e 75 81 f1 be
       0.10643951 -0.048472077 0.13604614 -0.4716908
000160 b8 90 26 3d 8f 75 51 be bc 9b 80 be 43 68 f8 be
       0.04066536 -0.20455001 -0.25118816 -0.48517045
000170 83 0e 81 3e 16 22 ef 3d 5a c7 e6 be 34 d4 d9 3e
       0.25206384 0.11676423 -0.45073968 0.4254471
000180 dc 3e 1a 3e 93 65 cf 3d 95 be b3 be 21 94 92 3d
       0.15063041 0.101267956 -0.3510634 0.071571596
000190 f5 f6 fb 3e c1 0f af 3e 68 1f d0 be 92 be ef 3e
       0.4921185 0.34191707 -0.4064896 0.4682508
0001a0 d3 c2 34 3d 7b 81 61 3e 0f 2b c8 3e 4d d9 dc 3e
       0.04413111 0.22022049 0.3909535 0.43134537
0001b0 2f 2d bc be 80 6e e6 3e e0 cb b3 be 70 d2 2c 3d
       -0.36753222 0.4500618 -0.35116482 0.042192876
0001c0 06 dc b8 be 67 83 aa bc 0c 7f a4 bc 87 59 6e bd
       -0.36105365 -0.02081461 -0.020080112 -0.05819085
0001d0 68 cc 9b bd a1 f6 11 3d 9c c9 fc 3e 34 d9 8d 3e
       -0.07607347 0.035635594 0.49372566 0.27704775
0001e0 22 61 90 3e 5b 00 44 3e 72 f1 c2 3e 5c f4 98 bc
       0.28199106 0.1914076 0.38074833 -0.018671207
0001f0 5a 0c 3e 3d c4 70 d5 3d ca 5c e1 be 21 43 dd be
       0.046398498 0.10421899 -0.44016105 -0.43215278
000200 21 59 77 3d 98 ae 4b be 5a 18 97 bc 5c 29 f1 bd
       0.060387734 -0.19890821 -0.018444229 -0.11775467
000210 ca 94 a0 3d dc 9a a9 3e cb 30 30 be 76 ff d0 3e
       0.07840879 0.3312596 -0.17206113 0.408199
000220 a8 85 ce 3e 55 dc cd be b9 b0 c9 be 8b 67 d3 be
       0.40336347 -0.40207162 -0.3939264 -0.41289935
000230 2d 30 96 be 89 93 4b be ab b0 1c bd 58 18 fe bd
       -0.2933363 -0.19880499 -0.03825442 -0.12406987
000240 4d e5 84 be e4 30 1b be d2 cc 38 be 5f 54 01 3f
       -0.25956193 -0.15155369 -0.18046883 0.50519365
000250 e3 d8 3e be 88 3e bb be 80 7e 7e 3e 35 3c e7 bc
       -0.18637423 -0.36571145 0.24852943 -0.028226951
000260 ef 1d c7 3e cb 3c a3 3e 1f fa f1 3e 59 3b bf be
       0.38890025 0.3188232 0.4726114 -0.37349966
000270 3b 09 a8 3e 18 de db 3e 2a e7 80 be 7a bc ee 3e
       0.32819542 0.42942882 -0.25176364 0.4662817
000280 9a 73 bf 3e 32 d6 89 3c b8 07 81 3e 70 c2 40 be
       0.37392884 0.01682577 0.252012 -0.18824172
000290 f1 20 de be e9 cd fc 3d 9a 6f 11 3e d8 93 a5 be
       -0.43384507 0.12343962 0.14202729 -0.32339358
0002a0 30 94 84 3e e5 3c d7 be 1d f9 da 3e 1f 64 f7 3e
       0.25894308 -0.42038646 0.42768183 0.48318574
0002b0 4d 76 fd 3d 2a 06 9e be 8c a3 72 3e a7 77 c9 3d
       0.1237608 -0.30864078 0.236952 0.09837275
0002c0 f8 11 03 3e a8 3a 51 3e 15 13 c4 3e f5 b2 6c be
       0.12799823 0.20432532 0.38295808 -0.23115142
0002d0 82 f8 06 be 6b 3e 03 3e bd 2c 54 3d e4 cc d8 3e
       -0.13180736 0.1281678 0.05180048 0.4234382
0002e0 b5 51 8e be 6c 0e fa bc a2 f1 ac 3d f6 43 00 be
       -0.27796713 -0.030524455 0.08444525 -0.12525925
0002f0 6c 86 b8 3e 17 87 39 3d 1d 60 eb be 4e f3 75 bd
       0.36040056 0.045294847 -0.45971766 -0.060046487
000300 b1 34 7a be 7f dd 70 3d be 1e 81 bd 2b 79 03 bf
       -0.24434163 0.058804985 -0.06304692 -0.5135676
000310 e7 a5 ad bd f3 23 5b bd 64 93 23 be af 62 f5 3e
       -0.08478909 -0.05350108 -0.15974194 0.47926852
000320 df 0a ca bd 7b b5 af 3e b4 0b ed 3d 66 01 e2 be
       -0.09865355 0.34318146 0.11574498 -0.44141692
000330 fd 29 1e 3e 68 fa dd 3e 5f ec af be 7c 09 a3 be
       0.15445705 0.43355107 -0.34360024 -0.31843174
000340 3d ac f9 3e 67 4f d7 3e e5 1d 95 be e6 c6 97 3e
       0.4876422 0.42052767 -0.2912437 0.29643935
000350 e0 d2 9e bd aa b2 03 bf 31 a0 d2 3c e9 5b 2c 3e
       -0.07755065 -0.51444495 0.02571115 0.16831936
000360 0f 33 29 be c3 76 2a 3e c4 fd e4 be 25 27 ba 3e
       -0.16523384 0.16646867 -0.44724858 0.3635799
000370 d0 a1 e4 3e 66 03 8b 3e 9a 5f ca 3d 6b 1d 25 3e
       0.44654703 0.2715103 0.09881516 0.16124503
000380 35 3c be be d8 f6 ed bd e6 d2 9b be 71 07 a5 be
       -0.3715531 -0.11619347 -0.3043434 -0.3223224
000390 29 74 ac be 6d 26 89 3e b1 1d ad 3e b0 43 e3 be
       -0.33682373 0.2678713 0.33811715 -0.4438758
0003a0 90 41 30 3e 8e 75 4e 3e aa d3 e7 3e 3b 15 8c 3e
       0.1721251 0.20162031 0.45278674 0.27359948
0003b0 40 4d 27 3f 68 4c 19 be bf 64 ac 3e 69 63 dc 3e
       0.6535225 -0.14970553 0.33670613 0.43044594
0003c0 f3 0a f7 be 0d 5b f9 be 4a 6f a1 bc a1 72 99 3e
       -0.4825054 -0.4870228 -0.019706387 0.29970267
0003d0 c3 f7 87 be 85 ed 39 3d 25 00 d9 bd 3c ae 35 3e
       -0.26556215 0.045392532 -0.10595731 0.17742246
0003e0 d5 a5 8d be 45 44 97 3e 13 4d b4 3e ac 84 ad be
       -0.27665582 0.29544273 0.35215053 -0.33890283
0003f0 a2 88 98 3c 31 81 28 bd 19 c9 32 3e 90 95 bc 3e
       0.01861984 -0.04113883 0.17459525 0.36832857

net.4.bias f4 [32]
000000 5c 0f d0 bb 41 be 3a 3c df d3 9d b9 a3 15 4b 3d
       -0.006349487 0.011397899 -0.0003010323 0.04958118
000010 e0 03 a7 3b 3d 90 dd 3c 25 a1 08 bc 32 68 42 bb
       0.0050968975 0.027046317 -0.008339201 -0.0029664156
000020 39 9e 80 bd e4 8f 1b bc 53 ec 7c 3c e0 51 38 3b
       -0.062801786 -0.009494755 0.015437203 0.0028124973
000030 0c 40 2b 3a 3b ad 4e bc 7b f9 95 bb d7 81 a7 bc
       0.0006532676 -0.012614544 -0.0045768595 -0.020447655
000040 e7 6a 80 bb a4 c8 d2 bb fe 1c 4b 3c 0b 43 59 3a
       -0.0039189938 -0.0064326096 0.012397049 0.0008287883
000050 09 ee b9 3c f8 4e 09 3b b5 27 21 3c aa cd 68 ba
       0.022696512 0.002095161 0.009836127 -0.0008880744
000060 dc 8f 3d 3c 86 eb e9 bc 34 d5 98 3c 26 03 e9 bb
       0.011569943 -0.02855469 0.01865635 -0.007110971
000070 e3 5f 20 bc c3 7d f8 bb bb 3b 3a 3b 9b bc 2f 3c
       -0.009788486 -0.0075833513 0.002841695 0.010726119

net.6.weight f4 [32, 32]
000000 0c 2e df be c8 ef b2 3e cb 20 8a bd 50 4d 98 bd
       -0.43589818 0.34948564 -0.06744536 -0.07436621
000010 c2 01 13 3e af 5a cb 3e aa 38 8d be 38 49 ac be
       0.1435614 0.39717624 -0.27582294 -0.3364961
000020 c8 46 b4 3e eb 05 01 bf c0 62 0b 3e 91 a8 98 bc
       0.35210252 -0.50399655 0.13611889 -0.018635066
000030 9c 59 16 3e dc de c8 3e 76 47 8b be b0 55 7d be
       0.14682621 0.39232528 -0.27202958 -0.24739718
000040 29 4e 8c 3e 0f e2 47 3e cd d7 55 bd 86 c9 e9 be
       0.2740338 0.19519828 -0.052207757 -0.45661563
000050 83 76 dc 3e c0 5c ae bc 25 c9 14 be 5b 7c 4c be
       0.43059167 -0.021284461 -0.14529856 -0.19969313
000060 e1 55 c2 bd 33 90 7c 3e 0d 6f ad bd 9a c6 10 3f
       -0.09489036 0.24664383 -0.08468447 0.5655304
000070 83 97 b7 bc de 92 90 bd 10 a9 98 3e 78 80 05 bc
       -0.022411114 -0.07059263 0.29816484 -0.008148305
000080 2d 2e 5d bd 80 28 2b 3e b0 5c c7 3e 47 b7 f7 3d
       -0.053999115 0.16714668 0.38937902 0.12095504
000090 42 2e b0 3e 97 ae a6 3e 96 6c 19 3e 5c 96 3c 3e
       0.34410292 0.32555076 0.14982828 0.18416733
0000a0 1a 17 1f 3e 1c 24 4c 3e 3a 3a dc 3e 63 2e e7 3e
       0.15536156 0.1993565 0.43013173 0.45152578
0000b0 ff 66 38 3e f8 74 9e bc ff 6f e8 3e 76 23 ce be
       0.1800804 -0.019342884 0.45397946 -0.4026143
0000c0 c1 f6 bb 3e 8d c4 e5 3d 83 5e a5 3e 91 b6 a7 bc
       0.36711696 0.1121913 0.3229867 -0.020472797
0000d0 35 fc c7 be b6 f0 b1 3e 62 dd 56 be f4 fe 0d 3e
       -0.39059606 0.3475396 -0.20982888 0.13866788
0000e0 c9 b1 90 3e ef c5 f1 be 75 97 0b 3d 60 d7 46 be
       0.2826064 -0.47221324 0.034079988 -0.19418097
0000f0 e6 0b bc 3e 17 70 a4 be d3 d8 9e 3e d7 f3 a4 3e
       0.36727828 -0.32116768 0.310248 0.32217285
000100 e9 c7 88 3e 1d 2d fb 3e 79 8e b6 3d 05 85 e5 be
       0.2671502 0.49057856 0.08913893 -0.44828048
000110 3b 00 bd 3e 55 ba 37 3d b4 f3 3d 3c 86 3e f6 be
       0.36914238 0.044855434 0.011593748 -0.48094577
000120 63 3b ed bd d1 14 84 be 3f f2 fc 3e f3 37 d3 3e
       -0.11583593 -0.25797132 0.4940357 0.41253623
000130 1d 49 c0 3e 6d e4 b3 3e 5b 89 a4 be 39 f0 62 be
       0.3755578 0.35135213 -0.32136044 -0.2216195
000140 89 c5 4c be f2 22 12 be 1b 50 ca 3e e4 30 37 3e
       -0.19997229 -0.14271143 0.3951424 0.17889744
000150 44 4c cd 3e cb c0 ab bc ec 31 e6 be 56 05 12 be
       0.4009725 -0.020965954 -0.44959962 -0.14259848
000160 49 8c b6 3e 85 9b 9e 3e 14 c0 19 3e 85 8f 0b be
       0.35653904 0.30978027 0.15014678 -0.13628967
000170 15 ae f2 be c9 7b 8b be 9a 2f 89 3e af 43 51 be
       -0.4739844 -0.27242878 0.2679413 -0.20435975
000180 6b d1 a4 3e c0 cc f7 3d 9f e7 54 be de d6 96 3e
       0.32191023 0.120996 -0.20791481 0.29460806
000190 26 78 50 be 82 c7 d5 bc 7a 25 3f be 88 a9 f9 be
       -0.20358333 -0.02609611 -0.1866664 -0.48762155
0001a0 cc 96 61 3d d4 23 9f 3e 09 04 85 be 17 4a 8b 3e
       0.05507545 0.31082022 -0.2597964 0.27204964
0001b0 02 62 f3 be 7f fc f6 be 64 9c a4 be b1 73 4b be
       -0.47535712 -0.48239514 -0.32150567 -0.19868352
0001c0 e8 72 9c bd 05 29 b3 be ac 6f 4d 3e 2d be e6 be
       -0.07639104 -0.34992233 0.2006213 -0.45066968
0001d0 c9 74 26 3d a2 5a b9 bc e4 68 ed 3d fd 2f 07 3f
       0.04063872 -0.022626225 0.11592272 0.528076
0001e0 45 c4 97 3e 56 2d 8b be 21 c6 c7 be 5c 09 55 be
       0.2964193 -0.27183026 -0.39018348 -0.20804352
0001f0 3d 48 7d be ce 30 3e 3e 15 b0 31 3c 08 43 d5 3e
       -0.24734588 0.18573305 0.010845204 0.41652703
000200 04 cb 4b 3e 63 25 bf bd df 7b a8 b6 ca 17 e1 3d
       0.19901663 -0.09333303 -5.0212107e-06 0.109908655
000210 e1 91 74 bd ed a5 d6 3e 65 3d d0 be b2 1a 81 3e
       -0.059709433 0.41923466 -0.4067184 0.2521568
000220 5e a5 a4 be 02 71 ce be 64 22 cb bd c4 7b 7b 3e
       -0.32157415 -0.40320593 -0.09918669 0.24558932
000230 37 96 b7 3e 42 49 f5 3d 2a 5e 19 bd bd 9c aa bc
       0.35856792 0.119768634 -0.037443317 -0.020826692
000240 f4 c3 4d be 4e 06 b6 bd 54 e0 e0 bc a6 2b ca 3e
       -0.20094281 -0.08887921 -0.027450718 0.39486426
000250 f6 70 9d 3e 44 2f cd be bb 9b cc bb 07 79 a5 be
       0.30750245 -0.40075123 -0.0062441505 -0.323189
000260 15 a5 96 bd 76 eb d2 be 0a ae 11 3e b4 79 c1 be
       -0.07355706 -0.41195267 0.14226547 -0.37788165
000270 06 f4 fd 3e e7 c3 c1 3e 2f 34 b6 be 55 c3 f9 be
       0.49600238 0.37844774 -0.35586688 -0.4878184
000280 ab 0b 25 3d e6 31 0e be 2c 51 35 3e cd 77 b4 be
       0.04029433 -0.13886222 0.17706746 -0.3524765
000290 84 d7 43 3e 25 3c e2 be e6 3e 89 be 44 26 88 be
       0.19125181 -0.44186512 -0.268058 -0.26591694
0002a0 c0 37 76 3e 33 b2 e1 3d df 3c fb be d2 e9 8f be
       0.24044704 0.11020317 -0.49069878 -0.28108078
0002b0 e3 59 7c be b7 9b f1 be fa 41 73 3d 94 44 38 3e
       -0.24643664 -0.47189113 0.059389092 0.1799491
0002c0 f0 dd c5 bd 27 9a 95 be 02 4c 60 bb 5d 76 c9 be
       -0.09661472 -0.2921917 -0.0034224992 -0.39348117
0002d0 21 51 9b be 1a 7f db bc 2b 26 f0 3e 84 22 1e be
       -0.30335334 -0.026794005 0.4690412 -0.15442854
0002e0 8a 56 80 3e df 4e 50 be f4 ee 08 be d5 22 f5 be
       0.25066024 -0.20342587 -0.13372403 -0.47878137
0002f0 16 09 d9 3e 17 a3 fe 3e e3 62 4e bc b0 fd a5 3e
       0.42389745 0.49733803 -0.012596819 0.3242011
000300 be 95 d5 3e f9 b4 77 3e 00 2b 5c 3e 33 14 f2 be
       0.41715807 0.2419013 0.21500778 -0.47281036
000310 8b 08 ef be 1b a8 c8 be 28 ce 22 3e 95 75 e3 be
       -0.46686205 -0.39190754 0.15898955 -0.44425645
000320 7b 52 c5 be 09 b0 8c be e6 24 f1 be 66 cd a5 bc
       -0.3853949 -0.27478054 -0.47098464 -0.020239543
000330 61 ad a9 3d 2e 5a 99 be 90 86 ae 3e 81 3f 49 be
       0.082850225 -0.29951614 0.34087038 -0.19653131
000340 32 9e 12 be fd 93 bc 3e d3 24 dd 3e 58 20 ab bd
       -0.14318159 0.36831656 0.43192157 -0.083557785
000350 73 f5 c7 be 14 ae 7f be 41 ef 5c 3d d3 bc 9a 3e
       -0.3905445 -0.2496875 0.053939108 0.30222186
000360 65 83 81 3e e8 63 60 be fc 87 f9 be e3 70 ed be
       0.2529556 -0.21913111 -0.4873656 -0.46375188
000370 ca ad 26 be dc 90 06 3c 78 1c 65 be 0f 9d cd be
       -0.16277233 0.008213248 -0.22374141 -0.4015889
000380 5b ff 11 3e 87 0b e6 be 26 e4 d3 be 99 64 d2 be
       0.14257567 -0.4493067 -0.41385 -0.41092375
000390 b4 6d 14 be fa 96 d4 3e 50 5e 71 3e 61 0c df bd
       -0.14494973 0.41521436 0.23571134 -0.10891033
0003a0 41 a1 b1 3d 6b e1 94 3e cb 10 f7 bc a7 24 06 bf
       0.08673335 0.2907823 -0.030159375 -0.5239968
0003b0 b7 9f 8b be 5d a7 a0 be d9 3a 15 bd d6 55 01 bf
       -0.2727029 -0.31377688 -0.036433075 -0.505216
0003c0 e3 66 01 be 3c d1 c4 be 60 18 e7 3e 54 23 c4 3e
       -0.12636904 -0.38440883 0.45135784 0.38308203
0003d0 60 ad 56 3e 92 37 cd 3c 9c 7f 4a be bf 9e 26 3e
       0.20964575 0.025050912 -0.19775242 0.16271494
0003e0 b2 19 c6 be 3c 1d 2f be 71 8d cc bd 23 78 52 be
       -0.3869148 -0.17100996 -0.09987915 -0.20553641
0003f0 4d 39 e4 be 82 22 74 3e c8 3d e9 3e 30 b8 79 be
       -0.44574967 0.23841289 0.45554948 -0.24386668

net.6.bias f4 [32]
000000 f7 db 34 bb b1 e0 e9 3b 54 57 ef 3c 45 2b f7 3b
       -0.002759693 0.007137381 0.029216446 0.007543
000010 3e 47 17 bb f3 d2 ec 3b f0 d2 c6 bc 1a d1 46 bd
       -0.0023083235 0.0072272955 -0.024270505 -0.04853926
000020 a8 a6 e8 3b 39 90 2c 3b 5e 0b 66 3b 95 f5 94 3c
       0.007099945 0.002633108 0.003510199 0.018183509
000030 3a a0 86 bc 28 13 b1 3c 4d 2f 14 bc 4c c8 34 3c
       -0.016433824 0.02161558 -0.0090444805 0.011034083
000040 c3 1c 8d bc 2a e3 cf 3b 5b 82 73 bc 8e 0e 3e 3d
       -0.017225629 0.0063442187 -0.014862622 0.0464006
000050 66 70 d9 3b 29 82 86 bd c8 6e d7 bc 4d 9b a5 bb
       0.0066357134 -0.06567795 -0.026297942 -0.0050539137
000060 00 2b 9f 3a 5a b6 df 3c a2 b2 1e bd 47 72 a7 3b
       0.0012143552 0.027308632 -0.038744576 0.0051100585
000070 b5 2c 01 bc 8d 37 58 3c 4a fd 3e 3c b6 ae 9a bc
       -0.007884194 0.013196838 0.0116570685 -0.018882137

net.8.weight f4 [32, 32]
000000 85 df e8 3d d2 7f c9 3e c1 59 11 be 2a 82 ec 3e
       0.11370758 0.39355332 -0.14194395 0.46193057
000010 81 d4 c7 bd bb cc 9b be 72 74 35 be 4c e9 40 3d
       -0.09757329 -0.30429634 -0.17720202 0.04709749
000020 2d c7 03 be 8e b9 78 3e 6d a5 93 be 96 d0 2b be
       -0.12868948 0.24289533 -0.28837147 -0.16778788
000030 c2 ef 02 bf c0 74 d1 3e 66 b0 8e bd 46 a9 c4 be
       -0.5114709 0.40909386 -0.06967239 -0.38410395
000040 6c 66 5d bc 7e ba 22 bc 46 80 29 3e e7 69 74 bd
       -0.013513189 -0.0099321585 0.16552839 -0.05967131
000050 8e 6a a0 3e 8f 06 0f be 81 f3 23 be 38 84 27 be
       0.31331295 -0.13967346 -0.16010858 -0.16359031
000060 1e 5b 29 3d cd ad c8 3e 85 0a f9 bc 8c 3f cf 3e
       0.04134666 0.391951 -0.030400524 0.4047817
000070 6f a2 ce 3e c6 36 85 be eb 85 6a bd 6c cc 64 be
       0.40358302 -0.2601835 -0.05725662 -0.22343606
000080 42 7e 5e 3e 0c e5 38 be 7e 01 27 3e a5 2d 71 bc
       0.21727851 -0.18056124 0.16309163 -0.014720355
000090 86 4f 8d be 2f 44 b5 be 0d 07 ef be 57 a6 94 be
       -0.27599734 -0.35403582 -0.46685067 -0.29033157
0000a0 71 bd 19 3e 05 2e 16 3d b8 7c c2 3e f9 93 e7 be
       0.15013672 0.03666498 0.37985778 -0.45230082
0000b0 5a a6 9b bc 3c a1 e5 be 14 c9 9f 3a c8 d5 4f 3e
       -0.019000221 -0.44849575 0.0012190663 0.20296395
0000c0 56 c4 e3 be 08 34 e6 3e f8 0a 15 be 01 60 e7 3e
       -0.4448573 0.44961572 -0.14554965 0.45190433
0000d0 0b dd 8c bd 35 14 94 3e 82 90 eb 3e 1a 2e 3f be
       -0.06878098 0.28921667 0.46008688 -0.1866993
0000e0 82 01 94 bd f9 b2 7d 3e 92 4a e1 be f6 4a a0 3e
       -0.0722685 0.24775304 -0.44002205 0.3130719
0000f0 29 8d ab be 09 19 f3 3e 30 00 aa be dc 5f 43 be
       -0.33506134 0.47480038 -0.33203268 -0.19079536
000100 1a 59 b8 3e 99 6e 4a be 7e 07 e1 3e dd 57 c0 3e
       0.3600548 -0.19768752 0.4395103 0.37567034
000110 c6 ff eb 3e 5d b8 00 bf f1 37 95 bc 29 63 31 be
       0.46093577 -0.50281316 -0.018215152 -0.17322983
000120 4f 9c c8 3d ec 54 cf be 2e 15 3c 3e 17 e8 c4 bd
       0.097954385 -0.40494478 0.18367454 -0.0961458
000130 42 fa 86 be 79 14 e3 be ba e1 87 3e 2a 02 2f be
       -0.26362807 -0.44351557 0.26539403 -0.1709067
000140 27 44 bf 3e 81 88 bf 3d 95 f9 1c 3e 01 f2 c0 bd
       0.37356684 0.09352208 0.15329583 -0.094211586
000150 23 77 98 bd 3d 0e fa bd 35 c8 e3 be 2e c9 6f 3e
       -0.074445985 -0.12209747 -0.44488683 0.23416588
000160 3c 73 e1 be 2a 2d 91 3e 4c 2f 2a be 4e 3e aa 3e
       -0.4403323 0.2835477 -0.16619605 0.3325066
000170 34 06 ef 3e 12 2b 98 be 38 45 ae 3e ff f1 39 3d
       0.4668442 -0.2972036 0.34037185 0.0453968
000180 3a 52 ce be 14 24 52 3e 96 69 99 3e bd 5f dc 3e
       -0.4029711 0.20521575 0.29963368 0.43041793
000190 f4 b9 f8 be af fd eb 3e e2 03 be 3e c6 88 05 3f
       -0.4857937 0.46091983 0.37112337 0.52161825
0001a0 8b e8 a0 3e 9a 3a 80 be 69 bd c7 3e 51 24 11 3f
       0.31427416 -0.2504471 0.39011696 0.5669604
0001b0 32 a2 3f be a3 e6 e7 bd 72 08 d1 3e 4b d5 cb 3e
       -0.18714216 -0.11323287 0.40826756 0.39811167
0001c0 90 03 b2 3e ad 23 d4 3e c4 41 a5 be 1a fa a1 bd
       0.34768343 0.41433468 -0.32276738 -0.07909031
0001d0 ed 45 62 be 9e 65 84 3e 56 af ef 3d 21 cb ce be
       -0.22096987 0.25858778 0.117033646 -0.4038935
0001e0 1b f8 03 be f7 87 cb be 07 1d f4 be 7b d8 ed 3e
       -0.12887613 -0.3975217 -0.47678396 0.46454224
0001f0 99 8b 6d be 0c b9 5d 3e 76 bc 99 bd 33 1c f1 bd
       -0.23197784 0.21652621 -0.07506649 -0.11772957
000200 18 e7 b8 3c 8f 60 d0 3e 5f f0 8a bd 7d db de 3e
       0.022571132 0.40698668 -0.067841284 0.4352683
000210 03 99 9e 3e a1 45 af 3e 21 36 e4 be c0 de 75 be
       0.30976114 0.3423281 -0.44572547 -0.24010754
000220 fd f5 dd be 09 19 da bd ac 59 e7 bd b9 79 a4 3d
       -0.43351737 -0.10649306 -0.112964004 0.08031029
000230 30 a5 e4 3e 3f 6b 67 3e 3d 95 bb be 9b 21 a3 be
       0.44657278 0.22599505 -0.36637297 -0.31861576
000240 ba a0 c6 3e c6 5e 4f 3d d0 8f 2f 3e 00 ad 8e be
       0.387945 0.050627492 0.17144704 -0.27866364
000250 38 5a 4c bd 3b 51 20 3e ff 17 a7 be 4f ef b9 3e
       -0.049890727 0.15655987 -0.32635495 0.3631539
000260 69 80 8e 3e 85 a3 9c be 21 74 50 be 86 8e e8 bd
       0.27832344 -0.30593506 -0.203568 -0.11355309
000270 2b 53 93 3d 9c 2b 33 be e7 ed e5 3e 5e da 03 bf
       0.071935974 -0.17497104 0.44908068 -0.51505077
000280 46 67 8e be 63 59 9f be 82 d6 06 3e 42 e1 c6 3d
       -0.27813166 -0.31122884 0.13167766 0.09710933
000290 73 3a 1a be 6f 09 e4 3e 05 b0 e5 be 63 d0 32 3e
       -0.15061359 0.44538447 -0.44860855 0.17462306
0002a0 17 b3 89 be 22 67 da bd 11 34 f8 be 34 16 cc be
       -0.26894447 -0.10664202 -0.48477224 -0.3986069
0002b0 2b 98 db be 59 95 74 3e 6e 72 41 be 2f c7 89 3e
       -0.42889532 0.23885097 -0.18891308 0.26909778
0002c0 6e ac 91 be c6 f5 0c be 32 8d 77 3d 07 99 da 3e
       -0.28451866 -0.1376563 0.06043739 0.42694876
0002d0 6c ee 03 be b6 f5 9a 3e f9 04 07 3e 0c 73 ae 3e
       -0.1288392 0.30265588 0.1318549 0.3407215
0002e0 d4 f4 9e 3e 8e 61 5c 3e 82 ab 1f be 55 c5 19 be
       0.31046164 0.21521589 -0.15592769 -0.15016682
0002f0 a2 35 53 3e a4 e5 8e 3e a9 60 4b bd 08 1f 84 3e
       0.20625928 0.27909577 -0.04965273 0.25804925
000300 57 36 83 be f5 bf 98 3e 4a 45 60 bd 50 c5 a7 be
       -0.25627396 0.29833952 -0.05475358 -0.32767725
000310 84 ac 6c be ed 79 cb be df 78 d6 3d 95 9d 94 be
       -0.23112684 -0.3974146 0.10472273 -0.29026476
000320 87 3f 21 be 01 75 19 bd b8 81 a3 be bc b5 a3 3c
       -0.1574689 -0.0374651 -0.31934905 0.019984119
000330 50 8f 9a bd 39 c3 13 3e de 76 b8 3e b8 72 a2 be
       -0.07546866 0.1442994 0.36028188 -0.31728148
000340 90 f9 91 3e 2b cb 9d bb a3 e0 90 be c0 27 76 be
       0.28510714 -0.0048154793 -0.28296384 -0.24038601
000350 af f8 ff 3d 3f 8c da 3d 8c c6 cd bb 5d b5 9a be
       0.124986045 0.10671281 -0.006279772 -0.30216494
000360 1e ae 74 3e d1 55 92 3d cd 7e f9 be 74 44 aa bd
       0.23894545 0.071452744 -0.48729554 -0.08313838
000370 31 95 01 be 2b a2 56 be 1f 38 96 be ee 08 dc be
       -0.12654568 -0.209603 -0.29339692 -0.42975563
000380 d4 d3 fe 3e c5 6e f1 be 5f c9 f0 3e 99 92 ec be
       0.49770987 -0.47154823 0.47028634 -0.46205595
000390 16 78 e4 bd 48 d0 61 be 89 ba 82 be a0 7f 1c 3e
       -0.11155717 -0.22052109 -0.2553294 0.1528306
0003a0 b1 33 a3 3e 25 dc a5 be c8 2e 71 be 25 f0 78 3e
       0.31875375 -0.3239452 -0.23553002 0.24310358
0003b0 d1 ff 72 bd ae 59 1b 3e 36 24 81 3e a1 53 2f be
       -0.059325997 0.15170929 0.2522294 -0.17121746
0003c0 03 cb 91 be 08 4d 3f 3e 9c 75 3a be 7c e1 ab be
       -0.28475198 0.18681729 -0.18208927 -0.33570468
0003d0 b8 96 7b be 0c 4d 83 be 0c 4e 01 3f 25 b6 f6 3d
       -0.24569213 -0.2564472 0.50509715 0.1204646
0003e0 7a e7 95 3e 9b c6 69 3d 03 e7 b2 be 39 43 bc 3e
       0.29278165 0.05707417 -0.34941873 0.36770037
0003f0 c8 01 de bd 9a 21 0a be 46 eb d2 3e 5b 63 86 be
       -0.108401835 -0.1348938 0.41195124 -0.26247677

net.8.bias f4 [32]
000000 08 0d 83 3c 0e 18 f0 3c 48 a1 4a 3c a8 2b 1d 3c
       0.015997425 0.029308345 0.012367554 0.009592928
000010 c1 f2 5f 3c f7 2f aa bb 26 2d e8 3c 8d 67 1b 3c
       0.013668717 -0.005193706 0.028341841 0.009485138
000020 64 62 c7 3c e5 a2 60 3c d0 f3 10 bd 4a 62 59 bc
       0.024338908 0.013710712 -0.035388768 -0.013268063
000030 f2 f1 c9 3c 4f 97 dc bc 5d 68 9d 3c 96 8e d4 39
       0.024651501 -0.026927618 0.019214803 0.00040542026
000040 a0 98 0e bd 22 4e 52 3b 68 ee 76 bc db a2 4f 3c
       -0.034813523 0.0032090028 -0.015071489 0.012673105
000050 8d a7 c4 bb 7b 22 2a bc be f0 56 bc 13 c2 46 3b
       -0.006001419 -0.010384197 -0.013118921 0.003032808
000060 3b 90 88 3c a0 7e 96 ba f8 85 15 3c dd 0f 2e 3c
       0.016670337 -0.0011481829 0.009126179 0.010623899
000070 f1 cb 6d bc 1d 78 8f 3b ff 26 20 3c 3c 09 9b 3a
       -0.014513955 0.0043783323 0.009774922 0.0011828314

net.10.weight f4 [6, 32]
000000 b0 ab 62 be fc b3 a6 be aa b1 8a be 8e f4 89 be
       -0.22135806 -0.32559192 -0.27088672 -0.26944393
000010 94 ae 2d 3e b8 0b 20 3f 93 67 cd be c3 4b 9b be
       0.16961128 0.6251788 -0.40118083 -0.3033124
000020 d1 9f e3 be f0 7a 8e 3c 44 70 1f 3d ae db eb be
       -0.44457868 0.017392606 0.038925424 -0.4606604
000030 4b eb 98 3e 0c 9e 19 bf b3 ab 1d 3f 9f 37 02 3e
       0.29867014 -0.60006785 0.6159012 0.1271653
000040 db 91 8a bd fa a9 7a be a0 e0 93 3e 96 b4 f9 3e
       -0.06766101 -0.24478903 0.28882313 0.4877059
000050 50 f5 0c bf 24 49 28 be 33 a5 ff 3e d3 09 05 be
       -0.5506182 -0.16434151 0.49930725 -0.12992029
000060 ce d7 fb be 0b 94 75 be e7 b0 bc 3b 5d d0 bf bd
       -0.49188083 -0.23982255 0.005758393 -0.09365914
000070 aa b2 ef be b8 59 ce be 7e 8b 26 3e b4 ad c7 3e
       -0.46815997 -0.40302825 0.1626415 0.38999712
000080 6d d0 21 3f fe ef 8e bd f4 85 7b 3e 8a c8 10 bf
       0.6320866 -0.069793686 0.24562818 -0.56556
000090 05 37 df 3e e6 59 24 3f 06 c9 b4 3e 6f dc 99 be
       0.43596664 0.64199674 0.3530962 -0.3005099
0000a0 13 3c 0c 3f 9a 2b 2e bf 7f 95 8c bd 21 e7 3a be
       0.54779166 -0.6803528 -0.068644516 -0.18252231
0000b0 0e ef 2a bf 30 0e b6 be 73 f9 03 bf 3e 20 4d 3e
       -0.6677102 -0.355577 -0.51552504 0.2003183
0000c0 9e 24 b4 bb cd 74 bf 3e 82 b4 28 be 3c 50 0c 3f
       -0.005497529 0.373938 -0.16475108 0.5480993
0000d0 8b e7 c0 3d 87 15 15 3f 66 de 10 3f d5 f7 12 bf
       0.09419163 0.58235973 0.56589353 -0.5740941
0000e0 41 d3 e8 be 0b 9e cf 3e f4 f2 1b 3f 1d b9 17 bf
       -0.45473674 0.40550265 0.6091759 -0.59266835
0000f0 78 b6 46 3d db 94 8f be 1b f7 28 3f c1 f1 16 3f
       0.04851386 -0.28043255 0.66002053 0.5896264
000100 21 01 f3 3e 56 a3 b2 3e 6d 8e 3c bd c7 1f 1f 3f
       0.474618 0.3489024 -0.046034265 0.62157863
000110 6a 07 b4 be e5 3d 47 3d cb ac 3a be 4f a6 fa be
       -0.35161906 0.04864301 -0.18229978 -0.48955008
000120 de 30 a4 be ca c7 77 3e 39 8a 75 bd 03 b9 dc be
       -0.32068533 0.24197307 -0.059946273 -0.43109903
000130 0c 39 e4 bd e5 83 d3 3d 8a a0 ed be 98 8e bb 3e
       -0.11143693 0.10327891 -0.46411544 0.36632228
000140 25 95 17 bf 94 d1 25 bc 56 a2 0a bf 94 dd 17 bf
       -0.5921195 -0.010120768 -0.54153955 -0.59322476
000150 78 a5 1e be ab 54 17 3f 73 f6 1d 3f 5f 0d 4a 3e
       -0.15492809 0.5911357 0.61704177 0.19731663
000160 7c c3 07 3f f2 f8 b9 be 35 de bf 3e b2 9b cd 3e
       0.5303266 -0.36322743 0.37474218 0.4015785
000170 dd a9 1f bf 40 06 02 bf 59 94 94 3e 1a 5b 80 3d
       -0.62368566 -0.50790787 0.2901943 0.06267376
000180 03 37 de be 85 c5 07 bf ae db fd 3e e5 da a1 3d
       -0.43401346 -0.53035766 0.49581665 0.07903079
000190 cf 90 d6 ba 57 e3 26 bf 3f 6f 15 3f c3 5e dc be
       -0.0016370061 -0.65190643 0.58372873 -0.43041047
0001a0 a2 df 8f 3e 8e 12 9e bd 9f 53 8a 3c d5 09 a9 3e
       0.28100306 -0.07718383 0.016885577 0.33015314
0001b0 48 7b 4b be 0d 2c 40 be c6 52 04 3f a7 20 06 bf
       -0.19871247 -0.18766804 0.516888 -0.52393574
0001c0 a1 d4 8c 3e 75 5f 29 be a2 ea 58 be a3 6e e6 3e
       0.27505973 -0.1654032 -0.21183255 0.45006284
0001d0 33 bc c2 3c 7a e5 1c bf 56 ff 18 3f f1 55 bf be
       0.023771381 -0.61287653 0.5976461 -0.37370256
0001e0 c7 0c 12 3f e8 bd 64 be 47 67 21 3f c6 03 3f 3e
       0.57050747 -0.22338068 0.63048214 0.18653783
0001f0 29 3e 42 bd 1d 45 75 3e 3d 51 08 bd 6f 87 b0 be
       -0.04742256 0.23952146 -0.0332806 -0.34478328
000200 02 21 b5 3e d7 cf de 3e 12 28 d0 bd 3d 3c 21 3f
       0.35376745 0.43517944 -0.10163893 0.6298254
000210 fc 82 cb 3c bd 40 b7 be b0 6e af be 76 74 e0 3e
       0.024842732 -0.3579158 -0.34264135 0.43838853
000220 94 3d 86 be df 3a be 3e 8d 2d 23 bf 57 c5 54 3c
       -0.26218855 0.3715429 -0.6374138 0.012986503
000230 75 32 e0 be 17 63 75 3e 59 e5 0a 3f 97 57 87 3e
       -0.43788496 0.23963581 0.54256207 0.26434013
000240 90 c2 69 be c1 e7 1e bf fa de a4 be b5 24 cc be
       -0.22828126 -0.6207238 -0.32201368 -0.39871755
000250 ee 3b 2f 3f d3 0a b7 be d1 9a 79 3e 07 22 14 3f
       0.6845082 -0.35750446 0.24375464 0.5786442
000260 a2 e2 6f 3e 18 72 11 bf d7 dd 89 bd db aa 70 be
       0.23426297 -0.5681472 -0.06731766 -0.23502676
000270 e0 4d da 3e ff ee 66 bd be 32 8a bc 71 30 19 3f
       0.4263754 -0.05638027 -0.016869899 0.5983954
000280 21 d5 2c 3e a4 69 99 3e 62 c4 49 be c1 52 db 3e
       0.16878177 0.2996341 -0.1970382 0.42836574
000290 57 db f9 3d 03 06 16 be c7 09 01 3e 88 ff 03 bf
       0.12200039 -0.14650731 0.12601386 -0.51561785
0002a0 1e 49 b0 3c 4b dc 7e 3e e4 0f 20 bf 42 11 b7 be
       0.02151924 0.24888723 -0.6252425 -0.35755354
0002b0 c7 6e ca 3e 89 a6 8b 3c 52 f8 e3 bc 7a f2 67 3d
       0.3953764 0.017047184 -0.02782837 0.056627728
0002c0 20 44 9d be 0f 54 14 3f 03 98 8b bd 7e 0e 6d be
       -0.30716038 0.57940763 -0.06816103 -0.2315006
0002d0 23 16 aa 3e 5c 5d 08 bf d9 e6 cc bd 99 0d 06 3d
       0.33220014 -0.53267455 -0.10004968 0.03272781
0002e0 0b eb 5a be e0 0d b5 3e 19 39 12 bf c1 1c 56 be
       -0.21378724 0.35362148 -0.57118374 -0.20909406
0002f0 05 bc 8d be 4a 98 1a 3f ce 21 85 3e 2a 7d 02 bf
       -0.2768251 0.60388625 0.26002353 -0.50972235

net.10.bias f4 [6]
000000 ff 16 ee ba c8 5f 62 3c 7e 40 3e 3c 5e 9d 5e 3c
       -0.0018164812 0.013816781 0.011612056 0.013587324
000010 b8 56 9c 3c 3f b5 50 3c
       0.01908432 0.012738525

exp_avg f4 [32, 1]
000000 79 ca cb b6 92 7e 84 b7 4b d4 15 38 2c fc ec b6
       -6.0734424e-06 -1.5794565e-05 3.572208e-05 -7.0627048e-06
000010 d5 50 03 b9 b9 da f3 38 6d dd c9 b7 cd bd d4 b7
       -0.00012523246 0.00011627883 -2.4064177e-05 -2.5360752e-05
000020 3e 9c 16 37 54 2e c5 37 8a df 5f 38 e9 fc d1 38
       8.977075e-06 2.3505803e-05 5.337553e-05 0.00010013005
000030 39 00 3b b8 5a 41 f4 37 b0 45 98 b7 d1 18 3c bb
       -4.458448e-05 2.9117498e-05 -1.8152263e-05 -0.0028701315
000040 ec 05 08 38 62 bc c6 b9 fa 2c 38 b8 b6 63 b1 b7
       3.2430442e-05 -0.0003790586 -4.3910906e-05 -2.1146476e-05
000050 2b 81 88 38 3e ad bb 39 52 15 82 37 cc 58 bb b6
       6.509045e-05 0.00035796495 1.5507136e-05 -5.5833716e-06
000060 64 a5 a8 37 62 82 af b6 ce 8c 29 b8 1c a3 79 36
       2.0104177e-05 -5.230585e-06 -4.0423874e-05 3.7198834e-06
000070 8a a9 19 bc b4 56 5f 38 9e 4c d4 b6 d4 31 37 b8
       -0.0093788 5.324809e-05 -6.3270118e-06 -4.3677006e-05

exp_avg_sq f4 [32, 1]
000000 a5 82 06 33 5e 15 ea 31 ce e4 2a 34 e1 0b 2e 32
       3.1318127e-08 6.8127255e-09 1.5915722e-07 1.0130834e-08
000010 d3 ef 08 35 d5 3e 31 35 59 f1 4e 33 e0 72 f7 32
       5.101294e-07 6.602907e-07 4.8182617e-08 2.8806824e-08
000020 7a 48 15 33 f5 10 0e 33 e9 3e 49 34 b4 91 08 35
       3.4757683e-08 3.3077374e-08 1.874247e-07 5.0875974e-07
000030 b7 c1 20 34 99 2f 61 34 78 87 f6 33 fc 0e ba 39
       1.4971634e-07 2.0972074e-07 1.1479909e-07 0.0003548785
000040 b6 ed 03 33 b9 c8 f8 36 3c cb e3 34 2b 64 23 34
       3.071701e-08 7.414343e-06 4.2429917e-07 1.5216999e-07
000050 2c fd 26 34 17 f9 c9 36 ec 1f 38 34 66 49 20 33
       1.5552058e-07 6.0192647e-06 1.7147948e-07 3.731966e-08
000060 17 6e 40 34 e5 3c 3e 33 8d 3c 25 33 65 65 22 34
       1.7921444e-07 4.4293206e-08 3.8472127e-08 1.5124313e-07
000070 97 d9 14 3c 3f 9a 15 34 c8 cc 74 32 7f 28 c9 34
       0.009085081 1.3932821e-07 1.4249231e-08 3.7468632e-07

exp_avg f4 [32]
000000 fa e1 1a b7 99 65 1e 37 92 a8 50 38 16 6f 10 b8
       -9.23173e-06 9.441189e-06 4.9748058e-05 -3.4435732e-05
000010 52 af a3 b7 3b aa 0d b7 f7 fd e5 37 b9 b4 91 36
       -1.9512754e-05 -8.44389e-06 2.7417189e-05 4.3423756e-06
000020 cd 5c 40 b7 29 b0 03 b8 72 76 58 b7 3d cc 94 37
       -1.1465699e-05 -3.1396896e-05 -1.2902181e-05 1.773808e-05
000030 ff ad 40 38 dd 86 60 b8 cb 0d 27 37 2a 66 14 b9
       4.5938414e-05 -5.3531363e-05 9.957187e-06 -0.00014152439
000040 4e 17 9c b7 8a af 5a b7 9a c2 f5 36 04 ef 13 38
       -1.8607501e-05 -1.3034683e-05 7.3242236e-06 3.527013e-05
000050 35 b7 80 b8 39 57 fd 37 bc b7 91 b6 e9 68 3e 37
       -6.1376406e-05 3.0200566e-05 -4.3427262e-06 1.1349309e-05
000060 d5 cf 1b b8 01 82 3d 37 fa 3f 49 38 a4 18 e6 b7
       -3.714844e-05 1.1295547e-05 4.7981717e-05 -2.742961e-05
000070 03 c5 80 b9 79 e1 37 b8 49 27 d3 b6 7a 5c 6b 38
       -0.00024560848 -4.3840588e-05 -6.2928634e-06 5.611449e-05

exp_avg_sq f4 [32]
000000 de e3 bf 32 fb cb a5 32 6a b0 e2 33 60 da 32 33
       2.2338948e-08 1.9301288e-08 1.05560346e-07 4.1642465e-08
000010 ae 49 db 32 92 83 ab 32 03 a8 20 33 83 d1 9d 32
       2.5528461e-08 1.9966851e-08 3.740571e-08 1.837248e-08
000020 0a f2 8e 32 8a 57 26 33 0d ac a4 33 12 30 2b 34
       1.6641042e-08 3.8729503e-08 7.668141e-08 1.5943104e-07
000030 67 04 c3 33 73 6e 3f 34 6a eb cc 31 3f f1 a5 34
       9.081196e-08 1.7828442e-07 5.963945e-09 3.0909175e-07
000040 3e 55 fb 32 d2 85 c2 33 08 14 fe 32 f5 a7 83 32
       2.925901e-08 9.058171e-08 2.9578601e-08 1.5326785e-08
000050 65 3a a2 33 b7 0f 3e 33 9d 6b cd 32 d2 fc 8c 32
       7.554335e-08 4.4252115e-08 2.3914078e-08 1.6413114e-08
000060 a7 dd 3b 34 8c d1 d5 31 c6 22 bf 33 98 14 47 33
       1.7496369e-07 6.2229386e-09 8.900456e-08 4.6352028e-08
000070 dc e4 c8 36 4a ee c1 33 84 8d a0 32 42 56 c7 33
       5.987107e-06 9.0306074e-08 1.8690805e-08 9.28235e-08

exp_avg f4 [32, 32]
000000 bf da 26 b7 e3 f0 42 b7 9a b3 b8 36 e0 c1 48 b7
       -9.945302e-06 -1.1619387e-05 5.5045357e-06 -1.1966069e-05
000010 28 dc a1 36 20 45 9c b6 bd 46 12 37 61 b7 12 b7
       4.8238035e-06 -4.6572095e-06 8.718748e-06 -8.744974e-06
000020 bf f9 47 b7 6e fe 2d 37 fe ae 3b b7 ad 0f a7 b6
       -1.1919473e-05 1.0370843e-05 -1.1186812e-05 -4.9788127e-06
000030 44 0a 2b b7 6e e0 99 b6 24 07 e8 b6 76 d9 7c 36
       -1.0194784e-05 -4.5858824e-06 -6.91497e-06 3.7677505e-06
000040 2b 0e 2c b7 b1 f8 88 b6 a6 11 f8 36 75 b4 d2 b6
       -1.0255298e-05 -4.0820673e-06 7.3930305e-06 -6.2794957e-06
000050 9c af 01 37 f5 d2 94 36 fe 5c ee 36 a1 c4 1d b7
       7.729886e-06 4.4353023e-06 7.1037784e-06 -9.4037105e-06
000060 29 4f 31 37 b0 ee 06 37 8e 60 c5 36 0c 69 0e 37
       1.0568453e-05 8.042596e-06 5.882298e-06 8.488318e-06
000070 e3 13 11 b6 3e 16 50 37 c8 17 45 b7 90 b3 3b 37
       -2.161826e-06 1.2402945e-05 -1.1747652e-05 1.1187876e-05
000080 13 4a f8 b5 2d 4f 0a b6 38 44 7f 35 6a 53 06 b6
       -1.8498998e-06 -2.0609689e-06 9.5094174e-07 -2.001611e-06
000090 72 43 66 35 fe d2 68 b5 02 6f cc 35 62 68 de b5
       8.577982e-07 -8.673377e-07 1.5231492e-06 -1.6570668e-06
0000a0 13 2e 07 b6 d0 24 fe 35 49 39 06 b6 43 cc 53 b5
       -2.0143386e-06 1.8935189e-06 -2.00009e-06 -7.8900865e-07
0000b0 fd 10 e8 b5 94 09 1f b5 d6 e1 d8 b5 47 41 4c 34
       -1.7290291e-06 -5.9246054e-07 -1.6158981e-06 1.9022728e-07
0000c0 88 c6 f7 b5 88 03 c6 b4 68 af b7 35 0f 25 8a b5
       -1.8460714e-06 -3.6882943e-07 1.3685612e-06 -1.0292587e-06
0000d0 51 3c ba 35 dc fd 37 34 db cb c4 35 9f 39 e2 b5
       1.3875634e-06 1.7135557e-07 1.4662468e-06 -1.6855082e-06
0000e0 20 ed 01 36 7b f5 9f 35 ba 5c 62 35 e9 bd e7 35
       1.9360523e-06 1.1917867e-06 8.4326496e-07 1.7266112e-06
0000f0 eb b9 b4 b3 6f 8a 06 36 dd b0 07 b6 e9 47 05 36
       -8.4157215e-08 2.0048135e-06 -2.0219516e-06 1.9860402e-06
000100 35 80 e1 38 ef 32 e5 38 96 ed da b8 b2 3d e5 38
       0.000107527165 0.00010929058 -0.00010439304 0.000109310626
000110 f8 66 d8 b8 ae f5 d7 38 f1 c8 dd b8 7b 73 de 38
       -0.00010318862 0.0001029776 -0.000105755294 0.00010607295
000120 e1 47 e5 38 da 60 e2 b8 fd 24 e4 38 3b 87 d8 38
       0.000109329594 -0.0001079456 0.00010878777 0.00010324871
000130 0a 57 e1 38 6c 7d d7 38 0b 73 db 38 bb 20 bd b8
       0.00010745048 0.000102753605 0.00010464162 -9.018319e-05
000140 18 fd e1 38 d6 6d d2 38 02 6e db b8 94 8e db 38
       0.000107759784 0.00010034039 -0.00010463224 0.00010469291
000150 5b cf db b8 e5 7b d1 b8 b1 50 db b8 a7 c5 df 38
       -0.00010481357 -9.988974e-05 -0.00010457764 0.00010670284
000160 85 e8 e2 b8 8a a4 db b8 8d 8d db b8 3d 5b de b8
       -0.0001081983 -0.000104733816 -0.000104691 -0.000106027794
000170 76 59 58 38 d4 dc e5 b8 53 15 e5 38 7d 12 e4 b8
       5.158173e-05 -0.000109607034 0.00010923543 -0.00010875331
000180 4f 5a 2b b8 5a 1b 34 b8 ae d0 0a 38 ef 2d 36 b8
       -4.0853683e-05 -4.2940817e-05 3.3096112e-05 -4.343496e-05
000190 42 9b 02 38 89 c0 00 b8 40 72 20 38 c7 e9 21 b8
       3.113901e-05 -3.069689e-05 3.8253376e-05 -3.8603113e-05
0001a0 05 de 35 b8 80 09 2e 38 b3 64 32 b8 78 ee 02 b8
       -4.3360535e-05 4.149368e-05 -4.253229e-05 -3.1216507e-05
0001b0 45 7c 2c b8 9b 00 f0 b7 ea 71 15 b8 12 74 b9 37
       -4.112373e-05 -2.8610511e-05 -3.563046e-05 2.2107768e-05
0001c0 97 4a 2d b8 41 97 d8 b7 52 16 16 38 9f 01 0f b8
       -4.131588e-05 -2.581964e-05 3.5783574e-05 -3.4095367e-05
0001d0 ff 52 18 38 09 19 d6 37 d5 2d 15 38 ce c5 26 b8
       3.631692e-05 2.5522446e-05 3.5567053e-05 -3.9761704e-05
0001e0 5c 46 2f 38 b0 52 18 38 25 83 0c 38 00 dc 20 38
       4.178878e-05 3.6316633e-05 3.350074e-05 3.8351864e-05
0001f0 45 0f 2d b7 21 09 38 38 ac fa 34 b8 06 7f 32 38
       -1.0315159e-05 4.387752e-05 -4.31488e-05 4.2556807e-05
000200 9a 4c bd 37 c5 fe c0 37 65 72 97 b7 75 57 c7 37
       2.2566226e-05 2.300682e-05 -1.8053872e-05 2.3763374e-05
000210 96 5c 8a b7 f2 6d 87 37 7d 5d b6 b7 0d 54 b4 37
       -1.6493996e-05 1.6144451e-05 -2.1739625e-05 2.1496811e-05
000220 0c 23 c6 37 53 f3 bf b7 e6 e1 c1 37 ea 88 8c 37
       2.361976e-05 -2.2882281e-05 2.3112585e-05 1.6753056e-05
000230 51 2d c4 37 d9 84 85 37 b7 1f 9f 37 19 99 17 b7
       2.3386123e-05 1.5916698e-05 1.8969045e-05 -9.035947e-06
000240 5b b1 c0 37 66 f1 68 37 c4 ec a7 b7 72 b5 a0 37
       2.2970771e-05 1.38844825e-05 -2.0018204e-05 1.9157978e-05
000250 83 ba ab b7 c3 c2 6c b7 12 36 a3 b7 8a d7 bb 37
       -2.047164e-05 -1.4112043e-05 -1.9456293e-05 2.2392505e-05
000260 6e 15 c0 b7 3a d1 b1 b7 ae 75 9d b7 4b f2 af b7
       -2.2898163e-05 -2.1197473e-05 -1.8770657e-05 -2.0974452e-05
000270 ef 3e 9d 36 1e a2 c9 b7 af 7a c4 37 8e bf c2 b7
       4.686291e-06 -2.4036559e-05 2.342215e-05 -2.3215802e-05
000280 5a 39 3d b8 5b e3 40 b8 de 5c 35 38 5b 42 42 b8
       -4.5114524e-05 -4.598811e-05 4.3240252e-05 -4.6315003e-05
000290 d0 f8 2d 38 58 01 2c b8 37 e2 37 38 8e 54 38 b8
       4.147814e-05 -4.1009247e-05 4.384128e-05 -4.3947766e-05
0002a0 b8 07 42 b8 b7 90 3e 38 bc 66 40 b8 bf 73 2e b8
       -4.6260393e-05 4.5434306e-05 -4.5872046e-05 -4.159263e-05
0002b0 77 49 3e b8 0a da 22 b8 07 37 32 b8 ce 29 02 38
       -4.536795e-05 -3.8826875e-05 -4.2489755e-05 3.103335e-05
0002c0 6d 57 3e b8 a3 d6 14 b8 ba a2 33 38 ad 00 36 b8
       -4.538095e-05 -3.5485846e-05 4.2828477e-05 -4.339281e-05
0002d0 31 5e 34 38 56 15 13 38 6d cf 32 38 b6 0e 3b b8
       4.3003067e-05 3.50674e-05 4.2631687e-05 -4.4597975e-05
0002e0 5d 18 3f 38 90 29 35 38 85 3c 37 38 6e 91 37 38
       4.556064e-05 4.319247e-05 4.3686963e-05 4.3766042e-05
0002f0 50 3f 31 b7 ca 12 43 38 c3 8b 41 b8 e7 8a 40 38
       -1.0564763e-05 4.650912e-05 -4.614495e-05 4.590573e-05
000300 ba 34 0c 38 16 97 19 38 41 ef eb b7 bd 82 18 38
       3.3427707e-05 3.6618752e-05 -2.8125594e-05 3.6361384e-05
000310 52 a2 dc b7 4a 85 d9 37 20 e7 00 b8 f7 ac 03 38
       -2.630163e-05 2.5930483e-05 -3.073283e-05 3.139392e-05
000320 ca e5 18 38 74 da 0e b8 d8 44 15 38 49 bc db 37
       3.645363e-05 -3.405889e-05 3.5588484e-05 2.6194512e-05
000330 c4 eb 09 38 4b 53 c3 37 3e 61 fb 37 2e 6d 8b b7
       3.288292e-05 2.3284598e-05 2.9966814e-05 -1.6620932e-05
000340 95 2e 0d 38 60 04 a9 37 10 86 f6 b7 00 53 f0 37
       3.3660403e-05 2.0148407e-05 -2.9387913e-05 2.864888e-05
000350 fe 30 f8 b7 33 1c a2 b7 1d 07 f8 b7 39 6c 06 38
       -2.9586718e-05 -1.9325036e-05 -2.9567216e-05 3.204888e-05
000360 7d cf 10 b8 d7 d3 f3 b7 11 87 ec b7 36 58 04 b8
       -3.4525514e-05 -2.9066503e-05 -2.8196288e-05 -3.1553405e-05
000370 a2 95 db 36 9b 9d 1a b8 15 74 18 38 e7 c5 14 b8
       6.544128e-06 -3.6863243e-05 3.6347734e-05 -3.547026e-05
000380 d5 ca 0d b7 1b 47 3a b7 48 a1 de 35 35 2b 36 b7
       -8.45148e-06 -1.11030195e-05 1.6587228e-06 -1.0858105e-05
000390 b8 74 86 35 f3 b5 7c b5 96 a2 ce 36 8c 11 e2 b6
       1.0017748e-06 -9.4142086e-07 6.158206e-06 -6.7373676e-06
0003a0 a7 91 37 b7 35 7a 16 37 b3 a9 2b b7 63 eb 6f b5
       -1.0941562e-05 8.96915e-06 -1.0231905e-05 -8.937697e-07
0003b0 b4 4d 06 b7 a4 cc 0b b4 f7 4a ad b6 76 a3 ca b5
       -8.005114e-06 -1.3019832e-07 -5.164529e-06 -1.5097746e-06
0003c0 d9 f6 10 b7 29 4c a4 35 ce 98 98 36 e8 2f 23 b6
       -8.640543e-06 1.2241118e-06 4.547742e-06 -2.4316778e-06
0003d0 de 96 a3 36 1a 0d dd b5 e3 1d 9e 36 f8 84 f5 b6
       4.875342e-06 -1.6469596e-06 4.712246e-06 -7.3170486e-06
0003e0 6a db 1c 37 c4 8f 91 36 3d 74 d0 35 62 09 e6 36
       9.349411e-06 4.3380733e-06 1.5531037e-06 6.8556265e-06
0003f0 c4 81 43 33 65 18 3d 37 14 37 36 b7 95 ef 29 37
       4.5519997e-08 1.1270958e-05 -1.0860869e-05 1.0128967e-05
