models/SIHCRDNet.pt (torch, 149754 bytes, 66 tensors)

net.0.weight f4 [32, 1]
00000000: e1c7 0b3f 6962 143f c5e6 31be f3f2 273f
00000010: 28a3 18be 4b41 ee3d cd25 b3be 78db d13e
00000020: 2b06 223f c7d0 03bf 1d4d 1c3f 6650 053e
00000030: 0d87 083f 21d2 c63d ca96 ad3e 5018 97bc
00000040: 2755 0d3f 4fdc fc3d 94ee a5be d195 433e
00000050: 06f5 a5be d451 a7bd e4db 90be 3e0d ed3e
00000060: 6b3e 0fbf ca08 aabe a71a 48be 41dd d7be
00000070: aaae 573d a24a 33bf 926b 233f 487f 17bf
0.54601866 0.5796266 -0.17373188 0.65605086 -0.14905989 0.116335474 -0.34989777 0.40987754
0.6329066 -0.51490444 0.61055166 0.13018951 0.5333107 0.09708048 0.33904105 -0.01844421
0.5520806 0.12346708 -0.32408583 0.19100119 -0.324135 -0.08169904 -0.28292763 0.46299165
-0.5595462 -0.3320983 -0.19541417 -0.4216099 0.052656807 -0.70035756 0.63836014 -0.5917859

net.0.bias f4 [32]
00000000: c55d 013c 6058 fdbb 7694 c3bb 142f 953b
00000010: 20a9 883b 1d93 dabb 376e 903b 8e3f 0dbc
00000020: 5d94 823b d597 483b 64b7 d7bb 7492 f33b
00000030: b789 093c 0951 e1bb fe52 d138 ca81 80bb
00000040: e93f 9d3b 025f d93b 4769 2e3b 7477 de3b
00000050: e2c6 8fbb d3d1 563b 95a7 eb3b 8a0f 06bb
00000060: 5a79 9c3b ba19 c2bb 56a1 223c 1571 973b
00000070: f2be 8b3b e436 0ebc 2561 88bb 8d06 fd3b
0.007895892 -0.0077314824 -0.0059686257 0.0045527313 0.004170552 -0.0066703693 0.00440767 -0.00862111
0.0039849714 0.0030608077 -0.006583141 0.00743323 0.00839465 -0.006876115 9.981355e-05 -0.003921722
0.0047988784 0.0066336403 0.0026613043 0.0067891423 -0.0043877224 0.0032778874 0.007191608 -0.002045604
0.0047752084 -0.005923477 0.009926161 0.0046216347 0.004264706 -0.008680079 -0.004161971 0.007721728

net.2.weight f4 [32, 32]
00000000: b506 c63e 8f85 9e3d dd5e 22be d3bd 9d3e
00000010: de24 b33d 7ffa ce3e ef4b 813d e59b 2cbe
00000020: cef7 043e d704 06be 3a38 543e efc6 e53e
00000030: db58 933e 4412 6dbe 19f6 923e f5a5 c83d
00000040: adfa 803e 81a9 a2be 99bd febe 67fb 50be
00000050: 00a5 c4be 2a97 da3e 9a65 1e3e d8c1 503e
00000060: 83e9 2c3e c5c6 d3ba f890 d03e 1ec4 b5be
00000070: 3a79 d03c 70a0 aebe 5683 193e 4b3d 2cbe
00000080: ba75 173e 7640 eabd 5b00 dd3e dd27 9fbe
00000090: 3fea 97be 05b0 9fbe f447 ef3e f4fc 253e
000000a0: 2d20 f73e 2e7c d3be 7aa3 03bf 7404 d1be
000000b0: 1018 b4be bb6f 4c3e f6da 323e f9e8 dd3e
000000c0: dc3d 8bbe c7cd b6be f0b7 8e3e 424b 5cbe
000000d0: 6ce8 a23e a819 e7bd ba82 993e 3e26 cfbe
000000e0: da49 7fbe 99cf 273e 6c92 ec3d 7006 fabd
000000f0: a0e6 963e f6eb b53e 75b0 c1be 4e5e 87be
00000100: 1dd7 e93e 260a 3bbe e625 25be 13db 00bf
00000110: 9165 8abe 2196 d23d 9220 5cbd f229 c4be
00000120: 9ce2 0d3b e4c1 acbe 15e4 e2be 01bb 9cbe
00000130: 292c eabe 09d0 b9be 161f fe3e a088 073e
00000140: 223a 163e cfa2 01bf f465 a4be 8079 40be
00000150: fbc8 bf3d f7c6 cbbe e9e1 51be 0c76 a2be
00000160: c89f 463c f851 34be 116e 8ebc cca8 aabe
00000170: 0c73 d3be 58b6 93be 5a02 3dbe 17ea c8be
00000180: 6cc8 da3e 487b d1bd b02a df3e 89ea 213e
00000190: bac8 debe 4571 b63e 3831 10be f8b8 48be
000001a0: 6f4e d9be 27ac 01bf 2769 143e 2342 dbbd
000001b0: 8ced 4a3e 8907 d4be f10f c23e 3653 c0be
000001c0: 29b3 b5bd cf7c e63d a6c6 863e cf8a d43e
000001d0: d1b8 ed3e 537e d1be 1fe6 023e 5a61 61be
000001e0: 47d7 61bd 47cd c3be 2804 ed3e 228c bfbe
000001f0: 38b3 8d3e 69a5 383e 1bce 283e f2b8 8cbe
00000200: 3058 ee3e 932f ea3d 3448 7a3d 3042 e5be
00000210: 5618 553e 8a35 8fbd 98a8 71be 94b4 e13e
00000220: f2db ec3d 4fa7 91be 0117 83be fa69 9dbc
00000230: 5cb7 923e e4f5 fbbd f8a6 93be ff80 38be
00000240: a852 c2be cd46 3f3e c2ae c83e e515 f4be
00000250: 5783 ed3d 736e 833e f140 b63d 64d6 37be
00000260: 9b58 873e ed12 883e bd33 3e3e 057b bcbd
00000270: 2601 07be 65e7 563d f64c b4bd 5009 1ebe
00000280: 0919 a33e a790 dc3e ffa4 28bd 9a63 fabd
00000290: f8ba 7b3c 25cc 10bd 2b3f 053e 80d7 0a3e
000002a0: 515b f1be ce12 39be f400 d83e e095 463e
000002b0: 2806 07bd b24d 9bbe 02e2 a3be 2c02 eebe
000002c0: ef22 32be 6f51 2e3e 59af aa3e 28a4 673e
000002d0: 16df e2be 0702 a3be 7580 93bd cbe7 f83e
000002e0: b9c3 a63d be7d febd 6cf6 613e 2669 3fbe
000002f0: 234b 9cbe 16e6 c23e 90b3 75be 8987 c1bd
00000300: 21a3 03bf a48f ab3e 96a8 c93e dfcb 373e
00000310: b14f b2be afe9 02bf ffa0 d0be fd6b bf3e
00000320: 8636 743e bc30 df3e 3293 853e f0e2 f73d
00000330: d764 3dbc 3fda cabe 4b4e e3be 1740 f0be
00000340: b731 4f3e a98f 84be 4e63 c4bd 0b3b 9abe
00000350: d238 b0bd a14f b3be b02d a7be 10a4 263e
00000360: 0488 14be deba a43e 9724 20be 0647 bcbe
00000370: 8caa cabd abac 76be e591 26be 586d f5be
00000380: f509 963e cb25 b2be cded 7f3e fed5 743e
00000390: c85f b73e 452e c5be e40f b83e 9fa1 6fbe
000003a0: 469f 493e c7a0 f13e c354 84bd 4188 4f3b
000003b0: 1532 e1bd b92f d7be 9007 813e c759 03bf
000003c0: 650f a63e 8911 c73e 6d74 f33e f0af e7bd
000003d0: 7274 dabe bf31 dc3d 6cc0 8c3e 852a 00bf
000003e0: 7da1 fcbd be46 a0be 108c 52bd a64f 84be
000003f0: ddee 4dbe bb95 2dbe 5f71 f4be d29d d23e
0.38676992 0.07740318 -0.158565 0.30808887 0.08747266 0.40425488 0.06313311 -0.16856344
0.12985155 -0.13087784 0.20724574 0.44878337 0.2877873 -0.23151499 0.28703383 0.09797279
0.2519125 -0.31769946 -0.49754027 -0.20408402 -0.38407135 0.42693454 0.15468445 0.20386446
0.16885953 -0.001615726 0.40735602 -0.35501188 0.02544843 -0.3410678 0.14991507 -0.16820256
0.14791003 -0.11438076 0.43164334 -0.310851 -0.29670903 -0.3118898 0.46734583 0.16209775
0.48266736 -0.4130568 -0.5142132 -0.4082371 -0.35174608 0.19964497 0.1746634 0.43341807
-0.27195632 -0.3570387 0.27874708 -0.21513084 0.3181795 -0.112841904 0.2998255 -0.40458864
-0.24930516 0.16387786 0.11551365 -0.12208259 0.29472828 0.35531586 -0.3782994 -0.26439136
0.4567193 -0.1826559 -0.16127738 -0.5033428 -0.27030614 0.10282541 -0.053742 -0.38313252
0.0021649962 -0.33741677 -0.44314638 -0.30611423 -0.45736817 -0.3629153 0.49633092 0.13235712
0.14670613 -0.5063905 -0.32109034 -0.18796349 0.09364506 -0.39800236 -0.20496334 -0.31730688
0.012123056 -0.17609394 -0.017386468 -0.33331907 -0.4129871 -0.28850055 -0.18457928 -0.39241096
0.42731035 -0.10228592 0.43587255 0.15812124 -0.43512517 0.35633293 -0.14081275 -0.1960181
-0.42442653 -0.5065331 0.14493237 -0.10705974 0.1981718 -0.41412 0.37902787 -0.37563485
-0.08872063 0.11254274 0.26323432 0.41512153 0.46430066 -0.4091669 0.12783097 -0.22009793
-0.055136945 -0.38242552 0.46292233 -0.374116 0.27675796 0.18031849 0.16484873 -0.27484852
0.46551657 0.11434855 0.061104015 -0.4477706 0.20810065 -0.06992634 -0.2359947 0.44083083
0.11565389 -0.2844796 -0.25603488 -0.019215573 0.28655517 -0.12302759 -0.28838325 -0.18017958
-0.37953687 0.18679352 0.3919583 -0.47672954 0.11597317 0.25670204 0.08899105 -0.17952877
0.26434788 0.2657694 0.18574424 -0.092031516 -0.13184032 0.05246677 -0.08803742 -0.1543324
0.31855038 0.4307911 -0.041172978 -0.12226029 0.015364401 -0.035350937 0.13012378 0.13558769
-0.4713998 -0.1807358 0.42188227 0.1939311 -0.032964855 -0.30332714 -0.32008368 -0.46486032
-0.17396139 0.17023252 0.33336905 0.22621214 -0.44310826 -0.31837484 -0.072022356 0.48614344
0.081428 -0.12426327 0.22066659 -0.18692455 -0.30526075 0.38066167 -0.23994279 -0.094496794
-0.5142079 0.33508027 0.39386433 0.17948864 -0.34826425 -0.5113782 -0.4074783 0.37387076
0.23848924 0.4359187 0.26088864 0.12103832 -0.011559687 -0.39619634 -0.4439567 -0.46923897
0.20233808 -0.25890854 -0.09589253 -0.3012317 -0.086045876 -0.3502169 -0.32652044 0.16273522
-0.14505011 0.32173818 -0.15638958 -0.36772937 -0.098958105 -0.24089305 -0.16266592 -0.47934985
0.29304472 -0.3479446 0.24993058 0.23909757 0.35815263 -0.38511863 0.35949624 -0.23401497
0.19689664 0.47192976 -0.064614795 0.0031666907 -0.109958805 -0.42028597 0.25201082 -0.51308864
0.3243362 0.38880566 0.47549763 -0.11312854 -0.42666966 0.10751676 0.27490556 -0.5006488
-0.12335489 -0.31303972 -0.051403105 -0.25842017 -0.2011065 -0.16951649 -0.47742745 0.41136032

net.2.bias f4 [32]
00000000: 06df 9339 d99e 02bc 3d60 69b9 4469 cf3b
00000010: 53e4 a8bb 5d4b 013b 49f3 e4bb b790 ee3b
00000020: 4600 e6ba 1cfd 923b f5ee 333c 1b29 a3bb
00000030: b254 c7bb a6ff 75bb 782d f33b f675 873a
00000040: 697e e9bb baee bf3b b28b 8cbb 69af e03b
00000050: bb7c b03b 6cc7 f0ba f395 abbb b286 083c
00000060: 931c 9f3b aad7 0a3c e082 693b 3338 cc3b
00000070: 62ac aebb 2315 85bb e3bc 023c 77eb 0d3b
0.0002820419 -0.007972443 -0.00022256463 0.0063296873 -0.0051541715 0.0019728758 -0.0069870097 0.007280435
-0.0017547689 0.0044857394 0.010982265 -0.0049792654 -0.0060830945 -0.0037536412 0.007421192 0.0010334838
-0.007125665 0.005857316 -0.004289114 0.006856848 0.005385963 -0.0018369979 -0.005236381 0.008332895
0.0048557012 0.00847427 0.0035630986 0.0062322854 -0.005330608 -0.0040613576 0.007979604 0.002165524

net.4.weight f4 [32, 32]
00000000: cf9a 9bbd 85de 52be 8768 0dbe b5f0 e0be
00000010: bcf2 c8be 46eb 8e3e b565 dc3e 33b4 fd3e
00000020: 8f1f b9be ba9e 8d3e 3104 a7be 9044 973e
00000030: c0d5 a13e 04da cd3e e71e b83e 5cbb a73e
00000040: 91c2 673b 08d2 903e 74ec 55be 4b8c 5e3e
00000050: 3952 35be 6f30 8abc 33bd e2be f21d e6bd
00000060: b9ba 8cbe 3c99 34be d620 a9be c7cb e6be
00000070: a5f9 253d 50dc a23e 7cbd f13e 0027 923e
00000080: 40b6 8abe d294 ffbe 0f05 383e 8589 8f3e
00000090: 5eba dcbe 2a96 333e a8c7 d93e 58ae 193d
000000a0: b447 9abe 4c2a d93e 1286 593e 47f8 a93e
000000b0: ffe6 b6be 41a4 9a3e cf49 b5be 60c7 023f
000000c0: d5d4 63be 116a 973e ff65 bf3d b9db 043e
000000d0: 3c95 aabd 9fe2 503e ce9e 61be 66a3 f3be
000000e0: c0f4 4ebe e2e4 ca3e 333d 0fbe ca9b 2a3e
000000f0: 04e9 3bbe 4e48 c03e 4537 9f3e 66a9 333e
00000100: aa76 80be 288e dabe 6d1c 0f3d 1db6 94be
00000110: 1a41 d23e 9127 f7be 3a58 733e dac5 ff3e
00000120: aa9d 7b3e 0c46 273e df1a f7be 2bec ff3e
00000130: 1acf c0bd 19f9 f8be 626d 033f 872e 5ebe
00000140: 8bc6 d6bc 02c9 f83e 1d74 b0be 27f5 b3be
00000150: be52 bd3d 951c 71bd 318a 013e 1d28 dfbe
00000160: c09b ce3c 66b2 5fbe eabd 76be db0c f4be
00000170: b79c 853e 472b db3d aacf e1be ba85 d43e
00000180: 6a21 183e 28d1 cc3d ad71 9dbe ac43 923d
00000190: 5f7c fe3e 1b3a b03e 0c8f cebe a783 f13e
000001a0: d2c5 383d 44ab 803e a303 c83e 9db0 db3e
000001b0: 12a8 c4be cab0 e73e d33a b4be 45ec 333d
000001c0: 5360 b9be d1ca 03be f70d e3bc 2b52 88bd
000001d0: 9878 adbd 2850 0e3d c28d fd3e c2de 993e
000001e0: 0f7e 8f3e bd89 4b3e a050 c73e e784 91bc
000001f0: e434 3c3d 4199 cb3d b90e e1be 0d92 d5be
00000200: 5aea 633d 8617 46be b558 a8bb a2cb fcbd
00000210: 0deb ae3d cf3f a63e e43d 34be baa6 d43e
00000220: c135 d13e 2b66 c4be 14bf ccbe c9a8 d6be
00000230: 7414 93be 5f54 45be 7f0b 36bd 0957 f1bd
00000240: 8082 87be 6028 22be 7223 42be dab1 fd3e
00000250: ad55 47be 430e bebe 430c 593e aa31 94bc
00000260: 3da2 c43e c0b0 a03e cbce ed3e 2a02 bcbe
00000270: 26f0 aa3e 6434 d83e 20d1 7bbe d760 ed3e
00000280: 2c5c c03e ee9e 4e3c 1582 763e 1ed6 3dbe
00000290: 5b59 e0be 2d98 f93d 73bf 143e 6e5e a7be
000002a0: 632a 823e 6bde dbbe 2123 dd3e 9963 f93e
000002b0: 8ac2 143e 3a3e a0be 9f1d 773e 571c c03d
000002c0: da0c 073e c62c 2b3e f763 c33e cbba 67be
000002d0: 902d fabd 4f60 073e 5b2c 4a3d 7e82 d63e
000002e0: 02c2 8cbe 1869 d2bc bc1e b53d bfdb 03be
000002f0: 89bc b53e 8f3e 483d cbf4 edbe 5f2f 7fbd
00000300: f220 6dbe 8924 493d 457d 81bd de8e 01bf
00000310: d9da bdbd db79 4abd 5d79 1abe 5fc0 f03e
00000320: 4c67 e3bd d87b a83e 464b 023e 23a3 dcbe
00000330: 161e f13d 4543 d83e c6ac aabe 6aae a8be
00000340: 97a1 ff3e f885 cb3e 043e 92be 9e49 9d3e
00000350: 443a 82bd e2bd 00bf f7fa 133d 870e 283e
00000360: e394 1cbe 7d75 363e 2346 dfbe d960 b53e
00000370: 7b67 de3e bbe0 8f3e 535c b13d 3f70 2c3e
00000380: 6fde bbbe 45d4 04be 0bc4 40bd ada8 90be
00000390: e29b c1be 5c15 b03e b32a b23e e7e8 edbe
000003a0: 868b 243e b2b0 533e 1ad8 f83e 5dbe 973e
000003b0: f59d ee3e a0b6 2cbe e8f9 b73e 5cb5 d33e
000003c0: a9aa f5be caa9 d2be 4ae1 d43d c5a1 8f3e
000003d0: 33e8 80be 93c9 6c3d 1be0 c739 97ca 033e
000003e0: c530 8bbe b567 943e 08cd ae3e fc18 b6be
000003f0: 85d4 443b fc43 233b f4e8 253e 4b1c f43e
-0.07597887 -0.20592697 -0.13809405 -0.43933645 -0.39247692 0.27913874 0.43046346 0.49551544
-0.3615689 0.2766016 -0.32620385 0.29544497 0.3160839 0.40205395 0.35961077 0.3276013
0.0035363773 0.2828524 -0.20890981 0.21733205 -0.17707147 -0.016868798 -0.44284973 -0.1123618
-0.27486208 -0.1763658 -0.33032864 -0.45077345 0.040521283 0.3180871 0.47214878 0.2854538
-0.2709217 -0.49918228 0.1797068 0.28034607 -0.43110937 0.17537752 0.42535138 0.037519783
-0.3013283 0.42415082 0.2124255 0.33197233 -0.3572311 0.3020344 -0.35407874 0.5108547
-0.22249158 0.2957311 0.09345626 0.12974443 -0.083292454 0.20398949 -0.22033235 -0.475856
-0.20210552 0.3962775 -0.1398819 0.16660991 -0.18350607 0.37555164 0.31096855 0.17545089
-0.25090533 -0.42686582 0.03493922 -0.2904519 0.41065294 -0.48272374 0.23764125 0.49955636
0.24571863 0.16335315 -0.4826269 0.4998487 -0.094145015 -0.48627546 0.5133878 -0.21697436
-0.02621772 0.48590857 -0.34463587 -0.35147974 0.092442974 -0.05886515 0.12650372 -0.43585292
0.025220752 -0.21845397 -0.24095884 -0.47666058 0.26096126 0.10701614 -0.44103748 0.41508275
0.14856496 0.10000831 -0.3075079 0.07141814 0.49704263 0.3441933 -0.4034351 0.47170755
0.04511053 0.25130665 0.39065275 0.42908183 -0.38409477 0.45252067 -0.3520113 0.043926496
-0.36206302 -0.12870337 -0.02771662 -0.06656297 -0.08470267 0.03474441 0.49522215 0.30052763
0.28025863 0.19876762 0.389287 -0.017763568 0.045948878 0.0994134 -0.43956545 -0.4171299
0.055643417 -0.19344911 -0.005137528 -0.123435274 0.08540926 0.32470557 -0.17601734 0.41533452
0.40861323 -0.38359198 -0.3998953 -0.41925648 -0.28726542 -0.19270466 -0.044444557 -0.11784179
-0.2646675 -0.15835714 -0.18958834 0.49549752 -0.19466276 -0.37120256 0.21196084 -0.018090088
0.38405028 0.3138485 0.46446833 -0.367204 0.33386344 0.4222747 -0.24591494 0.46362945
0.37570322 0.012611134 0.2407306 -0.1853871 -0.43818173 0.12187228 0.14526157 -0.32689232
0.25422964 -0.4294313 0.43190864 0.487088 0.14527336 -0.31297475 0.24132393 0.093804054
0.13188496 0.16716298 0.38162205 -0.2262985 -0.122157216 0.13220333 0.049358707 0.41896433
-0.27491766 -0.025684878 0.08843753 -0.12876795 0.35495403 0.048887786 -0.46475825 -0.062301036
-0.23157099 0.04910711 -0.063227214 -0.50608623 -0.092702575 -0.049432617 -0.15085359 0.47021767
-0.11103687 0.32906985 0.12724027 -0.43093213 0.117733166 0.42238823 -0.3333494 -0.32945567
0.4992797 0.39750648 -0.2856294 0.30720228 -0.063587695 -0.5028974 0.03612801 0.16411792
-0.15291171 0.17818256 -0.43608198 0.3542545 0.43438324 0.28101143 0.086601876 0.16839693
-0.3669314 -0.129716 -0.04706196 -0.2825369 -0.37814242 0.34391296 0.34798202 -0.46466753
0.16068849 0.20672873 0.48602372 0.29637423 0.46604887 -0.16866541 0.3593285 0.41349304
-0.47981766 -0.41145164 0.10394533 0.28053108 -0.25177154 0.057809424 0.0003812321 0.1287025
-0.27185646 0.28985372 0.341408 -0.35565937 0.0030033898 0.0024912348 0.16202146 0.47677836

net.4.bias f4 [32]
00000000: 78eb 663b 2ccc 993b 261b 8aba f7a2 94bb
00000010: 8a01 1abb 891f b6bb 1891 373c 1069 03bc
00000020: 1a38 a73b 1d0e d53b a7e5 64bb ff54 c9bb
00000030: 5a76 dfbb 9ab5 22bc ee75 a73b 2d67 c93b
00000040: 8884 763b 3834 b3ba 92f3 96bb 2c38 073c
00000050: 3189 80bb a16c e23b 6131 cf3b e2cd 08bc
00000060: 9d5d 9f3b d9cc 01bc 9811 efba 96e8 f5bb
00000070: 0c80 33bb ffbf 0e3b d874 893b da83 de3a
0.0035235565 0.0046935286 -0.0010536655 -0.0045360285 -0.0023499453 -0.0055579585 0.011204027 -0.008020654
0.0051031234 0.0065019266 -0.0034926923 -0.0061441655 -0.0068195285 -0.0099309925 0.005110494 0.0061463327
0.0037615616 -0.0013672179 -0.0046066726 0.0082531385 -0.0039226045 0.006909922 0.006323025 -0.008349868
0.0048634545 -0.007922375 -0.0018239496 -0.007504533 -0.0027389554 0.002178192 0.004194837 0.0016976551

net.6.weight f4 [32, 32]
00000000: 97bf c7be c555 a63e e862 a9bd 9862 d6bd
00000010: 2deb c13d 757b c73e 3518 89be a8f6 b6be
00000020: 3fda 9c3e 1eea 76be 5d9c 1e3e 54eb 7dbd
00000030: a8ed 1a3e d44e cc3e 92a3 89be 42f8 83be
00000040: fda6 763e c37a faba f794 87bd 217b e3be
00000050: c909 d03e edd6 d4bc af5b adbd cb9b 4bbe
00000060: c6a2 e1bd b8bd 843e f5f9 b3bc 43dd e63e
00000070: 4e42 a1bc 6fa2 81bd 59ba 9a3e d6e4 3dbb
00000080: 4bbd e4bd 1759 213e 4ee8 c93e 3db8 163e
00000090: 69fb b53e 17f0 a43e ebd8 1b3e 5616 223e
000000a0: ba99 233e 05fe 253d ee92 d93e 7c9b f93e
000000b0: 91fd 463e 823e 94bc 5a60 e63e a894 cfbe
000000c0: 83ca bc3e 73be 6f3e 8755 a23e dd7a 37bd
000000d0: 473f d5be b8b7 bb3e ccab 60be 4879 133e
000000e0: 7626 903e 62ab eebe 66ad be3c 812c 2ebe
000000f0: 6095 bd3e 19cc a1be 8069 a53e a8e3 a73e
00000100: 79bd 923e 91c6 f53e 7eed 923d 844f e6be
00000110: 5f14 b73e e46e 1b3d 4e59 9b3c 6d1b fdbe
00000120: 27e2 fbbd 805b 76be 9966 fb3e f9de bd3e
00000130: 14c8 c53e 0b66 b73e 1d73 a6be f62d 69be
00000140: 5930 55be c78d 5dbe 76d3 c63e 064c 383e
00000150: 891a c53e 0f1b f1bc 5abb e3be b9a8 0ebe
00000160: 4019 b33e 280f a43e a9d7 173e ad26 0dbe
00000170: 1b59 efbe c4f2 87be 55fd 8c3e 0b9b 49be
00000180: b088 803e b847 043e 3e61 53be 091b a53e
00000190: f41b 2fbe 6fe9 cebc 0996 3ebe d3ed febe
000001a0: 4d4d 973d 3032 0f3e fad7 87be 5bd5 a43e
000001b0: 4b9b e4be adb6 f7be 36bd a5be 597d 3dbe
000001c0: 316b 84bd 301a f3bd 2448 653e 223b e4be
000001d0: 4f61 823d 94f1 1d3b 8479 113e a91a 043f
000001e0: 28b7 9c3e c9cb 8bbe 6977 dabe 32b0 e6bd
000001f0: c093 7dbe 1f6a 3f3e 97c0 8e3c fce6 d63e
00000200: 4fa1 543e 7b19 ddbd 9f5c 673c a3f4 073e
00000210: a190 8cbd a0e3 cf3e 6040 c9be c66a 6d3e
00000220: 4b98 aabe 804e e5be 1ef5 e1bd 0620 843e
00000230: 0e07 bd3e f718 093e a4de 50bd 71a0 13bd
00000240: b97d 5abe e5f5 b9bd 5169 2ebd ffb2 d93e
00000250: 266f 8d3e 93a5 d2be 9e41 043c bfc8 9cbe
00000260: 1aae b1bd 885a cbbe d8b2 013e 5ca3 b4be
00000270: e87d 023f 16db c83e 6cf3 abbe cb25 f2be
00000280: c321 c73c 0d1f 0fbe 9344 143e 642c aebe
00000290: 4979 583e 70fa e0be 13d2 8abe 20a3 8bbe
000002a0: 443a 7d3e ab1e 9ebc b5ab fabe 0d42 92be
000002b0: ede9 74be 7279 f3be 75fb 883d 9ddf 3b3e
000002c0: 4b69 bdbd fadd 4bbe fe1c 1cbb 2a0f d3be
000002d0: 4c44 98be f7e6 efbb 76ec e73e 80ef 21be
000002e0: 554b 823e 9b86 4dbe 2f4c 09be 2ace f9be
000002f0: 63cf d73e 48f6 fd3e e5aa 91bb e008 a63e
00000300: 23c8 d03e eb4f 863e a804 943e 32a3 febe
00000310: 2e99 eebe 3931 c2be 3da0 163e 2d85 dcbe
00000320: 30d5 c0be 4b3d 55be c8c2 e9be 6321 68bc
00000330: dbf4 683d 6539 9fbe 6543 b13e 2e42 39be
00000340: 7748 06be b515 b33e fd81 e63e e10a 94bd
00000350: d02b d1be b245 79be f0ec 6e3d 7409 933e
00000360: 1737 883e 1848 72be 5b80 f0be f1f8 e9be
00000370: 9743 33be 56bb c7bb 33ef 77be 9452 d5be
00000380: 163c 503d 14de c9be 5679 d1be 1b9c d4be
00000390: 3032 11be 857e e53e 0600 4e3e 787b 67bd
000003a0: df91 d93d da8f 433e e90a 7eba d60b d2be
000003b0: 9983 9ebe 359a b0be 62c4 54bc 0364 efbe
000003c0: 3273 bfbd e1d9 0bbe 5614 003f 675a dd3e
000003d0: 5001 ad3e 8278 9c3c 240d 2bbe 1d91 033e
000003e0: 5f67 b5be 1b38 60be 5326 d5bd b046 05be
000003f0: 608c f6be b3a5 503e d38e d53e 4dca 8fbe
-0.3901336 0.32487312 -0.08270818 -0.10468024 0.09468684 0.38961378 -0.2677628 -0.3573506
0.3063526 -0.24112746 0.15489335 -0.061992005 0.15129721 0.3990389 -0.26882607 -0.25775343
0.24087138 -0.0019110072 -0.0662021 -0.44429877 0.40632465 -0.02598139 -0.08464753 -0.19883649
-0.11017375 0.25925994 -0.021969775 0.45090684 -0.019684937 -0.0632981 0.30220297 -0.0028975508
-0.11168917 0.15756641 0.39435047 0.14718719 0.35543373 0.32214424 0.15219466 0.15828833
0.15976611 0.040525455 0.4249491 0.48751438 0.19432665 -0.018096212 0.44995385 -0.40543103
0.36873254 0.23412494 0.31705877 -0.044794906 -0.4164984 0.36663604 -0.21940535 0.14401734
0.28154343 -0.4661513 0.023276042 -0.17009164 0.37028027 -0.31601027 0.32307053 0.32790875
0.2866018 0.48003057 0.07174204 -0.4498254 0.3575773 0.03794755 0.018963482 -0.49434987
-0.122989945 -0.24058342 0.49101713 0.37084177 0.3862921 0.3582004 -0.325097 -0.22771439
-0.20819224 -0.21636115 0.38833207 0.1799775 0.38496807 -0.029431848 -0.44478875 -0.1393155
0.34980202 0.32042813 0.14828362 -0.13784285 -0.4674767 -0.26552403 0.27537027 -0.1968805
0.25104284 0.12917984 -0.20642564 0.3224719 -0.17100507 -0.025257794 -0.18611921 -0.4979082
0.07387791 0.13983989 -0.26531965 0.32194027 -0.4464973 -0.48381558 -0.3237092 -0.18504848
-0.06465758 -0.11870229 0.223908 -0.44576365 0.063662164 0.002410029 0.14206511 0.5160318
0.30608487 -0.27303913 -0.42669228 -0.11264075 -0.24763393 0.18692826 0.017425818 0.41973102
0.2076466 -0.10795876 0.014121204 0.13276915 -0.06863523 0.40603352 -0.39306927 0.23185262
-0.33319315 -0.44786453 -0.110330805 0.25805682 0.36919445 0.1338843 -0.050993577 -0.03604168
-0.21337022 -0.09080104 -0.042580906 0.42519376 0.27623862 -0.41141948 0.008072285 -0.30621907
-0.08675785 -0.39717507 0.1266588 -0.35280883 0.5097337 0.3922965 -0.33584154 -0.4729446
0.024308091 -0.13976689 0.14479284 -0.34018242 0.21140017 -0.4394107 -0.271134 -0.27272892
0.24729258 -0.019301733 -0.48959127 -0.28566018 -0.2391736 -0.47553593 0.066885866 0.1834702
-0.09248599 -0.19908896 -0.0023820992 -0.41222507 -0.29739606 -0.0073212343 0.45297593 -0.15814018
0.254481 -0.20070879 -0.13407968 -0.48790103 0.4215041 0.4960196 -0.004445421 0.32428646
0.40777692 0.26232848 0.28909802 -0.49733883 -0.46601242 -0.3792818 0.14709564 -0.43070355
-0.3766265 -0.20824163 -0.4565642 -0.014168116 0.056874137 -0.31098476 0.3462173 -0.18091652
-0.1311358 0.349775 0.45021048 -0.072286375 -0.4085374 -0.24342993 0.05833143 0.2871815
0.2660453 -0.23660314 -0.46972927 -0.4569774 -0.17506252 -0.00609533 -0.24212341 -0.41664565
0.050838552 -0.39427245 -0.40912884 -0.4152535 -0.14179301 0.4482309 0.20117196 -0.056514233
0.10623526 0.19097844 -0.0009690957 -0.41024655 -0.30959776 -0.3449265 -0.012986274 -0.4675599
-0.09348144 -0.13657333 0.5003103 0.43233034 0.33790064 0.019100431 -0.16704232 0.12848325
-0.35430428 -0.21896403 -0.104077004 -0.13015246 -0.48153973 0.20375709 0.4171053 -0.2808403

net.6.bias f4 [32]
00000000: d1c1 a5bb 371d b83a 3b19 24bb bf7a 2dbb
00000010: b8e2 0abc 28f3 f03b b975 903b 4dc0 c33b
00000020: 1afc c43b ae33 a4bb dde6 45bb 89d5 173c
00000030: 5780 d2bb 0ec8 f4ba e5fe a83b c97e 0c3c
00000040: e964 96bb 2d6b b63b c693 cb3b b296 c3bb
00000050: f0e4 313b 3f1e af3b cc6f 2e3a 7e45 04bb
00000060: 5707 09bc e253 38bb 9184 94bb d331 913b
00000070: 10db b2bb 4417 be3b 7723 f2bb 4e79 08bb
-0.005058505 0.0014046793 -0.0025039453 -0.0026470867 -0.0084769055 0.0073532052 0.004408565 0.005973852
0.006011498 -0.0050110435 -0.003019742 0.009267219 -0.0064239907 -0.0018675344 0.005157339 0.00857515
-0.004589666 0.0055669756 0.0062126843 -0.005968892 0.0027144514 0.005344182 0.0006654232 -0.0020183022
-0.008363566 -0.002812617 -0.0045324047 0.0044309883 -0.005458243 0.0058011133 -0.0073894816 -0.0020824256

net.8.weight f4 [32, 32]
00000000: a14b 4c3e d07e c83e 1ac0 16be be7d da3e
00000010: 7fec b9bd a2d7 a9be 51a7 4fbe 65ff 0f3d
00000020: f238 f3bd 7148 813e a496 90be 25bd 0ebe
00000030: 78f8 01bf 9dc1 c33e e970 bbbd c096 cabe
00000040: db14 fdbb 05cf d83c 7558 f23d 436e 54bd
00000050: f8e9 a03e 67ed 2ebe df4f 1ebe 4570 1abe
00000060: 3ef7 a03d f0e6 c53e 9784 d4bc b5f2 d33e
00000070: 67a6 cb3e 7f5d 8abe 6e5c 17bd acd1 7abe
00000080: 9582 603e 09d3 30be 2582 263e e50b 023d
00000090: a0d3 a6be 8117 b5be c1d0 00bf b6d2 8ebe
000000a0: 322a 003e 594b cc3c f950 c13e 55db e1be
000000b0: 6dbb afbc ff96 f0be 47ce dbbb b8c1 373e
000000c0: 746d e6be b5b1 ea3e 75d3 1fbe 185b e43e
000000d0: bdd0 bbbd 2af9 8e3e 54d4 f03e b522 44be
000000e0: ba76 70bd 3ec0 863e 2e62 dcbe 0ff9 9d3e
000000f0: 1b0d a1be 13b6 f53e 5a14 adbe bba8 54be
00000100: 1890 c13e ef2c 69be da9e dc3e f7b0 b33e
00000110: ee2d e73e 6c5c f8be 241f e33b 2d93 33be
00000120: 634e f93d 9b10 c3be 4904 5d3e 27da 01bd
00000130: cae7 6fbe 1096 e4be 36b2 8c3e 040f 38be
00000140: 403f bc3e 1484 aa3d b4db 173e a3ec 91bd
00000150: f880 82bd bfcc 2bbe 5594 e5be 45db a83e
00000160: 5497 c0be 9d54 9c3e 0677 36be 1386 9f3e
00000170: ac85 dd3e 4be5 a2be be78 db3e dcf5 833b
00000180: 2699 cebe 8921 503e 3df4 8e3e c91c df3e
00000190: b944 fcbe f643 f13e d4ef c93e 8819 ff3e
000001a0: 26ab 933e 5a9b 7bbe e2d5 c63e 4f37 ed3e
000001b0: 1976 47be 8901 b7bd dfde cf3e d007 d63e
000001c0: 4bc8 a73e 7b7f ca3e 806c 88be f068 acbd
000001d0: 6917 51be faad 8d3e 7773 fb3d 9e2e d0be
000001e0: 721a b5bd ae3d d8be 4e81 f7be 8099 f13e
000001f0: 5241 86be bc31 683e c4e9 f2bd 461d bebd
00000200: acae 223c 0111 c93e 820c 9ebd cc95 e23e
00000210: 23b0 8c3e 04c4 b93e bc7a f3be 8ba7 7ebe
00000220: baa5 c8be d613 d6bd 3e34 c8bd 6863 c43d
00000230: 1767 ee3e ad31 7f3e 06b8 b4be df77 a2be
00000240: 79f7 be3e 200d 1b3d 1fdb 0b3e 11be 85be
00000250: 7d45 54bd 29c6 173e 06e6 aebe 6ec4 b33e
00000260: 7128 763e 6ac6 90be f10a 5cbe c202 09be
00000270: 1f43 9b3d 46a6 45be 6e0a fd3e bd0c ffbe
00000280: dee9 8ebe 7daf 9abe 214d 163e b196 a93d
00000290: 6ff4 09be 638c db3e f78d e4be 4545 413e
000002a0: 487c 8dbe 1ea2 ffbd d9d1 ffbe ab8a bdbe
000002b0: cd35 e2be 390e 583e 7b8b 4fbe 9e51 843e
000002c0: bb24 89be d7cf f4bd dde5 943d 4fc1 d63e
000002d0: ee3d 15be 4d09 913e f4d0 183e 161f 9d3e
000002e0: 6e8b e13e b645 4d3e 6b44 15be c28e 09be
000002f0: e53c 523e 2ca4 923e 1723 00bd 4420 843e
00000300: 3e74 9ebe 9c59 9b3e 821d 3ebd 02c8 babe
00000310: 63a7 75be 0d0c cfbe 1e57 e13d 8a6e 8fbe
00000320: 2c19 2cbe 0c82 36bd 0e5d a9be 9986 003d
00000330: 7359 adbd 7314 ff3d d191 b73e 7cb8 a3be
00000340: 24e4 9a3e ae5a a73c c6d1 89be f07a 7dbe
00000350: dcbb d83d ce8b c43d 63f2 a93a 66ee 8dbe
00000360: ce89 6c3e 7574 3c3d 6896 f5be 2230 7bbd
00000370: 7db0 00be af12 4ebe 59a8 9bbe 77af cbbe
00000380: 7a9a fc3e bde0 f1be 5f02 f03e 8d41 d6be
00000390: cf0f c8bd f077 5cbe 6b12 86be 64e2 323e
000003a0: 6e7d 993e 3c67 a6be 1d6f 6cbe bc07 823e
000003b0: 94d7 63bd 1289 fc3d d7bc 8a3e 11e9 37be
000003c0: e090 91be 9707 3d3e c15b 4fbe 9a6e aabe
000003d0: dd16 80be 102c 6ebe e880 003f 94ee c63d
000003e0: f5dd 6a3e d347 9c3d e677 b3be 0764 b93e
000003f0: 8ba4 b3bd 62cb 0ebe 7f11 da3e f1ce 88be
0.19950725 0.3915925 -0.14721718 0.4267406 -0.09078311 -0.33172327 -0.2027867 0.035155673
-0.11876096 0.2525058 -0.2823993 -0.1393934 -0.5076976 0.38233653 -0.09152395 -0.39568138
-0.0077234334 0.026465902 0.11833278 -0.051862966 0.31428504 -0.1708275 -0.15460156 -0.1508189
0.07859658 0.38652754 -0.02594213 0.41396108 0.39775392 -0.27024457 -0.036953382 -0.24494046
0.21924813 -0.17268004 0.16260584 0.031749625 -0.32583332 -0.35369495 -0.50318533 -0.27895135
0.12516096 0.024938272 0.3775709 -0.4411265 -0.021451676 -0.469902 -0.00670794 0.17944992
-0.4500538 0.45838705 -0.15608008 0.4460075 -0.09170673 0.27924472 0.47036994 -0.19153865
-0.058706976 0.26318544 -0.43043655 0.3085408 -0.3145531 0.47990474 -0.3380459 -0.2076749
0.37805247 -0.22771047 0.43089944 0.3509595 0.4515223 -0.48508012 0.0069312025 -0.17536612
0.12173154 -0.38098606 0.21583666 -0.031702187 -0.23428264 -0.4464574 0.27479714 -0.17974478
0.36767006 0.08325973 0.14829904 -0.07125213 -0.06372255 -0.16777323 -0.4483973 0.3297979
-0.37615454 0.30533305 -0.17818841 0.31156978 0.43266046 -0.31815562 0.42865556 0.0040271115
-0.40351218 0.20325293 0.27920714 0.4357665 -0.4927118 0.47122163 0.39440787 0.49824166
0.28841513 -0.2457098 0.38835055 0.4633126 -0.19478644 -0.0893584 0.40599725 0.41802835
0.3277 0.39550385 -0.2664528 -0.08418453 -0.20419087 0.27671796 0.122778825 -0.40660566
-0.08842935 -0.42234558 -0.4834084 0.47187424 -0.2622171 0.22675222 -0.118609935 -0.09282927
0.00992934 0.39270785 -0.077172294 0.4425491 0.27478132 0.3628236 -0.47554576 -0.248686
-0.3918894 -0.10453002 -0.097755894 0.09589273 0.46563026 0.24921294 -0.3529665 -0.3173208
0.37298182 0.037854314 0.13657807 -0.26121572 -0.05182408 0.14821686 -0.3415987 0.351108
0.24038865 -0.28276378 -0.21488549 -0.13379958 0.07581162 -0.1930171 0.4942202 -0.49814406
-0.27912802 -0.30212012 0.1467786 0.08280695 -0.1347215 0.42880544 -0.4463956 0.1887408
-0.27633882 -0.12482093 -0.4996479 -0.37019858 -0.44181672 0.21099176 -0.20268051 0.2584352
-0.26785836 -0.11953705 0.072704054 0.41944358 -0.14574406 0.28327408 0.1492346 0.3068778
0.4405169 0.20046124 -0.1457688 -0.13433364 0.20531042 0.28640878 -0.031283464 0.25805867
-0.3094806 0.30341804 -0.04641486 -0.3648072 -0.23989634 -0.40438882 0.110029444 -0.28014022
-0.16806477 -0.044557616 -0.33078808 0.031378362 -0.08464327 0.12455072 0.35853437 -0.31976688
0.30252182 0.020428982 -0.26917857 -0.24753928 0.10582706 0.09596978 0.0012965914 -0.27720946
0.23099443 0.0460095 -0.47966313 -0.0613252 -0.12567325 -0.20124315 -0.30401877 -0.39782307
0.49336606 -0.47241774 0.4687681 -0.41846886 -0.0976864 -0.21530128 -0.26185927 0.17469174
0.29978508 -0.32500637 -0.23089261 0.25396526 -0.055625513 0.123308316 0.27097198 -0.17960002
-0.28430843 0.18459927 -0.20249845 -0.33287507 -0.25017443 -0.23258996 0.50196695 0.09713474
0.22936232 0.07630887 -0.35052413 0.36209127 -0.087716185 -0.13944772 0.42591473 -0.26720384

net.8.bias f4 [32]
00000000: 32c8 c43b ebcb 823b bbe6 41bb 553e 153c
00000010: 1b39 fabb 50be 1d3b 4195 743b f13e 8d3b
00000020: 45dc 9d3b 9362 ecbb 6978 cebb 171c a73b
00000030: cce9 623b 51fa dd3b 3ddf bfba 1732 4fbb
00000040: 91f2 0cbc bbe7 2dbb c554 5f3b 2cf5 45bb
00000050: 4163 793b 80c1 6c3b a03f 05bb d407 873b
00000060: 602c 013c 344c e83b 52a2 453b ab5d ac3b
00000070: 4376 053c d362 c33b 0c09 b4bb 729f 8ebb
0.0060053105 0.003991594 -0.002958699 0.009109099 -0.007636202 0.0024069734 0.0037320408 0.0043104817
0.004817518 -0.0072138994 -0.006300975 0.005099784 0.0034624217 0.006774225 -0.0014638674 -0.003161555
-0.008602754 -0.0026535827 0.0034077626 -0.0030205948 0.0038053545 0.0036126077 -0.0020332113 0.004120806
0.007884115 0.0070891622 0.0030156565 0.0052601895 0.008145872 0.0059627085 -0.0054942425 -0.0043525035

net.10.weight f4 [32, 32]
00000000: cc5f 56be f31f 71be 4253 61be e363 61be
00000010: 865a 713d f86d 013f 6847 aebe 6caa 7bbe
00000020: fd99 aabe 8adf 67bc 0a69 313d bc46 b6be
00000030: b98d 743e 946c eebe 487b f53e 5e49 b33d
00000040: d1aa 48bd 5628 32be 6fcf 5d3e b1a2 ba3e
00000050: f6ac afbe a057 0abe 159c bc3e 23ad a6bd
00000060: 9cb7 bbbe bfa4 21be 56d9 cc3c 4d65 a9bd
00000070: 1f75 b2be 48ca 9fbe a5a7 143e 9d79 b93e
00000080: b1d0 e83e 4b01 58bd 4f74 583e aa71 cdbe
00000090: 0b12 873e c6db f43e 1f60 8f3e 7837 52be
000000a0: 3520 d73e d413 f9be f2a8 68bd 5188 04be
000000b0: 9dd2 01bf 3fa8 97be bc2e bbbe 8bf2 ff3d
000000c0: d712 60bd 1a89 753e 6db7 edbd 449a d93e
000000d0: 2780 733d d12a d63e f9c4 cf3e e387 e7be
000000e0: a99e adbe 1107 a13e c603 f63e 7acd e6be
000000f0: 80b7 abba c0d3 43be b9f8 f83e ff09 df3e
00000100: 8b91 bf3e bea3 8b3e d900 43bd accb f13e
00000110: b481 68be 6023 673d a16c 24be 2b39 bdbe
00000120: 9132 78be 1844 033e beab 4abd 8ded aabe
00000130: 1722 85bd 5050 b73d 1c7e b7be effd a03e
00000140: e5fc d8be e1f7 453b b149 d5be 0ac8 e8be
00000150: 78cd 8fbd ca1a ee3e 79a1 f83e e0cb 4f3e
00000160: 62b8 c63e 15e6 8fbe c221 943e f5b8 a83e
00000170: f668 f6be a6bb c8be 5f00 5f3e 8c96 4d3d
00000180: bf23 b5be e05c c9be 0676 b73e e737 373d
00000190: 9132 b83a 4108 f1be 61b3 e63e 7465 b1be
000001a0: 58b3 713e bf17 79bd c9d2 b43c 30fe 7e3e
000001b0: ae41 08be 7931 18be e68f d33e 5d4a ccbe
000001c0: 6c35 6b3e 6914 07be 21a9 38be 3d54 a93e
000001d0: b50b b63d 3f63 f7be 3b21 e53e 6ff0 84be
000001e0: c058 e33e bb59 1dbe f848 023f 7a45 193e
000001f0: 4cb4 82bc f616 4f3e 37d0 08bc 5871 73be
00000200: b566 8f3e cc18 ac3e 8007 82bd 0d87 f23e
00000210: cde9 043d 6625 95be 4941 90be a667 ad3e
00000220: d25f 4fbe a6f2 a73e 7379 fbbe b1af 3d3c
00000230: 4802 b3be cb96 323e 35c6 d73e cdff 403e
00000240: ec5d 3bbe 8ca2 ecbe 069e 7dbe 9077 9ebe
00000250: b138 f53e 9207 8ebe 280f 483e ef7f cb3e
00000260: 5b00 513e 4460 e4be 232d 83bd 7238 19be
00000270: 7f7a a33e 7245 37bd 839a e1bc fdd4 e73e
00000280: 60f5 003e 16e6 6d3e db33 1dbe 0904 9f3e
00000290: 2ce0 e03d 5924 b1bd 4d03 133d e7f5 cdbe
000002a0: e51c f53c 7298 7f3e 2de5 f3be d14d 8fbe
000002b0: 7192 a63e 5c2d 4f3b 785a 9abc 3d69 8a3d
000002c0: 4564 46be f2bd de3e 0993 9cbd ac1a 2dbe
000002d0: 3115 7d3e 9953 d9be fe94 bbbd b255 023e
000002e0: 615b 2abe 060e 8e3e 4ecc dabe 05f4 bfbd
000002f0: 072b 54be abeb f53e 0b0a 583e 65d2 c0be
00000300: eedb 413e e520 a6bb 09b5 ed3e ec8c 923e
00000310: f172 a4be aa52 e33e f9bc 7abd 0155 f8bd
00000320: 94fc 1d3e 43a1 fe3e 7a80 213e 42dd fcbe
00000330: 45f0 24be f89d f23e 77b8 33be 23d8 82be
00000340: 96c9 d8be f4e5 8fbe 7909 8dbe 0021 ee3d
00000350: 201f 643e e8c4 f63e 0cde a73e efab 0fbd
00000360: c80c 8e3e 925f 983e 722b e1be 313c 6a3e
00000370: 3c68 b6be df10 cb3e 0178 5ebe 042f e43d
00000380: 6c32 b03a 09d3 673e 1782 c93d 2b67 c0be
00000390: b82f 6b3e 9963 9d3e fa99 a2be e097 a5be
000003a0: 1976 b2be 6693 70be f414 95bd bda2 353d
000003b0: 2424 04bc bb02 07be 4299 9e3e 3957 103d
000003c0: b893 8dbe e42c efbd eb94 9cbe 956d 24be
000003d0: 9d7b fdbe 480e c43d ebd7 c6be 9b9e 883e
000003e0: 93df af3e 072e c5be a22a 89be c698 bebe
000003f0: 7189 133e c144 c53d 1d4a 89be 7470 9d3e
-0.20934981 -0.23547344 -0.22004417 -0.2201076 0.05892422 0.50558424 -0.34038854 -0.2457673
-0.3332061 -0.014152417 0.043313064 -0.3560084 0.23882188 -0.46567214 0.4794562 0.08754228
-0.04899103 -0.173982 0.21661161 0.3645225 -0.34311646 -0.13509989 0.3683783 -0.08138492
-0.3666352 -0.15785502 0.025005978 -0.08271275 -0.3485498 -0.31209016 0.14517076 0.36225596
0.4547172 -0.052735608 0.21138118 -0.4012578 0.26380953 0.47823924 0.28003022 -0.20528972
0.4201676 -0.4864794 -0.056801744 -0.12942626 -0.50711995 -0.2962055 -0.36559093 0.12497433
-0.054705467 0.23978081 -0.11607251 0.42500508 0.059448387 0.4182954 0.40579966 -0.4522086
-0.3391011 0.31450704 0.48049754 -0.4507864 -0.0013100952 -0.19123745 0.4862726 0.43562314
0.37415728 0.27273363 -0.04760823 0.47225702 -0.22705728 0.05643022 -0.16057064 -0.36957678
-0.2423804 0.12818944 -0.049480192 -0.33384362 -0.06500643 0.08950865 -0.358384 0.31443736
-0.42380443 0.0030207562 -0.41657785 -0.45465118 -0.07021612 0.46504813 0.48560694 0.20292616
0.38812548 -0.28105226 0.28932005 0.3295361 -0.48126954 -0.39205664 0.21777485 0.0501924
-0.35378835 -0.3932867 0.35832232 0.044731047 0.0014053156 -0.4707661 0.4505873 -0.34647715
0.2360357 -0.06081366 0.022073166 0.24901652 -0.13306305 -0.14862622 0.41320723 -0.39900485
0.22969598 -0.1319138 -0.18033268 0.3307208 0.08888952 -0.48317906 0.44751915 -0.25964686
0.44403648 -0.1536626 0.5089259 0.1496791 -0.015955113 0.20223603 -0.008350424 -0.23773706
0.28008047 0.3361267 -0.06349087 0.4736866 0.032449532 -0.29130095 -0.2817481 0.3386814
-0.20251396 0.32802314 -0.49116096 0.011577533 -0.34962678 0.17440335 0.42143407 0.1884758
-0.18297547 -0.46217763 -0.24767312 -0.30950594 0.47894815 -0.2774015 0.19537032 0.39746043
0.20410292 -0.44604695 -0.064050935 -0.14962938 0.31929395 -0.044743963 -0.027539497 0.45279685
0.12593603 0.23232302 -0.15351813 0.31057766 0.109802574 -0.08649511 0.03589182 -0.4022667
0.029921005 0.24960497 -0.47635785 -0.27989057 0.325336 0.003161273 -0.018841967 0.06758354
-0.19374187 0.43504292 -0.07645232 -0.16904706 0.24715115 -0.42446592 -0.091592774 0.12728003
-0.16636421 0.27745074 -0.42733997 -0.09372715 -0.20719539 0.48031363 0.21097581 -0.37660518
0.18931553 -0.0050698393 0.4642718 0.2862314 -0.32118943 0.44399005 -0.061215375 -0.12125588
0.15428382 0.49732408 0.15771666 -0.49387556 -0.1610728 0.47386146 -0.17550837 -0.25555524
-0.42341298 -0.28105128 -0.2754629 0.11627388 0.22277498 0.48197103 0.32786596 -0.035076078
0.27744126 0.29760414 -0.4397846 0.22874524 -0.356264 0.3966131 -0.21725465 0.1114178
0.0013442761 0.22639097 0.09839266 -0.3757871 0.22967422 0.3074005 -0.317581 -0.32342434
-0.34855726 -0.23493728 -0.07279387 0.044344652 -0.008065257 -0.13184635 0.309763 0.035239432
-0.27651763 -0.11678484 -0.30582365 -0.16057427 -0.49508372 0.095730364 -0.38836607 0.26683506
0.3435026 -0.3851168 -0.2679034 -0.37225932 0.14407898 0.096322544 -0.26814356 0.30749857

net.10.bias f4 [32]
00000000: 02e2 05bc 7df5 883a b112 30b8 55ae 1bbc
00000010: ba16 bbbb aad9 07bc 100b 43bb 8748 cebb
00000020: d5d0 89ba 501d 02bb 6920 78bb adb9 ee39
00000030: 6bfb 68bb 3e3f eebb 11ee 193a 38d8 b7bb
00000040: 8497 0dbc 872b d63b 4652 1f3c 511b 07bc
00000050: 8c7d 9f3b 48fb 3cbb 045f 0abc c254 253c
00000060: d685 e5bb dbf1 683b 7e36 a7bb 9d48 1c3c
00000070: 6624 cc3b 7f59 d0ba b420 9bbb 39ef 063a
-0.00817156 0.0010449138 -4.1979078e-05 -0.009502013 -0.0057094963 -0.008291641 -0.0029761232 -0.006295267
-0.0010514507 -0.0019853897 -0.0037861115 0.00045533237 -0.0035550247 -0.0072707226 0.00058719615 -0.005610492
-0.008642081 0.0065359506 0.009724205 -0.008246259 0.0048672613 -0.0028836299 -0.008445505 0.010091009
-0.00700448 0.0035544548 -0.0051029315 0.009538797 0.006229925 -0.0015895813 -0.004734123 0.0005147341

net.12.weight f4 [32, 32]
00000000: 6eb0 013e 3e6d f23d 85b5 85bc f2ff eb3e
00000010: 27f2 bf3d 145d 113d b5ed ac3e ffdc f5bc
00000020: 56d4 bcbc c457 dbbe bcff 43bc bfd1 79be
00000030: ed84 903e 7a68 de3e 1d39 fbbe ce24 97be
00000040: c087 f73e b2a7 6abe eb1b e33e b7c2 fc3e
00000050: dff4 01be c730 d6be 2096 883e c3e6 603e
00000060: 85f7 e53e b033 813d c2c6 8b3e bf2a e6be
00000070: 4b5f 7b3d 583b e03d 881c 9f3e 67d8 98be
00000080: 33f1 5fbd e8e8 9dbe 4477 b1be 1a24 5f3e
00000090: bcf3 973d 54f9 533e e8bc 91bc 8999 e8bb
000000a0: 3088 8abc f744 8c3e fbc6 b7be 0000 d03d
000000b0: 9b41 8e3e 5360 953e 3c05 7ebe 5e51 cf3e
000000c0: 7027 abbe f4d6 8d3e 7f34 d43e cf01 4d3c
000000d0: 33d1 243e 702e fabe 54d2 4abe 49ae 4dbe
000000e0: 9bf6 ecbe 5276 c6bd f998 b33e c27b 22bd
000000f0: 5941 003f 6429 edbe 1574 4f3e ba80 f63e
00000100: 3931 fb3e 7375 4ebe 1024 edbe a042 3fbe
00000110: a90d be3e 89f7 493d d7db fc3e 6482 c0be
00000120: a97a 99be 18b0 863e d80c 343e 74d1 a7be
00000130: 0aac f03e 13d6 46be 09ec debe 1133 ff3d
00000140: bcfb 9cbe d68b 8dbe ad79 94be 5d7a 0a3e
00000150: c2f0 793e 4007 ad3e ae42 92be d612 00be
00000160: a994 ef3e 46e8 90be c12e 42be bedd d8bd
00000170: 63dd e9be f2dc c2be 7515 e33e 4656 9a3d
00000180: 37db b43d 39d5 593e b9f6 a23e 3f52 ab3e
00000190: 95d7 be3e 2280 4b3e fc19 c93e 6395 a63e
000001a0: 0445 c9bd fb62 5b3d 25a7 84be ab89 c0be
000001b0: 9e4f fb3e ff2e bebe 50f7 9ebe 4d90 ffbe
000001c0: a907 c5be e859 f33d b225 813e 0cd1 d5be
000001d0: 8565 083d effb bcbe 0c64 b53d 4d9d 9f3e
000001e0: 5ebe 50be 5838 61be 832b ae3e de66 aebe
000001f0: 3857 c7bd 98bd d5be ea4e ba3e b748 0a3e
00000200: a0ff 4cbe 8a87 b53e 6e1e f33e 382b 5c3e
00000210: 637a bcbe 7c4c d4bd bd3a ce3e c231 bf3e
00000220: 6178 1dbe 7df1 a93e 37f0 adbe 9fee 053e
00000230: 2dce e13e 929b ae3d 84a0 d5be 4cd3 0d3e
00000240: b9a2 8b3e 0a56 ad3e 8f18 b0be 53fa cbbd
00000250: e166 92bc ed48 c6bd 81bc dbbd 63ff 45be
00000260: 7e69 303e aee8 6d3e b149 d7bd b40b d03e
00000270: 8e37 2abc 2e31 ee3d ce21 f23d e7ce 2bbe
00000280: 2bf4 49bd aebc 7ebd 365d 603e b418 97be
00000290: 1816 5fbe c6ca 02bf 33ce 3ebe 78b4 123e
000002a0: bda1 c63e 49d7 febe a249 22be 4e34 b83e
000002b0: 4c16 83be a324 c53e 8adb 873d 4c4d 00bf
000002c0: 9bd3 743d 16d5 abbe d4b5 f13d 6fee debe
000002d0: 3354 fa3e 0bfe 51be 90ad 9c3e b734 9cbe
000002e0: c4c2 e4be ca3e 423e 7c6b a13e c9e5 9f3b
000002f0: 5278 d4be c572 e9bd d7e6 bdbe 87e0 8d3d
00000300: 4dd1 bc3d 84ef b33e 952c 013f a917 6ebe
00000310: 4198 cb3e be49 b83e e269 963d 671e febe
00000320: 1277 afbe 8ae4 623e 6ea0 bf3e 24cb 893e
00000330: 2a5d 313d 57c5 a2be cbc7 e8be c0ad 92be
00000340: acaa 33bb 099e 763d 3058 c53e 9833 bfbe
00000350: 517f 8a3e 4b05 db3e 16d2 e7be ddf4 8dbe
00000360: ba84 0ebe 2675 b53d 120a e83e aa5c df3d
00000370: 53c2 ad3e 12aa d03e b773 ca3e b598 e3be
00000380: ed6a aabe 5521 2fbd 5d16 d3bb fb97 443d
00000390: fef1 d83e 043e ef3e a35a 1cbe 98d1 71be
000003a0: 15aa 783d c9f7 7a3d 2c57 9f3e 4c53 353e
000003b0: f0e3 1e3e 7dba 263e 62b9 be3e 8f5b 953e
000003c0: 84e1 72bd 510d bdbe 45da ad3e bd87 3fbd
000003d0: f71d b7be 9240 bbbd 5bfa c03e 0ac2 74be
000003e0: 0305 52bd 16fd 2c3e c206 b93e f2ec 7fbd
000003f0: 55ea bdbe 8f2f 5fbe 060f 2fbe fd4c ae3d
0.12664959 0.118372425 -0.016321907 0.46093708 0.09372359 0.035489157 0.33775106 -0.030012606
-0.023050468 -0.42840397 -0.011962827 -0.24396418 0.28226414 0.43439084 -0.4906701 -0.29520267
0.48345757 -0.22915533 0.44357237 0.49367306 -0.12691067 -0.4183409 0.26677036 0.21963029
0.44915405 0.06308687 0.27300078 -0.44954488 0.061370175 0.10948819 0.31076455 -0.29852602
-0.054673385 -0.30841756 -0.34661305 0.21791115 0.074195355 0.2070058 -0.017790273 -0.007098381
-0.016910642 0.27396366 -0.35893998 0.1015625 0.27784428 0.29175052 -0.24806684 0.40491766
-0.33428526 0.2770306 0.414463 0.012512638 0.16095428 -0.48863554 -0.19806796 -0.20086016
-0.46281895 -0.096905366 0.35077646 -0.039668806 0.5009971 -0.4632064 0.20259126 0.48145086
0.4906099 -0.20161991 -0.46316576 -0.18677759 0.37119797 0.049308334 0.49386474 -0.3759948
-0.29976395 0.26306224 0.17583025 -0.32776988 0.47006255 -0.194176 -0.43539456 0.12460912
-0.30660808 -0.2764575 -0.2899908 0.1352324 0.24408248 0.33794594 -0.28566498 -0.12507185
0.46793106 -0.2830221 -0.18963148 -0.10589169 -0.45676717 -0.38059193 0.44352308 0.075359866
0.088308744 0.21272744 0.3182886 0.33461186 0.3727385 0.19873098 0.39277637 0.32535848
-0.09827617 0.053561192 -0.2590877 -0.37605032 0.4908418 -0.3714523 -0.3104806 -0.4991478
-0.38482407 0.11882383 0.25224072 -0.41761053 0.03329994 -0.3691096 0.08856973 0.31174698
-0.2038512 -0.2199415 0.34017572 -0.34062856 -0.097334325 -0.4174621 0.36388332 0.13504301
-0.20019388 0.3545497 0.47484154 0.21500862 -0.36812124 -0.10366151 0.4027919 0.3734265
-0.15377952 0.33192053 -0.33972332 0.13079308 0.44102612 0.085257664 -0.41724026 0.13850135
0.27272585 0.33854705 -0.34393737 -0.09959855 -0.017871322 -0.09681878 -0.10729314 -0.19335704
0.17227742 0.23233292 -0.105121024 0.4063393 -0.010389222 0.11630474 0.11822854 -0.16778146
-0.049305122 -0.062191658 0.21910557 -0.29511034 -0.21785772 -0.5109066 -0.18633346 0.14326656
0.38795272 -0.49773625 -0.15848401 0.35977405 -0.2560295 0.38504514 0.06633671 -0.50117946
0.059772115 -0.3356101 0.11802259 -0.43541285 0.48892364 -0.20507066 0.30601168 -0.30508968
-0.44679844 0.18969265 0.31527317 0.0048796874 -0.41498047 -0.11398844 -0.3709018 0.06927591
0.092196085 0.35143673 0.5045865 -0.23251213 0.39764598 0.3599376 0.07344414 -0.4963257
-0.3427053 0.22157493 0.37427086 0.26912796 0.04330174 -0.31791183 -0.4546493 -0.28648186
-0.002741496 0.060209308 0.38543844 -0.3734405 0.2705026 0.42777476 -0.4527747 -0.27725878
-0.13917819 0.08860235 0.45320183 0.10906346 0.3393732 0.40754753 0.39541408 -0.44452444
-0.33284703 -0.042756397 -0.006441875 0.047996502 0.42372125 0.46727002 -0.1526895 -0.2361511
0.060709078 0.061271463 0.31121194 0.17707556 0.15516639 0.16282077 0.3725081 0.29171416
-0.0592971 -0.36924222 0.3395559 -0.04676031 -0.3576505 -0.09143175 0.37691006 -0.23902145
-0.05127431 0.1689342 0.36137968 -0.062481828 -0.37092844 -0.21795486 -0.17095575 0.08510778

net.12.bias f4 [32]
00000000: 526c 05bc cee9 60bb 4b9b 87bb bd34 f43b
00000010: d1f8 3d3b 9536 363c c2d3 023c 255d a8bb
00000020: e1ef 10bc 7287 253c b8db 8bbb 7531 c7bb
00000030: 3790 03bc bcdd 0cbc 55a1 ad3b bcf2 9d3b
00000040: 766d bf3b 6190 75bb df9a 4fbb 08e4 57bc
00000050: 67c8 623b 015c 86bb d88d b93b 6d43 d0bb
00000060: 48c9 edbb 7e54 edbb 3f7b 4d3c 33bd 563b
00000070: 08fd 78b9 640f 803b 356d 6a3b 6520 633c
-0.008143501 -0.0034319046 -0.0041383854 0.007452576 0.0028987417 0.011121412 0.007985057 -0.005138057
-0.008846254 0.010103093 -0.004268136 -0.006078894 -0.008029989 -0.0085977875 0.0052987733 0.004820196
0.005841906 -0.003747009 -0.0031678004 -0.0131769255 0.0034604312 -0.004100323 0.005662661 -0.006355694
-0.0072566606 -0.0072427383 0.012541591 0.003276658 -0.00023745385 0.0039080847 0.003577066 0.013862704

net.14.weight f4 [32, 32]
00000000: 5a8c 88be a090 4c3e 99b0 953e 6682 803e
00000010: 0750 61be 1c87 283d aa8a b7be 5308 4dbd
00000020: aba2 b4be eb6a 813e bc9b 073f b4ff f8be
00000030: 6e4a 62be e4cb 64be 645f b0be feb0 e93e
00000040: 658f c2be a87b 87be b1a5 dcbe 4db8 5a3c
00000050: 0e9a bcbe 0b2e adbe fcac 033f 2776 6a3e
00000060: 9b3c 503e 0048 c03e e77b c23d 898d 943d
00000070: d92b bfbe 5adc 093e eb0f d2be eb86 edbb
00000080: 6403 88be 4016 90be deb0 9dbe 566c 82be
00000090: 5fe6 95be 24f9 93be 5617 36be 1257 f0be
000000a0: 0e5c cf3e 41d7 193e df11 ffbe ad95 00bf
000000b0: 08ed 8abe 5915 423e f86f ee3e e063 b2bd
000000c0: 9f56 9f3e e623 8cbe 678e e7bd a1c6 b9bd
000000d0: b021 fabe c114 abbc 7dcb 143e bbb9 953e
000000e0: 645b cfbe 4a70 11be 2777 cf3c 6e29 343d
000000f0: 0cf1 c03d c833 c6be c7f0 c53e b5c0 efbe
00000100: 1434 3bbe 5f8a 7d3e 562d f8bd 1d80 74be
00000110: ba25 fabe 028e b63e 62e1 92bc 5929 6e3e
00000120: 28e8 8a3d d503 ccbe 83b1 35be e9d0 b63e
00000130: 0f05 8abe 0cc4 68be ea97 8b3e 8acc 5abe
00000140: d208 9e3d dd82 70be 3405 293e 7599 3f3d
00000150: 9665 d2be cf75 d0be 555d 3b3e 2011 37be
00000160: 1025 8f3e c6b8 cb3c 2fd6 3abe de8d abbd
00000170: 4ab3 75be 779e 843e 5041 d23e f97c 16bc
00000180: ab9c a4be dbed be3e b440 d13e c5ff ad3e
00000190: d095 89bc 5b4e f23d 75ab 0f3d 6192 2ebe
000001a0: 9780 fabe 08c8 afbc e0e1 5d3e 3796 9c3e
000001b0: c2fb 193e 3aa5 633e 681b ab3e c826 e0bd
000001c0: 49f0 b03e fb7d b9bc bf31 42be 2c92 35be
000001d0: dd49 94be 2bdd bbbe 03f4 f83d f806 f93e
000001e0: 2d39 883d 9f50 943d 431e 3abe af2b 59be
000001f0: 7eb3 18be 74c5 2d3e b9a4 a53d 222d 4abe
00000200: 6152 cf3d 34a1 a9bd 9b49 32bd dcd3 b03e
00000210: 3281 6bbe 29b2 f33e c4d1 89be 7046 fd3e
00000220: f812 5e3e 0d8f 743e d36e 05be df93 05be
00000230: 98ff bebe 7385 00bf 3f06 b33e 54ee f63e
00000240: 29ff 133e 6b08 5dbe 2751 c83d 28f2 b7bc
00000250: e237 debe 406e c4be c293 383e 5286 06be
00000260: 4133 eebd 4458 a1be 0a88 743e 2fbb 84be
00000270: f3b6 1cbe d6ba 853e eb26 fa3e 3edb e33e
00000280: ed68 583e c77c c43c 17ed bf3e 0979 de3e
00000290: 8318 5d3e 6527 103e 6113 0f3e 4be5 953d
000002a0: 64ac b63e e1e4 333e 8170 dabe aa16 92be
000002b0: 0c25 e0be a31e 2fbe c8d0 003d 3213 71be
000002c0: d642 e7be 7738 afbe 7f63 4d3e 890d aabc
000002d0: 2082 95bd 0e47 e53d 95c1 d3bd 29d3 85be
000002e0: 9fca 69be 733f 54be 40b5 ecbe 4026 f8be
000002f0: c217 32be 4b73 343e c4a4 f93e 7425 ffbc
00000300: a98b af3e 7d40 233e 5813 cbbe 5af6 76be
00000310: 334a f6bd 94df d4be 231b 7e3d 0486 d03d
00000320: 4ee2 dabe 9cf2 2dbe 3323 ddbe e573 003f
00000330: 8e0c 9b3e 7a6c 39be ab4c e03e c09b 9dbe
00000340: b983 dc3e 3b8c 34be c8c6 253e 0b5d b33e
00000350: bac4 6c3e 423f f73d 37e1 83bd 1e2e 55bc
00000360: 24ac dd3e fb26 2abe 495f 36be 5a14 963d
00000370: d594 84be 0d0e 3abe 6933 313d 4bc1 c83e
00000380: a3d7 213e 2a81 a4be 1a97 9e3e de5d 3ebe
00000390: f476 d33d a87b 213d 9a47 b73e 4c0c f6bd
000003a0: addb 4dbe 3da0 b5bd 7fa8 90bc 70ea 7ebe
000003b0: b7d3 963e cb44 89be 9c3f 6c3d d754 c5be
000003c0: 97a4 9ebd d54b efbd ce7e 4cbe 0994 813e
000003d0: 1765 ecbe 0141 e53c 48ed 58bd 8ed6 82be
000003e0: 7aa0 d03e 5192 9d3e b0a6 1c3e 5605 a13c
000003f0: ad99 8d3e 8ca9 5fbe 54b6 cfbe 315e fb3e
-0.2666958 0.19977045 0.29236296 0.25099486 -0.22003184 0.041144475 -0.3584798 -0.050056767
-0.35280356 0.25276884 0.52972007 -0.48632586 -0.22098705 -0.22343403 -0.34447777 0.45642847
-0.38000026 -0.2646153 -0.43095163 0.013349605 -0.36836284 -0.3382419 0.5143583 0.22896634
0.20335619 0.37554932 0.09496289 0.07253558 -0.3733814 0.13462964 -0.4102777 -0.0072487495
-0.26565087 -0.28141975 -0.30799 -0.2547328 -0.29277322 -0.28901017 -0.1778234 -0.4694143
0.4049992 0.15023519 -0.49818322 -0.5022839 -0.27133965 0.18953456 0.465698 -0.08710456
0.31120774 -0.27371138 -0.11306458 -0.090710886 -0.48853827 -0.02088392 0.1453075 0.29243264
-0.40499413 -0.14202991 0.025325371 0.043984823 0.09420976 -0.3871138 0.3866026 -0.4682671
-0.18281585 0.24759816 -0.12118022 -0.23876996 -0.48856908 0.35655218 -0.017929737 0.2325796
0.067825615 -0.39846674 -0.17743497 0.3570626 -0.26956984 -0.22731036 0.2726434 -0.21367088
0.07716526 -0.2348742 0.16505891 0.046777207 -0.4109313 -0.4071488 0.18297322 -0.17877626
0.27957964 0.02486838 -0.18245767 -0.083766684 -0.23994175 0.2590215 0.41065454 -0.009185069
-0.32150778 0.37290844 0.40869677 0.339842 -0.016795069 0.11831351 0.035075624 -0.17048027
-0.4892623 -0.021457687 0.21668196 0.30583355 0.15037444 0.22230998 0.33419347 -0.10944897
0.34558323 -0.02264308 -0.18964289 -0.17731541 -0.28962603 -0.36692175 0.121559165 0.4863813
0.066515304 0.0724194 -0.18175606 -0.2120807 -0.14912221 0.16969854 0.08088059 -0.1974378
0.101231344 -0.082827 -0.043527227 0.34536636 -0.22998503 0.47596863 -0.2691785 0.49467802
0.21686924 0.23882695 -0.13030557 -0.1304469 -0.37304378 -0.5020363 0.34965703 0.48228705
0.14452805 -0.21585242 0.097811036 -0.022454336 -0.4340201 -0.38365364 0.18025115 -0.13137177
-0.1163087 -0.31512654 0.2388002 -0.2592406 -0.15304165 0.26119107 0.48857817 0.44503206
0.21133776 0.02398528 0.37485573 0.43451717 0.21591382 0.14077528 0.13972236 0.07319125
0.356784 0.17567779 -0.4266396 -0.28532916 -0.43778265 -0.1710153 0.03144911 -0.23542479
-0.4516818 -0.34222767 0.20057486 -0.020758407 -0.0730021 0.11195193 -0.10339657 -0.26137665
-0.228312 -0.20727329 -0.46232033 -0.48466682 -0.17391875 0.17622106 0.4875852 -0.031145789
0.3428624 0.15942569 -0.39663196 -0.24117413 -0.12025871 -0.41576827 0.0620376 0.101818115
-0.42750782 -0.1698708 -0.43190917 0.5017684 0.30283016 -0.18107787 0.43808493 -0.3078289
0.43069246 -0.17631619 0.1618911 0.35031924 0.2312192 0.12072612 -0.06439441 -0.0130114835
0.43295395 -0.16616432 -0.17809786 0.073281005 -0.258948 -0.18169422 0.04326192 0.3920997
0.15804915 -0.32129794 0.30974656 -0.18590495 0.10325423 0.03942457 0.35796815 -0.12014064
-0.20103331 -0.08868454 -0.01765847 -0.24894118 0.294584 -0.26810297 0.05767785 -0.3854129
-0.07746237 -0.11684386 -0.19970247 0.25308254 -0.46170875 0.027985098 -0.052960664 -0.25554317
0.40747434 0.30775693 0.15297961 0.019655865 0.27656308 -0.21842021 -0.40568793 0.490953
