models/SIRNet.pt (torch, 67694 bytes, 36 tensors)

net.0.weight f4 [32, 1]
000000 a9 11 0c 3f 97 15 1c 3f d9 d5 2c be df bd 28 3f
       0.5471445 0.60970443 -0.16878451 0.6591472
000010 a9 3b 1d be 67 ed 31 3d 9d 1a ba be d6 59 cd 3e
       -0.1535479 0.043439295 -0.3634843 0.40107602
000020 ab 2d 20 3f 04 02 08 bf 03 b8 1c 3f b3 b5 b4 3d
       0.62569684 -0.53128076 0.6121828 0.08823719
000030 50 8c 07 3f 0b e1 c8 3d 61 bc a3 3e d6 5b 36 bd
       0.52948475 0.098085485 0.3197966 -0.044521175
000040 af 8d 09 3f f5 03 94 3d 30 0b a6 be 5e d1 3a 3e
       0.53731817 0.07227317 -0.3243041 0.1824393
000050 43 6c ab be 76 a2 18 bc a5 2c 94 be b1 90 f5 3e
       -0.33481035 -0.009316077 -0.2894031 0.47961953
000060 25 b3 0d bf 12 da 9f be e4 8c 51 be 68 91 d7 be
       -0.5535148 -0.31221062 -0.20463902 -0.42103124
000070 14 94 38 3d 10 36 35 bf e5 ed 22 3f ff 3e 19 bf
       0.045063093 -0.7078562 0.6364425 -0.5986175

net.0.bias f4 [32]
000000 a8 2b 3e bc 15 97 d9 3c e9 a0 70 bb 3e 97 c5 ba
       -0.011607088 0.0265613 -0.0036717004 -0.0015074981
000010 d1 2a 3e bc f5 96 12 be 9f dc cb bc d2 11 48 3d
       -0.011606888 -0.14315398 -0.024885474 0.04884512
000020 2b 45 79 3b cd bf a8 bc eb d7 e8 ba 33 a2 22 bc
       0.0038035612 -0.02059927 -0.0017764544 -0.009926367
000030 95 64 0d bd 0e 7f 7b 3c 9d bb a3 bc 99 7a 63 3e
       -0.03451975 0.015350116 -0.019986922 0.22214736
000040 67 e7 92 bc 6e b1 ff bc 38 98 19 3c 3d 9f 85 3c
       -0.017932607 -0.031212535 0.009374671 0.016311282
000050 f3 d3 16 3c 81 aa a8 3d d9 2f db bc 2a 07 b6 3b
       0.009205806 0.08235646 -0.026756214 0.0055550532
000060 3b 29 1e bc 82 3a 5c 3d 81 e7 89 3b 45 37 b1 3a
       -0.009653385 0.053766735 0.0042085056 0.00135205
000070 67 44 6f bc c5 5b c3 3c a8 88 a6 bc 50 79 03 bc
       -0.014603711 0.02384747 -0.020328835 -0.008024529

net.2.weight f4 [32, 32]
000000 95 de c8 3e cd 66 aa 3d b3 ba 27 be b2 96 a0 3e
       0.39232317 0.08320389 -0.16379814 0.3136497
000010 f9 cd a6 3d c3 82 d2 3e ad 60 6b 3d 09 99 26 be
       0.08144755 0.41115388 0.057465244 -0.16269316
000020 f5 b0 0a 3e bb f5 0b be 0b 38 5a 3e cf a4 e8 3e
       0.13544066 -0.13667957 0.21310441 0.4543824
000030 70 39 96 3e e4 e7 65 be 00 08 96 3e 7c ba bb 3d
       0.29340696 -0.2245174 0.2930298 0.091664284
000040 5a db 83 3e 94 6e 9f be 78 e9 00 bf 36 db 4b be
       0.2575329 -0.31139052 -0.50356245 -0.19907841
000050 5e 96 c7 be 41 10 d8 3e 69 46 18 3e b4 bb 56 3e
       -0.3898191 0.421999 0.1487061 0.2097004
000060 85 fa 26 3e 3c c6 f1 bb 48 65 cd 3e 48 cc b8 be
       0.16306503 -0.0073783677 0.40116334 -0.36093354
000070 ff 55 00 3d 33 7d b1 be 5a 73 1f 3e c3 3c 32 be
       0.031332012 -0.34665832 0.15571347 -0.17405991
000080 77 35 21 3e 37 5f d5 bd cc b3 d6 3e 3b 25 9a be
       0.15743051 -0.104185514 0.4193405 -0.3010653
000090 a4 24 9e be 29 6e 9d be 14 c7 e9 3e 37 65 31 3e
       -0.3088733 -0.30748108 0.45659697 0.17323767
0000a0 15 f0 fb 3e f2 b9 d8 be 16 53 01 bf 7d 12 cd be
       0.49206606 -0.42329365 -0.50517404 -0.40053168
0000b0 b5 e7 af be 0b 0d 5a 3e da a8 3b 3e f9 68 e0 3e
       -0.34356466 0.21294038 0.1832613 0.43830088
0000c0 98 a2 86 be 89 21 b1 be 94 35 8a 3e 1a 41 4f be
       -0.26295924 -0.34595898 0.26994002 -0.20239678
0000d0 e6 61 9e 3e bd e5 ed bd 6d e7 93 3e a8 63 ca be
       0.30934066 -0.11616085 0.288875 -0.39529157
0000e0 13 63 84 be 32 18 21 3e ea fd db 3d 1b 32 06 be
       -0.25856838 0.15731886 0.1074179 -0.13105051
0000f0 6b b9 9d 3e b6 6d b1 3e 09 18 bd be b5 12 8c be
       0.30805525 0.34654015 -0.369324 -0.27358022
000100 7d a6 e0 3e d6 03 4c be d6 0f 1a be 69 ce 04 bf
       0.4387702 -0.19923338 -0.15045103 -0.51877457
000110 14 b6 85 be d6 63 cc 3d e4 ed 06 bd f6 40 ce be
       -0.26115477 0.0997998 -0.032941714 -0.40283936
000120 e4 4f 63 bc ef 71 a3 be 27 0a eb be 75 d6 9c be
       -0.013874028 -0.31922862 -0.45906183 -0.30632368
000130 ca 91 f3 be c0 9d b2 be 17 5a f4 3e 7d 31 f7 3d
       -0.47572166 -0.3488598 0.47724983 0.12069986
000140 a5 04 04 3e f5 25 ff be ec a4 9a be 45 24 4d be
       0.12892397 -0.49833646 -0.3020395 -0.20033367
000150 c9 09 e7 3d 3d 76 e5 be 22 e8 3f be 91 4e ac be
       0.11281163 -0.4481677 -0.18740895 -0.3365369
000160 5e 2b f0 3c 88 a3 21 be a2 f3 a5 bb 2a 93 a0 be
       0.029317554 -0.15785038 -0.0050644437 -0.31362277
000170 2a af bd be 3f 54 8c be 0c db 4c be 21 a3 c0 be
       -0.37047702 -0.27408025 -0.20005435 -0.37624457
000180 c7 f7 dd 3e 96 d0 c3 bd 4a 54 dd 3e 85 a2 28 3e
       0.43353102 -0.09561269 0.4322837 0.16468246
000190 05 6d e0 be 50 94 bd 3e 74 45 17 be 10 cb 41 be
       -0.43833175 0.37027216 -0.14772588 -0.18925118
0001a0 82 01 d6 be 79 55 03 bf 0b 3c 1b 3e 6c 54 cf bd
       -0.41798025 -0.51302296 0.15159623 -0.10123524
0001b0 60 4a 51 3e e1 0b d1 be 9a c3 c5 3e 86 4e c7 be
       0.20438528 -0.40829375 0.38625795 -0.38927096
0001c0 95 f7 a8 bd 9f da f5 3d e0 fe 82 3e 0c 9c d6 3e
       -0.082503475 0.12004589 0.2558508 0.4191593
0001d0 e9 14 ea 3e 05 1a d7 be 63 93 f6 3d 8d b1 5a be
       0.45719078 -0.4201204 0.120398305 -0.21356793
0001e0 e4 f9 7b bd da 8f c7 be d4 f0 e9 3e c3 02 c3 be
       -0.06151761 -0.38976938 0.4569155 -0.38088045
0001f0 06 6d 96 3e ac b7 31 3e 5a 93 2f 3e 5e 1d 90 be
       0.29380053 0.17355222 0.17146054 -0.28147405
000200 16 97 ea 3e c8 5e da 3d 0e c2 88 3d 09 da e8 be
       0.45818394 0.10662609 0.06677638 -0.45478848
000210 11 2f 5d 3e 51 b6 ac bd d6 d9 68 be 8a f2 dc 3e
       0.21599986 -0.084332116 -0.22739348 0.43153793
000220 f2 24 de 3d b2 87 8d be 54 fd 86 be ca 2a cc bc
       0.108468905 -0.2764259 -0.2636515 -0.024922747
000230 e5 e9 8e 3e e5 dd 07 be 04 6f 98 be be 02 24 be
       0.27912822 -0.1326824 -0.29772198 -0.16016671
000240 c7 16 c6 be 4b e0 37 3e 8f 81 cd 3e 6b 25 f7 be
       -0.38689253 0.17956655 0.40137908 -0.48270735
000250 2f 61 ff 3d 60 44 94 3e 2f e4 c9 3d fd 69 40 be
       0.12469708 0.28958416 0.09857976 -0.18790431
000260 e2 54 8b 3e 88 4c 8c 3e 31 d3 45 3e c1 7d aa bd
       0.27213198 0.2740214 0.19318844 -0.08324767
000270 8a 7d 18 be b9 0a 73 3d e7 28 c3 bd 77 20 16 be
       -0.1489164 0.059336398 -0.09529286 -0.14660822
000280 5d 6e 9b 3e c4 e2 d5 3e 22 57 4b bb 4b 91 08 be
       0.30357638 0.4177457 -0.0031027277 -0.13336675
000290 ec 61 63 3d 17 65 9b bd 69 82 1f 3e 59 6d ea 3d
       0.055513307 -0.07587641 0.15577091 0.11446638
0002a0 fb 85 f7 be d1 00 29 be ce ab d1 3e 4a 7d 12 3e
       -0.48344406 -0.16504218 0.4095139 0.14305606
0002b0 a9 15 48 bd de a2 bd be ec 76 b1 be 28 69 d1 be
       -0.04884878 -0.3703832 -0.34661043 -0.4090054
0002c0 33 88 41 be 00 f3 e4 3d cc 86 b8 3e c8 da 41 3e
       -0.18899612 0.11179161 0.36040342 0.18931115
0002d0 8b f6 d4 be c2 66 95 be 4d d5 2d bd 25 95 ef 3e
       -0.41594347 -0.2917996 -0.042439748 0.46793476
0002e0 23 60 c4 3d 5c df c4 bd 83 6e 83 3e ef 25 2a be
       0.09588649 -0.09612915 0.2567025 -0.16616033
0002f0 2a f3 ca be 23 ea c7 3e 2e d1 80 be ff 3c a7 bd
       -0.39638644 0.3904582 -0.2515959 -0.08165931
000300 e9 8c 03 bf ae d9 ab 3e 97 e3 ca 3e f8 78 38 3e
       -0.51386887 0.33564514 0.39626762 0.18014896
000310 83 34 b1 be 48 c1 04 bf 0e b5 d0 be 75 96 bf 3e
       -0.34610376 -0.51857424 -0.40763134 0.37419477
000320 6d d3 74 3e 76 fd de 3e 35 d5 85 3e 2c 67 f6 3d
       0.23908778 0.4355275 0.26139227 0.12031397
000330 76 72 3a bc 4d a4 ca be e0 7b e3 be 89 dd eb be
       -0.011379829 -0.39578477 -0.44430447 -0.46067455
000340 b4 85 4f 3e 9b a0 84 be 92 c4 c3 bd 1c 0e 9b be
       0.20265847 -0.25903782 -0.09558977 -0.30284202
000350 25 b2 af bd 9e f1 bf be 9b 02 a7 be 92 d3 26 3e
       -0.085789 -0.37489027 -0.32619175 0.16291645
000360 ad 15 15 be 16 1d a5 3e 1f 64 1e be b1 4d bc be
       -0.1455905 0.32248753 -0.1546788 -0.36778024
000370 42 4a cb bd 9f 54 77 be 2d f0 25 be 30 b0 f5 be
       -0.09926273 -0.24153374 -0.16204901 -0.47985983
000380 ab e1 94 3e 80 88 b3 be ef 95 7f 3e 5d f7 71 3e
       0.2907842 -0.3506508 0.24959539 0.23629518
000390 ef 55 b7 3e d3 dc c2 be df 04 b9 3e 9e fb 71 be
       0.3580775 -0.380591 0.3613653 -0.2363114
0003a0 62 03 47 3e 3f e0 f2 3e 03 1c 89 bd 47 ee b3 3a
       0.19434884 0.4743671 -0.06694796 0.0013727628
0003b0 53 8f e4 bd b5 42 d9 be d6 d1 80 3e 56 75 07 bf
       -0.111601494 -0.42433706 0.25160092 -0.52913415
0003c0 1c 02 a5 3e ce 3a c4 3e 27 b5 f3 3e 62 ab e8 bd
       0.32228172 0.38326114 0.47599146 -0.11360814
0003d0 36 24 da be 9b 99 ef 3d 4c 4c 8d 3e 78 9f 00 bf
       -0.42605752 0.1169922 0.27597272 -0.5024333
0003e0 d1 df f7 bd 59 9f a0 be 9b 23 59 bd 26 99 83 be
       -0.121032365 -0.31371573 -0.05301247 -0.2570278
0003f0 03 74 4e be 10 09 2b be 6f ba f5 be 23 cf d3 3e
       -0.20161442 -0.16702676 -0.479938 0.4136897

net.2.bias f4 [32]
000000 db 9c cf bb 6c 5b 12 3d 6c 65 a3 bc 26 79 d9 3b
       -0.0063358373 0.035731718 -0.019945823 0.0066367565
000010 d2 8a 28 3b e1 55 d1 bc 47 c3 ce ba b0 70 8a bc
       0.002571751 -0.025553646 -0.001577475 -0.016899437
000020 16 9b a6 3c cd 2e 0a bb e2 55 d9 3b ac ef 8f 3b
       0.020337623 -0.0021085024 0.0066325525 0.004392585
000030 3f 87 e4 3b 53 06 bd 39 51 19 b2 3b 7d 91 8c bb
       0.0069741304 0.000360536 0.005435147 -0.0042898045
000040 8e 67 3c bd 24 54 25 3c e3 34 90 3c 89 07 31 bd
       -0.045997195 0.0100908615 0.017603343 -0.043220077
000050 44 8b ef bc 1d 75 ac bc d4 ac a2 3c 0f fa 35 3d
       -0.029241212 -0.021051938 0.019857801 0.044427928
000060 db 87 55 3d ca 0b 87 bb 8b 69 73 37 7a 89 90 39
       0.052131515 -0.0041212784 1.4508502e-05 0.00027568248
000070 61 96 90 bb 1f 80 aa b9 20 04 e3 ba 23 d5 ea bb
       -0.004412458 -0.00032520384 -0.0017319955 -0.007166521

net.4.weight f4 [32, 32]
000000 50 2d bb bd 1a 6d 44 be a6 7d e6 bd e0 eb e4 be
       -0.09139502 -0.19182244 -0.11254434 -0.44711208
000010 dd 63 c7 be 1d cc 95 3e 67 60 d6 3e f1 6b 01 3f
       -0.38943377 0.2925729 0.41870424 0.5055533
000020 0e 3a b5 be bb f5 96 3e e5 4a aa be 76 c8 92 3e
       -0.35395855 0.29484352 -0.33260265 0.28668565
000030 91 b8 b4 3e a5 be d3 3e c6 a9 b2 3e 6a da ac 3e
       0.35297063 0.41356388 0.34895152 0.33760387
000040 96 c0 56 bc 3e 9e 72 3e 05 47 4d be 87 fc 4f 3e
       -0.0131074395 0.23693177 -0.20046623 0.20311175
000050 ca a9 3b be c3 e3 d4 bc e3 e9 e4 be 82 3d eb bd
       -0.18326488 -0.025987512 -0.4470969 -0.11486341
000060 3f c1 95 be ca 38 4b be 00 3d b9 be b0 89 e1 be
       -0.29248998 -0.19845882 -0.36179352 -0.4405036
000070 56 e7 51 3d 37 95 a1 3e 96 ba f7 3e cc 9b 8f 3e
       0.05124601 0.31559154 0.4838454 0.2804855
000080 ec 84 89 be e5 fe ff be f0 cf 4c 3e e5 0c 90 3e
       -0.26859224 -0.49999157 0.20001197 0.28134838
000090 67 83 de be 81 94 39 3e 6c f7 da 3e 79 d9 0e 3d
       -0.43459627 0.18123056 0.42766893 0.034875367
0000a0 bd dd 9a be 7b 4c d9 3e ea cd 5a 3e be d7 aa 3e
       -0.30247298 0.42441162 0.21367612 0.33367723
0000b0 28 67 b0 be d6 8b 99 3e 00 7d b4 be 64 58 02 3f
       -0.34453702 0.299895 -0.35251617 0.50916123
0000c0 e7 ad 61 be a0 b0 d5 3e 7f f8 c2 3d 0a 9e 06 3e
       -0.22038995 0.41736317 0.09520053 0.13146225
0000d0 59 e6 c2 bd b2 9a 4e 3e dc c2 61 be 7c 14 f4 be
       -0.095165916 0.20176199 -0.22046989 -0.47671878
0000e0 c6 f7 4c be fd 64 c6 3e 0f eb 12 be 74 99 28 3e
       -0.20016393 0.38748923 -0.1434748 0.16464788
0000f0 51 c2 3c be 70 67 c2 3e a8 a6 9e 3e d1 b0 3c 3e
       -0.18433501 0.37969542 0.30986524 0.18426825
000100 b4 b2 85 be bb b6 d5 be ca e3 ee 3c b2 75 98 be
       -0.26112902 -0.41740975 0.029161353 -0.29777294
000110 e1 c2 d5 3e 33 f3 f8 be 4b a8 6a 3e c7 f6 01 3f
       0.41750243 -0.48623046 0.22915761 0.5076718
000120 4b 00 83 3e fa 13 31 3e 8b 8d fa be e4 0d fc 3e
       0.2558616 0.17292777 -0.48936114 0.49229348
000130 7c 17 a5 bd 61 6a f5 be 21 42 01 3f e5 04 56 be
       -0.0806112 -0.47932723 0.5049153 -0.20900305
000140 38 82 13 bd 57 54 01 3f d0 08 b5 be 57 0e b9 be
       -0.03601286 0.5051932 -0.35358286 -0.36143753
000150 33 ff 98 3d 09 13 93 bd f1 ab b3 3d 56 b7 de be
       0.074705504 -0.07181365 0.087730296 -0.4349925
000160 3e e3 7a 3c 49 55 71 be 70 98 84 be a2 a8 ef be
       0.015312968 -0.2356769 -0.2589755 -0.46808344
000170 68 01 8a 3e 43 f0 cd 3d 8d 58 dd be 36 34 d3 3e
       0.26954198 0.10055592 -0.4323162 0.4125077
000180 ef 76 0e 3e 99 d1 f2 3d 03 fa 6c be b1 e0 15 3d
       0.13912557 0.11856384 -0.23142247 0.036591236
000190 9d cd 0a 3f e0 4e 99 3e 9f 4c d7 be 05 45 00 3f
       0.5421999 0.2994299 -0.42050645 0.50105315
0001a0 70 60 7f 3d 5f 29 a7 3e 5c 26 b2 3e 87 96 ca 3e
       0.06234783 0.3264875 0.3479489 0.39567968
0001b0 f4 9d df be 28 04 f6 3e 33 6f c2 be 0a 75 9b 3d
       -0.43675196 0.48050046 -0.37975463 0.07590683
0001c0 f7 22 bf be b8 59 b0 bc 50 b8 c5 bd 7c 39 b3 bd
       -0.37331364 -0.021527156 -0.096542954 -0.08751199
0001d0 51 0f 2d be 7e bd 4e 3c 0b b7 fd 3e 43 b8 c9 3e
       -0.16900374 0.012618421 0.49553713 0.39398393
0001e0 75 0a 89 3e 07 eb 25 3e 1d 01 be 3e 93 9f ca 3b
       0.2676579 0.16202937 0.37110224 0.0061835735
0001f0 31 95 99 3d e0 5a 4b 3d dc 7a d3 be b9 13 d9 be
       0.07499159 0.049647212 -0.41304672 -0.4239786
000200 69 1e 76 3d 38 dc 49 be 35 a6 65 3c 12 24 f2 bd
       0.060087595 -0.19712913 0.014016678 -0.11823286
000210 48 f8 a2 3d 13 df ab 3e 16 5d 2e be ae 1b d2 3e
       0.07957512 0.3356863 -0.17027697 0.41036743
000220 02 f1 cf 3e 29 fa c5 be d8 66 ca be d0 1d d4 be
       0.40613562 -0.3866742 -0.3953159 -0.41428995
000230 4f 55 8c be 60 5b 4d be bc 77 23 bd 51 69 fb bd
       -0.27408835 -0.20054388 -0.03990911 -0.12275947
000240 09 20 85 be be 71 9d bd 9d 33 42 be bb d5 fe 3e
       -0.26001003 -0.0768771 -0.18965001 0.49772438
000250 cb 36 52 be 5e e1 bd be 2a 6b 41 3e 43 23 1b bd
       -0.20528714 -0.37086004 0.18888536 -0.037875425
000260 48 d3 c6 3e ff de 99 3e 25 0f ea 3e a1 51 be be
       0.3883307 0.30052945 0.4571468 -0.37171653
000270 65 04 a9 3e 2b e7 da 3e 80 e2 7f be 18 0e f9 3e
       0.33011165 0.42754492 -0.24988747 0.48643565
000280 2b 2b c4 3e 47 99 9c 3b f4 32 7f 3e 74 e6 35 be
       0.38314185 0.0047790143 0.24921781 -0.17763692
000290 43 31 e4 be c5 3d 05 3e 43 43 1c 3e eb cf aa be
       -0.44568834 0.13011844 0.15260033 -0.33361754
0002a0 e0 75 7c 3e 3c f7 de be c3 03 e1 3e d9 30 fd 3e
       0.2465434 -0.43548 0.43948182 0.4945133
0002b0 72 0c 02 3e 3e fa a3 be 98 dc 7e 3e 40 dc b0 3d
       0.1270006 -0.32026857 0.24888837 0.08635759
0002c0 8a 9b 0e 3e 55 b9 db 3d 5c 3f c7 3e 22 2c 60 be
       0.13926521 0.10728709 0.38915527 -0.21891835
0002d0 8e 20 e7 bd bb d8 0f 3e 89 99 66 3d 1e bf d1 3e
       -0.11285506 0.1404752 0.056298766 0.40966123
0002e0 f8 12 89 be cb bb 90 bc 29 e8 c4 3d 15 62 0b be
       -0.26772285 -0.017667672 0.096145935 -0.13611634
0002f0 ad d6 b1 3e 82 6f 69 3d 9b 98 f1 be 19 e3 60 bd
       0.34734097 0.056991108 -0.4718674 -0.054904077
000300 58 ca 6c be e6 6d 49 3d 5a 64 4a bd 50 a4 01 bf
       -0.23124063 0.049177073 -0.04941211 -0.50641346
000310 c3 90 bc bd f0 81 46 bd 5e 6f 1a be de ff f0 3e
       -0.092072986 -0.04846376 -0.15081546 0.4707021
000320 a2 93 e5 bd 8c e9 a9 3e 2b 4b ff 3d b1 2e dd be
       -0.11209799 0.33185995 0.12465509 -0.43199685
000330 5d f7 bd 3d ad 5e d9 3e 17 2e ab be 59 69 a8 be
       0.092756964 0.42455044 -0.334336 -0.32892874
000340 a9 cb ff 3e a6 c4 b6 3e 8e d9 92 be 1d 1d 9d 3e
       0.49960068 0.35696906 -0.28681606 0.30686274
000350 b7 08 81 bd bf 5c 00 bf 01 2f 1f 3d cf 1c 28 3e
       -0.0630049 -0.5014152 0.038863186 0.1641724
000360 5d 59 1d be 82 42 36 3e fb 32 df be e2 47 b5 3e
       -0.1536612 0.17798808 -0.43593583 0.35406405
000370 ea 0e df 3e 13 e5 8f 3e ba a9 b3 3d cf 24 2c 3e
       0.43566066 0.28104457 0.08772607 0.16810916
000380 31 e6 b9 be 30 02 0a be 9e bc 5a bd 18 b9 8d be
       -0.36308435 -0.13477397 -0.053402536 -0.27680278
000390 36 e8 c3 be 39 4d b2 3e 52 e3 b4 3e 4b ee f0 be
       -0.382631 0.3482454 0.35329682 -0.47056803
0003a0 6f ed 1f 3e cf c4 4c 3e 57 c5 fb 3e 88 d1 9a 3e
       0.15617917 0.19996952 0.49173996 0.30237985
0003b0 79 06 f1 3e 4e b0 32 be 65 7d ba 3e a7 f7 d0 3e
       0.4707525 -0.17450067 0.36423793 0.40813944
0003c0 44 4b f3 be 90 d1 c2 be 85 9e df 3d 35 a6 92 3e
       -0.4751836 -0.38050508 0.10918907 0.2864243
0003d0 fe aa 7a be ba 89 82 3d 0a 68 3c 3c 2c ec f9 3d
       -0.24479291 0.063739255 0.011499414 0.12203249
0003e0 2c e2 88 be 5c 29 98 3e 0d c3 b2 3e 5f e8 b8 be
       -0.26735055 0.29719055 0.34914437 -0.36114785
0003f0 8b 0b 08 bb f6 4f ca 3b 85 dd 1f 3e 1a d9 f7 3e
       -0.0020758833 0.006174083 0.15611847 0.48407823

net.4.bias f4 [32]
000000 f6 21 8b bc 64 05 00 bc 43 3d 0a 3b 96 99 76 bc
       -0.016983967 -0.007813785 0.0021093644 -0.015051266
000010 3e 16 5b b8 df cc ab bc b0 42 fe bc d4 6f 0c 3d
       -5.2234383e-05 -0.020971714 -0.031037658 0.034286335
000020 3a 24 e4 3b e0 3d a6 bc a3 66 4f 3b e6 1f 36 bb
       0.0069623264 -0.020293176 0.003164687 -0.002779001
000030 37 2f f2 ba 49 7b e7 3c 87 19 e3 3b d3 96 6c bc
       -0.0018477206 0.02825703 0.0069305333 -0.014440256
000040 aa 67 2a 3c e8 1c 0b 3b ea b0 af 3c 81 42 8e 3c
       0.010400692 0.0021226946 0.021446664 0.017365696
000050 4c 35 5c 3c ad 3d 94 3c bc 8c 33 3c fc d1 f4 3b
       0.013440441 0.018095816 0.010958847 0.007471321
000060 f6 29 5b bc ec 85 9f 3c a9 2f b1 bc 17 ab 40 3c
       -0.0133767035 0.019473039 -0.021629171 0.011759541
000070 81 41 96 3c 73 ee b0 3c 43 df 06 3c 79 f5 98 bc
       0.018341782 0.021598076 0.008231941 -0.018671738

net.6.weight f4 [32, 32]
000000 81 78 c2 be 40 9d b3 3e 70 bb 8f bd 8d 1e 03 be
       -0.37982562 0.3508091 -0.07018173 -0.12804623
000010 6b 06 d3 3d 4f d5 cd 3e 42 44 8f be 82 19 ab be
       0.103039585 0.40201804 -0.27981764 -0.33417898
000020 bc 0e 91 3e a1 3e 23 be f6 c3 2d 3e 18 bf 8d bd
       0.28331554 -0.1594186 0.16969284 -0.06921214
000030 f9 45 19 3e c8 84 c6 3e 9a 38 84 be 2b 47 75 be
       0.14968099 0.3877318 -0.25824434 -0.2395293
000040 b0 c6 77 3e 29 9d 01 3e 36 8f 3c bd 44 35 dc be
       0.24196887 0.12657608 -0.046035014 -0.43009388
000050 41 27 e6 3e ec b4 70 bd aa ba cd bd 84 0d 54 be
       0.44951823 -0.05876629 -0.10045369 -0.20708281
000060 2d 19 c9 bd f8 46 73 3e 1f be 8a bc 0a 5e de 3e
       -0.09819255 0.23757541 -0.01693636 0.4343112
000070 b2 c2 de bc 58 a4 9e bd 1d 81 97 3e 32 7d 9c bc
       -0.027192447 -0.0774619 0.29590693 -0.019102667
000080 19 e3 b6 bd bc e7 2e 3e 85 1b cf 3e 34 bc 00 3e
       -0.08930034 0.17080587 0.40450683 0.12571794
000090 9b 17 b3 3e 20 81 a8 3e ab 91 15 3e a7 4a 36 3e
       0.34978947 0.32911015 0.14606349 0.17801915
0000a0 f2 1e 27 3e 3a 1e a3 3d b6 a8 dd 3e 90 33 ee 3e
       0.16320398 0.0796475 0.4329278 0.46523714
0000b0 ed ce 39 3e 44 ca c1 bc 41 71 e9 3e 22 07 cc be
       0.18145342 -0.023656018 0.45594218 -0.39849192
0000c0 6d 1c bf 3e bc 55 7a 3e 45 e1 a6 3e 2a 13 0c bd
       0.37326375 0.24446768 0.32593742 -0.034197964
0000d0 2d 00 c2 be 0e 98 b5 3e 8f e4 62 be 2f 6a 09 3e
       -0.3789076 0.3546757 -0.221575 0.13419412
0000e0 1e 1f 93 3e 79 de f3 be f6 4f 09 3d 7b 0b 3b be
       0.28734678 -0.4763067 0.033523522 -0.18266098
0000f0 17 4e ba 3e 4b a7 a5 be bc d9 9e 3e 48 75 a3 3e
       0.36387703 -0.32354197 0.31025493 0.31925416
000100 92 58 8c 3e f6 94 f7 3e f5 36 04 3d ec 19 f5 be
       0.27411324 0.48355836 0.032278974 -0.4787134
000110 28 a6 b6 3e 8f cb 42 3d a1 ee 1f 3c 4e 20 f5 be
       0.35673642 0.04755741 0.009761483 -0.4787621
000120 30 bb f8 bd 78 36 90 be e6 9b ff 3e a4 8c d5 3e
       -0.12145078 -0.28166556 0.4992363 0.41708863
000130 cb ea c7 3e 8f db b2 3e 5b 8b a1 be 2b 4b 5f be
       0.3904632 0.34933135 -0.31551632 -0.21806018
000140 ed eb 4f be 70 7c 01 be 7d 6c cd 3e 1d be 46 3e
       -0.20304842 -0.12645125 0.40121832 0.1940846
000150 19 e3 eb 3e 47 66 03 bd 36 80 e4 be 7e d5 0d be
       0.460717 -0.03207996 -0.44629067 -0.13850972
000160 21 7d b7 3e 67 9e 9c 3e 84 91 1f 3e 40 6b 1e be
       0.35837653 0.305896 0.15582854 -0.154706
000170 59 e1 f3 be b5 74 8b be f4 cd 84 3e f5 3b 54 be
       -0.47632864 -0.27237478 0.2593838 -0.20725997
000180 d2 55 85 3e c7 d1 19 3e 9b e9 35 be 33 0c 9c 3e
       0.26042038 0.1502143 -0.17764895 0.30478057
000190 72 34 2a be 1f c4 8d bc ef 69 46 be ff 7b f6 be
       -0.16621569 -0.017305432 -0.19376348 -0.48141477
0001a0 df e6 93 3d 7b a4 17 3e 40 10 85 be 2d a3 a2 3e
       0.072217695 0.14808838 -0.2598896 0.31765118
0001b0 5a dc dd be 98 5a fb be 09 99 a1 be aa ed 32 be
       -0.43332177 -0.49092555 -0.3156207 -0.17473474
0001c0 ce 64 6a bd 92 52 c9 bd 43 c6 69 3e 14 3b e2 be
       -0.05722504 -0.09830202 0.22829537 -0.44185698
0001d0 18 f4 b6 3d 8b dc 8d 3b f9 58 01 3e 3c aa 06 3f
       0.08933276 0.0043292693 0.12631597 0.5260351
0001e0 fb 89 a0 3e ea c6 92 be 7b e0 d2 be f1 a2 15 be
       0.3135527 -0.28667384 -0.4118689 -0.14612938
0001f0 0c 8f 81 be 85 fb 35 3e 5a 05 2a 3c e2 64 d0 3e
       -0.2530445 0.17771728 0.0103772525 0.40701967
000200 87 19 19 3e 75 77 d4 bd f9 48 8b 3c 64 60 0e 3e
       0.14951144 -0.10374347 0.01700257 0.13903958
000210 74 17 50 bd 25 81 d5 3e 20 fa ce be 66 01 78 3e
       -0.050803617 0.41700092 -0.40425205 0.24219283
000220 ac 75 a7 be cf 94 cb be 89 e2 c8 bd 09 67 71 3e
       -0.32706964 -0.3976197 -0.09808833 0.23574461
000230 9f 77 9c 3e ee d3 fc 3d e1 95 27 bd d0 a1 d0 bc
       0.30560014 0.1234511 -0.04091442 -0.025467783
000240 28 23 53 be 2b 96 b6 bd 4c ac 13 bd 62 f2 c6 3e
       -0.2061888 -0.08915361 -0.036052987 0.38856798
000250 6b e2 8a 3e 3a 68 d0 be f5 fd 37 bb 80 d2 ab be
       0.27125868 -0.4070452 -0.0028074954 -0.33559036
000260 ef be 9e bd c6 ff d1 be bb dc 15 3e aa 3a b4 be
       -0.077512614 -0.41015452 0.14634983 -0.35201007
000270 0c 5b ff 3e 6c 54 c5 3e 33 07 b0 be 8f 6b f8 be
       0.4987415 0.3854097 -0.34380493 -0.4851956
000280 8e ab 14 37 28 cb 17 be 4e cd ef 3d 18 00 c6 be
       8.861431e-06 -0.14823592 0.11709081 -0.38671947
000290 a9 92 4f 3e 41 f9 dc be e9 0c 8e be 4c c3 74 be
       0.2027079 -0.43158916 -0.27744225 -0.23902625
0002a0 a2 cf 75 3e f8 5e b6 bc cb b1 f6 be 25 23 87 be
       0.24004987 -0.022262082 -0.4818252 -0.26394
0002b0 25 9d 65 be 72 0e f6 be d5 84 9a 3d d5 49 46 3e
       -0.22423227 -0.48057896 0.07544867 0.19364102
0002c0 9e a0 b9 bd 16 c0 14 be 10 36 5a 3c 7f 3d c5 be
       -0.090638384 -0.145264 0.013318554 -0.3852348
0002d0 c7 b9 80 be ec 51 99 bc 6a b9 ed 3e 03 4a 17 be
       -0.25141737 -0.018715821 0.46430522 -0.14774327
0002e0 0b 40 85 3e 5b dd 5f be f7 10 00 be b6 e9 ff be
       0.26025423 -0.21861784 -0.12506472 -0.49982995
0002f0 67 a4 d4 3e 8a 5b fb 3e 56 17 dc bc ef c8 9e 3e
       0.4153168 0.49093276 -0.026866596 0.31012675
000300 da 82 cd 3e a8 ad 81 3e d7 ee 7a 3e 9c 8f fa be
       0.40138894 0.25327802 0.24505173 -0.4893769
000310 3a 3e f3 be 6c bd c4 be ae 74 1b 3e be 10 df be
       -0.47508413 -0.38425767 0.15181229 -0.4356746
000320 a8 59 c2 be a8 f5 90 be b4 e2 ee be 23 7c d7 3c
       -0.37959027 -0.2831242 -0.46657336 0.02630431
000330 cb 24 88 3d e8 04 9d be 10 f2 ae 3e f7 ea 40 be
       0.06647643 -0.30667806 0.34169054 -0.18839632
000340 bc 0c 0c be a7 c2 dd 3e bf 7c e3 3e 20 3b 5b bd
       -0.13676733 0.4331257 0.4443111 -0.053523183
000350 31 b4 b9 be 8e c4 7f be a0 87 8a 3d ea d7 9b 3e
       -0.36270288 -0.24977323 0.0676415 0.30438167
000360 f4 f9 85 3e d0 6f 6a be e1 2c fa be b0 ac e3 be
       0.26167262 -0.22894216 -0.48862365 -0.44467688
000370 72 3d 2e be 45 77 6e 3a 3e f1 6f be 32 5e d1 be
       -0.17015627 0.0009096752 -0.2343187 -0.40892178
000380 fd e9 4a bc 09 82 d3 be 16 16 e4 be 5d 02 d1 be
       -0.012384889 -0.41310146 -0.445481 -0.40822116
000390 d7 40 0a be ea de e6 3e ca a3 4b 3e ba 4e 80 bd
       -0.13501297 0.45091945 0.198867 -0.06265016
0003a0 4a cf f6 3d ce bb 20 3e 51 b1 b1 3a 73 ca c2 be
       0.12051256 0.15696642 0.0013556873 -0.38045081
0003b0 e8 9a ae be 15 04 b2 be 1c 4d 3c bc 27 da ef be
       -0.3410256 -0.3476874 -0.011492994 -0.46846125
0003c0 ec 44 bb bd a6 8e 4c be 5b 35 00 3f 33 6f d0 3e
       -0.09144005 -0.19976291 0.50081414 0.40709838
0003d0 d1 3f 92 3e 0f 86 93 3d 2c f0 1d be 0e 12 05 3e
       0.28564313 0.07203304 -0.1542365 0.12995169
0003e0 4e ab b4 be f1 32 5b be c9 b1 e3 bd 37 dd df bd
       -0.35286945 -0.21406151 -0.11117894 -0.10930865
0003f0 de 2c f9 be 3c 87 51 3e 20 bd d1 3e a5 90 8f be
       -0.48667043 0.20461744 0.40964603 -0.28040043

net.6.bias f4 [32]
000000 8c 94 78 bb 27 1d 3f 3b c0 d4 ea 3c 42 26 24 3c
       -0.0037930338 0.0029161663 0.0286659 0.010018887
000010 23 7e cc 3c 94 e8 81 3d f3 fc 97 ba 22 ce a6 b9
       0.02496249 0.06343189 -0.001159577 -0.00031815568
000020 76 59 0f 3c 64 89 1d 3c 76 2d 6f bd 58 d3 51 bc
       0.0087493565 0.009615276 -0.058392964 -0.012806736
000030 f6 e2 77 bc 6d f9 b2 bd 47 ff 00 bc e8 b5 24 3a
       -0.015129795 -0.087389804 -0.007873363 0.00062832097
000040 a3 28 3b bd a2 0f 29 3b 6a c7 92 bc 7b a6 6c 3c
       -0.04569305 0.0025796671 -0.017917354 0.014443989
000050 43 cd 03 3d 07 24 3a bc d7 34 40 3c 6c 52 d4 bb
       0.032178175 -0.011361129 0.011731348 -0.006479552
000060 a7 90 a5 bc e5 00 55 bc 86 32 86 bc 4c 81 c6 3c
       -0.020210577 -0.013000702 -0.016381513 0.024231575
000070 a3 e4 3e 3c 35 81 c0 bc 2e b2 0b 3c 2a cd 09 3c
       0.011651191 -0.02349911 0.008526368 0.008410731

net.8.weight f4 [32, 32]
000000 7b bf 51 3e 8f 9c c8 3e e9 8f 15 be 7e 85 e8 3e
       0.204832 0.39181945 -0.14605679 0.45414346
000010 aa 5e e0 bd f2 f2 9e be 9d 22 4e be d1 db 07 3d
       -0.10955556 -0.31044728 -0.20130391 0.033168618
000020 27 93 b6 bd 62 0d 83 3e 75 d0 90 be cf fe 19 be
       -0.08914786 0.25596148 -0.2828404 -0.15038608
000030 c9 7f 01 bf c7 1d d4 3e 4e c6 b6 bd c9 03 cf be
       -0.5058561 0.41428968 -0.08924542 -0.40432575
000040 8d 4c d3 bc db 4f 72 bb 5f b0 21 3e 9e a1 67 bd
       -0.025793338 -0.0036973867 0.15789936 -0.056550615
000050 b5 4b a5 3e 03 6d 2a be 8a 97 1b be 75 37 c0 bd
       0.32284322 -0.16643147 -0.15194526 -0.093855776
000060 e9 db ca 3d f8 25 d2 3e 7a ec eb bc 09 bf c8 3e
       0.09905226 0.41044593 -0.028799284 0.39208248
000070 32 cc c8 3e ec f5 8a be df 64 1c bd 4c 5c 8b be
       0.3921829 -0.27140749 -0.038182136 -0.27218854
000080 b0 39 57 3e 09 63 3c be da e6 1a 3e f5 a6 19 3d
       0.210181 -0.18397154 0.15127125 0.03751274
000090 95 be ad be 70 9d ac be 67 cd fc be 11 40 94 be
       -0.33934465 -0.33713865 -0.4937546 -0.2895513
0000a0 eb ae 11 3e 3d a6 14 3d 1a a7 c6 3e f5 7b e7 be
       0.14226882 0.03629135 0.38799363 -0.4521176
0000b0 70 16 29 bc f0 98 e8 be 8e ab 4d 3c 6f 65 43 3e
       -0.010320291 -0.45429182 0.012553109 0.19081663
0000c0 fd 0a ec be 49 80 e3 3e 1c 5c 1b be 97 86 e9 3e
       -0.46102133 0.4443381 -0.15171856 0.45610496
0000d0 e4 d6 a6 bd 75 3c 98 3e 22 70 eb 3e fa b8 21 be
       -0.08146456 0.29733625 0.45983988 -0.15793219
0000e0 74 b7 fd bd ba 92 89 3e ef f8 e1 be ae dc 98 3e
       -0.123885065 0.26869756 -0.44135234 0.29855865
0000f0 8d 7c a6 be 88 d3 f0 3e a2 bb ab be 17 9c 67 be
       -0.325169 0.47036386 -0.3354159 -0.22618137
000100 3c d6 b0 3e f1 0d 5c be f6 d2 e6 3e c2 50 ac 3e
       0.34538448 -0.21489693 0.45082825 0.33655363
000110 2d 38 fd 3e 5a 58 02 bf 8c fd 6f 3d 32 af 1c be
       0.4945692 -0.50916064 0.05859141 -0.15301207
000120 1b 7c e6 3d 81 16 c6 be e4 2c 4d 3e 52 40 db bc
       0.1125414 -0.38689044 0.20036656 -0.026764069
000130 e2 c8 81 be 81 26 f1 be 28 8d 67 3e 5f cb 45 be
       -0.25348574 -0.4709969 0.2261244 -0.19315861
000140 3c 24 c9 3e 72 95 c8 3d 59 d5 4e 3e fc 08 b4 bd
       0.39285457 0.097941294 0.20198573 -0.08790776
000150 8d 57 a7 bd b3 2c 4f be 3b 1c db be 96 9e b8 3e
       -0.08170996 -0.20231895 -0.42794976 0.3605849
000160 61 6d 86 be 50 97 9e 3e f8 cb 29 be f5 14 ab 3e
       -0.26255324 0.30974817 -0.16581714 0.33414426
000170 14 e0 d7 3e 13 72 9c be 96 ff f6 3e 64 f3 47 3d
       0.42163146 -0.30555782 0.48241872 0.0488161
000180 7d 12 ab be 0d 2a 46 3e 7d ea 8a 3e c5 ca fd 3e
       -0.33412543 0.19351979 0.27132025 0.49568763
000190 59 89 06 bf f1 bf fc 3e c3 e0 ae 3e 5b 63 f4 3e
       -0.52553326 0.4936519 0.34155855 0.47732052
0001a0 7f 5b 94 3e d3 05 7d be de d9 ce 3e a2 ec ed 3e
       0.28976056 -0.24709253 0.40400594 0.464696
0001b0 46 11 34 be bf 7b 8d bd 7c 21 e1 3e d0 2f dd 3e
       -0.17584714 -0.06908368 0.4397086 0.4320054
0001c0 5b 74 a2 3e af 53 bb 3e 4a ee 96 be b6 56 94 bd
       0.31729397 0.36587283 -0.29478675 -0.07243101
0001d0 4d 6a 3e be 65 67 9b 3e 7e ad e0 3d 22 36 cb be
       -0.18595238 0.3035232 0.10970591 -0.39689738
0001e0 de 47 f7 bd 93 21 e0 be 63 6b fa be 25 d6 e4 3e
       -0.120742545 -0.43775615 -0.48910055 0.4469463
0001f0 53 3d 83 be cf 26 60 3e a0 b6 df bd 8b 7e 29 be
       -0.25632724 0.21889804 -0.10923505 -0.16552179
000200 39 82 fb bb a4 47 ce 3e 1c 9e 86 bd 96 58 d5 3e
       -0.007675436 0.40289032 -0.06573126 0.41669148
000210 ec 85 9c 3e f5 4d af 3e 1c 7b e8 be b7 6c 71 be
       0.30570924 0.34239164 -0.45406425 -0.23576628
000220 c5 7a d1 be 98 47 bc bd 3e 15 e0 bd 43 8d e1 3d
       -0.40913978 -0.09193343 -0.109415516 0.11013272
000230 2f a4 e7 3e ee cb 6c 3e cf dc ba be 37 56 aa be
       0.4524245 0.23124668 -0.3649659 -0.33268902
000240 08 8e c9 3e 8a 67 61 3d dc 12 15 3e a8 6b 8b be
       0.39366174 0.055030383 0.14557976 -0.27230573
000250 75 c6 81 bd 96 fc 0a 3e 93 bb a8 be e3 0b b6 3e
       -0.06336681 0.13572916 -0.32955608 0.35555944
000260 68 46 84 3e 47 45 95 be 2e 79 5c be 6c 00 eb bd
       0.25834966 -0.29154417 -0.21530601 -0.1147469
000270 3b c6 a2 3d 5a 12 43 be 04 88 ef 3e f2 2f fa be
       0.07947966 -0.1904997 0.4678346 -0.48864704
000280 62 b4 98 be 40 fd 9b be 4c 30 14 3e be f6 8c 3d
       -0.2982512 -0.30466652 0.14471549 0.06883
000290 ec dc 08 be 4a 32 db 3e c8 4a d8 be 55 f5 44 3e
       -0.13365525 0.42811805 -0.42244554 0.19234212
0002a0 66 c6 92 be 45 13 02 be 86 f8 fe be 4b ef cd be
       -0.2866699 -0.12702663 -0.49798983 -0.4022163
0002b0 c3 e6 e2 be ef 67 5f 3e ad 71 8d be a3 8a 82 3e
       -0.44316682 0.21816991 -0.2762579 0.25496396
0002c0 0a 02 8c be 9a 21 ff bd 53 9d 13 3e fe d1 d5 3e
       -0.27345306 -0.12457581 0.14415483 0.41761774
0002d0 6e cc 14 be 32 01 85 3e e2 ee 1c 3e 4b ea a0 3e
       -0.14531109 0.25977474 0.15325502 0.3142875
0002e0 43 ce c0 3e f8 20 65 3e e6 46 17 be 46 13 0b be
       0.37657365 0.22375858 -0.1477314 -0.13581571
0002f0 e3 4e 1c 3e bf a3 96 3e 9d 12 a3 bc bb 3d 94 3e
       0.15264468 0.29421803 -0.019906336 0.28953347
000300 d0 67 9d be d6 f0 8d 3e 2a e8 8e bd 57 f3 ae be
       -0.30743265 0.27722806 -0.069778755 -0.3417003
000310 d5 41 80 be fc 6f c6 be 51 30 d6 3d 65 6c 9b be
       -0.25050226 -0.38757312 0.104584344 -0.30356136
000320 55 90 25 be 32 8b ab bc a1 6d 9b be b5 14 b0 bc
       -0.1616834 -0.020940397 -0.30357078 -0.021494249
000330 3c 13 79 bd c6 b7 32 3e 7f 75 a1 3e 9e bb 9f be
       -0.06080936 0.17452917 0.31534955 -0.31197828
000340 b7 5c 89 3e 18 43 72 bc 83 65 5a be 1a 3f 6a be
       0.26828548 -0.014786504 -0.21327786 -0.22875634
000350 44 12 0d 3e 94 11 e7 3d ba 56 a4 bc d6 14 a3 be
       0.13776499 0.1128265 -0.020060886 -0.31851834
000360 b9 94 a0 3e 83 0c ef 3d 07 ea 00 bf 96 ec c2 bd
       0.31363466 0.11672308 -0.503571 -0.095177814
000370 4d 27 4b be af 78 62 be 48 d3 a2 be 4d b0 c9 be
       -0.19839211 -0.2211635 -0.3180182 -0.3939232
000380 f4 5c 01 3f bb 36 ed be 4f f3 f4 3e 04 ff cc be
       0.5053246 -0.4633082 0.4784188 -0.4003831
000390 99 5f 06 be 2b 3d 5a be 3f f6 8d be df 1c 3b 3e
       -0.13122405 -0.21312396 -0.27726933 0.18272732
0003a0 ec ad 91 3e a1 43 ad be 4b 16 76 be 41 de 87 3e
       0.28453004 -0.3384066 -0.24031942 0.26536754
0003b0 21 0d 84 bd f6 8f 00 3e 4b 3a 87 3e 1f 27 44 be
       -0.06447817 0.12554917 0.26411662 -0.19155549
0003c0 9d 2d 8e be 86 70 46 3e 21 88 44 be 12 56 af be
       -0.27769175 0.19378862 -0.19192554 -0.34245354
0003d0 70 06 85 be 6a 01 74 be db c2 02 3f cd d5 ba 3d
       -0.25981474 -0.23828664 0.51078576 0.091228105
0003e0 16 b9 62 3e 7c 69 88 3d 76 9c ae be 2e 74 be 3e
       0.22140917 0.066607445 -0.34103745 0.37198013
0003f0 78 67 9b bd 0e a5 04 be 13 12 d3 3e 70 dc 80 be
       -0.075880945 -0.12953588 0.41224727 -0.2516818

net.8.bias f4 [32]
000000 a9 44 47 3b 17 92 c6 bb c1 c0 20 3c dc ac 1f bd
       0.0030405915 -0.0060598957 0.009811581 -0.03898321
000010 5a dd 94 3b 4b 3b 39 3c 0e 6c 16 bc 33 30 3b bd
       0.0045429887 0.01130564 -0.009181036 -0.045700263
000020 a7 91 80 3c 19 a5 03 bd f1 04 13 bc 5a b9 b0 3b
       0.015694452 -0.03213987 -0.008973346 0.0053931894
000030 d2 7b fd bc 77 bc 20 bc 07 06 2d 3b 18 71 0c 3c
       -0.030942831 -0.0098105585 0.0026401298 0.0085718855
000040 2e 3c 0b 3c f6 11 46 bb 25 d9 85 3b 4b 93 5a 3c
       0.008498235 -0.0030223108 0.0040847235 0.013340781
000050 a8 39 23 bb 6b 72 2a 3c c4 bb fa 3c 58 57 be bc
       -0.0024906192 0.010403256 0.030607112 -0.023235008
000060 51 7a 16 3c 02 43 bf 3c 58 d9 20 3c 74 96 77 bc
       0.009184436 0.023347382 0.009817444 -0.015111554
000070 5c 08 8d bc a7 2e a7 bc 43 a2 fc 3c fb 51 0a 3c
       -0.0172159 -0.020407988 0.030839091 0.008442397

net.10.weight f4 [3, 32]
000000 7a 71 92 be ed 72 a8 be 1b 40 96 be cf 9a 8d be
       -0.286022 -0.3290018 -0.29345784 -0.27657172
000010 0b f5 92 3d 5e 52 29 3f fd f7 d0 be db c4 a4 be
       0.071756445 0.6614131 -0.408142 -0.3218144
000020 40 79 ee be c5 0d 05 3d 9f 41 3e 3d 17 80 ea be
       -0.4657688 0.032483835 0.0464493 -0.4580085
000030 51 5d 9c 3e 16 7e 1e bf de 60 24 3f 4d 8e 05 3e
       0.30539945 -0.6191114 0.6421031 0.13042565
000040 96 52 94 bd ab 0f 85 be e3 ff a0 3e 13 9c 00 3f
       -0.072423145 -0.25988516 0.31445226 0.5023815
000050 01 68 06 bf f6 57 2e be d3 10 02 3f c8 cf 09 be
       -0.5250245 -0.17025742 0.5080692 -0.13458169
000060 18 44 03 bf 84 92 6d be a0 be bc 3c 1e a7 05 be
       -0.5127578 -0.23200423 0.023040116 -0.13052031
000070 01 d6 f1 be 1f 92 dc be 44 a2 3a 3e aa 16 e9 3e
       -0.47233585 -0.43080232 0.18225962 0.45525104
000080 82 f2 26 3f 16 e6 cc bd 6e 42 92 3e 1b 31 12 bf
       0.6521379 -0.10004823 0.28566307 -0.5710618
000090 73 ac ad 3e c3 d7 33 3f 71 92 cd 3e 1b 5d 84 be
       0.3392063 0.702511 0.40150788 -0.25852284
0000a0 8d ee 13 3f 57 5c 50 bf 35 b9 ae bd e8 91 5d be
       0.57785875 -0.813909 -0.08531419 -0.2163769
0000b0 46 dd 28 bf d2 f5 c1 be 82 9d 05 bf 5b d3 77 3e
       -0.65962636 -0.3788286 -0.5219346 0.2420172
0000c0 c5 b6 26 bc 29 43 a1 3e 15 f2 31 be 09 cf 18 3f
       -0.010175412 0.31496552 -0.17377503 0.5969091
0000d0 bf 22 15 3e d8 b7 11 3f e0 36 12 3f d4 e8 15 bf
       0.14564036 0.5692115 0.5711498 -0.5855839
0000e0 a3 e4 e5 be f9 83 e7 3e 8d 5a 21 3f fa 51 19 bf
       -0.44900998 0.45217875 0.63028795 -0.5989071
0000f0 60 ce 20 bd 0f 11 93 be 2f a9 28 3f e7 28 16 3f
       -0.039259315 -0.28723952 0.65883154 0.5865616
000100 62 a6 fc 3e 4e 83 bf 3e cd 2b 8d bd 11 64 24 3f
       0.4934569 0.37404865 -0.0689312 0.6421519
000110 64 44 a0 be 0a 52 03 3d 2b 65 3b be 47 e9 01 bf
       -0.31302178 0.03206066 -0.18300311 -0.5074658
000120 59 6a a6 be e7 70 35 3e 5b 4a 66 bd 23 59 e8 be
       -0.32503012 0.1771885 -0.056223255 -0.45380506
000130 83 24 af bd d2 67 f6 3d 39 2c f7 be 79 8c d1 3e
       -0.08551886 0.12031521 -0.48275927 0.40927485
000140 32 5b 16 bf ae 9d ab 3c fa 8c 10 bf 27 98 1f bf
       -0.58732903 0.020949211 -0.56465113 -0.6234154
000150 9d d1 86 bd 99 01 20 3f 57 83 25 3f a3 7e 84 3e
       -0.06582949 0.6250244 0.64653534 0.25877866
000160 0c 9a 0d 3f 94 eb bf be 5d 81 cb 3e 38 b5 dc 3e
       0.5531318 -0.3748442 0.39747134 0.4310701
000170 e4 a2 26 bf fa 17 06 bf 72 23 9b 3e d2 a2 9c 3d
       -0.650923 -0.52380335 0.3030048 0.07648243

net.10.bias f4 [3]
000000 a5 af b5 3a a7 61 f9 3c 71 7b 49 bb
       0.001386155 0.030442072 -0.0030743743

exp_avg f4 [32, 1]
000000 7e 6d 35 b7 01 f0 7e b5 7d 27 6c 37 78 de 90 b6
       -1.0813934e-05 -9.4971625e-07 1.407589e-05 -4.317433e-06
000010 8e f2 91 b7 0a be da 38 8a d7 90 36 70 52 69 b6
       -1.7398295e-05 0.000104304476 4.3166265e-06 -3.476769e-06
000020 33 93 d3 35 ca ae 17 b6 b8 c5 f9 36 d3 4e 9f 38
       1.5763566e-06 -2.2602494e-06 7.4437958e-06 7.596393e-05
000030 4a e9 af 36 a0 b8 89 37 4b 1b d9 36 08 00 d2 b8
       5.242565e-06 1.6417645e-05 6.4702813e-06 -0.00010013586
000040 13 21 99 b6 be 09 c3 38 77 2d 37 b7 fd 23 16 38
       -4.5636057e-06 9.300139e-05 -1.0918236e-05 3.5796304e-05
000050 a3 c3 38 37 72 7a 5a ba fe 88 4d 37 b5 7f 0a 37
       1.1012805e-05 -0.0008334286 1.2250848e-05 8.255175e-06
000060 85 99 ee 35 fa 87 a6 b7 a7 6e 8f b6 17 53 01 b7
       1.7777062e-06 -1.9852061e-05 -4.2746137e-06 -7.708345e-06
000070 27 dc a3 37 3f a1 01 b7 ec 52 e4 36 d4 59 41 36
       1.953363e-05 -7.726542e-06 6.804583e-06 2.8811528e-06

exp_avg_sq f4 [32, 1]
000000 00 b3 4f 33 53 60 8d 31 a7 4f 46 33 d0 07 d9 31
       4.8358743e-08 4.114591e-09 4.617291e-08 6.3164194e-09
000010 40 50 19 32 10 75 12 36 8c a5 31 30 2c e1 55 31
       8.924019e-09 2.1823835e-06 6.462748e-10 3.1123575e-09
000020 0a 87 69 32 f1 67 90 32 35 7e b9 33 f1 bb 5e 34
       1.3593089e-08 1.6811073e-08 8.637691e-08 2.0743734e-07
000030 06 b9 bc 32 a1 0c 85 32 a0 e2 1c 32 8d 2c d4 35
       2.197022e-08 1.548898e-08 9.131924e-09 1.5808197e-06
000040 3e c5 66 31 9e 45 60 33 44 2d ad 33 9c d6 87 33
       3.3581524e-09 5.221738e-08 8.064174e-08 6.3254646e-08
000050 fb 4d 3f 34 40 ca 82 39 21 bf 3e 33 5d 76 6b 31
       1.781663e-07 0.0002494622 4.4411653e-08 3.4264283e-09
000060 47 82 bd 33 b5 ff 05 32 89 ec 9a 33 a4 fb 60 33
       8.8246956e-08 7.79976e-09 7.214209e-08 5.238293e-08
000070 5c b0 d0 34 59 2e 93 33 ca 3e 31 32 90 09 45 34
       3.8871337e-07 6.8536515e-08 1.0317033e-08 1.8350534e-07

exp_avg f4 [32]
000000 89 2c 66 b6 ae ab b7 35 77 9f 14 33 e7 15 33 36
       -3.4298594e-06 1.3684528e-06 3.4603968e-08 2.6685827e-06
000010 98 24 0f b7 d6 46 97 38 3b 06 a5 34 4e 1a d7 b6
       -8.531984e-06 7.213435e-05 3.0738178e-07 -6.4105616e-06
000020 83 df 87 36 eb a8 4f b6 0b 67 ad 36 d2 9f 3a 36
       4.0493337e-06 -3.0943727e-06 5.1677976e-06 2.7809187e-06
000030 4c e5 b6 34 de 59 50 37 ba fc 03 35 05 05 9b b8
       3.4066977e-07 1.241869e-05 4.916907e-07 -7.391911e-05
000040 81 05 18 b6 e7 ad f3 37 b5 83 97 b5 cc 81 2e 37
       -2.2652969e-06 2.9048837e-05 -1.1288708e-06 1.0401429e-05
000050 ab 1a d8 b6 c5 31 7d b9 28 cc ab b5 8c b3 da 36
       -6.440406e-06 -0.00024146501 -1.279991e-06 6.5178083e-06
000060 5a f1 b3 36 6a 8a 8c b6 f7 f9 54 b4 5f 8b 31 36
       5.3627127e-06 -4.1884387e-06 -1.9834975e-07 2.645618e-06
000070 19 4d 2d 38 93 2b c8 b6 72 20 7b 36 3e 22 ba 35
       4.1318217e-05 -5.965537e-06 3.74208e-06 1.3868046e-06

exp_avg_sq f4 [32]
000000 fb 43 16 31 52 e8 cf 30 19 4f 08 31 5a 38 5c 32
       2.1866515e-09 1.5127262e-09 1.9835567e-09 1.2818498e-08
000010 fb c1 0a 31 e4 1e f3 32 c4 6d 95 2f 2a 96 9b 30
       2.0191908e-09 2.830297e-08 2.7180935e-10 1.1320413e-09
000020 ef 8b a7 31 84 1a 24 31 59 50 27 32 3e 8c 8b 32
       4.8762483e-09 2.3880213e-09 9.738948e-09 1.6245504e-08
000030 38 9f 03 30 06 0d 06 32 43 b9 44 31 c5 5a f2 32
       4.7883786e-10 7.802788e-09 2.8627063e-09 2.8213785e-08
000040 6c 3f 31 30 dd 06 98 31 a6 63 95 32 4e d1 aa 31
       6.4482353e-10 4.4245625e-09 1.7391198e-08 4.9714464e-09
000050 5f 0b 52 30 a0 27 6f 35 a0 a6 b3 30 d9 23 4b 31
       7.6413714e-10 8.90921e-07 1.3071322e-09 2.9560765e-09
000060 72 dd c1 31 7c d5 80 30 41 d3 a5 31 8a da d2 31
       5.6422147e-09 9.373902e-10 4.826149e-09 6.1366494e-09
000070 22 d8 0b 33 ba f9 b9 31 ad 43 a4 30 44 65 03 32
       3.256003e-08 5.4125993e-09 1.1951805e-09 7.648229e-09

exp_avg f4 [32, 32]
000000 d6 b8 ed 34 ff 0e 33 35 07 a8 2d b4 41 62 2c 35
       4.4279176e-07 6.670452e-07 -1.6173009e-07 6.421797e-07
000010 e7 d1 46 b4 db cf 16 b5 59 b7 bf b4 cf 01 00 35
       -1.8516549e-07 -5.6181824e-07 -3.5709925e-07 4.768635e-07
000020 b9 84 23 35 89 e4 0f b5 e0 9c 18 35 06 7a 78 32
       6.091537e-07 -5.3604214e-07 5.6852696e-07 1.4463245e-08
000030 03 b9 b5 34 0f 4f 0a 34 f2 7f 31 34 f6 31 5a 35
       3.384849e-07 1.2881013e-07 1.6530956e-07 8.128403e-07
000040 c9 d0 da 34 5a f7 00 b4 e0 ca 5b b4 32 bd 58 34
       4.0757575e-07 -1.2010915e-07 -2.046977e-07 2.0185396e-07
000050 e6 13 67 b4 16 6b a3 34 ca b5 9c b4 b9 3b e1 34
       -2.152079e-07 3.043903e-07 -2.9189533e-07 4.195297e-07
000060 3c 70 0d b5 9b ee 46 b3 75 0b 17 b4 19 fc b0 b4
       -5.2689916e-07 -4.6317478e-08 -1.4067139e-07 -3.296598e-07
000070 c9 a8 10 b4 72 d7 2b b5 dd 17 10 35 18 cc 1c b5
       -1.3472449e-07 -6.401598e-07 5.3678906e-07 -5.8411524e-07
000080 24 0d ce 35 9f 8e ce 35 86 e4 3c b5 5c de e2 35
       1.535202e-06 1.5389704e-06 -7.0368003e-07 1.6903027e-06
000090 e8 1e 2b b5 81 fd 9a 34 46 61 91 b5 92 74 96 35
       -6.374744e-07 2.8869184e-07 -1.0831652e-06 1.1209797e-06
0000a0 2e 30 da 35 db f4 bf b5 77 74 d9 35 b2 1c af 34
       1.6256288e-06 -1.4301871e-06 1.6201656e-06 3.261717e-07
0000b0 ee c0 d0 35 b8 2f be 34 a7 f6 8d 35 18 e2 bd b4
       1.5553358e-06 3.5424978e-07 1.0577104e-06 -3.5368498e-07
0000c0 a3 a1 cd 35 2d f1 93 34 d2 23 8d b5 22 6c 43 35
       1.5320733e-06 2.7556362e-07 -1.0515744e-06 7.2800515e-07
0000d0 e4 3d 90 b5 f2 72 22 b4 17 30 78 b5 a5 a2 b7 35
       -1.0746849e-06 -1.5129243e-07 -9.245718e-07 1.3681898e-06
0000e0 51 9f c8 b5 4b 56 92 b5 2d 83 59 b5 a4 e2 a8 b5
       -1.4947528e-06 -1.0902962e-06 -8.1029685e-07 -1.2582937e-06
0000f0 83 88 40 34 72 8b f5 b5 22 84 e5 35 ce 0d d3 b5
       1.7931056e-07 -1.8294506e-06 1.7100285e-06 -1.5724743e-06
000100 0f 0e 76 36 c1 26 59 36 81 00 7b b6 0b 35 49 36
       3.666504e-06 3.2358078e-06 -3.7402208e-06 2.998221e-06
000110 ee ab 88 b6 c2 85 80 b6 0d 9c a7 b6 ea a4 a0 36
       -4.073131e-06 -3.8302687e-06 -4.9951545e-06 4.78757e-06
000120 52 2b 53 36 e0 27 7d b6 c3 d0 57 36 a8 85 77 36
       3.1466666e-06 -3.7723148e-06 3.2159012e-06 3.6883666e-06
000130 09 ea 80 36 d2 c7 93 36 5f 73 a7 36 d9 6d 97 36
       3.8419425e-06 4.4042035e-06 4.990419e-06 4.5129386e-06
000140 31 fa 7b 36 c2 9c e1 35 b7 ba a7 b6 01 d8 70 36
       3.7547545e-06 1.6809429e-06 -4.9987243e-06 3.5888518e-06
000150 d6 80 a9 b6 9d be b5 37 57 7d 9b b6 73 ab 8e 36
       -5.051591e-06 2.1665643e-05 -4.6339514e-06 4.251889e-06
000160 1b ca 71 b6 1a 66 a7 b6 9d d6 6b b6 5d 9d a0 b6
       -3.602944e-06 -4.988874e-06 -3.514265e-06 -4.786691e-06
000170 ff 62 08 b6 89 37 3e b6 ef 0c 4f 36 33 26 5d b6
       -2.0323203e-06 -2.8344532e-06 3.0852932e-06 -3.29538e-06
000180 b3 ca 95 36 8b 73 94 36 5d eb a2 b6 a9 4d 99 36
       4.4641433e-06 4.4241947e-06 -4.855376e-06 4.568796e-06
000190 f8 6d be b6 6a 88 13 36 64 ff 6a b6 d5 5b 79 36
       -5.6752433e-06 2.198411e-06 -3.5017374e-06 3.7157345e-06
0001a0 69 dc 97 36 18 e8 90 b6 db 1f 98 36 83 de fb 36
       4.52581e-06 -4.3185537e-06 4.5336615e-06 7.5062867e-06
0001b0 5f f5 96 36 bc be 01 37 df 96 55 36 43 df 08 b6
       4.4989133e-06 7.733408e-06 3.1827292e-06 -2.0395535e-06
0001c0 14 c3 95 36 ab 0d c8 36 6a 99 57 b6 9c 7e 8a 36
       4.463256e-06 5.9620556e-06 -3.2126795e-06 4.1274598e-06
0001d0 8f 0f 5e b6 3f 0d a4 35 e2 22 42 b6 e4 75 8d 36
       -3.3089634e-06 1.2222807e-06 -2.8928557e-06 4.2158517e-06
0001e0 5b c1 93 b6 46 c8 52 b6 ad 6c 65 b6 d3 eb 84 b6
       -4.403451e-06 -3.1409013e-06 -3.4186917e-06 -3.96136e-06
0001f0 ae 01 2f 36 14 97 9c b6 fc 4c 9b 36 7d 5b 96 b6
       2.607801e-06 -4.66675e-06 4.628322e-06 -4.480999e-06
000200 92 be 3c 35 74 76 34 35 0e be 6c b4 82 d5 3c 35
       7.0312774e-07 6.72276e-07 -2.2048354e-07 7.034615e-07
000210 02 fe 36 b4 3e d9 aa b4 bb a6 47 b5 8b f0 3e 35
       -1.7042478e-07 -3.1823032e-07 -7.43759e-07 7.113055e-07
000220 ab f4 38 35 1b 2c 37 b5 99 18 39 35 90 46 ab 33
       6.890138e-07 -6.8236994e-07 6.8953665e-07 7.975643e-08
000230 42 d8 43 35 00 d1 c2 33 30 28 4e 35 36 de b4 34
       7.295786e-07 9.071846e-08 7.679946e-07 3.3689292e-07
000240 d8 21 3f 35 a8 ba 95 b1 4e 35 4c b5 94 f8 8f 34
       7.1202294e-07 -4.357691e-09 -7.607349e-07 2.681669e-07
000250 e5 43 4f b5 d0 a8 6b 33 66 0a 30 b5 69 b7 41 35
       -7.721231e-07 5.4868735e-08 -6.558024e-07 7.2165e-07
000260 ec d6 37 b5 8f 08 56 b5 7f f0 c7 b4 3c 85 4d b5
       -6.8485565e-07 -7.9733667e-07 -3.7241622e-07 -7.656233e-07
000270 63 4d 9c b4 ad cb 46 b5 52 08 3d 35 63 23 37 b5
       -2.911357e-07 -7.4057135e-07 7.0420094e-07 -6.8224307e-07
000280 a8 38 ae 36 70 13 b3 36 72 b5 e8 b6 ec bb b6 36
       5.1921998e-06 5.3368785e-06 -6.935262e-06 5.4458997e-06
000290 d3 26 ca b6 4d cb bd 36 4f 16 94 b6 da ab 91 36
       -6.024589e-06 5.6563063e-06 -4.413341e-06 4.341343e-06
0002a0 a7 13 b6 36 c2 4e a9 b6 ce 03 b6 36 82 70 60 36
       5.4263105e-06 -5.045761e-06 5.4244656e-06 3.344409e-06
0002b0 f4 75 ab 36 ac ed 52 36 3a 75 a7 36 6c a0 ae b6
       5.1099287e-06 3.1430782e-06 4.990635e-06 -5.2042797e-06
0002c0 a8 80 ac 36 70 31 8c 36 10 37 a4 b6 b0 2b f8 36
       5.140977e-06 4.1780804e-06 -4.893991e-06 7.396062e-06
0002d0 36 0c 9e b6 6e ae 38 b7 3b 92 bd b6 6f d1 9d 36
       -4.7101885e-06 -1.1007867e-05 -5.6496624e-06 4.703346e-06
0002e0 42 11 ae b6 45 86 ae b6 2c f7 02 b7 46 73 91 b6
       -5.187613e-06 -5.201235e-06 -7.806153e-06 -4.3347563e-06
0002f0 5b 8b a8 36 75 2d b6 b6 b3 0a b9 36 10 0d b4 b6
       5.0230133e-06 -5.4293146e-06 5.514675e-06 -5.3659387e-06
000300 1d e2 f8 36 87 3d fc 36 5d c1 f4 b6 5e ef fe 36
       7.417299e-06 7.517348e-06 -7.294277e-06 7.597656e-06
000310 bc 38 f7 b6 b8 25 0a 37 44 05 ef b6 fd a2 f1 36
       -7.3677784e-06 8.234223e-06 -7.123368e-06 7.201334e-06
000320 55 16 fd 36 e8 41 f8 b6 6e 5a fc 36 b4 3c dc 36
       7.5425874e-06 -7.3986484e-06 7.5207126e-06 6.5635777e-06
000330 a4 ca f7 36 be d0 e4 36 cf 66 eb 36 e3 fb 10 b7
       7.384764e-06 6.8192303e-06 7.0155143e-06 -8.641716e-06
000340 b5 54 f8 36 af 2e da 36 60 e4 eb b6 56 cb f1 36
       7.400837e-06 6.502341e-06 -7.030132e-06 7.206031e-06
000350 56 94 ec b6 19 3f 2a 37 98 ad ea b6 da 86 f5 36
       -7.0506167e-06 1.0147481e-05 -6.9939524e-06 7.317268e-06
000360 37 53 f9 b6 97 3b ea b6 62 9e ed b6 01 3c f2 b6
       -7.4304658e-06 -6.9806806e-06 -7.0815886e-06 -7.2191474e-06
000370 61 4a 05 37 0a ee 00 b7 cb aa fd 36 ee a5 fb b6
       7.944735e-06 -7.684817e-06 7.5598705e-06 -7.4996997e-06
000380 fa 6c 89 35 51 6c 9b 35 9d ef 96 33 c7 f9 a1 35
       1.0239012e-06 1.1579924e-06 7.028505e-08 1.206813e-06
000390 73 15 49 33 e4 90 dc 34 2c ca 1b b5 07 77 41 35
       4.6818467e-08 4.1083615e-07 -5.80362e-07 7.207131e-07
0003a0 57 10 9d 35 c7 2b 88 b5 51 37 9a 35 fb c8 15 35
       1.1702167e-06 -1.014553e-06 1.1489993e-06 5.579929e-07
0003b0 09 71 81 35 6e ba da 34 26 e8 c7 34 75 99 cb b4
       9.644147e-07 4.074131e-07 3.723555e-07 -3.792335e-07
0003c0 c5 d1 85 35 a2 39 5d 35 37 6e d9 b4 8a 36 f4 b2
       9.970323e-07 8.241278e-07 -4.0499592e-07 -2.843014e-08
0003d0 d9 bd eb b4 f7 8d ae 35 c9 d3 bb b4 b3 be 6b 35
       -4.3910293e-07 1.3005327e-06 -3.4985558e-07 8.7821826e-07
0003e0 42 48 8d b5 32 94 9a b4 9c 92 44 32 32 a1 3e b5
       -1.0526348e-06 -2.8792562e-07 1.1442037e-08 -7.1015086e-07
0003f0 d4 65 2c 35 cc 38 a6 b5 e5 bd 9d 35 b0 0b 98 b5
       6.422317e-07 -1.2384494e-06 1.1752678e-06 -1.1328284e-06
